scotland_yard_1v1save/learner/module_state/pol2/module_state_dir/module_state.pt (torch, 553090 bytes, 11 tensors)

encoder.actor_encoder.net.mlp.0.weight f4 [256, 7]
000000 2d b3 20 3e 13 2f d2 3d 00 8f be 3e ae cf a5 3e
       0.1569335 0.10262885 0.37218475 0.3238501
000010 8b 4d 73 3e 6d 3b 14 3e c0 04 bb 3e 7e fe 9c 3d
       0.23760049 0.14475794 0.3652706 0.07665728
000020 21 85 b9 3c f6 33 af ba c5 9e a2 bd f0 b7 d2 3e
       0.022646489 -0.0013366926 -0.07940439 0.41155958
000030 92 3b 81 3e f5 7d dc 3d 45 47 40 3e 75 3f 83 bc
       0.2524076 0.10766212 0.18777187 -0.01602147
000040 1e f4 8a 3d 36 8a 51 3e c5 01 6a 3e 4a 3c 2a 3e
       0.06784843 0.2046288 0.22852238 0.16624561
000050 47 f7 61 be a7 b1 a4 be 42 c1 95 3e aa e9 3c 3d
       -0.22066985 -0.32166788 0.29249007 0.046121277
000060 7f 79 9b 3e 5f 2e c5 3e ed 3c 89 be c3 c2 01 be
       0.30366132 0.3851194 -0.26804295 -0.12671952
000070 61 ab 9f 3e 2f 20 aa bd 14 9b 21 3e f8 24 94 be
       0.3118544 -0.0830692 0.15781814 -0.28934455
000080 63 5d 93 3e c3 ab b4 3e 19 d2 ab be 49 2f af 3d
       0.28782186 0.35287294 -0.3355873 0.08553941
000090 29 7d a4 be a5 8d a4 3d 26 a9 28 3d c7 50 8e 3e
       -0.3212674 0.08034829 0.041176938 0.27796003
0000a0 7e 79 a9 3e 99 14 80 bd ec 67 d7 bd a8 41 a5 be
       0.33100504 -0.06253929 -0.105178684 -0.32276654
0000b0 28 5b 15 3e 4e 52 ff bd 2b fb 9e 3e 3d 2c 52 be
       0.14585555 -0.1246687 0.31051 -0.20524688
0000c0 d7 8f 48 3e 83 9c c7 3e 92 a2 91 be e4 30 99 be
       0.1958612 0.38986596 -0.28444344 -0.29920113
0000d0 77 1a cb 3e 62 54 92 be f7 b1 a5 3d 30 a8 d8 bd
       0.3966863 -0.28580004 0.08090585 -0.10578954
0000e0 4e 1e 91 3e 8f 4b 91 bd b3 80 61 be ec 61 8d 3e
       0.28343433 -0.0709449 -0.22021751 0.2761377
0000f0 1f fa 46 bc 65 49 19 3e 75 b2 e2 bd 66 4e 7a bd
       -0.012144594 0.14969404 -0.11069194 -0.061109923
000100 16 e5 bb bb 83 a7 eb 3d 36 56 5a be 52 fd 6a 3e
       -0.0057340963 0.1150656 -0.2132195 0.22948197
000110 d1 27 9a be 7b 41 43 be 7e d6 5e 3e b9 cc 03 3e
       -0.30108503 -0.19067948 0.2176151 0.12871064
000120 51 43 28 3e 57 20 53 be ba d1 23 3e 69 cb b1 3c
       0.16431929 -0.20617805 0.15997973 0.021703439
000130 12 74 45 3e 5b bc 92 3e 1a 81 59 be 75 9d b9 3d
       0.19282559 0.2865933 -0.21240655 0.09063236
000140 8c ad 37 bd 2e af 21 3e 86 13 ad bd 9f 3d a3 3e
       -0.04484324 0.15789482 -0.084509894 0.3188295
000150 6a 2e b4 3e 59 0c c9 3d 08 96 37 bc 59 6f 3e be
       0.3519166 0.09816808 -0.011205204 -0.18597163
000160 2d be 3f 3e 3d 12 93 be c8 c1 8b 3d c4 2f 8c 3d
       0.1872489 -0.28724852 0.0682407 0.06845048
000170 73 e9 29 3e f2 a7 80 be 61 17 5e bd 48 c1 4e 3e
       0.1659296 -0.25128132 -0.054221515 0.20190918
000180 34 77 21 3e 2a 46 6f 3e 85 57 85 3e 65 65 86 3e
       0.15768129 0.23366609 0.26043335 0.26249233
000190 48 a8 33 bd 5b 02 27 3e 25 d3 2b 3d 8c 97 16 3e
       -0.043861657 0.16309492 0.04194941 0.14706248
0001a0 f8 9b 09 3e 94 f9 27 be 9f 3a 70 3e 90 6e 93 3e
       0.13438404 -0.164038 0.23459862 0.2879529
0001b0 f9 0e 11 be 60 09 31 3e 1c 3b 90 be 4d 7e 50 3c
       -0.14165868 0.17288733 -0.28170097 0.012725425
0001c0 36 22 49 3c 66 87 3e 3e 91 82 6f be 05 66 8d 3d
       0.012276223 0.18606338 -0.23389651 0.06904224
0001d0 06 a1 df bd 91 43 bd bd e4 90 96 be 0f 33 56 be
       -0.10919385 -0.09241403 -0.29407418 -0.20917915
0001e0 9d be 51 3e 37 a5 59 be a3 9a 35 be 1c be 48 be
       0.2048287 -0.2125443 -0.1773477 -0.19603771
0001f0 0e ca a8 be fb 13 35 be c0 6d f6 bc e9 8e 66 be
       -0.32966655 -0.17683403 -0.03008163 -0.22515453
000200 7a 1c ab 3e 2d 17 9d 3e bd 89 5d 3e dc 15 9b 3d
       0.33420163 0.30681744 0.21634574 0.07572529
000210 ee 8b 87 3e 6d df a0 3e ea 34 0a be 9c 01 92 be
       0.26473945 0.3142046 -0.13496748 -0.28516853
000220 b7 2c 5f 3e cb 52 37 3e 78 8b 1e be e3 e4 a0 be
       0.21794401 0.17902677 -0.1548289 -0.31424627
000230 89 c8 5d 3e 84 85 4f 3e 6e 6a ae bd 2d 98 e8 bd
       0.2165853 0.20265776 -0.085163936 -0.1135715
000240 6f 73 3a 3e 6f e6 04 3d 4a 04 a4 3e 31 e8 f0 3e
       0.18208097 0.03244632 0.32034522 0.47052148
000250 44 02 82 be eb cc 64 be 5f 93 1e be a8 a2 47 3e
       -0.25392354 -0.22343795 -0.15485905 0.19495642
000260 d0 3c 42 3e 40 ee 46 be 7e 81 4d 3e 3e 7d 8f 3e
       0.1896851 -0.19426823 0.20068929 0.2802524
000270 13 66 99 3d 4d 44 a2 3d 19 09 53 be 97 08 8a bd
       0.07490172 0.079231836 -0.20608939 -0.0673992
000280 ff 1c aa be d4 af 5e 3e 63 58 b1 3d 0a 5b ab 3e
       -0.33225247 0.2174676 0.086594366 0.33467895
000290 a4 1f 1b be 7e df 7d bd 0d ab 72 be 01 4c a2 bd
       -0.15148789 -0.061980717 -0.23698063 -0.07924653
0002a0 46 89 a6 3e 28 71 13 be a9 c1 68 3e 6f fd fc 3d
       0.32526606 -0.14398634 0.22730125 0.12353026
0002b0 22 3e 5a bc 3f a7 bd 3e 12 d2 12 be dd a6 ee bd
       -0.013320478 0.3704166 -0.14337948 -0.116529204
0002c0 a4 72 54 be bb fe 57 be 2c 25 a4 be 9f f0 a5 3e
       -0.20746857 -0.21093266 -0.3205961 0.32410142
0002d0 ef 17 1e 3d 39 40 5f 3d 44 32 86 be 90 83 68 bd
       0.038597044 0.054504607 -0.26210225 -0.056766093
0002e0 56 fb b6 be 84 b6 a7 3e e0 6d ae 3e 84 59 01 be
       -0.3573863 0.32756436 0.34068203 -0.12631804
0002f0 ff c3 3e bd 7a 9d cb 3d fe af 8e be ea 93 63 3e
       -0.046573635 0.09942146 -0.27868646 0.22224393
000300 1d 68 cd bc c8 e0 b9 3e 76 4c ba 3c 8e 65 a6 be
       -0.02507406 0.36304307 0.022741538 -0.32499355
000310 60 c4 63 be de ce a7 bd 06 0a 15 3e 03 9b 47 be
       -0.2224288 -0.08193754 0.14554605 -0.19492726
000320 99 d0 b8 3d 1f 93 d9 3d 39 ea 02 3c 43 ef a6 3e
       0.09024162 0.10623764 0.007990413 0.32604417
000330 de 72 43 be ca d8 ae be 33 05 a7 3e 3c 14 92 bd
       -0.19086787 -0.34149772 0.32621154 -0.07132766
000340 81 e2 bb be 27 e5 76 be b2 61 8d be 38 74 ae be
       -0.36696246 -0.24110852 -0.27613598 -0.34073043
000350 92 86 b8 bb 3b 1b 0c 3e 68 f9 55 3e 77 48 12 3e
       -0.0056312764 0.13682263 0.20895922 0.14285456
000360 39 56 b1 3e 78 e9 88 3e 8c 2d db 3d 29 83 95 3e
       0.34636095 0.26740623 0.10702047 0.2920163
000370 25 96 ec bd e7 ef e4 3d b4 01 a4 3e e5 7a 98 be
       -0.11552075 0.1117857 0.3203255 -0.2978126
000380 22 65 b2 be 68 8e 91 bd d2 59 fe bd f2 dc 4b 3d
       -0.34842783 -0.0710724 -0.124194756 0.049771257
000390 d0 48 43 bc 1f 80 b2 3e d7 36 c3 bc 73 34 66 3e
       -0.011919215 0.34863374 -0.02382986 0.22480945
0003a0 ba 79 9f 3e f3 bc a7 3e cd 07 32 3e f3 2c a9 3e
       0.31147557 0.32761344 0.17385788 0.33042106
0003b0 af 36 d9 bd 1d e0 ba be c7 d9 6e be 11 4d 9a 3e
       -0.10606133 -0.3649911 -0.23325263 0.30136922
0003c0 41 4c a5 3d d9 23 fd bd 8f b6 aa be 7f ec 51 be
       0.08071185 -0.12360353 -0.33342406 -0.20500372
0003d0 48 f4 ac 3e b4 ce c9 3d 4a ac bd be 04 f0 61 be
       0.33780122 0.098538786 -0.3704551 -0.22064215
0003e0 d7 af bf 3e c4 5e 79 3e 7c 4b fa 3d c2 f0 93 bb
       0.37438843 0.24352556 0.12221429 -0.0045147846
0003f0 ea c9 80 be d8 76 36 be 91 a5 64 3e 65 e5 bb be
       -0.25154048 -0.17818773 0.22328784 -0.36698452

encoder.actor_encoder.net.mlp.0.bias f4 [256]
000000 81 c4 9c be 99 5a 90 be ec 6d aa 3c b7 1b 65 3e
       -0.3061867 -0.2819412 0.020804368 0.22373854
000010 1b 52 9a 3e a3 36 a6 bc bb 10 8e be 3e 79 18 be
       0.30140767 -0.020289725 -0.2774714 -0.1489
000020 1e 53 f6 3c ca 12 26 be aa 69 4e 3e 33 c0 04 3e
       0.03006893 -0.16218105 0.20157495 0.12963943
000030 28 28 4b be 57 e2 7c 3d 87 25 e9 ba 68 9a 14 3d
       -0.19839537 0.061739292 -0.0017787673 0.036280066
000040 2e c0 db 3d dd e1 03 bc 73 92 d7 3d bc d9 8e be
       0.10730015 -0.0080494555 0.1052598 -0.27900493
000050 a2 4b 10 3e eb 1e 32 be 91 79 c3 bd 98 b1 a4 3e
       0.14091352 -0.17394607 -0.09544671 0.32166743
000060 5b 8e e1 bd d9 c4 65 3e 30 8b 9e bd 3c eb e0 bc
       -0.1101348 0.22438373 -0.07741392 -0.027455918
000070 f0 58 e4 bd 31 cc 45 bc 44 ed 3b bd db 36 4f 3e
       -0.11149776 -0.012072609 -0.04588057 0.2023577
000080 cf ed 71 3d 9c 1a 7d 3e 41 27 9f be 20 63 c9 3d
       0.059064683 0.24717182 -0.31084636 0.0983336
000090 b1 66 87 3d d3 8b 99 3c 86 32 61 3e a4 47 c5 3e
       0.06611384 0.018743431 0.2199193 0.3853122
0000a0 84 9c 50 be 3c be 6a be 2a 53 88 3e 2f 5d 3f be
       -0.20372206 -0.22924131 0.2662595 -0.1868789
0000b0 58 0e e6 3d a8 78 96 bd 08 f4 86 3e 73 0d 27 3e
       0.112332046 -0.07347232 0.26358056 0.16313724
0000c0 68 a9 50 3e d5 26 70 3e fa 63 1e 3e c5 0a 0a be
       0.20377123 0.23452313 0.15467826 -0.13480671
0000d0 7b 5b 98 be ff b6 8e 3d 5f 4d e3 bd 2e 80 84 be
       -0.29757294 0.069684975 -0.11098742 -0.25879043
0000e0 eb 70 2e be b0 95 76 be 89 e0 7d bd 40 f8 0c 3e
       -0.17035262 -0.24080539 -0.06198171 0.13766575
0000f0 b3 1b 96 3e 48 6b 86 bd a2 27 c2 be 6a 13 87 3d
       0.29318008 -0.06563431 -0.37920862 0.065955
000100 88 ff 5e 3d f0 b3 e5 bd 21 ac 16 bd 47 e5 bf be
       0.054442912 -0.11215961 -0.03678525 -0.37479612
000110 f0 e8 06 be 97 4b 0c 3e 37 50 a6 3e 42 8a 4e 3d
       -0.13174796 0.1370071 0.32483074 0.05042482
000120 d4 05 af 3e 14 99 a9 3e 29 98 c1 3d 97 3b 81 bd
       0.34184134 0.33124602 0.0945285 -0.06310194
000130 9d 9b 91 3e f4 fe 69 bc ea ac 57 be 43 9f 43 3c
       0.28439036 -0.014281977 -0.21062055 0.011939826
000140 41 ee d9 3d e4 9e ea b9 8d 2a 40 3e da f6 c6 bd
       0.106411465 -0.0004475034 0.18766232 -0.09715052
000150 ad e2 21 be 7b 3b 93 3e ed ba 41 be 1c e5 46 3e
       -0.15809126 0.28756317 -0.18918963 0.19423336
000160 6f f6 33 be 79 ad a8 3e ac b6 4a 3d 1f 03 0b 3e
       -0.17574476 0.3294485 0.049490616 0.1357541
000170 ca 5c c0 be d3 8a 3b be 79 44 01 3d c9 a3 6e 3e
       -0.37570792 -0.18314676 0.03155944 0.23304667
000180 9a 32 40 3d 11 15 23 be 79 9f 93 be a1 f4 02 be
       0.046923257 -0.15926005 -0.28832605 -0.12788631
000190 88 3c 59 3d 9e e6 89 3e a7 4e a8 3e c4 7b 5e be
       0.053036243 0.2693376 0.32872507 -0.217269
0001a0 d9 6e 38 be 54 c6 a9 be 9f 6b 8d be ca 06 ac 3e
       -0.18011035 -0.33159125 -0.2762117 0.3359893
0001b0 d5 c0 80 be 70 cd 1f 3e 2d 49 4b 3e 58 02 2e 3e
       -0.2514712 0.15605712 0.19852133 0.16993082
0001c0 22 61 72 bd 0b 8b 6a be 42 2a 80 be 15 b7 c2 3e
       -0.059174664 -0.22904603 -0.2503224 0.38030306
0001d0 d7 f3 f7 3d b7 ad 14 3e 41 65 b0 3e 2c 86 85 3e
       0.12107056 0.14519392 0.3445225 0.26078928
0001e0 ff 60 40 be eb 1c f6 3d 7d 65 f9 3c dd 7e ba be
       -0.18787001 0.120172344 0.030443901 -0.36424914
0001f0 3e 5f ac be 98 22 90 3e d9 c6 b2 3e a2 9a 86 3e
       -0.33666414 0.28151393 0.34917334 0.2628985
000200 78 03 9a 3e c6 cd e0 3d 92 46 4a 3e 21 4c 9b be
       0.3008077 0.10976748 0.19753483 -0.3033152
000210 7a 12 9f be 8f 29 89 be bf 05 1f 3e 3c fa 2a be
       -0.31068784 -0.2678952 0.15529536 -0.1669702
000220 75 32 91 3e 07 b9 df bd 7e b4 9d 3d ae a5 ef 3d
       0.28358808 -0.10923963 0.07700442 0.11701523
000230 f4 9a 39 be b5 60 e8 3d 7b 8c 8a bd 7e 4a 53 be
       -0.18125516 0.113465704 -0.06765076 -0.20633885
000240 54 86 19 be 08 e9 77 be 2f f7 8f be 9c 5d e2 bd
       -0.14992648 -0.24209988 -0.28118274 -0.11053011
000250 8b 73 3f 3e 64 3b d4 3c 70 c1 aa 3d 92 85 39 3d
       0.1869642 0.025907226 0.083376765 0.0452934
000260 d8 bb 3a be 77 ca cd bc 97 ca 8e 3e 77 4e 9f 3e
       -0.18235719 -0.025120957 0.2788894 0.3111455
000270 0f 85 76 be 43 ee 3d be 9f d8 8f 3e a2 43 a5 3e
       -0.24074195 -0.18547921 0.28094956 0.32278162
000280 39 90 95 3e b8 bb 11 be f5 34 5e 3e 1b 81 47 3e
       0.29211596 -0.14231765 0.21699889 0.19482844
000290 0a e5 3a 3e a6 e2 a9 3e b3 07 37 be d6 27 69 3e
       0.18251434 0.33180732 -0.17874031 0.22769102
0002a0 59 60 36 3e 4c f7 b5 be 53 89 1d 3e 71 ed d0 3d
       0.17810191 -0.35540235 0.15384416 0.10201538
0002b0 11 2d ac 3d 97 2a 9c 3e 19 9e 15 3b ed c2 72 3e
       0.08407033 0.30501243 0.002282983 0.23707171
0002c0 f7 34 a1 be 5a 1e 32 bd 02 c5 62 3e e1 52 0e be
       -0.3148572 -0.043485977 0.22145465 -0.13898803
0002d0 3a f6 8c 3e f3 97 76 3e d4 27 0c 3e f2 25 ec 3d
       0.27531606 0.24081402 0.13687068 0.11530675
0002e0 b1 06 e5 bd d5 b1 6d be 1f 4b 8a be 90 42 0f 3e
       -0.11182917 -0.23212369 -0.27010438 0.13990235
0002f0 15 9a ae be 03 ad 41 3e 0c 8a c1 be 79 c2 59 bd
       -0.3410193 0.18913655 -0.37800634 -0.05316398
000300 d8 20 ba be d9 bc a6 3e de 88 ab 3c 6f 18 f3 3d
       -0.36353183 0.32565954 0.020939287 0.11869895
000310 80 5d bc be 2c 0a ed bd ce 7e e8 3d e1 3a 8e bc
       -0.36790085 -0.11574206 0.11352311 -0.01736206
000320 17 91 92 3e 09 15 0a be 84 5f a7 be 33 4f 51 be
       0.2862632 -0.13484587 -0.3269006 -0.20440368
000330 56 93 ea 3b c0 27 a7 3e 6f eb 93 3e 8a e7 ac be
       0.007158677 0.32647514 0.2889056 -0.337704
000340 3e 31 7f 3e 08 9a 6b 3e 67 a1 8a 3e dd aa b3 3e
       0.24921128 0.23007977 0.27076265 0.35091296
000350 81 7a 25 3d 81 5a 99 be 7b fc a6 be bc 24 9b 3d
       0.040400032 -0.29951862 -0.32614502 0.07575366
000360 75 4f e3 bd af 8a 76 3e 13 e5 c2 3d 56 d8 67 be
       -0.110991396 0.24076341 0.09516349 -0.2264112
000370 45 ae a8 3e 02 29 68 be 68 55 97 3b 1e f2 89 bd
       0.32945457 -0.22671893 0.0046183355 -0.06735633
000380 6a 04 e7 bd 1b 3a fe 3c d0 2b 9e bd 5a 84 9c be
       -0.11280139 0.031033566 -0.077232 -0.30569726
000390 54 c5 32 bc a5 1c 66 be aa 00 9e be 7b 89 ab be
       -0.0109113045 -0.22471865 -0.30859882 -0.33503327
0003a0 43 b0 6f be fd f6 4e be 50 b6 ad be 91 0b 97 be
       -0.23407082 -0.20211406 -0.33928156 -0.29501012
0003b0 1d e9 8a 3e ea 0b a2 3e af bc 63 bd ae 81 ab 3e
       0.27130976 0.31649715 -0.055599865 0.33497375
0003c0 77 1f cb 3d 44 85 ac 3e ad 6b 54 be a8 44 76 be
       0.09918111 0.33695424 -0.207442 -0.24049628
0003d0 c3 3d ba 3c 0d 63 8b be 45 7c c9 3d f0 69 1d be
       0.022734528 -0.27224007 0.09838156 -0.15372443
0003e0 61 86 88 3e ef 64 53 be 77 fd a6 3e 62 31 93 3e
       0.26665023 -0.20643972 0.32615253 0.28748614
0003f0 d2 ca 7c 3e 81 b0 a1 be c3 0c 29 be 75 eb c5 bc
       0.24686745 -0.31579974 -0.16508774 -0.024160126

encoder.actor_encoder.net.mlp.2.weight f4 [256, 256]
000000 b1 d2 e2 3c 52 b7 27 bd 70 fd 4e bd a6 c3 49 3c
       0.027688356 -0.040946312 -0.050534666 0.012314713
000010 29 52 2b bd b1 8e 6b bd 8f ee 3e bd 0a a8 2c bc
       -0.0418264 -0.057509128 -0.046614226 -0.0105381105
000020 4c 2f f9 bc e4 b5 a5 bc 6a e3 b8 3c bd 5f 9f 3c
       -0.03041806 -0.020228334 0.022569377 0.019454831
000030 74 8f 00 bd 9f 1b 33 bc c7 2e 40 bd 1d b2 e4 3c
       -0.031386808 -0.010931878 -0.04691961 0.027916962
000040 2d 25 a7 bc 32 44 3d 3d 19 cf a9 bc 85 a3 3d 3d
       -0.020403469 0.046207614 -0.020728635 0.046298523
000050 4d 90 45 3d ac d3 53 bd 7d af c9 3c f7 09 54 bd
       0.04823332 -0.051715538 0.024619812 -0.051767316
000060 7d 2a 1c 3d 82 31 3f 3b a5 59 2d bd 3d f3 97 3d
       0.038126457 0.0029173796 -0.04232182 0.07419441
000070 ed 99 68 bd 74 92 32 3d 52 19 06 3d 06 4c b1 bc
       -0.05678742 0.0435967 0.03273899 -0.021642696
000080 bd b2 19 bd 57 0f c0 bc 08 ab 1e 3d 24 11 26 3d
       -0.037523974 -0.023444815 0.038737327 0.04054369
000090 69 3c 20 bb 94 92 8b 3c 59 95 c3 bc 5e 1c 04 bd
       -0.002445007 0.017037667 -0.023874925 -0.032253616
0000a0 a2 f7 8c bc 08 3c 2e bd ee 1c 26 3d c3 0b b7 bc
       -0.017207924 -0.04253772 0.040554933 -0.022344476
0000b0 e4 6c e1 bc 08 c1 7b bd bd ae 50 bc df bf 36 bd
       -0.027517743 -0.061463386 -0.012736973 -0.044616576
0000c0 26 0a 5f bd e5 de 69 3d fe 87 e5 bc 93 b2 8c 3c
       -0.054453038 0.057097334 -0.028018948 0.017174995
0000d0 7e d3 0c bd 34 9f e9 bc e7 06 e5 bb 77 12 fa 3c
       -0.034381382 -0.028518297 -0.006989348 0.030526383
0000e0 f1 18 cc bb 22 70 14 bd ef 51 0e bc fd e9 fc ba
       -0.006228559 -0.03623975 -0.008686527 -0.0019295808
0000f0 34 de d0 bb 6f c3 f5 3c 4e 4e f1 bb 1e 8a 41 bd
       -0.006374145 0.030000417 -0.007364071 -0.04725086
000100 b2 fd 14 3d fd 05 78 bc 97 e0 37 bd 2c 93 02 3c
       0.036374755 -0.0151381465 -0.04489192 0.007969659
000110 76 78 9f 3c c2 07 83 bc ba e1 93 3a 45 72 4c bd
       0.01946662 -0.01599491 0.0011282482 -0.049913663
000120 8b 09 74 3d e0 05 f6 bc 35 31 3a 3d f0 30 8e bc
       0.059579413 -0.030032098 0.045457084 -0.01735732
000130 dc 95 05 bd 97 43 92 3b 3a 40 76 3c 12 e9 39 3b
       -0.03261362 0.0044636237 0.015029961 0.002836768
000140 79 3d 83 bb e1 1e 94 bc fe 25 47 3c 5f 1e 2c 3d
       -0.004005131 -0.01808113 0.012155054 0.04202115
000150 c3 df 5b 3d cc 32 f6 3c 4e 7e 8a 3d 25 85 c7 3c
       0.053680193 0.030053519 0.06762372 0.02435548
000160 54 88 cb bc 68 f4 b0 3c ae ca 99 bb b2 81 30 3c
       -0.02484528 0.021600917 -0.0046933508 0.010773109
000170 b0 8a 2a bd 89 47 48 bd 84 aa 7d 3d db 5c 2b bc
       -0.04163617 -0.048896346 0.061930194 -0.01045915
000180 4d ea 89 3c 6e f7 1e bd ba c8 b1 3c fb 15 f6 bc
       0.016835356 -0.038810186 0.02170216 -0.030039778
000190 48 92 9b bb a9 00 90 bc 2d ff 5b bd f4 77 ae 3c
       -0.0047476627 -0.01757844 -0.05371015 0.021297432
0001a0 e4 d8 57 3d 3e 52 81 3d f2 34 3c bd 56 d8 2a 3d
       0.052697077 0.063145146 -0.04594893 0.04171022
0001b0 2d e6 74 bd 42 46 92 3b 1e 21 a2 bc d8 6b 12 bd
       -0.059789825 0.004463942 -0.019791182 -0.03574738
0001c0 2d 55 4d 3c af 1a 38 3d 16 36 2e bd 20 e0 47 3d
       0.0125325145 0.044947322 -0.04253205 0.048797727
0001d0 a4 3b 13 bd dc 21 0d bd 92 b1 6b bd 51 1a 5f bd
       -0.03594555 -0.03445612 -0.05754239 -0.054468457
0001e0 83 12 81 bd 19 ec 76 bd 11 89 2a 3d 98 5b 70 bc
       -0.06302359 -0.060283754 0.041634623 -0.014670275
0001f0 b1 ad 2f bd d0 10 55 bc b8 3e 90 3c 59 6c 08 bc
       -0.042890254 -0.013004497 0.017608032 -0.008326613
000200 41 e5 67 bc 36 8a 9b bb 45 9c 33 bc a9 e2 cd bc
       -0.0141537795 -0.0047467006 -0.0109625505 -0.025132494
000210 27 24 7c 3d 21 64 6e bc 99 75 5c 3d c1 2d 65 3c
       0.061557915 -0.01455024 0.053823087 0.013987959
000220 79 57 57 3d 62 8a f7 bc c3 82 65 3c d9 11 2a 3d
       0.052573655 -0.030217353 0.014008227 0.041520927
000230 69 a3 36 bd 0a 3d 71 3d 41 73 6a 3d 16 91 83 3d
       -0.044589434 0.058896102 0.05723882 0.06424157
000240 ed fa 0f bd bf 7a 38 3d a3 aa 82 bd f3 d5 a5 3b
       -0.03515141 0.045038935 -0.063802026 0.005060905
000250 ac c7 e9 3c 16 c3 14 3d 9b e4 b5 3c 8e 73 24 bb
       0.028537594 0.03631886 0.022203734 -0.002509329
000260 b6 b4 06 3c 5d f3 83 bd 22 58 a9 3c 5d a6 66 bd
       0.008221796 -0.06442902 0.020671908 -0.056311
000270 83 63 73 3d 19 3f 3d bc 30 89 69 3d 3c 35 6e bd
       0.059421074 -0.011550688 0.057015598 -0.058156237
000280 84 69 42 3b 11 f4 01 3c 5d ce 23 3d e4 97 a6 3c
       0.0029664943 0.007931725 0.039991725 0.020336099
000290 c2 4c ed 3c 5a 92 51 bc b5 0f 71 3d 35 66 56 3c
       0.028967265 -0.012791241 0.05885287 0.0130858915
0002a0 99 a5 40 bd 14 7d 31 bd 5b b6 26 3d 1b 95 4d bd
       -0.047032926 -0.043332174 0.04070125 -0.050191026
0002b0 51 b6 a5 bb 51 7c 24 3c ee f3 04 3d 1e d2 4f bd
       -0.005057134 0.010039405 0.032459192 -0.050737493
0002c0 0e 3e 9b bc a8 bb fe bb bb 9e 15 3c a2 8b 16 ba
       -0.018950488 -0.007773835 0.009132083 -0.0005742853
0002d0 da 6d 1f bd 33 15 13 3d 20 67 4a bd 4f 0b 38 3a
       -0.038923122 0.03590889 -0.049414754 0.0007020728
0002e0 ff ff f1 3c 9a 5c fc 3c 46 5e 83 bc 9e 18 10 3d
       0.029541014 0.030805875 -0.016036164 0.035179727
0002f0 48 62 56 3d 7b 41 31 bd 08 57 33 3d 76 3f c5 3c
       0.052339822 -0.043275338 0.04378417 0.024078112
000300 75 92 0b bd 13 9e 2e 3d 4a f1 6d bd 5e 09 7f 3c
       -0.03407522 0.04263122 -0.05809144 0.015566198
000310 5a e5 11 3d ed ce 64 3c 1f 63 4a 3c ea a3 84 3c
       0.035619117 0.013965351 0.012352734 0.016191442
000320 9e 00 0c 3d d8 5e 3c 3d a2 19 60 bd 14 2b 78 bc
       0.034180276 0.045988888 -0.054711945 -0.015146989
000330 29 a1 0d 3d aa 5c 33 3d 0f 46 00 3d c0 58 46 3c
       0.034577522 0.043789543 0.031316813 0.012106121
000340 5e 31 66 bc c8 e3 8a bc 14 59 13 3c c6 6c 99 3c
       -0.014049856 -0.016954318 0.008993406 0.018728625
000350 d5 d8 42 3d 0d 45 a9 bc be a3 25 bd f6 4a d3 bc
       0.04757007 -0.020662809 -0.04043936 -0.02579258
000360 f7 1e 8a 3d 93 71 49 bd 89 93 78 3c 96 d7 5a 3d
       0.06744187 -0.04918058 0.015171894 0.053428255
000370 28 10 7c ba 39 a6 06 3d 06 bf 3d bc 88 5d 7a ba
       -0.00096154446 0.032873366 -0.011581188 -0.00095506804
000380 cb ba 11 3d 1f 62 c0 bc fa 98 fe 3b 2d 3c 26 3d
       0.03557853 -0.023484288 0.007769701 0.04058473
000390 19 82 9e bb de b5 86 3c a8 94 95 3d e0 5d 59 3d
       -0.004837286 0.016444143 0.073037446 0.05306804
0003a0 5c 23 99 bd c1 b9 c0 3b c1 de 25 bd 79 70 32 bd
       -0.074774474 0.0058815186 -0.040495638 -0.043564294
0003b0 6f 7a b5 bc 93 c5 33 bd 21 36 eb 3c ea 8d 8d 3c
       -0.022153107 -0.043889593 0.028712334 0.017279584
0003c0 65 a4 bb 3c ec d6 ac bc a4 fc 3c 3b 8b 32 cd ba
       0.022905538 -0.021098576 0.002883711 -0.0015655322
0003d0 c7 2b 7b bd 13 11 fb 3c dc 66 04 bd 50 a7 a5 bc
       -0.061321046 0.03064779 -0.032324657 -0.020221382
0003e0 7e 52 2d bd ea 14 06 3d 56 58 8d ba 3c 26 d1 bc
       -0.042315 0.03273479 -0.0010783772 -0.025530927
0003f0 19 13 30 bd 31 bc 5f bd 5d c6 3b 3d 35 ad 55 3d
       -0.042986963 -0.054622833 0.04584347 0.052167136

encoder.actor_encoder.net.mlp.2.bias f4 [256]
000000 35 93 00 bc da ae b3 3c 9d 14 4d 3d f5 89 a4 3c
       -0.007847597 0.021933962 0.050068486 0.020085314
000010 25 1b 58 3c 2b 3f 00 bc a5 9c d1 3c 6d 54 82 bc
       0.0131900655 -0.00782756 0.02558739 -0.015909398
000020 af e8 98 bc dc 37 03 bc 4b 25 b2 bb e8 ff 50 3c
       -0.01866564 -0.008008923 -0.0054365746 0.012756325
000030 99 8a a3 3c 65 0a 27 3b ae 22 6a bd d7 65 68 bd
       0.01996355 0.0025488373 -0.05716198 -0.056737747
000040 6d e9 47 bd 0c 3a 52 3d 1e a0 4a bd 77 44 1c 3c
       -0.048806597 0.05132489 -0.049469106 0.009537808
000050 ec 88 39 3d 0f 71 cd 3c e1 c2 04 bd 0d 2f 63 bb
       0.045296595 0.025078325 -0.032412414 -0.0034665496
000060 49 64 41 bd 9b 8a ae bc b7 57 f5 bc f5 72 62 3b
       -0.04721478 -0.021306327 -0.029949052 0.0034553383
000070 71 7e 6e bd 83 f0 fa 3c c8 1d a8 bc f5 d3 db bc
       -0.058226053 0.030632263 -0.020522013 -0.026834467
000080 19 d0 e2 bb de b2 7f 3d 19 a1 6d 3d 9d ab 94 bb
       -0.00692178 0.06242644 0.058014963 -0.0045370595
000090 66 f9 73 bd 15 a1 06 3d 18 24 27 3c 0f 2f 43 bd
       -0.059564017 0.032868464 0.0102014765 -0.0476523
0000a0 a4 37 ec bc f7 f5 43 3c 26 1c f2 bc 6c 65 5a bd
       -0.028835125 0.011960498 -0.029554438 -0.05331938
0000b0 96 c0 58 3d 5b 7d e0 bc 92 9f c8 39 37 c5 5e bd
       0.05291804 -0.027403524 0.00038265862 -0.054387297
0000c0 75 fd 70 bb f4 05 96 3c f4 b0 31 bd bf 3d d2 3c
       -0.0036772166 0.018313386 -0.043381646 0.025664208
0000d0 ae 05 34 3d d9 4f 78 bd 75 ae 09 bd f0 98 f1 3c
       0.04395073 -0.060623024 -0.03361364 0.029491872
0000e0 7e 00 33 3d 2a c6 46 3d d4 1f 7c bd 90 bf 4c bd
       0.04370164 0.048528828 -0.06155379 -0.049987376
0000f0 45 ac 1b 3d 98 02 d5 3c 2f 32 61 bd d6 7d 1f bd
       0.038006086 0.026002213 -0.0549795 -0.038938366
000100 6a 09 2b bd ac 9d 48 3d e9 b5 e1 bb f9 9c fa bc
       -0.041757025 0.048978493 -0.0068881405 -0.030592429
000110 80 63 10 bd 55 75 30 3d 39 e4 3d bc 7b ca 2f bd
       -0.03525114 0.043080647 -0.011590057 -0.04291771
000120 e9 98 7d 3d 44 c5 26 bd 79 d7 4d bd f4 60 19 bc
       0.061913405 -0.04071547 -0.05025432 -0.009361494
000130 a8 bf 2e 3d a9 1f 03 3c 97 40 27 3b cd c5 6b bd
       0.042663246 0.008003154 0.0025520676 -0.057561684
000140 d0 e7 e3 bc f9 ce 98 bc eb b2 d9 bc 97 29 45 3d
       -0.027820498 -0.01865338 -0.026574573 0.048135366
000150 e3 d3 4a 3d 98 d4 6f 3d 45 59 f0 3c da 48 38 3d
       0.049518477 0.058552355 0.029339442 0.04499135
000160 e3 ed 5c 3d bc f9 fd bc 06 6d db bb e8 17 a2 3c
       0.053937804 -0.031002872 -0.006696346 0.01978679
000170 ac 9b a2 3c 04 dd 80 3a 7d 56 cf 3c 4c 52 84 3d
       0.01984962 0.0009831493 0.025309796 0.064610094
000180 7e 2f 6e 3c 29 f5 3c bd d9 69 30 3d 95 ba 3e 3d
       0.01453769 -0.04613224 0.043069694 0.046564657
000190 b7 ea ee bc 5c 64 14 bc cf d7 b5 bc a1 95 77 bd
       -0.029164655 -0.009057131 -0.022197632 -0.06044543
0001a0 f6 f9 03 bc ee e6 b2 3c 03 57 e2 3c 34 0c ab bc
       -0.008055201 0.021838631 0.027629381 -0.020879842
0001b0 5a 5a 67 bd ab 82 6d 3d 7f 2d 66 3d 97 a6 8a 3b
       -0.05648265 0.057985943 0.056195732 0.004231285
0001c0 53 b5 51 3d 66 0f 3a 3c 9e 89 55 bd 8f 5b 2c bd
       0.051198315 0.01135621 -0.052133195 -0.042079505
0001d0 fc 3f e3 3c ee b1 15 3d c2 29 4d 3d fd 7c 99 3c
       0.027740471 0.03654664 0.05008865 0.018736357
0001e0 4f 43 cd bc 0b 39 f1 bc af 1a 4d 3b fc 2f f9 3c
       -0.02505651 -0.029446146 0.0031296422 0.030418389
0001f0 c2 38 54 bd a6 08 a1 bc c1 fa 5e bd 0f 89 2c 3c
       -0.05181194 -0.019657444 -0.054438356 0.010530724
000200 e2 99 12 3d 49 10 72 3d 9c b1 65 3d a5 f0 47 3d
       0.035791285 0.059097562 0.056077585 0.04881348
000210 68 f2 d6 bc ad 0c ed 3c c3 db 6e 3d 9b 6f c0 3c
       -0.026238635 0.028936708 0.05831505 0.023490718
000220 5d 37 76 3b e7 7c 0d 3d 5b 12 5d 3c 02 9b 4a bd
       0.003756962 0.034542944 0.013493146 -0.049464233
000230 0b 2f 65 bd 0f fb 40 bc ca 18 76 3c c3 b6 1a bd
       -0.055953067 -0.011778607 0.015020559 -0.03777195
000240 06 ac cc bc e4 e1 63 bd 09 2d 2d ba 38 27 7e bd
       -0.02498437 -0.055635348 -0.0006606137 -0.06204912
000250 7d 78 78 bd 53 44 db ba 4d 0b 42 3d 96 3c 31 bd
       -0.06066178 -0.0016728736 0.04737406 -0.04327067
000260 62 5d 18 3d c6 23 06 bb e3 93 92 3a 9f f3 af 3c
       0.03719843 -0.00204681 0.001118299 0.021478472
000270 d2 ac ec bb 20 57 a1 3b 00 1c 26 bd 3c 9f 09 3d
       -0.00722275 0.004923716 -0.040554047 0.033599123
000280 fc f5 61 bd 62 b0 96 3b ec 6a 33 bd 52 5e 58 bd
       -0.05516623 0.004598663 -0.04380314 -0.052824326
000290 0c b0 e4 3c 87 f3 e9 bc e1 fe d0 bc 65 04 e4 3c
       0.027915977 -0.028558506 -0.02551216 0.027834127
0002a0 98 40 84 bd 0f 43 34 bd 17 c8 68 bd 86 ad 05 bd
       -0.06457633 -0.044009265 -0.056831446 -0.032636188
0002b0 31 f1 b6 3c b6 49 12 3d f5 bc 2a bb 48 8e 65 bd
       0.022331806 0.035714827 -0.0026052569 -0.056043893
0002c0 70 39 36 3d ca 8a 59 bd 36 63 18 3d 76 82 4b 3d
       0.04448837 -0.053110875 0.03720399 0.049684964
0002d0 1a 5d 86 bd c2 c9 2d bd de 15 15 bd 87 e3 1a 3d
       -0.065607265 -0.04242874 -0.036397807 0.037814643
0002e0 ca 1b 3d bd 00 2f 48 bc 25 05 83 3a de 97 6b bc
       -0.04616908 -0.012218237 0.000999604 -0.01437947
0002f0 e9 64 46 3d 23 11 af bc 12 8c 86 3d 26 0f 3d 3d
       0.04843608 -0.021370476 0.06569685 0.046157025
000300 ff fb a4 3c 91 e8 fe 3c c0 35 0a 3b 6b e4 77 3c
       0.020139692 0.031116756 0.0021089166 0.015130143
000310 19 6c f4 3a 91 01 3c 3d 2d e4 1b 3d 18 ac 39 bc
       0.0018647938 0.04589993 0.038059402 -0.011332534
000320 dd 7c a1 3c 67 bc b1 3c fe ab 2b 3d 9f a3 9f bc
       0.01971286 0.021696283 0.04191207 -0.0194872
000330 6c c4 5d bd f0 e1 ba bc bb 48 82 3c 00 c1 31 bd
       -0.0541424 -0.022812814 0.015903821 -0.04339695
000340 bd 95 cb 3b 5c 47 ff bc 74 13 d4 bb b7 b5 db 3c
       0.0062129186 -0.031161956 -0.0064720456 0.026820047
000350 d7 0a 19 bc 69 3f 67 3d e8 45 e6 bc 90 38 ed 3c
       -0.009340963 0.056456957 -0.028109506 0.028957635
000360 d3 62 4a 3d 11 37 56 3d 3b b1 27 bd 3d d4 74 bd
       0.049410652 0.05229861 -0.040940505 -0.05977272
000370 d1 de a5 bc 2e 61 85 bc e3 3a 5a 3d 19 18 5c bd
       -0.020247849 -0.01628169 0.053278815 -0.05373392
000380 67 a0 dd 3c 50 8d 75 bd 6a 20 07 bd a5 97 20 bd
       0.027054025 -0.05994922 -0.032989897 -0.03920712
000390 39 cc 12 bd 8b 52 f3 bc 59 74 72 3d 67 a0 06 bd
       -0.035839293 -0.029702445 0.05919299 -0.032867815
0003a0 4e 13 35 3d d9 23 97 bc c1 95 67 3d 81 ec 22 bd
       0.044207864 -0.01844971 0.0565393 -0.03977633
0003b0 a8 fe 49 3c 90 f0 3f bc 7d fd 52 bd aa 97 a9 bc
       0.012328781 -0.011715069 -0.051511277 -0.020702202
0003c0 74 e3 ec bc 82 73 66 3c 7f 23 c8 bb 29 66 eb bc
       -0.028917052 0.014065625 -0.006107747 -0.028735237
0003d0 dc e5 18 3d 68 ef fc bb be db 21 bd 1a d8 2b 3d
       0.037328586 -0.007718969 -0.039516203 0.041954137
0003e0 31 67 88 bc 44 f5 3a bd 27 a8 7f bc 47 41 3e 3c
       -0.016650768 -0.04564406 -0.0156040555 0.011612243
0003f0 82 b0 a8 3c 78 30 a8 bc 23 8e c8 bc 56 b6 94 bc
       0.020591978 -0.020530924 -0.024481839 -0.01815335

encoder.critic_encoder.net.mlp.0.weight f4 [256, 7]
000000 ad a5 48 be 1b d7 71 be 39 04 81 be 4e bd 13 bd
       -0.1959445 -0.23617212 -0.25198534 -0.036069207
000010 02 b3 d1 bd 08 9a 25 3e 5b ca fa 3e 66 59 cc be
       -0.10239221 0.1617204 0.4898251 -0.39911956
000020 29 43 98 3d 6b 76 b4 3c 55 72 cf bb 22 72 8c 3e
       0.07434685 0.022029122 -0.006330768 0.27430826
000030 a7 df 10 3e bf 1a 85 3e 28 c4 b5 3e 68 ed 90 bc
       0.14147817 0.25996968 0.35501218 -0.01769133
000040 5c 78 63 be 45 6c 81 bd 42 8f 0c 3c d7 8b 13 3d
       -0.22213882 -0.06319479 0.008579077 0.036022034
000050 be 7c 7c be 5e 60 90 3e fa d0 5b be 03 e7 ed 3d
       -0.2465696 0.28198522 -0.21466437 0.116163276
000060 7c 0d 81 3e fa 1a d2 3c 6a d3 93 be 5f 2c 02 3e
       0.252056 0.025647629 -0.28872234 0.12712239
000070 ae b8 6d bd cf b4 47 3e 1d 88 a4 bd cf 64 33 be
       -0.058037452 0.19502567 -0.08033774 -0.17518924
000080 41 bb a8 3e 49 49 2f 3d dc a5 24 3e 0d ae 21 be
       0.32955363 0.0427945 0.16078895 -0.15789051
000090 76 92 a9 3e 6c 06 7d be 80 2c 8a be a6 25 a0 be
       0.33119553 -0.24709481 -0.26987076 -0.31278723
0000a0 41 84 95 bd 87 4c e6 3d b5 c1 97 be 88 2b a8 3e
       -0.07300616 0.11245065 -0.29639974 0.32845712
0000b0 71 46 9f 3e ab a0 7a be 12 d9 2f be 58 ca e5 3c
       0.3110843 -0.24475352 -0.1717265 0.028050587
0000c0 5e ac a7 be 57 1c 39 be bd ca 03 bd 78 ff 00 3e
       -0.32748693 -0.18077217 -0.03217577 0.12597454
0000d0 01 1c a8 be 75 27 54 3e e4 cc 88 be da 79 62 bd
       -0.32833865 0.20718177 -0.2671882 -0.055291988
0000e0 a5 58 99 3e 77 e7 73 be 48 a2 a2 be b9 a4 95 3e
       0.29950443 -0.23818766 -0.31764436 0.29227236
0000f0 f7 49 b2 3e 60 6f 24 3e 60 42 90 3e ce 08 cd 3e
       0.34822056 0.16058111 0.2817564 0.4004578
000100 06 4d 4d 3e 07 7a 74 be a1 43 aa 3e e2 0a a1 bd
       0.20048913 -0.23874675 0.33254722 -0.07863404
000110 e9 d8 aa bd 8a e3 11 3c 67 38 a9 be 4e 81 a3 be
       -0.083421536 0.008904347 -0.33050844 -0.3193459
000120 54 ba 8d be 6b b7 40 3e f8 e9 9a 3e 4e 20 ce 3e
       -0.2768122 0.18819968 0.3025663 0.40259022
000130 52 b9 be bc 33 5c 47 3e a0 40 97 3e 68 eb 6d 3c
       -0.023281727 0.19468765 0.29541492 0.014521457
000140 12 15 6f 3e 14 8a b3 be b5 bf 4e 3d 6b a5 a4 be
       0.23347881 -0.35066283 0.050475795 -0.32157454
000150 43 c3 6e 3e 6a 2a ec 3d 59 2b 8f 3e 07 d3 33 3e
       0.23316674 0.11531527 0.2796276 0.1756097
000160 6f e0 4e 3d 37 26 00 bd f5 e1 5b bd 54 02 83 be
       0.050507005 -0.031286445 -0.053682286 -0.25587714
000170 22 ef aa be 45 56 28 be ee cc 87 bd 3c 32 a2 be
       -0.3338557 -0.16439159 -0.06630884 -0.3167895
000180 c6 15 d1 3e df 8c 62 3e a1 4f 0b be f7 1f 4c 3c
       0.40836924 0.2212405 -0.13604595 0.012458793
000190 ed 43 7f 3e c2 c5 03 3e ff 94 cb 3e 2f c0 ac be
       0.24928255 0.12868407 0.39762112 -0.33740374
0001a0 d5 e0 9a bd 8d e3 15 3d 20 0d bb bd d8 8b 84 be
       -0.075624146 0.036593962 -0.09133363 -0.25887942
0001b0 be 69 81 3e ed f1 8d 3e 7e 0f 8c be 96 1f 8e 3c
       0.25275987 0.27723637 -0.2735557 0.017349046
0001c0 6b 6e e4 3d da 71 9d be ef 8f 3e 3e a7 e2 85 be
       0.11153873 -0.30750924 0.18609594 -0.26149485
0001d0 86 35 9d 3e 89 3c 5c bd b7 b6 2f be 20 50 82 3e
       0.30704898 -0.05376867 -0.17159544 0.25451756
0001e0 98 ff c8 3c 71 b8 3d 3e 3f 4a a2 3e 25 6c cd 3e
       0.02453594 0.1852739 0.3169727 0.4012157
0001f0 86 a3 8c bd 53 ed 2b be 45 ba 80 bc e6 1a c5 be
       -0.06867127 -0.16789751 -0.01571382 -0.38497084
000200 57 db cd bd c6 cc a9 3e 2a 44 c0 be 42 9b 49 3e
       -0.100516014 0.33164042 -0.37552005 0.19688132
000210 01 ce a9 3d cc 2e 92 3e 54 be 00 be ef 17 88 be
       0.08291245 0.28551328 -0.12572604 -0.2658076
000220 b2 8f 8f 3e e6 5b 9e bd e4 bf a9 3d ee 54 25 be
       0.28039318 -0.07732372 0.08288553 -0.1614568
000230 a3 a7 2e be b5 cb 8c 3d 69 c9 29 3e c4 c3 82 be
       -0.17056136 0.068747915 0.16580738 -0.25539982
000240 7d 8a 43 3d e3 b2 35 be 82 00 8d 3d 97 61 9e be
       0.047739495 -0.17744021 0.068848625 -0.3093383
000250 3d 6a 4b 3e d9 dc 79 3e 27 74 c3 3c 54 2d 43 be
       0.19864745 0.24400653 0.023859097 -0.1906026
000260 0f 16 9a be 45 ea 8f be 48 eb 87 3e ca 9b 8b be
       -0.30094954 -0.2810842 0.26546693 -0.27267295
000270 9e 13 a7 3d 84 c2 d8 3c 73 d2 74 be 91 84 d5 3d
       0.081580386 0.02645994 -0.23908405 0.10425676
000280 be 2e 8c be f5 4c c9 3e bc 7f b2 3e 0e e1 fe bd
       -0.2737941 0.39316526 0.3486308 -0.124452695
000290 b4 e1 a0 be d3 8c 92 3d fc 8e 87 be 4c 42 9e be
       -0.31422198 0.07155766 -0.26476276 -0.30909956
0002a0 b4 be c2 be b4 1b 09 be 1a 68 5b 3e 03 26 3c 3e
       -0.3803612 -0.13389474 0.2142643 0.18373875
0002b0 96 2f b4 bd 1f 03 4d be 24 e2 94 bd 5f 23 65 be
       -0.08798139 -0.20020722 -0.072696954 -0.22376774
0002c0 f6 bc 49 be b1 1a a2 3e a9 e9 bf be d0 6d 2d 3d
       -0.19700989 0.3166099 -0.37482956 0.042341053
0002d0 52 53 a4 3e 5f 55 d1 3c 98 e9 a6 3e d2 39 8b 3e
       0.32094818 0.025553403 0.32600093 0.2719255
0002e0 1e f0 c7 3d ba 66 b0 bd 2f b5 87 be fc fa b0 ba
       0.097625956 -0.086133435 -0.2650542 -0.0013502534
0002f0 11 45 1b be 37 01 18 3d 7c e6 c5 bd 06 81 b1 be
       -0.15163065 0.037110534 -0.09663102 -0.3466875
000300 10 95 b1 be ae 47 ad be 9f 7f a1 3e 52 9f 18 bc
       -0.34684038 -0.3384375 0.3154268 -0.009315329
000310 ad cb ae bd 57 d9 99 3d 74 b7 18 3d f1 ab 82 be
       -0.08534942 0.075121574 0.03728433 -0.25521806
000320 90 17 96 be 5b d1 26 be 7c 00 67 be b5 47 06 bd
       -0.29314852 -0.162908 -0.22558779 -0.03278323
000330 bb d6 ab be 09 0e 1d be ae 83 99 3d 87 4e b8 3d
       -0.33562264 -0.15337385 0.07495819 0.08999353
000340 2a e7 18 be 7e 51 35 3e 6c 90 9d 3e 3d c0 7d 3e
       -0.14931932 0.17706868 0.30774248 0.24780364
000350 78 9e 1b 3e a8 9b 80 be ac 6d a4 3e 2c 92 61 3d
       0.1519717 -0.25118756 0.32114923 0.05507104
000360 d7 88 e9 3d 53 86 20 3e 60 4e a5 be 13 93 b8 bc
       0.11403053 0.1567624 -0.32286358 -0.022531068
000370 c0 4d a4 3d 58 93 21 3e 54 43 55 3d 8a 6f 5a 3e
       0.08022642 0.15778863 0.052066162 0.21331611
000380 e3 bf 48 3e 52 6c 21 3e 66 df 95 be c2 f7 a0 bd
       0.19604449 0.15763977 -0.29272002 -0.07859756
000390 60 de ce 3e 47 2b 6e 3e 6d 3a 25 3e 27 8f 7b be
       0.40404034 0.23258696 0.16135569 -0.24566327
0003a0 ff 55 92 be 2a 86 8e 3c 16 9c 8d be 6c 58 04 3e
       -0.28581235 0.017397959 -0.27658147 0.12924355
0003b0 2c b3 03 3e 65 8e 97 3d 10 f3 f7 bd 1f fa 68 bd
       0.12861317 0.074002065 -0.12106907 -0.05687916
0003c0 03 f7 98 be d6 c3 d7 bd f3 56 4a be e2 6c a6 3e
       -0.29875955 -0.105353996 -0.19759731 0.32504946
0003d0 d6 7b 68 be 46 a9 8d be 9d 96 8f 3c b1 2f 11 3c
       -0.2270349 -0.27668208 0.017527873 0.008861468
0003e0 ec 94 07 3e 0b 22 00 3e 77 7f 3e be f3 32 63 3e
       0.13240403 0.12512986 -0.18603311 0.22187404
0003f0 b3 01 be 3e 49 9d 20 3e 59 54 aa 3e 63 5c bd 3e
       0.3711067 0.15685 0.33267477 0.36984548

encoder.critic_encoder.net.mlp.0.bias f4 [256]
000000 18 6b 3e be b1 9b 10 be 28 ee 85 3e e8 02 30 3c
       -0.1859554 -0.14121892 0.2615826 0.01074288
000010 c0 88 bb 3c 33 71 bb be b6 ad e9 bd 75 41 85 bd
       0.022892356 -0.36609802 -0.11410086 -0.065066256
000020 ab 9b 49 3e ff c0 dd 3e 65 45 89 3e 63 8e 19 3c
       0.19688289 0.43311307 0.26810756 0.009372327
000030 7b a6 aa bd 75 67 a1 be e7 fd 16 be 69 a0 92 be
       -0.08332535 -0.31524244 -0.14745294 -0.28638008
000040 75 f5 cb be 8e 59 82 bd 34 aa 64 3e ec c8 9f 3e
       -0.39835706 -0.063647375 0.22330552 0.3120798
000050 8c dc 5a be 3a 29 1b 3e af a4 85 3e f5 72 16 3e
       -0.21373194 0.15152445 0.26102206 0.1469229
000060 fb 52 df bd ca 55 65 3e f9 58 02 3f 47 9c f8 be
       -0.10904499 0.22396007 0.5091701 -0.4855673
000070 5d 67 cb bd 0c b4 72 be 26 82 49 3e 71 f2 9e 3e
       -0.09931824 -0.23701495 0.19678554 0.31044343
000080 38 54 89 3e c9 b3 5d bd 02 a5 80 3d ed b9 56 be
       0.26822066 -0.054126535 0.06281473 -0.20969363
000090 cb 2d e9 3e b1 64 02 bf 4a 2b f2 bd 64 a0 a4 3e
       0.4554275 -0.5093489 -0.11824663 0.32153618
0000a0 5d c7 47 be d8 fa 31 3e 87 69 a7 bd 86 e3 f5 3e
       -0.19509645 0.17380846 -0.081744246 0.4802515
0000b0 e0 33 33 be 55 b1 de be 81 1c f4 be bf 07 af be
       -0.17500257 -0.4349467 -0.47677997 -0.34185597
0000c0 a5 7f 34 3e 34 5e c8 be ca a2 a2 be 42 87 91 3e
       0.17626818 -0.3913437 -0.31764823 0.28423506
0000d0 42 91 29 3e b3 12 c0 bd f6 f6 9c be 02 7e a5 be
       0.16559318 -0.093785666 -0.30657166 -0.323227
0000e0 e1 d4 27 3e 15 e7 b2 be a5 14 c4 be 11 4e 98 be
       0.163898 -0.34941927 -0.38297 -0.2974706
0000f0 a0 49 f0 be fc 6e a7 3e c9 97 75 be 65 7d 9a be
       -0.4693117 0.32701862 -0.23983683 -0.30173793
000100 ae 5b 66 3d ef 57 20 be 91 c9 fb bd 53 fc 64 be
       0.056239776 -0.15658544 -0.12294305 -0.22361879
000110 2b b3 9f be 01 6d c6 3d 6b 07 28 3e 07 89 2b 3e
       -0.31191382 0.096887596 0.1640908 0.1675149
000120 c5 5d c2 be 99 fd 6d bd b1 cb 08 3e 7e 48 c2 3e
       -0.37962165 -0.058103178 0.13358952 0.37945932
000130 34 bb a0 3e b7 2f 56 3b ba 85 18 3e d6 41 41 be
       0.31392825 0.003268225 0.14894763 -0.1887277
000140 60 a3 9f bd 63 c8 9f 3e dd cf 0f be 2a 57 3a 3d
       -0.07794833 0.3120757 -0.14044137 0.045493282
000150 e7 8a 1f be 14 aa 44 3e cd aa 17 be 2a b8 90 be
       -0.15580331 0.19205505 -0.14811249 -0.28265506
000160 3c 9c a1 3e 36 43 b7 3e b4 5e 94 bd 37 8e 72 be
       0.3156451 0.35793465 -0.07244626 -0.23687063
000170 1d 3c 38 3e 77 64 3d be 42 15 59 3e 04 eb 74 be
       0.17991681 -0.18495356 0.21199515 -0.23917776
000180 fd ab a1 3e 23 5f 12 3d 79 fa f9 3c 52 30 6e 3e
       0.3157653 0.03573526 0.030514942 0.2326062
000190 08 ca 33 3e 6c a3 a0 be fc b0 e3 3d 28 6a c3 bb
       0.17557538 -0.3137468 0.111177415 -0.0059635825
0001a0 57 d0 64 3e 9a f5 ba bd 01 be a7 be 81 79 82 be
       0.223451 -0.09128876 -0.3276215 -0.25483325
0001b0 78 b0 27 3d 67 13 f3 be 3d 1e a7 3e de bc 42 3e
       0.040939778 -0.4747574 0.32640257 0.1901736
0001c0 e2 ce 97 bd 2a 6a 37 bc b5 ab d0 3e 1a 95 98 be
       -0.07412507 -0.011194745 0.40756002 -0.29801255
0001d0 ef 2e 8c 3d 4a e5 a5 be 1d 12 36 be 00 bd 66 3e
       0.068448894 -0.32401496 -0.17780347 0.22533035
0001e0 09 a6 19 bd fe ce b1 bc 44 4c c0 3d 33 62 99 be
       -0.03751186 -0.021705147 0.093895465 -0.29957733
0001f0 3f 94 33 3e 3e 78 80 be 87 85 a3 3d d0 c4 54 be
       0.1753702 -0.25091738 0.07984453 -0.20778203
000200 fb 2e 57 3d c7 3e 2c 3e 52 f2 2a bd ef 83 c9 3d
       0.05253504 0.16820823 -0.041735 0.098396175
000210 3e 8e cc bb 96 08 3b 3e ac bb 24 3e cc a7 3e 3e
       -0.0062425425 0.18264994 0.16087216 0.18618697
000220 bd c7 a2 be b9 66 85 3e 8a 4d 53 bd d0 f1 93 3e
       -0.31793013 0.26054934 -0.05158762 0.28895426
000230 ef 89 c1 bd 3f ad e8 3d 64 4c aa 3e 1b d0 5e bd
       -0.09450137 0.11361169 0.33261406 -0.054397684
000240 7e 7c a0 3b ee bb 05 3d 84 68 35 3e 73 ba cb 3d
       0.004897653 0.032649927 0.17715651 0.09947672
000250 cc 3a b0 3e 5d 7f 83 3e ec bc 94 bc d6 d0 cc 3e
       0.34419858 0.25683108 -0.018156491 0.4000308
000260 a3 69 f2 3e eb 67 b6 3e 48 a7 78 3d ec d1 49 be
       0.4734622 0.35626158 0.060706407 -0.19708985
000270 df 84 a3 be a2 01 4b be 43 59 19 be fc 9d 8c 3e
       -0.3193731 -0.19824842 -0.14975457 0.27464283
000280 15 cb 5b 3e 09 c1 05 3e a8 e0 5f be 79 8a 1a be
       0.21464188 0.13061918 -0.21863043 -0.15091886
000290 b0 ab ae 3d d7 df 2b 3d 8b 04 cd 3d b2 d8 b1 bd
       0.085288405 0.041961517 0.10010632 -0.086839095
0002a0 7e 86 8e bd 13 f1 63 3e 0e b4 73 3e ec 4c 36 be
       -0.06959246 0.22259931 0.23799154 -0.17802781
0002b0 d9 48 ff 3d 7f 0f 07 3c 8d a4 ed bd f4 73 b8 be
       0.124650665 0.008243441 -0.11603651 -0.36025965
0002c0 5b 18 2d be e5 1b 89 3e 09 c7 8c 3e 65 4a 7b 3e
       -0.16903822 0.26779094 0.27495602 0.24540098
0002d0 e8 04 cc be 58 66 6e bd cd 36 37 3d 9e f0 3d 3e
       -0.39847493 -0.05820307 0.044729996 0.1854882
0002e0 c0 0b 8d be 5a d4 a6 bb 05 e7 2d 3e 72 e9 9f 3e
       -0.27548027 -0.0050912322 0.16982658 0.31232792
0002f0 77 cb 20 3d 04 0f da bd c2 03 12 3d b8 6d ac 3e
       0.03925654 -0.10647395 0.035648115 0.3367746
000300 7b 09 fc 3e 12 73 b4 be 9b 0b 71 3e e1 42 94 be
       0.49225983 -0.35244042 0.23539583 -0.28957275
000310 f1 5b 78 bd 46 6e 8b 3e 18 21 74 bd 0a 47 b4 3e
       -0.060634557 0.2723257 -0.059601873 0.35210449
000320 40 f8 a0 be 77 f9 34 bc 9f 6f 38 3e 37 f9 54 bd
       -0.314394 -0.011045805 0.1801133 -0.051995482
000330 b2 7a a5 3e 17 3c 5a 3e f1 e1 40 3e c4 e8 98 be
       0.32320172 0.21311985 0.1883619 -0.29865086
000340 09 3d 0e 3e 3b aa 44 3d bc 7b 22 3d 9e e1 b3 bd
       0.1389047 0.048013907 0.039668784 -0.087832674
000350 ad 1d 74 be ea 64 9f be e0 ce b1 3e ed b5 bc be
       -0.23839445 -0.3113168 0.34728146 -0.36857548
000360 65 33 cb 3e 59 a9 b8 be d5 d5 3d be cf d7 0c be
       0.39687648 -0.36066702 -0.18538602 -0.137542
000370 ce 7e 7f 3d 7f c5 fc be 59 ff ab ba 02 4b e2 3d
       0.06237679 -0.49369428 -0.0013122364 0.11049463
000380 fd 22 b1 be 45 e2 a9 3d 0d 20 a4 3d c8 de 74 3e
       -0.34597006 0.082951106 0.08013926 0.2391311
000390 ad 5f 81 be a7 d1 ac 3c bf 8d 6e 3e 0b 00 28 3e
       -0.25268307 0.021096064 0.2329626 0.16406266
0003a0 6e df bd be a5 7a 03 bf eb 47 84 be d5 a5 cc 3e
       -0.37084526 -0.51359016 -0.2583612 0.3997027
0003b0 2e 12 bf 3e f3 11 97 3d a4 3a f5 be 47 09 03 bd
       0.37318558 0.073764704 -0.47896302 -0.03199127
0003c0 18 f6 1a be f0 cd bf bc 5d 23 03 be 08 72 ac 3d
       -0.1513294 -0.023413628 -0.12806459 0.08420187
0003d0 83 73 8d 3c b1 88 fc 3e c9 c0 71 3e 48 f9 4b 3e
       0.017266994 0.49323037 0.23608698 0.19919312
0003e0 39 80 81 3e bb 58 54 be 6d e9 c0 be f3 d8 61 3d
       0.2529314 -0.20736973 -0.3767809 0.05513854
0003f0 8e db 75 3e b3 07 a0 3d ff 8d a3 3e cb 3f a1 3c
       0.24009535 0.078139685 0.31944272 0.01968374

encoder.critic_encoder.net.mlp.2.weight f4 [256, 256]
000000 02 be e6 3c 52 5d 20 3c 17 12 0f 3d 91 6b 05 3d
       0.028166775 0.009787874 0.03492936 0.032573286
000010 f4 3e 3a bd de ac c8 bb 3c 8e 3e bd cb ae 6f bd
       -0.045470193 -0.006124123 -0.046522364 -0.058516305
000020 2d 17 26 bc 35 fd bf bc 99 74 2b 3d f1 e6 6e 3b
       -0.0101373615 -0.023436168 0.041859243 0.003645357
000030 90 1c a3 bc 32 c4 11 bd 6e db aa 3c 5e 98 43 bd
       -0.01991108 -0.035587497 0.020856585 -0.04775273
000040 ce 1d b1 bb 8a 15 4a bd b7 b2 11 3d e5 1b de bb
       -0.0054051643 -0.049336948 0.035570826 -0.0067782276
000050 07 2a 3a 3d f5 d8 90 bc 24 0f 3c bd 70 66 21 bb
       0.045450237 -0.017681578 -0.045912877 -0.0024627708
000060 a0 4a 32 3d b7 1f a6 3b 4a 95 f0 bc 5f 5b b7 3c
       0.0435282 0.0050696987 -0.029368062 0.022382436
000070 a6 12 53 3d 9a 8b 20 bd 45 5d 84 bd c0 b6 94 ba
       0.051531456 -0.039195634 -0.06463102 -0.0011345968
000080 da 37 03 bd f8 5b ed bc e7 4e da 3b 9e 8e 77 bb
       -0.032035686 -0.028974518 0.006662238 -0.0037774215
000090 7a 1f 19 bd 3a 5e 0f bd 4b 9c 13 bd 41 1b a6 3b
       -0.037383534 -0.03500197 -0.036037724 0.005069167
0000a0 7c 9b 26 3d 2b 71 2d bd 84 7e 35 bc 62 70 3d bd
       0.040675625 -0.042344254 -0.011077527 -0.046249755
0000b0 b7 9e 15 bc 29 fb d0 3c bc f3 53 3d 5c 80 ba 3c
       -0.009132079 0.025510387 0.051746115 0.022766285
0000c0 0e 7d dd bc 56 f0 68 bd 75 14 fd ba 4e 00 e0 bb
       -0.02703717 -0.056869827 -0.0019308465 -0.006835974
0000d0 06 93 63 bd c2 34 9b 3d 83 96 3d bd 93 64 bb 3c
       -0.055560134 0.07578422 -0.046286117 0.022875106
0000e0 60 8e 72 bd 44 5f d1 bd ee 02 2b bd 16 88 54 3d
       -0.05921781 -0.102232486 -0.04175084 0.051887594
0000f0 b4 c2 fe 3c 1f 63 2f 3d f2 c1 1b bd 45 c4 89 bc
       0.031098701 0.04281914 -0.038026758 -0.016817221
000100 3a 44 a4 bd 53 96 24 bd bb d3 54 bd 38 7b 6d 3c
       -0.08020826 -0.040182423 -0.051959734 0.01449471
000110 2e 87 07 3d 92 b5 0b 3c 76 99 84 bc 36 cc 2d 3c
       0.0330879 0.008527176 -0.016186457 0.01060777
000120 69 b2 1b 3d 79 14 2a bc 6b 66 8e bd 36 45 1a 3c
       0.038011942 -0.010380858 -0.069531284 0.009415915
000130 5f 02 6b bd 8f a8 fd 3b cf 3c d6 3c d4 9d 37 3d
       -0.057375308 0.007741041 0.026152043 0.04482825
000140 23 4a 41 3d 88 d9 fe 3c 74 ca 9e 3c 1a ec 7b 3c
       0.047189843 0.031109586 0.019383647 0.015376115
000150 71 4d fb 3c 0f 7b 67 3b c2 d7 e7 b8 3a b5 79 bd
       0.030676575 0.0035321151 -0.000110551264 -0.060963847
000160 5b d2 95 3d 75 80 a0 bb 1a 8d 4e 3d 4d ba 48 3d
       0.07315513 -0.004898126 0.050427534 0.049005795
000170 af 8b 88 bd 85 e1 d2 bc f3 a7 e4 3c a0 bd 8d bc
       -0.066672675 -0.025742302 0.027912116 -0.017302334
000180 74 f1 06 bd 5c 61 af 3d d2 fd 47 bd f6 a8 45 bd
       -0.03294511 0.08563492 -0.048826046 -0.048256837
000190 4c 97 bd 3d 65 1d 9c bc 7b 07 8f bc c5 82 62 3d
       0.09257373 -0.019056985 -0.017459622 0.055300493
0001a0 32 52 75 3d b8 74 2b bb d1 0e 63 3d 33 58 3f bc
       0.05989284 -0.00261621 0.055434052 -0.011678743
0001b0 6c d7 22 bd 41 2d 8c bc 0d 02 4d bd 08 4c 4c bd
       -0.039756224 -0.017111422 -0.050050784 -0.049877197
0001c0 c4 49 fb bb 7b 00 4d bc d3 b6 85 bd df 5e 21 3c
       -0.0076687057 -0.012512322 -0.065290116 0.009849279
0001d0 85 a2 5b 3d 19 11 8e 3d 14 5a 8a bd db 54 a2 bc
       0.053621788 0.06936855 -0.06755462 -0.019815853
0001e0 00 a6 22 3d 93 f5 d4 3c e4 a4 9f bd 01 a5 8b 3d
       0.03970909 0.025996005 -0.07795122 0.06818581
0001f0 a9 10 c2 3c 15 ac f1 39 7b 1b 7c 3d 7e 8c 0c bd
       0.023689585 0.00046095313 0.061549645 -0.03431367
000200 51 a1 87 3d f3 81 67 3d 72 6d 9f bc 27 36 46 3d
       0.066225655 0.056520414 -0.019461367 0.048391487
000210 8d 04 38 bc db 49 a9 3c f5 92 46 bd a2 c0 09 3d
       -0.011231554 0.0206651 -0.048479993 0.033630975
000220 ad ae 2f bd 9c 6b 96 bb 34 2a 37 bd fc b1 c0 3c
       -0.042891193 -0.0045904648 -0.044717982 0.02352237
000230 f2 8a be bc 43 a2 36 bd fb f3 40 bd 33 97 53 bd
       -0.023259614 -0.04458834 -0.047107678 -0.051657867
000240 e1 ed 03 bc 02 58 22 3d 83 45 8c bc 1d 9c cc bd
       -0.00805232 0.039634712 -0.01712299 -0.09990714
000250 6c 88 22 3d e1 44 45 bd c1 72 37 3b f4 97 36 3d
       0.039680883 -0.04816139 0.0027991983 0.044578508
000260 fa 2d c9 3a 49 a2 47 bd 98 91 1a bb a5 88 79 bd
       0.0015348785 -0.04873875 -0.0023585316 -0.06092133
000270 2a a1 bd bd cf 1c 03 3b 7a e5 af 3b d6 1e 14 bd
       -0.09259255 0.0020006185 0.005367932 -0.03616222
000280 0f 2f 1b 3d 9e 77 08 bd 1d b7 e0 bb d1 c5 82 bd
       0.037886675 -0.0333172 -0.0068577663 -0.06385387
000290 2d ec 57 3d a6 94 a5 3c 62 35 f9 bc 45 dc 83 bb
       0.05271547 0.020212483 -0.030420963 -0.004024061
0002a0 c8 15 37 3d 99 db 8c ba ee 5f e3 bc c8 44 75 bd
       0.044698507 -0.0010746598 -0.027755704 -0.059880048
0002b0 7d 93 b4 3c ae 99 89 3d 70 ad cc bc b3 00 a6 bc
       0.022042984 0.06718765 -0.024985045 -0.020264005
0002c0 02 cf 3c bd 59 72 cb b8 f9 24 ab bd c0 24 8d 3c
       -0.046095856 -9.701093e-05 -0.08356661 0.017229438
0002d0 b4 2f 3c 3d 44 c6 29 bd fa ea 1a bd a8 5e 9f bc
       0.04594393 -0.041448846 -0.037821747 -0.019454315
0002e0 a7 63 32 3d 0b 42 e8 bb 8f bd 23 b9 93 ea 0a 3d
       0.043552067 -0.007087951 -0.00015615507 0.033915114
0002f0 5b 57 df 3c 53 9d ed bc 46 6f 9e bc 3c 3a f1 3c
       0.027263334 -0.029005682 -0.019340169 0.029446714
000300 61 8f 4a bc e1 08 85 bd 97 a0 00 bc ed 9a 5d 3d
       -0.012363286 -0.06495834 -0.007850788 0.054102827
000310 29 fb 4f bd 71 52 6c 3c 7e 4a 3e bd 63 81 86 bd
       -0.050776634 0.014423952 -0.04645776 -0.06567647
000320 53 6d 75 bd 01 3b 82 bb 65 ae 70 3c 67 93 10 bc
       -0.059918713 -0.003974319 0.014690016 -0.008824206
000330 14 f8 79 bd 20 24 6d 3b 74 69 98 ba b4 1f 02 bd
       -0.0610276 0.0036184862 -0.0011628107 -0.031768516
000340 e1 0c 17 bd bb de a5 bb d7 13 45 3c b8 ae a2 bb
       -0.036877517 -0.005061952 0.012028656 -0.0049646758
000350 8c 43 ef 3b d9 31 8d 3b 2a bc a4 3c a4 13 e9 3c
       0.0073017534 0.004308921 0.020109255 0.028451748
000360 74 54 cf bc 55 9e 1b 3d 7f 99 14 3d a2 13 76 3d
       -0.025308825 0.037992794 0.036279198 0.060077317
000370 f4 57 42 bb b6 c4 8a 3d 7e b0 c4 3c c6 f2 7b bd
       -0.0029654475 0.06775801 0.02400994 -0.061510824
000380 0d fd d8 bc c8 1a 10 3b ee ac 67 bd 20 ce ca bc
       -0.026487852 0.002198862 -0.056561403 -0.024756491
000390 a8 2f 12 3d cc d5 3c ba 33 3d 99 3d 78 c1 13 bb
       0.03568998 -0.0007203489 0.07482376 -0.0022545736
0003a0 c4 cc 6c 3d 7a 10 cd bc c4 2a e6 bc d7 a7 15 bd
       0.057812467 -0.02503227 -0.028096564 -0.036537018
0003b0 b5 c2 f8 bb 50 d6 4a 3d 2e 12 6f 3d 97 b1 e7 bc
       -0.0075915703 0.04952079 0.058366947 -0.028282924
0003c0 38 8c a2 bd 2a a1 1a bd 28 1a 09 3d b7 4d 65 3d
       -0.07936901 -0.037751354 0.03347221 0.055982318
0003d0 a1 c2 f5 bc de d2 ce ba 80 59 e0 bc b7 eb 8d bd
       -0.030000033 -0.0015779396 -0.027386427 -0.06929725
0003e0 2e 8c 84 3c e0 56 16 bd 2e 6e 26 3d 1e 4c d5 3c
       0.016180124 -0.036703944 0.04063242 0.026037272
0003f0 50 a7 18 39 91 f8 a9 3c e2 e7 27 bd 07 f8 4b 3d
       0.00014558178 0.020748409 -0.040992625 0.049797084
