scotland_yard_1v1save/learner/module_state/pol1/module_state_dir/module_state.pt (torch, 559234 bytes, 11 tensors)

encoder.actor_encoder.net.mlp.0.weight f4 [256, 10]
0.3115344 0.040226735 0.12533496 -0.27537766 -0.20179272 0.103640564 0.09262796 0.20415185
-0.17689084 -0.20236208 -0.13345993 0.03781349 -0.09635871 -0.26163453 0.19219643 -0.09292277
-0.046348486 -0.23311488 -0.24011351 -0.24725842 0.16537318 0.13819267 -0.24231073 0.200781
-0.15745865 0.12967198 0.09641387 -0.33867258 0.1314995 -0.3097463 -0.29002824 -0.07633571
0.056154277 0.06679236 0.23450112 0.23285784 -0.018734537 0.2327522 -0.34591872 0.2900752
-0.18173666 0.2629863 0.020714493 0.034540407 -0.10251811 -0.0098724775 0.17098449 0.022387924
-0.1255899 -0.25431556 0.019029666 0.17546684 0.26047304 -0.16403492 -0.3133473 0.24192391
-0.17121005 0.011816376 -0.2228206 0.046835873 -0.033027958 0.24866506 -0.06612789 0.15258756
0.008807888 -0.0017287873 0.032496776 -0.027475541 -0.17418244 -0.099300414 -0.123405844 0.258554
0.10508857 0.10379896 0.15317006 0.13953246 0.14143267 -0.05905534 -0.038239032 -0.31606704
-0.26129502 0.1378376 0.30785286 -0.1348599 0.13563538 -0.2554911 -0.04011516 0.07146335
0.15461518 -0.058549855 -0.0043166284 0.20194632 -0.26147634 0.32572097 0.14183713 -0.02773175
0.14522219 0.15667479 -0.22156636 -0.18435726 -0.19268876 -0.008748323 -0.20328672 0.103387736
0.21117648 -0.05845895 -0.002872713 0.15067844 0.013898016 -0.09102817 0.11109169 -0.22516742
-0.056797814 0.033019193 -0.07887212 -0.051298734 0.026777487 -0.17132202 0.26541615 -0.085699484
0.13843583 0.12410318 0.19006158 -0.09003408 -0.16694066 0.16611737 -0.16065042 0.08493097
-0.2561218 0.005697624 0.2290451 0.2347938 -0.31260377 -0.123658374 0.19977458 -0.031139508
-0.006594297 -0.16860053 0.28644174 -0.2615508 0.28789574 0.25114155 0.042155944 0.169555
0.21188247 0.26985678 0.10459056 -0.20350462 0.100943826 0.0906968 -0.12955183 -0.12843998
0.064483844 -0.025971076 -0.24509953 0.2014034 0.02131272 0.14378352 -0.20952606 0.0848546
0.10650015 0.2581164 0.28984994 0.10190045 -0.061460245 -0.1448522 0.2987757 0.21333785
0.052242734 0.036355887 -0.12462502 0.2832386 -0.19434126 -0.24370155 0.16727206 -0.28817973
0.13036369 0.2967177 -0.07803126 0.1343751 -0.08769578 -0.16129187 -0.13075788 0.037707757
0.19628327 -0.13333257 -0.008563575 -0.002258291 0.16215526 0.09115817 0.00080855534 -0.26335546
0.10589768 0.29747653 -0.05895816 -0.17613676 -0.20817715 0.20623615 -0.010861743 0.0043034605
-0.0014154039 -0.1562992 0.033209044 -0.09734979 0.21051344 0.26438612 -0.2123646 -0.116360165
-0.21464302 0.03824263 -0.13686118 -0.14196663 0.17067628 -0.2572416 0.1786839 0.17744541
0.14066297 0.14926684 0.29155034 -0.22078422 -0.08323335 0.13870613 0.030265821 -0.1349994
0.079923764 -0.16563842 -0.19027887 0.20585383 0.21237625 -0.2717985 -0.17624252 0.08836714
0.024671463 0.07186362 0.27798674 -0.16064836 0.01971186 0.052284524 0.19447824 0.24840167
-0.22948329 -0.18270849 0.2552921 0.046188574 -0.3035345 0.04520077 0.16957434 0.0205094
0.08608807 0.10615614 -0.2534539 -0.14449951 -0.27534696 0.2208638 -0.26978207 0.28831235
00000000: 7081 9f3e cac4 243d cf57 003e 4dfe 8cbe
00000010: c0a2 4ebe 8141 d43d bab3 bd3d 2f0d 513e
00000020: df22 35be 0138 4fbe b8a9 08be 51e2 1a3d
00000030: b757 c5bd f6f4 85be 24cf 443e 4b4e bebd
00000040: e9d7 3dbd abb5 6ebe 51e0 75be 5031 7dbe
00000050: 9657 293e 6182 0d3e 4e20 78be 8999 4d3e
00000060: d73c 21be bbc8 043e a374 c53d 7e66 adbe
00000070: cea7 063e 1197 9ebe 957e 94be e655 9cbd
00000080: 0702 663d 6fca 883d 1021 703e 4972 6e3e
00000090: 2c79 99bc 9856 6e3e 421c b1be bd84 943e
000000a0: 2d19 3abe 24a6 863e 71b1 a93c 3e7a 0d3d
000000b0: 04f5 d1bd 2cc0 21bc 8f16 2f3e e166 b73c
000000c0: a49a 00be a635 82be 1ae4 9b3c 94ad 333e
000000d0: b95c 853e c5f8 27be 0f6f a0be e7ba 773e
000000e0: b051 2fbe 7999 413c 152b 64be f9d6 3f3d
000000f0: 5348 07bd 0ea2 7e3e 0f6e 87bd ea3f 1c3e
00000100: f64e 103c 7a98 e2ba 571b 053d 6314 e1bc
00000110: e25c 32be 045e cbbd 34bc fcbd 3161 843e
00000120: ad38 d73d 8d94 d43d 9dd8 1c3e 99e1 0e3e
00000130: bad3 103e 03e4 71bd 88a0 1cbd 8ad3 a1be
00000140: 76c8 85be 4d25 0d3e e49e 9d3e b718 0abe
00000150: 00e4 0a3e bbcf 82be cb4f 24bd 605b 923d
00000160: 7153 1e3e f9d1 6fbd 8172 8dbb 04cb 4e3e
00000170: 3ae0 85be e6c4 a63e c13d 113e b22d e3bc
00000180: 20b5 143e 5b6f 203e 4be2 62be 26c8 3cbe
00000190: 3450 45be 2055 0fbc 652a 50be f3bc d33d
000001a0: a63e 583e a772 6fbd 2044 3cbb 734b 1a3e
000001b0: 81b4 633c fa6c babd 0a84 e33d 4a92 66be
000001c0: d3a4 68bd 223f 073d b587 a1bd 9f1e 52bd
000001d0: 765c db3c 0a6f 2fbe a0e4 873e 3683 afbd
000001e0: 1fc2 0d3e cf29 fe3d 819f 423e ca63 b8bd
000001f0: 7ef2 2abe ac1a 2a3e 8b81 24be 4af0 ad3d
00000200: 6622 83be 22b3 ba3b cc8a 6a3e c96d 703e
00000210: 9a0d a0be 9a40 fdbd b591 4c3e 4818 ffbc
00000220: f914 d8bb 9ea5 2cbe 7ea8 923e fde9 85be
00000230: 1267 933e a095 803e b6ab 2c3d d39f 2d3e
00000240: b8f7 583e ab2a 8a3e 9333 d63d 8463 50be
00000250: a3bb ce3d 3ebf b93d 3ca9 04be c585 03be
00000260: 1b10 843d 4bc1 d4bc 5ffb 7abe b13c 4e3e
00000270: 0398 ae3c fd3b 133e 008e 56be 40c8 ad3d
00000280: c01c da3d d527 843e 3667 943e 2fb1 d03d
00000290: bdbd 7bbd 2354 14be 21f9 983e 3d75 5a3e
000002a0: 7afc 553d e9e9 143d 673b ffbd a604 913e
000002b0: 6501 47be e68c 79be 5e49 2b3e 4b8c 93be
000002c0: 0f7e 053e 62eb 973e dace 9fbd a099 093e
000002d0: d899 b3bd b229 25be 65e5 05be 7373 1a3d
000002e0: 7bfe 483e 5588 08be 3d4e 0cbc d6ff 13bb
000002f0: 070c 263e 22b1 ba3d 3bf5 533a 87d6 86be
00000300: e2e0 d83d d84e 983e 1d7e 71bd 325d 34be
00000310: 642c 55be 922f 533e 74f5 31bc 0b04 8d3b
00000320: 1385 b9ba e60c 20be 3506 083d 545f c7bd
00000330: d690 573e 9e5d 873e 1b76 59be 3d4e eebd
00000340: 61cb 5bbe 4ea4 1c3d 5625 0cbe b35f 11be
00000350: c3c5 2e3e 2cb5 83be eaf8 363e 40b4 353e
00000360: f409 103e 68d9 183e 1646 953e 4215 62be
00000370: 3f76 aabd fb08 0e3e 07f0 f73c 483d 0abe
00000380: 12af a33d 1e9d 29be 77d8 42be 59cb 523e
00000390: 2979 593e 2c29 8bbe eb78 34be d5f9 b43d
000003a0: cf1b ca3c 3c2d 933d 4754 8e3e 0181 24be
000003b0: c47a a13c 4c28 563d 4e25 473e 025d 7e3e
000003c0: abfd 6abe ef17 3bbe a5b5 823e 3b30 3d3d
000003d0: e068 9bbe 7124 393d e5a4 2d3e 5403 a83c
000003e0: f14e b03d 6468 d93d b6c4 81be aef7 13be
000003f0: 47fa 8cbe 1f2a 623e e020 8abe ad9d 933e

encoder.actor_encoder.net.mlp.0.bias f4 [256]
-0.23703031 -0.26762736 0.11307971 -0.12100869 -0.011402287 -0.029184865 0.30971348 -0.222984
0.27215183 0.18184498 0.27064833 -0.10182501 0.07234722 0.111955374 0.25960982 0.03897037
0.10339962 0.23762645 0.054586772 0.22381614 0.2896897 -0.15879321 -0.20316444 -0.042046137
-0.24736741 0.30462116 0.07783899 0.29694366 -0.14452529 0.19746523 -0.058117773 -0.14822999
0.25016347 -0.27670115 -0.04066715 -0.017853232 0.21186046 0.1402104 -0.20928802 0.26175547
0.15352103 0.011734694 0.26275572 -0.2482432 -0.08064315 -0.19856714 0.02229613 0.04292171
0.021901937 -0.21297574 0.0143645955 0.27478927 0.14208806 0.17925438 0.20737197 -0.17241889
0.17210463 -0.07600167 -0.01906408 -0.2211541 -0.04678663 -0.13597395 -0.19249675 0.05770082
0.27558398 0.17800698 -0.13953118 -0.09553172 -0.26858202 0.15319273 -0.008705008 -0.012523805
-0.20497093 -0.1428325 -0.063104145 -0.043853447 -0.19404814 -0.30043527 -0.06205427 -0.21535277
0.28839642 0.036919896 -0.21404569 0.15019415 -0.012099521 -0.18030146 -0.18166031 -0.20030576
0.122668065 -0.1526344 -0.18275325 -0.2809342 -0.21810593 -0.009980167 -0.31186906 -0.17835653
0.13219029 0.08050313 -0.27950954 0.010987398 0.29830664 -0.0076872413 -0.20809564 0.18143645
0.21278624 0.15787074 0.076115996 -0.0819019 0.20964645 -0.12334324 0.22159116 0.009781088
-0.19626111 -0.10255764 0.13830914 0.030567043 0.16044484 -0.013714534 -0.12584433 -0.037206545
0.13167685 -0.13883302 0.07783614 -0.27697015 -0.27064887 -0.19899459 0.1359763 -0.28922313
-0.20870917 0.040323008 0.2760843 0.30956283 0.18020064 -0.21665226 0.06635625 -0.14809895
0.18627581 0.2480877 0.21195775 -0.017702054 -0.078626364 0.04683467 -0.011266738 0.1051619
0.31087264 0.2864011 0.32393378 -0.2757657 0.21243013 -0.17940976 0.28076562 -0.0112322
-0.01779165 -0.04963293 0.11555301 -0.016599348 -0.22348513 0.1477714 0.23051982 0.25817838
-0.29341564 -0.03423193 -0.010380883 0.0586679 0.17250834 0.12674773 -0.30659416 -0.110832006
0.11644391 0.30597273 -0.12374989 -0.116266094 0.25827128 -0.009622674 0.2082278 -0.22445278
-0.14656396 -0.2918381 -0.23659372 -0.17187402 0.2401776 0.27967212 0.16664845 0.12588796
0.2504018 0.041425373 -0.25300136 0.23834565 0.20999162 -0.028064748 0.014521999 0.30328068
-0.049725883 -0.069100216 -0.17686984 -0.2589626 -0.22478999 0.040957022 0.22624455 0.15228602
-0.16935126 0.071026966 0.176079 -0.28160846 0.21716872 -0.07806717 -0.1971899 -0.04050988
-0.21525127 -0.03716144 -0.115202956 0.05019187 -0.01167551 -0.045504384 -0.089300275 0.17379278
-0.28669035 -0.08011733 0.07930322 -0.033274118 0.25627336 -0.20438291 -0.327473 0.2547086
-0.29092708 -0.023122653 0.2363934 0.1387781 0.10728156 0.110287 -0.18146832 0.29576483
-0.14562859 -0.27808285 0.06999271 -0.30417174 -0.061013937 0.13128261 -0.28900886 0.060960803
0.15757725 -0.13263898 -0.07250017 -0.26708904 -0.2853312 -0.26439676 -0.26423725 0.009490565
0.2772191 -0.08786366 -0.069720015 -0.21849276 -0.07390007 0.027933909 -0.013196299 0.16531882
00000000: 13b8 72be 7406 89be 5696 e73d 67d3 f7bd
00000010: a8d0 3abc 1915 efbc c492 9e3e eb55 64be
00000020: 7c57 8b3e 9235 3a3e 6b92 8a3e a189 d0bd
00000030: c72a 943d dc48 e53d 94eb 843e 659f 1f3d
00000040: 2ec3 d33d 5954 733e 6196 5f3d 0f30 653e
00000050: 3552 943e b09a 22be 570a 50be 9238 2cbd
00000060: e24d 7dbe 4ef7 9b3e 0c6a 9f3d 0009 983e
00000070: 70fe 13be 5334 4a3e e70c 6ebd 9ac9 17be
00000080: 6d15 803e c6ab 8dbe 9992 26bd f140 92bc
00000090: f3f1 583e 5193 0f3e 994f 56be d004 863e
000000a0: 9e34 1d3e e042 403c eb87 863e 7733 7ebe
000000b0: 3c28 a5bd 2f55 4bbe 60a6 b63c adce 2f3d
000000c0: b16b b33c 5016 5abe 7b59 6b3c 2eb1 8c3e
000000d0: 887f 113e 768e 373e 5159 543e 948e 30be
000000e0: 323c 303e c3a6 9bbd 462c 9cbc 3876 62be
000000f0: 56a3 3fbd c13c 0bbe de1d 45be b257 6c3d
00000100: 5819 8d3e 7647 363e 43e1 0ebe 22a6 c3bd
00000110: 9583 89be 8ede 1c3e 739f 0ebc a530 4dbc
00000120: e6e3 51be af42 12be bf3c 81bd ac9f 33bd
00000130: 8eb4 46be a7d2 99be 9e2c 7ebd 7085 5cbe
00000140: b2a8 933e 5139 173d cb2e 5bbe 7fcc 193e
00000150: 123d 46bc f2a0 38be 2905 3abe f41c 4dbe
00000160: 6539 fb3d 314c 1cbe ab23 3bbe 9cd6 8fbe
00000170: 2957 5fbe db83 23bc 4dad 9fbe 18a3 36be
00000180: e45c 073e d3de a43d e01b 8fbe 7d04 343c
00000190: a6bb 983e 41e5 fbbb 0617 55be 7aca 393e
000001a0: a3e4 593e dea8 213e b4e2 9b3d 2fbc a7bd
000001b0: 8fad 563e 619b fcbd cbe8 623e db40 203c
000001c0: acf8 48be bd09 d2bd e9a0 0d3e bc67 fa3c
000001d0: a74b 243e edb2 60bc 56dd 00be e465 18bd
000001e0: 4cd6 063e 3e2a 0ebe 8e68 9f3d 08cf 8dbe
000001f0: 7d92 8abe 3dc5 4bbe 5f3d 0b3e 0e15 94be
00000200: dbb7 55be bd29 253d ec5a 8d3e 057f 9e3e
00000210: 8486 383e 17da 5dbe c9e5 873d 40a7 17be
00000220: 16bf 3e3e b40a 7e3e 740b 593e e603 91bc
00000230: dc06 a1bd b6d5 3f3d 2098 38bc 1f5f d73d
00000240: b32a 9f3e 2aa3 923e a6da a53e 2931 8dbe
00000250: 4987 593e 31b7 37be 83c0 8f3e 4307 38bc
00000260: cbbf 91bc e64b 4bbd 0ea7 ec3d 5bfb 87bc
00000270: 49d9 64be 6351 173e 630d 6c3e f52f 843e
00000280: 933a 96be c836 0cbd 9414 2abc c04d 703d
00000290: 07a6 303e 28ca 013e e9f9 9cbe e4fb e2bd
000002a0: 257a ee3d 75a8 9c3e 9570 fdbd eb1c eebd
000002b0: 223c 843e 6ca8 1dbc ab39 553e f3d6 65be
000002c0: dd14 16be ce6b 95be a045 72be beff 2fbe
000002d0: 1ef1 753e 2f31 8f3e e4a5 2a3e c6e8 003e
000002e0: aa34 803e a7ad 293d 6589 81be e210 743e
000002f0: 0b08 573e 0be8 e5bc aeed 6d3c 9b47 9b3e
00000300: 5ead 4bbd 6a84 8dbd 5e1d 35be bf96 84be
00000310: 592f 66be 8dc2 273d a7ac 673e def0 1b3e
00000320: 6b6a 2dbe 9676 913d 0e4e 343e fc2e 90be
00000330: 7a61 5e3e aee1 9fbd 26ec 49be b0ed 25bd
00000340: d46a 5cbe 9836 18bd 87ef ebbd fe95 4d3d
00000350: a34a 3fbc ce62 3abd 10e3 b6bd bcf6 313e
00000360: 14c9 92be 8e14 a4bd ba69 a23d 714a 08bd
00000370: 4336 833e c149 51be 8baa a7be 2a69 823e
00000380: 65f4 94be b86b bdbc 1d11 723e d91b 0e3e
00000390: 6fb6 db3d 27de e13d d5d2 39be 7d6e 973e
000003a0: a91f 15be e060 8ebe 5758 8f3d 66bc 9bbe
000003b0: c0e9 79bd f36e 063e f8f8 93be 09b2 793d
000003c0: ee5b 213e 83d2 07be f87a 94bd e5bf 88be
000003d0: ee16 92be 035f 87be 1b4a 87be 517e 1b3c
000003e0: a9ef 8d3e ddf1 b3bd 5ec9 8ebd 91bc 5fbe
000003f0: eb58 97bd a7d5 e43c 4a35 58bc 5649 293e

encoder.actor_encoder.net.mlp.2.weight f4 [256, 256]
0.012871518 -0.039964713 -0.015744453 0.04104154 0.012348484 0.059568904 -0.033021852 0.051262315
0.021949882 -0.009393692 0.030553244 -0.043743707 -0.029934416 0.011539428 0.051803265 0.02158497
0.04142821 0.041858368 -0.009915335 0.035495456 0.07365891 0.029182365 -0.035299923 0.016243702
-0.0020838962 0.065883845 0.025253044 0.026027575 0.05517585 0.054632537 0.029514236 0.044874627
0.02088333 -0.02276244 0.04242449 -0.015517959 0.04669062 0.041635852 0.038941674 0.047687925
0.016732648 0.0027868988 -0.051917918 -0.0238509 -0.023253834 0.06602329 0.05479596 0.02276893
0.063677266 0.043093905 0.010911906 -0.013792951 -0.061560698 0.019252894 -0.042190496 0.023543699
-0.046893187 0.0044904426 -0.03314859 0.0150822755 -0.055090774 0.015956104 0.019734807 0.04830711
0.06089283 -0.05876905 0.04923838 0.007756233 -0.001437173 0.0073641846 0.045469042 -0.03509504
-0.015741743 0.043254822 -0.054427568 -0.028862901 0.020446809 -0.03421772 -0.02361578 -0.04989823
0.04037197 -0.053251166 0.05539643 0.017515095 -0.04697049 0.017918084 0.05964279 -0.00793722
0.024878895 0.037796274 0.042061336 0.009141858 0.03682788 0.043462526 -0.06508426 0.01019038
0.03552012 0.047796212 -0.034277648 0.022826703 0.013855612 -0.001116585 0.05119551 -0.040288262
-0.042455982 -0.0002897165 0.009931456 -0.04407055 0.010892569 0.010374464 0.038507044 -0.018595144
-0.0008876096 0.045475803 -0.059751544 -0.030272609 -0.0620056 -0.0012685311 -0.018583063 0.0073255883
0.02412386 -0.0020839986 -0.02727818 0.033248942 0.04187031 0.06799253 -0.048889335 -0.060641438
-0.01238716 0.01717101 -0.0487467 0.04638333 0.014114816 0.038900398 0.047114473 -0.041561007
0.008044093 -0.056084972 -0.01655776 -0.056102816 -0.0075581777 0.03880473 0.020707378 -0.005651147
-0.034235153 0.0032366137 -0.014342113 0.01677382 -0.050812453 0.047347512 -0.04146069 -0.004572764
-0.019444838 0.06208158 0.008638321 0.021953452 -0.04284067 0.0006695238 0.018237663 0.04687935
-0.045434203 -0.025556477 -0.061326038 0.024057534 0.015746452 0.033220775 0.021721873 0.00066717784
-0.03086917 -0.00095208565 0.030236084 0.013862214 -0.032227345 -0.052535072 -0.05377502 0.016042374
-0.057988953 0.05318963 -0.044021025 -0.032671206 -0.015727833 -0.0059134434 -0.034578215 -0.023140926
-0.051317792 0.0672417 0.021866608 -0.05226658 -0.016857797 -0.03302721 -0.014838123 -0.039803553
-0.005120602 -0.023940535 -0.036712136 -0.05313276 0.056110434 -0.0582641 0.019634886 0.044256013
-0.001055366 0.03670356 -0.02571795 -0.006697262 -0.056149963 -0.046849117 0.05597969 0.04806022
0.007927905 0.01881455 0.027171742 -0.05461985 -0.0067674886 0.007815078 0.05333962 -0.060916826
0.035563897 0.04777024 0.002982556 0.040489778 -0.025739877 -0.018610366 0.03321062 -0.028277962
-0.056644507 -0.035083946 0.026655134 0.0452615 -0.06359178 0.004703585 0.011110798 -0.0528844
-0.00078924256 -0.030337604 -0.050593484 -0.03867906 -0.019362384 -0.0038118763 0.0037542444 -0.042999554
0.008063672 -0.018593235 0.036456008 -0.051307008 0.009641849 -0.031249035 0.0466055 0.005995342
-0.036669165 0.032249033 0.055507332 0.06743384 -0.04126267 0.00049813115 0.024826301 0.028032944
00000000: 0fe3 523c 0ab2 23bd 83fa 80bc 2d1b 283d
00000010: 4c51 4a3c 86fe 733d ec41 07bd 6ff8 513d
00000020: 3dd0 b33c 00e8 19bc cc4a fa3c 9a2c 33bd
00000030: 0539 f5bc de0f 3d3c a92f 543d f7d2 b03c
00000040: a0b0 293d ae73 2b3d ee73 22bc af63 113d
00000050: 7cda 963d db0f ef3c a796 10bd 8311 853c
00000060: fa91 08bb 1cee 863d 79df ce3c c837 d53c
00000070: 1200 623d 5ec6 5f3d d7c7 f13c 75ce 373d
00000080: 8413 ab3c 4c78 babc 4dc5 2d3d 0a3f 7ebc
00000090: aa3e 3f3d 5b8a 2a3d 4e81 1f3d 6a54 433d
000000a0: e812 893c 67a4 363b e2a7 54bd f662 c3bc
000000b0: d37e bebc 3837 873d bb71 603d e885 ba3c
000000c0: 3a69 823d 3c83 303d dac7 323c d4fb 61bc
000000d0: 1227 7cbd 3fb8 9d3c f1cf 2cbd b7de c03c
000000e0: 1213 40bd 9024 933b d1c6 07bd a61b 773c
000000f0: dda6 61bd 60b6 823c e4aa a13c addd 453d
00000100: c36a 793d d1b7 70bd 2fae 493d 0028 fe3b
00000110: 865f bcba 424f f13b bf3d 3a3d d1bf 0fbd
00000120: d4f4 80bc f82b 313d 71ef 5ebd e471 ecbc
00000130: 1180 a73c e127 0cbd e175 c1bc 1662 4cbd
00000140: 145d 253d e51d 5abd 5ee7 623d d17b 8f3c
00000150: 2164 40bd f2c8 923c 004c 743d 1d0b 02bc
00000160: d3ce cb3c 44d0 1a3d 8248 2c3d bbc7 153c
00000170: d5d8 163d c305 323d e64a 85bd 8df5 263c
00000180: 8c7d 113d f6c5 433d b866 0cbd 11ff ba3c
00000190: a602 633c 605a 92ba 62b2 513d 4e05 25bd
000001a0: 53e6 2dbd 17e5 97b9 8cb7 223c 5283 34bd
000001b0: bf76 323c a8f9 293c 90b9 1d3d d854 98bc
000001c0: 79ae 68ba d644 3a3d 09be 74bd 43fe f7bc
000001d0: 96f9 7dbd d744 a6ba 823b 98bc 7d0b f03b
000001e0: 679f c53c b293 08bb 7d76 dfbc 0b30 083d
000001f0: 3480 2b3d ab3f 8b3d 2f40 48bd 2863 78bd
00000200: 84f3 4abc 38aa 8c3c 9faa 47bd 72fc 3d3d
00000210: d441 673c 0656 1f3d 1bfb 403d e03b 2abd
00000220: 5fcb 033c 5bb9 65bd 24a4 87bc 11cc 65bd
00000230: 97aa f7bb b5f1 1e3d 85a2 a93c 422d b9bb
00000240: 293a 0cbd 5e1d 543b 2ffb 6abc 4069 893c
00000250: b820 50bd 77ef 413d afd2 29bd 20d7 95bb
00000260: c84a 9fbc 4149 7e3d bf87 0d3c bad7 b33c
00000270: b379 2fbd fb82 2f3a 2767 953c 9004 403d
00000280: 3719 3abd d15b d1bc 0331 7bbd 4e14 c53c
00000290: b4fe 803c 8212 083d 12f2 b13c 8ce5 2e3a
000002a0: 57e1 fcbc 6395 79ba aab1 f73c 571e 633c
000002b0: d200 04bd 042f 57bd 3243 5cbd 4c6b 833c
000002c0: d385 6dbd 5fdd 593d 644f 34bd 3ed2 05bd
000002d0: a8d7 80bc 8fc5 c1bb e3a1 0dbd 0a92 bdbc
000002e0: 9b32 52bd 04b6 893d 9a21 b33c 7b15 56bd
000002f0: 5d19 8abc 8a47 07bd 991b 73bc 0d09 23bd
00000300: b9ca a7bb f11e c4bc 775f 16bd bda1 59bd
00000310: 0ed4 653d 56a6 6ebd 57d9 a03c cb45 353d
00000320: 3554 8aba 7956 163d 73ae d2bc b574 dbbb
00000330: 81fd 65bd dce4 3fbd f64a 653d cbda 443d
00000340: 0be4 013c f920 9a3c 4697 de3c 10b9 5fbd
00000350: cfc1 ddbb d00a 003c a57a 5a3d ec83 79bd
00000360: 73ab 113d baaa 433d fc76 433b 9cd8 253d
00000370: 6fdc d2bc c474 98bc dc07 083d 2fa7 e7bc
00000380: 1204 68bd 2fb4 0fbd de5b da3c 1f64 393d
00000390: 683c 82bd 8820 9a3b 110a 363c 509d 58bd
000003a0: 2ce5 4eba 9186 f8bc 1d3b 4fbd ef6d 1ebd
000003b0: dd9d 9ebc acd0 79bb c509 763b 4d20 30bd
000003c0: 7e1d 043c d750 98bc e552 153d 4c27 52bd
000003d0: d9f8 1d3c fafd ffbc 69e5 3e3d 9374 c43b
000003e0: 6832 16bd 9017 043d a85b 633d c11a 8a3d
000003f0: 0c03 29bd 0495 023a 8760 cb3c 58a5 e53c

encoder.actor_encoder.net.mlp.2.bias f4 [256]
-0.0023970597 0.047711432 -0.00628163 0.024333159 -0.0026297332 0.0149630075 0.025858773 0.0049371626
0.038398452 0.04745364 0.003274028 -0.005640231 -0.060573623 0.051933937 0.0056916787 0.04472579
0.037948195 0.06244065 0.021393806 -0.013227399 0.038758554 -0.0010876075 -0.0062667476 -0.0014377743
0.04455126 0.016543573 -0.006960136 -0.018695524 -0.059638187 0.03235295 -0.044216022 0.049612336
-0.021167608 0.055224057 -0.03725258 0.018074693 -0.031232793 0.051439527 -0.056692548 -0.017873237
0.014476446 0.05578556 0.014938186 0.03371617 0.0074514938 -0.04396667 -0.013887916 -0.015282177
-0.054379724 0.03471878 -0.008751207 -0.0015208788 -0.028712336 -0.047076363 0.056465786 -0.0007345909
-0.046997815 -0.012726403 0.035838265 -0.057646304 -0.020313144 0.029929297 -0.025406681 0.0021278053
-0.047280446 -0.035989318 0.04751553 -0.046690524 -0.024816323 -0.040113952 -0.019818481 -0.034112692
0.019381056 0.05460069 -0.05435771 -0.0017726518 -0.007073656 0.04741457 0.015575372 -0.0050961208
-0.014978362 0.036325537 0.044843156 -0.012113616 0.0036977248 -0.010342903 -0.028021334 -0.0018294019
-0.021780528 -0.0111424625 -0.013783424 -0.022260075 0.041633673 0.048482116 0.051478904 -0.026366994
-0.015038269 0.05799706 0.0356858 -0.059582766 -0.044379357 -0.011364907 0.012233693 0.057186183
-0.020343311 0.06580194 -0.023441957 -0.054102957 -0.052237406 -0.032416318 -0.01146334 0.017166836
0.030227508 -0.021679077 0.055230625 0.04337141 -0.010531424 -0.003217071 0.054740407 -0.04634123
0.025670277 0.013989333 -0.0064720158 -0.016947746 0.036254466 -0.048439026 0.056519583 -0.011470274
-0.0375054 -0.05999659 -0.06309567 -0.010123519 -0.032448836 0.043506626 0.0025997865 0.057570517
-0.048617512 -0.051165417 -0.014589923 -0.036029533 0.0582108 0.013624679 0.004928949 -0.019532017
0.0563623 0.043952953 -0.05776543 0.03414409 -0.052552965 -0.042663258 -0.025499426 0.018312225
-0.048118696 -0.03849093 0.01954338 -0.0023770882 0.02231721 0.015153199 -0.030850612 -0.023627073
-0.022047397 -0.06320613 -0.0027575751 -0.022052135 -0.059549283 -0.012329594 -0.0256112 0.01804245
0.0040473877 0.0058705267 0.017184498 -0.042954855 -0.05794459 0.03316023 0.031515528 0.056266543
0.028495671 0.011133242 -0.002057284 -0.028703233 -0.026078021 0.023286816 -0.04709545 -0.0018407225
0.053472884 -0.016506335 0.021878507 -0.02635521 -0.0357276 0.04498756 -0.022598082 0.054088518
0.023172308 -0.04902405 0.027205316 -0.012678511 0.049794298 0.019085405 -0.04068163 0.050580077
0.021016015 0.061065823 -0.04229119 -0.011180956 -0.029607719 -0.033781633 -0.027505673 0.0412527
0.02578755 -0.06435714 0.00519973 0.063805014 -0.052379996 -0.0347349 0.039886836 0.014955055
-0.011368635 0.017404135 0.0023966057 0.020425372 -0.027988361 -0.034253445 -0.04460847 -0.053897962
0.00088418025 0.020151703 -0.055946834 0.048403475 0.00972737 0.022048369 -0.020529468 -0.04549189
0.03744064 -0.01746855 -0.0032965236 -0.026399145 0.005679362 0.045896485 0.05482242 0.047235835
-0.061127648 -0.0082091205 0.023942856 0.029372336 -0.013645405 0.056685526 0.01994738 0.037020233
-0.01310649 0.021651119 0.045173116 -0.027408557 -0.06863077 0.019508043 0.04297135 -0.04570842
00000000: fd17 1dbb 106d 433d 22d6 cdbb 5556 c73c
00000010: 9a57 2cbb 6727 753c c7d5 d33c ecc7 a13b
00000020: b247 1d3d bf5e 423d 1391 563b b0d1 b8bb
00000030: 0c1c 78bd aeb8 543d 4381 ba3b 6432 373d
00000040: 916f 1b3d c4c1 7f3d 1042 af3c bcb7 58bc
00000050: 4ac1 1e3d 0d8e 8eba 4a59 cdbb b373 bcba
00000060: 627b 363d 6386 873c da11 e4bb 5b27 99bc
00000070: 2c47 74bd 8784 043d dc1b 35bd 4e36 4b3d
00000080: b167 adbc 9f32 623d 2996 18bd 6111 943c
00000090: eadb ffbc 41b2 523d 7236 68bd e56a 92bc
000000a0: 9e2e 6d3c 667f 643d 4bbf 743c f719 0a3d
000000b0: a92b f43b 6516 34bd 248a 63bc 1962 7abc
000000c0: 46bd 5ebd 4835 0e3d 3961 0fbc 3958 c7ba
000000d0: 2236 ebbc 25d3 40bd ab48 673d 9091 40ba
000000e0: c880 40bd 6782 50bc 25cb 123d 881e 6cbd
000000f0: c067 a6bc 492e f53c ac21 d0bc a672 0b3b
00000100: 24a9 41bd 8969 13bd a59f 423d 903e 3fbd
00000110: 9a4b cbbc 874e 24bd 5e5a a2bc c0b9 0bbd
00000120: 05c5 9e3c f9a4 5f3d 31a6 5ebd 5358 e8ba
00000130: 21ca e7bb c835 423d d82f 7f3c 5cfd a6bb
00000140: ce67 75bc 16ca 143d 75ad 373d 3078 46bc
00000150: 8755 723b 4875 29bc ff8c e5bc 8bc8 efba
00000160: 146d b2bc e08e 36bc dfd3 61bc c35a b6bc
00000170: 1288 2a3d 2f95 463d 8bdb 523d 98ff d7bc
00000180: 1263 76bc 538e 6d3d 462b 123d 0f0d 74bd
00000190: 21c7 35bd e033 3abc d46f 483c 0f3c 6a3d
000001a0: 04a7 a6bc 2bc3 863d 5909 c0bc 109b 5dbd
000001b0: e4f6 55bd f9c6 04bd bcd0 3bbc 77a1 8c3c
000001c0: ae9f f73c 5298 b1bc 8239 623d 38a6 313d
000001d0: fe8b 2cbc 7fd5 52bb 7a37 603d 4dd0 3dbd
000001e0: 794a d23c 8433 653c 3413 d4bb 00d6 8abc
000001f0: 907f 143d 0068 46bd 1481 673d d1ed 3bbc
00000200: 439f 19bd fcbe 75bd 4d38 81bd 1edd 25bc
00000210: 12e9 04bd 0134 323d 2e61 2a3b 10cf 6b3d
00000220: 2823 47bd d492 51bd 930a 6fbc b493 13bd
00000230: 736e 6e3d 0c3a 5f3c 0583 a13b 9c01 a0bc
00000240: 28dc 663d 0308 343d 729b 6cbd acda 0b3d
00000250: c741 57bd abbf 2ebd 2ce4 d0bc 8503 963c
00000260: 1c18 45bd aaa8 1dbd 7019 a03c ecc8 1bbb
00000270: 95d2 b63c 2045 783c 6cba fcbc 908d c1bc
00000280: be9c b4bc 3772 81bd 6fb8 34bb aea6 b4bc
00000290: f3e9 73bd 1102 4abc 94ce d1bc c3cd 933c
000002a0: f39f 843b 8c5d c03b 81c6 8c3c 6ef1 2fbd
000002b0: 4e57 6dbd 05d3 073d 6d16 013d bf77 663d
000002c0: c16f e93c 3468 363c 7fd3 06bb 0b23 ebbc
000002d0: 93a1 d5bc fec3 be3c 29e7 40bd 6644 f1ba
000002e0: 6206 5b3d 4b38 87bc 8e3a b33c e2e6 d7bc
000002f0: 1b57 12bd e044 383d 9d1f b9bc ec8b 5d3d
00000300: dad3 bd3c 71cd 48bd afdd de3c 88b9 4fbc
00000310: 1bf5 4b3d ff58 9c3c c8a1 26bd 0e2d 4f3d
00000320: c729 ac3c 2820 7a3d 8739 2dbd 5430 37bc
00000330: e38b f2bc 9c5e 0abd 9453 e1bc 97f8 283d
00000340: 6940 d33c adcd 83bd 7f62 aa3b 34ac 823d
00000350: 688c 56bd 2f46 0ebd 6160 233d 0c06 753c
00000360: 8343 3abc 1e93 8e3c 5f10 1d3b 1c53 a73c
00000370: d947 e5bc 574d 0cbd 5fb7 36bd 1cc4 5cbd
00000380: 55c8 673a 2f15 a53c 8228 65bd b942 463d
00000390: 8c5f 1f3c c89e b43c 6a2d a8bc b455 3abd
000003a0: 5b5b 193d 341a 8fbc 7d0a 58bb 0543 d8bc
000003b0: f119 ba3b f4fd 3b3d 798d 603d 5d7a 413d
000003c0: fc60 7abd 8c7f 06bc cf23 c43c 419e f03c
000003d0: fa90 5fbc 152f 683d b068 a33c 87a2 173d
000003e0: 9abc 56bc b05d b13c 7207 393d e987 e0bc
000003f0: 4a8e 8cbd 55cf 9f3c ba02 303d c138 3bbd

encoder.critic_encoder.net.mlp.0.weight f4 [256, 10]
-0.14497721 -0.23569933 -0.30542257 0.13821338 0.082038365 0.23019679 -0.12353653 0.024097847
0.02923905 -0.010946872 -0.14596651 -0.22596143 -0.24666321 -0.038205493 -0.28495568 0.1492826
0.115801126 0.26001194 -0.15524223 0.09574043 -0.09498543 0.120518364 -0.27013865 -0.24753477
0.025908193 -0.10184933 -0.09374126 -0.03786122 0.01779331 -0.194933 -0.22518662 -0.29634872
-0.0020894585 0.03873523 -0.06437398 0.22177571 -0.23147184 -0.07959252 -0.16575666 -0.30081615
-0.16837232 -0.11471317 0.15033995 0.2663427 -0.20285822 -0.17656459 -0.23115149 -0.31942365
-0.038693603 0.2696969 0.23728654 -0.022319673 -0.3252743 -0.07463248 0.06300741 0.11346842
-0.19679946 -0.13475199 -0.29492393 0.094876304 -0.0133082755 0.04414326 -0.1370376 -0.06569106
-0.20765248 0.25309572 0.08152223 -0.05232554 0.20824733 0.056367278 0.18742345 -0.16187184
-0.09932175 -0.20795731 0.00919273 0.2047461 0.22641416 0.0759857 0.072816 -0.16385874
0.31413475 -0.019935101 -0.21747005 -0.049996912 -0.08317244 0.196064 0.27683216 -0.22235766
0.18701 -0.08709923 -0.103685774 0.060904652 -0.3489605 0.14674053 0.21664914 0.048671078
-0.13075121 -0.23853743 -0.15223193 0.06884577 -0.020486465 -0.15508649 0.14948958 0.22403897
0.21040788 -0.32675013 0.16125718 0.28174123 0.30540237 -0.054444376 -0.039409578 -0.30439788
-0.108399376 0.13641188 -0.23208475 -0.28227752 0.00062150625 0.19162105 -0.28789607 -0.21014918
-0.25034237 -0.10417332 0.121886335 0.16424055 -0.21239123 -0.0077583916 -0.049709506 0.24346419
0.1026886 0.21495499 -0.081818804 0.21122289 -0.20392741 0.24852398 0.23582678 -0.22969498
-0.17326006 -0.04347573 -0.21237272 0.0028440435 0.11172524 0.020393366 0.14606328 0.014301464
-0.18431763 0.11404088 -0.0026791762 -0.0360934 0.22839147 0.15216888 -0.014560988 0.114379086
-0.12087682 -0.11541648 -0.06962678 -0.2395009 0.13220972 0.2019283 -0.059643082 0.23904777
-0.26586774 -0.20174344 0.2510301 -0.012799577 0.123177685 0.13562992 0.22227953 -0.14880313
0.024493756 0.054918878 0.15651792 -0.07591082 0.016170112 0.15191123 -0.026275128 0.23952535
-0.07213489 0.09033732 -0.15867296 -0.12645464 -0.24946669 0.3146639 -0.22571717 -0.12207725
0.24332388 -0.12293354 0.122049466 -0.1592409 0.07746619 0.15508264 0.29838893 -0.26566416
-0.16414616 0.31317 -0.014426545 0.257324 -0.03051258 -0.10338737 -0.14061795 -0.100834936
0.03145134 0.17331214 -0.08241348 0.09503365 -0.030072397 -0.07060406 0.16208364 0.11320046
-0.08625218 -0.1529771 0.26060507 0.13715863 0.0068752393 -0.04604855 -0.29283577 0.11243644
-0.16210915 0.20193328 -0.23652945 -0.068245254 0.12065487 0.32027468 -0.13946968 0.1948385
0.15115981 -0.30527896 -0.25978383 0.001310211 0.3200228 -0.16668774 0.117254496 -0.11546163
-0.01685093 -0.29221597 0.2685347 0.047871225 0.20812713 0.24342135 0.041603714 0.20002232
-0.1693824 0.20669147 0.26545963 -0.31575748 0.22407126 -0.24789803 -0.3259169 0.3189757
-0.11641729 0.16730651 -0.2046253 -0.26898143 0.14140476 0.08987271 0.2508005 -0.14447251
00000000: e874 14be 2a5b 71be 5960 9cbe cf87 0d3e
00000010: bb03 a83d b5b8 6b3e b800 fdbd d968 c53c
00000020: bb86 ef3c 825a 33bc 3f78 15be 6f62 67be
00000030: 4895 7cbe 5d7d 1cbd b6e5 91be 8add 183e
00000040: 2429 ed3d 4920 853e d2f7 1ebe 8f13 c43d
00000050: b987 c2bd 55d2 f63d 9d4f 8abe c179 7dbe
00000060: 6b3d d43c 6296 d0bd 6bfb bfbd 5e14 1bbd
00000070: 47c3 913c 849c 47be 5297 66be 05bb 97be
00000080: 4cef 08bb d5a8 1e3d 81d6 83bd 2c19 633e
00000090: f406 6dbe 6701 a3bd 1dbc 29be 9304 9abe
000000a0: cb69 2cbe bdee eabd b7f2 193e 125e 883e
000000b0: 11ba 4fbe 59cd 34be fab2 6cbe 7f8b a3be
000000c0: 2f7d 1ebd b615 8a3e 3efb 723e bfd7 b6bc
000000d0: 5a8a a6be ead8 98bd 070a 813d 2262 e83d
000000e0: cc85 49be 6dfc 09be 4500 97be 824e c23d
000000f0: f40a 5abc 90cf 343d 9653 0cbe 0989 86bd
00000100: daa2 54be c395 813e 20f5 a63d 4e53 56bd
00000110: ca3e 553e 60e1 663d efeb 3f3e bbc1 25be
00000120: 3469 cbbd c3f2 54be 1b9d 163c f6a8 513e
00000130: 1dd9 673e 649e 9b3d 8e20 953d 96ca 27be
00000140: 45d6 a03e f04e a3bc 78b0 5ebe 90c9 4cbd
00000150: 5056 aabd 00c5 483e f2bc 8d3e bab1 63be
00000160: 8d7f 3f3e 1561 b2bd 3559 d4bd 2877 793d
00000170: f3aa b2be 2643 163e 46d9 5d3e 535b 473d
00000180: a5e3 05be 2843 74be b0e2 1bbe 03ff 8c3d
00000190: 3bd3 a7bc fece 1ebe cc13 193e 796a 653e
000001a0: 2a75 573e cb4b a7be 9a20 253e 6340 903e
000001b0: b35d 9c3e 1101 5fbd f06b 21bd 0ada 9bbe
000001c0: 7e00 debd 8eaf 0b3e a0a7 6dbe ae86 90be
000001d0: 94ec 223a 4f38 443e 1d67 93be 5931 57be
000001e0: e02c 80be d258 d5bd 8b9f f93d ad2e 283e
000001f0: 167d 59be 1b3a febb 329c 4bbd ad4e 793e
00000200: 674e d23d 291d 5c3e 9e90 a7bd d04a 583e
00000210: 59d2 50be 127d 7e3e 937c 713e 2935 6bbe
00000220: 166b 31be 9b13 32bd 3c78 59be 2263 3a3b
00000230: 34d0 e43d fd0f a73c 9d91 153e b050 6a3c
00000240: c3bd 3cbe 448e e93d 1e95 2fbb acd6 13bd
00000250: 74df 693e 29d2 1b3e 3691 6ebc 953f ea3d
00000260: 448e f7bd 7a5f ecbd 7c98 8ebd b93f 75be
00000270: fc61 073e 4bc6 4e3e 4e4c 74bd f0c8 743e
00000280: d11f 88be d595 4ebe 0487 803e 51b5 51bc
00000290: 9544 fc3d 92e2 0a3e 3f9d 633e d95f 18be
000002a0: 21a7 c83c 9ef2 603d 3c46 203e 2277 9bbd
000002b0: 2f77 843c 9e8e 1b3e f03e d7bc 2246 753e
000002c0: 75bb 93bd c602 b93d 2a7b 22be 537d 01be
000002d0: 3274 7fbe a01b a13e 6722 67be a303 fabd
000002e0: e529 793e 94c4 fbbd 12f5 f93d 0c10 23be
000002f0: 98a6 9e3d fccd 1e3e 6fc6 983e 2205 88be
00000300: ee15 28be d157 a03e 515d 6cbc f9bf 833e
00000310: 85f5 f9bc c2bc d3bd 27fe 0fbe 8c82 cebd
00000320: 1fd3 003d bd78 313e 66c8 a8bd 01a1 c23d
00000330: 635a f6bc dd98 90bd 41f9 253e a5d5 e73d
00000340: fca4 b0bd 07a6 1cbe 076e 853e 5073 0c3e
00000350: b049 e13b 689d 3cbd 92ee 95be 1445 e63d
00000360: f1ff 25be 99c7 4e3e c734 72be 2bc4 8bbd
00000370: e719 f73d 0bfb a33e 24d1 0ebe be83 473e
00000380: a3c9 1a3e 864d 9cbe 6302 85be 63bb ab3a
00000390: 07da a33e 31b0 2abe 2023 f03d 2677 ecbd
000003a0: f60a 8abc 559d 95be 617d 893e 9e14 443d
000003b0: 471f 553e 7243 793e a868 2a3d a7d2 4c3e
000003c0: 9472 2dbe eea6 533e 53ea 873e f7aa a1be
000003d0: f072 653e fbd8 7dbe 94de a6be c850 a33e
000003e0: 306c eebd 6652 2b3e 4b89 51be efb7 89be
000003f0: 69cc 103e 2f0f b83d ec68 803e 9af0 13be

encoder.critic_encoder.net.mlp.0.bias f4 [256]
-0.26890007 -0.017388623 0.05269309 0.039257336 0.088755414 0.20376563 0.016626822 -0.05559697
0.31073272 0.100938186 -0.31421864 -0.18648618 -0.13327353 0.2674381 -0.18037921 0.2000168
0.1488067 -0.21153384 0.30667254 0.30538225 -0.094350524 0.14368093 -0.100049466 -0.14874433
-0.21336499 -0.13607967 0.10908854 0.010780613 0.27603546 0.19212526 0.12129319 -0.07310808
0.18960012 -0.33422613 0.11371858 0.08720104 -0.2425697 -0.022500757 0.20797679 0.23250043
0.26501688 -0.23853284 -0.040741753 0.22393177 -0.12731452 -0.26604566 0.12809108 -0.1917573
0.0134458905 0.022805879 0.18028398 0.14875945 0.19004257 0.018271955 -0.044866286 -0.11155308
-0.21570316 0.2759735 -0.19325158 -0.0242217 -0.295943 0.20736958 0.021098156 -0.099412344
0.088064946 0.16984782 -0.28933078 0.1358111 0.280365 -0.0011817191 -0.26295272 -0.26139086
-0.15458639 0.117952436 0.059111662 -0.30994758 0.13871922 -0.13029967 -0.023140332 0.20937543
0.20182045 0.28200835 -0.26375675 -0.061186396 -0.21961947 0.17257395 -0.2032497 0.09477249
-0.21972394 0.21799615 0.045836516 0.22604309 -0.09844586 -0.19970182 0.2864019 0.28403327
0.14829773 -0.049054567 -0.06913821 -0.16460687 -0.21277314 -0.16578081 0.25032026 -0.0922735
0.22942732 -0.019642716 0.22208056 -0.029908936 0.038822383 -0.21795246 0.08480373 0.2236939
0.10367678 0.062288903 0.23844454 -0.058922444 0.14201583 0.18641204 0.04082269 -0.12142744
-0.02855516 0.2961382 0.33295378 -0.06613114 -0.27016827 -0.0100060245 -0.27926287 -0.20938225
0.22844408 -0.018897366 0.07559959 -0.062101115 -0.2078512 0.13311663 -0.19199838 0.15412846
-0.15195715 -0.2621029 0.113633886 0.06469135 -0.18250349 -0.19836357 -0.31102216 -0.22656639
-0.21558776 0.0481237 0.036111128 0.107495576 0.1532843 0.25779277 -0.07142193 0.3009097
-0.15553267 -0.053654123 0.0763963 0.08669316 -0.27852237 0.05523376 -0.049112987 -0.047115266
0.27994895 -0.07064902 0.16152695 -0.20736843 -0.0064626536 -0.15497185 -0.30446208 -0.024963045
-0.02966601 -0.13531885 -0.10936406 -0.3229135 0.016861472 -0.27177486 -0.2771951 0.09132222
-0.15709686 -0.22754999 -0.30763936 -0.04748759 0.010716859 -0.31487408 -0.11848845 -0.14144562
-0.02528016 -0.13505216 -0.2840025 -0.27721778 0.0687991 -0.111997016 0.058890816 -0.018589575
0.052972697 0.29337728 0.22188208 -0.26937994 0.2488483 -0.30588865 0.31307516 0.035423674
-0.2950933 -0.19032216 0.14920685 0.122175395 0.06414819 -0.18932864 -0.023615437 0.09216844
0.11224898 0.24435182 0.25273505 -0.12889868 -0.147689 0.0075792884 -0.17281185 -0.03578897
-0.11494825 0.24838136 0.045456927 0.0010809702 0.10834694 -0.28077158 0.31008673 -0.24858637
0.2853486 0.0118622575 -0.1703086 0.13753295 0.32451802 0.20147516 0.16387664 -0.013655367
0.28978074 -0.05525187 -0.2562145 0.22458266 -0.18994835 -0.0032242786 -0.20540754 -0.1739092
-0.17175286 -0.22908609 -0.21164219 0.23157988 -0.0022029942 0.10001497 -0.16353312 -0.26668736
0.06129159 -0.020764071 -0.18153858 -0.045099963 0.18533091 -0.19493006 0.025788702 0.1252766
00000000: 45ad 89be 9672 8ebc b6d4 573d 4dcc 203d
00000010: 66c5 b53d f0a7 503e f934 883c a6b9 63bd
00000020: 5c18 9f3e aeb8 ce3d 44e1 a0be 3cf6 3ebe
00000030: db78 08be a6ed 883e 54b5 38be 34d1 4c3e
00000040: c960 183e 549c 58be 2f04 9d3e 105b 9c3e
00000050: d93a c1bd 1821 133e bce6 ccbd 6f50 18be
00000060: 5a7c 5abe 7858 0bbe d069 df3d 2ba1 303c
00000070: 8554 8d3e 7cbc 443e 9068 f83d b0b9 95bd
00000080: 8926 423e b01f abbe 49e5 e83d 7596 b23d
00000090: 3164 78be 8253 b8bc def7 543e 9814 6e3e
000000a0: 4bb0 873e f441 74be d3e0 26bd 5f4e 653e
000000b0: bd5e 02be 2337 88be 4f2a 033e 075c 44be
000000c0: 274c 5c3c 65d3 ba3c 5d9c 383e 6654 183e
000000d0: 859a 423e 11af 953c b6c5 37bd f175 e4bd
000000e0: 4ae1 5cbe 664c 8d3e bee3 45be 966c c6bc
000000f0: d785 97be b158 543e 0ad6 ac3c b398 cbbd
00000100: 655b b43d 96ec 2d3e 2a23 94be 1112 0b3e
00000110: 008c 8f3e eae3 9aba bda1 86be 06d5 85be
00000120: e54b 1ebe 0c91 f13d 121f 723d 73b1 9ebe
00000130: 690c 0e3e 476d 05be cb90 bdbc 8366 563e
00000140: 05aa 4e3e 6663 903e 200b 87be 969e 7abd
00000150: ede3 60be 3ab7 303e b020 50be 1418 c23d
00000160: 50ff 60be 623a 5f3e 12bf 3b3d d777 673e
00000170: fc9d c9bd a27e 4cbe 45a3 923e cf6c 913e
00000180: 5cdb 173e 71ed 48bd 5598 8dbd b48e 28be
00000190: 34e1 59be 72c2 29be fa29 803e e4f9 bcbd
000001a0: ffee 6a3e c3e9 a0bc 1669 633e 9603 f5bc
000001b0: 3804 1f3d ee2e 5fbe 94ad ad3d 0410 653e
000001c0: 7e54 d43d a622 7f3d ce2a 743e a958 71bd
000001d0: 996c 113e cce2 3e3e b135 273d f3ae f8bd
000001e0: 83ec e9bc 6d9f 973e eb78 aa3e c36f 87bd
000001f0: 7f53 8abe 4ff0 23bc 8bfb 8ebe 4d68 56be
00000200: 3fed 693e a6ce 9abc f5d3 9a3d bd5d 7ebd
00000210: f2d6 54be ba4f 083e 399b 44be dad3 1d3e
00000220: a89a 1bbe 5a32 86be e2b8 e83d e67c 843d
00000230: 32e2 3abe d21f 4bbe 4c3e 9fbe 0501 68be
00000240: 0ac3 5cbe 5b1d 453d 43e9 133d a426 dc3d
00000250: 8ff6 1c3e 6afd 833e a945 92bd d610 9a3e
00000260: f543 1fbe 6dc4 5bbd aa75 9c3d 2f8c b13d
00000270: 7c9a 8ebe cc3c 623d b32a 49bd f0fb 40bd
00000280: 7855 8f3e 6fb0 90bd 5267 253e 6458 54be
00000290: abc4 d3bb f1b0 1ebe 74e2 9bbe 4d7f ccbc
000002a0: 2206 f3bc 0691 0abe 44fa dfbd eb54 a5be
000002b0: 1221 8a3c 1326 8bbe 84ec 8dbe 2507 bb3d
000002c0: 00de 20be dd02 69be e882 9dbe 5982 42bd
000002d0: c495 2f3c 2d37 a1be 13aa f2bd 1fd7 10be
000002e0: 5718 cfbc 1d4b 0abe c768 91be 7def 8dbe
000002f0: 8be6 8c3d b15e e5bd 7f37 713d 2a49 98bc
00000300: e6f9 583d 8c35 963e 0e35 633e 2bec 89be
00000310: 17d2 7e3e 709d 9cbe 634b a03e 6a18 113d
00000320: 7816 97be d0e3 42be aec9 183e 1837 fa3d
00000330: 2060 833d 5edf 41be 2975 c1bc cfc2 bc3d
00000340: cbe2 e53d 5d37 7a3e 7d66 813e 04fe 03be
00000350: c93b 17be ae5b f83b 97f5 30be 7497 12bd
00000360: fd69 ebbd af57 7e3e 0b31 3a3d 57af 8d3a
00000370: 00e5 dd3d 4bc1 8fbe b0c3 9e3e 6d8d 7ebe
00000380: 3619 923e ea59 423c 6165 2ebe 70d5 0c3e
00000390: 3a27 a63e 814f 4e3e 47cf 273e c3ba 5fbc
000003a0: 245e 943e c94f 62bd 8c2e 83be fff8 653e
000003b0: d281 42be 6b4e 53bb 5b56 52be 4115 32be
000003c0: fbdf 2fbe 8b95 6abe bbb8 58be 4723 6d3e
000003d0: 1c60 10bb a6d4 cc3d 3a75 27be 3f8b 88be
000003e0: e40c 7b3d 6a19 aabc 40e5 39be bdba 38bd
000003f0: 63c7 3d3e bf9b 47be d442 d33c 8248 003e

encoder.critic_encoder.net.mlp.2.weight f4 [256, 256]
-0.06155022 -0.017527856 -0.060279958 -0.06000763 -0.03407742 0.0314075 0.03758595 -0.095894374
-0.083828665 -0.011988187 -0.022876257 -0.050160013 0.055452235 0.03586872 0.0028921845 -0.003140368
-0.006488955 -0.045302495 -0.0161694 -0.0651933 -0.06165875 0.018092943 0.042360745 0.031771906
-0.02912209 0.04801605 -0.01601057 -0.004677425 -0.026317058 0.032525487 -6.316194e-05 -0.03688977
0.00044706822 -0.014026133 -0.0494153 -0.04840461 0.056941647 0.036105074 0.06491422 -0.032246236
0.056521498 -0.03390522 0.009075232 0.027855895 -0.017552186 -0.002542604 0.042655185 0.008616762
-0.030263906 0.040526077 0.034508403 0.039620064 0.07378901 -0.062450048 0.034454104 -0.016465051
0.024037763 0.016589714 0.039338164 -0.012182859 0.043381326 0.03842998 -0.044083178 -0.0008816248
0.017335296 0.0012882139 0.042832367 0.029098138 0.01125756 0.03915906 -0.034739252 0.1033992
-0.06997444 0.023126872 0.056044843 0.019685589 0.018557642 0.01708537 -0.15528236 0.056840893
0.034368582 0.049021844 -0.0020943156 -0.06430747 0.0042674355 0.046027865 0.028870014 -0.02524654
0.0155306235 -0.05741996 -0.1345161 -0.045241483 -0.10539571 -0.061425418 -0.06536398 0.026722834
0.054930124 0.017340029 -0.03070268 0.03619324 0.0042144977 0.008581681 0.037031554 0.062191825
-0.041318092 -0.047342733 -0.007713318 0.052942697 -0.06069655 0.015332893 -0.02411541 -0.048541773
-0.03261441 0.09209683 0.00078261003 -0.025186908 0.015488381 0.025168082 0.019444657 0.04128623
0.059304062 -0.032153614 -0.04098368 0.055617422 -0.04983343 -0.02856921 -0.050150704 0.045155104
0.05137534 0.043281082 0.06485602 0.011575884 0.05450421 -0.0047964524 -0.041731182 -0.035624795
0.03836304 -0.04264782 -0.0011175125 -0.051295895 -0.056783848 0.12830763 0.030999897 0.03858106
0.04287214 -0.042792533 0.051944293 -0.05016827 -0.030242635 0.042785008 -0.0052292687 0.008144997
-0.06685758 0.006611755 0.035130832 -0.025327057 -0.06565819 -0.03340489 -0.046001688 -0.010511019
0.006674845 0.041681908 0.023935251 -0.030836133 0.08803328 -0.02288979 -0.041089296 0.05453247
-0.04537635 0.0031574694 -0.03185641 0.018540623 -0.017840907 -0.024872502 -0.038779024 -0.048005354
-0.016712544 0.013099438 0.0626638 0.0026776148 -0.039027605 -0.01874804 -0.057257045 0.019336293
0.028063972 -0.025775073 -0.01808174 0.031007495 -0.03536204 -0.06158358 -0.041552138 0.054265738
0.07600637 0.021185229 -0.008793128 -0.036415942 0.040317386 -0.019213306 0.029605933 0.028818423
0.05138271 -0.11035906 0.0026967293 -0.01542608 -0.0015966498 0.10646053 0.056678303 -0.044774946
-0.03492884 -0.065753594 0.05372405 -0.055657826 -0.06060932 0.041941382 0.015014552 0.049833663
0.011972572 -0.0316362 -0.009555496 -0.083099455 0.14237306 0.024191555 0.010477442 0.03315064
-0.0033807145 0.030590184 -0.011720649 0.04829208 -0.01481893 -0.007999766 -0.07956514 -0.081714824
-0.017706346 0.0059769456 -0.035205588 -0.016495109 0.021718023 -0.03041111 -0.049100585 -0.03725847
0.03256541 0.033234946 0.02982789 0.02699888 -0.05400698 -0.011276588 -0.020597061 0.026785783
0.0145856235 0.009526975 0.030136405 0.017643427 0.05359845 -0.055043947 0.009421791 -0.0152497245
00000000: 151c 7cbd 9496 8fbc 1ee8 76bd 90ca 75bd
00000010: c494 0bbd 27a5 003d baf3 193d 4564 c4bd
00000020: 5dae abbd 1a6a 44bc fd66 bbbc 9674 4dbd
00000030: e221 633d 14eb 123d ce8a 3d3b a2ce 4dbb
00000040: 4da1 d4bb 1c8f 39bd b175 84bc 1184 85bd
00000050: e38d 7cbd a737 943c 7682 2d3d 4223 023d
00000060: 7391 eebc 7aac 443d 9928 83bc 1645 99bb
00000070: df96 d7bc 7239 053d cf75 84b8 ba19 17bd
00000080: 7b64 ea39 decd 65bc b367 4abd ea43 46bd
00000090: a53b 693d eae2 133d bff1 843d a114 04bd
000000a0: 1683 673d 33e0 0abd 48b0 143c 0c32 e43c
000000b0: 9ac9 8fbc d1a1 26bb 34b7 2e3d 522d 0d3c
000000c0: 03ec f7bc acfe 253d af58 0d3d a648 223d
000000d0: b11e 973d 9fcb 7fbd bf1f 0d3d b7e1 86bc
000000e0: d8ea c43c 27e7 873c 0e21 213d 9d9a 47bc
000000f0: 9eb0 313d c168 1d3d 9090 34bd d71c 67ba
00000100: c002 8e3c 49d9 a83a fe70 2f3d 385f ee3c
00000110: a171 383c 4065 203d bf4a 0ebd f6c2 d33d
00000120: c24e 8fbd 9174 bd3c 478f 653d ac43 a13c
00000130: 3206 983c 9ef6 8b3c 5702 1fbe ffd1 683d
00000140: 12c6 0c3d 21cb 483d c940 09bb a3b3 83bd
00000150: d8d5 8b3b b787 3c3d cf80 ec3c d5d1 cebc
00000160: 2874 7e3c 3131 6bbd 97be 09be 224f 39bd
00000170: b5d9 d7bd 3899 7bbd 8ddd 85bd d8e9 da3c
00000180: 69fe 603d ad0c 8e3c 3084 fbbc 5d3f 143d
00000190: c519 8a3b 2e9a 0c3c 66ae 173d dbbc 7e3d
000001a0: 293d 29bd 74ea 41bd 00c0 fcbb 71da 583d
000001b0: f29c 78bd d036 7b3c ae8d c5bc bdd3 46bd
000001c0: b096 05bd 439d bc3d 1228 4d3a c654 cebc
000001d0: fac2 7d3c 4b2d ce3c 674a 9f3c c01b 293d
000001e0: d1e8 723d 82b3 03bd 81de 27bd 18cf 633d
000001f0: 241e 4cbd fa09 eabc d36a 4dbd 8ff4 383d
00000200: f36e 523d 8147 313d 3cd3 843d c7a8 3d3c
00000210: ce3f 5f3d 8f2b 9dbb 51ee 2abd 4eeb 11bd
00000220: 9022 1d3d 7baf 2ebd 7f79 92ba a51b 52bd
00000230: 2e96 68bd 1363 033e 7ff3 fd3c 2c07 1e3d
00000240: b29a 2f3d 3947 2fbd 8ac3 543d 3e7d 4dbd
00000250: 67bf f7bc 553f 2f3d 495a abbb 9872 053c
00000260: a0ec 88bd 6ca7 d83b 59e5 0f3d b07a cfbc
00000270: cd77 86bd 91d3 08bd 446c 3cbd 6936 2cbc
00000280: a8b8 da3b a6ba 2a3d dc13 c43c 0f9c fcbc
00000290: cb4a b43d 5e83 bbbc 404d 28bd 705d 5f3d
000002a0: 8ddc 39bd 8ced 4e3b de7b 02bd 81e2 973c
000002b0: 1827 92bc 6bc1 cbbc c1d6 1ebd 43a1 44bd
000002c0: bfe8 88bc 069f 563c e155 803d ec7a 2f3b
000002d0: 69db 1fbd 7d95 99bc 5d86 6abd 2567 9e3c
000002e0: 6ae6 e53c 3f26 d3bc 2820 94bc 6e03 fe3c
000002f0: c9d7 10bd 103f 7cbd 9332 2abd c045 5e3d
00000300: 3aa9 9b3d a58c ad3c 0d11 10bc e228 15bd
00000310: d823 253d 3965 9dbc 2488 f23c 9d14 ec3c
00000320: ad76 523d ee03 e2bd 9cbb 303b abbd 7cbc
00000330: ad46 d1ba fa07 da3d 8227 683d ef65 37bd
00000340: 8b11 0fbd d2a9 86bd c00d 5c3d 76f9 63bd
00000350: 7a41 78bd baca 2b3d 98ff 753c 621e 4c3d
00000360: 9b28 443c f694 01bd a88e 1cbc 0c30 aabd
00000370: 3eca 113e 5e2d c63c 94a9 2b3c f7c8 073d
00000380: fa8e 5dbb 4498 fa3c f707 40bc ebcd 453d
00000390: 19cb 72bc 7311 03bc 0cf3 a2bd 1a5a a7bd
000003a0: e60c 91bc 41da c33b bc33 10bd c020 87bc
000003b0: ffe9 b13c b820 f9bc b21d 49bd 569c 18bd
000003c0: 4f63 053d 5e21 083d 9f59 f43c c12c dd3c
000003d0: 6c36 5dbd 70c1 38bc 2bbb a8bc dc6d db3c
000003e0: 8af8 6e3c 0817 1c3c 9fe0 f63c f388 903c
000003f0: 0c8a 5b3d c375 61bd db5d 1a3c fbd9 79bc
