trained_policies_ppo/trained_models/policy_model_cop_ppo/model.pt (torch, 739173 bytes, 14 tensors)

_last_output f4 [128, 9]
00000000: 1a63 0dbc d776 163e 5ed3 edbe d8a1 c4be
00000010: 204e d1be 7289 233e 8a55 b73e 287f 753e
00000020: 5a51 cb3e 831b f1bc f172 3a3e 3e1f ea3e
00000030: 3ee3 913e 6b5b 95be c856 c5bd 21b3 a2be
00000040: 8486 04be b9b3 92bd 41fe 823c 491a d43e
00000050: 2f54 82be 704d a33d 2974 abbe acad ddbe
00000060: 4657 c1bd 3a26 893d 57cb f03e 70ef 9b3c
00000070: cdfb 9e3e 12b7 c6be aeeb 0ebe c355 a0be
00000080: ca74 cb3d f2c0 cf3d b49e 1d3d 9842 893e
00000090: a01e ba3e a0c9 cfbe 7b82 2f3d 2996 9d3e
000000a0: d319 113e a4eb f33d 8a18 65bd b429 01be
000000b0: 055c a9be b580 8ebc fe76 7c3e e1d2 e7be
000000c0: 124a aabe 46ed f0be 37a6 2b3c f23b b73e
000000d0: 7662 193e b8ab fb3e 577d 28be bd67 b13e
000000e0: 00e3 ab3d 7625 583c cd0c 05bf 9048 78be
000000f0: 9236 89be 3753 463e ae97 f93e 207d 933e
00000100: 7f19 49be 99b7 cbbe 3577 13bd 6ac5 783e
00000110: fb96 063f 87fb df3e 1a0e e0be 1d6c a0be
00000120: 3f7f 563d 5bea e53e c4d7 313e 39d8 903e
00000130: 9e3d 4cbe 7cd5 d7be 7760 abbe 5151 52be
00000140: 1623 253e 88da 483e b846 223d f727 4f3e
00000150: 9202 fa3e 21f6 f53d 0799 72be 09fc 22be
00000160: 176e fbbe 2916 2fbe 3640 fd3e 2b67 b3be
00000170: 6a67 65bf 4c62 f63c a876 853e 1ab9 db3e
00000180: 295d bf3e 01fa 54bd 5a7c 51be d51d 573e
00000190: 79ae 3cbe 804c 413e 7cb3 f93e e4a4 ce3e
000001a0: 1dbc 703e b85b c3be 3967 ecbe 297e e4be
000001b0: 3a48 ef3e ea77 91be 8ccd 3cbf 907f 853e
000001c0: 9d72 a13e a587 ab3d 6e49 0a3e 34b1 34be
000001d0: 90ba 9abd c0ec c03d 4120 8a3e cb0d 95be
000001e0: a047 a9bc 2387 9fbe 049e 8bbd ba88 2c3d
000001f0: d8ec 55ba 7a50 833e b2f0 b43e 950c 2bbe
00000200: 7070 2bbf 4076 3a3e 49b5 713e c0b3 803e
00000210: bc9c 633e 12b2 8cbe 94c0 ffbd 428b 163e
00000220: bf64 43be 5317 3cbd 6167 673e 9af0 ecbd
00000230: 9e75 333e b160 5fbe ce49 833d 7185 81bd
00000240: 73bf 34be 0038 6f3e e816 b7bd 9cfc 7cbe
00000250: 7f29 1ebf 67e6 25be fe45 03bd 11af f83e
00000260: 6b51 0e3f cf11 31be 381d 153f a767 303f
00000270: dc5d e03d f693 b9be 14e5 06bf b6ac 18bf
00000280: e51c febd 9908 c63e bd4f bd3e 52bc 03bf
00000290: 1066 2abf d17b 80bd 16e6 063e 9c84 1d3f
000002a0: f43e c23e 942a ad3d 6786 6dbe 0132 a7bd
000002b0: 596a b73e 2c02 d5bd 1090 b13d c151 c3be
000002c0: e515 553d 79ed 76bd 7d76 b2bd e6bc 5a3e
000002d0: 5dd5 93be 03fa fb3e bf82 7d3e 7a8e 4ebd
000002e0: 251a 12bf 2b9a b5be ead5 b4be a083 773e
000002f0: 5a2d 103f 826f ea3e 2c57 b9be dff1 1abf
00000300: a5b3 2d3e f232 353e 3aa6 1b3e f78b 143f
00000310: 4497 94be 6797 4abe 5aba 053e 7f24 11be
00000320: ef84 e43d e27e c63e 1572 ea3e 5942 d03e
00000330: 76eb 71be 1274 07bf eabf 01bf 592f f33e
00000340: e894 e0be 612a 2fbf 525e 733e 1e52 783e
00000350: cd39 df3e 4c7a 553e 2c99 14be 9ecd 8bbe
00000360: cfa3 40be 1089 1b3f 7606 a53d a072 a3bd
00000370: 8345 07bf cbc4 8dbe 9607 b9be 9748 fd3d
00000380: 3717 143f 004c cb3c 3ad6 853e f664 8a3e
00000390: 5387 083f d61f c3bd 8a6c 98be a89f 23bf
000003a0: f348 83be 9e72 e13d a765 ee3e dc46 80be
000003b0: b76f 97be 7ae9 fc3e 8b4f e03e 2c1a de3e
000003c0: fd48 b2bd d895 14bf e705 0dbf ec4f 8cbe
000003d0: 074a d53e 749c 6ebe 80eb 16be ded8 cbbe
000003e0: 96fe a43b 67f4 69bd a6f8 613e f35c e03e
000003f0: dd39 863e f379 d23d e172 ffbe 55ef be3d
-0.008629585 0.14693771 -0.46450323 -0.38404727 -0.40879917 0.159704 0.3580745 0.23974288
0.39710504 -0.029432064 0.18207909 0.4572696 0.28493685 -0.2917131 -0.09635693 -0.3177729
-0.12941939 -0.071631856 0.015990378 0.41426304 -0.25454852 0.079737544 -0.3348706 -0.43296564
-0.09440474 0.06696744 0.47030136 0.019035071 0.31051484 -0.38811547 -0.13957092 -0.3131543
0.09934385 0.10144223 0.03848143 0.2680862 0.3635149 -0.40583515 0.042849045 0.30778626
0.14170007 0.11910179 -0.055931605 -0.12613565 -0.33078018 -0.017395357 0.24654767 -0.45278075
-0.33259636 -0.47056025 0.01047664 0.35787922 0.14978966 0.49154449 -0.16454063 0.3464946
0.08392906 0.013192525 -0.5197266 -0.2424643 -0.26799446 0.19367681 0.48748535 0.288064
-0.19638632 -0.3978851 -0.036002357 0.24294057 0.5257413 0.43746588 -0.4376076 -0.31332484
0.052367445 0.44905362 0.17367464 0.28289965 -0.1994538 -0.42155063 -0.33472034 -0.20538832
0.16126665 0.19614613 0.039618224 0.20230089 0.48830086 0.12009836 -0.23691188 -0.15916456
-0.4910743 -0.17098297 0.49463052 -0.35039648 -0.8961092 0.030076168 0.2606709 0.4291466
0.37375763 -0.051996235 -0.20457593 0.21007474 -0.18425931 0.18876839 0.48769748 0.40360177
0.2350926 -0.38155913 -0.46172503 -0.44627503 0.46734792 -0.284118 -0.7375114 0.26073885
0.31532755 0.083754815 0.13504574 -0.17645723 -0.07555115 0.094201565 0.26977733 -0.29112086
-0.020664036 -0.3115779 -0.068172485 0.04212258 -0.00081605976 0.25647336 0.35339886 -0.16704018
-0.6696844 0.18209171 0.23604311 0.25137138 0.22227758 -0.27479607 -0.12487903 0.1470156
-0.190814 -0.04592068 0.2259803 -0.115693286 0.17525336 -0.21814229 0.064105615 -0.0632428
-0.17651157 0.23361206 -0.08939916 -0.24705738 -0.6178207 -0.16201173 -0.03204917 0.48571065
0.55592984 -0.1729195 0.5824771 0.6890816 0.10955402 -0.36245698 -0.52693295 -0.59638536
-0.12407855 0.38678434 0.36974898 -0.5145923 -0.66561985 -0.06273616 0.13173708 0.6153047
0.37938654 0.08455387 -0.23195802 -0.08163834 0.35823324 -0.10400805 0.08670056 -0.3814831
0.052022833 -0.060285065 -0.08714006 0.21361122 -0.2887372 0.4921418 0.24756907 -0.050428845
-0.57071143 -0.35469183 -0.35319453 0.24171305 0.563192 0.457882 -0.3619932 -0.60525316
0.1696306 0.17695215 0.15200129 0.5802607 -0.29021657 -0.19784318 0.13059369 -0.14174078
0.111581676 0.3876868 0.45790163 0.4067562 -0.23624977 -0.52911484 -0.5068346 0.4749706
-0.43863606 -0.6842404 0.23766449 0.24250075 0.43598786 0.20847434 -0.14511555 -0.2730531
-0.18812488 0.60756016 0.08057873 -0.07980847 -0.5284044 -0.27689204 -0.361386 0.12367361
0.57847923 0.024816513 0.26140004 0.27030152 0.5333149 -0.095275566 -0.2977031 -0.6391549
-0.25641593 0.110081896 0.4656193 -0.2505406 -0.2957742 0.49396878 0.43810686 0.43379343
-0.08705328 -0.58041143 -0.5508713 -0.27404726 0.4165804 -0.2330187 -0.14738274 -0.39813894
0.005035232 -0.057117846 0.22067508 0.43820915 0.2621602 0.10277166 -0.49892333 0.09322993

weight f4 [9, 256]
00000000: 7a81 923b 7660 29bb c95e c2bb 4f0e 9eba
00000010: 3aa2 4aba c553 adbb 70b3 fd3b 4222 4bbb
00000020: c5d5 a0bc 82bf 763b 425b acba df2f c13a
00000030: acdb f53b c28b e3bb 38b6 d4bb 0b96 1d3c
00000040: b681 f4ba 9364 043c 4b19 ad3b c586 b1ba
00000050: 6440 c73b 17b1 8f39 a37d 9238 df89 4abb
00000060: f648 d039 2d66 2e39 1762 14bb 6336 013b
00000070: 997d 923c acd9 ea3b b339 d23a d4c6 f63b
00000080: d9b7 8b39 701e 893b c22e 1d3c e95d 443b
00000090: 540d 15bc c953 03ba c440 99ba 2f35 863b
000000a0: bf21 2b3a 2138 c33b 4342 893b 11cb bbb9
000000b0: c0bc 1ebc 8ae8 b7bb f63b 023b 4a19 ce3b
000000c0: b306 00bc 8af2 2bbb 9bf1 723c 4ed1 9e3b
000000d0: 9209 52bb c2d4 f13a e8bf 1a3b 7fde 553a
000000e0: 32ba bb39 d92f b93a 6501 c9bb 25bd 29bb
000000f0: 8a14 73bc 69d0 c43a dba7 203b f36f 69bc
00000100: a00e 2d3b 3f6c 27bc b2c0 99bb bb29 bab9
00000110: 68c2 77bb f8d7 db3b 457c 29bc 4376 883c
00000120: 8620 80b7 3f3a 8a3b 25af 1d3b 5645 e0ba
00000130: 10f5 7e3b f29a 95ba 4acd 5d3c fedd cb3b
00000140: e8bc 51ba ffaf 6bbc 31a4 f539 9404 2fba
00000150: e0fe cd3a d579 013c e334 ceba 0517 62bb
00000160: 8776 aabb 8dd2 833c 6c23 13bb a52f 21bc
00000170: 1797 113b 1400 0d3b 2c06 0b3c ec3b a3ba
00000180: b8c0 f53b 1146 f1ba 8f6c 403c 2ec4 a9bb
00000190: 73c5 87bc bc25 a13a d3bb 013b 7f7d 30bb
000001a0: a767 413b 8686 2d3c 11c2 7fb9 eb1e bf39
000001b0: dfd8 04bc a03c afbb f375 db3b dbe5 5abc
000001c0: ab91 4dbc fe82 5fbb a878 b03b 0d18 343b
000001d0: 1fff 9cba e6bb 813b 235f 0abb aefc 10bb
000001e0: 490a 14bc bb93 39bb 490c 7dbb 2798 6f3b
000001f0: ad41 dcb8 a2ea b0bb 8400 763b f5bc 6cba
00000200: 9771 aa3a 6cb5 3dba 7c40 2ebc 5d65 173c
00000210: 0d38 e4bb 5054 d73b a6a8 6e3b 101f b03c
00000220: c329 963a 0c21 443b 26ac 563b 3cd5 c9ba
00000230: 22f7 97ba 674f bbba c482 893c e389 023c
00000240: eb0f 453a ca8d 5a3b 2c23 1f3b 1f57 6d3a
00000250: d1d5 b2b9 88df 74bc f122 2d3c 355e 003b
00000260: c654 173c 1785 b03a 8657 f2bb ba69 6c3b
00000270: e74b 7e3c 2243 0abc cf60 343b 3151 853a
00000280: c31e 95bb b3cc 97b9 e7a8 26bb 755e ee3a
00000290: 0f74 92ba 4e74 f13b d095 83bb 5da8 02bc
000002a0: 5cee 603c 5b9c 1a3b c2a3 483c 9a50 ebbb
000002b0: 87ca 0cbc b71a fd3a 1af3 aebc d81e b23b
000002c0: e8c1 fa3a c9e8 233a 0e1c 51bc f250 b03b
000002d0: 8404 603a 4b83 8f3b 67db 983b 7d6f 0c3c
000002e0: 1949 7f39 2940 c3ba 8a00 ebbb da7b 47bc
000002f0: e7c9 013b 35cb 24bc d5fe 51bb 418c 07bc
00000300: b8e2 e1b9 95af 9cbb 0884 c4bb 0a0a 9f3a
00000310: 9d5d b8ba 745b 98bb 505d 1cbc a83f 3dbc
00000320: 25b7 043c 83cf ee3a 4703 773b cdb5 26bc
00000330: e62e da3b 7fee 3ebb 5c46 52ba 4ed3 153a
00000340: 7b76 cabb 9eb0 c6ba 8e5a a7bb 8d37 083c
00000350: ec0e f33a 2f11 52bb 66e6 36bb 7751 8e3a
00000360: f3b1 1b3c 47fd f0bb 88ed 86bc be3c a0ba
00000370: 70b8 23bc f046 913a df0c d3bb 8f85 a2bb
00000380: fe69 8e3b 4645 e63b 1de9 083b 91b9 a3bb
00000390: 7e28 31bb 3a3d 16bb 67b6 93ba 0568 3fbb
000003a0: 58b7 2abb 599c 913b faf8 98bb cb3c 5c3b
000003b0: 225a d43b c0b6 32bc 2541 8e3c f699 6cb9
000003c0: a0e4 94bb 58ea e4bb 6309 0f3b ce6f c03b
000003d0: 2eaf c83a bb37 103c 9c13 ceba 82ea d838
000003e0: 8ce7 903b f3fc 32bc 8127 2cbb 3d35 c0bb
000003f0: 7978 54bb 2ba1 99bb 722a 553a cb39 bc39
0.004471001 -0.0025844849 -0.0059317094 -0.0012058708 -0.0007729862 -0.005289527 0.007742338 -0.003099576
-0.019633183 0.0037650769 -0.0013149756 0.0014738998 0.0075029936 -0.0069441507 -0.0064914487 0.009618293
-0.001865438 0.008080619 0.005282556 -0.0013544193 0.006080674 0.00027407028 6.985224e-05 -0.0030904931
0.00039727212 0.00016631997 -0.0022641474 0.0019716255 0.017882155 0.007167062 0.0016038924 0.0075310264
0.00026649123 0.0041845366 0.009593667 0.0029963201 -0.009097416 -0.00050097384 -0.0011692275 0.0040956954
0.0006528161 0.005957619 0.004188807 -0.00035818716 -0.009688556 -0.0056124376 0.0019872165 0.006289636
-0.007814097 -0.0026237094 0.014828111 0.0048467284 -0.0032049161 0.0018450248 0.002361292 0.00081584597
0.00035806146 0.001412864 -0.0061341994 -0.0025900092 -0.01483644 0.0015015724 0.0024514112 -0.014247882
0.0026406422 -0.010218679 -0.0046921605 -0.00035507776 -0.0037805084 0.006709095 -0.01034457 0.016657954
-1.5273934e-05 0.0042183693 0.0024060693 -0.0017110507 0.0038903393 -0.0011413975 0.013537714 0.006221532
-0.00080008665 -0.014385222 0.00046852374 -0.00066764024 0.0015716217 0.007902582 -0.0015732314 -0.0034498584
-0.005202118 0.01609161 -0.0022451533 -0.0098380195 0.00222153 0.002151494 0.008485358 -0.0012453771
0.0074997805 -0.0018407722 0.011744632 -0.005180857 -0.016573643 0.0012294571 0.001979579 -0.002693027
0.0029511245 0.010591155 -0.0002439099 0.00036453395 -0.008108347 -0.0053478032 0.0066974103 -0.013360466
-0.012546937 -0.0034105177 0.005385477 0.0027480156 -0.0011977887 0.003959167 -0.0021113835 -0.0022123265
-0.009035655 -0.0028316814 -0.003861206 0.0036559196 -0.000105026505 -0.005399064 0.0037536928 -0.00090308423
0.0013003823 -0.0007236812 -0.010635491 0.0092404755 -0.0069646896 0.00657133 0.003641644 0.021499187
0.0011456538 0.0029926924 0.0032756417 -0.0015398632 -0.0011594037 -0.0014290632 0.016785987 0.007967445
0.00075173256 0.0033348673 0.0024282439 0.00090538146 -0.0003411011 -0.014945872 0.010567413 0.0019587402
0.00923652 0.0013467398 -0.0073956875 0.003607376 0.015521026 -0.008438857 0.0027523523 0.0010171292
-0.004550786 -0.00028953477 -0.0025430263 0.0018186109 -0.0011173504 0.007368601 -0.004015662 -0.007974711
0.013728704 0.002359173 0.012246074 -0.0071812393 -0.008593208 0.001931033 -0.021356154 0.005435806
0.0019131275 0.0006252644 -0.012763036 0.005380743 0.0008545595 0.004379665 0.0046648267 0.008571503
0.00024345926 -0.001489644 -0.007171695 -0.012175525 0.001980418 -0.010058214 -0.003204276 -0.008273185
-0.00043084263 -0.004781673 -0.0059971847 0.0012133729 -0.0014065985 -0.004649574 -0.009543732 -0.011550821
0.008100306 0.0018219802 0.0037691162 -0.010175181 0.0066584228 -0.0029133854 -0.00080213486 0.0005715386
-0.0061786748 -0.0015158837 -0.0051072305 0.008314026 0.0018543876 -0.00320537 -0.0027908324 0.0010858019
0.009502876 -0.0073544118 -0.016470686 -0.0012225134 -0.009992704 0.0011083763 -0.0064407433 -0.004959769
0.0043461313 0.007027301 0.00208909 -0.0049964865 -0.0027032192 -0.0022924677 -0.001126957 -0.0029206288
-0.0026049223 0.004443687 -0.004668352 0.0033605571 0.006480471 -0.010907829 0.017365048 -0.00022564069
-0.004543856 -0.0069859438 0.0021825663 0.005872703 0.0015310997 0.00880235 -0.0015722397 0.00010343363
0.004422134 -0.010924566 -0.0026268663 -0.0058657215 -0.003242044 -0.004688402 0.000813163 0.00035901213

bias f4 [9]
00000000: 8ffe 213b fd34 9c3a 6f01 89ba 9808 713b
00000010: 1d9b 64ba c75d 103b 60bb b2b9 5a68 87bb
00000020: 4612 daba
0.002471838 0.0011917647 -0.0010452698 0.0036778804 -0.00087206234 0.0022028552 -0.0003409041 -0.0041323127
-0.0016637526

weight f4 [256, 19]
00000000: 7789 413e 2333 d2bd cc9b aebe 6574 0c3c
00000010: 270b 463d f500 823c ad68 b8be c373 acbe
00000020: f9db da3d b47c b8bd 6084 e93e 651c 02bc
00000030: 2637 afbe c79f ab3d 585e a83d f902 7cbe
00000040: 34d6 b53e 3bf8 27be d914 29be b125 f7bd
00000050: 35a1 bb3d 04a2 93be 1d36 7cbe 2627 ff3d
00000060: 102c 2a3d 4302 afbe 17ec 0bbc 6a5c f73d
00000070: c02b 12be 0ec0 6f3e ba5d 9dbc c2de cb3d
00000080: cb55 d7bd 7282 bd3d c06c 8e3e 8c4c b83e
00000090: 4790 c8be f70e f33e c9d4 733d 736d f2bd
000000a0: 1923 033e 8ee3 6b3e 98db c6bd d992 e9bd
000000b0: 7d14 993d 5682 243f 77f5 02be a0b7 b43e
000000c0: 2b50 853d 434a aebe f04c c6bc 17c3 d1bd
000000d0: 5b35 a6bd 433f 123e ce9e d0be ae11 063c
000000e0: 4128 433d 79dc aa3e 7a79 12be 02b3 d4bd
000000f0: dcc3 a13d dc06 b6be 4346 0abe dae2 5ebd
00000100: a99f 643e 12a3 8cbe 4493 c8bd 53e1 673e
00000110: 5a81 823e 9fa6 5ebe b046 b53e 36c8 b4bd
00000120: 7c97 c2be db92 c13c 6d19 0bbd fbd3 c13e
00000130: 9b99 113e 3d70 3d3e 2bfc 57bd 3625 f03e
00000140: 781a a8be ca3b 9bbe 5276 de3d 4fbe e2be
00000150: fac9 de3d c1b3 4cbe 8e93 a8be ec2b 1bba
00000160: 3a1a 3abe df66 25be 5144 8fbd 02f0 0bbe
00000170: 7ef6 4b3e f2f7 89bd 43a8 28bc 6535 0ebe
00000180: 94f2 49bd 939c 2e3d 5637 1cbe 40f7 99be
00000190: 4d84 b1bd 6503 8e3e 2d35 babe ffbb 23be
000001a0: d452 8c3e 33b8 d43e 94ef a3be ccf2 bebd
000001b0: d8dc 24be 6d88 8b3d c1d7 a03c ac23 ab3e
000001c0: 69a4 733e 60e8 803e a6bb d73c c631 0e3e
000001d0: 6812 31be dcbc 993e 8691 b23d aac5 b1be
000001e0: 0eea 20be 5bfa 153e bb17 f93c 2a79 5dbe
000001f0: d20d cebd 90ec b2be d4ee 983e 6132 c5be
00000200: 5955 a73d 57dd 1b3d 19e2 98be a648 683d
00000210: 5670 d13e a682 523e bc79 f2be f4b4 543e
00000220: 0473 823c fd0f 823e 63ad dcbe 5e1d b9bd
00000230: 5980 0a3d 4881 363e 8061 94be 1cd9 293d
00000240: 9064 e13d 1e7a 093e 5339 833e f469 a4bd
00000250: 1c64 e43c 5b81 ec3d b982 98be eaec 9c3e
00000260: ab6f dabc 6159 0fbe 57f2 533e 2085 5dbe
00000270: 6160 a73d 60de 98bd e6ac 333e 0807 3b3e
00000280: fdbf 39bd 0f5a ddbe dc03 753e 69ab cf3d
00000290: 2729 55be e330 343e 9897 8c3e 0335 ce3e
000002a0: 011a ff3e 6c81 e53d 1fcb acbd 6421 043c
000002b0: f0dd 023f de35 b03e 1071 4fbd f57a 7c3c
000002c0: ddcd 383e 2538 c53e 94bd 25be e534 a5bc
000002d0: 5ed1 a83e a359 17be 2e07 42bd af9f f53d
000002e0: 2aa7 3bbc 92ef ec3d de3d e7be 7fb0 2c3e
000002f0: 5b07 8b3c 4732 053e 6851 cabe f7f6 16be
00000300: b1d0 fbbd 1f86 74be f44f a93d c47b 25be
00000310: 79ba 1cbf ad10 d73c dda3 0bbd 630e a73d
00000320: b62a f3bd 622f 84bd e3da da3d bc97 2e3e
00000330: c90a 45bd b36a 8d3e 2067 93bd 37c1 dabe
00000340: 040e 32bd 2033 a03d 224f 96be 32ce b1be
00000350: fe8d 293e 87d2 283e 5706 ebbc 7655 583b
00000360: 9c84 e9be 133a 163e 36e4 1c3e cf97 a73c
00000370: cd81 a93d 1c80 913d 11dd 25bd 69cf 48bc
00000380: 1662 563e 1cac 2abe a8ac 223f 97c9 183c
00000390: 40be a9be 1902 a2be 3857 aa3d 467a 2fbd
000003a0: fe75 5d3e 4f09 59be a584 493d 2d31 643e
000003b0: 032c ad3c 4d63 7f3e e5f9 b93e 2b1d 713d
000003c0: 221b 2e3e 25db c53e 30b3 be3d 9e00 bebd
000003d0: 25ab f9be 579f 61bd 5592 db3d 9fb3 4fbc
000003e0: ac51 083e a149 8cbe 363b 16be 40a2 fdbd
000003f0: 2a8e 943e 491e c03d 7df2 ac3d cc5a d53e
0.18900095 -0.1026366 -0.3410324 0.0085726725 0.04835048 0.015869597 -0.3601736 -0.3368207
0.10686488 -0.0900816 0.45608807 -0.00794134 -0.34221762 0.083800845 0.0822112 -0.24610509
0.35514987 -0.16403286 -0.16511859 -0.12067736 0.09161607 -0.28834546 -0.24630018 0.12458639
0.041545928 -0.34181413 -0.008540175 0.120781735 -0.14274502 0.23413107 -0.019209731 0.09954597
-0.105144106 0.09253396 0.27817345 0.359959 -0.39172575 0.47472355 0.0595291 -0.11837282
0.12806357 0.23036024 -0.09709853 -0.11404962 0.07474611 0.64261377 -0.1278895 0.35296345
0.065094315 -0.34041032 -0.024206609 -0.102422886 -0.081156455 0.14281945 -0.40746158 0.008182926
0.04764581 0.33371332 -0.14304152 -0.103857055 0.07898685 -0.35552108 -0.13503365 -0.05441556
0.2232653 -0.27468163 -0.09793714 0.22644548 0.25489312 -0.21743248 0.35405493 -0.0882725
-0.38006198 0.023629596 -0.033959795 0.3785704 0.14218752 0.18499847 -0.05273072 0.4690339
-0.32832694 -0.30319053 0.108624116 -0.4428582 0.10878368 -0.19990446 -0.32925075 -0.00059193256
-0.18174067 -0.16152523 -0.06995452 -0.13665774 0.19918248 -0.06736745 -0.010294023 -0.13887556
-0.049303606 0.04262979 -0.15255484 -0.3007145 -0.086678125 0.27736965 -0.36368695 -0.15989684
0.27406943 0.41546783 -0.3201872 -0.093236536 -0.1609987 0.068131305 0.01963413 0.33425653
0.23793186 0.25177288 0.026334595 0.13886175 -0.17292178 0.300269 0.08719163 -0.34721118
-0.15714285 0.14646284 0.030406823 -0.21628252 -0.1006123 -0.34946108 0.2986971 -0.38515
0.08170576 0.038052883 -0.2986 0.056709908 0.40906018 0.20557651 -0.473585 0.20772153
0.015923984 0.25402823 -0.43101034 -0.090388045 0.033813808 0.17822754 -0.28980637 0.041466817
0.11005509 0.1342549 0.25629672 -0.080280215 0.027879767 0.1154811 -0.29787233 0.306495
-0.026664576 -0.13998939 0.20697914 -0.21632814 0.0817268 -0.0746429 0.17546424 0.18264401
-0.04534911 -0.43232772 0.23927253 0.10140116 -0.2081648 0.17596774 0.27459407 0.4027482
0.49824527 0.11206326 -0.0843718 0.008064602 0.511199 0.34416097 -0.050644934 0.015410175
0.1804728 0.38519397 -0.161856 -0.020166824 0.32972234 -0.14780287 -0.04737013 0.11993348
-0.011453429 0.11569132 -0.45164388 0.16864203 0.01697128 0.1300746 -0.39515233 -0.14742647
-0.12295664 -0.23879288 0.08267203 -0.16160494 -0.61222035 0.026253069 -0.03409182 0.08157041
-0.11873381 -0.0645435 0.106862806 0.1705007 -0.04810599 0.27620468 -0.07197404 -0.42725536
-0.043470398 0.07822251 -0.2935725 -0.34727627 0.16558072 0.1648656 -0.028689547 0.0033009923
-0.45608985 0.14670591 0.1532143 0.02045813 0.08276711 0.07104513 -0.04049403 -0.012256482
0.20935854 -0.16667217 0.635447 0.0093254065 -0.33152962 -0.31642225 0.08317417 -0.04284122
0.21627042 -0.21194957 0.049198765 0.22284384 0.02113915 0.24940224 0.36323467 0.058865707
0.17002538 0.38643757 0.09311521 -0.092774615 -0.48763385 -0.0550836 0.1072127 -0.012677102
0.13312405 -0.27399924 -0.14671025 -0.12384462 0.29014713 0.093807764 0.084446885 0.41670835

bias f4 [256]
00000000: 92fb 5a3c 74b6 e13b 15be 00bc 3143 4a3c
00000010: db37 7f3c e29f 283c 0aae 8abb d941 be3c
00000020: cd12 3b3c b5eb 1b38 8dfd fbba 122b 123c
00000030: ef99 b93b a3eb b5bb c208 34b9 1bc4 af3b
00000040: 4e2a e93b 801f c2ba 488d 25bc d488 99bb
00000050: 4114 b3bb 371f b23b d493 85bb 2d9c bf3b
00000060: 1fe7 b5bb 8404 443a 7345 3a3c 0982 9f39
00000070: fbe0 a03c cae9 7a3c b2de 6e3c 6fd2 96bb
00000080: 40ab 0fbc 1e0a 7a3b d7a3 d0bb ce5f 1bbc
00000090: 3e25 c4ba 355c f2b5 8210 39bc 8326 6e39
000000a0: 4a0f 313b 34ef e83b 5258 b43c 0870 4f3b
000000b0: 2c53 3c3c 7e3b 4a3c 9f8a 073c 733b df3a
000000c0: 4f26 4e3c f791 fe3c 27c6 0fbb b67d 71bc
000000d0: ec19 813c d18e db3b b840 ecba 92f7 883b
000000e0: 60a5 f43b 9f10 a4bb 343a 98bc 8963 ff3a
000000f0: 97c3 18bc 7f6f 18bc f03f fe3b 8727 1d38
00000100: 5f11 1a38 43a4 993b bffb 3bbc 2e55 fc3a
00000110: 2033 133a fe51 73bc d0d7 85bc edc4 223b
00000120: 0000 0000 a9c4 74bc 799c da3a b524 1cba
00000130: 243c 0dba 0e13 38b6 08e9 85bb 6c7b 783c
00000140: 2fa4 9d3b 4040 f93a f708 183b e07a f0bb
00000150: f142 25bc 1c0b 98bb 0b64 11bc 135a 20ba
00000160: adff 7b39 0000 0000 58df 4abc 196e 663c
00000170: fe6d 343c faa9 3b3c 4bd3 b83b a798 07bc
00000180: bd84 5c3c 3466 1c3c 7c7a 29bc b911 0c3c
00000190: 2c90 9abc 6e74 583c 0082 aebc e92c 51bc
000001a0: 1e10 84bc 26c6 0b3b cc71 93bb d588 aa3b
000001b0: c2a3 0dbc 536d 6aba 740a f63b 8062 923b
000001c0: e853 3fbb 0000 0000 542c 56ba 0000 0d3c
000001d0: 021f 74ba a0b3 edbb c27c 953b e919 0b3c
000001e0: 7c60 843c 96cc 9c3a 49d4 f5b9 5cbd 14bb
000001f0: 2865 d939 d7bb fabb 361d 44bb 0543 fcba
00000200: 0000 0000 d1a6 bb3c a329 fa3b 8602 14bb
00000210: 093a 41ba 65a3 603c 1b18 b6bb 36d0 07ba
00000220: 2673 183c 7257 353b fb72 66bb a0c9 9f3c
00000230: 961b 1fbb 8ddc 453c be39 45b9 59ae 523c
00000240: 96de a33c 9f85 bbba 295e adba c77b f23b
00000250: 63c4 e839 a2f3 d0bc d94f 17bb 6d39 57bb
00000260: 9de8 d4ba 7eb5 d5bb 461e 42bc 29ea cd37
00000270: 5e53 62bc 6e19 3b3c e775 ee3a 5a53 92ba
00000280: 96c5 c63b 6f23 c9ba c379 febb 1d48 df3b
00000290: 7940 03bc 65ae 16bc 0cc4 8dbc 58bc 1c3b
000002a0: 21d1 763a cf8e bdbb 5ad3 193c b386 03bb
000002b0: a569 d0bc 5b98 aa3b d322 3cbb ebb0 b3bb
000002c0: d460 bcba 0178 09bb 0c82 20bb 0000 0000
000002d0: 4118 ccba cba6 dcba 17ab 043c a170 81b5
000002e0: c11f 0ab9 1856 67bc 9724 92b8 cc11 1f3c
000002f0: 9a59 11ba 766d 883c 4231 55bc 6191 663c
00000300: af60 a43b f44e d4b8 a26b a5ba e89c 753c
00000310: 2321 89bc a96b 593c 0390 c4bb 489f ce3b
00000320: ef59 01bc 221c 87bb 9d33 5039 8eb6 4ebb
00000330: 4192 3c3c 3559 a6bb a536 023b c836 28bb
00000340: 0062 223a bd0a 4cb9 d51b d9bb 99e3 edbc
00000350: 34fa efbb 9ca7 4a3b 47ac 8fbc 454e 483c
00000360: dfd0 83ba 3b6c 07bb 3ddf 85bc c33d 063c
00000370: 376b 9bba fdd9 293a 6dd8 083c 6596 e43b
00000380: d0c9 5fbc 541d 063d 8909 3ebb ca25 a33a
00000390: b416 5839 64fa 9b3b a10b ccbb 16a6 77bb
000003a0: cd13 c33b f9b4 eebb ebf0 bebc 526e a83b
000003b0: c358 c43c a45b 5abc 46e1 f03b 4f08 783c
000003c0: a219 19ba cc77 db38 f0ed 7a3c d60a ebbb
000003d0: d7d0 d53a 72c7 0fbc 21f0 87bb daef 0bbb
000003e0: 76a9 843b d973 553c dc1c bbb7 e7ad e5bb
000003f0: 9171 6e3c fe07 16bb 67a3 5abc 7784 fa3b
0.013365643 0.006888205 -0.007857819 0.012345121 0.015577282 0.010292025 -0.004232173 0.023224758
0.011418057 3.71744e-05 -0.0019225344 0.008921402 0.0056641023 -0.0055517717 -0.000171694 0.0053639538
0.007115639 -0.0014810413 -0.010104485 -0.0046855006 -0.005465061 0.00543585 -0.0040764604 0.005847475
-0.0055512334 0.00074774795 0.011369097 0.00030423727 0.019638529 0.015314529 0.014579462 -0.0046027224
-0.0087688565 0.0038153003 -0.0063671875 -0.009483291 -0.0014964712 -1.8057241e-06 -0.01129544 0.00022711795
0.002701717 0.0071085934 0.02201477 0.003165247 0.011494439 0.012343286 0.008272796 0.0017031267
0.012582376 0.03107546 -0.0021938176 -0.0147394445 0.01575943 0.0067003747 -0.0018024659 0.0041799033
0.0074660033 -0.005006864 -0.01858244 0.001948462 -0.009323976 -0.0093039265 0.007759087 3.746853e-05
3.673264e-05 0.004688771 -0.011473595 0.001925146 0.0005615223 -0.014851091 -0.016338259 0.0024836615
0.0 -0.014939466 0.0016678713 -0.00059563975 -0.0005387685 -2.7429228e-06 -0.0040866174 0.015166145
0.004810832 0.001901634 0.0023198703 -0.0073388666 -0.010086761 -0.004639996 -0.00887395 -0.0006116938
0.00024032472 0.0 -0.012382351 0.014064335 0.011012552 0.0114541 0.0056404225 -0.008276141
0.013459382 0.0095458515 -0.010344144 0.008549147 -0.018867575 0.013211353 -0.021302223 -0.012767055
-0.016120967 0.0021327822 -0.0044996496 0.0052043 -0.008645 -0.0008942682 0.0075085703 0.0044673085
-0.00291943 0.0 -0.00081700576 0.008605957 -0.0009312482 -0.007254079 0.0045619914 0.008490064
0.016159289 0.0011962827 -0.00046888206 -0.0022695875 0.00041464833 -0.007651787 -0.0029924638 -0.0019246048
0.0 0.022906693 0.007634358 -0.0022584512 -0.00073710136 0.013710831 -0.005557073 -0.0005180867
0.009304797 0.002767053 -0.0035163749 0.019505322 -0.0024277917 0.012076509 -0.00018808895 0.0128589505
0.020003598 -0.001430679 -0.0013226914 0.0074000093 0.00044396808 -0.025506798 -0.0023088364 -0.0032840625
-0.001624364 -0.0065218797 -0.011848038 2.4546944e-05 -0.013813822 0.011419637 0.0018193097 -0.0011163757
0.0060660345 -0.0015345643 -0.00776598 0.0068140165 -0.008010977 -0.009196852 -0.017305396 0.0023915973
0.0009415318 -0.0057848464 0.009388769 -0.00200693 -0.025441 0.0052061505 -0.002870728 -0.0054837367
-0.0014372119 -0.002097607 -0.0024491576 0.0 -0.0015571193 -0.0016834376 0.008097432 -9.644028e-07
-0.00013172535 -0.014119647 -6.968638e-05 0.009708833 -0.00055446627 0.016653758 -0.013012232 0.014072747
0.0050164084 -0.00010123654 -0.0012620578 0.014991023 -0.016739434 0.013270297 -0.005998613 0.006305609
-0.007894977 -0.0041232267 0.00019855653 -0.0031541917 0.011509479 -0.0050765523 0.0019868996 -0.0025667418
0.00061944127 -0.00019458956 -0.0066256323 -0.029039191 -0.0073235277 0.0030922657 -0.017538203 0.012225692
-0.0010056755 -0.0020663876 -0.0163418 0.008193436 -0.0011857514 0.0006479321 0.008352381 0.0069759362
-0.013658956 0.032742813 -0.0028997383 0.0012447175 0.00020607823 0.0047600735 -0.006226972 -0.0037788204
0.005953288 -0.007284757 -0.023308238 0.0051401043 0.023968106 -0.013327513 0.0073510734 0.0151387
-0.00058403064 0.00010465048 0.015315518 -0.0071729226 0.001631285 -0.008775579 -0.0041484986 -0.002135268
0.0040485216 0.0130281085 -2.2305576e-05 -0.007009256 0.0145534435 -0.0022892947 -0.013344622 0.0076451856

weight f4 [256, 256]
00000000: 896f 9c3d a9f6 be3d 2f30 5d3d 4181 fcbc
00000010: f2b7 e43c 93f8 7dbc a705 88bd 7b52 aabd
00000020: 45a7 c93d 13e7 02bd 2c50 113c a95d e23b
00000030: 88c3 4f3c 2667 98bc 335d 893d 0abe aa3b
00000040: faba b1bd 399c cfbc 8277 e93d 156b c13d
00000050: 7f27 383d 8b5b a63d 05ea b1bd aab2 d93b
00000060: ac08 a1bd b15a 35bc cc65 653d 3e5f 3dbd
00000070: 5175 54bc 2698 ccbd 64b6 51bc ecf8 f4bd
00000080: 5d5d ea3d 0963 1fbe b307 91bd c736 48bb
00000090: 69e2 803c 01aa 01bc 3bf0 2fbc e297 e63d
000000a0: 3748 d3bd c918 e03c 6c44 133d 8b8b cc3b
000000b0: 359f 90bd 0f21 5cbd 0a38 cabc 3c9e f63d
000000c0: 664c 113d 2506 133d 3358 5ebc 8aff 07bd
000000d0: 9353 8abc 93b7 e6bd 473e 80bd 7d9e 3e3d
000000e0: da31 68bd cbee 503d 0fb1 673d 5732 0f3c
000000f0: e5ca 80bc a2af 603b d6c3 b43d 7388 72bd
00000100: bd6c 143d 1853 b6bb 40ce bd3d 31b0 29bd
00000110: b3c4 893b 9b01 c73c 211b 4d3d ad70 4dbc
00000120: a2c3 ebbc 927b 443d d465 44bc 577d 043d
00000130: b3c9 dc3d d2e6 e23c 9504 e1bc 7722 aa3d
00000140: 6dc0 993d 67e5 82bd 7f58 00bc 91d6 df3d
00000150: bd4f 9fbd 8d99 993d 6d76 633c 5cec ae3c
00000160: 881f 873c c290 a6bd acde b33d 097f 273d
00000170: f1ec 053d 9230 023d d1a8 073d 0bb7 57bc
00000180: a76d 06bd f580 8cbc d0d5 06be a554 4d3d
00000190: b98d 6cbd 1d29 593c 8929 273d 038f 1d3e
000001a0: 10d0 2fbc 3420 b23a 033d 113e d6ff 09be
000001b0: 59ae c83d f4d8 8a3d e12b d13c 96c0 d2bc
000001c0: 4706 0bbe b7f6 073c 736a 763c 1fd2 8dbc
000001d0: 1503 793c 02f7 823c df1c 5f3d bd09 6d3d
000001e0: 20d1 9f3d 4480 363d 9b1c 66bc 0a6c 6fbd
000001f0: 73a7 19bd 0a42 413d f545 34bd 58da fc3a
00000200: ad81 4abc 2ded a23d 2355 1c3d b7a5 873d
00000210: 6997 f0bc 7d65 c4bc 4108 503b ddaf c83c
00000220: 129c 0bbd 662c 00bb e9c9 883d d6f1 3d3c
00000230: 33aa fdbc ddef a83d 2ecb 31bc 0aca 323d
00000240: 26a2 ad3d df6b 98bc b50d 38bc 49ca 033e
00000250: ef52 43bd 8f2f 393d 8fa4 3b3d 8313 80bb
00000260: b68a 233e aa96 80bd 1864 a53c 0b0c 633b
00000270: b4fe aabc ef43 d3bd 527f 44bd 7dfb 913d
00000280: e05b b0bd bae8 3f3d 4da5 23bc e791 ba3b
00000290: 5c41 5d3d de1f 29bd ae1b e53d 730e 783d
000002a0: 7645 9abd 79fa 87bd 10ec b13c 3463 813d
000002b0: 8b98 7bbd 5c7f bb3c d8b0 813d a32b 853d
000002c0: 0067 ab3c 459d 1bbd ff57 6cbd a6ea a83d
000002d0: 790d cfbd 23fc 09be ba4b 9bbd 2cbd b53d
000002e0: 3559 edbc 0e15 b83d f644 00bd f286 aebd
000002f0: 4d5f 0f3d de34 21bd f7b7 68bd a4e5 19bd
00000300: df13 32bd b7f8 f2bb 24bb b73d f5e0 f63c
00000310: b844 42bd a8a8 b83c a418 7ebd 128b 11bd
00000320: d0de 003d 01d3 1b3d 57ab 2cbe 1702 ccbd
00000330: 094e 8a3b 8e25 81bc e665 01bd c356 513d
00000340: bbf5 0abe 01ef abbd 1fef 433d 7ce8 a2bc
00000350: 5e9c 8cbd cb3e 03bd a514 a03d c99f 4c3d
00000360: d496 243e b483 cc3d c459 97bc 16e7 a4bd
00000370: 9af1 82bd 4cd2 52bd 288a 033e f650 cc3d
00000380: a126 873d 9060 883d fbdd 2c3d c1d3 e8bc
00000390: 82c2 acbd 8165 c7bd 18f8 dfba d546 243c
000003a0: e0f1 83bc f650 99bd a822 d1bc 7817 48bd
000003b0: 9a31 e53c 4287 5f3d cc20 09be 0f98 863d
000003c0: 6fc8 3c3d e118 ed3c 6afb fb3d 0c4d a1bd
000003d0: 74fb 653d 47f4 183d 14a6 bbbc 2378 f33d
000003e0: bb96 663c 85d1 87bd 0516 a5bd 6719 283d
000003f0: cf6c c33a 8702 acbd 6337 aebd 5765 8bbd
0.07638461 0.093243904 0.05400103 -0.030823352 0.027919743 -0.015501159 -0.06641703 -0.08316513
0.09846357 -0.03195865 0.008869212 0.006908138 0.012680896 -0.018603873 0.067072295 0.0052106427
-0.08678241 -0.025343047 0.113997474 0.094442524 0.04495954 0.08122929 -0.08687214 0.006643613
-0.07862982 -0.011068986 0.056005284 -0.04623341 -0.012967424 -0.099899575 -0.012799833 -0.119615406
0.11443589 -0.15565123 -0.07081547 -0.0030550228 0.01573296 -0.007914067 -0.010738428 0.11259438
-0.10316508 0.027355568 0.035953924 0.0062422208 -0.07061616 -0.053742465 -0.024684925 0.120418996
0.03547325 0.03589453 -0.013570833 -0.033202685 -0.016885554 -0.11265483 -0.062618785 0.046537865
-0.056688167 0.05100898 0.05656534 0.008740029 -0.015721748 0.0034284373 0.08826415 -0.05921216
0.036236513 -0.0055641048 0.09267855 -0.041427795 0.0042043566 0.024292758 0.0500747 -0.012539071
-0.028779808 0.04796941 -0.011987168 0.032346096 0.107806586 0.027697954 -0.027468005 0.08307355
0.075074054 -0.06391411 -0.007833599 0.10929597 -0.07778881 0.074999906 0.013883215 0.02135294
0.016494527 -0.08133079 0.08782706 0.040892635 0.032696668 0.0317846 0.03311998 -0.013166199
-0.032819416 -0.017151335 -0.131675 0.05012955 -0.057752345 0.013254431 0.040811095 0.15386586
-0.010730758 0.001358992 0.1418343 -0.134765 0.09798879 0.06779662 0.025533618 -0.025726598
-0.13576613 0.0082985675 0.015040028 -0.017312108 0.015198489 0.015986923 0.054470893 0.057870615
0.07803559 0.044555917 -0.014044906 -0.058452643 -0.037513208 0.04718212 -0.04401203 0.0019291146
-0.012360019 0.07955394 0.03816713 0.066234045 -0.029369073 -0.023974175 0.00317432 0.02449792
-0.034084387 -0.0019557714 0.06679136 0.011593303 -0.030964946 0.08248875 -0.0108516645 0.04364971
0.08478193 -0.018606124 -0.011233737 0.12870134 -0.047686514 0.04521137 0.045811232 -0.003908576
0.15970883 -0.06278737 0.02018933 0.003464463 -0.020873405 -0.10315692 -0.047972985 0.07128046
-0.08611274 0.046852805 -0.009988141 0.0056936624 0.05401741 -0.041290157 0.1118692 0.060560655
-0.0753278 -0.06639571 0.021719009 0.063177496 -0.061424773 0.022887878 0.063325584 0.06502464
0.020923138 -0.03799178 -0.057701107 0.08247881 -0.101099916 -0.13475089 -0.07582803 0.08873972
-0.028973201 0.08988391 -0.031315766 -0.085218325 0.035002995 -0.03935706 -0.056816068 -0.037572518
-0.04347598 -0.007414903 0.08971241 0.030136565 -0.047428817 0.022541359 -0.062035218 -0.03553302
0.03146249 0.038043026 -0.16862236 -0.09961336 0.0042207283 -0.015764978 -0.03159132 0.051108133
-0.13570301 -0.08395196 0.047835466 -0.019886248 -0.06865762 -0.032042306 0.07816438 0.04995707
0.16073161 0.09986058 -0.01847542 -0.08051889 -0.06393738 -0.051470086 0.12845671 0.099763796
0.06599165 0.06659043 0.042203885 -0.028421285 -0.08435537 -0.09736157 -0.0017087488 0.010026653
-0.016106546 -0.07486145 -0.02552922 -0.048850507 0.027977753 0.05457235 -0.13391417 0.065719716
0.046089586 0.028942527 0.12303813 -0.07876024 0.056148008 0.037342336 -0.02290634 0.11888149
0.014074023 -0.066317596 -0.080608405 0.04103985 0.0014909747 -0.083989196 -0.08506658 -0.068064384

bias f4 [256]
00000000: 306c 9f3a 8baa 453a a7cd 88bb 7f52 103c
00000010: 1c82 90bb 4fac c9b7 279d b9bb f5d4 073b
00000020: 8fe8 fdba 8d72 81ba 2e4a 9abb 9f78 243b
00000030: 53c6 363b 3920 dbba 091d 013b 7c32 d43a
00000040: c5bc 12b8 b61d d5bb 1db2 30bb 200a 4c3b
00000050: 42d9 a03b c79c 113a 841e 6d3b 19fa c53b
00000060: 1454 323b b365 eabb a871 bf3b 2f42 acba
00000070: f716 163b 199e 3ebc fb32 4c3b b209 f3bb
00000080: c4a3 1abc f440 b63b 34d8 743b 3903 0abb
00000090: 55ac 66bb 267a 8439 ca4f d23b 3f3c 70ba
000000a0: 85c0 b1ba a165 7dbb acf1 8a39 1986 a4ba
000000b0: b2b1 42bb 04d4 ba3a 8d77 e8ba 68e9 16ba
000000c0: eee4 313a c735 84bb 2d5c 843b 8f85 87bb
000000d0: 1dc6 e8bb 4d9d 91bb c902 fe3b d8ca c7ba
000000e0: 03a3 11bb 1f48 7dba 8cc7 d3bb 9c52 ba3b
000000f0: f85b b9bb 0bc8 2b3b 63d9 963a 3f01 deb8
00000100: 9d3c a2ba 2219 adbb 9e7c 1d3c 42fd 59ba
00000110: 0980 683b 2754 33bb c301 9ab9 a271 7c3b
00000120: 2062 ffba f5c6 57ba 1884 0a3c 813f 14bb
00000130: c543 cb3b e113 57bb c747 91ba 3349 0abb
00000140: 66ae 033b dd4c fcba 9669 c4ba cc80 65bb
00000150: 2bb3 9ebb 84e7 193b 1f1d 19bb 903d 953b
00000160: e95a 90bb a74d d83a 379d 4c3b be53 ad3b
00000170: 51be b33a bb5b 763b 80da 69bb 513a e5ba
00000180: 7d2a 033c cfeb 233b eb98 7b3a 622e 8cba
00000190: 926e 1cbb f6e7 cbbb 300b 08bb d392 5abb
000001a0: c174 e83a 4f3a e0ba b280 1b3b 4f77 92bb
000001b0: c35e 53bb 2d85 eb3a 467c 813b 37b3 dc3a
000001c0: 0752 74ba aeb7 55bb 049f 8eb9 58bb 99bb
000001d0: 692b b53b 0020 133b e959 2c3b 0b30 1ebb
000001e0: f159 493a cc5f a2ba 5144 78b9 3f71 813b
000001f0: 277e 64bb 794e 99bb 2a6d f7b9 8168 83bb
00000200: fe09 923b a701 f43a 7a5e 6aba 303c 06bb
00000210: f871 68ba b2ae 9f3a 9263 243b 6212 1e3b
00000220: 567b bdba b608 11bb 0361 e03b a892 bdb9
00000230: d17b e6ba bc5f 2f3a c42a 15bb dc35 90ba
00000240: e8ca 8b3a 7db4 9fba 3fbf 01bb dab6 52b9
00000250: 7684 7737 f0ba e13b c873 bc3a c034 553b
00000260: a41f 9f39 3d40 7dba 0f87 683a 352a e73a
00000270: 595e 41bb 162a 24ba 7eb0 16bb 1e28 82bb
00000280: b6dd 093b aaee d2ba 85fe d03b 6650 d13b
00000290: 8775 27bb 36be c039 95e9 b9ba e946 bfba
000002a0: 5776 0e3a 7a0f 32b9 98c1 96bb c92c 7a3b
000002b0: 8b09 19bb a059 3ebb 5570 45bb 8942 ca39
000002c0: 1efd d63b 6f65 28bb 55cd f7ba 97b1 713b
000002d0: 28ab eaba f32d 4ebb e53c 79bb eb9c 7bbb
000002e0: 51f8 723b c5bc 8db9 0aae c0ba 3f22 6f3b
000002f0: 214a f03a c1a8 243b 38cb 5a3b 61f8 cc3b
00000300: 1488 12bb 6763 d9ba 2356 63bb c357 12bc
00000310: 286c 693b 941a 25bb f077 d2ba 2acb b03a
00000320: 34df bdba 75e7 433a 9728 abbb db04 0f3a
00000330: 0c9d c9ba 32fd 87bb fc22 6f3b fd57 613b
00000340: 1154 c0ba e48f cbba d1ec 8b3b ccba abb9
00000350: 0675 3c3a 3e25 463b 46ce a83b 0c27 84ba
00000360: a7cf 3fba 6067 1f3b b31a 80ba fbe1 aa3b
00000370: a835 1c3b b4f4 a23b 2299 ceba b77b 8d3b
00000380: a1a9 1c39 66b9 b43b c0ff 523b bd4e 813a
00000390: 16f6 cc39 436a 57bb 8f17 35bb 40bd 8cba
000003a0: 1182 a0b9 b193 55bb f783 203b e3d0 41bb
000003b0: 4fec e3b9 4173 2cba 79f0 333a 507b e8ba
000003c0: d7db 11bb 4edf 0cbb 9696 33bc 3b79 f239
000003d0: 0802 7cbb d9d6 e0bb d555 b539 786f e0ba
000003e0: 2a22 33bb 87aa c3ba a6c8 bbbb 69d8 233b
000003f0: 21ad ac3a 4748 e1bb 0ee6 203c ddb5 02bb
0.001216298 0.00075403665 -0.0041749063 0.008808731 -0.0044100415 -2.4041305e-05 -0.005664486 0.0020726298
-0.0019371676 -0.0009876058 -0.00470855 0.002509631 0.0027889207 -0.0016717977 0.0019701144 0.0016189362
-3.4984918e-05 -0.006503786 -0.0026961633 0.0031133965 0.0049087116 0.00055546727 0.0036181519 0.006041777
0.002721076 -0.007153237 0.0058424063 -0.0013142283 0.0022901872 -0.011634373 0.0031158316 -0.0074169273
-0.009438459 0.0055619422 0.0037360312 -0.002105905 -0.0035197933 0.0002526801 0.006418203 -0.0009164251
-0.0013561404 -0.0038665312 0.0002650147 -0.0012552171 -0.0029707965 0.0014253859 -0.0017735824 -0.0005756826
0.00067861273 -0.004034731 0.0040393085 -0.0041357945 -0.007103695 -0.0044438005 0.007751797 -0.0015242947
-0.0022222407 -0.0009661931 -0.006462997 0.0056861173 -0.0056567155 0.0026211764 0.0011508878 -0.00010586017
-0.0012377683 -0.005282537 0.009612231 -0.00083156314 0.0035476706 -0.002736339 -0.00029374482 0.003851988
-0.00194842 -0.0008231246 0.008454345 -0.002262086 0.006203147 -0.0032818245 -0.0011084013 -0.002110076
0.0020092963 -0.0019248981 -0.001498508 -0.0035019396 -0.004843136 0.0023483941 -0.0023363305 0.004554458
-0.0044053686 0.0016502634 0.0031221637 0.005289524 0.0013713335 0.0037591297 -0.0035683215 -0.0017488693
0.008005735 0.002501238 0.00095976767 -0.0010694975 -0.0023869616 -0.0062227203 -0.0020758621 -0.0033351674
0.0017734991 -0.0017107221 0.0023727831 -0.004469789 -0.0032252527 0.0017968767 0.003951582 0.0016838078
-0.00093200844 -0.0032610702 -0.00027202826 -0.0046915226 0.0055288565 0.0022449493 0.0026298708 -0.0024137523
0.0007680944 -0.0012388169 -0.00023676573 0.0039502676 -0.0034865232 -0.004678544 -0.00047192845 -0.0040102606
0.0044567576 0.0018616215 -0.00089404697 -0.0020482652 -0.00088670803 0.00121828 0.0025083763 0.0024119844
-0.0014456313 -0.0022130436 0.006847502 -0.00036158157 -0.0017584508 0.0006689986 -0.0022761086 -0.001100238
0.0010665329 -0.0012184527 -0.001979783 -0.00020095278 1.4753188e-05 0.0068887398 0.0014377767 0.0032532662
0.00030350417 -0.00096607563 0.0008870223 0.001763648 -0.0029505698 -0.0006262375 -0.002299338 -0.0039720675
0.002103669 -0.0016092856 0.0063779973 0.006387758 -0.002555223 0.00036762812 -0.0014183993 -0.0014593276
0.0005434504 -0.00016981168 -0.004600715 0.0038173667 -0.0023351635 -0.002904512 -0.003012677 0.00038578015
0.0065609356 -0.0025695225 -0.0018905798 0.0036879533 -0.0017903792 -0.0031460493 -0.003803068 -0.003839309
0.0037074278 -0.0002703426 -0.0014700305 0.0036488918 0.0018332639 0.0025125 0.0033385288 0.006255195
-0.002235894 -0.001658541 -0.0034688793 -0.008932057 0.0035617445 -0.0025192844 -0.0016057473 0.0013488282
-0.0014486075 0.00074731495 -0.0052233445 0.00054557406 -0.0015381887 -0.0041500563 0.0036489358 0.003438472
-0.0014673491 -0.0015530554 0.004270174 -0.00032754836 0.0007189069 0.00302346 0.005151543 -0.0010082438
-0.00073170144 0.002432309 -0.0009773582 0.0052149273 0.0023835693 0.0049730185 -0.001576219 0.0043177265
0.00014940511 0.0055152653 0.0032195896 0.0009865385 0.0003909326 -0.0032869733 -0.002763245 -0.0010737553
-0.00030614485 -0.0032589252 0.002449272 -0.002957397 -0.00043472878 -0.00065784535 0.00068641413 -0.0017736945
-0.002225628 -0.0021495405 -0.010961195 0.0004624816 -0.003845336 -0.0068615493 0.0003458696 -0.0017123064
-0.0027333596 -0.001492814 -0.0057307063 0.0025000817 0.0013174155 -0.006875071 0.009820474 -0.0019944825

weight f4 [256, 19]
00000000: 70b2 4ebd b910 ef3e 308d 37be f4bb 9bbe
00000010: b90b f6bd 9721 853e 782d 88b8 e525 e2bb
00000020: 0301 c93e f2ad e8bd 687e 22bd 4754 a73c
00000030: 2478 45bb 885c b2bd 0b5e b7be ac04 7d3e
00000040: 24e7 703e 40fd 84bd 7b38 c63e ed1d fb3d
00000050: 7268 4bbe 4639 38be 44bc 723e fd11 88bd
00000060: ef07 d03d a242 83be 0b18 68bc 038b 38be
00000070: d8ec 5bbd f84b bf3e 2f35 cbbe bb91 6cbc
00000080: 08b1 c5be 1976 34be b3b0 6c3e 6baf a3be
00000090: aa1a a1be 1fc5 e93b e435 cfbd 246e c83e
000000a0: a2c5 553e 96b2 2dbe 8b41 a83d 49da c73e
000000b0: b94e bfbd 6466 433e c2f0 593e 1a89 c43d
000000c0: 8d8e 333d 3dfa 18bd ac64 6abd 1af8 78be
000000d0: d4d1 7e3c a7e4 39bd 1a4c 093f 8b5b 613e
000000e0: 1efb a2be 0e18 5d3d 8aba e83e fc12 713e
000000f0: 13b5 64be f208 fbbc 0a1e 57be f03b 46be
00000100: c5a4 9d3d 6972 0cbf 733b 443e 4b15 7e3e
00000110: 5652 b03e 30e8 f039 9068 08bd 7417 463e
00000120: adf5 be3b 999c de3d 7622 10be 8f5b abbd
00000130: 2e2a a33d a215 433e 816b e53d d63b c1bd
00000140: 8f42 b73d 919d 78be 28ee b63d 60ac 803e
00000150: 43af 6bbd a1f1 0ebe aeb4 103f 2527 92bd
00000160: 239e 4abd 5985 263e 8d25 32bd ac18 b2bd
00000170: 75d2 4dbe c7fb 0bbf 8efa 94be d8a4 823c
00000180: 4bb2 8a3d f560 71be 3512 ae3c 1e0c 963e
00000190: 51ad d33d 8e66 7c3e 4621 c6be 7ed2 863d
000001a0: 9868 53be 9034 a23d 0e00 a93e 6f03 03bf
000001b0: e97f 093e f051 3e3d 5d3a ba3e a3b9 29be
000001c0: 9768 4a3e 6755 b23d caec 93be b8a5 a13d
000001d0: 544a aebe 95bc 03be 1b7f c13d 4638 b0be
000001e0: 862a e63d 0d9a d2be 3407 b73c 24a1 04be
000001f0: 0c44 61be 5aa0 b3be 3319 d93e 49a6 be3d
00000200: 067c 0f3e b8f0 d53d 089f 233e 6e0e 793d
00000210: e35d 41be 100e 863c 9185 3dbe 16a8 f33d
00000220: 8fc9 843e 746e bd3e 8b1c 84be 186e 843c
00000230: f226 d9be 688c f93d 93af 0a3d 639a c43d
00000240: fd5a 80be 9b6a 24be c1f3 19be eaff 773e
00000250: 06d3 ccbd d13e 1a3e e937 063f d175 a33c
00000260: f426 18bd 67de 073f 41aa 583e 30f3 ae3d
00000270: 41d2 94be eb49 a3be 0479 8abe 3269 55be
00000280: c187 16be 17f9 95be fc01 4b3c 4c29 dcbd
00000290: d60c 38be 2d43 18bb 7ff0 b0be 319f a33d
000002a0: bb7e 1d3e 1d0f 86be 1423 f03d 56e8 c3be
000002b0: e119 52bc b59d 933e a9bf ee3e 629f 513e
000002c0: 67cb 28be a9a8 a8be 5931 603e 3512 213e
000002d0: 721f 903d 18c8 e93d cbec d13d 3303 eebd
000002e0: e16d d13c dc96 293d d561 76bd 0f76 d7be
000002f0: e11c 843e 3a3a 633d 5719 8b3d 0a41 dd3c
00000300: 771d 04be b044 553e 9a09 2bbd bcea 023d
00000310: e682 a53d 71c0 b23d 90c1 28bf 5637 62be
00000320: 0732 91bc d398 02be a872 a03e 3f77 b4bd
00000330: 38c0 c1be 07c3 75be 5ecd ecbd b6ab 20be
00000340: 0b18 703e 94ee 51be 34d8 99be 1a08 3f3d
00000350: 1db8 df3e 780a c2bd 6dfe 153e 5145 9a3d
00000360: 4d47 a7bd aac1 9d3e 746b 843e d19e ab3c
00000370: 23e4 a93e fa69 0dbd d471 4dbe 8ff4 e3be
00000380: d255 da3b 08fe 4fbd e068 823e e789 673e
00000390: 4695 8dbd dc3c 81be 34a7 8ebd a7c3 013f
000003a0: 1100 42bd a57d b8ba 241d 753e 542e 313e
000003b0: 57dc 9dbe 8054 c63d defa 563d ad37 58bd
000003c0: 87a6 a83e bcb9 9b3d f0b2 d53e 8b4a b73d
000003d0: f64b 31be da78 16be 2d07 aebe 1d7b 2abe
000003e0: 6f3f a0be 6c23 3a3e 5fea 173e 07dc e0bb
000003f0: 346f 2bbd 76bb 733e 3b15 a6bd d79a fdbd
-0.05046314 0.46692446 -0.17924953 -0.30416834 -0.12013955 0.2600219 -6.4934546e-05 -0.00690149
0.39258584 -0.113613024 -0.03967133 0.020425929 -0.0030131424 -0.08709055 -0.35813937 0.24708813
0.23525673 -0.06493616 0.38714966 0.12261567 -0.19864061 -0.17990598 0.2370463 -0.06644056
0.10157763 -0.25636774 -0.014165889 -0.18021779 -0.05369267 0.37362647 -0.39689013 -0.014439042
-0.38611627 -0.17623176 0.2311428 -0.3196977 -0.31465656 0.0071340944 -0.10117701 0.3914653
0.20876172 -0.16962656 0.08215626 0.39033726 -0.09341187 0.19082028 0.21283248 0.095964625
0.04383712 -0.03734802 -0.057224914 -0.24313393 0.015552957 -0.045384075 0.53631747 0.22007577
-0.31832212 0.05397802 0.45454818 0.23542398 -0.223347 -0.030643914 -0.21007553 -0.19358802
0.07697443 -0.54862076 0.19163303 0.2481281 0.34437817 0.0004594936 -0.033302844 0.19344884
0.0058276267 0.108697124 -0.14075646 -0.08367073 0.079670295 0.19051221 0.11202145 -0.09435241
0.08948242 -0.24278857 0.089321434 0.25131512 -0.05754019 -0.13959362 0.56525695 -0.071363725
-0.049467217 0.16261806 -0.043492842 -0.08696112 -0.20099814 -0.54681057 -0.29097408 0.015947744
0.06772288 -0.23572142 0.021248916 0.2930612 0.10335792 0.24648497 -0.3869726 0.06583117
-0.20645368 0.07920182 0.33007854 -0.51177114 0.134277 0.04646486 0.36372653 -0.16574721
0.1976646 0.087076955 -0.28891593 0.078929365 -0.34041083 -0.12864907 0.094480716 -0.34417933
0.112385795 -0.41133156 0.022342302 -0.12952095 -0.21998614 -0.35083276 0.42402038 0.0930906
0.14012155 0.10446304 0.15978634 0.060804777 -0.18883471 0.016364127 -0.18507983 0.11897294
0.25935027 0.36998332 -0.25803027 0.016165778 -0.42412525 0.121849835 0.033858847 0.095997594
-0.2506942 -0.16056292 -0.15034391 0.24218717 -0.10001187 0.15063025 0.5242906 0.01995364
-0.037146524 0.53073734 0.21158697 0.08542478 -0.2906666 -0.31892332 -0.27045453 -0.2084091
-0.14700224 -0.29291603 0.01239061 -0.10750064 -0.17973647 -0.00232334 -0.34558484 0.07989348
0.15380375 -0.26183406 0.117254406 -0.38263196 -0.012823553 0.28831258 0.466306 0.20470956
-0.16483842 -0.32941177 0.21893825 0.15729602 0.07037248 0.11415118 0.10250243 -0.11621704
0.02556509 0.041403636 -0.060151894 -0.4208226 0.25803283 0.05547545 0.067919426 0.027008552
-0.12901865 0.20826983 -0.041757204 0.03196214 0.080816075 0.087281115 -0.6592035 -0.22091421
-0.01772405 -0.1275361 0.31337476 -0.08811807 -0.37841964 -0.24000178 -0.11562608 -0.15690503
0.23446672 -0.20501167 -0.30047762 0.046638586 0.43695155 -0.09474653 0.14647837 0.07532752
-0.081678964 0.30811816 0.2586323 0.020949753 0.33181867 -0.034524895 -0.20062953 -0.4452252
0.0066630626 -0.050779372 0.25470638 0.226112 -0.06913237 -0.25241745 -0.06965485 0.50689167
-0.047363345 -0.0014075531 0.23936898 0.17302829 -0.30832168 0.09684086 0.05248534 -0.05278747
0.3293955 0.076037854 0.4173808 0.08949765 -0.17314133 -0.14694539 -0.3398985 -0.16648526
-0.31298396 0.18177575 0.14835499 -0.006862167 -0.0418541 0.2380198 -0.08109518 -0.12383049
