trained_policies_ppo/trained_models/policy_model_cop_ppo/model.pt (torch, 739173 bytes, 14 tensors)

_last_output f4 [128, 9]
0.18119484 -0.05022836 0.23938599 0.09603259 0.2803645 -0.01356335 -0.22502066 -0.40123734
-0.09513552 0.11718502 -0.096987166 -0.016945448 0.16737933 0.16587284 -0.030845607 0.13676138
-0.12477085 -0.3678247 0.2227132 0.048024233 -0.003144716 0.017297648 0.20262912 -0.024887536
0.056760274 -0.32340464 -0.23096049 0.14415938 0.17172565 0.1708425 0.15308705 0.21111666
-0.28386137 -0.121981785 -0.33119237 -0.06571578 0.097401574 -0.17097451 -0.23597282 -0.1927794
-0.012645033 0.1662409 0.21599397 0.2837351 -0.16659538 0.16061199 0.05454737 0.12432078
0.25901592 0.25800502 -0.15908991 0.021253474 -0.34104526 -0.39538404 0.07653258 0.024473596
0.31638408 0.033566378 0.12278911 -0.25715303 -0.39433908 -0.12438376 0.30428413 0.1273611
-0.07136707 -0.12979461 0.08080758 0.1321934 0.011417252 0.2562658 -0.077647455 -0.41001445
0.20847102 0.13481222 -0.01246143 0.058643125 0.12042823 -0.18500587 0.09637706 -0.22646272
-0.23647211 0.16913985 0.0390097 0.1372962 0.062863156 0.24158922 -0.08864311 -0.12661181
-0.3444259 -0.09239897 0.192425 -0.18566518 0.06922282 -0.0855483 0.19700167 0.09227428
0.16625832 -0.1837299 -0.31689098 -0.043023366 -0.104337774 0.0015407928 -0.25111514 -0.07112344
-0.116261736 -0.03795157 0.48718596 0.26060867 0.17416066 0.066122234 0.22266468 0.11611189
0.22712757 -0.15432207 -0.22185284 -0.30860546 -0.0842413 -0.024051031 -0.16202217 0.13172357
0.09900963 0.10253404 0.24475697 -0.0022903774 -0.10644812 -0.2102878 0.2353956 -0.0749804
-0.035390425 -0.05393421 0.2899116 0.121175036 0.08817088 -0.3010387 -0.3165382 -0.13504566
-0.3016195 -0.18092863 -0.058657795 -0.1096454 0.39562076 0.34136227 0.38679615 -0.26442268
0.060534228 -0.19411993 0.13609427 -0.046455074 0.094990075 0.13985199 -0.0664844 0.107083134
-0.18480922 -0.20289968 -0.35431984 -0.26673478 -0.18519065 -0.16110435 0.44007355 0.3950352
0.6594909 -0.2436706 -0.19380148 -0.25686222 -0.09907492 -0.071649894 -0.15901119 0.2553082
0.1929656 0.54203516 -0.09153535 0.018447971 -0.22166191 -0.0864015 -0.26401278 -0.048864923
0.087280326 0.09483551 0.49507967 -0.007995082 0.23818296 0.10826017 -0.06967358 0.03569704
0.19942546 -0.16208315 0.1522001 -0.23007226 -0.3614099 -0.14790973 -0.18411015 -0.18647434
-0.24914302 -0.1370682 0.18527323 0.23420592 0.66554195 -0.06354021 0.21435332 -0.014697143
-0.100149445 0.061001826 0.18082823 0.036383998 0.20356946 -0.1521027 -0.46907255 -0.07033156
-0.18013214 -0.03812713 -0.2120658 -0.2388281 -0.01779025 -0.038698092 0.57239115 0.33478963
0.14289619 -0.15853354 -0.16461156 0.05437989 0.039932977 0.035381984 0.19203442 0.1391735
-0.3177927 0.13905889 0.039760787 -0.13372926 -0.036778904 0.093467936 -0.09090919 0.24122773
0.00865926 -0.30271253 0.20604704 -0.044990577 0.060824748 -0.11307673 0.12876824 -0.27338862
-0.011630705 0.08760567 -0.054333534 0.28107172 0.06341817 -0.033169985 0.026432097 0.2410492
-0.058664337 0.039146066 -0.29920992 -0.31601164 0.23739022 0.057692096 -0.057213504 0.07627295
00000000: 248b 393e 41bc 4dbd 9a21 753e bcac c43d
00000010: f08b 8f3e d038 5ebc d16b 66be fb6e cdbe
00000020: 69d6 c2bd b3fe ef3d 35a1 c6bd 2ed1 8abc
00000030: 7d65 2b3e 92da 293e edaf fcbc 2d0b 0c3e
00000040: dc87 ffbd 8553 bcbe ee0e 643e 0fb5 443d
00000050: 9417 4ebb ccb3 8d3c 027e 4f3e f2e0 cbbc
00000060: 767d 683d 4b95 a5be e880 6cbe 849e 133e
00000070: d9d8 2f3e 56f1 2e3e dac2 1c3e f72e 583e
00000080: 4756 91be 96d1 f9bd 0c92 a9be ff95 86bd
00000090: 7a7a c73d f113 2fbe dca2 71be f767 45be
000000a0: 1d2d 4fbc 0e3b 2a3e 862d 5d3e ba45 913e
000000b0: fb97 2abe 7877 243e 106d 5f3d e59b fe3d
000000c0: bc9d 843e 3c19 843e 77e8 22be c41b ae3c
000000d0: 7c9d aebe c76f cabe 1dbd 9c3d da7c c83c
000000e0: 18fd a13e e67c 093d db78 fb3d 90a9 83be
000000f0: d0e6 c9be eabc febd 21cb 9b3e f36a 023e
00000100: e628 92bd e1e8 04be 727e a53d b55d 073e
00000110: 6d0f 3b3c 4535 833e a105 9fbd 6aed d1be
00000120: 6d79 553e 370c 0a3e 072b 4cbc c633 703d
00000130: 13a3 f63d 2e72 3dbe 5661 c53d d8e5 67be
00000140: bf25 72be ff32 2d3e a3c8 1f3d 6097 0c3e
00000150: 66be 803d 2a63 773e 858a b5bd 87a6 01be
00000160: 9758 b0be ac3b bdbd 0f0b 453e 031f 3ebe
00000170: b2c4 8d3d f233 afbd ceba 493e 4cfa bc3d
00000180: 9f3f 2a3e b123 3cbe 893f a2be 4539 30bd
00000190: 0baf d5bd 6df4 c93a 2a92 80be 2ba9 91bd
000001a0: a21a eebd 1b73 1bbd 7070 f93e 806e 853e
000001b0: 2c57 323e 186b 873d 3602 643e 12cc ed3d
000001c0: 2194 683e 9b06 1ebe 642d 63be 8901 9ebe
000001d0: b486 acbd ab06 c5bc 24e9 25be 8be2 063e
000001e0: 90c5 ca3d 5efd d13d 92a1 7a3e 281a 16bb
000001f0: 7901 dabd af55 57be 8b0b 713e 538f 99bd
00000200: 8df5 10bd 1eea 5cbd 4b6f 943e 9e2a f83d
00000210: ef92 b43d bf21 9abe 4c11 a2be 6949 0abe
00000220: df6d 9abe 5b45 39be 2843 70bd c48d e0bd
00000230: ce8e ca3e 09c7 ae3e 250a c63e 6962 87be
00000240: bdf2 773d 60c7 46be 4c5c 0b3e ad47 3ebd
00000250: 288a c23d 5c35 0f3e f928 88bd 674e db3d
00000260: a13e 3dbe efc4 4fbe 6969 b5be 7691 88be
00000270: 9ea2 3dbe 8af8 24be 5251 e13e 0e42 ca3e
00000280: 65d4 283f c984 79be e573 46be 7283 83be
00000290: cbe7 cabd 2ebd 92bd d4d3 22be c2b7 823e
000002a0: c698 453e d1c2 0a3f e376 bbbd 3320 973c
000002b0: 57fb 62be 45f3 b0bd af2c 87be 9626 48bd
000002c0: 07c0 b23d 1f39 c23d 157b fd3e cefd 02bc
000002d0: 3ce6 733e 82b7 dd3d 06b1 8ebd 0f37 123d
000002e0: 3036 4c3e 20f9 25be 58da 1b3e 1098 6bbe
000002f0: b80a b9be a675 17be 5f87 3cbe 21f3 3ebe
00000300: 591f 7fbe 9b5b 0cbe 44b8 3d3e add3 6f3e
00000310: f560 2a3f 5f21 82bd 707f 5b3e 49cc 70bc
00000320: 271b cdbd 0ddd 793d 092b 393e 6307 153d
00000330: 8374 503e cfc0 1bbe 472a f0be fe09 90bd
00000340: 8f74 38be 322b 1cbd c727 59be 5a8f 74be
00000350: dcbc 91bc e481 1ebd 3a88 123f 8c69 ab3e
00000360: 6153 123e 9e56 22be ef8f 28be 73bd 5e3d
00000370: c390 233d b3ec 103d aca4 443e 7f83 0e3e
00000380: bab5 a2be 7465 0e3e 35dc 223d 53f0 08be
00000390: 7aa5 16bd 1e6c bf3d 992e babd 6704 773e
000003a0: 92df 0d3c 23fd 9abe fffd 523e 0a48 38bd
000003b0: 5f23 793d c694 e7bd d2db 033e 98f9 8bbe
000003c0: b68e 3ebc 9a6a b33d d78c 5ebd a2e8 8f3e
000003d0: 63e1 813d 40dd 07bd 2088 d83c 9ad5 763e
000003e0: 044a 70bd a057 203d 0b32 99be 47cc a1be
000003f0: 6c16 733e 8c4e 6c3d b558 6abd fe34 9c3d

weight f4 [9, 256]
-0.0021521607 -0.0014792698 0.0014897152 0.00029898548 0.010821319 0.0039322875 0.008843854 0.011176086
-0.0016026462 0.0076727546 0.0017231671 0.0030216728 0.0026946021 -0.007650276 -0.001382983 -0.0022815063
0.00035087718 -0.00010313383 0.0017885994 0.005591517 0.0035266278 0.001092372 -0.0045109876 -0.0030497634
-0.0034570168 0.003609852 0.0036930381 -0.0011757994 0.0019366795 -0.004933847 0.007914601 0.0009452187
-0.0019581162 -0.0010064567 -0.0022096974 0.0024290122 -0.0026989162 0.0012675653 0.0073881173 -0.0037606272
0.0022792795 0.0066884607 -0.0043016914 0.0061043324 -0.00076064887 0.0006397874 -0.0030404076 0.0019975032
0.003133458 0.0012520937 0.0019074793 0.0038792845 -0.0024828743 -0.0009253516 0.00035326544 0.0004754629
0.008785835 -0.0070345593 -0.0028781462 -0.00082605775 0.007131151 0.0006489559 -0.0086922515 -0.0002734636
-0.0043414533 -0.0026697256 -0.00042390323 0.0023440216 -0.002433298 -0.00011734852 0.005496589 -0.0014166477
0.0055819266 -0.0020174566 -0.00015210627 -0.012805704 0.0030980087 -0.0007753302 -0.0011982528 -0.0037272659
-0.0021557584 0.002722062 -0.0014813724 0.0057673347 -0.004402052 -0.0006915939 -0.004945895 0.0035460624
-0.0025095136 -0.00040727138 -0.003281807 -0.0018462631 -2.687841e-05 0.0015928609 0.002537031 -0.0041699684
0.007324094 0.0023848554 -0.0059847804 -0.0025829554 -0.0036716876 0.003932625 0.0023268065 -0.0021567824
-0.009524037 0.0012111032 0.004380055 -0.0016610293 -0.007341156 -0.0010536471 0.00010114966 -0.006146467
0.007327357 -0.0032844923 0.0021347427 -0.0016281409 0.002393869 0.0015567245 -0.00712877 0.004167145
0.0010265642 -0.0062467027 0.004366267 0.002477005 -0.004102515 0.0019756493 -0.0051768343 0.0029462043
-0.003210491 0.00626347 -0.0015866895 0.0051456257 -0.0014441202 0.0018661803 0.004031465 -0.0067126974
0.002649652 0.0020991645 -0.0022845562 0.003479335 -0.0015634157 0.006076303 -0.00016736277 0.0018587532
0.0027332874 0.0013442083 -0.0071731918 0.0007195428 0.0016665368 0.0051957686 0.0008590734 0.00040431606
-0.0024415588 -0.0045423284 -0.00042885306 0.0014264947 -0.0022739277 -0.0023006115 0.0026798006 -0.000537656
0.007045231 0.00013038328 0.007862669 0.0065089236 -0.0059245764 -0.0043032104 0.0018571707 0.0064658117
-0.004346447 -0.00072257855 -0.003092788 0.0005280603 -0.009141724 0.0014883223 -0.0034810558 -0.0026641453
-0.000843719 -0.00085904007 0.0026080296 -0.003646591 0.0012921277 0.0039167358 0.00071159203 -0.012272869
0.0020916725 0.0047878516 0.004447964 -0.00043237433 -0.0038955943 1.5682292e-05 -0.0063902154 4.740197e-05
5.6978886e-05 -0.0025535584 -0.008174469 0.007534287 -0.0049242657 -0.004388647 -0.0037975023 0.0052804165
-0.00038436588 -0.0025071162 -0.0020844913 0.0014493964 -0.0035346597 0.002420181 0.0059118494 0.0016298554
0.0036541785 0.00052248465 -0.004848376 0.0055626286 -0.0049823355 0.001048377 0.0027516978 4.6879104e-05
-0.0031719445 -0.0009963952 -0.0012720962 -0.001804714 0.008065957 0.0009325029 2.782085e-05 -0.003016064
0.0011944994 0.0011889011 -0.0034431713 0.002190702 -0.0019343777 -0.0007054383 -0.00030037298 -0.0033744273
0.0021516809 -0.00015669313 -0.0053718244 -0.0025153127 -0.0014509582 0.00080928305 0.0031313428 -0.0041265953
-0.00013253208 0.001537449 0.010161245 0.0024531465 0.004268439 -0.0023186607 0.00074777927 -0.0016524668
-0.00091451546 -0.009532277 0.010345787 -0.00088981295 -0.012827707 -0.001241382 0.0018057975 0.004250455
00000000: 440b 0dbb 0fe4 c1ba 8c42 c33a 27c1 9c39
00000010: e74b 313c 6bda 803b d0e5 103c e71b 373c
00000020: e20f d2ba bb6b fb3b e5db e13a 4207 463b
00000030: ec97 303b 2baf fabb 3645 b5ba 5385 15bb
00000040: f0f5 b739 8e49 d8b8 706f ea3a 0b39 b73b
00000050: ff1e 673b ec2d 8f3a e8d0 93bb 8ade 47bb
00000060: 1e8f 62bb 4493 6c3b e606 723b 481d 9aba
00000070: 2ed8 fd3a 1cac a1bb 3eac 013c 8ec8 773a
00000080: bd53 00bb 15eb 83ba 92d0 10bb 1030 1f3b
00000090: 4de0 30bb 6f24 a63a 0518 f23b db74 76bb
000000a0: f75f 153b e02a db3b 34f5 8cbb da06 c83b
000000b0: 4866 47ba 68b7 273a 9341 47bb 8be8 023b
000000c0: b45a 4d3b 4b1d a43a 6204 fa3a 983b 7e3b
000000d0: b8b7 22bb 4b93 72ba 7c36 b939 8d47 f939
000000e0: 76f2 0f3c 2982 e6bb 489f 3cbb cc8b 58ba
000000f0: 6eac e93b b11e 2a3a f269 0ebc aa5f 8fb9
00000100: c042 8ebb 90f6 2ebb 543f deb9 289e 193b
00000110: f777 1fbb 0219 f6b8 bb1c b43b cfae b9ba
00000120: 98e8 b63b 4e37 04bb b77e 1fb9 04cf 51bc
00000130: f607 4b3b 873f 4bba b10e 9dba 2545 74bb
00000140: a047 0dbb 9f64 323b 9c2a c2ba e9fb bc3b
00000150: 173f 90bb 154c 35ba 2d11 a2bb 0e65 683b
00000160: a776 24bb 0a87 d5b9 9613 57bb 4ffe f1ba
00000170: f278 e1b7 8bc7 d03a 5144 263b 3ba4 88bb
00000180: f4fe ef3b 3c4b 1c3b fa1b c4bb cd46 29bb
00000190: b2a0 70bb 40dd 803b 567d 183b ce58 0dbb
000001a0: b50a 1cbc e1bd 9e3a 9086 8f3b e5b6 d9ba
000001b0: 148e f0bb 881a 8aba 4f20 d438 4d68 c9bb
000001c0: 531a f03b a340 57bb 0ae7 0b3b 5867 d5ba
000001d0: 75e2 1c3b 020b cc3a 7598 e9bb 8c8c 883b
000001e0: c78d 863a 24b1 ccbb e712 8f3b 3f55 223b
000001f0: 646e 86bb e579 013b 6fa2 a9bb 1b15 413b
00000200: 1a67 52bb cb3d cd3b 77f8 cfba a39c a83b
00000210: a248 bdba 9f9a f43a 611a 843b 30f6 dbbb
00000220: c9a5 2d3b 2392 093b 7eb8 15bb 8e05 643b
00000230: 87eb ccba b91b c73b 1a7e 2fb9 68a1 f33a
00000240: f420 333b 2530 b03a 180d ebbb b39f 3c3a
00000250: b26f da3a 4441 aa3b 7133 613a 62fa d339
00000260: 8f02 20bb d0d7 94bb afd7 e0b9 38f9 ba3a
00000270: 2d06 15bb dbc5 16bb 989f 2f3b 7cf1 0cba
00000280: aedb e63b 7fb7 0839 6dd2 003c cf48 d53b
00000290: f322 c2bb f201 8dbb 4f6c f33a 29df d33b
000002a0: a46c 8ebb 6d6b 3dba 5fb0 4abb 876d 0a3a
000002b0: 2bc7 15bc cf13 c33a 6d22 64bb f198 2ebb
000002c0: 062d 5dba 3431 61ba 7aeb 2a3b a5fb 6ebb
000002d0: 9c5c a93a f657 803b 228a 3a3a 2514 49bc
000002e0: 7114 093b 69e3 9c3b 3ac0 913b 4db0 e2b9
000002f0: 3a4d 7fbb 778d 8337 0365 d1bb 7ad1 4638
00000300: 9dfc 6e38 9a59 27bb 35ee 05bc 2ee2 f63b
00000310: bc5b a1bb a4ce 8fbb 84df 78bb 5807 ad3b
00000320: b784 c9b9 6e4e 24bb f69b 08bb acf9 bd3a
00000330: c0a5 67bb e69b 1e3b 30b8 c13b dfa0 d53a
00000340: f17a 6f3b 5af7 083a 20df 9ebb b646 b63b
00000350: dc42 a3bb b269 893a d455 343b 0ea0 4438
00000360: 66e0 4fbb 7a99 82ba 77bc a6ba 278c ecba
00000370: 1327 043c 3673 743a d260 e937 28a9 45bb
00000380: c090 9c3a e7d4 9b3a d4a6 61bb e191 0f3b
00000390: f28a fdba 2aed 38ba 617b 9db9 7f25 5dbb
000003a0: 3703 0d3b fe4d 24b9 2106 b0bb f2d7 24bb
000003b0: 142e beba 1126 543a 3737 4d3b 6438 87bb
000003c0: 4ff8 0ab9 3a84 c93a 5a7b 263c f8c4 203b
000003d0: 43de 8b3b acf4 17bb 9e06 443a 9697 d8ba
000003e0: 18bc 6fba 442d 1cbc 6081 293c 5642 69ba
000003f0: 4e2b 52bc deb5 a2ba 82b0 ec3a 6747 8b3b

bias f4 [9]
0.0016481467 -0.0019504501 0.0001557103 -0.0016860359 0.0012719779 -6.0635677e-05 0.0006609999 0.002875536
-0.0024157553
00000000: a006 d83a 3fa6 ffba 2a46 2339 fafd dcba
00000010: 7fb8 a63a 1053 7eb8 f446 2d3a 7d73 3c3b
00000020: a651 1ebb

weight f4 [256, 19]
0.26752535 0.13020436 -0.35532486 -0.16787188 0.25492612 0.36674052 0.31333455 0.38723612
-0.14817734 0.14157271 -0.034556646 -0.2512232 0.041736685 -0.187105 0.02480898 -0.07864281
-0.14912358 -0.10971263 -0.36064953 -0.09114842 -0.2221537 0.46184802 0.13100085 0.13411796
0.0038031116 0.37900534 -0.119258754 -0.3437616 -0.03763634 -0.015220963 0.19339244 0.028073736
-0.39012444 -0.124545105 -0.030337982 -0.02265534 -0.38540316 0.25662327 0.19714049 0.28335217
-0.053705018 0.18561614 -0.042529214 -0.0975439 -0.053703923 -0.46575662 -0.46804616 0.10835932
0.15565619 -0.34423077 -0.116024226 -0.028376471 -0.24001566 0.07358265 0.09856717 -0.23558702
-0.3320729 -0.039644364 0.08251176 -0.2406965 0.29640877 -0.14390647 0.15820599 0.20984133
-0.27699298 0.29713395 0.25113815 0.25918034 0.5322756 0.20920761 0.045237053 0.070504814
-0.30574036 0.009772924 0.1256949 -0.11670527 -0.113142036 0.115098305 -0.23921905 0.15387951
0.12631185 0.32127675 -0.47289032 -0.42948878 -0.2061412 0.07251345 -0.12546977 -0.09092533
-0.44759026 0.018119441 -0.2133168 0.06716445 0.1266435 0.16740055 0.051931117 -0.3379921
0.15951006 -0.015594103 -0.0060837246 0.037258223 -0.14948368 0.26782623 -0.024425292 -0.115941085
-0.14619552 0.2899629 -0.38594234 -0.14316487 0.15766959 0.30841932 0.24679385 0.46857032
0.119904034 -0.2398226 -0.10951507 -0.059400246 -0.40609935 -0.1553506 -0.13157508 0.11516439
-0.21731569 -0.4971388 0.097530246 -0.17730069 -0.40287757 0.061154988 0.24176964 -0.34838077
0.07498254 -0.1743916 0.03966542 0.057028838 0.21337679 0.12178982 -0.13552383 0.28577164
0.19149819 -0.2468549 -0.633146 0.050779004 0.16688496 0.30040333 -0.011269746 0.023788914
-0.16419972 -0.03434634 -0.0047440454 -0.002030006 -0.22861077 -0.30726922 0.27482125 -0.06654275
0.043279253 0.7583832 0.037720155 -0.09189786 -0.009094456 0.1860881 -0.17629072 0.07818882
0.14122194 -0.26431713 -0.17095745 -0.10352454 -0.0135059375 0.27498108 -0.117704466 0.29641074
-0.17478687 -0.048449874 0.032413926 0.18143693 -0.028632212 -0.28272244 -0.29490936 -0.116648905
-0.061101668 0.13538341 0.416208 -0.030022813 -0.15570228 -0.16845445 -0.06252219 0.20985067
0.14671814 0.13972966 -0.50350064 0.30049214 0.3207218 0.06327137 -0.19684075 -0.11630396
-0.23917219 0.13321333 -0.2615751 -0.005369291 -0.36252806 -0.26291177 -0.22812638 0.40176415
-0.086524054 -0.06535419 0.029039701 -0.31548846 -0.25589707 0.1714922 -0.33439198 -0.2445661
0.09435175 0.32984042 -0.017912325 0.045687806 0.045477007 -0.11314051 -0.08062225 0.22477236
-0.7124936 -0.019957338 0.16819568 -0.12217821 0.03648382 -0.04381532 -0.15795283 -0.4157152
-0.06950118 -0.20734313 -0.14095746 0.06548643 0.019919984 -0.28288132 0.09968129 0.110097215
-0.17930472 -0.047457766 0.29717293 0.009805332 -0.18604872 0.16407457 0.41178486 -0.2937427
-0.054236673 -0.3133045 0.45577288 0.01601737 -0.045187652 0.34428784 -0.1582556 0.32676253
-0.15446132 -0.2725555 0.1608209 0.03568624 0.19545834 -0.20268324 -0.121854596 -0.14405422
00000000: 15f9 883e 4b54 053e 24ed b5be 9be6 2bbe
00000010: ad85 823e 6ac5 bb3e 636d a03e d043 c63e
00000020: cdbb 17be 70f8 103e 458b 0dbd 54a0 80be
00000030: 16f4 2a3d 7498 3fbe 343c cb3c 7b0f a1bd
00000040: dab3 18be 04b1 e0bd 0ea7 b8be 06ac babd
00000050: 427c 63be 5877 ec3e 1625 063e 3856 093e
00000060: a03d 793b fd0c c23e ef3d f4bd 8501 b0be
00000070: 9028 1abd 5961 79bc ab08 463e e4fa e53c
00000080: 64be c7be 8111 ffbd 5c87 f8bc b197 b9bc
00000090: 9053 c5be 2064 833e 32df 493e 8913 913e
000000a0: cbf9 5bbd 2812 3e3e 1d33 2ebd 19c5 c7bd
000000b0: a5f8 5bbd a777 eebe bfa3 efbe 7eeb dd3d
000000c0: 5664 1f3e 043f b0be 1c9e edbd c675 e8bc
000000d0: aac6 75be 80b2 963d 96dd c93d b93d 71be
000000e0: 7605 aabe 2162 22bd edfb a83d 2579 76be
000000f0: e4c2 973e 385c 13be c000 223e a5e0 563e
00000100: 06d2 8dbe f121 983e 2e95 803e 49b3 843e
00000110: 3743 083f 853a 563e 7d4a 393d d464 903d
00000120: 008a 9cbe 9d1e 203c 2ab6 003e 2c03 efbd
00000130: 03b7 e7bd a9b8 eb3d d7f5 74be 9792 1d3e
00000140: e557 013e 637e a43e ae1e f2be f4e5 dbbe
00000150: ae16 53be ef81 943d 267b 00be 0f37 babd
00000160: 8d2a e5be 396f 943c b86f 5abe 848d 893d
00000170: d5ae 013e 0d6b 2b3e b9b5 543d 4d0d adbe
00000180: 9b56 233e 697e 7fbc fb59 c7bb 149c 183d
00000190: 4012 19be 8520 893e 8d17 c8bc 8572 edbd
000001a0: 47b4 15be 0476 943e 3c9a c5be d099 12be
000001b0: 2374 213e 23e9 9d3e 87b7 7c3e 73e8 ef3e
000001c0: 3f90 f53d 0e94 75be 7049 e0bd ac4d 73bd
000001d0: 41ec cfbe 3a14 1fbe 9ebb 06be 4fdb eb3d
000001e0: 0188 5ebe fa88 febe f0bd c73d 508e 35be
000001f0: f845 cebe a77d 7a3d 7692 773e f75e b2be
00000200: 7290 993d b693 32be 3578 223d 1297 693d
00000210: 727f 5a3e f16c f93d c2c6 0abe a950 923e
00000220: 1a18 443e 88c7 7cbe db15 22bf a5fd 4f3d
00000230: e4e3 2a3e 77ce 993e bea4 38bc f8e0 c23c
00000240: f923 28be bfae 0cbd f073 9bbb d909 05bb
00000250: f118 6abe 6452 9dbe 5fb5 8c3e 9147 88bd
00000260: 9645 313d 6725 423f 7380 1a3d f234 bcbd
00000270: ea00 15bc e18d 3e3e 8e85 34be 7621 a03d
00000280: 7c9c 103e 9354 87be 780f 2fbe ad04 d4bd
00000290: 0248 5dbc 52ca 8c3e 0a0f f1bd 26c3 973e
000002a0: 54fb 32be 6073 46bd 77c4 043d 9aca 393e
000002b0: 1a8e eabc ffc0 90be 5cfe 96be 9fe5 eebd
000002c0: be45 7abd f3a1 0a3e 3719 d53e 67f2 f5bc
000002d0: 6b70 1fbe 537f 2cbe a20b 80bd 18e3 563e
000002e0: 483d 163e 4b15 0f3e 6be5 00bf 1bda 993e
000002f0: a635 a43e 6c94 813d 9f90 49be c530 eebd
00000300: 8ee9 74be 1369 083e 2ced 85be e1f0 afbb
00000310: 479d b9be 5f9c 86be f699 69be 08b4 cd3e
00000320: 8633 b1bd 6bd8 85bd abe4 ed3c b487 a1be
00000330: f104 83be a79b 2f3e 6d35 abbe 896f 7abe
00000340: 7e3b c13d d8e0 a83e debc 92bc 2323 3b3d
00000350: 1946 3a3d 36b6 e7bd 471d a5bd ba2a 663e
00000360: fb65 36bf 927d a3bc 7d3b 2c3e 9238 fabd
00000370: 0f70 153d b177 33bd 63be 21be 9fd8 d4be
00000380: a256 8ebd c251 54be 2757 10be c01d 863d
00000390: 3c2f a33c d2d5 90be b425 cc3d a67a e13d
000003a0: a89b 37be 1363 42bd 0d27 983e 8ba6 203c
000003b0: 8e83 3ebe 2a03 283e 77d5 d23e 7165 96be
000003c0: 4627 5ebd 7369 a0be 105b e93e dc36 833c
000003d0: b016 39bd 7f46 b03e c20d 22be 6b4d a73e
000003e0: 1c2b 1ebe 658c 8bbe 3cae 243e bc2b 123d
000003f0: 3b26 483e 328c 4fbe e78e f9bd f382 13be

bias f4 [256]
-0.000121674224 -0.005326334 -0.0047829063 0.00052314 -0.0021266532 -0.0031672325 -0.0044253087 0.0077393567
0.0 1.8700688e-05 0.0022543117 0.00079685176 0.002290737 -0.00373317 -1.4495355e-06 -0.004258556
-0.0051540276 0.004336134 0.009111911 0.0035463995 -0.010815564 0.0022506095 -3.3628243e-07 0.003536314
0.009243409 -0.0044427095 -0.0014361663 0.0061555537 0.002452709 0.0045597195 0.0016752444 -2.06236e-08
0.0 -0.004841889 0.016935358 0.0047511924 -0.0015008568 0.0015609137 -0.005253269 -0.0042128586
0.0130192535 -0.013913254 0.0012267223 0.0028990346 0.0071106106 0.007382135 -0.001691899 -0.0034718302
-0.0011815922 -0.004217065 -0.0074023805 -0.0023269646 0.0031087627 -0.000995184 0.006069345 -0.0035042444
-0.0069309557 0.0006957326 0.0039237035 -0.0073037622 0.004918599 0.007998951 0.013409781 -0.0003863513
0.000407771 0.0056331204 -0.007489539 0.008699672 -0.0096974475 -0.00478915 0.0035858203 0.017894804
-0.003830886 -0.0057755574 -0.0044961036 0.010731839 -0.0036709078 0.004017142 0.0044805007 -0.0026256796
-0.0049827304 0.002532345 0.008428934 -0.0044878423 -0.0032792122 -0.007481833 0.0057873186 0.0009173888
-0.009715304 0.0013973252 0.010333826 -0.018368706 0.0 -0.009164945 4.5476195e-06 -0.007074843
-0.008653501 -0.0134039465 -0.00666826 0.014283419 -0.009382176 -0.0057062823 -7.6313125e-05 0.0046499753
-0.0110800695 -0.0037062112 0.013768974 -0.0039115115 -0.005605748 -0.0034747394 0.008016472 0.002346707
0.0019784414 -0.010000031 -0.00016725832 0.006543754 -0.0035959366 0.0042829034 0.0034184789 0.00038894214
0.006826144 -5.7248817e-05 0.013033724 -0.00062575325 -0.013390066 -0.000121074205 0.012142553 0.006051599
0.0015708979 0.0019400007 0.013999845 0.012824858 0.0023943982 -0.0006238223 -0.006007755 -0.0060837427
-0.0067746355 0.009365141 0.005079932 -0.0027789664 -1.2686599e-08 -0.008041258 0.012137458 -0.009985245
-4.2722644e-05 -0.001560313 0.008277442 -0.009675896 -0.004119749 0.01926196 0.007730728 -0.0035001638
0.010703635 0.0028627517 0.0026607027 -0.0042996183 0.0018178415 0.0046968125 0.0029901317 0.01445231
0.0030828244 -7.1128593e-06 0.0033486087 -0.001029682 -0.008027376 -0.01029653 0.0015748248 -0.01262083
-0.009084167 -0.002956247 0.0012138556 0.011306105 0.004581088 -0.0052564293 0.015683923 0.0029787894
0.0048777154 0.0034576433 -0.0021697092 0.0040897275 -0.0027208268 0.008022469 -0.000955895 -0.008467457
-0.0010500831 -0.009919677 0.0026256356 -0.009293332 -0.0018660045 0.009083273 0.0038845863 0.0
0.0011334879 0.0030040746 -0.007785991 0.005846205 0.0068002385 -0.004827827 -0.0039273286 -0.0020398335
-0.002785124 -0.0022035993 0.0033397651 0.006705951 0.0024129804 0.0003246802 -0.00141427 0.0020181353
0.0033858658 -0.0011578259 0.00030426815 -0.0068332483 -0.0027304203 2.6229798e-05 -0.0030499438 -0.011220817
0.009449333 0.0016676901 -0.008319981 -0.010755271 -0.009585786 -0.005148772 -0.00072027877 -0.0032796045
0.0063406597 0.007907837 -0.0015144385 0.0021839605 0.0026047362 -0.009883709 0.012196136 -0.004046792
0.010109635 0.0039635445 0.004805305 0.0023638972 0.0018492397 -0.0062463456 0.00095177337 -0.008913167
0.0050042346 0.012122864 -0.00064091326 0.003372117 -3.148538e-05 -0.009072723 -0.0011056046 0.0022912133
0.013103415 0.0022557464 0.0034056113 -0.0006685384 0.0032308754 0.0033373733 0.0 -0.0018988912
00000000: 5a2b ffb8 8788 aebb edb9 9cbb 5523 093a
00000010: 525f 0bbb 5891 4fbb 2e02 91bb 6e9a fd3b
00000020: 0000 0000 6cdf 9c37 13bd 133b d1e3 503a
00000030: 3020 163b 33a8 74bb a98d c2b5 5b8b 8bbb
00000040: 1ee3 a8bb 2116 8e3b 204a 153c b66a 683b
00000050: c333 31bc f67e 133b 4e8a b4b4 81c1 673b
00000060: ab71 173c 2694 91bb bf3d bcba 87b4 c93b
00000070: a1bd 203b b369 953b e093 db3a c727 b1b2
00000080: 0000 0000 b5a8 9ebb 05bc 8a3c e4af 9b3b
00000090: 66b8 c4ba 9397 cc3a 9d23 acbb 050c 8abb
000000a0: b54e 553c 6bf4 63bc f8c9 a03a bbfd 3d3b
000000b0: 2000 e93b d6e5 f13b b6c2 ddba a587 63bb
000000c0: a8df 9aba 4e2f 8abb ab8f f2bb fd7f 18bb
000000d0: 62bc 4b3b d570 82ba 5be1 c63b 77a7 65bb
000000e0: 121d e3bb d361 363a 6992 803b 6654 efbb
000000f0: 332c a13b 080e 033c b3b4 5b3c 328f cab9
00000100: 19ca d539 0a96 b83b cf6a f5bb 1289 0e3c
00000110: 0be2 1ebc 4dee 9cbb 1500 6b3b 2098 923c
00000120: 9a0f 7bbb e340 bdbb 0d54 93bb 98d4 2f3c
00000130: 9d93 70bb 3ba2 833b 2ad1 923b 9813 2cbb
00000140: 2c46 a3bb b3f5 253b 8319 0a3c c00e 93bb
00000150: 0de8 56bb 2a2a f5bb 8ca3 bd3b ec7c 703a
00000160: f02c 1fbc 7426 b73a 354f 293c f879 96bc
00000170: 0000 0000 9128 16bc c197 9836 16d4 e7bb
00000180: 6ac7 0dbc 3a9c 5bbc 6b81 dabb 0005 6a3c
00000190: b3b7 19bc c4fb babb 4c0a a0b8 d25e 983b
000001a0: 2e89 35bc e8e3 72bb 4397 613c 232c 80bb
000001b0: 6cb0 b7bb 74b8 63bb 8557 033c 36cb 193b
000001c0: bda8 013b 2cd7 23bc 1062 2fb9 fd6c d63b
000001d0: cea9 6bbb 9957 8c3b 8f08 603b eeea cb39
000001e0: d9ad df3b 731e 70b8 678b 553c 9709 24ba
000001f0: 0262 5bbc 38e9 fdb8 8ff1 463c 7e4c c63b
00000200: 96e6 cd3a 9f47 fe3a 9b5f 653c 5a1f 523c
00000210: 56eb 1c3b 0288 23ba b4dc c4bb 225a c7bb
00000220: c3fd ddbb 4070 193c 8f75 a63b 521f 36bb
00000230: 41f4 59b2 7bbf 03bc 30dc 463c 2799 23bc
00000240: 1731 33b8 6b83 ccba 1c9e 073c a687 1ebc
00000250: f6fe 86bb 42cb 9d3c 0c52 fd3b 0163 65bb
00000260: 4d5e 2f3c 019d 3b3b 2f5f 2e3b d0e3 8cbb
00000270: a444 ee3a b8e7 993b 16f6 433b 62c9 6c3c
00000280: 3609 4a3b ffaa eeb6 5574 5b3b 65f6 86ba
00000290: 4185 03bc c7b2 28bc 5a6a ce3a 99c7 4ebc
000002a0: c2d5 14bc 98bd 41bb 3c1a 9f3a 3e3d 393c
000002b0: f41c 963b 203e acbb 927b 803c cb37 433b
000002c0: 3ed5 9f3b a199 623b ae31 0ebb 1f03 863b
000002d0: e64f 32bb ac70 033c 0795 7aba 17bb 0abc
000002e0: f1a2 89ba 2486 22bc db12 2c3b 0f43 18bc
000002f0: b994 f4ba 02d2 143c 8b94 7e3b 0000 0000
00000300: 8b91 943a 02e0 443b a021 ffbb 8691 bf3b
00000310: 89d4 de3b c032 9ebb d2b0 80bb baae 05bb
00000320: a086 36bb 436a 10bb f6df 5a3b 98bd db3b
00000330: 1823 1e3b d739 aa39 075f b9ba b142 043b
00000340: 67e5 5d3b 31c2 97ba 2e86 9f39 71e9 dfbb
00000350: daf0 32bb 1008 dc37 91e1 47bb 85d7 37bc
00000360: 60d1 1a3c 6596 da3a 8850 08bc e036 30bc
00000370: b30d 1dbc 08b7 a8bb 17d1 3cba a2ee 56bb
00000380: 4fc5 cf3b df8f 013c 2080 c6ba c720 0f3b
00000390: 39b4 2a3b 48ef 21bc 4dd2 473c f49a 84bb
000003a0: e2a2 253c 9fe0 813b d275 9d3b 9deb 1a3b
000003b0: 3062 f23a 25ae ccbb 6e80 793a 8808 12bc
000003c0: 90fa a33b fa9e 463c f602 28ba bcfe 5c3b
000003d0: 2b0f 04b8 c2a5 14bc efe9 90ba 2e28 163b
000003e0: b5af 563c 25d5 133b ad30 5f3b da40 2fba
000003f0: 18bd 533b d5b7 5a3b 0000 0000 37e4 f8ba

weight f4 [256, 256]
0.06669148 -0.07983162 -0.015958615 0.018957425 -0.07807987 0.03895546 -0.042554673 0.110045806
-0.1099013 0.033914007 0.030627716 0.025409002 0.017622024 -0.13175817 0.009436327 -0.0017939219
-0.033188965 0.012159993 -0.1551398 0.00730352 -0.00085366383 -0.03481848 0.08040906 0.048585333
0.03336869 0.06951269 -0.114423566 -0.09472568 -0.00998858 0.010146087 -0.05288293 0.02292625
0.06907699 -0.0312618 0.06457827 -0.031195339 -0.07367492 0.031203091 -0.08095773 0.01056763
0.1188468 0.059495583 -0.0113201635 0.016739886 -0.019048702 0.022548262 0.035068534 -0.015376648
0.07395577 -0.025852086 -0.12492953 -0.004283095 -0.06160382 0.03749431 -0.12659472 -0.04478038
0.0733223 0.030402139 -0.019170986 0.10967509 0.03433828 0.014470575 0.012768868 0.007718985
0.08002905 0.06856068 -0.010049194 0.015941374 -0.09108308 -0.04099511 0.092328325 -0.06837511
-0.027929928 -0.005905134 0.011610856 -0.017085541 -0.08143697 -0.04948205 0.10010717 0.03424695
-0.07174005 0.14626479 -0.053295087 -0.11830859 -0.044250254 0.07135613 0.0067804907 -0.01114356
-0.05212824 0.19744797 -0.03904501 0.027691389 0.09671154 0.08253289 0.03174471 -0.019083219
0.043462314 0.08332154 -0.10726831 0.029269185 0.07175231 0.061922293 -0.0206961 -0.01755278
0.08017394 -0.03557623 0.021391565 -0.03853528 -0.03378321 -0.039188787 -0.038277168 0.012600504
-0.009367271 -0.09435896 -0.071960285 -0.042099167 0.039157275 -0.11307186 -0.015415209 0.0946297
0.04595957 0.03163173 -0.09034682 0.063066304 0.055495247 -0.05130304 0.009724248 -0.009715278
0.12521721 -0.0031476037 0.06717496 -0.0871055 -0.13034128 -0.048155542 0.027780678 -0.07107906
0.017637245 0.033642933 -0.011245603 -0.021799892 0.1414962 -0.034483053 0.0064919954 -0.015000001
-0.007021795 0.055461403 0.053920783 0.064045385 -0.013790009 -0.09435841 -0.047138482 0.101857506
-0.003194196 0.013840237 0.017369006 0.0023718362 0.020362549 -0.059213597 -0.07175071 -0.107418664
-0.09961256 0.07545797 0.078020975 -0.042951643 -0.056174207 -0.045336593 0.01319985 -0.03773749
0.032687116 0.10897305 0.040925708 -0.0595672 -0.0659255 0.06398484 0.048260495 -0.09067577
0.021700798 0.06211852 -0.012066492 -0.033784788 0.026519401 0.10783767 0.054166097 0.038274933
0.1517899 0.004113825 -0.00095990684 0.030083226 -0.00065893657 0.023964135 -0.06954678 -0.0653056
0.09802292 -0.0027188202 0.033078842 -0.015802944 0.020532325 0.03288372 0.08646111 -0.039388962
-0.0055206064 -0.06616903 0.008866761 -0.01261763 0.09579863 0.011699962 -0.021015786 0.05407245
0.06386073 -0.05312402 0.094897285 0.09903362 0.0787663 0.09074883 0.0030508803 -0.04747555
0.048018634 0.09116576 -0.014621945 0.10672228 0.0369806 -0.02956234 0.06853058 0.06291919
-0.12357397 -0.0060394695 0.08340406 -0.08596202 0.031359088 0.11538372 -0.09919948 0.02827045
0.16166149 -0.0702048 -0.024811463 0.014987665 0.05496408 0.004083257 0.018127518 -0.043442726
-0.020837704 0.08019919 -0.035100456 0.09785012 -0.06602391 0.01764803 0.036106694 -0.030902378
-0.076306604 0.0006869907 0.07875065 -0.031141585 0.0028148382 -0.016250644 0.07605794 -0.0066115577
00000000: 8b95 883d c37e a3bd a4bb 82bc 9a4c 9b3c
00000010: 57e8 9fbd c38f 1f3d cf4d 2ebd b25f e13d
00000020: ef13 e1bd 6ae9 0a3d fae6 fa3c 8a26 d03c
00000030: 105c 903c 9deb 06be d39a 1a3c 0822 ebba
00000040: 27f1 07bd b53a 473c f8dc 1ebe 5e52 ef3b
00000050: 69c8 5fba d39d 0ebd 81ad a43d 6a01 473d
00000060: 9cad 083d ab5c 8e3d e756 eabd 8aff c1bd
00000070: 24a7 23bc c63b 263c c59b 58bd d5cf bb3c
00000080: 3d78 8d3d 600c 00bd 9d41 843d 5e8d ffbc
00000090: e0e2 96bd a09d ff3c 2bcd a5bd da23 2d3c
000000a0: f365 f33d a4b1 733d 3578 39bc 1622 893c
000000b0: 060c 9cbc 22b7 b83c 06a4 0f3d 56ee 7bbc
000000c0: 1f76 973d c1c7 d3bc 0edb ffbd 3459 8cbb
000000d0: 4a54 7cbd a293 193d 0ca2 01be a26b 37bd
000000e0: 012a 963d e80d f93c 790c 9dbc 559d e03d
000000f0: 4ca6 0c3d fe15 6d3c 8434 513c 8aef fc3b
00000100: 45e6 a33d 8b69 8c3d 60a5 24bc 7c97 823c
00000110: c489 babd 7dea 27bd a216 bd3d 4008 8cbd
00000120: 4ecd e4bc db7f c1bb 763b 3e3c faf6 8bbc
00000130: 6dc8 a6bd b1ad 4abd fd04 cd3d 8846 0c3d
00000140: 73ec 92bd 70c6 153e f34b 5abd c64b f2bd
00000150: c13f 35bd 2a23 923d e12e de3b 7a93 36bc
00000160: 6c84 55bd cd2f 4a3e a9ed 1fbd 0dd9 e23c
00000170: b310 c63d 0107 a93d be06 023d 6954 9cbc
00000180: 8a05 323d 7ca4 aa3d 7daf dbbd eec5 ef3c
00000190: e0f2 923d 3ba2 7d3d de8a a9bc d9ca 8fbc
000001a0: 3c32 a43d 62b8 11bd 5d3d af3c 2bd7 1dbd
000001b0: 4360 0abd 6c84 20bd 85c8 1cbd 5872 4e3c
000001c0: 2f79 19bc 453f c1bd ea5f 93bd 2d70 2cbd
000001d0: 6163 203d 3892 e7bd 1390 7cbc 37cd c13d
000001e0: 1a40 3c3d 4690 013d c107 b9bd e828 813d
000001f0: fc4e 633d 2323 52bd 7452 1f3c d42c 1fbc
00000200: f138 003e 0748 4ebb 0793 893d 5e64 b2bd
00000210: 2f78 05be bf3e 45bd 4e94 e33c e691 91bd
00000220: fc7b 903c 2ccd 093d 7a3f 38bc b095 b2bc
00000230: 61e4 103e 1a3e 0dbd ceba d43b 90c2 75bc
00000240: 1617 e6bb 7f2b 633d 0adc 5c3d 3a2a 833d
00000250: 7def 61bc fb3e c1bd 4814 41bd ab9a d03d
00000260: b755 51bb 29c2 623c 7249 8e3c cf70 1b3b
00000270: 5ccf a63c f589 72bd 09f2 92bd 51fe dbbd
00000280: ab01 ccbd b589 9a3d 76c9 9f3d 10ee 2fbd
00000290: ed16 66bd ddb2 39bd 2f44 583c a092 1abd
000002a0: ede2 053d 432d df3d b7a1 273d bcfc 73bd
000002b0: f303 87bd 7c0a 833d ccac 453d 38b4 b9bd
000002c0: dfc5 b13c fd6f 7e3d 89b2 45bc eb61 0abd
000002d0: 373f d93c ffd9 dc3d 45dd 5d3d 2dc6 1c3d
000002e0: d06e 1b3e 44cd 863b 42a2 7bba 1971 f63c
000002f0: 7cbc 2cba 6f50 c43c 8b6e 8ebd f1be 85bd
00000300: 3ec0 c83d 3c2e 32bb ae7d 073d 2d75 81bc
00000310: 6833 a83c 14b1 063d 8612 b13d 5256 21bd
00000320: 34e6 b4bb a183 87bd e445 113c 2dba 4ebc
00000330: 1232 c43d 33b1 3f3c 4c29 acbc 137b 5d3d
00000340: 6ac9 823d 9398 59bd 8259 c23d 23d2 ca3d
00000350: 3a50 a13d 86da b93d 47f1 473b b975 42bd
00000360: 30af 443d 1db5 ba3d e290 6fbc 3691 da3d
00000370: f878 173d b82c f2bc c359 8c3d c7db 803d
00000380: 5914 fdbd bee6 c5bb bfcf aa3d db0c b0bd
00000390: 6372 003d 4d4e ec3d 1929 cbbd 6e97 e73c
000003a0: 978a 253e 89c7 8fbd 6941 cbbc d38e 753c
000003b0: 0422 613d d8cc 853b 2980 943c 00f1 31bd
000003c0: d5b3 aabc 793f a43d 7fc5 0fbd a565 c83d
000003d0: 8b37 87bd 9a92 903c 9de4 133d fc26 fdbc
000003e0: a346 9cbd 2a17 343a 0548 a13d a31c ffbc
000003f0: 2679 383b 1220 85bc 44c4 9b3d c4a5 d8bb

bias f4 [256]
-0.0026890822 0.00093348516 -0.003756654 0.007156781 0.002614923 -0.0033941 0.00087030843 -0.0014367439
0.0035540832 -0.0033120853 -0.00071330386 -0.0018612904 0.006252966 -0.0024555638 0.0011354056 -0.0056963232
0.0031536699 -0.0014448713 -0.0012143961 -0.0015740576 0.0050233016 0.004091136 -0.0012743094 0.0010551242
-0.0020741462 0.00020547547 -0.000105112085 0.005961642 0.0038960543 4.109204e-05 -0.0030569634 0.0015571335
0.002209933 0.0012935383 -0.0022794025 4.1890147e-05 -0.00064817496 0.0014411126 -0.0012311103 -0.0014508392
-0.0053028013 -0.0002977368 -0.00074962684 -0.0029674089 0.0031566515 0.001861804 0.0030009192 -0.00246168
-0.002280671 0.0014889876 -0.0019414949 0.0026411687 -0.00010215267 -0.0013032804 -0.001937576 0.0016621866
0.0011606135 0.0011575734 0.0026634063 -0.005682308 0.00093980855 0.0017115006 0.0027008331 0.0018469946
0.001333723 -0.0017238447 0.004254202 0.00091473415 0.0015243951 -0.0019161892 -0.0016209858 -0.004518355
-0.00076561834 -0.0053349556 0.0045419424 0.0015181318 0.0061143795 -0.001279995 -0.0002847438 0.0018102273
0.0018304496 0.0020755613 -0.00028358062 -0.00089050387 -0.0018223444 0.0038036183 -0.0025694878 -0.0018613703
0.0011804249 0.0009965986 -0.0013775768 -0.00028724034 -0.0014229395 0.005915116 0.002204759 0.0019780607
0.003974492 -0.0023168148 0.005778437 0.0036268707 0.00051505683 0.004086558 -0.0066547673 -0.005393336
-9.048601e-06 0.0040637013 0.0018942929 -0.0018860482 -0.0006389568 0.0020323484 0.0012531028 0.0015378036
0.00088337966 7.1632945e-05 0.0029083516 0.0026185908 0.0021501505 0.0027926976 0.0034061584 0.0022556128
0.006166737 -0.0029451072 -0.00063706073 0.0018718418 -0.001925607 0.0019580517 -0.0006448703 -0.0052528353
-0.0061603496 0.0024168752 -0.0047911997 0.000525253 0.0022743577 -0.0016816573 0.0019025495 0.0054779355
-0.002250415 -0.0028088114 -0.00025357437 -0.0027360755 -0.0026938291 0.0004761214 0.0054654754 0.003153226
0.0014409551 -0.0038540317 -0.0009144234 -0.0024239437 0.0009577215 0.002361139 -0.0026276782 -0.0012272455
0.0019459041 -0.0010627222 0.0015383322 0.0027936776 -0.0022545944 0.0039971992 0.0009120001 0.0034668033
0.0016938554 0.0032077774 -0.0007058154 0.0016268189 -0.00029442698 -0.0023718097 -0.004979666 -0.0056054546
-0.0034618126 -0.0034480037 -0.0018586194 0.008630314 -0.0034064914 0.0026734814 -0.003419426 -0.001883907
0.0007499586 -0.0033949346 -0.0012876083 2.2172453e-06 -0.00054661254 0.0033460502 -0.0029727065 -0.00040254096
0.0010100179 0.0042208424 0.007962634 -0.00027941845 -0.0019033025 -0.00024759182 0.000750775 0.0047033294
0.0022718527 0.00036528226 0.0009015447 0.0010545951 0.0004905192 -0.0016522852 0.0019744888 0.00072608324
-0.007866257 -0.0057315277 -0.0050437637 0.0014246221 -0.0049855094 -0.003377531 -0.00032542 -0.0035333412
-0.0009136022 -0.0025859282 -0.000560621 0.004076318 -0.0054212757 -0.0034668026 0.00315287 0.0001461697
-0.0027353114 0.0012343097 0.00034987563 0.0011795729 -0.0044777975 0.0065701343 -0.0015715098 0.00201165
0.004015034 0.00024219208 -0.001899217 -0.0017907196 0.0031144016 0.0011498439 0.0028990712 -2.2968616e-05
-0.0019656396 0.0023920157 0.006467249 0.0014106594 0.0016289232 -0.0014224111 0.0013588207 -0.0027929356
0.0029665863 -0.003042084 0.0019692092 -0.0020997508 0.007045228 -0.006520061 -0.0030691286 0.0015550541
0.0012771765 -0.0046828194 0.0021844856 -0.00335855 0.0024915128 -0.002892979 -0.0035616753 0.0035903424
00000000: 503b 30bb 21b5 743a 3232 76bb 6e83 ea3b
00000010: 215f 2b3b 8c6f 5ebb 6925 643a 2051 bcba
00000020: 9feb 683b 920f 59bb 03fd 3aba 8bf6 f3ba
00000030: aee5 cc3b 86ed 20bb e4d1 943a 39a8 babb
00000040: cdad 4e3b d661 bdba 5f2c 9fba 9c50 ceba
00000050: 829a a43b f00e 863b ba06 a7ba 184c 8a3a
00000060: 66ee 07bb e774 5739 9f6f dcb8 e159 c33b
00000070: f254 7f3b 3e5a 2c38 5657 48bb bb18 cc3a
00000080: 86d4 103b f18b a93a 0762 15bb 34b3 2f38
00000090: 49ea 29ba b7e3 bc3a 355d a1ba 162a beba
000000a0: 1fc3 adbb 8f19 9cb9 9b82 44ba dc78 42bb
000000b0: d3df 4e3b c707 f43a 12ab 443b 2354 21bb
000000c0: 4f77 15bb 222a c33a c279 feba 7517 2d3b
000000d0: cc3a d6b8 d5d2 aaba 43f6 fdba badd d93a
000000e0: ba1f 983a b8b9 973a 8b8c 2e3b a832 babb
000000f0: 7c5d 763a 6e54 e03a 7600 313b db16 f23a
00000100: 51d0 ae3a a1f2 e1ba d566 8b3b c5ca 6f3a
00000110: 36ce c73a a428 fbba 4277 d4ba b50e 94bb
00000120: c7b3 48ba dad0 aebb 93d4 943b 0dfc c63a
00000130: 225b c83b 81c5 a7ba aa49 95b9 2645 ed3a
00000140: b2eb ef3a 2406 083b 8cad 94b9 b470 69ba
00000150: bbdb eeba 2046 793b da64 28bb 39f9 f3ba
00000160: 7db8 9a3a 4da0 823a cf8f b4ba bf98 96b9
00000170: ed81 baba 97d3 c13b b87d 103b 5aa2 013b
00000180: 753c 823b b4d5 17bb 0b59 bd3b cbb0 6d3b
00000190: e104 073a 88e8 853b 3c10 dabb 95ba b0bb
000001a0: 72cf 17b7 cc28 853b ec49 f83a 4735 f7ba
000001b0: aa7f 27ba 2631 053b 273f a43a 2090 c93a
000001c0: 9b92 673a a539 9638 0b9a 3e3b aa9c 2b3b
000001d0: 8ae9 0c3b b105 373b db39 5f3b e7d2 133b
000001e0: 5712 ca3b b302 41bb 6c00 27ba 9758 f53a
000001f0: a664 fcba a852 003b 830c 29ba fa1f acbb
00000200: c2dc c9bb 7064 1e3b 7fff 9cbb 22b1 093a
00000210: 640d 153b 0e6b dcba f85e f93a 4180 b33b
00000220: b37b 13bb 0914 38bb 2df2 84b9 bb4f 33bb
00000230: f48a 30bb ef9f f939 bb17 b33b 5ba6 4e3b
00000240: 6ede bc3a ec93 7cbb eab5 6fba 07db 1ebb
00000250: 9a0f 7b3a 57bd 1a3b 2035 2cbb 87db a0ba
00000260: b50d ff3a 0a4b 8bba dda1 c93a 2216 373b
00000270: d1c1 13bb f0fa 823b 4a13 6f3a 4f33 633b
00000280: 5b04 de3a 9339 523b 7806 39ba fc3a d53a
00000290: 525d 9ab9 5d70 1bbb 772c a3bb f6ad b7bb
000002a0: 94df 62bb e7f7 61bb eb9c f3ba 2966 0d3c
000002b0: 713f 5fbb 9335 2f3b 7318 60bb 6eed f6ba
000002c0: df98 443a 8d7d 5ebb f7c4 a8ba fccb 1436
000002d0: 8c4a 0fba 6849 5b3b bdd1 42bb 220c d3b9
000002e0: 9462 843a fe4e 8a3b b575 023c e97e 92b9
000002f0: 3c78 f9ba 36cf 81b9 a8cf 443a 631e 9a3b
00000300: 5de3 143b 5b83 bf39 a455 6c3a 573a 8a3a
00000310: 3096 003a 7e91 d8ba 6d66 013b 9f56 3e3a
00000320: 79e1 00bc 8acf bbbb 2846 a5bb 63ba ba3a
00000330: 7c5d a3bb 9159 5dbb 229d aab9 a18f 67bb
00000340: ce7e 6fba ad78 29bb a3f6 12ba a292 853b
00000350: f5a4 b1bb 4c33 63bb 62a0 4e3b 2145 1939
00000360: e942 33bb 90c8 a13a 836f b739 e69b 9a3a
00000370: 7dba 92bb 484a d73b 1efb cdba e3d5 033b
00000380: 8c90 833b f1f4 7d39 26ef f8ba 94b6 eaba
00000390: fd1a 4c3b 5cb6 963a 58fe 3d3b baac c0b7
000003a0: f6d1 00bb 5dc3 1c3b 37eb d33b e0e5 b83a
000003b0: 9881 d53a 3270 baba 751a b23a af09 37bb
000003c0: 0f6b 423b b35d 47bb d90d 013b f99b 09bb
000003d0: a8db e63b 3ca6 d5bb 6f23 49bb f5d2 cb3a
000003e0: ef66 a73a 5672 99bb 9629 0f3b 1e1b 5cbb
000003f0: a648 233b 2298 3dbb ff6a 69bb f34b 6b3b

weight f4 [256, 19]
0.14530976 0.0890502 0.25605628 0.40275034 0.10547836 0.20419487 -0.064634636 -0.43913987
-0.40798414 0.2977961 0.20728649 0.18549535 0.12014677 -0.06486552 0.2924571 0.099151716
-0.18760724 0.017150387 0.109194174 0.31791672 -0.49685585 -0.16389088 -0.17849936 0.032538302
-0.010491993 -0.17920001 -0.036693595 -0.24566491 -0.27326563 -0.33886617 0.32247853 0.25210544
-0.014764376 -0.03517428 -0.08392723 -0.25270864 -0.24326831 0.09883198 0.16937737 -0.25199178
0.2392956 0.27367496 -0.18859532 0.17595991 0.12866123 -0.23374861 -0.20823172 -0.03409603
0.36064586 0.11083017 0.14644687 -0.26798075 0.46731728 0.009120484 0.24037549 -0.27069053
-0.04275657 0.10049986 0.44751033 -0.016320178 0.2804388 0.1774575 0.23768826 -0.06731208
0.12058648 -0.112389944 -0.053052768 0.0734957 -0.29859453 -0.14728181 -0.3353232 -0.17173713
-0.39378244 -0.1644715 0.029190538 0.36753413 0.091881394 -0.13722046 -0.088090986 0.57777375
0.14305505 0.3785044 0.17725128 0.2661542 0.27041954 -0.07195417 -0.12419972 -0.07463818
0.17359263 0.2606281 0.13464227 -0.25133198 -0.09055491 -0.11558085 0.29028922 0.38879532
0.121789455 0.3102337 -0.22878589 0.011714347 0.0011935759 -0.104583636 0.055321217 0.36112902
-0.18540332 0.26953202 0.075825445 0.094532706 -0.4194462 0.41180867 0.024763865 -0.13413797
-0.07557769 0.23928137 -0.17385787 0.2045874 -0.30721644 -0.19935767 -0.07305158 -0.11850432
0.22882344 0.02714096 -0.23364891 -0.14685006 -0.2480642 -0.36504513 0.08761256 -0.36866167
-0.24283645 -0.33928913 -0.23040389 -0.056325596 0.25381646 0.19320184 -0.09782809 -0.10488781
-0.37870744 -0.22536676 -0.023756664 0.041118816 -0.2538805 -0.12106462 0.1147171 0.003430411
0.40624732 -0.09161565 -0.00096051575 0.11928221 0.6191992 -0.24438132 0.07019859 -0.11510682
0.54613805 0.10656913 0.2641046 -0.01381781 0.09261535 0.25514257 -0.11090606 0.2688882
-0.03773633 0.047622938 -0.20525376 0.1510228 0.0154105965 -0.36044553 0.15061684 0.21229199
-0.11859815 0.41873792 0.14113857 0.2732447 0.14230506 -0.3460445 -0.13395284 -0.16264433
-0.025920358 -0.073393784 -0.27392444 -0.28041798 -0.18094973 -0.045501694 -0.3339512 0.27288204
-0.0032970058 -0.1607635 -0.25054178 -0.47590342 -0.25628406 -0.029852664 -0.12088505 -0.3209633
0.3915671 0.15989621 -0.084479935 0.23891851 -0.20272495 0.015749963 -0.24023116 0.08242228
0.0993871 -0.37390903 -0.103136934 -0.127034 0.023817992 -0.5900776 -0.026960872 -0.14816011
-0.080256104 -0.12460864 -0.46125606 0.41027883 -0.021383736 -0.059714235 0.22439931 -0.41115287
-0.17018874 -0.20786244 0.10441365 -0.068319626 -0.006630096 0.052118238 0.09220976 0.1565776
-0.034354247 -0.34090376 -0.18209752 0.33421773 -0.18938404 -0.03548531 -0.14640073 0.26636562
0.22963485 0.22802833 0.0012888937 -0.2045808 -0.19255546 0.22572021 -0.060102582 0.13135107
-0.24575633 0.47616196 -0.551032 -0.016755864 -0.058992915 -0.116122864 -0.0057866657 0.041176032
-0.10828229 0.15747714 -0.37641448 -0.07535438 0.5504698 -0.16936775 -0.11934076 0.15438475
00000000: 15cc 143e f45f b63d cf19 833e 4b35 ce3e
00000010: 0a05 d83d 7618 513e 2a5f 84bd f1d6 e0be
00000020: 4ce3 d0be bb78 983e e942 543e 7ef2 3d3e
00000030: 820f f63d 37d8 84bd f0bc 953e 0e10 cb3d
00000040: 1d1c 40be f87e 8c3c 32a1 df3d fbc5 a23e
00000050: e463 febe 03d3 27be 89c8 36be e246 053d
00000060: 9ce6 2bbc 3580 37be 064c 16bd 958f 7bbe
00000070: 79e9 8bbe de7f adbe e81b a53e f713 813e
00000080: 48e6 71bc e812 10bd 0ae2 abbd 0763 81be
00000090: 541b 79be 6c68 ca3d 4371 2d3e 1105 81be
000000a0: e809 753e 201f 8c3e 221f 41be d62e 343e
000000b0: c5bf 033e cc5b 6fbe b23a 55be 47a8 0bbd
000000c0: 93a6 b83e eefa e23d 2bf6 153e c634 89be
000000d0: 3644 ef3e 156e 153c fe24 763e f397 8abe
000000e0: 8321 2fbd dfd2 cd3d 1320 e53e e5b1 85bc
000000f0: ad95 8f3e 6bb7 353e 8d64 733e eada 89bd
00000100: 0bf6 f63d b32c e6bd dc4d 59bd ea84 963d
00000110: 62e1 98be 0bd1 16be 7caf abbe dcdb 2fbe
00000120: da9d c9be 386b 28be ff20 ef3c 6f2d bc3e
00000130: 502c bc3d 8583 0cbe 0c69 b4bd fbe8 133f
00000140: 067d 123e 54cb c13e 5c81 353e 5d45 883e
00000150: 6e74 8a3e b55c 93bd 6c5c febd e7db 98bd
00000160: 44c2 313e 0c71 853e aadf 093e 96ae 80be
00000170: da74 b9bd a7b5 ecbd caa0 943e 2e10 c73e
00000180: c06c f93d f4d6 9e3e d946 6abe 88ed 3f3c
00000190: c371 9c3a f22f d6bd 8098 623d e7e5 b83e
000001a0: 5eda 3dbe 1a00 8a3e 5f4a 9b3d 5d9a c13d
000001b0: a7c1 d6be 96d8 d23e 97dd ca3c 775b 09be
000001c0: 7ac8 9abd 2d06 753e cc07 32be 5c7f 513e
000001d0: 794b 9dbe 6b24 4cbe 119c 95bd 65b2 f2bd
000001e0: b150 6a3e b856 de3c a941 6fbe dd5f 16be
000001f0: 8b04 7ebe 32e7 babe 376e b33d 39c1 bcbe
00000200: 1eaa 78be 4eb7 adbe ffee 6bbe abb5 66bd
00000210: 3bf4 813e b4d6 453e 185a c8bd 6ccf d6bd
00000220: f1e5 c1be 8bc6 66be 569d c2bc 346c 283d
00000230: a0fc 81be baf0 f7bd cdf0 ea3d bfd0 603b
00000240: a6ff cf3e fca0 bbbd 1fcb 7bba 3b4a f43d
00000250: d783 1e3f 193f 7abe 47c4 8f3d 20bd ebbd
00000260: b4cf 0b3f eb40 da3d b838 873e 1964 62bc
00000270: 1ead bd3d 0ca2 823e b722 e3bd b7ab 893e
00000280: 6991 1abd 4510 433d 0b2e 52be b9a5 1a3e
00000290: ba7c 7c3c 518c b8be 4d3b 1a3e 1263 593e
000002a0: 96e3 f2bd d164 d63e a186 103e bbe6 8b3e
000002b0: 6bb8 113e bf2c b1be ef2a 09be 3c8c 26be
000002c0: ee56 d4bc 7b4f 96bd d33f 8cbe f292 8fbe
000002d0: e34a 39be fc5f 3abd a7fb aabe 32b7 8b3e
000002e0: 9412 58bb 309f 24be 0347 80be 9da9 f3be
000002f0: aa37 83be 938d f4bc 9592 f7bd 4d55 a4be
00000300: 7c7b c83e d5bb 233e d103 adbd 0ea7 743e
00000310: 2197 4fbe 1106 813c 28ff 75be 03cd a83d
00000320: 778b cb3d 0171 bfbe 7539 d3bd 3315 02be
00000330: f31d c33c 530f 17bf 0cdd dcbc 49b7 17be
00000340: 505d a4bd d132 ffbd c129 ecbe 1110 d23e
00000350: f22c afbc ea96 74bd efc8 653e a182 d2be
00000360: f545 2ebe e4d9 54be d3d6 d53d 29eb 8bbd
00000370: 4741 d9bb ef79 553d 78d8 bc3d e155 203e
00000380: 0ab7 0cbd f08a aebe c677 3abe 961e ab3e
00000390: e4ed 41be 0b59 11bd 13ea 15be 1361 883e
000003a0: 6625 6b3e 4280 693e 19f0 a83a a17d 51be
000003b0: 422d 45be 3323 673e 202e 76bd e580 063e
000003c0: 8ca7 7bbe 80cb f33e 6f10 0dbf 9843 89bc
000003d0: 8ea2 71bd d3d1 edbd 129e bdbb 33a8 283d
000003e0: 1bc3 ddbd b041 213e 66b9 c0be 6653 9abd
000003f0: 97eb 0c3f bd6e 2dbe ee68 f4bd 0917 1e3e
