trained_policies_ppo/trained_models/policy_model_cop_ppo/model.pt (torch, 739173 bytes, 14 tensors)

_last_output f4 [128, 9]
-3.292339 -7.488118 -0.51089436 2.7046552 18.468918 4.200034 6.191863 -11.815137
-7.7086086 -9.3208475 5.8184056 21.286839 3.7071626 -1.9539477 -10.107574 -19.126438
-2.972632 8.267058 -0.9784205 -2.3379514 -17.940115 -12.447078 -9.9346 -0.10657521
21.128803 10.632494 5.191457 -1.4537063 -8.519051 4.9603143 2.6093042 24.233658
7.1615973 7.460204 -10.490025 -18.56446 -0.9784205 -2.3379514 -17.940115 -12.447078
-9.9346 -0.10657521 21.128803 10.632494 5.191457 -9.3208475 5.8184056 21.286839
3.7071626 -1.9539477 -10.107574 -19.126438 -2.972632 8.267058 -0.9784205 -2.3379514
-17.940115 -12.447078 -9.9346 -0.10657521 21.128803 10.632494 5.191457 -0.9784205
-2.3379514 -17.940115 -12.447078 -9.9346 -0.10657521 21.128803 10.632494 5.191457
-1.4537063 -8.519051 4.9603143 2.6093042 24.233658 7.1615973 7.460204 -10.490025
-18.56446 -1.4537063 -8.519051 4.9603143 2.6093042 24.233658 7.1615973 7.460204
-10.490025 -18.56446 -1.4537063 -8.519051 4.9603143 2.6093042 24.233658 7.1615973
7.460204 -10.490025 -18.56446 -0.9784205 -2.3379514 -17.940115 -12.447078 -9.9346
-0.10657521 21.128803 10.632494 5.191457 -1.4537063 -8.519051 4.9603143 2.6093042
24.233658 7.1615973 7.460204 -10.490025 -18.56446 -9.3208475 5.8184056 21.286839
3.7071626 -1.9539477 -10.107574 -19.126438 -2.972632 8.267058 -9.3208475 5.8184056
21.286839 3.7071626 -1.9539477 -10.107574 -19.126438 -2.972632 8.267058 -0.9784205
-2.3379514 -17.940115 -12.447078 -9.9346 -0.10657521 21.128803 10.632494 5.191457
-1.4537063 -8.519051 4.9603143 2.6093042 24.233658 7.1615973 7.460204 -10.490025
-18.56446 -1.4537063 -8.519051 4.9603143 2.6093042 24.233658 7.1615973 7.460204
-10.490025 -18.56446 -0.9784205 -2.3379514 -17.940115 -12.447078 -9.9346 -0.10657521
21.128803 10.632494 5.191457 -9.3208475 5.8184056 21.286839 3.7071626 -1.9539477
-10.107574 -19.126438 -2.972632 8.267058 -1.4537063 -8.519051 4.9603143 2.6093042
24.233658 7.1615973 7.460204 -10.490025 -18.56446 -1.4537063 -8.519051 4.9603143
2.6093042 24.233658 7.1615973 7.460204 -10.490025 -18.56446 -1.4537063 -8.519051
4.9603143 2.6093042 24.233658 7.1615973 7.460204 -10.490025 -18.56446 -3.292339
-7.488118 -0.51089436 2.7046552 18.468918 4.200034 6.191863 -11.815137 -7.7086086
-1.4537063 -8.519051 4.9603143 2.6093042 24.233658 7.1615973 7.460204 -10.490025
-18.56446 -9.3208475 5.8184056 21.286839 3.7071626 -1.9539477 -10.107574 -19.126438
-2.972632 8.267058 -9.3208475 5.8184056 21.286839 3.7071626 -1.9539477 -10.107574
-19.126438 -2.972632 8.267058 -9.3208475 5.8184056 21.286839 3.7071626 -1.9539477
-10.107574 -19.126438 -2.972632 8.267058 -3.292339 -7.488118 -0.51089436 2.7046552
00000000: afb5 52c0 aa9e efc0 f9c9 02bf 1219 2d40
00000010: 58c0 9341 ae66 8640 be23 c640 cd0a 3dc1
00000020: ecac f6c0 3122 15c1 6130 ba40 724b aa41
00000030: 2742 6d40 f51a fabf a0b8 21c1 f202 99c1
00000040: 9a3f 3ec0 df45 0441 c479 7abf ffa0 15c0
00000050: 5b85 8fc1 3b27 47c1 1ff4 1ec1 1b44 dabd
00000060: ca07 a941 b21e 2a41 6a20 a640 0c13 babf
00000070: 084e 08c1 e5ba 9e40 d7fe 2640 88de c141
00000080: ce2b e540 feb9 ee40 24d7 27c1 0484 94c1
00000090: c479 7abf ffa0 15c0 5b85 8fc1 3b27 47c1
000000a0: 1ff4 1ec1 1b44 dabd ca07 a941 b21e 2a41
000000b0: 6a20 a640 3122 15c1 6130 ba40 724b aa41
000000c0: 2742 6d40 f51a fabf a0b8 21c1 f202 99c1
000000d0: 9a3f 3ec0 df45 0441 c479 7abf ffa0 15c0
000000e0: 5b85 8fc1 3b27 47c1 1ff4 1ec1 1b44 dabd
000000f0: ca07 a941 b21e 2a41 6a20 a640 c479 7abf
00000100: ffa0 15c0 5b85 8fc1 3b27 47c1 1ff4 1ec1
00000110: 1b44 dabd ca07 a941 b21e 2a41 6a20 a640
00000120: 0c13 babf 084e 08c1 e5ba 9e40 d7fe 2640
00000130: 88de c141 ce2b e540 feb9 ee40 24d7 27c1
00000140: 0484 94c1 0c13 babf 084e 08c1 e5ba 9e40
00000150: d7fe 2640 88de c141 ce2b e540 feb9 ee40
00000160: 24d7 27c1 0484 94c1 0c13 babf 084e 08c1
00000170: e5ba 9e40 d7fe 2640 88de c141 ce2b e540
00000180: feb9 ee40 24d7 27c1 0484 94c1 c479 7abf
00000190: ffa0 15c0 5b85 8fc1 3b27 47c1 1ff4 1ec1
000001a0: 1b44 dabd ca07 a941 b21e 2a41 6a20 a640
000001b0: 0c13 babf 084e 08c1 e5ba 9e40 d7fe 2640
000001c0: 88de c141 ce2b e540 feb9 ee40 24d7 27c1
000001d0: 0484 94c1 3122 15c1 6130 ba40 724b aa41
000001e0: 2742 6d40 f51a fabf a0b8 21c1 f202 99c1
000001f0: 9a3f 3ec0 df45 0441 3122 15c1 6130 ba40
00000200: 724b aa41 2742 6d40 f51a fabf a0b8 21c1
00000210: f202 99c1 9a3f 3ec0 df45 0441 c479 7abf
00000220: ffa0 15c0 5b85 8fc1 3b27 47c1 1ff4 1ec1
00000230: 1b44 dabd ca07 a941 b21e 2a41 6a20 a640
00000240: 0c13 babf 084e 08c1 e5ba 9e40 d7fe 2640
00000250: 88de c141 ce2b e540 feb9 ee40 24d7 27c1
00000260: 0484 94c1 0c13 babf 084e 08c1 e5ba 9e40
00000270: d7fe 2640 88de c141 ce2b e540 feb9 ee40
00000280: 24d7 27c1 0484 94c1 c479 7abf ffa0 15c0
00000290: 5b85 8fc1 3b27 47c1 1ff4 1ec1 1b44 dabd
000002a0: ca07 a941 b21e 2a41 6a20 a640 3122 15c1
000002b0: 6130 ba40 724b aa41 2742 6d40 f51a fabf
000002c0: a0b8 21c1 f202 99c1 9a3f 3ec0 df45 0441
000002d0: 0c13 babf 084e 08c1 e5ba 9e40 d7fe 2640
000002e0: 88de c141 ce2b e540 feb9 ee40 24d7 27c1
000002f0: 0484 94c1 0c13 babf 084e 08c1 e5ba 9e40
00000300: d7fe 2640 88de c141 ce2b e540 feb9 ee40
00000310: 24d7 27c1 0484 94c1 0c13 babf 084e 08c1
00000320: e5ba 9e40 d7fe 2640 88de c141 ce2b e540
00000330: feb9 ee40 24d7 27c1 0484 94c1 afb5 52c0
00000340: aa9e efc0 f9c9 02bf 1219 2d40 58c0 9341
00000350: ae66 8640 be23 c640 cd0a 3dc1 ecac f6c0
00000360: 0c13 babf 084e 08c1 e5ba 9e40 d7fe 2640
00000370: 88de c141 ce2b e540 feb9 ee40 24d7 27c1
00000380: 0484 94c1 3122 15c1 6130 ba40 724b aa41
00000390: 2742 6d40 f51a fabf a0b8 21c1 f202 99c1
000003a0: 9a3f 3ec0 df45 0441 3122 15c1 6130 ba40
000003b0: 724b aa41 2742 6d40 f51a fabf a0b8 21c1
000003c0: f202 99c1 9a3f 3ec0 df45 0441 3122 15c1
000003d0: 6130 ba40 724b aa41 2742 6d40 f51a fabf
000003e0: a0b8 21c1 f202 99c1 9a3f 3ec0 df45 0441
000003f0: afb5 52c0 aa9e efc0 f9c9 02bf 1219 2d40

weight f4 [9, 256]
0.11287489 0.12493198 0.27968875 -0.21980783 0.16647461 -0.19300273 0.2268051 -0.28867665
-0.15697001 -0.1584181 -0.0097589 -0.27189556 -0.014921549 0.29832888 0.15924145 -0.07006529
0.049288355 0.08021598 0.16205904 0.31279555 -0.19872883 0.03297047 -0.20106344 0.079627365
0.0926769 0.0011744603 0.018794972 -0.018019069 0.02640777 0.05317329 -0.16010371 -0.007226695
0.04237001 -0.07534708 0.22932102 0.28174478 -0.14033093 -0.15341991 0.084683254 0.30367395
-0.15768218 -0.11875747 0.28648147 0.25039712 0.10693214 0.22351195 0.1444844 -0.01682429
0.17426483 0.101464644 -0.08222312 0.015466102 0.09966602 0.32958058 0.2868929 0.084054686
0.14295761 -0.21174371 0.24618013 0.14772387 0.20043448 -0.17464797 -0.18055345 0.06997956
-0.1606992 0.066725634 0.052264906 -0.18388382 0.11847467 -0.06509325 0.0005745606 -0.061217945
-0.25035828 0.03856444 -0.30421442 0.17445554 0.15087728 0.13914153 0.08578433 -0.297215
0.23921522 0.17760132 -0.07671792 0.012976779 -0.16922528 -0.07986138 0.19946924 -0.010555669
0.101353295 0.3673206 0.070006944 -0.14814083 0.01674789 0.19374235 0.35564023 -0.23248596
-0.111328006 0.07725626 0.075535305 0.011492472 -0.14042418 0.17123023 -0.13530445 -0.3121063
0.039081633 0.2957064 -0.18170641 0.14330736 0.12911859 0.32379735 0.004345879 -0.107141174
0.08101293 -0.054556053 0.21730062 0.32413864 0.1409689 0.09739212 -0.2690124 -0.04279507
0.0086900685 -0.023913875 -0.073758416 0.10980097 0.008351547 -0.117376395 0.14745712 -0.14690691
-0.1490636 0.11349296 -0.24655709 0.1896204 -0.18543515 0.030549893 0.12239052 0.07224939
-0.21110924 0.25492975 -0.20622855 -0.12040989 -0.22000554 -0.27325854 0.107422926 -0.15673879
-0.22773202 0.038738027 0.11010141 0.176763 0.17161855 -0.1939106 -0.007181131 -0.24525829
0.080271624 0.2547325 -0.3649917 0.24150203 -0.053578276 0.22913317 -0.27498126 0.23455967
-0.119464956 -0.023106469 -0.10531875 -0.34090412 -0.047297705 -0.04918455 0.022617564 0.24552593
-0.1770062 0.011958974 -0.15563616 0.27355856 -0.009744433 0.013047409 0.106964625 -0.22430253
-0.078460276 -0.097513944 -0.039519962 0.107582055 -0.057076145 -0.25771245 0.08739849 0.15104857
-0.0026687041 -0.2345028 0.13431469 0.21778262 -0.10167045 -0.24404146 0.08100967 0.11171319
0.1183239 0.03995723 -0.043151226 0.12444778 -0.06191523 -0.046460472 -0.032392863 0.0514601
0.01762032 -0.33412826 -0.20483336 0.08941511 -0.096388094 0.12560004 0.053540833 -0.19167502
-0.007053519 -0.27767536 -0.26795933 -0.16298467 -0.19904779 -0.0012303572 -0.050926622 -0.01193796
-0.03413311 0.060610086 -0.09428024 -0.29447833 0.25357062 0.07676682 -0.009975222 0.048019864
0.15373513 -0.07533079 -0.21454233 -0.016170917 0.03096597 -0.14904928 0.14857766 -0.095252946
0.10482357 -0.19710658 0.09754635 0.042605624 0.021695912 0.10183144 -0.23666725 0.2612998
-0.14901997 -0.39327013 0.14525993 -0.028816054 0.19735278 -0.1694852 -0.22670542 -0.03745745
0.12590267 -0.2575158 0.13636757 -0.37988734 -0.10141564 0.18892334 -0.073544696 0.08591115
00000000: f32a e73d 57dc ff3d 5d33 8f3e 4e15 61be
00000010: 5278 2a3e 82a2 45be 993f 683e 6dcd 93be
00000020: bfbc 20be 5b38 22be cbe3 1fbc e535 8bbe
00000030: 8379 74bc 90be 983e 3110 233e 647e 8fbd
00000040: 96e2 493d 4748 a43d cef2 253e bd26 a03e
00000050: 927f 4bbe 0b0c 073d 93e3 4dbe ac13 a33d
00000060: 63cd bd3d 59f0 993a eaf7 993c ba9c 93bc
00000070: 1c55 d83c 3ccc 593d 3af2 23be e9cd ecbb
00000080: 2d8c 2d3d 924f 9abd 21d3 6a3e da40 903e
00000090: e9b2 0fbe 1c1a 1dbe 6a6e ad3d 277b 9b3e
000000a0: 7077 21be 1e37 f3bd b3ad 923e 0d34 803e
000000b0: 3dff da3d 51e0 643e b8f3 133e 18d3 89bc
000000c0: 7b72 323e b2cc cf3d 9864 a8bd 8965 7d3c
000000d0: b31d cc3d c9be a83e a0e3 923e dd24 ac3d
000000e0: 7b63 123e 58d3 58be a516 7c3e ed44 173e
000000f0: b23e 4d3e ebd6 32be 01e3 38be 7251 8f3d
00000100: 558e 24be 73a7 883d ba13 563d 0a4c 3cbe
00000110: d9a2 f23d 9c4f 85bd 1c9e 163a abbf 7abd
00000120: f62e 80be bff5 1d3d fec1 9bbe 79a4 323e
00000130: 937f 1a3e 1e7b 0e3e b2af af3d 912c 98be
00000140: d6f4 743e 1fdd 353e 491e 9dbd 8e9c 543c
00000150: 6449 2dbe 5d8e a3bd aa41 4c3e aff1 2cbc
00000160: 5192 cf3d 7211 bc3e cd5f 8f3d 3bb2 17be
00000170: df32 893c 6564 463e 7a16 b63e cd10 6ebe
00000180: f0ff e3bd 8838 9e3d 41b2 9a3d ec4a 3c3c
00000190: 5bcb 0fbe fa56 2f3e 408d 0abe 66cc 9fbe
000001a0: 1014 203d d466 973e 3f11 3abe 2abf 123e
000001b0: aa37 043e c4c8 a53e e067 8e3b d56c dbbd
000001c0: 1bea a53d 2b76 5fbd 0e84 5e3e 80f5 a53e
000001d0: 275a 103e 8575 c73d febb 89be e249 2fbd
000001e0: ca60 0e3c 08e7 c3bc a70e 97bd 55df e03d
000001f0: edd4 083c 0963 f0bd 00ff 163e c46e 16be
00000200: 21a4 18be ff6e e83d 7679 7cbe da2b 423e
00000210: b6e2 3dbe c543 fa3c e2a7 fa3d 7df7 933d
00000220: 052d 58be 2786 823e 942d 53be 7699 f6bd
00000230: 2249 61be 8be8 8bbe 8d00 dc3d 2280 20be
00000240: 9532 69be c4ab 1e3d d97c e13d 5c01 353e
00000250: c6bc 2f3e 8090 46be b14f ebbb fd24 7bbe
00000260: 7365 a43d 4c6c 823e 31e0 babe 4f4c 773e
00000270: e574 5bbd e3a1 6a3e 58ca 8cbe 6930 703e
00000280: 0baa f4bd c749 bdbc 5bb1 d7bd fc8a aebe
00000290: 3dbb 41bd bd75 49bd 7848 b93c 266b 7b3e
000002a0: 1d41 35be 93ef 433c 165f 1fbe de0f 8c3e
000002b0: 1da7 1fbc cdc4 553c 4510 db3d 90af 65be
000002c0: c8af a0bd 64b5 c7bd afdf 21bd fb53 dc3d
000002d0: adc8 69bd e3f2 83be fbfd b23d 7aac 1a3e
000002e0: 6de5 2ebb 8121 70be ca89 093e 6802 5f3e
000002f0: 9938 d0bd 01e6 79be 66e8 a53d e3c9 e43d
00000300: cd53 f23d 31aa 233d 57bf 30bd 7ade fe3d
00000310: d39a 7dbd 564d 3ebd 61ae 04bd d3c7 523d
00000320: 7d58 903c dc12 abbe d6bf 51be 451f b73d
00000330: 1f67 c5bd 4c9d 003e a24d 5b3d 7546 44be
00000340: 3521 e7bb 772b 8ebe f731 89be 74e5 26be
00000350: 2fd3 4bbe f043 a1ba 6f98 50bd 6f97 43bc
00000360: 29cf 0bbd 4842 783d 0016 c1bd ddc5 96be
00000370: 02d4 813e ec37 9d3d 1d6f 23bc 7ab0 443d
00000380: be6c 1d3e 0747 9abd fcb0 5bbe df78 84bc
00000390: 59ac fd3c 60a0 18be be24 183e fa13 c3bd
000003a0: bdad d63d 4fd6 49be 61c6 c73d 3c83 2e3d
000003b0: a0bb b13c 018d d03d e658 72be 16c9 853e
000003c0: b198 18be b45a c9be 05bf 143e a50f ecbc
000003d0: d916 4a3e 878d 2dbe 7725 68be fc6c 19bd
000003e0: a1ec 003e 1cd9 83be f1a3 0b3e 9880 c2be
000003f0: 01b3 cfbd 1f75 413e 9a9e 96bd 2ff2 af3d

bias f4 [9]
0.010927594 -0.032500982 -0.00021466828 -0.010590319 0.0012500606 0.0007168922 0.0117799025 -0.006692493
-0.009656456
00000000: a709 333c c01f 05bd 9418 61b9 0483 2dbc
00000010: 13d9 a33a d2ed 3b3a 7e00 413c b34c dbbb
00000020: 1d36 1ebc

weight f4 [256, 19]
-0.2926901 0.13913909 0.183888 -0.1367058 0.00024012555 -0.5339275 -0.02935958 -0.117075555
-0.027034277 -0.06643368 0.02282984 -0.106734864 0.4529689 -0.20872329 -0.09784271 -0.03450868
0.3873517 -0.3711419 0.47793707 -0.3298458 -0.12402337 0.292706 -0.31020987 0.33009803
0.08471846 -0.23344378 -0.02031263 0.08798222 -0.1962938 -0.15702459 0.11314211 -0.38447294
0.47349864 -0.076820455 -0.15633652 0.24031307 -0.062829785 -0.16264312 -0.31101617 -0.75050366
0.024620747 0.26600882 -0.09669897 -0.006149413 0.037909146 0.27126268 -0.046815958 0.018748244
0.09057474 -0.0127120055 -0.23390137 -0.014925458 -0.2847939 -0.10384174 -0.0039786473 -0.13045773
0.097315334 0.15080132 -0.058228068 -0.26207998 0.21797027 -0.23231664 0.18401384 -0.02963281
-0.104774155 0.41276768 0.05911703 0.3743392 0.01382684 -0.24145325 -0.03190124 0.068303816
0.3360043 0.014590671 -0.16415836 -0.40516832 -0.523106 0.11507786 -0.107312515 0.33016235
0.015086516 -0.051309433 -0.30686575 -0.24080406 -0.25517735 0.17821757 -0.43934768 -0.13507745
-0.015571838 -0.20581391 -0.13394475 0.036584042 0.29573038 -0.14079511 0.064973906 -0.1713559
0.13777284 -0.21343449 -0.21474892 -0.16827905 -0.44063917 0.25952488 -0.014090062 0.5115837
0.14587763 0.122836016 0.13127884 0.016618242 0.28566518 0.089048244 -0.01710609 0.20059277
-0.04230701 0.30894616 -0.3676566 -0.16879527 0.3063759 -0.058363385 0.28743777 -0.098290764
0.26638532 -0.074351706 0.09875952 -0.5375712 0.1998761 0.44714153 0.04406438 -0.06363016
0.2510313 -0.007647454 -0.033975154 -0.30373982 0.017515136 -0.12754269 0.022269653 0.041069984
0.07745155 0.07855872 0.191094 -0.29482076 0.38091207 -0.2192596 0.108729646 -0.2785949
-0.47592315 0.377388 -0.13682494 -0.23303314 -0.17282899 -0.059144635 0.11988836 0.34751633
-0.047550324 0.18256828 -0.16595462 -0.52763724 -0.20925047 -0.32632992 -0.1327063 0.36436942
-0.054155868 -0.14162146 -0.034444228 -0.16227384 0.15868087 0.3470444 0.017641505 -0.36169326
0.43598893 -0.2996624 -0.05512446 -0.056336846 -0.18849202 0.1407889 -0.15740523 -0.40379596
0.15455845 -0.061714184 0.023815582 0.35061947 -0.10018765 0.26783475 -0.11472756 0.24650018
-0.022575606 -0.38581502 0.27464756 0.18764777 0.39588967 0.20846626 0.2579495 0.049970407
-0.40996823 0.42193952 -0.08560177 -0.059637822 0.02060533 0.13803917 -0.13327308 -0.19167167
-0.29248315 -0.267292 0.25393626 0.23295166 0.51263946 0.27967945 0.12339387 -0.1231503
-0.02123384 0.08924869 -0.0287932 -0.4401305 -0.55581427 -0.11047179 -0.13373022 -0.04360954
0.39987472 0.1892719 -0.09981646 0.38587695 -0.042741355 -0.28740123 -0.0875046 -0.21057758
0.0874031 0.3169586 -0.2961743 0.1916144 -0.10910054 -0.027533783 0.3829048 0.109674275
-0.2944164 0.043321937 -0.2237621 -0.43078133 0.21544212 -0.3973036 -0.0127033135 0.024852898
0.20970519 0.13588345 -0.5318013 0.066169046 0.08332623 0.13809791 0.21899451 -0.08616015
0.11308921 -0.0009936218 -0.15397163 0.06326418 -0.15388046 -0.045944802 -0.26021603 0.078077964
00000000: 7adb 95be 7a7a 0e3e 234d 3c3e 9bfc 0bbe
00000010: 36ca 7b39 79af 08bf 8083 f0bc 4fc5 efbd
00000020: fd76 ddbc 620e 88bd a505 bb3c cf97 dabd
00000030: 8aeb e73e 8fbb 55be c261 c8bd f958 0dbd
00000040: f652 c63e 5006 bebe 2bb4 f43e 8ce1 a8be
00000050: f7ff fdbd 90dd 953e d4d3 9ebe 9c02 a93e
00000060: df80 ad3d e30b 6fbe ac66 a6bc 0630 b43d
00000070: 3e01 49be 0ecb 20be 0db7 e73d a3d9 c4be
00000080: 6a6e f23e 0b54 9dbd ae16 20be a114 763e
00000090: e7ac 80bd eb8b 26be 833d 9fbe 0221 40bf
000000a0: 73b1 c93c 4f32 883e 1c0a c6bd 0481 c9bb
000000b0: 9f46 1b3d f1e2 8a3e 17c2 3fbd eb95 993c
000000c0: 407f b93d 0446 50bc d783 6fbe e889 74bc
000000d0: 82d0 91be faaa d4bd 505f 82bb b696 05be
000000e0: 434d c73d a96b 1a3e 8e80 6ebd 592f 86be
000000f0: 9933 5f3e 6ae4 6dbe 206e 3c3e 82c0 f2bc
00000100: d593 d6bd 4956 d33e b324 723d 63a9 bf3e
00000110: f889 623c 853f 77be e0aa 02bd dfe2 8b3d
00000120: c108 ac3e b60d 6f3c 2119 28be 3972 cfbe
00000130: 46ea 05bf f1ad eb3d aac6 dbbd 0a0b a93e
00000140: 6f2d 773c d729 52bd 821d 9dbe 5795 76be
00000150: 9ba6 82be ab7e 363e 2ef2 e0be be51 0abe
00000160: 0621 7fbc e2c0 52be d028 09be 26d9 153d
00000170: f969 973e 982c 10be 0a11 853d ec77 2fbe
00000180: 5314 0d3e 928e 5abe 24e7 5bbe 5851 2cbe
00000190: 759b e1be 72e0 843e 01da 66bc 26f7 023f
000001a0: f260 153e 7391 fb3d f66d 063e fb22 883c
000001b0: b542 923e ed5e b63d 1222 8cbc 3168 4d3e
000001c0: 1e4a 2dbd 312e 9e3e 7c3d bcbe abd8 2cbe
000001d0: 4ddd 9c3e 720e 6fbd 0b2b 933e ab4c c9bd
000001e0: a863 883e b545 98bd 6e42 ca3d 449e 09bf
000001f0: 52ac 4c3e bcef e43e da7c 343d 8850 82bd
00000200: 2d87 803e 7e97 fabb 8829 0bbd c983 9bbe
00000210: e77b 8f3c 8d9a 02be d96e b63c 0039 283d
00000220: eb9e 9e3d 65e3 a03d 25ae 433e bff2 96be
00000230: e806 c33e 9785 60be a6ad de3d fea3 8ebe
00000240: 33ac f3be 0039 c13e d61b 0cbe 3da0 6ebe
00000250: 15fa 30be a541 72bd 0788 f53d a9ed b13e
00000260: 21c4 42bd 2ef3 3a3e 02f0 29be 3c13 07bf
00000270: c145 56be b714 a7be 29e4 07be a18e ba3e
00000280: 8bd2 5dbd 3705 11be 6415 0dbd 1d2b 26be
00000290: 3d7d 223e ceaf b13e eb84 903c dc2f b9be
000002a0: f139 df3e 5a6d 99be 30ca 61bd 77c1 66bd
000002b0: 0d04 41be f72a 103e d62e 21be 58be cebe
000002c0: 9244 1e3e 03c8 7cbd e518 c33c 6584 b33e
000002d0: 2f2f cdbd a321 893e 48f6 eabd 8b6a 7c3e
000002e0: 7af0 b8bc 8c89 c5be 9b9e 8c3e bd26 403e
000002f0: 0db2 ca3e 2e78 553e f511 843e c5ad 4c3d
00000300: 5be7 d1be 7508 d83e fb4f afbd ca46 74bd
00000310: 82cc a83c 245a 0d3e bd78 08be 9445 44be
00000320: 5ac0 95be 7fda 88be ef03 823e e18a 6e3e
00000330: 573c 033f 2532 8f3e edb5 fc3d 3936 fcbd
00000340: 97f2 adbc 04c8 b63d b8df ebbc c958 e1be
00000350: d849 0ebf 093f e2bd 93f0 08be eb9f 32bd
00000360: 61bc cc3e 7ed0 413e 926c ccbd aa91 c53e
00000370: 8f11 2fbd 4126 93be 9d35 b3bd a6a1 57be
00000380: 6600 b33d 6648 a23e 28a4 97be 9136 443e
00000390: 1b70 dfbd 878e e1bc 190c c43e e89c e03d
000003a0: bfbd 96be 5872 313d e421 65be 5f8f dcbe
000003b0: dc9c 5c3e 616b cbbe 8f21 50bc 4e98 cb3c
000003c0: f5bc 563e 0825 0b3e 2124 08bf a383 873d
000003d0: f1a6 aa3d 8a69 0d3e 1940 603e bc74 b0bd
000003e0: 519b e73d 6a3c 82ba bdaa 1dbe a790 813d
000003f0: d792 1dbe 9e30 3cbd 093b 85be 57e7 9f3d

bias f4 [256]
0.031988215 -0.040120978 0.0 0.066433854 0.085122176 -0.05470639 0.014917183 0.029621348
-0.10638329 -0.11593619 0.025282124 0.03999779 0.017793143 -0.019258503 -0.054504625 0.004770351
0.011793785 0.0297145 -0.02713708 0.11121125 0.07044921 0.030246489 -0.0881805 -0.016882516
0.050032005 -0.005495794 0.009698623 0.05645312 -0.040213875 0.0055592507 -0.08185439 0.058131125
-0.068496756 -0.026715739 0.032333955 -0.0024198245 -0.049533945 -0.015863573 -0.054015875 0.06985054
0.038548384 0.0023595581 -0.012138768 -0.013970274 0.034331832 0.1167632 -0.009317931 -0.014113085
-0.009255468 0.01946155 0.0077520637 8.95287e-06 -0.034326818 0.020633189 0.104585096 -0.0014248163
0.0016660539 0.06389894 0.0041130087 -0.036915176 0.043634377 0.0057199844 -0.04315338 -0.002100604
-0.031790785 -0.06413813 -0.06662879 -0.0017532342 0.0032201544 -0.06480365 0.02135027 0.0052619237
0.032096997 0.043269012 0.038585063 0.061984558 -0.033973802 3.557861e-05 0.043858536 0.011372201
-0.070492685 0.030389935 -0.021680383 1.9786214e-05 -0.06103012 -0.08158225 -0.044100113 0.035696372
0.022746386 -0.043739744 -0.08798247 0.09455321 0.034619216 0.019756343 0.082622916 -0.007168026
-0.025164444 0.06703082 0.0013227541 -0.045199618 -0.033595026 -0.103520334 0.00010846602 -0.18037798
-0.0041703354 -0.019199017 -0.06329888 -0.05118766 0.033997405 0.022922723 0.06268866 -0.031749956
-0.13102669 -0.0769432 0.021949729 0.03400536 -0.06545595 0.031195704 0.09821193 0.0007329825
0.045787465 0.044943657 0.05779794 0.053545423 -0.024819959 0.063578814 0.099674016 -0.060760055
0.041092776 -0.12957963 -0.006143557 0.014424665 0.005246976 -0.091179356 -0.012869465 -0.0100943325
0.021250041 -0.013059921 0.0016422103 -0.05077801 -0.023373729 0.13533124 0.012282576 0.0012286272
-0.03814113 0.071763374 -0.024892457 0.089190304 -0.027218817 -0.0028999925 -0.0043881666 0.09817167
0.029322764 0.02262994 0.015066753 -0.0059014144 -0.00097322394 -0.10067007 4.1650123e-06 0.0143329995
-0.03347986 0.08015329 -0.083982155 -0.018537883 0.11863133 -0.0001410769 -0.042139072 0.0058431067
-0.04562343 0.016935298 -0.036312558 -0.048688926 -0.060045872 0.03284378 -0.048797794 0.11877231
0.07052036 0.030864924 -0.006321584 -0.14828667 -0.007641461 0.04178623 -0.06719592 -0.004734072
0.07572177 0.027915316 -0.0143049685 0.0041405307 0.017108338 0.08908173 0.08346032 5.3508197e-06
0.004589944 0.0744737 -0.031955183 0.072812036 0.09376867 1.2673608e-07 0.038528107 -0.02823971
-0.005444398 -0.035087965 -0.022743464 0.0244613 0.020600386 -0.004367201 -0.010479318 0.037080206
-0.0066336114 -0.014233082 0.07478035 0.052965436 -0.09295625 0.037305553 -0.022456111 -0.073643416
-0.012267765 -0.0032312726 0.0066106874 0.01600162 -0.10995471 0.12044719 0.028548922 -0.003067687
0.030088782 -0.0018552785 0.046297368 0.015616564 0.0454992 -0.022813361 -0.05064038 -0.04489944
-0.008794024 -0.013065955 0.05766131 0.009486328 0.014170567 0.025503933 0.07665423 0.022503013
-0.0028275414 -0.029947827 -0.068901666 -0.0130865 -0.013206495 0.08059537 -0.038199667 0.0630787
-0.0057812072 -0.04266962 0.06768419 0.037679013 0.0042537996 -0.024321407 0.043983236 -0.049714383
00000000: 1306 033d e555 24bd 0000 0000 790e 883d
00000010: 8954 ae3d cf13 60bd 3367 743c 78a8 f23c
00000020: 7bdf d9bd f46f edbd 751c cf3c b9d4 233d
00000030: edc2 913c 02c4 9dbc 3e40 5fbd 9b50 9c3b
00000040: b83a 413c d36b f33c 954e debc b9c2 e33d
00000050: ad47 903d 7cc7 f73c fa97 b4bd 344d 8abc
00000060: 5cee 4c3d 1016 b4bb f9e6 1e3c 633b 673d
00000070: 4eb7 24bd 602a b63b 46a3 a7bd e71a 6e3d
00000080: 0748 8cbd f7da dabc 9c70 043d eb95 1ebb
00000090: 1be4 4abd 53f4 81bc c03f 5dbd cd0d 8f3d
000000a0: e9e4 1d3d d1a2 1a3b afe1 46bc 93e3 64bc
000000b0: 899f 0c3d 8b21 ef3d 3caa 18bc 923a 67bc
000000c0: 3fa4 17bc d46d 9f3c 0605 fe3b 4934 1637
000000d0: 479a 0cbd ef06 a93c b630 d63d e7c0 baba
000000e0: 7e5f da3a 73dd 823d 6bc6 863b 5e34 17bd
000000f0: f6b9 323d b56e bb3b 99c1 30bd 49aa 09bb
00000100: 0e37 02bd da5a 83bd ad74 88bd c7cc e5ba
00000110: 3a09 533b c7b7 84bd c3e6 ae3c 376c ac3b
00000120: 2478 033d d93a 313d 5f0b 1e3d 85e3 7d3d
00000130: 1d28 0bbd 3e3a 1538 02a5 333d 7852 3a3c
00000140: 785e 90bd 50f4 f83c 0f9b b1bc 92fa a537
00000150: b8fa 79bd 9814 a7bd 52a2 34bd 5c36 123d
00000160: a156 ba3c 7228 33bd 2730 b4bd 1da5 c13d
00000170: e1cc 0d3d 0ed8 a13c 3436 a93d c3e1 eabb
00000180: aa25 cebc 7447 893d 4360 ad3a 3c23 39bd
00000190: f09a 09bd 7802 d4bd 4078 e338 01b5 38be
000001a0: 4fa7 88bb 4247 9dbc d8a2 81bd 27aa 51bd
000001b0: dd40 0b3d 6fc8 bb3c ea62 803d 3e0c 02bd
000001c0: dc2b 06be 6594 9dbd ebcf b33c 3449 0b3d
000001d0: c50d 86bd 228e ff3c 5623 c93d 9f25 403a
000001e0: a38b 3b3d d716 383d 88bd 6c3d 7252 5b3d
000001f0: 3a53 cbbc 9c35 823d e421 cc3d 89df 78bd
00000200: e650 283d 86b0 04be e44f c9bb 6e55 6c3c
00000210: d3ee ab3b 3ebc babd 73da 52bc b362 25bc
00000220: 9114 ae3c 47f9 55bc 6f3f d73a 9afc 4fbd
00000230: 437a bfbc 4694 0a3e dc3c 493c e309 a13a
00000240: e039 1cbd adf8 923d 44eb cbbc 68a9 b63d
00000250: fff9 debc cd0d 3ebb 9cca 8fbb 3b0e c93d
00000260: 4b36 f03c 6d62 b93c 8bda 763c a760 c1bb
00000270: f41f 7fba 1c2c cebd 2fc1 8b36 f5d4 6a3c
00000280: 2d22 09bd 6827 a43d d6fe abbd c2dc 97bc
00000290: fcf4 f23d 0bee 13b9 059a 2cbd 8877 bf3b
000002a0: a2df 3abd e5bb 8a3c 7abc 14bd 0a6e 47bd
000002b0: a9f2 75bd 3387 063d 32e0 47bd e63e f33d
000002c0: fa6c 903d 70d8 fc3c 4a25 cfbb 76d8 17be
000002d0: 3965 fabb 0a28 2b3d 049e 89bd 4620 9bbb
000002e0: 0414 9b3d a9ae e43c 635f 6abc 4aad 873b
000002f0: c926 8c3c 7b70 b63d 3fed aa3d 318b b336
00000300: 3e67 963b ab85 983d 70e3 02bd 7a1e 953d
00000310: ca09 c03d f314 0834 a6cf 1d3d f756 e7bc
00000320: ec66 b2bb 66b8 0fbd 8050 babc 1063 c83c
00000330: 24c2 a83c bd1a 8fbb 72b1 2bbc 6ae1 173d
00000340: c45e d9bb df31 69bc 7126 993d 49f2 583d
00000350: d95f bebd b5cd 183d e1f5 b7bc 5cd2 96bd
00000360: bcfe 48bc c2c3 53bb 779e d83b d415 833c
00000370: ef2f e1bd 04ad f63d 6edf e93c 3f0b 49bb
00000380: c07c f63c d12c f3ba 4fa2 3d3d 9edc 7f3c
00000390: 5e5d 3a3d 16e3 babc 496c 4fbd 7ae8 37bd
000003a0: cf14 10bc 9612 56bc 442e 6c3d 8b6c 1b3c
000003b0: aa2b 683c a0ed d03c e5fc 9c3d 3d58 b83c
000003c0: 464e 39bb 2555 f5bc 511c 8dbd c268 56bc
000003d0: 0e60 58bc 2f0f a53d 4177 1cbd 682f 813d
000003e0: 4870 bdbb 57c6 2ebd 029e 8a3d 4f55 1a3d
000003f0: 7563 8b3b b03d c7bc c427 343d 4fa1 4bbd

weight f4 [256, 256]
0.047128618 0.059955742 -0.059857078 0.16350226 -0.15539315 -0.0111475475 -0.03579195 0.015034813
0.036282558 0.014131389 -0.08916384 0.096110135 -0.006345925 -0.021401865 0.12738813 0.1409059
-0.015298759 -0.13422541 -0.10276301 0.022474525 0.091518484 -0.15795578 -0.09554333 -0.08147766
-0.047603846 -0.17006314 0.09499114 -0.040526375 -0.030267654 0.1358446 0.045959823 -0.045075838
-0.07476817 -0.033972804 -0.054568548 0.07956821 0.07741442 -0.039959233 0.16195531 0.03276553
-0.049406536 0.1038973 0.08777895 -0.05977729 -0.010229581 -0.018541757 -0.058823664 0.0956896
0.0033961725 -0.019789632 -0.086246595 -0.0764463 -0.004127198 -0.03405381 0.0883102 0.021631734
-0.023817817 0.13225746 0.013991003 -0.044558767 0.044916153 -0.05033978 0.06526985 -0.205915
0.028816732 -0.017881004 0.120041214 0.07475166 0.17056544 0.014135458 -0.06196011 0.04915843
0.025733832 0.07063653 0.16982184 -0.026003914 -0.020247716 0.04081613 0.12824465 0.17874354
0.09604319 -0.0005607795 0.064248465 0.10098242 0.03381967 0.022753768 -0.005861519 -0.027380217
-0.10576446 0.096981026 -0.0483703 -0.019274123 -0.0005362237 0.14898601 0.058863595 0.0550105
0.04048821 0.04972833 -0.077434264 0.036738545 0.06909218 -0.13991652 -0.018408531 -0.017631933
-0.070238195 0.052094325 -0.09791083 0.029821211 -0.02158477 -0.17545132 -0.18239391 -0.1974746
-0.08607986 -0.10560574 0.16430533 0.25168997 0.021024501 -0.0072920644 0.05018812 -0.06681686
0.06544852 0.12258137 0.038545508 -0.0035096665 -0.028917674 0.0615811 0.14189771 -0.030035358
-0.14704384 0.015652884 -0.18594402 -0.028684152 0.07415522 0.10335796 -0.12471865 0.023743648
0.051968776 0.08787381 0.012262112 0.03725899 0.04736498 -0.026993094 -0.07434595 -0.12128863
0.17484696 0.11514543 0.10409697 -0.30419132 -0.11798502 -0.04426037 0.024082229 -0.052471515
0.027306134 -0.1459114 -0.14283124 0.10940975 0.08753248 0.102383174 0.0016343519 0.2037243
0.020436961 -0.0539121 0.03821839 -0.037428353 0.04283687 -0.10232983 -0.047115188 0.08411534
0.041079216 0.10856794 0.099115975 -0.072600156 -0.04588428 0.09462201 0.0667097 0.030741125
-0.04714096 -0.006717366 -0.0053740297 -0.047086798 -0.09116887 0.01592334 -0.05112098 0.011716719
0.03377512 0.10907928 -0.092296764 -0.042867053 -0.12950267 -0.092610426 -0.021818576 0.103390865
0.1683755 0.02763012 0.06029171 0.060997237 -0.0014563762 -0.024725536 0.054042306 -0.07141094
0.014141729 -0.03217065 0.10945652 0.033875976 -0.10363593 -0.1659684 -0.029978225 0.071541294
0.064137585 -0.024922192 -0.034048777 0.055397183 -0.035778053 0.016092459 -0.067630924 -0.0583236
0.005441094 0.08813765 0.015354908 0.008385851 0.07852768 -0.088645644 -0.0062600593 0.06207471
-0.04362812 -0.14047608 0.04815111 0.1700961 0.10722047 -0.04368209 0.006163399 -0.01117267
-0.14065525 -0.010944204 0.0146861505 -0.005677235 0.040084217 -0.12839964 -0.017527457 0.023238774
0.06498224 0.027448334 0.016919203 -0.013674748 0.055325672 -0.11302592 0.013892608 0.14702874
0.09945837 -0.018541606 -0.11888875 0.004241927 -0.023174854 0.0054577887 0.012906102 -0.18975763
00000000: f009 413d 2794 753d b22c 75bd 236d 273e
00000010: 621f 1fbe 34a4 36bc 949a 12bd 9454 763c
00000020: 059d 143d 5787 673c 889b b6bd 64d5 c43d
00000030: 7af1 cfbb f752 afbc 0972 023e a349 103e
00000040: a5a7 7abc 6372 09be 6a75 d2bd 7f1c b83c
00000050: 0b6e bb3d 29bf 21be 39ac c3bd c2dd a6bd
00000060: 40fc 42bd 0825 2ebe b78a c23d fcfe 25bd
00000070: dff3 f7bc d91a 0b3e 5e40 3c3d 71a1 38bd
00000080: 0e20 99bd 1127 0bbd 4583 5fbd a8f4 a23d
00000090: 748b 9e3d 4bac 23bd 9dd7 253e 2635 063d
000000a0: 825e 4abd 1cc8 d43d 73c5 b33d 08d9 74bd
000000b0: f999 27bc e2e4 97bc 15f1 70bd e9f8 c33d
000000c0: 5292 5e3b de1d a2bc 0ea2 b0bd e18f 9cbd
000000d0: 723d 87bb 027c 0bbd fadb b43d 0935 b13c
000000e0: 951d c3bc 806e 073e 853a 653c 4183 36bd
000000f0: 00fa 373d 1631 4ebd 33ac 853d 62db 52be
00000100: 1111 ec3c 2f7b 92bc 2bd8 f53d 6617 993d
00000110: b5a8 2e3e 6898 673c e2c9 7dbd 5a5a 493d
00000120: c2cf d23c e3a9 903d c7e5 2d3e 2906 d5bc
00000130: 8ade a5bc d02e 273d 9152 033e 8c08 373e
00000140: 4bb2 c43d 4601 13ba b394 833d dfcf ce3d
00000150: 7f86 0a3d 1c66 ba3c fc11 c0bb 7a4c e0bc
00000160: 0a9b d8bd fd9d c63d f01f 46bd c4e4 9dbc
00000170: 5d91 0cba ca8f 183e f41a 713d b152 613d
00000180: f7d6 253d efaf 4b3d db95 9ebd 287b 163d
00000190: 3380 8d3d 4746 0fbe 7dcd 96bc d870 90bc
000001a0: 0bd9 8fbd dc60 553d 7985 c8bd 9d4b f43c
000001b0: 8bd2 b0bc 83a9 33be 78c5 3abe c836 4abe
000001c0: a34a b0bd d247 d8bd a83f 283e 82dd 803e
000001d0: 933b ac3c 45f2 eebb 0f92 4d3d 47d7 88bd
000001e0: e009 863d f10b fb3d e5e1 1d3d 6f02 66bb
000001f0: c2e4 ecbc 773c 7c3d a24d 113e b60c f6bc
00000200: a992 16be 7a3a 803c 1c68 3ebe 07fb eabc
00000210: b1de 973d 57ad d33d 7e6c ffbd 0a82 c23c
00000220: 36dd 543d 2ff7 b33d 07e7 483c e29c 183d
00000230: c801 423d 9f20 ddbc b042 98bd 2c66 f8bd
00000240: 150b 333e 5ed1 eb3d cb30 d53d f7be 9bbe
00000250: 21a2 f1bd 5d4a 35bd 1848 c53c 5fec 56bd
00000260: 1db1 df3c cc69 15be 5a42 12be 3812 e03d
00000270: 3b44 b33d 45ae d13d c037 d63a 1a9d 503e
00000280: 6a6b a73c efd2 5cbd e38a 1c3d 794e 19bd
00000290: b775 2f3d 4d92 d1bd dbfb 40bd aa44 ac3d
000002a0: ae42 283d de58 de3d 51fd ca3d 64af 94bd
000002b0: 28f1 3bbd 2fc9 c13d 189f 883d d0d4 fb3c
000002c0: e116 41bd 5a1d dcbb a118 b0bb 16de 40bd
000002d0: bfb6 babd aa71 823c 3c64 51bd 7bf7 3f3c
000002e0: c857 0a3d f564 df3d 1606 bdbd 5d95 2fbd
000002f0: 599c 04be 89aa bdbd dfbc b2bc 97be d33d
00000300: a16a 2c3e 9058 e23c 71f4 763d 3dd8 793d
00000310: e0e3 beba 358d cabc 775b 5d3d e63f 92bd
00000320: b6b2 673c 5fc5 03bd bd2a e03d 89c1 0a3d
00000330: 133f d4bd 9ff3 29be e594 f5bc 3e84 923d
00000340: 915a 833d a029 ccbc bb76 0bbd 28e8 623d
00000350: 028c 12bd 55d4 833c 1582 8abd bae4 6ebd
00000360: 344b b23b 8381 b43d 2793 7b3c cf64 093c
00000370: 1fd3 a03d d98b b5bd 2f21 cdbb 0d42 7e3d
00000380: 66b3 32bd f6d8 0fbe 193a 453d ac2d 2e3e
00000390: 6896 db3d feeb 32bd 57f6 c93b 930d 37bc
000003a0: ee07 10be 524f 33bc 2e9e 703c 1908 babb
000003b0: 592f 243d 327b 03be be95 8fbc 3e5f be3c
000003c0: 6915 853d 54db e03c 249a 8a3c 0d0c 60bc
000003d0: 2c9d 623d 227a e7bd d29d 633c b48e 163e
000003e0: d4b0 cb3d 91e4 97bc f27b f3bd ddff 8a3b
000003f0: 31d9 bdbc 40d7 b23b 1e74 533c d34f 42be

bias f4 [256]
0.0013626545 -0.012422746 0.010361486 -0.01949551 -0.007411278 -0.008741244 -0.006139451 0.0077368678
-0.009039801 0.015458993 0.015820283 0.02590879 -0.008456967 -0.004982664 -0.0003844969 -0.018022826
0.0011286816 0.007644255 0.013041729 -0.005246441 0.00037986465 0.013149194 -0.004082168 -0.02575784
-0.0009097502 0.013883378 -0.0020279344 0.005032786 -0.01724018 0.012340516 -0.0039109513 0.004350024
-0.005459749 0.0017443016 -0.01138505 -0.012476517 0.011301829 -0.005853601 0.017972268 0.007288967
-0.0060972204 -0.00875678 0.017969867 0.023263067 0.01656128 -0.024013894 -0.009711674 -0.018409569
-0.020466596 -0.009692406 0.015268068 -0.0044990038 -0.007294088 0.008614972 0.013205627 -0.02215933
0.005291208 -0.00040592294 -0.021716973 0.014664268 0.02156113 0.0044621336 -0.00999172 -0.0059742643
0.023207216 0.021096218 0.0029625956 -0.009749547 0.014830096 0.009921178 -0.0025448173 -0.011339323
-0.005835095 -0.015594335 -0.007545901 -0.0026111503 -0.004695186 -0.007484818 0.034361802 0.0056113224
0.035483494 0.0028451604 -0.0023700118 0.013121386 0.011685478 -0.0044724885 0.022025874 -0.0458802
0.008768587 0.0060160602 -0.010677719 0.009826699 0.007782922 0.010372137 -0.016919784 0.010461553
-0.010601056 0.015168577 0.009243954 0.014229901 -0.015942097 -0.014806887 -0.0047345217 -0.011068153
-0.01139489 0.013388345 -0.01490159 -0.028313648 -0.01038844 -0.0056407964 -0.0025145512 0.0046589016
0.0036863454 0.014798484 -0.008951733 0.01946833 -0.002824826 -0.0052671134 -0.018794239 0.014557385
-0.008602774 0.00922939 -0.0006348708 0.004688179 -0.014061591 0.016653627 0.024022415 0.013607143
-0.0026966503 0.0038220997 -0.0011413668 0.0056805066 -0.0048514507 0.015662326 -0.015768075 0.025439085
0.007821408 -0.000187759 -0.011445116 -0.0038990353 -0.0047596875 -0.0044455156 0.0065834513 -0.008726737
0.0066139624 -0.003176071 0.025957434 0.0144015495 0.0035327706 -0.006361059 -0.025261385 0.0066377195
-0.008671039 -0.004427077 0.022167448 0.0074640717 -0.018988624 0.011111886 0.022784786 -0.018285427
0.013555205 -0.02048593 -0.025535127 0.0045344396 -0.0030640273 -0.0014366419 0.0028343687 0.024025533
0.01107094 0.009013542 -0.003897116 0.021356333 -0.0026277048 -0.021965079 0.0002898606 -0.015603416
0.0204427 -0.030404925 0.02258525 -0.0024215057 0.0029876456 0.0036026645 0.007819132 0.016405143
-0.008978399 0.004204247 0.022441857 -0.014714709 0.0032908393 -0.008369778 -0.005427405 0.019394806
0.014678525 -0.026433447 -0.01736904 0.0045565884 -0.017285813 -0.0005835667 0.02533228 -0.0048111803
-0.011251851 -0.012297116 -0.004044186 -0.017942782 -0.041426808 0.01840659 0.006241084 0.0023265309
0.017148862 -0.01835825 0.022172922 -0.009403578 0.013299505 -0.016434016 0.019482188 -0.0039241128
0.0073580244 -0.008211448 -0.004543266 -0.004673502 0.0048632924 -0.0029028747 -0.0032803316 -0.01038724
-0.004476533 0.008475944 2.9805842e-05 -0.013303232 0.017326161 -0.014045323 0.0038104178 -0.0143346405
0.0013153712 0.0035561551 -0.021757388 -0.006753503 -0.0022629064 0.011125675 -0.011933103 0.011055671
-0.018148592 -0.01806077 -0.0020170398 -0.017746525 -0.0006630488 0.0054870206 -0.015727514 0.022247447
0.014318359 0.024208533 0.003652874 -0.0022330924 0.011798588 -0.010773826 0.027806563 0.00020986862
00000000: 199b b23a c688 4bbc 39c3 293c 0cb5 9fbc
00000010: 4eda f2bb 6f37 0fbc 732d c9bb 8d85 fd3b
00000020: ac1b 14bc b747 7d3c 8a99 813c ac3e d43c
00000030: 178f 0abc 9d45 a3bb 4d96 c9b9 9ba4 93bc
00000040: 45f0 933a a97c fa3b faac 553c 56ea abbb
00000050: 9228 c739 b86f 573c b5c3 85bb 1b02 d3bc
00000060: 4d7c 6eba 1c77 633c 18e7 04bb 12ea a43b
00000070: 473b 8dbc e02f 4a3c 7027 80bb a58a 8e3b
00000080: b2e7 b2bb 0da1 e43a 5c88 3abc 4e6a 4cbc
00000090: 4e2b 393c 90cf bfbb 943a 933c 49d8 ee3b
000000a0: 31cb c7bb 9978 0fbc 8b35 933c 3092 be3c
000000b0: 85ab 873c c9b8 c4bc b71d 1fbc aacf 96bc
000000c0: 90a9 a7bc e6cc 1ebc eb26 7a3c 616c 93bb
000000d0: 3f03 efbb d025 0d3c 6a5c 583c 7c87 b5bc
000000e0: df61 ad3b 0ed2 d4b9 cbe7 b1bc 6642 703c
000000f0: f8a0 b03c 1737 923b 50b4 23bc c3c3 c3bb
00000100: 0f1d be3c fad1 ac3c 1b28 423b 90bc 1fbc
00000110: eef9 723c 708c 223c f3c6 26bb 91c8 39bc
00000120: 5334 bfbb 627f 7fbc 9b43 f7bb d51f 2bbb
00000130: 13da 99bb 3443 f5bb f6be 0c3d 2fdf b73b
00000140: 2457 113d df75 3a3b 3352 1bbb 15fb 563c
00000150: 7274 3f3c f48d 92bb 9b6f b43c e0ec 3bbd
00000160: 1faa 0f3c 5f22 c53b 99f1 2ebc 2a00 213c
00000170: e207 ff3b e5ef 293c 5c9b 8abc ef66 2b3c
00000180: 0db0 2dbc a085 783c f473 173c 8824 693c
00000190: 0099 82bc 9698 72bc 0c24 9bbb 3357 35bc
000001a0: a2b1 3abc ca5a 5b3c cc25 74bc 06f2 e7bc
000001b0: 4734 2abc 6ed6 b8bb 2bcb 24bb b3a9 983b
000001c0: 9d96 713b 5775 723c 4aaa 12bc 0c7c 9f3c
000001d0: b720 39bb c097 acbb 60f6 99bc 1982 6e3c
000001e0: a6f2 0cbc de36 173c 756d 26ba 4c9f 993b
000001f0: 9662 66bc 306d 883c a8ca c43c 7ff0 5e3c
00000200: 49ba 30bb 317c 7a3b ea99 95ba 8b23 ba3b
00000210: ebf8 9ebb 474e 803c 0d2c 81bc a165 d03c
00000220: 5d25 003c 2ce1 44b9 4c84 3bbc f586 7fbb
00000230: 27f7 9bbb b0ab 91bb feb9 d73b 97fa 0ebc
00000240: f0b9 d83b a125 50bb afa4 d43c 7af4 6b3c
00000250: 0e86 673b 6e70 d0bb f7f0 cebc 3a81 d93b
00000260: f910 0ebc 0311 91bb 8298 b53c 2c95 f43b
00000270: 088e 9bbc a10e 363c 29a7 ba3c 52cb 95bc
00000280: a716 5e3c 1cd2 a7bc 0b2f d1bc a395 943b
00000290: d9cd 48bb b44d bcba d1c0 393b 32d1 c43c
000002a0: e362 353c 89ad 133c c266 7fbb 7af3 ae3c
000002b0: 9235 2cbb 1cf0 b3bc 6ef8 9739 78a5 7fbc
000002c0: 7377 a73c c013 f9bc b404 b93c 20b2 1ebb
000002d0: 60cc 433b ae1a 6c3b d11b 003c 1464 863c
000002e0: 231a 13bc c8c3 893b fcd7 b73c f615 71bc
000002f0: 1fab 573b 6521 09bc 5fd8 b1bb dbe1 9e3c
00000300: 327e 703c f58a d8bc 8449 8ebc 6f4f 953b
00000310: fa9a 8dbc 80fa 18ba a485 cf3c 1ba7 9dbb
00000320: af59 38bc d879 49bc 1785 84bb befc 92bc
00000330: 28af 29bd 6bc9 963c 0282 cc3b b678 183b
00000340: c57b 8c3c 0a64 96bc fda3 b53c 7711 1abc
00000350: 2be6 593c a1a0 86bc 1c99 9f3c d895 80bb
00000360: 951b f13b 4f89 06bc addf 94bb 2d24 99bb
00000370: 415c 9f3b 283e 3ebb d5fa 56bb 3e2f 2abc
00000380: e1af 92bb b0de 0a3c 8f07 fa37 cdf5 59bc
00000390: 98ef 8d3c 5b1e 66bc 34b8 793b d7db 6abc
000003a0: 8968 ac3a 620e 693b 8d3c b2bc 7d4c ddbb
000003b0: 454d 14bb 7748 363c 1083 43bc d822 353c
000003c0: 5bac 94bc 2ef4 93bc 5030 04bb 2961 91bc
000003d0: 74d0 2dba 77cc b33b fdd6 80bc 4740 b63c
000003e0: 8d97 6a3c f950 c63c 0e65 6f3b 1359 12bb
000003f0: dd4e 413c b484 30bc 97ca e33c 2e10 5c39

weight f4 [256, 19]
0.079980984 -0.036377385 -0.37529156 0.4287751 0.13778959 0.19947654 -0.27414408 -0.22433423
0.10741185 0.25675783 0.35001597 0.05679447 -0.3587657 -0.106529444 0.12081461 -0.044346783
0.020855369 -0.38747078 -0.27328187 -0.17086606 0.2916813 -0.22742775 -0.010714809 0.10539635
-0.086164236 0.20917131 0.13193601 -0.11097928 -0.028636063 -0.31934792 -0.27521345 -0.36143705
-0.10219347 -0.27402914 0.2845384 0.18433058 -0.15699163 -0.30975345 0.0076787528 -0.015349632
-0.32734272 -0.06216491 0.170636 -0.15400463 0.107504316 0.23263696 0.014118593 0.34362146
-0.10666227 -0.43809068 0.030634101 0.21464635 -0.22259212 -0.022024186 -0.24441297 0.38771033
-0.12087412 0.29213262 -0.073315345 0.1380249 0.043545987 0.31980327 0.12653129 0.40564263
0.22505112 -0.08694377 -0.042947743 0.079759665 0.05144438 -0.37451178 -0.2713727 0.0883439
0.07947761 0.15753251 -0.2353106 0.70367765 0.25142214 0.034457274 -0.4030379 0.04121241
-0.026791548 -0.08106801 -0.17890787 0.03403521 0.13143721 0.30948278 -0.15058456 0.04084501
-0.34085903 0.5709537 -0.0673629 0.2942471 -0.12248258 -0.17072405 0.25036842 0.06961618
0.06966987 -0.011484991 0.22538118 0.36255696 0.14074807 0.064797215 -0.2108581 0.61350495
-0.15877815 -0.25987765 0.31224838 -0.19207586 0.19131203 -0.1727111 -0.061907858 -0.2922046
-0.28882846 0.2163119 0.04959347 -0.37460455 -0.16660608 0.0029671693 -0.28601757 -0.29055962
0.44864464 0.009187467 -0.062008787 -0.20886986 -0.086836256 0.31387773 -0.2168093 0.2951833
0.2866926 0.17627257 0.0855478 0.16589692 0.055115804 -0.23706308 0.028122688 0.022079535
0.10917646 0.0018164711 -0.00067651505 0.058770057 -0.26829493 0.39281657 -0.20659561 0.014395112
0.31528434 0.33769485 0.18860647 -0.17793736 -0.17703173 0.20941786 -0.4537625 -0.027320221
-0.17598799 0.16574311 -0.05854169 0.16643775 -0.06208429 0.023614628 0.38377726 -0.23082462
-0.344953 0.14455843 -0.23948799 0.24993716 0.38565063 0.28228512 -0.32394838 -0.13174771
-0.12261691 0.008160192 0.10351276 0.26019534 -0.10525277 0.13996097 0.06048936 0.07060533
0.13929681 -0.27958867 0.16815852 -0.002877832 -0.387488 0.29793945 -0.3634565 0.09030017
-0.18324737 0.05760209 0.1425646 -0.54240966 -0.07068713 -0.07898116 0.381043 -0.29552814
-0.23608942 -0.13947587 0.0036633785 0.41667786 -0.019880747 0.18057223 0.3152562 0.052237038
-0.06675123 0.06743986 -0.028059043 -0.0033597094 0.40678912 0.102716945 -0.39138874 0.102704115
-0.13133632 -0.26883504 0.3034813 -0.58695173 0.4897368 0.1595546 -0.1549799 0.060864378
0.08148884 0.3322129 -0.0015914298 0.012144699 0.062658034 -0.31680557 0.021645993 0.017648116
-0.1123523 0.08496947 -0.20922443 0.06525836 0.22460963 -0.4683224 -0.09380045 -0.08677898
0.10962548 0.085458994 0.11880248 0.42983383 0.037310027 -0.032365646 -0.0952725 -0.21503723
0.106777795 0.1309982 -0.1344527 -0.25129053 0.46076152 -0.16432145 0.18201481 0.16381927
-0.07785378 -0.13043527 -0.16725606 0.22623461 0.08114021 -0.25292546 -0.19181472 0.15871292
00000000: 12cd a33d 7400 15bd 3726 c0be 6988 db3e
00000010: b718 0d3e 9443 4c3e 9d5c 8cbe dfb7 65be
00000020: befa db3d c375 833e 4b35 b33e 51a1 683d
00000030: 23b0 b7be 1c2c dabd a66d f73d f9a4 35bd
00000040: e1d8 aa3c 9262 c6be 9aeb 8bbe 83f7 2ebe
00000050: 4057 953e d2e2 68be 2b8d 2fbc 0bda d73d
00000060: e076 b0bd 0131 563e 3c1a 073e 1b49 e3bd
00000070: 2d96 eabc 9281 a3be c7e8 8cbe 470e b9be
00000080: cf4a d1bd 8c4d 8cbe 04af 913e 28c1 3c3e
00000090: 6ac2 20be 0198 9ebe 0c9e fb3b 067d 7bbc
000000a0: 7799 a7be a2a0 7ebd 34bb 2e3e 64b3 1dbe
000000b0: 392b dc3d 6238 6e3e ac51 673c 27ef af3e
000000c0: c071 dabd 6c4d e0be 5ef4 fa3c 41cc 5b3e
000000d0: 30ef 63be 116c b4bc 6547 7abe f881 c63e
000000e0: da8c f7bd 6892 953e 5b26 96bd 6656 0d3e
000000f0: 475d 323d 41bd a33e 6b91 013e 64b0 cf3e
00000100: cd73 663e 930f b2bd f9e9 2fbd 0959 a33d
00000110: 58b7 523d 02c0 bfbe 5df1 8abe a6ed b43d
00000120: 28c5 a23d 3450 213e 43f5 70be 3824 343f
00000130: 67ba 803e 1223 0d3d fc5a cebe 58ce 283d
00000140: f379 dbbc fc06 a6bd a033 37be 8168 0b3d
00000150: 7a97 063e 8774 9e3e d732 1abe 194d 273d
00000160: 1385 aebe 062a 123f 8ff5 89bd 8ea7 963e
00000170: 26d8 fabd 49d2 2ebe 4a30 803e ee92 8e3d
00000180: 14af 8e3d 8b2b 3cbc 53ca 663e 11a1 b93e
00000190: 4320 103e 67b4 843d 30eb 57be a90e 1d3f
000001a0: bd96 22be af0e 85be 05df 9f3e 89af 44be
000001b0: 4de7 433e 2edb 30be 1893 7dbd d79b 95be
000001c0: 53e1 93be de80 5d3e 8622 4b3d 2bcc bfbe
000001d0: c99a 2abe d774 423b e570 92be 3bc4 94be
000001e0: c0b4 e53e 0887 163c edfc 7dbd fbe1 55be
000001f0: 35d7 b1bd 95b4 a03e 4203 5ebe 4422 973e
00000200: 5fc9 923e cc80 343e af33 af3d e2e0 293e
00000210: 1cc1 613d aac0 72be 8d61 e63c 24e0 b43c
00000220: e897 df3d a816 ee3a 2858 31ba dfb8 703d
00000230: f45d 89be 411f c93e cd8d 53be 7ad9 6b3c
00000240: f36c a13e 57e6 ac3e 0e22 413e 3635 36be
00000250: ce47 35be a371 563e 8f53 e8be a8ce dfbc
00000260: 3236 34be 90b8 293e 69c9 6fbd a86e 2a3e
00000270: 194c 7ebd 7773 c13c 747e c43e 4a5d 6cbe
00000280: ae9d b0be 2007 143e 573c 75be 87ef 7f3e
00000290: 0074 c53e ad87 903e 90dc a5be dfe8 06be
000002a0: 931e fbbd 53b2 053c 7ffe d33d 5338 853e
000002b0: c48e d7bd ee51 0f3e b1c3 773d 8799 903d
000002c0: d3a3 0e3e 3f26 8fbe bf31 2c3e 029a 3cbb
000002d0: d464 c6be 858b 983e f816 babe 4cef b83d
000002e0: 33a5 3bbe 2bf0 6b3d 74fc 113e 5cdb 0abf
000002f0: 6ac4 90bd e0c0 a1bd 1118 c33e 774f 97be
00000300: 6dc1 71be c3d2 0ebe 4b15 703b cd56 d53e
00000310: f3dc a2bc ede7 383e 4369 a13e 81f6 553d
00000320: deb4 88bd e91d 8a3d 14dc e5bc 922e 5cbb
00000330: aa46 d03e 435d d23d 1b64 c8be 8956 d23d
00000340: 077d 06be bfa4 89be e761 9b3e 7842 16bf
00000350: c8be fa3e 4862 233e 0db3 1ebe ed4c 793d
00000360: 9fe3 a63d cf17 aa3e 8697 d0ba 8ffa 463c
00000370: db52 803d 5734 a2be f052 b13c c892 903c
00000380: f618 e6bd 7904 ae3d ee3e 56be 2da6 853d
00000390: 1100 663e f4c7 efbe 731a c0bd 2eb9 b1bd
000003a0: 5383 e03d 2005 af3d b74e f33d 2e13 dc3e
000003b0: 66d2 183d d791 04bd 3a1e c3bd b832 5cbe
000003c0: 51ae da3d 6424 063e f8ad 09be 27a9 80be
000003d0: efe8 eb3e e243 28be 1762 3a3e 3dc0 273e
000003e0: cd71 9fbd d390 05be 2c45 2bbe 0caa 673e
000003f0: d72c a63d 727f 81be 146b 44be a485 223e

bias f4 [256]
-0.01911074 0.01017354 0.08748065 -0.019823367 -0.023881834 -0.019335236 0.041330226 -6.56883e-05
0.031972438 -0.08793903 -0.058684897 0.019412076 -0.08592408 -0.032391388 -0.009962223 0.00615029
0.056573935 -0.0012986906 -0.093799315 0.09690512 -0.047988016 0.010273138 -0.071179114 0.11409554
0.04452916 0.13155016 -0.011144385 -0.04984191 0.011803231 0.0089733815 -0.008237991 0.018959058
0.049407095 -0.054469444 -0.04366251 0.030803267 0.039436065 0.07544027 0.016972708 -0.08345342
-0.050023925 -0.04329902 0.010192128 -0.0036726652 0.08498154 -0.04818365 -0.036830235 0.007386119
0.10836756 -0.004879839 -0.016726254 0.0094699515 -0.015654257 -0.0757836 -0.06501423 0.0
0.0128956735 0.107779376 -0.03937469 0.016051797 0.053868487 0.003636395 0.061382655 -0.011847282
0.011482621 0.0 -0.0028502792 0.08712076 0.026131317 0.0 0.034671325 -0.17366058
-0.08308874 0.015893668 0.009225627 0.016335005 -0.12290516 0.0 -0.015852896 -0.048332613
-0.07487057 -0.017541213 0.019117545 -0.08106712 0.06829518 -0.036086604 0.037293267 0.010704432
0.0088445805 0.08711172 0.0132084405 0.0047355816 -0.01279335 0.024969708 -0.06384221 -0.1270048
0.060705572 -0.057027873 0.008392715 -0.02180323 0.0088954 0.0 0.12622032 -0.12047075
0.039336033 0.076186605 0.02324631 0.03491643 -0.09790969 -0.038726155 -0.012967991 0.073861815
0.0648893 0.042712774 -0.05058314 0.066073686 0.0631447 0.07609689 -0.09445401 -0.050586484
-0.139355 -0.11823284 0.10670356 -0.09153735 -0.047638997 0.00415622 0.116272025 0.0184993
-0.02008459 7.859667e-05 -0.009507542 0.053209815 0.0 0.022938142 0.15846443 -0.12654918
0.0016921655 0.0083938 -0.00016022091 0.0 -0.0073565375 -0.0172283 -0.07018057 0.05432487
-0.070994586 0.030861625 -0.0046989396 0.040368475 0.020097857 0.033707384 -0.041967686 0.035210636
0.022906765 -0.06833253 -0.109734595 -0.057633847 -0.01878414 0.09803547 0.07587501 0.034297157
-0.010766586 0.06669718 -0.018707423 -0.024618248 0.0032448708 0.00020204966 -0.004368755 -0.06832167
-0.021197354 -0.015074278 0.06191734 0.06390302 0.010361687 -0.08671101 -0.046824332 -0.087921955
-0.037965093 -0.017808307 0.013049041 0.008028967 0.0 -0.042227946 -0.11865763 0.024976606
-0.00084175717 -0.033230472 0.03200685 -0.09463909 -0.058281917 -0.11961362 -0.1316089 0.081650265
-0.00977186 -0.038809974 0.0639995 0.1319261 0.036189593 -0.013571882 -0.031777505 0.041009046
-0.04689653 0.110596426 0.0 -0.046926532 0.0 0.07573937 -0.01743861 0.03250448
0.06542586 0.028557736 -0.06912099 -0.05222487 -0.037892457 0.005302604 0.009978245 -0.0113088405
-0.016172329 0.01432862 0.13066462 0.019108295 -0.061159223 0.01628054 0.024934318 0.00921211
0.08477384 -0.06294502 0.11668414 -0.058091074 -0.107653424 -0.08342143 -0.09738186 0.023332883
-0.08406461 0.029184537 0.034552444 -0.018792935 0.023062589 -0.0021675553 -0.083692215 -0.015205656
2.016892e-05 -0.074482456 0.017019307 -0.04211482 -0.06371681 0.008888889 -0.075639695 -0.039460286
0.005889055 -0.000782669 -0.053622343 -0.026362421 0.037111036 -0.0066826222 0.017762458 -0.031988587
00000000: 208e 9cbc ebae 263c 0e29 b33d 9d64 a2bc
00000010: d6a3 c3bc ee64 9ebc e249 293d 23c2 89b8
00000020: 88f5 023d 6119 b4bd 935f 70bd 1306 9f3c
00000030: f7f8 afbd d5ac 04bd 9738 23bc 5f88 c93b
00000040: 12ba 673d d338 aaba db19 c0bd 3176 c63d
00000050: 158f 44bd aa50 283c 5bc6 91bd ecaa e93d
00000060: 3564 363d 16b5 063e f096 36bc 0827 4cbd
00000070: 5762 413c 1705 133c a3f8 06bc 0750 9b3c
00000080: 185f 4a3d 5a1b 5fbd 76d7 32bd 2257 fc3c
00000090: b687 213d 6e80 9a3d 590a 8b3c a0e9 aabd
000000a0: e3e5 4cbd 505a 31bd e2fc 263c 19b1 70bb
000000b0: cd0a ae3d 385c 45bd 4ddb 16bd 4207 f23b
000000c0: d0ef dd3d 0ee7 9fbb 7f05 89bc db27 1b3c
000000d0: 5b3d 80bc 6f34 9bbd 2e26 85bd 0000 0000
000000e0: 6048 533c 6fbb dc3d 5b47 21bd 0f7f 833c
000000f0: 34a5 5c3d 9650 6e3b 616c 7b3d 1a1b 42bc
00000100: 9a21 3c3c 0000 0000 c0cb 3abb 5e6c b23d
00000110: 5811 d63c 0000 0000 8503 0e3d 14d4 31be
00000120: 6e2a aabd 7033 823c 1627 173c fdd0 853c
00000130: b3b5 fbbd 0000 0000 efdd 81bc 6bf8 45bd
00000140: be55 99bd 97b2 8fbc 669c 9c3c 8506 a6bd
00000150: 58de 8b3d 8ccf 13bd d3c0 183d a461 2f3c
00000160: dce8 103c a167 b23d 3768 583c f02c 9b3b
00000170: 339b 51bc 468d cc3c b4bf 82bd 8c0d 02be
00000180: 68a6 783d 0f96 69bd 9981 093c b09c b2bc
00000190: 03be 113c 0000 0000 e63f 013e 5eb9 f6bd
000001a0: d21e 213d b907 9c3d 0c6f be3c 8804 0f3d
000001b0: e084 c8bd 519f 1ebd b277 54bc dd44 973d
000001c0: aee4 843d 97f3 2e3d 4430 4fbd a451 873d
000001d0: 0252 813d b0d8 9b3d 1b71 c1bd c633 4fbd
000001e0: 14b3 0ebe 0f24 f2bd 6587 da3d ef77 bbbd
000001f0: 1c21 43bd e630 883b 0720 ee3d d88b 973c
00000200: 7088 a4bc 44d4 a438 85c5 1bbc 89f2 593d
00000210: 0000 0000 c5e8 bb3c 8044 223e 1c96 01be
00000220: a7cb dd3a 2686 093c f900 28b9 0000 0000
00000230: 1c0f f1bb 5d22 8dbc d5ba 8fbd c183 5e3d
00000240: 9c65 91bd 85d1 fc3c 90f9 99bb 6a59 253d
00000250: 43a4 a43c c110 0a3d 4fe6 2bbd 0739 103d
00000260: f8a6 bb3c edf1 8bbd 88bc e0bd 7811 6cbd
00000270: 32e1 99bc d2c6 c83d 5b64 9b3d 2d7b 0c3d
00000280: 5666 30bc 8898 883d 4f40 99bc 35ac c9bc
00000290: e6a7 543b 4bdd 5339 c627 8fbb 3bec 8bbd
000002a0: 13a6 adbc 1bfa 76bc 099d 7d3d 96df 823d
000002b0: 11c4 293c 8b95 b1bd dfca 3fbd 6d10 b4bd
000002c0: 4981 1bbd bae2 91bc a5cb 553c ee8b 033c
000002d0: 0000 0000 36f7 2cbd c602 f3bd bd9b cc3c
000002e0: 5ea9 5cba ad1c 08bd 9d19 033d 24d2 c1bd
000002f0: 05b9 6ebd fcf7 f4bd 7cc4 06be 4138 a73d
00000300: 271a 20bc 35f7 1ebd 2b12 833d a317 073e
00000310: 8a3b 143d 995c 5ebc 2129 02bd 1af9 273d
00000320: 9316 40bd 6180 e23d 0000 0000 0936 40bd
00000330: 0000 0000 3e1d 9b3d 6adb 8ebc 6b23 053d
00000340: fefd 853d eaf1 e93c 4e8f 8dbd bfe9 55bd
00000350: 1f35 1bbd 77c1 ad3b cb7b 233c b748 39bc
00000360: d57b 84bc 97c2 6a3c f2cc 053e 0089 9c3c
00000370: 1882 7abd c45e 853c 0e43 cc3c 64ee 163c
00000380: e89d ad3d 52e9 80bd 18f8 ee3d e8f0 6dbd
00000390: 6679 dcbd dbd8 aabd 2470 c7bd 9a24 bf3c
000003a0: 112a acbd 6914 ef3c dd86 0d3d a4f3 99bc
000003b0: c1ed bc3c 8b0d 0ebb d366 abbd 2521 79bc
000003c0: 6d30 a937 428a 98bd 136c 8b3c 9780 2cbd
000003d0: f57d 82bd b4a2 113c fce8 9abd 1ca1 21bd
000003e0: f9f8 c03b 072c 4dba 1aa3 5bbd 01f6 d7bc
000003f0: be01 183d e6f9 dabb 9382 913c 7706 03bd
