trained_policies/learner/module_state/mr_x_policy/module_state_dir/module_state.pt (torch, 559234 bytes, 11 tensors)

encoder.actor_encoder.net.mlp.0.weight f4 [256, 10]
-0.00684948 0.024652466 -0.065507226 0.1393742 0.11712805 -0.20115647 0.20914203 -0.12442326
-0.24810031 -0.1403097 0.3021904 -0.16498795 0.27402127 0.32623705 0.17196274 0.28075004
0.18811296 -0.07323667 0.07524579 0.063290514 0.2640893 -0.23023233 0.25375813 -0.27079248
-0.024930667 0.0020351138 0.23767523 -0.2188173 -0.13380249 0.13002378 0.20222698 0.18713672
0.17616296 -0.0016534771 0.21007979 0.30232874 -0.16315201 0.21903773 0.2813579 0.09017638
-0.30044848 0.0225504 0.28216895 -0.02517082 0.2898877 -0.17250127 0.21637486 0.09209918
-0.21522212 -0.25259238 -0.21010911 -0.22741933 -0.018869933 0.16944064 0.026302688 -0.06790562
-0.27393955 0.20903109 0.18483363 0.020206228 0.1973002 0.120662436 0.26829943 -0.05807597
0.113585606 0.2531854 -0.21629336 -0.2173974 0.06588025 0.24109732 0.20237282 -0.031989735
0.25167537 -0.24343821 -0.25901282 0.22200634 -0.0668236 0.23887064 0.16976956 0.06986121
-0.025271123 -0.11581414 0.19183175 -0.04139554 0.31106904 -0.083867826 0.14684047 -0.045445602
-0.044995368 -0.21756278 0.24773607 -0.27268806 0.19984274 0.18430424 -0.15240446 0.22703232
-0.08205416 0.078815155 -0.08191584 -0.06999631 0.04989608 0.014481906 -0.22161753 0.08155452
-0.269255 -0.099539466 -0.272281 -0.108665355 -0.08130505 0.26740232 0.14530385 -0.24465905
0.04239105 -0.05809104 -0.13167854 0.28471777 -0.14954661 0.21356227 -0.04540632 -0.011089242
-0.11872094 0.12764947 -0.3047952 0.29418412 -0.034371823 0.29430458 -0.20734376 0.2640718
0.013658447 0.21564728 0.29379904 0.018439637 -0.013250329 0.067301154 0.3047926 -0.25486797
-0.26365757 0.014781545 0.26930085 0.08073339 -0.006729081 -0.17061259 -0.23094228 0.2839541
-0.10848745 0.010747754 0.2071679 -0.042083956 0.08278688 -4.8608646e-05 -0.13693395 -0.25230372
0.2069929 0.24825756 0.16077337 0.30971137 0.31015176 -0.29021648 0.06941517 -0.15739578
-0.12141967 -0.26381934 -0.00782054 -0.2958132 0.21725176 -0.07104532 0.27043375 -0.31122148
-0.2736944 -0.19235305 -0.07142492 0.10359135 0.22172992 0.20125598 -0.051744048 -0.072522186
0.10360904 0.0032498979 -0.1391761 -0.3095718 -0.30895564 0.27834713 -0.1606457 0.28931075
0.07953529 -0.15567498 -0.14207825 0.149524 0.3038478 0.020985538 -0.0836434 -0.13701335
-0.18695495 -0.04797374 -0.17390604 0.22054984 -0.28733417 -0.278129 0.071883895 0.27615657
0.25713012 0.18869229 0.059536953 -0.027711375 -0.0704905 -0.24584956 -0.013587277 -0.07034161
-0.011170735 -0.26396006 -0.013085034 -0.31584266 -0.008637407 -0.17306648 -0.32510847 0.20693155
0.01328031 0.19304737 -0.23186404 0.12301107 0.23889178 -0.051923167 -0.1442074 0.20462637
0.0035312807 0.19627486 0.20270362 0.12644123 0.31627783 0.23576863 -0.06372929 -0.024687042
-0.12035527 0.01241609 -0.036099758 -0.25338656 -0.27429345 -0.09431096 0.040470514 -0.002558286
-0.08738648 0.15162829 0.12922202 -0.16591991 0.075165965 -0.12040304 0.26329082 -0.31581086
-0.22918402 0.24288231 -0.28063256 0.17406341 -0.11920966 0.2657757 -0.24766126 -0.13745359
00000000: 9a71 e0bb f8f3 c93c a728 86bd 1cb8 0e3e
00000010: d5e0 ef3d f6fb 4dbe 5429 563e 9fd1 febd
00000020: 020e 7ebe 59ad 0fbe b3b8 9a3e 9af2 28be
00000030: 844c 8c3e 8b08 a73e 0017 303e 78be 8f3e
00000040: afa0 403e 1bfd 95bd 771a 9a3d 759e 813d
00000050: b636 873e 06c2 6bbe 96ec 813e 50a5 8abe
00000060: 663b ccbc 8b5f 053b 2361 733e a411 60be
00000070: 8503 09be f424 053e 9714 4f3e c5a0 3f3e
00000080: 1064 343e 7cb9 d8ba 281f 573e d5ca 9a3e
00000090: 5211 27be 6d4b 603e 250e 903e 65ae b83d
000000a0: 62d4 99be 9ebb b83c 7378 903e 0933 cebc
000000b0: 296c 943e 2ca4 30be 5f91 5d3e 7f9e bc3d
000000c0: 3063 5cbe ca53 81be d826 57be 9de0 68be
000000d0: 1e95 9abc d981 2d3e bc78 d73c 1a12 8bbd
000000e0: ce41 8cbe 3f0c 563e 0745 3d3e 8887 a53c
000000f0: 1009 4a3e de1d f73d 8b5e 893e 11e1 6dbd
00000100: 929f e83d 84a1 813e 027c 5dbe 6d9d 5ebe
00000110: 39ec 863d 37e2 763e d23a 4f3e ab07 03bd
00000120: 98db 803e de47 79be 549d 84be a155 633e
00000130: d0da 88bd 819a 743e 12d8 2d3e 6513 8f3d
00000140: 6305 cfbc f72f edbd 8b6f 443e 5f8e 29bd
00000150: 7144 9f3e e5c2 abbd 595d 163e 2b25 3abd
00000160: 104d 38bd c7c8 5ebe 86ae 7d3e c59d 8bbe
00000170: 93a3 4c3e 40ba 3c3e ea0f 1cbe 297b 683e
00000180: 030c a8bd d769 a13d 7ec3 a7bd 3a5a 8fbd
00000190: d55f 4c3d 8445 6d3c b5ef 62be 0e06 a73d
000001a0: cbdb 89be 59db cbbd 6a68 8bbe f18b debd
000001b0: 4383 a6bd f5e8 883e 88ca 143e e787 7abe
000001c0: 3da2 2d3d dff0 6dbd bdd6 06be 87c6 913e
000001d0: bf22 19be 11b0 5a3e fafb 39bd a7af 35bc
000001e0: f723 f3bd 8bb6 023e 1e0e 9cbe 4d9f 963e
000001f0: 78c9 0cbd 17af 963e ec51 54be 6b34 873e
00000200: aec7 5f3c a4d2 5c3e d46c 963e b90e 973c
00000210: e817 59bc 30d5 893d c70d 9c3e 0e7e 82be
00000220: 20fe 86be 4b2e 723c cde1 893e 8c57 a53d
00000230: 9f7f dcbb 11b5 2ebe 227c 6cbe 6f62 913e
00000240: ab2e debd 5917 303c d223 543e 3a60 2cbd
00000250: 2b8c a93d 23e1 4bb8 6a38 0cbe f42d 81be
00000260: f2f5 533e 3b37 7e3e c6a1 243e 7d92 9e3e
00000270: 36cc 9e3e 4197 94be 8a29 8e3d 5c2c 21be
00000280: e0aa f8bd 5413 87be b921 00bc d474 97be
00000290: 3f77 5e3e 3580 91bd 4b76 8a3e 6c58 9fbe
000002a0: ac21 8cbe 33f8 44be 3a47 92bd b427 d43d
000002b0: 2b0d 633e 0c16 4e3e 91f1 53bd 8386 94bd
000002c0: fa30 d43d 3dfc 543b 2e84 0ebe 3280 9ebe
000002d0: 6f2f 9ebe 8483 8e3e 4e80 24be 8a20 943e
000002e0: 66e3 a23d 4369 1fbe f67c 11be d21c 193e
000002f0: f091 9b3e dde9 ab3c 3b4d abbd 3a4d 0cbe
00000300: 1e71 3fbe 1d80 44bd 6d14 32be d1d7 613e
00000310: 771d 93be ed66 8ebe dd37 933d 6564 8d3e
00000320: 8fa6 833e 8d38 413e 05dd 733d f702 e3bc
00000330: 535d 90bd fdbf 7bbe 2c9d 5ebc 430f 90bd
00000340: 7505 37bc c625 87be 9c62 56bc 21b6 a1be
00000350: e983 0dbc 5738 31be 9e74 a6be dde5 533e
00000360: a895 593c 36ae 453e c46d 6dbe 3aed fb3d
00000370: 0ca0 743e 63ad 54bd 1bab 13be 9389 513e
00000380: 0f6d 673b 47fc 483e 8a91 4f3e cf79 013e
00000390: 2bef a13e 556d 713e 8184 82bd 7b3c cabc
000003a0: d37c f6bd db6c 4b3c 57dd 13bd e2bb 81be
000003b0: 3170 8cbe 1b26 c1bd 69c4 253d eba8 27bb
000003c0: aff7 b2bd 7244 1b3e c752 043e e9e6 29be
000003d0: 9df0 993d de95 f6bd 0ece 863e f6b1 a1be
000003e0: 37af 6abe 24b6 783e 12af 8fbe ae3d 323e
000003f0: 3224 f4bd c113 883e ea9a 7dbe a2c0 0cbe

encoder.actor_encoder.net.mlp.0.bias f4 [256]
0.08289051 -0.2024361 0.1955957 -0.2635882 0.271983 -0.025822567 -0.0044993525 0.30547348
0.11097963 -0.10552248 0.14599256 0.28940588 0.30646542 -0.24360293 -0.015010593 0.1663059
0.326293 -0.1964514 -0.06120146 -0.014283329 -0.15610625 -0.2730619 -0.30753115 -0.1234779
-0.019394739 0.013951178 0.16002864 0.08414876 -0.1751391 -0.248511 0.12208644 -0.16034992
-0.22886342 -0.23137091 0.1965296 -0.17073682 -0.19134592 0.2884189 -0.106293105 -0.12390123
-0.26550204 -0.13167708 -0.067640215 0.037329383 0.011731156 0.25324145 0.2268495 -0.15661074
0.17312601 -0.22037189 -0.005738354 -0.13875327 -0.21395488 -0.040264122 0.33868438 -0.10418304
-0.112079486 0.08002934 0.1758938 0.2171516 -0.22093591 -0.12937191 -0.22441779 -0.2596715
0.11848595 0.094552025 0.08807888 0.055023048 -0.24449712 0.2787827 -0.088972874 -0.23187089
0.03933188 -0.17762782 -0.08105394 -0.27905664 0.15630879 -0.28574324 0.0701812 0.16162713
-0.1414073 0.10581511 0.26406175 0.2660431 -0.0051433356 0.06102397 0.07445047 0.06365728
0.1804603 0.03265689 -0.2805284 -0.13026276 0.095911026 -0.11190644 -0.24827404 0.21704876
-0.22137843 0.30033 0.0050574797 -0.20468247 0.24421261 -0.2876751 -0.3035793 0.30609885
0.24812107 -0.20722936 -0.30349874 0.058297396 0.2758887 0.025445363 0.12810524 0.02253504
0.10034881 0.19778746 -0.0082131475 -0.27119386 0.1201095 0.2969901 0.07597121 0.23911437
-0.20517622 -0.018994423 -0.108748406 0.20142634 0.20232445 0.040282592 0.22451238 -0.00087917486
0.1441531 -0.2963235 -0.110667 -0.16613649 -0.33017907 -0.046692967 0.21697903 0.23824571
0.091455474 -0.0036573536 0.21407919 0.0321116 0.24389145 0.16834429 0.03150348 -0.27601025
0.019914143 -0.24650027 0.2684845 0.13226329 0.28879657 -0.020472579 0.03455547 -0.09538837
-0.2181819 -0.026844908 -0.10226937 -0.1349832 -0.10174004 -0.19249061 0.04713555 0.14638954
-0.036904097 0.079023756 -0.21604796 -0.014547051 -0.07262059 0.31106368 0.16837473 -0.20020919
0.19724515 -0.14789625 -0.1236721 -0.21495149 0.19284984 0.12255092 -0.21698898 -0.20277274
0.06333231 -0.31808499 0.045692503 0.04247886 0.15984213 -0.008840455 -0.19120382 0.1601573
0.19814616 -0.2739343 0.11564895 0.052386507 0.29455918 0.01355006 0.022383753 0.26074675
0.037460323 0.068776846 0.1113192 0.23826478 -0.17828575 0.0275371 0.30890477 -0.07539906
0.20318761 0.32395136 0.2705087 0.28784287 -0.112650245 0.011206809 0.14326619 -0.27651918
-0.03910392 -0.1324203 0.014886172 -0.070040174 0.06518731 -0.118607566 0.25170308 -0.28850707
0.024770034 0.3140455 0.3276044 -0.1884119 -0.21619791 -0.020273011 0.26137763 0.17596614
-0.09083811 -0.16970563 0.04360097 0.15696649 0.2862615 0.10766201 -0.14173383 -0.27907947
0.11921163 -0.23710546 0.29206112 -0.009993845 -0.029314797 0.016155677 -0.20955066 0.08496683
0.1733301 -0.08838877 -0.0038962788 0.102497734 -0.06512175 0.269823 -0.2825029 0.12490372
0.11429586 0.08306171 0.22485778 -0.11104593 -0.14941241 -0.19536938 0.031066874 0.013601122
00000000: 80c2 a93d 694b 4fbe 3d4a 483e 08f5 86be
00000010: 5b41 8b3e d989 d3bc 4e6f 93bb 0567 9c3e
00000020: 4a49 e33d 2c1c d8bd 137f 153e 022d 943e
00000030: 09e9 9c3e 0c73 79be feee 75bc 184c 2a3e
00000040: e00f a73e 8e2a 49be 62ae 7abd a004 6abc
00000050: 51da 1fbe c5ce 8bbe b974 9dbe fbe1 fcbd
00000060: b7e1 9ebc 7b93 643c 8cde 233e 2f56 ac3d
00000070: aa57 33be ab79 7ebe 7508 fa3d c532 24be
00000080: 2c5b 6abe 7fec 6cbe 0e3f 493e a2d5 2ebe
00000090: 2ff0 43be a4ab 933e 33b0 d9bd eebf fdbd
000000a0: e2ef 87be 5bd6 06be f486 8abd b2e6 183d
000000b0: 0934 403c dda8 813e 3c4b 683e 915e 20be
000000c0: f247 313e 2ba9 61be cd08 bcbb 5615 0ebe
000000d0: fd16 5bbe feeb 24bd 0a68 ad3e eb5d d5bd
000000e0: ee89 e5bd 6ce6 a33d 811d 343e fd5c 5e3e
000000f0: 063d 62be 127a 04be c7cd 65be aaf3 84be
00000100: c3a8 f23d 7ea4 c13d b362 b43d d95f 613d
00000110: 745d 7abe 9bbc 8e3e 6937 b6bd 906f 6dbe
00000120: 771a 213d 11e4 35be 9cff a5bd 83e0 8ebe
00000130: 690f 203e f04c 92be 29bb 8f3d 9581 253e
00000140: 13cd 10be 98b5 d83d 1a33 873e cd36 883e
00000150: 6d89 a8bb 45f4 793d 7d79 983d bf5e 823d
00000160: 96ca 383e 3bc3 053d 6ba1 8fbe 9a63 05be
00000170: 006d c43d 342f e5bd 8d3b 7ebe 0842 5e3e
00000180: 07b1 62be dbc4 993e 37b9 a53b 4898 51be
00000190: df12 7a3e 274a 93be bf6e 9bbe fdb8 9c3e
000001a0: 7313 7e3e ef33 54be 3064 9bbe 40c9 6e3d
000001b0: 4941 8d3e cb72 d03c 052e 033e 679b b83c
000001c0: ad83 cd3d cc88 4a3e 7090 06bc ecd9 8abe
000001d0: f8fb f53d 160f 983e cb96 9b3d 66da 743e
000001e0: b719 52be 319a 9bbc 7cb7 debd b542 4e3e
000001f0: 242e 4f3e 5cff 243d 93e6 653e 6d78 66ba
00000200: df9c 133e b7b7 97be 61a5 e2bd af1f 2abe
00000210: 3b0d a9be 2041 3fbd c02f 5e3e aff6 733e
00000220: 024d bb3d 36b0 6fbb 9337 5b3e 7487 033d
00000230: aebe 793e 7262 2c3e cb09 013d 3751 8dbe
00000240: fc22 a33c 916a 7cbe cd76 893e 0770 073e
00000250: 25dd 933e 1cb6 a7bc 098a 0d3d fa5a c3bd
00000260: 136b 5fbe dae9 dbbc 9a72 d1bd 0939 0abe
00000270: 155d d0bd 421c 45be 3511 413d 24e7 153e
00000280: c028 17bd 35d7 a13d ad3b 5dbe c156 6ebc
00000290: 1bba 94bd bd43 9f3e 6d6a 2c3e a303 4dbe
000002a0: a2fa 493e 1d72 17be cc47 fdbd 3e1c 5cbe
000002b0: 6e7a 453e fafb fa3d 5c32 5ebe a8a3 4fbe
000002c0: 5fb4 813d 09dc a2be 1028 3b3d 50fe 2d3d
000002d0: a8ad 233e 8ed7 10bc efca 43be 4600 243e
000002e0: d4e6 4a3e 1e41 8cbe 5bd9 ec3d 3c93 563d
000002f0: 76d0 963e 1201 5e3c 225e b73c 9980 853e
00000300: ff6f 193d e0da 8c3d 52fb e33d affb 733e
00000310: 8a90 36be 7c95 e13c c428 9e3e d36a 9abd
00000320: 6a10 503e f4dc a53e 1e80 8a3e 2460 933e
00000330: 2cb5 e6bd c49c 373c 5fb4 123e ec93 8dbe
00000340: 6f2b 20bd 3099 07be 21e5 733c 3971 8fbd
00000350: ed80 853d 86e8 f2bd 3adf 803e 33b7 93be
00000360: 87ea ca3c 92ca a03e c4bb a73e 0def 40be
00000370: fc62 5dbe 9613 a6bc 4ad3 853e 7830 343e
00000380: 5509 babd 50c7 2dbe ee96 323d d3bb 203e
00000390: de90 923e e67d dc3d ac22 11be 81e3 8ebe
000003a0: 3a25 f43d c6cb 72be 0989 953e 39bd 23bc
000003b0: 9625 f0bc e958 843c 7394 56be 1703 ae3d
000003c0: 727d 313e 2c05 b5bd b658 7fbb 55ea d13d
000003d0: 8d5e 85bd 3e26 8a3e 38a4 90be 86cd ff3d
000003e0: f313 ea3d 421c aa3d 1e41 663e 0c6c e3bd
000003f0: 91ff 18be e90e 48be f57f fe3c 3ed7 5e3c

encoder.actor_encoder.net.mlp.2.weight f4 [256, 256]
-0.01032123 0.045092437 0.012618481 -0.0010589693 0.04143019 -0.052209336 -0.0020170833 -0.013329217
0.0038232058 -0.049874578 0.024139527 0.060279883 -0.010652331 0.03231525 0.028924951 -0.017379569
-0.011694726 -0.024266025 0.04384343 -0.04203313 0.0057151243 -0.031449582 -0.028256033 0.00820989
-0.056409165 -0.009308054 -0.01834701 0.008616785 -0.027064584 -0.025676543 0.023993853 0.011389195
-0.064199574 0.042635977 -0.06525706 0.03528606 0.000681126 0.0034764574 0.011993503 -0.05229881
-0.016781572 0.054410964 0.024091583 -0.014690435 0.05834268 -0.002762312 -0.035389975 -0.07740061
-0.03394245 -0.041517697 -0.00043061806 0.042750623 0.024679534 0.05656845 0.04830545 0.012529738
0.011970006 0.0075406223 0.059729964 -0.0015984089 0.0036747467 0.040137492 0.023201 0.020722806
0.024992537 -0.029953709 -0.015895342 -0.008049978 -0.04862072 0.004125339 0.048144232 -0.030694308
-0.05787599 -0.009192515 0.010048944 -0.026294313 0.0047611487 0.024274182 -0.041922946 0.008376659
-0.054597493 -0.07341043 0.04457304 0.0052603614 0.051753335 0.0108976 -0.042742 -0.014845297
-0.011584232 -0.02762948 -0.017072994 -0.024523634 0.02264495 -0.0077367923 -0.04696037 -0.049590316
0.0094246715 -0.028847307 0.01198287 -0.013725313 0.018590573 -0.05874788 0.04175409 -0.028143665
-0.044461966 -0.006714876 0.046000075 0.0013193558 0.028234648 0.02919207 0.06496849 -0.005184166
0.059954762 -0.03690245 0.040917337 0.027645871 -0.003487179 0.047002815 -0.016502425 0.014438157
0.05969088 -0.03908233 -0.021131761 0.05796992 0.025347417 0.050552756 0.013479253 -0.008686504
0.043474745 0.036290687 0.026012015 0.040073402 -0.05992411 0.05433906 0.04826212 -0.018310789
-0.009161239 -0.029878942 0.060246676 -0.046937667 0.012006333 -0.012417885 0.02879588 -0.013697087
-0.041038368 0.039346207 0.050552707 0.046661768 -0.0069056517 -0.017379373 -0.019476466 0.01684976
-0.06173508 0.042395137 0.047627516 0.006681617 -0.019705666 -0.024659608 0.04251949 -0.006327364
0.05152781 0.04113133 0.060433052 0.04737643 0.04298383 0.020264946 0.047437903 -0.02448572
0.037238367 -0.0266635 -0.018138433 0.041636504 -0.045665596 -0.040619597 -0.031197403 0.03362645
-0.02781619 -0.0026296468 0.006798045 -0.05319526 -0.00060273387 0.04033032 0.058383856 0.029332984
0.071082525 -0.03894714 -0.05322969 0.05815356 -0.04624424 -0.046133336 0.055073228 -0.04968726
0.0257872 -0.055301618 0.06118311 -0.04792975 0.060835548 -0.06883939 0.016815383 -0.022885457
0.036171995 -0.00538015 -0.008834522 0.0068558687 -0.006685926 0.019899005 0.03861106 -0.022432374
0.04929828 0.009103186 0.009524548 0.025407847 -0.045976866 -0.05195027 -0.019604566 0.046222635
0.007516295 -0.0032546385 0.058026157 0.018028375 0.033168826 -0.058348123 -0.09678726 0.0070604836
-0.008298991 0.0255268 -0.014193118 -0.0350676 0.02589415 -0.0005237057 -0.018536028 -0.044549268
0.030184029 0.02870686 0.00036771764 0.048472174 -0.005087349 -0.022614395 -0.00806226 -0.027218921
0.054813784 0.0017245081 0.058166962 0.02826743 -0.042679895 0.039058123 -0.061056778 0.0052854544
0.044083085 -0.009247795 0.020700185 -0.007639788 0.017782636 -0.029686496 -0.012050703 0.03302336
00000000: 601a 29bc d9b2 383d bfbd 4e3c 1dcd 8aba
00000010: b4b2 293d 75d9 55bd 0b31 04bb ca62 5abc
00000020: c08e 7a3b 4949 4cbd 42c0 c53c 0ae8 763d
00000030: 1d87 2ebc ff5c 043d 05f4 ec3c 995f 8ebc
00000040: 3c9b 3fbc 8bc9 c6bc 2b95 333d ee2a 2cbd
00000050: f045 bb3b 47d1 00bd 3279 e7bc c682 063c
00000060: 4c0d 67bd cf80 18bc 784c 96bc 6a2d 0d3c
00000070: 8cb6 ddbc 9d57 d2bc c28e c43c bf99 3a3c
00000080: 117b 83bd 10a3 2e3d 7ea5 85bd 1e88 103d
00000090: 988d 323a 47d5 633b 6680 443c 4737 56bd
000000a0: 8279 89bc 08de 5e3d b65b c53c 26b0 70bc
000000b0: bcf8 6e3d e807 35bb 14f5 10bd 3684 9ebd
000000c0: 3d07 0bbd 760e 2abd 94c4 e1b9 471b 2f3d
000000d0: bc2c ca3c 52b4 673d efdb 453d 8849 4d3c
000000e0: d81d 443c 5317 f73b 68a7 743d b481 d1ba
000000f0: 05d4 703b 3667 243d 0610 be3c e0c2 a93c
00000100: 26bd cc3c 7b61 f5bc f336 82bc 0ee4 03bc
00000110: 8526 47bd da2d 873b e332 453d a172 fbbc
00000120: 600f 6dbd 349c 16bc 53a4 243c 2c67 d7bc
00000130: 6903 9c3b a6da c63c 65b7 2bbd 413e 093c
00000140: 9fa1 5fbd 3558 96bd 3892 363d 1c5f ac3b
00000150: 4efb 533d d98b 323c 3c12 2fbd b039 73bc
00000160: cacb 3dbc 3857 e2bc aadc 8bbc cae5 c8bc
00000170: e781 b93c eb84 fdbb 8459 40bd 371f 4bbd
00000180: f069 1a3c 3051 ecbc cd53 443c 23e0 60bc
00000190: 424b 983c 9ea1 70bd 5606 2b3d 8b8d e6bc
000001a0: c01d 36bd 7608 dcbb 936a 3c3d 3cee ac3a
000001b0: 594c e73c 3524 ef3c 330e 853d f0df a9bb
000001c0: 2093 753d 0627 17bd f098 273d 9879 e23c
000001d0: 2889 64bb 0686 403d 1830 87bc 058e 6c3c
000001e0: 6d7e 743d cb14 20bd 841c adbc de71 6d3d
000001f0: 63a5 cf3c 6810 4f3d 16d8 5c3c d751 0ebc
00000200: 9312 323d 8ba5 143d 2617 d53c 0224 243d
00000210: fc72 75bd a292 5e3d 80ae 453d 8200 96bc
00000220: 0519 16bc afc4 f4bc 38c5 763d b641 40bd
00000230: 36b6 443c 6274 4bbc 56e5 eb3c bf69 60bc
00000240: d917 28bd 7d29 213d 5b10 4f3d 6920 3f3d
00000250: ce48 e2bb 305f 8ebc 1c8d 9fbc 8208 8a3c
00000260: ecdd 7cbd 86a6 2d3d 1215 433d 77f1 da3b
00000270: c76d a1bc f202 cabc eb28 2e3d c755 cfbb
00000280: d30e 533d 5379 283d a688 773d ca0d 423d
00000290: d00f 303d ac02 a63c 3f4e 423d 4796 c8bc
000002a0: 4287 183d 6a6d dabc 0d97 94bc 0a8b 2a3d
000002b0: d90b 3bbd bc60 26bd b291 ffbc e3bb 093d
000002c0: c7de e3bc 2756 2cbb 22c2 de3b 46e3 59bd
000002d0: c900 1eba 6831 253d e923 6f3d ba4b f03c
000002e0: b793 913d 0987 1fbd 6007 5abd 6d32 6e3d
000002f0: 9a6a 3dbd 4ff6 3cbd 7794 613d de84 4bbd
00000300: ae3f d33c f383 62bd 249b 7a3d fc51 44bd
00000310: b22e 793d abfb 8cbd 6ac0 893c 487a bbbc
00000320: 1629 143d f84b b0bb acbe 10bc 32a7 e03b
00000330: 9d15 dbbb 3d03 a33c a126 1e3d 19c4 b7bc
00000340: feec 493d 8825 153c da0c 1c3c 1e24 d03c
00000350: 3d52 3cbd cec9 54bd c199 a0bc f253 3d3d
00000360: 414b f63b c64b 55bb d6ac 6d3d 3eb0 933c
00000370: 09dc 073d 71fe 6ebd 6638 c6bd a15b e73b
00000380: 7ef8 07bc 941d d13c 408a 68bc 0ba3 0fbd
00000390: f81f d43c 4b49 09ba ded8 97bc 4b79 36bd
000003a0: 7f44 f73c a62a eb3c 3aca c039 c28a 463d
000003b0: c7b3 a6bb d341 b9bc 9217 04bc 37fa debc
000003c0: 6b84 603d e408 e23a 7b40 6e3d 1991 e73c
000003d0: 1dd1 2ebd 69fb 1f3d ac16 7abd 9b31 ad3b
000003e0: 7790 343d 1084 17bc 6f93 a93c 3057 fabb
000003f0: e4ac 913c 1831 f3bc 5070 45bc 8143 073d

encoder.actor_encoder.net.mlp.2.bias f4 [256]
-0.060081225 0.04632463 0.011978265 -0.040260762 0.021030731 -0.06031003 0.041155003 0.014332485
0.034373682 -0.015367518 -0.04997716 -0.020459091 0.02567504 -0.007545476 -0.058354486 -0.023916854
-0.03874468 0.0030855404 0.0072176997 -0.042553287 -0.032977145 -0.0331447 -0.0036748897 0.047745988
-0.007946194 -0.026357474 0.019684423 -0.01648777 0.011760404 -0.033791687 -0.058384683 -0.041816797
-0.060741622 -0.019777594 0.030774241 -0.027410347 0.055758562 -0.0039751558 0.015575864 0.026886815
0.004069244 -0.009192869 -0.0017234673 0.0034549506 0.044276364 0.03741663 -0.04634375 -0.011449557
-0.058624513 0.0007731918 -0.007948138 0.0020906082 -0.044986818 0.045953665 -0.03417071 -0.008383575
0.013080517 0.050900772 0.04470948 -0.033015344 0.011403167 -0.0068224254 0.013754367 -0.026051437
-0.035997327 0.04401092 0.04236739 0.03780969 -0.00019562975 -0.061987203 -0.02608216 -0.013626127
-0.05078791 -0.013050777 0.008534677 -0.051463295 0.007792556 0.0033230549 -0.028941115 0.017910577
-0.039577536 0.034893245 0.008424148 0.009183053 -0.0415882 -0.010627806 0.034956574 0.03739705
-0.041276623 0.027263451 -0.027824454 -0.0056663617 0.021080652 0.024893796 -0.04942904 -0.013226892
-0.035886064 0.010900102 -0.051017776 0.018445795 -0.012366978 0.015279428 -0.041248836 0.008890198
0.025788777 0.0057627074 -0.03564461 0.05344977 -0.003060368 -0.03219357 -0.045566835 -0.005635078
-0.045224123 -0.04488986 0.044441808 -0.042883832 0.0335175 -0.046560176 0.017462682 -0.05154172
0.037046496 -0.0041704755 -0.01996252 0.032004587 0.026527151 0.04408125 0.026406292 0.0020796014
-0.04240983 0.029454328 0.0038376364 0.03758818 -0.013646588 -0.04162762 -0.052469242 0.06907941
-0.03784104 -0.04013162 -0.053040545 -0.028396338 0.019745525 0.039787695 -0.045179226 -0.0013131839
-0.05666532 -0.016637467 -0.010725726 -0.056779534 0.013603451 -0.036403574 -0.021962654 -0.0044613527
0.0511039 0.039407965 0.03976655 -0.00010260219 0.03780466 -0.032393463 0.020550676 0.014839305
-0.030098619 -0.04561873 0.05066006 -0.037612267 0.060320627 0.038945355 0.027785476 0.024492053
-0.016076228 -0.059010446 -0.022612771 0.05644184 0.0217287 -0.003421825 -0.043741968 -0.03713243
-0.02156009 0.033651598 -0.029144833 0.034387153 0.0040548868 -0.024913147 -0.028011162 0.06424933
0.049753927 0.03979041 -0.022202026 0.0679495 0.0039971676 -0.018544009 0.030190459 -0.024251515
0.041541412 -0.058578853 -0.060534578 -0.03610009 0.043013304 -0.03872972 0.03704617 -0.008147875
0.047114346 0.018311715 0.05695916 -0.020880464 0.0440301 -0.056334537 0.029112814 0.04397873
0.054300994 -0.015015381 -0.06898152 0.031236425 -0.058586057 -0.06088888 0.0349669 0.018110257
0.006908966 0.026666861 -0.058268383 -0.015160821 0.012361983 -0.026510851 0.0497288 0.063266546
-0.0013207409 0.046334956 0.04485878 -0.026368925 0.022557411 0.013661882 0.02122755 -0.040847465
0.051362842 -0.03234264 -0.0428918 -0.031361952 0.0130259385 0.042341903 -0.0566182 0.05166645
-0.010308371 -0.024700698 0.040807657 0.050875444 0.0129168 0.07008912 -0.043990064 -0.036049563
0.04217504 0.062266074 0.012235008 0.027950512 0.010407126 0.013303991 -0.010221106 0.042590536
00000000: bb17 76bd e5be 3d3d 7c40 443c 78e8 24bd
00000010: a448 ac3c a607 77bd 2692 283d cdd2 6a3c
00000020: 6bcb 0c3d 0bc8 7bbc dab4 4cbd d399 a7bc
00000030: 7654 d23c 0a40 f7bb 1d05 6fbd 47ed c3bc
00000040: beb2 1ebd c736 4a3b 7482 ec3b 5b4c 2ebd
00000050: 0b13 07bd bdc2 07bd 6bd6 70bb 4c91 433d
00000060: c130 02bc a1eb d7bc 3a41 a13c 5c11 87bc
00000070: b6ae 403c 2769 0abd c724 6fbd 1748 2bbd
00000080: 35cc 78bd 9f04 a2bc 431a fc3c aa8b e0bc
00000090: 1763 643d 0642 82bb e931 7f3c bd41 dc3c
000000a0: 4b57 853b b09d 16bc f7e5 e1ba 746c 623b
000000b0: 225b 353d 2e42 193d f2d2 3dbd ec96 3bbc
000000c0: 4220 70bd 06b0 4a3a e838 02bc 9602 093b
000000d0: 1944 38bd e939 3c3d 96f6 0bbd 435b 09bc
000000e0: aa4f 563c 547d 503d 4a21 373d 193b 07bd
000000f0: 59d4 3a3c a78e dfbb ff59 613c d369 d5bc
00000100: ef71 13bd cb44 343d 6e89 2d3d 55de 1a3d
00000110: f621 4db9 4be6 7dbd 41aa d5bc 1e40 5fbc
00000120: fc06 50bd edd2 55bc 08d5 0b3c 2dcb 52bd
00000130: b358 ff3b 9cc7 593b eb15 edbc 34b9 923c
00000140: 0e1c 22bd 38ec 0e3d 7005 0a3c 8474 163c
00000150: 6358 2abd 4020 2ebc a02e 0f3d a62d 193d
00000160: ad11 29bd 9a57 df3c 1cf0 e3bc e3ac b9bb
00000170: 55b1 ac3c 13ee cb3c 1b76 4abd 9bb5 58bc
00000180: 44fd 12bd 5796 323c 04f8 50bd a31b 973c
00000190: de9e 4abc 9156 7a3c 8af4 28bd 31a8 113c
000001a0: fc42 d33c 18d5 bc3b 1500 12bd 25ee 5a3d
000001b0: 7490 48bb 68dd 03bd 4aa4 3abd 76a6 b8bb
000001c0: ee3c 39bd 6ede 37bd 9d08 363d f5a6 2fbd
000001d0: a549 093d e2b5 3ebd e60d 8f3c 691d 53bd
000001e0: 11be 173d 7ca8 88bb 7088 a3bc 3e17 033d
000001f0: 784f d93c 8a8e 343d 0252 d83c ec49 083b
00000200: eeb5 2dbd 344a f13c db80 7b3b 10f6 193d
00000210: f095 5fbc b981 2abd fde9 56bd 8179 8d3d
00000220: 35ff 1abd 0e61 24bd 0b41 59bd 709f e8bc
00000230: 5ec1 a13c 6cf8 223d da0d 39bd 241f acba
00000240: e519 68bd 4c4b 88bc f5ba 2fbc a891 68bd
00000250: 02e1 5e3c ea1b 15bd 06eb b3bc 8a30 92bb
00000260: 5352 513d 3f6a 213d 40e2 223d 222c d7b8
00000270: 0fd9 1a3d 02af 04bd e459 a83c 8e20 733c
00000280: 6191 f6bc b5da 3abd ec80 4f3d 520f 1abd
00000290: c312 773d 2a85 1f3d 5e9e e33c 8fa3 c83c
000002a0: 4bb2 83bc f0b4 71bd 6b3e b9bc 8f2f 673d
000002b0: 6300 b23c b240 60bb c72a 33bd 2d18 18bd
000002c0: c99e b0bc 42d6 093d 25c1 eebc 8bd9 0c3d
000002d0: dbde 843b a816 ccbc aa77 e5bc 2795 833d
000002e0: c6ca 4b3d 45fb 223d 06e1 b5bc 1c29 8b3d
000002f0: acfa 823b 9be9 97bc fb51 f73c 1dab c6bc
00000300: 5427 2a3d 61f0 6fbd 1bf3 77bd b0dd 13bd
00000310: b82e 303d 0ea3 1ebd babd 173d aa7e 05bc
00000320: f9fa 403d 7302 963c 024e 693d 820d abbc
00000330: e858 343d 0bbf 66bd ff7d ee3c 0a23 343d
00000340: b86a 5e3d 1303 76bc 2f46 8dbd 88e3 ff3c
00000350: eff7 6fbd 9e66 79bd 7439 0f3d f65b 943c
00000360: 9c64 e23b 7674 da3c d4aa 6ebd 1865 78bc
00000370: ea89 4a3c 492d d9bc 6db0 4b3d e491 813d
00000380: b61c adba b9c9 3d3d d7bd 373d a503 d8bc
00000390: 52ca b83c 16d6 5f3c 66e5 ad3c ac4f 27bd
000003a0: d861 523d b779 04bd 50af 2fbd 6475 00bd
000003b0: bf6a 553c b46e 2d3d 7ce8 67bd 33a0 533d
000003c0: 71e4 28bc 1e59 cabc ee25 273d c562 503d
000003d0: fca0 533c e28a 8f3d ed2e 34bd b5a8 13bd
000003e0: bcbf 2c3d b60a 7f3d 5875 483c 79f8 e43c
000003f0: a682 2a3c fcf8 593c 6d76 27bc 6a73 2e3d

encoder.critic_encoder.net.mlp.0.weight f4 [256, 10]
-0.12257018 -0.108390026 -0.24883172 0.2261871 0.30818903 0.20822357 -0.17987877 0.16169266
-0.044090908 -0.11436507 -0.31599972 0.05627724 0.11879692 -0.26023266 0.02553421 0.021273844
-0.05226117 0.026202112 0.057358503 0.21683596 -0.11630223 0.08934 0.10208723 -0.2634744
-0.24770388 -0.07239498 0.028404072 -0.0062996885 -0.0870554 0.045386914 0.28713688 -0.24038574
-0.09240288 0.18605287 0.002037764 -0.0011752278 0.11601395 -0.2840083 0.07737742 0.22322619
0.14029409 -0.24870813 0.108932875 0.25537515 -0.16004278 -0.045075655 -0.060046367 0.015146652
0.16554697 0.1202942 -0.28434208 -0.26412836 -0.13859496 -0.1759992 0.2797206 -0.15072927
0.0747224 0.0886284 -0.31309202 0.066611804 -0.088089764 -0.07564231 0.066890374 0.27641696
-0.3124159 -0.12911554 0.26152316 0.24261703 0.017394202 0.26277763 0.12660928 -0.19631498
0.16541325 -0.09273594 0.13180487 0.2751761 0.13224258 -0.07243005 -0.15362191 -0.18161087
-0.22014967 -0.2297153 0.029227568 -0.16217323 -0.18083054 -0.047880482 -0.12643516 -0.07824926
-0.21466501 0.12158057 -0.20966293 0.085206866 0.07988724 -0.049414556 0.25459957 -0.1622
-0.1511342 0.0084648 0.004637371 0.11942032 -0.14327101 0.04147031 -0.2776911 0.22676708
0.06384496 0.1069352 0.20994148 -0.098989055 0.056142583 -0.29040462 0.30815867 -0.18880379
-0.21777487 0.14885622 0.15199141 0.23303808 0.11477595 -0.041968867 0.022276206 -0.0076037706
-0.08361132 0.2406647 -0.03127175 0.06906224 -0.17712785 0.08532991 0.22210237 -0.032154422
-0.20241527 -0.1675956 0.038038995 0.091339596 -0.1403434 -0.22207707 0.16717996 0.2658587
-0.015009507 0.1446437 -0.07328938 -0.24886471 0.27405015 -0.08388307 -0.13075301 -0.27533877
0.24202737 0.014650892 -0.10152616 0.06683503 -0.1201059 -0.15228589 0.18552396 -0.14171506
-0.15687913 0.24228473 -0.12408667 -0.04121381 0.219618 0.25512704 0.24531075 0.21975337
-0.0886902 -0.14992714 0.2045827 -0.19389333 0.052264925 -0.1115897 0.31010506 -0.047177445
-0.018087372 -0.15878685 -0.18829268 -0.12024082 -0.072660185 -0.25791505 -0.07642082 -0.34251675
0.21537197 0.0043867263 0.13567542 0.11828234 -0.06886444 0.16669321 -0.041380458 0.27191505
-0.21650648 0.30233237 0.026595866 0.21220547 -0.20603131 0.053819932 0.2911534 -0.08362756
-0.04843899 0.22493288 0.16487178 -0.11871138 -0.2813118 -0.03171451 0.09171731 -0.08845991
0.07708373 0.27384144 -0.27624953 -0.13816516 0.33927602 0.24269919 0.28399917 0.23915306
0.2384323 0.3022544 0.09484953 0.07884215 0.2082113 0.21093312 -0.22934857 0.07408745
-0.0189991 0.11425381 -0.19910145 0.19572818 0.22270773 0.057912674 0.14997059 0.13683885
0.2009211 0.03789628 0.17114988 -0.1106773 0.10818706 -0.18611138 -0.21809095 -0.11309552
-0.08040431 0.23718758 -0.080996566 -0.25942576 0.3018706 -0.022122271 0.052017562 -0.32354474
0.0145855155 -0.07406012 -0.23122068 0.097748734 -0.33028325 -0.3067168 -0.2101744 -0.05937906
0.2354028 -0.041886173 0.27124652 0.108254045 0.23903169 0.21479744 -0.045872606 -0.23469242
00000000: 1306 fbbd 97fb ddbd becd 7ebe 979d 673e
00000010: f4ca 9d3e 8f38 553e 2432 38be c392 253e
00000020: ab98 34bd 3c38 eabd b7ca a1be f782 663d
00000030: cd4b f33d 373d 85be 1f2d d13c 7c46 ae3c
00000040: cf0f 56bd d0a5 d63c c0f0 6a3d 3f0a 5e3e
00000050: dd2f eebd e4f7 b63d 1c13 d13d 1ee6 86be
00000060: 16a6 7dbe d243 94bd a8af e83c 9e6d cebb
00000070: 1a4a b2bd a1e7 393d 9b03 933e ae27 76be
00000080: b93d bdbd a584 3e3e 028c 053b 1a0a 9aba
00000090: b998 ed3d 8969 91be 0e78 9e3d 6895 643e
000000a0: 41a9 0f3e 58ad 7ebe 3318 df3d 88c0 823e
000000b0: 41e2 23be 40a1 38bd 2ef3 75bd aa29 783c
000000c0: 2585 293e ce5c f63d 4995 91be d53b 87be
000000d0: d6eb 0dbe 2239 34be 8a37 8f3e c658 1abe
000000e0: 0f08 993d ce82 b53d 994d a0be c56b 883d
000000f0: 6868 b4bd 5bea 9abd d2fd 883d 8686 8d3e
00000100: faf4 9fbe dd36 04be 5de6 853e 9970 783e
00000110: 497e 8e3c ca8a 863e dda5 013e cb06 49be
00000120: 1762 293e 57ec bdbd dbf7 063e e2e3 8c3e
00000130: 996a 073e 3556 94bd 104f 1dbe 33f8 39be
00000140: ea6e 61be 7d3a 6bbe a76e ef3c bd10 26be
00000150: a42b 39be 531e 44bd 3878 01be 2641 a0bd
00000160: 25d1 5bbe 3cff f83d e1b1 56be f080 ae3d
00000170: ec9b a33d eb66 4abd e05a 823e c217 26be
00000180: ecc2 1abe f2af 0a3c 16f5 973b a492 f43d
00000190: a3b5 12be c6dc 293d 872d 8ebe a135 683e
000001a0: 25c1 823d d800 db3d e6fa 563e c6ba cabd
000001b0: c4f5 653d eaaf 94be f9c6 9d3e c855 41be
000001c0: 6000 5fbe c46d 183e a3a3 1b3e 89a1 6e3e
000001d0: a70f eb3d 8ce7 2bbd 977c b63c 0d29 f9bb
000001e0: 693c abbd cf70 763e ce16 00bd 8170 8d3d
000001f0: 0161 35be 73c1 ae3d ce6e 633e 5bb4 03bd
00000200: f345 4fbe 2e9e 2bbe c7ce 1b3d 4110 bb3d
00000210: 2eb6 0fbe 2c68 63be 3931 2b3e a21e 883e
00000220: 6fea 75bc 7a1d 143e be18 96bd 64d6 7ebe
00000230: 4d50 8c3e e3ca abbd 1ee4 05be 34f9 8cbe
00000240: 06d6 773e 4b0a 703c f3ec cfbd cee0 883d
00000250: 15fa f5bd d5f0 1bbe fef9 3d3e c11d 11be
00000260: eca4 20be 7d19 783e 2721 febd d0cf 28bd
00000270: 8ae3 603e 03a0 823e be32 7b3e 0707 613e
00000280: 35a3 b5bd 8086 19be 217e 513e f98b 46be
00000290: bf13 563d 2489 e4bd 17c6 9e3e 233d 41bd
000002a0: f82b 94bc 0599 22be cccf 40be d240 f6bd
000002b0: ddce 94bd 710d 84be 8582 9cbd 5b5e afbe
000002c0: 788a 5c3e 87be 8f3b 7fee 0a3e 033e f23d
000002d0: cd08 8dbd a0b1 2a3e 8e7e 29bd 7338 8b3e
000002e0: e0b3 5dbe 4fcb 9a3e 93df d93c 644c 593e
000002f0: dff9 52be 4a72 5c3d 0f12 953e ed44 abbd
00000300: f667 46bd ce54 663e 26d4 283e f41e f3bd
00000310: 1a08 90be 13e7 01bd 49d6 bb3d 782a b5bd
00000320: 13de 9d3d f234 8c3e 9470 8dbe 2b7b 0dbe
00000330: 96b5 ad3e 2386 783e 5768 913e 8ae4 743e
00000340: 9927 743e 17c1 9a3e 7840 c23d fe77 a13d
00000350: 5835 553e dafe 573e 5ada 6abe 29bb 973d
00000360: 00a4 9bbc e7fd e93d 40e1 4bbe f86c 483e
00000370: 7f0d 643e d735 6d3d e491 193e 7c1f 0c3e
00000380: 43be 4d3e 2139 1b3d ea41 2f3e c8aa e2bd
00000390: 2d91 dd3d fb93 3ebe 3c53 5fbe a09e e7bd
000003a0: 04ab a4bd 4de1 723e 87e1 a5bd 74d3 84be
000003b0: c98e 9a3e c439 b5bc 5e10 553d a8a7 a5be
000003c0: 16f8 6e3c d5ac 97bd 1dc5 6cbe 7d30 c83d
000003d0: e31a a9be fc09 9dbe f537 57be 7537 73bd
000003e0: 6e0d 713e d690 2bbd d3e0 8a3e 4cb4 dd3d
000003f0: b9c4 743e dcf3 5b3e eae4 3bbd 3653 70be

encoder.critic_encoder.net.mlp.0.bias f4 [256]
-0.13583125 0.17358308 0.23004167 -0.302698 0.24607794 -0.26959482 0.14740399 -0.11858792
-0.17754066 -0.052057862 0.115045674 0.1593463 -0.06822574 0.09370338 0.25294173 0.18819113
-0.17662808 0.16796279 -0.15084746 0.30769625 -0.07490323 0.26723462 0.2462886 0.102969475
-0.25475362 -0.08999752 -0.1901632 0.08693354 0.15377715 0.20701246 -0.001613653 -0.15653953
0.10910781 -0.16221344 0.057234425 -0.10770855 0.2995701 -0.014097505 0.084366895 0.16442302
-0.052246224 -0.10198147 0.12242028 -0.1716594 0.17991257 0.2720458 -0.21492228 0.1736084
0.08183447 0.20693003 0.17349467 0.25461522 0.13901831 0.032422185 -0.16859542 -0.21422367
0.23982915 0.119867176 0.29691553 -0.24452728 0.025384786 -0.14944457 -0.16389227 -0.117491625
-0.15274313 0.1629753 -0.17359293 -0.3149831 0.27710456 -0.1409134 -0.06079168 0.010332829
-0.3558188 0.262261 -0.119840614 -0.2989695 -0.124871 -0.24783784 0.18961786 0.113291405
-0.08767746 0.2030761 0.17458354 -0.23951313 0.011301072 -0.06081402 -0.18767488 0.01609146
-0.050387114 0.28098217 -0.31298962 -0.09248718 -0.04439446 0.02723226 0.097656295 -0.115116194
0.3296575 0.090253405 0.035693094 0.21553132 -0.14212024 0.18242964 -0.057163533 -0.26459226
0.103409395 -0.2657489 -0.18780097 0.16947645 -0.14007579 -0.18615459 0.18239662 0.06527349
-0.28217247 0.046070952 -0.14028056 -0.17582898 -0.1437703 0.016372394 -0.27833146 0.021120736
0.029383538 -0.11159978 0.066489354 -0.09244588 0.066214554 0.25726023 0.14283228 -0.15867235
-0.17164475 -0.23581637 -0.09609854 -0.309834 0.22826433 -0.21584782 0.20566817 -0.16598465
-0.08121666 -0.089434445 0.08193769 -0.1692888 -0.08393962 -0.01713035 0.20487219 0.15433584
-0.055838387 -0.07552131 0.07550087 -0.14333709 0.2647119 0.059494656 -0.16702509 -0.23146725
-0.019854803 -0.16288109 -0.04635668 -0.2823393 -0.069675066 0.17224014 0.06373633 0.08706243
0.19689538 -0.25158924 0.2171623 0.098213255 -0.233209 0.038509164 0.13799131 0.2721038
0.25802052 0.14421944 -0.06968866 0.21607749 -0.12564597 0.0059335674 0.21335904 -0.11898006
0.11962962 0.1592533 0.26837173 0.07112708 0.010742954 -0.14660203 0.17095748 0.17733997
0.17381103 -0.17529884 0.2883825 -0.22410879 -0.16326393 -0.01157857 0.29155988 -0.15478034
-0.24809018 -0.31642446 0.1142481 -0.029633168 0.1204227 0.1602882 -0.3135677 -0.053108968
-0.1445361 -0.25532302 -0.16652542 0.15029751 0.013699798 -0.07481438 -0.06000917 -0.015713748
0.18053058 0.0389593 -0.18849158 0.19281751 0.20216498 -0.12811513 0.15321477 -0.12808949
-0.06949991 -0.14548531 -0.003459593 0.15544336 0.07077921 0.1710737 -0.04751009 0.22562101
0.042551383 -0.23832308 0.18494633 0.080581784 -0.30532002 0.18079516 0.13751589 -0.21262696
-0.12351457 0.24943961 0.08279483 -0.2554715 -0.17826371 0.16963024 0.070275374 0.16917242
0.021463104 0.18688887 0.16434582 -0.14096765 0.023313813 0.091542006 0.33612153 -0.12513633
-0.18933618 0.19034953 -0.105515346 0.15483624 -0.25484067 -0.04611752 0.16200851 -0.124464616
00000000: 5917 0bbe c3bf 313e 0b90 6b3e 3bfb 9abe
00000010: dbfb 7b3e 5508 8abe 12f1 163e 39de f2bd
00000020: 38cd 35be a03a 55bd 119d eb3d ad2b 233e
00000030: f0b9 8bbd 8fe7 bf3d 9481 813e 2db5 403e
00000040: fedd 34be 70fe 2b3e c277 1abe 5d8a 9d3e
00000050: dd66 99bd fad2 883e 1433 7c3e a9e1 d23d
00000060: 116f 82be 9f50 b8bd 24ba 42be 360a b23d
00000070: c277 1d3e 13fb 533e 3681 d3ba e64b 20be
00000080: ea73 df3d 481b 26be a56e 6a3d 4d96 dcbd
00000090: 4161 993e 39f9 66bc 8dc8 ac3d 825e 283e
000000a0: 2300 56bd a9db d0bd 7cb7 fa3d 7bc7 2fbe
000000b0: 003b 383e 9649 8b3e 9614 5cbe 67c6 313e
000000c0: d598 a73d 77e5 533e 96a8 313e ed5c 823e
000000d0: d15a 0e3e 20cd 043d 47a4 2cbe 735d 5bbe
000000e0: c695 753e ec7c f53d 5005 983e 5c65 7abe
000000f0: c1f3 cf3c ff07 19be 60d3 27be 739f f0bd
00000100: b268 1cbe ffe2 263e 58c2 31be 7745 a1be
00000110: a6e0 8d3e 9a4b 10be b200 79bd 074b 293c
00000120: e22d b6be 1347 863e ff6e f5bd 8812 99be
00000130: 5ebc ffbd 34c9 7dbe 2f2b 423e 5305 e83d
00000140: 3d90 b3bd 2ef3 4f3e 07c6 323e ee42 75be
00000150: 2228 393c 1f18 79bd d82d 40be 3dd2 833c
00000160: b862 4ebd e5dc 8f3e 2d40 a0be eb69 bdbd
00000170: f7d6 35bd 3016 df3c 0600 c83d 0ac2 ebbd
00000180: dec8 a83e c7d6 b83d ec32 123d 3eb4 5c3e
00000190: f887 11be d6ce 3a3e 4f24 6abd a378 87be
000001a0: 4ec8 d33d 3d10 88be e64e 40be 3c8b 2d3e
000001b0: 0770 0fbe 4f9f 3ebe 2ec6 3a3e 1cae 853d
000001c0: e978 90be e5b4 3c3d b5a5 0fbe 830c 34be
000001d0: 8638 13be 661f 863c 7681 8ebe 6505 ad3c
000001e0: bfb5 f03c 6d8e e4bd 922b 883d 4454 bdbd
000001f0: 7f9b 873d 9db7 833e a042 123e 017b 22be
00000200: a4c3 2fbe d979 71be 50cf c4bd 90a2 9ebe
00000210: 20be 693e 3607 5dbe ad9a 523e e1f7 29be
00000220: ec54 a6bd 6829 b7bd f3ce a73d 0b5a 2dbe
00000230: 89e8 abbd f354 8cbc 04ca 513e 370a 1e3e
00000240: cbb6 64bd ebaa 9abd 33a0 9a3d f5c6 12be
00000250: 5188 873e abb0 733d a008 2bbe c005 6dbe
00000260: 8aa6 a2bc 4dca 26be 81e0 3dbd c78e 90be
00000270: cdb1 8ebd b85f 303e 3188 823d ca4d b23d
00000280: f19e 493e 4ed0 80be cb5f 5e3e 0824 c93d
00000290: 57ce 6ebe c9bb 1d3d 984d 0d3e 3051 8b3e
000002a0: 441b 843e 43ae 133e eeb8 8ebd 6b43 5d3e
000002b0: 56a9 00be 5f6e c23b cb7a 5a3e d1ab f3bd
000002c0: 6000 f53d 4c13 233e 0568 893e 13ab 913d
000002d0: 3703 303c d81e 16be 7a0f 2f3e 9c98 353e
000002e0: 85fb 313e 8a81 33be dfa6 933e c67c 65be
000002f0: a92e 27be 0bb4 3dbc 5647 953e bd7e 1ebe
00000300: 5a0b 7ebe 6302 a2be e8fa e93d 42c1 f2bc
00000310: 2da0 f63d 9722 243e f28b a0be ca88 59bd
00000320: 4501 14be b3b9 82be a485 2abe 97e7 193e
00000330: 1e75 603c 4838 99bd 2dcc 75bd 1eba 80bc
00000340: 02dd 383e c993 1f3d f003 41be f471 453e
00000350: 5604 4f3e 9d30 03be 55e4 1c3e e429 03be
00000360: f855 8ebd 1afa 14be 57ba 62bb 8b2c 1f3e
00000370: b1f4 903d f22d 2f3e f199 42bd 3209 673e
00000380: 5c4a 2e3d f70a 74be 9262 3d3e 1008 a53d
00000390: e852 9cbe 5e22 393e f7d0 0c3e e2ba 59be
000003a0: 35f5 fcbd 196d 7f3e 5690 a93d 29cd 82be
000003b0: c38a 36be 8db3 2d3e 89ec 8f3d 893b 2d3e
000003c0: 64d3 af3c cc5f 3f3e 454a 283e d359 10be
000003d0: 9cfc be3c 607a bb3d 1f18 ac3e bd23 00be
000003e0: 58e1 41be fdea 423e 6e18 d8bd 648d 1e3e
000003f0: 7a7a 82be bae5 3cbd 8fe5 253e 4ee7 febd

encoder.critic_encoder.net.mlp.2.weight f4 [256, 256]
0.050508764 0.004816657 -0.015964571 -0.06565204 -0.007945722 -0.019756628 0.05436905 0.00010444981
-0.025975378 0.06678793 0.031662416 -0.08415735 -0.011083823 0.051952537 -0.0070153535 0.040993366
-0.045155436 -0.0034718784 0.001396318 -0.014823578 -0.03118246 0.0506318 0.017706634 -0.023263663
0.033431314 -0.05285678 -0.02233934 0.032329537 -0.0014354235 0.02913964 -0.0047632023 0.0352583
0.0823009 -0.036506258 -0.010004291 -0.0071732295 -0.018404948 -0.019294603 -0.019672982 -0.03079418
0.048971795 0.07077632 -0.054276396 -0.004777802 -0.021377 -0.016279763 -0.0006615305 0.005473736
-0.105478965 0.005932322 -0.013452696 -0.0145255895 0.03081439 -0.03765089 -3.070135e-05 -0.0054725767
-0.024419636 0.010845595 0.020894889 -0.04066425 -0.12405936 0.035264563 -0.0030904885 0.066575706
-0.04812323 -0.008776686 -0.07367693 0.051599525 0.06683373 0.011655994 -0.066336446 0.046445653
-0.028399037 0.028477313 -0.081702165 -0.032971777 0.030317564 -0.032684397 0.05274788 0.03644059
0.001564386 0.08089877 0.00048882485 -0.023971234 0.03859639 0.034806035 -0.04782077 0.051913455
-0.04126661 -0.015950195 0.036295097 0.03020159 -0.043326914 -0.064868875 -0.026784208 -0.08058691
0.014777309 0.046510845 0.03755537 0.04494919 -0.009999805 -0.052015 0.02275458 -0.0049453774
-0.0054170466 0.0037555553 0.05398755 -0.052357014 0.0015483188 0.009927355 -0.014140698 0.10195397
0.00939239 0.048386417 0.0038093373 -0.048102733 0.0075579057 -0.031187784 -0.0107510025 -0.033672433
-0.055242453 0.06745044 0.046129256 -0.014008651 -0.015065751 -0.031293474 -0.045918033 0.053837996
-0.060693868 -0.03264961 -0.04581241 0.04350588 0.034232244 0.011537235 0.0051732627 0.051221345
0.048286434 -0.030900186 -0.0025567668 0.0073896847 0.027764965 0.0487908 0.02620968 0.03177841
-0.060917377 -0.057646614 -0.042594973 -0.005965939 0.077096984 0.06739677 -0.00025034748 -0.038569376
-0.026401434 -0.034155328 0.0219424 -0.0016220367 0.035704594 -0.042894237 0.033712354 -0.03390884
0.072048835 0.027277965 0.03215993 0.06814976 0.05560498 0.055109087 0.05822047 -0.036046345
-0.053239577 0.025964094 0.054023333 -0.007424647 -0.056809917 0.0061148605 -0.023751821 0.04850679
0.016077787 -0.030220872 0.050935112 0.00057476613 0.07179961 -0.033296604 -0.06930026 0.0019309642
-0.009064558 -0.0052090427 0.023579864 0.03421666 -0.015739502 0.009062906 -0.007383715 -0.018278204
-0.04443442 -0.023655487 -0.07577891 -0.021784132 -0.0033965046 0.048882164 0.04549018 0.03384925
0.0034354292 0.04313324 0.006760797 -0.040316354 -0.034233868 -0.039212108 -0.009946093 0.029799018
-0.0085751815 0.10201387 0.054594014 0.037365187 -0.075807855 0.037103858 0.041261613 0.06817507
-0.024577899 -0.020617945 -0.025230426 0.07576573 0.031084662 -0.02944564 -0.03606067 0.041888453
-0.037341274 0.016035266 0.0036542104 0.054052144 0.020973492 0.04559441 -0.03307715 -0.045939498
0.0054559857 0.04508364 0.041412015 -0.035455115 -0.03632192 0.015788509 -0.01966937 0.03570126
0.032641817 -0.0062989406 -0.025631864 -0.029139468 -0.06159662 -0.008551541 0.030795228 -0.0062343534
-0.020396473 -0.028510017 -0.02068299 -0.05095949 -0.027021576 -0.02408532 0.06016015 0.046828944
00000000: 47e2 4e3d 0cd5 9d3b 22c8 82bc 9474 86bd
00000010: c62e 02bc a7d8 a1bc 15b2 5e3d 110c db38
00000020: 51ca d4bc 1cc8 883d 73b0 013d b05a acbd
00000030: ec98 35bc 2fcc 543d 0de1 e5bb a9e8 273d
00000040: e8f4 38bd 7488 63bb a804 b73a 98de 72bc
00000050: 5c72 ffbc 4a63 4f3d 810d 913c 7093 bebc
00000060: 46ef 083d 5a80 58bd fe00 b7bc fa6b 043d
00000070: d224 bcba 41b6 ee3c a314 9cbb 026b 103d
00000080: 608d a83d 9687 15bd 0ae9 23bc 690d ebbb
00000090: f9c5 96bc b70f 9ebc 3c29 a1bc 1444 fcbc
000000a0: a696 483d 2df3 903d ed50 5ebd 1c8f 9cbb
000000b0: d11e afbc 235d 85bc 8f6a 2dba 075d b33b
000000c0: 5b05 d8bd ec63 c23b b268 5cbc bdfc 6dbc
000000d0: 766e fc3c d237 1abd 53c5 00b8 4d53 b3bb
000000e0: b00b c8bc b9b1 313c c22b ab3c 8e8f 26bd
000000f0: d512 febd 9371 103d cb89 4abb d858 883d
00000100: dd1c 45bd 17cc 0fbc eee3 96bd 065a 533d
00000110: 1fe0 883d c8f8 3e3c 67db 87bd cc3d 3e3d
00000120: 19a5 e8bc 4149 e93c 7753 a7bd 6a0d 07bd
00000130: 8a5c f83c 13e0 05bd 290e 583d ba42 153d
00000140: 150c cd3a 41ae a53d 7b24 003a 525f c4bc
00000150: 4017 1e3d c690 0e3d b6df 43bd 34a3 543d
00000160: 2d07 29bd fca9 82bc 2baa 143d 5369 f73c
00000170: 9077 31bd f9d9 84bd 8e6a dbbc c00a a5bd
00000180: 871c 723c 2882 3e3d a9d3 193d a41c 383d
00000190: 39d6 23bc ae0d 55bd d067 ba3c d50c a2bb
000001a0: 7b81 b1bb c31f 763b 0d22 5d3d 4f74 56bd
000001b0: f5f0 ca3a 58a6 223c 63ae 67bc 3ecd d03d
000001c0: 8ae2 193c d630 463d 13a6 793b 5f07 45bd
000001d0: 4fa8 f73b 867d ffbc f924 30bc 1bec 09bd
000001e0: e945 62bd 7523 8a3d 08f2 3c3d 8a84 65bc
000001f0: 57d6 76bc 962d 00bd 8c14 3cbd 3b85 5c3d
00000200: 229a 78bd 99bb 05bd cba5 3bbd 3933 323d
00000210: 1c37 0c3d ac06 3d3c 7984 a93b 79cd 513d
00000220: ffc7 453d 6322 fdbc 6e8f 27bb 2b25 f23b
00000230: 5a73 e33c ddd8 473d afb5 d63c 142a 023d
00000240: 8084 79bd db1e 6cbd 1178 2ebd ec7d c3bb
00000250: 06e5 9d3d 5107 8a3d 1241 83b9 ecfa 1dbd
00000260: d247 d8bc 75e6 0bbd 8cc0 b33c 859a d4ba
00000270: fb3e 123d deb1 2fbd f715 0a3d ffe3 0abd
00000280: 578e 933d 0a76 df3c 21ba 033d 1a92 8b3d
00000290: 0cc2 633d 11ba 613d 9678 6e3d 55a5 13bd
000002a0: be11 5abd a7b2 d43c 9247 5d3d 744a f3bb
000002b0: 84b1 68bd 2b5f c83b 2e93 c2bc 0eaf 463d
000002c0: 90b5 833c c391 f7bc 56a1 503d e7ab 163a
000002d0: ad0b 933d 0562 08bd 4bed 8dbd 6818 fd3a
000002e0: 8383 14bc 9eb0 aabb 8f2a c13c c526 0c3d
000002f0: 21f0 80bc 957c 143c 17f3 f1bb 2cbc 95bc
00000300: de00 36bd 27c9 c1bc f931 9bbd a374 b2bc
00000310: e497 5ebb aa38 483d e953 3a3d 83a5 0a3d
00000320: f024 613b 7bac 303d ad89 dd3b c322 25bd
00000330: d038 0cbd e09c 20bd f0f4 22bc 121d f43c
00000340: eb7e 0cbc a6ec d03d f99d 5f3d 3d0c 193d
00000350: 2641 9bbd 37fa 173d f001 293d 5f9f 8b3d
00000360: 9757 c9bc f7e6 a8bc 0ab0 cebc 102b 9b3d
00000370: 43a5 fe3c fc37 f1bc 5ab4 13bd 3a93 2b3d
00000380: 2af3 18bd 645c 833c 7a7b 6f3b c865 5d3d
00000390: 9ad0 ab3c 34c1 3a3d e87b 07bd 0e2b 3cbd
000003a0: 20c8 b23b 9fa9 383d a59f 293d 6239 11bd
000003b0: 4bc6 14bd e756 813c a921 a1bc 7c3b 123d
000003c0: 6db3 053d 5867 cebb eaf9 d1bc e5b5 eebc
000003d0: bd4c 7cbd c31b 0cbc 4646 fc3c 8c49 ccbb
000003e0: 8116 a7bc d78d e9bc 606f a9bc e6ba 50bd
000003f0: 5a5c ddbc 944e c5bc 7d6a 763d b5cf 3f3d
