trained_policies/learner/module_state/mr_x_policy/module_state_dir/module_state.pt (torch, 559234 bytes, 11 tensors)

encoder.actor_encoder.net.mlp.0.weight f4 [256, 10]
-0.12747814 -0.1951132 -0.19726694 -0.25555983 0.16713957 -0.073343 0.27930963 0.29807225
0.22416769 -0.2321689 -0.236051 -0.11329081 0.24776492 -0.25390166 0.08374212 -0.202657
0.25798735 0.3043487 0.010684185 -0.0001515938 -0.1484453 -0.07509415 0.062288426 -0.25704265
0.1868415 -0.13664496 0.22128746 -0.18461034 -0.029476434 0.21817026 -0.28527415 0.042791605
-0.2799305 -0.22653674 0.26520398 0.14460343 0.26114503 -0.01668396 -0.08032676 -0.18278433
0.011396187 -0.30886245 -0.0064189667 -0.07989803 -0.07510946 0.18872507 -0.11140069 -0.047549434
0.096925944 0.24241176 -0.32771143 0.25057563 -0.083349824 -0.32272753 0.010617832 -0.10344564
-0.16199547 -0.007905905 -0.15045084 0.09557957 0.085905656 0.26509783 0.16225454 -0.028357415
-0.20861486 0.24656545 -0.093137555 0.095843464 -0.21534567 -0.21507832 0.13573329 0.20417498
0.14265019 0.11854706 0.02304911 0.09458961 0.009989354 0.296789 0.31955737 0.23712663
0.14877132 -0.097067595 0.080625005 0.12271838 0.010589246 -0.27175912 -0.21931541 0.11882578
-0.036257446 0.20844425 -0.2259247 -0.07834888 -0.29444355 0.0063965507 -0.11531985 -0.011623471
0.32831648 -0.26355308 0.24198177 -0.043687854 -0.07078052 0.19892906 0.30476585 0.04260151
-0.25949448 -0.15698539 0.3219973 0.30478883 -0.1250245 -0.00928944 -0.1895503 0.21966939
-0.15924159 -0.10397413 -0.18209249 -0.2196991 -0.08708159 0.0677675 0.1090185 -0.3125526
-0.24233882 -0.2534149 0.15597521 0.15688795 -0.12745893 0.22587658 0.25841582 -0.021234546
0.21753219 0.20338532 -0.16731629 0.088009536 0.15552534 -0.12434991 0.015014701 -0.151124
-0.07789982 0.08678632 -0.10435094 0.08656924 -0.016102877 -0.17751543 -0.18317515 0.033263262
-0.07977133 -0.15513904 -0.28298247 0.10114532 0.2626443 0.22775263 -0.0020411601 0.1444796
0.011224162 -0.029754527 -0.22114585 -0.010669466 -0.17761207 -6.645315e-05 -0.09883248 -0.07008898
0.044549536 0.2583868 0.0863111 -0.22912435 -0.20174707 -0.080815315 -0.23974201 0.026408937
0.24797581 -0.063389555 0.013222305 -0.12320444 0.11990058 -0.22308445 -0.14955103 0.03562185
-0.24515827 -0.16084662 -0.20043497 -0.14472783 0.06065369 -0.19935302 -0.16567537 -0.20005263
0.121381655 -0.30159917 -0.23625012 0.069834955 0.32566473 -0.010403396 0.06477644 0.14920022
0.20764704 0.17230354 0.08894857 0.2761517 0.11590724 -0.30984837 -0.024018446 -0.21916032
0.12262074 0.16220063 -0.19424799 -0.20561403 -0.21606748 -0.13025756 -0.2682722 -0.2417134
0.26220614 0.13994218 -0.29320925 -0.10719427 0.2955209 -0.03791338 -0.26882905 0.14244066
0.28358465 0.26435044 -0.065562546 -0.07290266 -0.2302399 -0.17053841 0.16621712 -0.086636834
0.094886035 0.0967578 -0.14585291 -0.2815694 -0.10213652 0.135962 -0.036415566 -0.14215775
-0.029106868 -0.27072987 0.1857543 -0.16882473 0.2885315 0.061736867 0.1516808 -0.27051887
-0.13965487 0.17637329 -0.22723055 -0.17546473 0.32998842 -0.16602297 0.17535053 -0.124224566
0.28846332 0.011070677 -0.11256428 -0.21902561 -0.1747658 0.09619688 0.004692627 -0.08283139
00000000: a189 02be c1cb 47be 5800 4abe bdd8 82be
00000010: a326 2b3e db34 96bd ac01 8f3e ed9c 983e
00000020: 378c 653e afbd 6dbe 5ab7 71be 0305 e8bd
00000030: 16b6 7d3e 66ff 81be fd80 ab3d 5185 4fbe
00000040: eb16 843e 98d3 9b3e b80c 2f3c 27f5 1eb9
00000050: 0b02 18be f6ca 99bd 2622 7f3d 189b 83be
00000060: 6153 3f3e a8ec 0bbe 2e99 623e 7e0a 3dbe
00000070: 9078 f1bc 0668 5f3e 740f 92be 4046 2f3d
00000080: 0d53 8fbe 3ff9 67be d1c8 873e ec12 143e
00000090: cdb4 853e cdac 88bc 5b82 a4bd d12b 3bbe
000000a0: 13b7 3a3c 3823 9ebe 3256 d2bb 94a1 a3bd
000000b0: fdd2 99bd 2541 413e 0c26 e4bd 32c3 42bd
000000c0: 1c81 c63d ca3a 783e cbc9 a7be 734b 803e
000000d0: 50b3 aabd 8b3c a5be 6af6 2d3c 4fdb d3bd
000000e0: 24e2 25be c587 01bc c90f 1abe 39bf c33d
000000f0: 4eef af3d e7ba 873e 0e26 263e cf4d e8bc
00000100: 229f 55be a77b 7c3e e7be bebd 9449 c43d
00000110: 9383 5cbe 7e3d 5cbe abfd 0a3e 3f13 513e
00000120: e412 123e cdc8 f23d 7dd1 bc3c 33b8 c13d
00000130: 63aa 233c baf4 973e 069d a33e 53d1 723e
00000140: 8257 183e 60cb c6bd b91e a53d c653 fb3d
00000150: 847e 2d3c 0324 8bbe 3894 60be ee5a f33d
00000160: b082 14bd 6972 553e ce58 67be 6175 a0bd
00000170: 4ec1 96be 289a d13b d02c ecbd 5f70 3ebc
00000180: 1919 a83e 6ef0 86be 12ca 773e 09f2 32bd
00000190: 61f5 90bd 0fb4 4b3e 450a 9c3e ec7e 2e3d
000001a0: 76dc 84be c7c0 20be d5dc a43e 480d 9c3e
000001b0: 6c06 00be bc32 18bc 7919 42be 03f1 603e
000001c0: 3a10 23be 63f0 d4bd 7476 3abe cdf8 60be
000001d0: d557 b2bd b0c9 8a3d 1745 df3d e506 a0be
000001e0: ab27 78be 99bf 81be f7b7 1f3e 3ca7 203e
000001f0: 9884 02be 314c 673e 144f 843e 12f4 adbc
00000200: c2c0 5e3e 3e44 503e f654 2bbe 583e b43d
00000210: 0942 1f3e 2aab febd 3800 763c 40c0 1abe
00000220: f189 9fbd 07bd b13d f2b5 d5bd 374b b13d
00000230: 2eea 83bc 9bc6 35be 4492 3bbe 0f3f 083d
00000240: 275f a3bd c5dc 1ebe 14e3 90be 4725 cf3d
00000250: 5079 863e fc37 693e fcc4 05bb 76f2 133e
00000260: 8ce5 373c c4bf f3bc 0f74 62be fcce 2ebc
00000270: f0df 35be c35c 8bb8 af68 cabd d08a 8fbd
00000280: 9379 363d 464b 843e e0c3 b03d 939f 6abe
00000290: c996 4ebe 8082 a5bd ee7e 75be 8e57 d83c
000002a0: 5fed 7d3e 62d2 81bd 5ea2 583c 9c52 fcbd
000002b0: 6f8e f53d 4070 64be e823 19be 38e8 113d
000002c0: c50a 7bbe fab4 24be d33e 4dbe 8833 14be
000002d0: 0170 783d 3323 4cbe cea6 29be 99da 4cbe
000002e0: f296 f83d 356b 9abe 8deb 71be a105 8f3d
000002f0: 87bd a63e 0173 2abc 83a9 843d f1c7 183e
00000300: 6da1 543e 5770 303e ab2a b63d c163 8d3e
00000310: c660 ed3d 72a4 9ebe 55c2 c4bc 906b 60be
00000320: 9520 fb3d ec17 263e f2e8 46be 7c8c 52be
00000330: cb40 5dbe 3d62 05be f95a 89be b883 77be
00000340: e23f 863e 014d 0f3e 861f 96be ab88 dbbd
00000350: 844e 973e 0f4b 1bbd f6a3 89be f7db 113e
00000360: 0232 913e f158 873e a845 86bd fd4d 95bd
00000370: 02c4 6bbe 9fa1 2ebe d234 2a3e a76e b1bd
00000380: 9c53 c23d f428 c63d 775a 15be dd29 90be
00000390: f42c d1bd 9f39 0b3e 7d28 15bd cd91 11be
000003a0: 8771 eebc 1b9d 8abe 6036 3e3e 64e0 2cbe
000003b0: 67ba 933e ccdf 7c3d 3652 1b3e 7381 8abe
000003c0: b001 0fbe 339b 343e 20af 68be 07ad 33be
000003d0: 3ef4 a83e ed01 2abe 178f 333e 7369 febd
000003e0: 77b1 933e c961 353c 1a88 e6bd 4048 60be
000003f0: cef5 32be df02 c53d 9cc4 993b 81a3 a9bd

encoder.actor_encoder.net.mlp.0.bias f4 [256]
-0.10119403 -0.08102153 0.17519878 0.08425697 -0.25660166 0.17324334 -0.11063918 -0.21959239
-0.30796215 0.111810334 -0.24163485 -0.3228961 -0.25936502 -0.115532205 0.1184008 0.22612935
0.023549194 -0.26226145 -0.13612393 -0.110714965 -0.052436028 0.13575587 0.19703285 0.30186573
0.006122699 0.22962457 -0.2114744 0.24361338 0.15865874 0.1715301 0.18069027 0.06082986
0.2773958 0.19382893 0.24022515 0.18701755 0.28418538 0.31219524 -0.33231038 0.26905194
-0.23047142 -0.24273516 0.18255116 -0.07865603 -0.13999511 0.10416599 0.09350802 -0.014252384
0.30664134 0.27271166 0.07368524 -0.087112114 -0.041436244 -0.03719699 0.3013119 0.08664016
-0.12816525 -0.10384899 0.23723572 0.025816863 -0.06933509 -0.22735575 -0.07820312 -0.32666636
-0.02081708 0.04582475 -0.14181732 0.30353618 -0.2739829 0.05708148 0.13146102 0.114104725
-0.25363752 -0.014679443 -0.113800295 0.0887354 0.17905919 -0.12603796 -0.12621772 0.07654732
0.082211435 0.17733073 0.0987542 0.24663928 0.13396068 -0.07746883 0.31539392 -0.164434
-0.29471356 -0.19780104 -0.264467 0.057034045 -0.15192018 0.28352222 -0.20402932 0.28442705
0.31753418 0.07656042 0.13389589 -0.15821956 -0.23103315 0.18138498 -0.24960974 0.009312733
0.035196077 0.13926423 -0.10174489 0.0065129576 0.24074647 0.24798557 0.028538493 -0.16394903
-0.048413735 0.25944963 -0.108288504 0.21817702 -0.13434543 0.2806705 -0.29222268 0.027523281
0.28113922 -0.14063957 -0.2860184 0.24139881 0.15955174 0.15538147 -0.1292005 0.24057363
0.059229985 -0.009548134 0.13224854 0.12233111 -0.21461521 -0.20363453 0.07427248 0.13277055
0.020055871 0.09448916 -0.18186066 0.3115309 0.14243825 -0.09396038 -0.2889038 -0.24985977
0.1353066 0.12851521 -0.13849622 -0.09904335 0.14960799 0.036738705 0.2225755 0.25984094
0.03583052 0.23906098 0.2875457 -0.09026347 -0.029650161 0.21350808 0.19757254 -0.3231955
0.016008675 0.15409526 0.015515128 0.23500378 0.03630431 -0.22932178 0.22334996 -0.15165645
-0.10739499 -0.09585613 0.13578705 -0.17197244 0.208461 0.2173649 0.16793844 -0.18330798
0.107955255 -0.2507677 -0.16482003 0.110464424 0.27810055 0.06935748 0.09722125 0.10266436
0.25588733 0.043179046 0.10238201 0.22946958 0.114922434 -0.14246236 -0.21241939 0.32446754
0.16838461 -0.33246496 0.30649725 -0.30082723 0.30594218 0.1013243 0.18049592 -0.15483718
0.14956929 -0.058501333 -0.1965716 -0.330589 0.10915797 -0.14771247 -0.30457038 0.06283551
0.24094063 0.14031611 -0.33218965 0.31755683 -0.3231354 -0.21393864 -0.019948645 0.18067539
-0.16409892 0.05963137 -0.14969376 -0.093842804 0.18388833 -0.20652485 0.24729484 -0.20065664
-0.024659017 0.1838949 -0.020620106 -0.23670179 -0.052429892 -0.098803125 -0.105141096 0.066583216
-0.2351411 0.18247238 -0.28960606 0.050232373 -0.17082062 0.028140686 0.085796155 0.20586035
-0.16643098 0.19801757 0.24947274 -0.2067504 -0.09801632 0.26863882 -0.06280775 -0.029393747
0.31673926 -0.20992635 0.27774498 0.32565457 0.2194414 -0.040710945 0.07571905 0.0036421758
00000000: d13e cfbd 9eee a5bd 4f67 333e eb8e ac3d
00000010: 4b61 83be b466 313e cb96 e2bd d4dc 60be
00000020: 37ad 9dbe d1fc e43d 206f 77be a352 a5be
00000030: 7ecb 84be 269c ecbd 1e7c f23d 748e 673e
00000040: 3dea c03c 2247 86be 1264 0bbe 87be e2bd
00000050: 29c7 56bd 9603 0b3e fbc2 493e 258e 9a3e
00000060: eca0 c83b b422 6b3e bf8c 58be c975 793e
00000070: 7077 223e 96a5 2f3e df06 393e bb28 793d
00000080: d306 8e3e 177b 463e 95fd 753e 8781 3f3e
00000090: bf80 913e 0ed8 9f3e 9624 aabe 2dc1 893e
000000a0: b300 6cbe 918f 78be b1ee 3a3e 6a16 a1bd
000000b0: e15a 0fbe fb54 d53d 2281 bf3d d582 69bc
000000c0: 1800 9d3e dda0 8b3e 49e8 963d d667 b2bd
000000d0: 0db9 29bd df5b 18bd 8e45 9a3e 6570 b13d
000000e0: c03d 03be c7ae d4bd eced 723e e37d d33c
000000f0: 8eff 8dbd f2cf 68be f528 a0bd d040 a7be
00000100: 9588 aabc bcb2 3b3d 8f38 11be 1869 9b3e
00000110: 7d47 8cbe 45ce 693d b89d 063e bdaf e93d
00000120: c7dc 81be 0c82 70bc 2110 e9bd e8ba b53d
00000130: 4b5b 373e 1810 01be 383f 01be d7c4 9c3d
00000140: 785e a83d 3096 353e a43f ca3d 028f 7c3e
00000150: fd2c 093e faa7 9ebd 507b a13e 6361 28be
00000160: b2e4 96be 5b8c 4abe 3868 87be 889c 693d
00000170: f790 1bbe d329 913e 10ed 50be 6ca0 913e
00000180: d793 a23e b6cb 9c3d 011c 093e 4f04 22be
00000190: f493 6cbe fcbc 393e b299 7fbe 6f94 183c
000001a0: c329 103d 489b 0e3e a05f d0bd a66a d53b
000001b0: 3e86 763e eeef 7d3e 8fc9 e93c 41e2 27be
000001c0: 7b4d 46bd 95d6 843e 5dc6 ddbd cc69 5f3e
000001d0: d991 09be 0bb4 8f3e 369e 95be 8178 e13c
000001e0: 7bf1 8f3e d203 10be 0171 92be 4031 773e
000001f0: 8861 233e 521c 1f3e 234d 04be ef58 763e
00000200: 249b 723d c76f 1cbc 296c 073e bc88 fa3d
00000210: 17c4 5bbe 9285 50be 2c1c 983d 01f5 073e
00000220: 364c a43c 8883 c13d ae39 3abe fa80 9f3e
00000230: 55db 113e 4d6e c0bd 33eb 93be 3ddb 7fbe
00000240: d08d 0a3e 7e99 033e f4d1 0dbe 3dd7 cabd
00000250: d632 193e 537b 163d d5ea 633e df09 853e
00000260: 06c3 123d 67cc 743e 3139 933e 0edc b8bd
00000270: e5e4 f2bc dda1 5a3e 7550 4a3e e179 a5be
00000280: a024 833c 26cb 1d3e 2a33 7e3c d5a4 703e
00000290: d4b3 143d 54d3 6abe dab5 643e d44b 1bbe
000002a0: e8f1 dbbd 3850 c4bd c30b 0b3e 8b19 30be
000002b0: cd76 553e e894 5e3e 0ef8 2b3e 16b5 3bbe
000002c0: a517 dd3d a064 80be 95c6 28be 2c3b e23d
000002d0: 3263 8e3e 4b0b 8e3d ef1b c73d b141 d23d
000002e0: aa03 833e 83dc 303d a9ad d13d 13fa 6a3e
000002f0: 745c eb3d a7e1 11be 7884 59be 9c20 a63e
00000300: 046d 2c3e d938 aabe 35ed 9c3e 0706 9abe
00000310: 74a4 9c3e 1d83 cf3d ecd3 383e a38d 1ebe
00000320: b128 193e 189f 6fbd 114a 49be f642 a9be
00000330: 378e df3d f041 17be a6f0 9bbe e7af 803d
00000340: 24b9 763e 07af 0f3e c314 aabe cf96 a23e
00000350: 0172 a5be bb12 5bbe 576b a3bc f802 393e
00000360: 8c09 28be 0640 743d 5249 19be a830 c0bd
00000370: 394d 3c3e 407b 53be dc3a 7d3e ef78 4dbe
00000380: b501 cabc f24e 3c3e 7feb a8bc f461 72be
00000390: bac0 56bd 4b59 cabd 3754 d7bd c85c 883d
000003a0: d4c8 70be 0ada 3a3e 3f47 94be 76c0 4d3d
000003b0: 9aeb 2ebe 4c87 e63c e5b5 af3d 0ecd 523e
000003c0: e26c 2abe 1ec5 4a3e c875 7f3e 60b6 53be
000003d0: c8bc c8bd 078b 893e 5aa1 80bd 28cb f0bc
000003e0: a62b a23e eff6 56be 9734 8e3e 32bc a63e
000003f0: 3fb5 603e 85c0 26bd 9712 9b3d 92b1 6e3b

encoder.actor_encoder.net.mlp.2.weight f4 [256, 256]
-0.009698151 0.032147557 0.0027806247 -0.018909596 -0.031492315 0.078583434 -0.030754553 -0.04931471
-0.036755882 -0.025672076 -0.035124205 -0.058286652 -0.08661556 0.061254576 -0.01249193 -0.0289375
-0.013271903 -0.036518507 -0.046979208 0.021524476 0.057196025 -0.019889819 -0.043726467 0.008116842
-0.03326881 -0.0067255585 -0.06895298 -0.035935115 -0.010890572 0.06571812 0.002520711 0.0062968987
0.014044519 -0.0037113652 -0.017699229 -0.05096151 0.05533258 0.004672131 -0.012013124 0.005560307
-0.032028053 -0.057395738 -0.034556698 -0.04353687 -0.00089517666 -0.04057178 0.038023874 0.052292597
-0.047378097 -0.01767464 -0.036994662 -0.02652967 -0.027008336 0.041166898 0.033464953 -0.010612589
-0.054665294 0.02460181 0.017897902 -0.07347659 0.00938656 0.003090151 -0.064247414 -0.035819616
-0.0032109902 0.03586243 0.05891497 -0.0529481 0.034695048 -0.05654277 -0.040388446 -0.05575792
-0.0022273355 0.0021145097 0.03941949 0.056076836 -0.06301581 -0.055864643 0.02206879 0.030773552
0.02314111 -0.040237706 0.026036652 0.013518929 -0.0551499 -0.021019895 0.017647883 -0.053153284
0.0537753 0.0480347 0.0038497979 0.036035277 0.03691176 0.0033896293 -0.0451061 0.0025377988
-0.055471662 0.0503294 -0.051294114 -0.059036583 0.0065977676 -0.06294466 0.060279958 -0.044662815
0.006369587 0.045983233 0.02780534 0.03025385 0.026920894 0.045650877 0.061451294 0.0052842028
-0.064196296 -0.0059421873 -0.035808243 -0.04652126 0.006607445 0.009644718 0.015374451 -0.06397932
-0.009353982 -0.014534087 0.0014155539 -0.006855757 0.048669152 -0.072663665 -0.07269992 -0.03847506
-0.035827644 -0.04354789 0.021776123 0.0031196657 0.042082813 -0.03136406 0.038345005 0.024095055
0.019942632 0.020737205 0.018055784 0.016709747 0.023169091 -0.04193908 -0.028731726 -0.06223779
0.031973734 0.033729993 0.0383051 -0.05664229 0.015950551 -0.047086254 0.012069139 -0.020431716
-0.04628022 -0.017643608 0.04476328 0.019557033 0.059328087 -0.039065782 -0.013465494 -0.041186143
-0.027185803 -0.0044149803 0.045391608 0.021439668 -0.0062434105 0.045774926 0.050864838 0.031692903
-0.03482028 0.026761593 0.036634043 0.009577714 -0.035556484 0.045975205 -0.010174019 0.047694977
0.06051618 0.016419297 0.05063385 -0.007837044 -0.038510967 -0.07247508 0.03166997 0.021417415
-0.00495924 0.009914364 0.043540113 0.012149626 0.025645996 -0.02117769 0.0033242134 -0.0041907006
-0.04584557 -0.05257975 -0.029887758 0.059388097 -0.01453616 0.055994637 -0.03176209 0.0240989
-0.010817499 -0.045325466 -0.052548807 -0.065234065 0.0310999 -0.023600174 0.04513567 0.023966376
-0.0658512 0.016991861 0.008580343 -0.007876089 0.0055951737 -0.023367936 -0.03205884 -0.048111685
-0.020078788 0.05607116 -0.0008347162 0.013845586 -0.03133337 0.010819276 -0.031392403 -0.011707084
-0.010483599 0.016524535 -0.039430197 -0.012350661 0.06943457 0.043552015 0.043105695 -0.011550505
-0.022786746 -0.04066107 0.04371547 -0.047843136 -0.01951447 0.028630735 -0.0012859432 0.055088118
0.04532028 0.009894584 0.041525204 0.05006043 -0.001577197 -0.06548977 -0.02281999 -0.05517951
-0.0035127332 0.016034633 0.033249427 -0.00713329 -0.05214692 -0.030304475 0.064067975 0.039983973
00000000: fee4 1ebc 28ad 033d 243b 363b 4ce8 9abc
00000010: 16fe 00bd 5af0 a03d f9f0 fbbc 39fe 49bd
00000020: 568d 16bd 3f4e d2bc 66de 0fbd fcbd 6ebd
00000030: 8063 b1bd 14e6 7a3d f4aa 4cbc 560e edbc
00000040: 6572 59bc 6e94 15bd 456d 40bd 1954 b03c
00000050: 6146 6a3d f9ef a2bc 861a 33bd 81fc 043c
00000060: e044 08bd 1362 dcbb 3837 8dbd b330 13bd
00000070: 5f6e 32bc 3997 863d 8332 253b 3756 ce3b
00000080: fb1a 663c 603a 73bb f9fd 90bc 04bd 50bd
00000090: 6aa4 623d ad18 993b b2d2 44bc 3c33 b63b
000000a0: d92f 03bd cb17 6bbd 538b 0dbd b853 32bd
000000b0: 4aaa 6aba 982e 26bd ecbe 1b3d c330 563d
000000c0: 890f 42bd 68ca 90bc b787 17bd c054 d9bc
000000d0: 9640 ddbc 9f9e 283d 8c12 093d 6de0 2dbc
000000e0: b7e8 5fbd bc89 c93c 9f9e 923c e57a 96bd
000000f0: 16ca 193c 2184 4a3b 2694 83bd 97b7 12bd
00000100: 7a6f 52bb 7ce4 123d d350 713d 1be0 58bd
00000110: 651c 0e3d 6499 67bd 5b6e 25bd 6b62 64bd
00000120: 7df8 11bb 9693 0a3b 5576 213d d3b0 653d
00000130: 6f0e 81bd 53d2 64bd 9bc9 b43c d118 fc3c
00000140: 6d92 bd3c 4bd0 24bd d14a d53c 7f7e 5d3c
00000150: dde4 61bd ea31 acbc 4b92 903c 42b7 59bd
00000160: 7d43 5c3d 09c0 443d e44c 7c3b ba99 133d
00000170: c930 173d 8b24 5e3b 2dc1 38bd 3351 263b
00000180: 4136 63bd 3326 4e3d c719 52bd 58d0 71bd
00000190: 1632 d83b 21e9 80bd 1ee8 763d 5bf0 36bd
000001a0: f8b7 d03b ea58 3c3d 06c8 e33c ecd6 f73c
000001b0: 3589 dc3c 6afc 3a3d 5ab4 7b3d 1b27 ad3b
000001c0: 5979 83bd aeb6 c2bb aaab 12bd 148d 3ebd
000001d0: 4483 d83b e104 1e3c 1fe5 7b3c 9707 83bd
000001e0: 7241 19bc 6120 6ebc 1b8a b93a 42a6 e0bb
000001f0: 4e59 473d b0d0 94bd b2e3 94bd 0698 1dbd
00000200: 02c0 12bd 465f 32bd d763 b23c 4e73 4c3b
00000210: 075f 2c3d 9a77 00bd a70f 1d3d fe62 c53c
00000220: bb5e a33c 12e1 a93c b9e9 933c e1e2 883c
00000230: 1bcd bd3c 50c8 2bbd cc5e ebbc 0eed 7ebd
00000240: e4f6 023d 7628 0a3d cfe5 1c3d bf01 68bd
00000250: bbaa 823c 84dd 40bd a3bd 453c 6a60 a7bc
00000260: 5490 3dbd 5489 90bc b359 373d 1236 a03c
00000270: 0202 733d 7103 20bd 609e 5cbc cdb2 28bd
00000280: c3b4 debc 8aab 90bb 8dec 393d 3ea2 af3c
00000290: 8695 ccbb 7d7e 3b3d a657 503d 6bd0 013d
000002a0: b69f 0ebd 213b db3c 940d 163d d8eb 1c3c
000002b0: ada3 11bd 7f50 3c3d eeb0 26bc cf5b 433d
000002c0: d0df 773d c381 863c 7165 4f3d f266 00bc
000002d0: adbd 1dbd d16d 94bd 5fb8 013d 9373 af3c
000002e0: 1f81 a2bb db6f 223c 1e57 323d 3a0f 473c
000002f0: 8d17 d23c d67c adbc 0cdb 593b 2552 89bb
00000300: 90c8 3bbd dd5d 57bd 2cd7 f4bc ef40 733d
00000310: 1329 6ebc a25a 653d f718 02bd 0e6b c53c
00000320: e13b 31bc 32a7 39bd 6b3d 57bd 7099 85bd
00000330: 38c5 fe3c 2755 c1bc 2ee0 383d 2255 c43c
00000340: fedc 86bd 8432 8b3c 9194 0c3c b60a 01bc
00000350: b857 b73b 1d6e bfbc 2150 03bd c210 45bd
00000360: 457c a4bc dfaa 653d dbd0 5aba 99d8 623c
00000370: 6b57 00bd 5543 313c 5295 00bd 12cf 3fbc
00000380: 67c3 2bbc 765e 873c 8f81 21bd 6d5a 4abc
00000390: b633 8e3d 9963 323d 998f 303d 543e 3dbc
000003a0: 45ab babc 398c 26bd fe0e 333d 2af7 43bd
000003b0: cfdc 9fbc 018b ea3c 188d a8ba 14a4 613d
000003c0: c2a1 393d e51c 223c 5516 2a3d 2a0c 4d3d
000003d0: f3b9 ceba 801f 86bd fdf0 babc e903 62bd
000003e0: e235 66bb 105b 833c 8d30 083d 60be e9bb
000003f0: 0298 55bd 1741 f8bc 1236 833d 3cc6 233d

encoder.actor_encoder.net.mlp.2.bias f4 [256]
-0.035185583 0.033217575 -0.039904594 0.057580233 -0.040220663 -0.07881654 0.016421711 -0.028763201
-0.048453 -0.040083367 -0.015302626 -0.057524003 0.061432216 0.006385078 -0.051143784 0.018144393
-0.049359053 -0.0071133687 0.048663676 -0.041806664 -0.042972296 0.05351678 -0.039114013 0.02083901
-0.025000421 -0.045348093 0.04985666 -0.055668302 -0.000532213 -0.028016249 -0.037213903 -0.03544719
0.027129801 -0.009314657 0.021424605 -0.0050448836 -0.06722308 -0.051801257 0.04009494 0.023861583
0.03441772 0.05588043 -0.044579983 -0.012606134 -5.1864958e-05 0.052126344 0.029249506 0.032598987
-0.005038752 0.050185975 0.06301272 -0.008711558 -0.04983301 0.039008044 -0.034105234 -0.04668704
-0.028371876 -0.029474648 -0.057984598 0.02341695 -0.017013235 0.00323546 -0.009223478 0.050241303
-0.0058464766 0.024640039 -0.04193348 -0.014809796 -0.026527647 0.0429442 0.04078241 -0.0066682077
-0.038217906 0.05828873 -0.029222324 -0.022165637 -0.02858652 0.020115208 0.0513353 -0.02969916
-0.009684335 -0.047078274 0.008328672 -0.03683077 0.015983637 -0.017743163 0.035351895 0.017421901
0.0070695016 -0.015287389 0.04164769 -0.03147907 -0.06689206 -0.0054232148 0.061045673 0.016642492
-0.028702743 0.03775606 -0.009890517 0.0058128717 0.021910008 0.0027764859 -0.010492017 -0.010117569
-0.022923509 0.0076309573 -0.008776197 0.046868976 0.021901252 -0.033651248 -0.07665923 -0.04470705
-0.048701532 -0.025790635 -0.019990139 -0.046499968 0.042107332 -0.06210553 -0.052216485 -0.0017902688
0.023528162 0.023192797 0.06692804 -0.07176279 0.023079256 -0.047149803 0.04573471 0.039505202
0.012741724 0.042700056 -0.017689139 -0.022033157 -0.018607387 0.036616176 0.043361112 -0.05034689
-0.051737454 0.00012784722 0.02276504 0.009878582 -0.040294003 -0.04410306 0.069423445 -0.040362164
-0.042513166 0.020826723 -0.050492313 -0.016253712 0.016683428 0.009442379 -0.050923515 0.043668985
-0.04397293 -0.016737401 -0.013991641 -0.039857935 0.050764147 -0.015887434 -0.04215257 0.059203833
0.036423877 0.019735696 -0.018802553 0.019969534 -0.06086164 -0.045742754 0.031965956 -0.061178826
0.041590087 -0.031451203 0.063351 -0.017827211 -0.037008796 0.018724756 -0.03699244 0.018399954
-0.027570806 -0.04393679 -0.053476583 -0.060726047 0.008669518 0.0020037373 0.017317196 0.027995607
0.040081628 0.0031933887 0.060443737 0.014549659 -0.018922176 0.019688487 0.014741348 0.012244923
-0.07217154 -0.020278707 0.05606342 -0.04418492 -0.04023381 0.0016135691 0.020435264 0.04864085
-0.00973198 0.03775463 -0.029678043 0.0744937 0.011188266 0.06741918 -0.024001684 -0.020569582
-0.016583376 -0.057604987 -0.0020778447 0.059602126 0.02505859 0.025942205 0.02937011 0.05355711
-0.064935654 -0.0026622533 0.048829023 0.05871482 0.06437771 0.017332856 0.046575725 -0.01811566
-0.06149122 0.009372752 0.030239718 -0.035875354 -0.05990407 -0.017327247 0.049667906 0.04477608
0.0059117964 -0.041666243 0.015217447 0.03215871 -0.04388329 0.06660131 0.042016592 -0.02444897
-0.06204012 0.04325381 0.027358336 -0.029012151 0.011374544 0.047147088 0.039961394 -0.04902143
-0.018921096 0.0372795 0.029123383 -0.008288522 0.04770506 0.009850075 0.055823587 -0.047219973
00000000: c21e 10bd 270f 083d 0073 23bd 40d9 6b3d
00000010: 6cbe 24bd 916a a1bd d386 863c cea0 ebbc
00000020: a776 46bd 752e 24bd deb7 7abc 4a9e 6bbd
00000030: 59a0 7b3d eb39 d13b 257c 51bd 8da3 943c
00000040: b82c 4abd 4317 e9bb 9053 473d 773d 2bbd
00000050: b803 30bd 6934 5b3d 0436 20bd 92b6 aa3c
00000060: afcd ccbc ecbe 39bd 7f36 4c3d 7204 64bd
00000070: 3684 0bba 5582 e5bc 9b6d 18bd 1331 11bd
00000080: 513f de3c 819c 18bc a782 af3c 8d4f a5bb
00000090: 41ac 89bd 8e2d 54bd 983a 243d 5e79 c33c
000000a0: 98f9 0c3d e1e2 643d 8099 36bd f589 4ebc
000000b0: 9389 59b8 6f82 553d a99c ef3c 8486 053d
000000c0: 1e1c a5bb cf8f 4d3d d00c 813d ecba 0ebc
000000d0: b31d 4cbd e6c6 1f3d eeb1 0bbd e93a 3fbd
000000e0: 236c e8bc d174 f1bc 4281 6dbd e7d4 bf3c
000000f0: 575f 8bbc 030a 543b 121e 17bc d3c9 4d3d
00000100: cd93 bfbb e8d9 c93c 71c2 2bbd c9a4 72bc
00000110: 8250 d9bc 42e6 2f3d 750b 273d fb80 dabb
00000120: 618a 1cbd 2ac0 6e3d a863 efbc b694 b5bc
00000130: 472e eabc a6c8 a43c f744 523d a74b f3bc
00000140: 0cab 1ebc 26d5 40bd fb74 083c dddb 16bd
00000150: 1ef0 823c 1c5a 91bc 26cd 103d 60b8 8e3c
00000160: 47a7 e73b f577 7abc c596 2a3d 33f0 00bd
00000170: b4fe 88bd 39b5 b1bb 070b 7a3d d655 883c
00000180: 0422 ebbc 19a6 1a3d d60b 22bc e779 be3b
00000190: 9e7c b33c b4f5 353b b5e6 2bbc 29c4 25bc
000001a0: 15ca bbbc 1c0d fa3b 0aca 0fbc aff9 3f3d
000001b0: 416a b33c e4d5 09bd 84ff 9cbd bd1e 37bd
000001c0: 427b 47bd e246 d3bc 5cc2 a3bc c076 3ebd
000001d0: bd78 2c3d 5e62 7ebd f4e0 55bd 74a7 eaba
000001e0: 22be c03c d2fe bd3c 9111 893d 5ff8 92bd
000001f0: b510 bd3c 2720 41bd 5254 3b3d 35d0 213d
00000200: aac2 503c 41e6 2e3d d0e8 90bc e17e b4bc
00000210: 856e 98bc d8fa 153d 6c9b 313d 8a38 4ebd
00000220: a7ea 53bd ba0e 0639 c07d ba3c c7d9 213c
00000230: 530b 25bd 69a5 34bd e12d 8e3d cc52 25bd
00000240: 4922 2ebd ce9c aa3c 07d1 4ebd 8126 85bc
00000250: afab 883c 35b4 1a3c 2d95 50bd 40de 323d
00000260: f61c 34bd e01c 89bc 323d 65bc 1342 23bd
00000270: 11ee 4f3d 5d26 82bc 2ca8 2cbd b87f 723d
00000280: 3431 153d c1ac a13c d007 9abc 2697 a33c
00000290: 0e4a 79bd c15c 3bbd bcee 023d a696 7abd
000002a0: 5e5a 2a3d fad2 00bd 2bbe 813d 5f0a 92bc
000002b0: 8996 17bd a964 993c 6285 17bd 80bb 963c
000002c0: 2cdc e1bc 10f7 33bd 430a 5bbd e0bb 78bd
000002d0: 980a 0e3c 2251 033b cbdc 8d3c 0b57 e53c
000002e0: a22c 243d 2c48 513b da93 773d b161 6e3c
000002f0: ae02 9bbc c049 a13c b285 713c ee9e 483c
00000300: acce 93bd 881f a6bc c2a2 653d 3ffb 34bd
00000310: 35cc 24bd 657e d33a db67 a73c a13b 473d
00000320: e272 1fbc 99a4 1a3d 5e1f f3bc 2790 983d
00000330: fd4e 373c 1113 8a3d 2e9f c4bc 8a81 a8bc
00000340: dcd9 87bc 35f3 6bbd 732c 08bb 5c21 743d
00000350: ac47 cd3c bf84 d43c 9699 f03c b35e 5b3d
00000360: fcfc 84bd 3379 2ebb f100 483d f37e 703d
00000370: 76d8 833d a2fd 8d3c 30c6 3e3d 4b67 94bc
00000380: 38de 7bbd 2c90 193c 49b9 f73c 09f2 12bd
00000390: f85d 75bd dff1 8dbc 9370 4b3d 1f67 373d
000003a0: beb7 c13b 39aa 2abd 9952 793c dab8 033d
000003b0: f7be 33bd 4566 883d 9719 2c3d 3549 c8bc
000003c0: c81d 7ebd e82a 313d 971e e03c e4aa edbc
000003d0: 4c5c 3a3c 4e1d 413d 8fae 233d b2ca 48bd
000003e0: 6a00 9bbc 64b2 183d 2994 ee3c 95cc 07bc
000003f0: 6266 433d 3562 213c 46a7 643d bb69 41bd

encoder.critic_encoder.net.mlp.0.weight f4 [256, 10]
-0.24746543 0.1790026 -0.23304144 -0.14612545 -0.12827721 -0.052928142 -0.19084573 -0.2128217
-0.12199335 -0.15365978 -0.28440928 0.030375162 0.22727723 0.13020352 0.016263956 -0.14750434
-0.015001307 0.15001361 0.15680474 -0.23345293 -0.051512443 -0.26987472 -0.023529934 0.08569207
0.2293935 0.06537668 0.001925169 0.036191285 0.28264636 0.22893715 -0.19014569 0.07580902
-0.053623367 0.23803182 0.12645277 -0.047512926 0.18472534 0.24223852 -0.120306194 0.085262254
-0.39052367 -0.033291783 -0.21464695 -0.27218562 -0.06396311 -0.20604147 0.13896222 0.21825092
0.14941761 0.26755482 -0.13936187 0.16777822 -0.20721 0.07184879 -0.045084845 -0.050161265
-0.2606356 0.19607025 -0.24647222 0.26590562 0.1512018 0.077160485 -0.042658087 0.30182847
-0.21718408 -0.31554407 -0.13263196 0.010454744 0.03187241 0.0036264472 -0.062839694 -0.24058971
-0.16268802 0.14423661 -0.1611363 0.29268083 0.017034262 -0.16414973 -0.11383417 0.0008715441
-0.12880307 0.3235374 0.11866749 -0.25239065 -0.09368256 0.0867112 -0.17047869 -0.05723993
0.24856886 -0.20337366 -0.22624242 -0.056907315 0.24177657 -0.21649446 -0.07704151 -0.16586043
-0.27980515 0.07204161 -0.021302102 -0.29972464 0.15649831 0.18665843 0.043914184 -0.19351716
0.007918854 0.25186697 0.15423317 0.18759283 -0.18205607 0.30524176 0.16523695 -0.164443
-0.09317025 -0.038347505 0.22783573 0.21096787 0.06456614 -0.2780064 0.2834345 0.17097233
0.008367075 -0.1117172 0.08588284 0.21667598 0.12218922 0.23688151 0.009053881 -0.003468987
0.19862585 0.10706792 0.061358925 0.29209748 -0.09273946 0.012073454 -0.1367883 -0.0013340526
-0.09255471 -0.102592304 -0.14465909 -0.2800866 0.2827543 -0.29871315 0.16739318 0.10030455
-0.12855919 -0.21434437 -0.24446361 0.092769496 -0.32272682 0.044295512 -0.26574004 -0.21962318
0.15539262 -0.21780953 0.012855054 0.024375161 -0.14586243 -0.22836989 -0.08093315 -0.29588526
-0.18121266 0.02054939 -0.12909563 -0.29112488 -0.17340238 0.23602869 -0.2865882 0.21803708
-0.08818857 -0.17367822 0.042431127 0.1547356 0.30319458 -0.18135574 0.24932924 -0.30698326
0.25241858 0.13293466 -0.21358804 0.0021274355 -0.23493215 -0.03026924 0.2208104 -0.04041921
-0.19605337 0.20609528 -0.07925893 0.15544552 0.13468072 -0.18718989 0.31429115 -0.1623714
0.3001154 0.03650029 0.17927201 -0.21890008 0.088289574 -0.025157101 0.13207044 0.28941664
-0.26216137 -0.010524809 -0.015037321 -0.010282107 0.0054944064 -0.19690248 0.204064 -0.18797994
0.07066549 0.12579735 0.27293503 -0.108486146 0.17592289 0.029047366 -0.010551081 -0.0040414855
-0.057869267 -0.2551678 0.1872079 0.044208035 0.20048922 0.24592952 0.24538715 -0.05243714
0.041970856 -0.144001 -0.20104219 -0.02794968 0.08925956 -0.25091317 0.1921733 -0.27112928
-1.0674648e-05 0.15831241 -0.052105315 -0.26254946 0.25167337 -0.26033986 -0.20949584 0.16389188
0.11849508 -0.18234195 -0.10401115 -0.2848537 -0.09444144 -0.27641448 0.22660792 -0.006705163
0.23114058 0.20663294 -0.045383554 0.050275978 0.28767604 -0.03364357 0.25937036 0.22204639
00000000: 9467 7dbe 754c 373e 6aa2 6ebe e9a1 15be
00000010: 1a5b 03be 2ecb 58bd 106d 43be efed 59be
00000020: a6d7 f9bd fd58 1dbe 189e 91be 55d5 f83c
00000030: 5dbb 683e 1254 053e fd3b 853c 610b 17be
00000040: 0bc8 75bc 2b9d 193e 6c91 203e 490e 6fbe
00000050: b6fe 52bd 052d 8abe d9c1 c0bc 537f af3d
00000060: 21e6 6a3e 35e4 853d f455 fc3a 503d 143d
00000070: 06b7 903e 806e 6a3e 8db5 42be c241 9b3d
00000080: 2da4 5bbd 9dbe 733e d67c 013e ea9c 42bd
00000090: a428 3d3e 600d 783e 1863 f6bd fa9d ae3d
000000a0: b8f2 c7be f75c 08bd 69cc 5bbe ea5b 8bbe
000000b0: 17ff 82bd 89fc 52be 1d4c 0e3e 2b7d 5f3e
000000c0: ee00 193e f2fc 883e e1b4 0ebe 0ece 2b3e
000000d0: dc2e 54be 7525 933d e3aa 38bd e675 4dbd
000000e0: 0872 85be a4c6 483e 3763 7cbe c824 883e
000000f0: a5d4 1a3e 5106 9e3d 3fba 2ebd 4389 9a3e
00000100: 8165 5ebe fe8e a1be acd0 07be 604a 2b3c
00000110: a58c 023d b0a9 6d3b 19b2 80bd 265d 76be
00000120: b097 26be c3b2 133e ea00 25be 43da 953e
00000130: 708b 8b3c de16 28be e421 e9bd 5678 643a
00000140: f4e4 03be b2a6 a53e f107 f33d 5939 81be
00000150: a4dc bfbd a495 b13d f791 2ebe 6b74 6abd
00000160: d688 7e3e 2f41 50be 18ac 67be a517 69bd
00000170: 4794 773e b9b0 5dbe f0c7 9dbd 51d7 29be
00000180: 9f42 8fbe 8d8a 933d bf81 aebc 8275 99be
00000190: 1841 203e 6323 3f3e 5cdf 333d 5d29 46be
000001a0: 15be 013c b5f4 803e 4def 1d3e 5618 403e
000001b0: e86c 3abe a648 9c3e e033 293e bf63 28be
000001c0: 0bd0 bebd 4612 1dbd c54d 693e f607 583e
000001d0: 413b 843d db56 8ebe 541e 913e 5f13 2f3e
000001e0: 0e16 093c fdcb e4bd 58e3 af3d 4fe0 5d3e
000001f0: 573e fa3d 1191 723e bb56 143c f257 63bb
00000200: 9364 4b3e 6d46 db3d 7f53 7b3d cd8d 953e
00000210: 30ee bdbd bdcf 453c 3b12 0cbe 61db aeba
00000220: 538d bdbd ea1b d2bd 8321 14be 8367 8fbe
00000230: 2cc5 903e eef0 98be 1e69 2b3e 796c cd3d
00000240: 05a5 03be 177d 5bbe ab54 7abe effd bd3d
00000250: 733c a5be 366f 353d 140f 88be e6e4 60be
00000260: 3e1f 1f3e 7609 5fbe 019e 523c 6bae c73c
00000270: f65c 15be ccd9 69be 48c0 a5bd 467e 97be
00000280: d08f 39be 3257 a83c a531 04be 520e 95be
00000290: 6590 31be 81b1 713e b0bb 92be 1d45 5f3e
000002a0: 369c b4bd b4d8 31be 43cc 2d3d 0273 1e3e
000002b0: 523c 9b3e 52b5 39be 2a50 7f3e e92c 9dbe
000002c0: 023d 813e 0620 083e d3b6 5abe 726c 0b3b
000002d0: 0e92 70be 32f7 f7bc 1f1c 623e 9d8e 25bd
000002e0: 37c2 48be a40a 533e 8252 a2bd 1c2d 1f3e
000002f0: bee9 093e b5ae 3fbe c5ea a03e b044 26be
00000300: baa8 993e 5481 153d 1593 373e 5827 60be
00000310: 2ad1 b43d 4416 cebc 793d 073e 6b2e 943e
00000320: 043a 86be 4070 2cbc 185f 76bc 4876 28bc
00000330: 6c0a b43b cea0 49be 27f6 503e d07d 40be
00000340: 12b9 903d 05d1 003e 24be 8b3e fc2d debd
00000350: 2125 343e bef4 ed3c 71de 2cbc 706e 84bb
00000360: 5308 6dbd 5ba5 82be 6eb3 3f3e 7c13 353d
00000370: 0c4d 4d3e f3d4 7b3e c546 7b3e 54c8 56bd
00000380: a2e9 2b3d 0075 13be 01de 4dbe baf6 e4bc
00000390: b7cd b63d b177 80be 14c9 443e 75d1 8abe
000003a0: 4417 33b7 a61c 223e 626c 55bd e26c 86be
000003b0: 55db 803e 444b 85be 1486 56be 46d3 273e
000003c0: 8cad f23d d9b7 3abe cc03 d5bd 58d8 91be
000003d0: 846a c1bd 3386 8dbe e80b 683e fcb6 dbbb
000003e0: 1eb0 6c3e 9697 533e 1be4 39bd 2fee 4d3d
000003f0: 464a 933e d7cd 09bd 31cc 843e 2160 633e

encoder.critic_encoder.net.mlp.0.bias f4 [256]
-0.28820348 0.0152453305 0.21385722 -0.2399355 0.116744034 -0.22368664 0.2911735 0.18703909
-0.06550732 0.08202653 -0.14298214 -0.2526663 -0.005812105 -0.07363524 0.2508069 -0.009669524
-0.3193602 -0.11946311 0.07663451 0.28846297 -0.32819778 -0.15656431 -0.043440975 -0.06768321
-0.037617605 -0.081517465 0.29620796 0.046649743 -0.05061025 0.116629586 0.2573611 -0.09896819
0.2364918 0.34966972 0.1096712 -0.26605502 0.30545446 0.18688624 -0.16777186 -0.0508527
0.033191692 -0.116036385 -0.13548379 -0.22042127 -0.23153354 0.012327111 0.13631955 0.04637593
-0.30920482 0.10133767 0.25206164 0.043707497 0.2484323 -0.08015118 -0.2270809 -0.05707022
-0.2987575 -0.072787784 -0.18882352 0.31498224 0.12980646 -0.29292235 0.032217357 -0.08986272
0.27967635 0.14272866 -0.07362881 -0.21664353 -0.09179341 0.3042533 0.038809497 -0.22292641
0.0018780498 -0.014869844 0.052954614 0.025512705 -0.29459283 -0.052499205 0.23606795 -0.1670563
0.29154432 0.052510157 -0.20206666 -0.19642459 0.081524335 -0.1204087 0.10194054 0.08818567
-0.11487046 0.16861168 0.04215096 0.032349903 -0.21899259 -0.05939449 -0.101937085 -0.21344917
0.04349267 -0.061986063 0.1484122 0.330815 -0.20746715 -0.1578885 0.24400789 0.012845824
-0.10902736 -0.22745845 -0.24746948 -0.2788328 0.10710278 -0.27517483 -0.11169981 -0.16723388
-0.26969343 -0.27956295 -0.22334218 0.17277606 0.0013333343 -0.161565 0.16557504 -0.01877059
0.29559365 -0.22547525 -0.15696019 -0.13323633 -0.034920413 -0.33194014 -0.22041054 0.29899293
-0.1474282 -0.004285591 -0.1930504 -0.0054461607 0.28851154 0.045310676 -0.04724975 -0.04057862
0.24149911 -0.072785646 -0.2056983 -0.28846255 -0.28341332 -0.12980814 0.29526243 0.00554211
0.073271826 0.027655566 0.14112505 -0.22986516 0.08892939 0.043273494 -0.08583928 0.15918252
0.2527807 -0.26310968 0.025092088 0.24715 0.108563125 0.023036825 -0.21354751 -0.1777499
0.016534181 -0.21697125 -0.07158592 0.15996256 0.11784966 0.058879957 -0.13276754 0.22005649
0.26306725 0.18959233 -0.28899634 -0.09210843 0.25045374 0.05854958 -0.18304932 -0.32991043
-0.10114451 -0.23681112 0.0048704688 -0.2315719 -0.07839213 0.17103507 0.0641097 0.04088104
0.059997454 -0.3001492 -0.14328787 -0.28433615 -0.20306316 0.039448027 -0.3367074 0.13628124
0.002685374 0.09254638 -0.028538315 -0.107549034 0.20382547 -0.00090840244 -0.2712635 -0.124311745
0.33017126 -0.08724439 0.31909347 -0.11890813 0.005238624 0.1416996 0.3383077 0.05692632
-0.18622679 -0.094839 -0.10430782 -0.15077174 0.1785773 -0.18055968 0.03936929 -0.24257746
-0.19732155 0.21403214 0.26643997 -0.15224802 0.10356723 0.083464794 0.098674946 0.34380305
-0.2075096 -0.079468936 -0.080247104 -0.1546526 0.13959156 -0.068434104 -0.08323903 -0.3200382
-0.19512431 0.21715963 0.20949325 0.16449156 -0.047205053 0.1087011 -0.00010699505 -0.34074035
0.10793498 -0.3037903 -0.19043949 0.30413705 0.1837907 0.03678775 0.12443932 -0.037936796
0.095091484 0.19150737 -0.20632593 -0.1908991 0.34963843 -0.22813702 0.22008398 0.22140041
00000000: 688f 93be 8dc7 793c 63fd 5a3e a7b1 75be
00000010: 7f17 ef3d 1c0e 65be b114 953e 2d87 3f3e
00000020: b428 86bd 86fd a73d e969 12be 7a5d 81be
00000030: 7873 bebb 13ce 96bd c369 803e ec6c 1ebc
00000040: 2e83 a3be 13a9 f4bd 8ef2 9c3d 6bb1 933e
00000050: 8a09 a8be 6552 20be 2aef 31bd 7f9d 8abd
00000060: eb14 1abd a1f2 a6bd 92a8 973e cd13 3f3d
00000070: b24c 4fbd 7edb ee3d d6c4 833e d6af cabd
00000080: e82a 723e e907 b33e 4b9b e03d 5d38 88be
00000090: 8764 9c3e 1b5f 3f3e 63cc 2bbe ec4a 50bd
000000a0: 03f4 073d 7ca4 edbd 43bc 0abe 1db6 61be
000000b0: 2117 6dbe a7f7 493c 5a97 0b3e b0f4 3d3d
000000c0: 1850 9ebe 208a cf3d 390e 813e a206 333d
000000d0: 0965 7e3e 4d26 a4bd e587 68be 77c2 69bd
000000e0: bef6 98be c311 95bd f45a 41be 5a45 a13e
000000f0: fceb 043e ebf9 95be 59f6 033d f209 b8bd
00000100: bd31 8f3e 7627 123e b4ca 96bd cdd7 5dbe
00000110: 2ffe bbbd 17c7 9b3e b5f6 1e3d d246 64be
00000120: e528 f63a a5a0 73bc f0e6 583d 0500 d13c
00000130: dfd4 96be 6809 57bd ccbb 713e cf10 2bbe
00000140: 4c45 953e e414 573d 90ea 4ebe 8723 49be
00000150: 3bf6 a63d d698 f6bd 34c6 d03d b09a b43d
00000160: 3441 ebbd 8aa8 2c3e 7ca6 2c3d 5581 043d
00000170: 983f 60be a347 73bd 64c4 d0bd 6b92 5abe
00000180: 5f25 323d 19e5 7dbd 5ef9 173e 9560 a93e
00000190: 4572 54be 86ad 21be 34dd 793e 4a77 523c
000001a0: bd49 dfbd deea 68be a468 7dbe 2cc3 8ebe
000001b0: b458 db3d b7e3 8cbe dfc2 e4bd 5c3f 2bbe
000001c0: 4215 8abe e022 8fbe d0b3 64be 35ec 303e
000001d0: 46c3 ae3a 4c71 25be 818c 293e c8c4 99bc
000001e0: 0d58 973e fce2 66be 2cba 20be 1b6f 08be
000001f0: b508 0fbd 0ff4 a9be 4db3 61be 9a15 993e
00000200: 6bf7 16be 256e 8cbb 01af 45be b575 b2bb
00000210: c9b7 933e b097 393d f488 41bd c435 26bd
00000220: 8b4b 773e a410 95bd 93a2 52be 5db1 93be
00000230: 8d1b 91be 6dec 04be a32c 973e 979a b53b
00000240: 8a0f 963d ed8d e23c 1683 103e c661 6bbe
00000250: 9d20 b63d 8c3f 313d 81cc afbd be00 233e
00000260: 796c 813e 50b6 86be ec8d cd3c e414 7d3e
00000270: 5856 de3d b9b7 bc3c 33ac 5abe 1204 36be
00000280: b172 873c b62d 5ebe a49b 92bd 3acd 233e
00000290: 2a5b f13d 1c2c 713d 37f4 07be 7d56 613e
000002a0: c0b0 863e 7e24 423e 54f7 93be 58a3 bcbd
000002b0: 793b 803e afd1 6f3d 4871 3bbe 05ea a8be
000002c0: da24 cfbd 9d7e 72be 7498 9f3b 2f21 6dbe
000002d0: 0e8c a0bd d123 2f3e f24b 833d e172 273d
000002e0: e4bf 753d 28ad 99be 0eba 12be 8294 91be
000002f0: caef 4fbe 4194 213d ea64 acbe 4f8d 0b3e
00000300: 1afd 2f3b f588 bd3d 2fc9 e9bc ab42 dcbd
00000310: a0b7 503e db21 6eba 0de3 8abe 2897 febd
00000320: 350c a93e 30ad b2bd 3860 a33e 1b86 f3bd
00000330: c3a8 ab3b b319 113e ab36 ad3e 932b 693d
00000340: 3cb2 3ebe f33a c2bd 579f d5bd e863 1abe
00000350: f8dc 363e a3e4 38be b141 213d 3a66 78be
00000360: a90e 4abe 3e2b 5b3e d26a 883e e8e6 1bbe
00000370: 0e1b d43d 97ef aa3d 1716 ca3d f406 b03e
00000380: 667d 54be 9cc0 a2bd 9858 a4bd 405d 1ebe
00000390: 17f1 0e3e 2e27 8cbd 3979 aabd 0cdc a3be
000003a0: abce 47be 185f 5e3e 6685 563e 7a70 283e
000003b0: 165a 41bd af9e de3d 8862 e0b8 8575 aebe
000003c0: 040d dd3d 678a 9bbe 9202 43be dab7 9b3e
000003d0: a133 3c3e c0ae 163d 0bda fe3d 9d63 1bbd
000003e0: 53bf c23d 821a 443e 1b47 53be 0e7b 43be
000003f0: cf03 b33e c09c 69be b25d 613e cab6 623e

encoder.critic_encoder.net.mlp.2.weight f4 [256, 256]
0.042696178 -0.08021049 0.0055876914 -0.04506359 0.03228431 -0.026322521 0.047416907 0.036728423
-0.045818232 -0.0074808467 -0.04983192 0.04561524 -0.01904439 -0.03930865 0.07351893 -0.054887157
-0.010924722 -0.025007948 0.053850528 0.036583047 0.06569889 0.013965947 0.053692132 0.048115574
0.02257061 0.010152517 -0.04145223 0.043843057 -0.06809474 -0.04766903 0.042399712 0.053006157
-0.07150996 -0.06579478 -0.08724 0.14675948 0.096185915 0.019239346 0.022450848 -0.0071923938
0.03761627 0.04371929 0.053072777 -0.06272305 0.027891291 0.023254547 -0.09821265 0.10618664
-0.07099319 -0.041212182 -0.043147266 0.011568444 -0.051676873 0.04391442 -0.044201657 0.04403821
-0.042821083 0.08185128 0.021576662 -0.075174466 0.010453702 -0.0026045288 0.026352316 0.092828795
-0.033527516 -0.035761774 0.112263024 -0.009065646 -0.028280184 0.036398895 0.005675937 0.042331364
0.027344806 0.05655445 0.055041526 0.009229835 -0.07147031 0.05537665 -0.03842651 0.0072669648
-0.06997207 0.05642728 0.022880007 -0.0038348318 -0.06612526 0.17284344 -0.020344019 0.025383027
-0.0056330822 -0.069134876 -0.03723378 -0.02466659 -0.015578793 -0.0013046948 0.043690357 0.0745947
-0.03954397 0.075300485 -0.033216357 0.0046090954 0.06493953 0.008167984 0.026527384 0.055422466
-0.0154813295 0.059614755 0.037433233 0.062258936 0.04670672 -0.002380382 0.057837166 0.0036523
-0.010780098 0.043252766 0.06054058 0.064011365 -0.01403286 -0.04335647 -0.01807285 -0.09168147
-0.03178046 -0.05843274 -0.12077343 -0.04128662 -0.032751065 0.0032582995 -0.03143871 0.06747786
0.04778029 0.026296861 -0.07212303 -0.03408753 0.041413575 -0.035075605 0.011138478 -0.04956579
-0.06826777 -0.00012378195 0.08162865 -0.00408359 -0.021551503 -0.040203005 -0.016959105 -0.009479328
-0.013554999 0.025948796 -0.02971788 -0.017182346 -0.041972816 0.031044045 -0.033086598 0.0028862287
-0.049878046 0.033513136 0.034372285 0.12941752 -0.026331017 -0.016082365 0.0531241 0.027607372
-0.0512548 -0.016293915 0.007548188 -0.04607003 0.005960435 -0.06660335 0.06074024 -0.038277056
-0.07517763 0.030078536 0.010093502 -0.02034856 0.02438009 -0.029525382 -0.004051498 -0.062443987
0.04695731 0.015869934 -0.062153928 0.04818937 0.06043491 0.044449545 0.0033207107 0.031206418
0.033040855 0.028891494 -0.029366469 -0.012287908 0.01999102 -0.025041036 -0.049028914 -0.049557794
-0.032859914 -0.05271479 0.025567438 0.024577133 -0.02160697 0.044381108 -0.055855956 0.023279145
0.029851286 -0.053195287 -0.05878018 -0.046157006 -0.053448446 0.06342623 0.01825464 -0.03445074
-0.0569264 -0.029819418 -0.00884875 -0.03749207 0.07576269 0.0489765 0.01265269 -0.004263757
-0.003083455 0.007859333 0.011644243 0.033180732 0.029287226 -0.009185881 -0.052746467 -0.062366527
-0.0106083555 0.05557037 0.00084148144 -0.19768949 0.004826707 -0.012342867 -0.044705786 -0.054863703
0.028527843 0.025055364 -0.05430921 -0.14034379 -0.021090494 0.06901714 0.045725964 0.055194996
0.026097536 -0.049094927 0.0243387 -0.012142091 -0.0704933 -0.042213306 -0.052293617 -0.0018319305
0.060611628 -0.024335157 -0.013676721 0.010987899 0.028100016 0.044277348 0.016123267 -0.05441421
00000000: 30e2 2e3d 6645 a4bd f418 b73b 9994 38bd
00000010: 8d3c 043d 54a2 d7bc 3b38 423d 8b70 163d
00000020: e6ab 3bbd e421 f5bb 8e1c 4cbd 0cd7 3a3d
00000030: fb02 9cbc 1b02 21bd 1891 963d 5bd1 60bd
00000040: 9bfd 32bc 78dd ccbc 5f92 5c3d 1bd8 153d
00000050: 248d 863d 6dd1 643c 48ec 5b3d d614 453d
00000060: 00e6 b83c be56 263c d0c9 29bd c794 333d
00000070: 4175 8bbd 9a40 43bd 52ab 2d3d fc1c 593d
00000080: d073 92bd 6abf 86bd e3aa b2bd 1e48 163e
00000090: 1ffd c43d d59b 9d3c d7ea b73c 2cae ebbb
000000a0: 8513 1a3d 0013 333d d762 593d f174 80bd
000000b0: 477c e43c 5280 be3c b723 c9bd 6278 d93d
000000c0: e164 91bd 1bce 28bd 30bb 30bd 9289 3d3c
000000d0: 21ab 53bd 9bdf 333d cc0c 35bd 6961 343d
000000e0: 2965 2fbd a5a1 a73d 8ac1 b03c 12f5 99bd
000000f0: 0146 2b3c beb0 2abb d0e0 d73c 061d be3d
00000100: 2654 09bd f07a 12bd 28ea e53d 1388 14bc
00000110: d8ab e7bc 0217 153d 36fd b93b a763 2d3d
00000120: 3702 e03c a4a5 673d 3973 613d bc38 173c
00000130: 075f 92bd a0d2 623d 1e65 1dbd b81f ee3b
00000140: 844d 8fbd 4b20 673d da6e bb3c cd51 7bbb
00000150: ae6c 87bd dffd 303e 80a8 a6bc 11f0 cf3c
00000160: b895 b8bb 9696 8dbd 7382 18bd 9711 cabc
00000170: 323e 7fbc 4b02 abba a9f4 323d 1bc5 983d
00000180: dcf8 21bd 2437 9a3d e00d 08bd e507 973b
00000190: 04ff 843d 02d3 053c f54f d93c ab02 633d
000001a0: 67a5 7dbc 9a2e 743d 9753 193d 3a03 7f3d
000001b0: 8c4f 3f3d 2f00 1cbb aae6 6c3d 6d5b 6f3b
000001c0: 029f 30bc d029 313d 66f9 773d 6418 833d
000001d0: 15ea 65bc 8e96 31bd 830d 94bc 7fc3 bbbd
000001e0: 3a2c 02bd 2b57 6fbd 0f58 f7bd 291c 29bd
000001f0: fb25 06bd 3289 553b e0c5 00bd d531 8a3d
00000200: 44b5 433d 846c d73c 3db5 93bd 5e9f 0bbd
00000210: 48a1 293d 70ab 0fbd 2a7e 363c 7f05 4bbd
00000220: f9cf 8bbd 77cb 01b9 ec2c a73d a3cf 85bb
00000230: c78c b0bc e8ab 24bd d2ed 8abc 2f4f 1bbc
00000240: c915 5ebc 9292 d43c e972 f3bc fec1 8cbc
00000250: b0eb 2bbd 1550 fe3c d085 07bd e226 3d3b
00000260: ec4c 4cbd 1245 093d f4c9 0c3d 0786 043e
00000270: 25b4 d7bc 2abf 83bc a898 593d db28 e23c
00000280: 8ef0 51bd d17a 85bc ca56 f73b eeb3 3cbd
00000290: c14f c33b 5667 88bd c2ca 783d 67c8 1cbd
000002a0: bbf6 99bd 4367 f63c 375f 253c 06b2 a6bc
000002b0: c1b8 c73c 37df f1bc 6ec2 84bb 44c5 7fbd
000002c0: 4f56 403d aa01 823c 1e95 7ebd 3862 453d
000002d0: 998a 773d ba10 363d 48a0 593b 9aa4 ff3c
000002e0: d955 073d dbad ec3c f391 f0bc 3953 49bc
000002f0: 35c4 a33c dc22 cdbc 8bd2 48bd 1dfd 4abd
00000300: 1e98 06bd 77eb 57bd ce72 d13c fc55 c93c
00000310: 1a01 b1bc f7c8 353d 37c9 64bd e8b3 be3c
00000320: af8a f43c 4de3 59bd 7cc3 70bd 210f 3dbd
00000330: c2ec 5abd 9ce5 813d c18a 953c 381c 0dbd
00000340: a82b 69bd da47 f4bc 59fa 10bc 4991 19bd
00000350: 7829 9b3d 959b 483d 3a4d 4f3c fcb6 8bbb
00000360: ca13 4abb 6fc4 003c 7fc7 3e3c 85e8 073d
00000370: c4eb ef3c 6180 16bc ae0c 58bd 0b74 7fbd
00000380: abce 2dbc c29d 633d dd96 5c3a 1d6f 4abe
00000390: 5a29 9e3b bd39 4abc 6a1d 37bd c3b8 60bd
000003a0: 39b3 e93c e840 cd3c 5673 5ebd 48b6 0fbe
000003b0: f9c5 acbc dc58 8d3d 264b 3b3d 2614 623d
000003c0: 80ca d53c c317 49bd f461 c73c 9fef 46bc
000003d0: cb5e 90bd dce7 2cbd d531 56bd 631d f0ba
000003e0: e643 783d 865a c7bc 5314 60bc 9706 343c
000003f0: 0132 e63c 2a5c 353d f114 843c 6fe1 5ebd
