trained_policies/learner/module_state/mr_x_policy/module_state_dir/module_state.pt (torch, 559234 bytes, 11 tensors)

encoder.actor_encoder.net.mlp.0.weight f4 [256, 10]
000000 26 e3 e8 3d f0 f4 11 be 78 c9 fe 3c d3 78 89 be
       0.1137145 -0.14253592 0.031101927 -0.26849994
000010 b6 7d 55 3e 83 98 aa 3e 77 5d ab bd f1 c8 e6 3d
       0.20848736 0.33319482 -0.083674364 0.11268795
000020 16 6b bc bd a6 1a 6d be e9 98 9f bd 9a 43 cd ba
       -0.092001125 -0.23154697 -0.07792837 -0.0015660406
000030 68 88 b1 bd 58 71 b8 bd 5c eb 2d 3d ac 83 38 be
       -0.086685956 -0.090059936 0.042460784 -0.18018979
000040 33 65 f2 3d 40 9f 42 be ae 2f e0 3d d1 4a f2 3d
       0.118357085 -0.19006062 0.10946594 0.11830676
000050 e1 ab 70 be 3c 75 91 be 29 7b ca 3d 7d fd 4b 3e
       -0.23503067 -0.28409755 0.09886772 0.19920917
000060 fc 3b 86 3e 83 8d 9b be 63 ef 04 3e 9f 34 01 3e
       0.2621764 -0.30381402 0.12981944 0.1261773
000070 e9 09 32 3e 1c cb 4a bb 5d 2b 92 bc 0d 50 bd 3d
       0.17386593 -0.0030943817 -0.017842943 0.09243784
000080 fc 4b 6e be 98 28 1e 3e cc 9e 82 3e 2a 0a 2e bd
       -0.23271173 0.15445173 0.25511777 -0.042490162
000090 9f d6 3b bb 0c 34 8b be 96 e7 4b be 6a ec 5e 3e
       -0.002866186 -0.27188146 -0.19912562 0.21769872
0000a0 f9 b2 cc bd d9 7f 60 3e 57 c5 a2 3e 7d 10 92 3e
       -0.09995074 0.2192377 0.31791183 0.28528205
0000b0 5d 9f 89 3e 3b 71 a3 bd a8 61 96 be d2 4a d9 bd
       0.26879397 -0.079805814 -0.2937138 -0.10609974
0000c0 2a e2 97 3e 9c c4 9f be 1a a6 a7 bd a8 74 62 3e
       0.29664737 -0.3120469 -0.08185978 0.22114813
0000d0 44 07 35 be 9b bb 68 be 26 04 1d be 9f b8 84 3d
       -0.17678553 -0.22727816 -0.15333614 0.06480526
0000e0 57 c4 98 bd dc 74 34 bd 44 ef e8 bc b4 5a 09 be
       -0.07459324 -0.04405676 -0.028434403 -0.13413507
0000f0 c9 3a ad 3d 28 f0 2e be c6 eb cf 3d 0d 50 04 bc
       0.08458478 -0.170838 0.10152392 -0.008075726
000100 4a fa 9a be da 62 1d 3e 4c 60 d0 ba 10 12 4c 3e
       -0.3026908 0.1536974 -0.0015897839 0.19928765
000110 7c f4 83 be d1 c2 e7 bc 28 2a 95 be bd 45 02 3e
       -0.25772464 -0.028291138 -0.29133725 0.12721916
000120 83 d5 2a 3d a0 49 16 be 3d 00 84 3e d7 9e 93 be
       0.041707527 -0.14676523 0.25781432 -0.28832123
000130 7d 3d b4 3d 11 83 78 3e 30 0a 72 3e c7 9e 26 bd
       0.088007905 0.24268748 0.23636699 -0.040678766
000140 38 e8 8f be ad 59 39 3c 1e 1a 4d bd 4e fd 82 3e
       -0.28106856 0.011312884 -0.050073735 0.2558388
000150 0e a2 73 bd 46 0c 29 3e a8 17 79 3e c9 44 07 bd
       -0.05948072 0.16508588 0.2432543 -0.033024583
000160 fd 6a 9a 3e b8 40 48 bd 95 0b a8 3d 0a 54 bd bd
       0.3015975 -0.048889846 0.08205334 -0.09244545
000170 39 5c 99 be f2 16 84 3e a8 d5 9e be 9b 76 30 3e
       -0.29953173 0.25798756 -0.31022382 0.17232744
000180 f4 09 47 be d0 6e 6f 3d 24 11 56 be 2d de 0e 3e
       -0.1943739 0.05845529 -0.20904976 0.13951941
000190 68 15 0c be c1 37 4c be e1 52 f7 bd fb 2e 07 3e
       -0.13680041 -0.19943143 -0.12076355 0.13201515
0001a0 aa f1 a1 bd 3c 56 36 3e 37 f2 fe 3d 70 ef 80 be
       -0.07907422 0.17806333 0.124485426 -0.25182676
0001b0 bd 46 55 3e ef b3 2b 3d cb 96 54 be cb 33 e1 3d
       0.20827766 0.041919645 -0.20760648 0.10996207
0001c0 d4 b0 8f bd 01 50 09 be e4 89 f0 3d 3e a2 a5 be
       -0.07016149 -0.13409425 0.117450505 -0.32350343
0001d0 87 68 3f 3e a2 6c 81 be 7e ea f6 bd 32 53 9b bd
       0.18692218 -0.25278193 -0.120564446 -0.075842276
0001e0 87 4d 74 be 63 d0 c1 3d 5c 74 9d bd fa 97 8f be
       -0.238577 0.09463575 -0.076882094 -0.28045636
0001f0 04 94 d5 bd 82 b6 da bd 34 62 05 3e 09 37 82 be
       -0.10428622 -0.10679342 0.13025743 -0.25432613
000200 4e 3b 06 be a2 17 9d 3e 3e ab 21 be 87 7f 7d 3e
       -0.1310856 0.30682093 -0.1578798 0.24755679
000210 cd ff b4 3d 74 f6 a0 be 80 7c 0b 3e e6 86 50 be
       0.088378526 -0.3143803 0.13621712 -0.2036396
000220 27 51 4d be ed 47 71 3e 89 71 1f 3e 9d 5d 82 3d
       -0.20050488 0.23562594 0.15570654 0.063655116
000230 54 1c 3c 3e d1 d9 ad 3b 42 ae 3a 3e a6 85 7d be
       0.18370181 0.0053055068 0.18230537 -0.24758014
000240 ad a9 50 be cb 83 13 3e 1d 30 06 3e 8b c2 03 bd
       -0.20377226 0.14405744 0.13104291 -0.032167953
000250 f0 1e 81 be 00 b7 31 be 4d d5 78 be c4 da 4e be
       -0.25218916 -0.17354965 -0.24300118 -0.2020064
000260 e0 64 16 3d ef 5a e8 3d 3d 58 9c bd 57 23 23 be
       0.036717296 0.11345469 -0.076340176 -0.1593145
000270 f0 93 f7 bd 02 a7 80 be 28 51 fa 3d 53 1c 74 be
       -0.12088764 -0.25127417 0.122225106 -0.2383893
000280 21 bf 8c 3c 8a 47 88 be 51 c9 20 be 69 10 3f be
       0.017180981 -0.2661708 -0.15701796 -0.18658604
000290 76 97 85 3e a9 a1 82 be cc 20 86 3e d9 96 0f be
       0.26092118 -0.25513962 0.26196897 -0.14022388
0002a0 78 ad 63 be d3 06 84 be e8 b4 cb bd b3 99 74 3d
       -0.22234142 -0.25786456 -0.099466145 0.05971689
0002b0 54 a7 87 3e 7c f1 b0 3d cf 35 9f 3e c8 23 77 bd
       0.2649485 0.086398095 0.3109574 -0.060336858
0002c0 61 90 1d 3e 4e 8a 2e 3e 30 64 62 3e c7 d7 7b 3e
       0.15387107 0.17044947 0.22108531 0.24594031
0002d0 e0 cb 44 be 56 77 02 3e 66 32 0f 3e 20 a8 31 be
       -0.19218397 0.12740836 0.13984069 -0.17349291
0002e0 16 63 84 3e 83 ef 6a 3e 40 2c 42 3b 5a cc 80 be
       0.25856847 0.22942929 0.0029628426 -0.25155908
0002f0 21 b1 ab bd 84 7d f1 bd 0c ee 82 3e d2 68 05 3e
       -0.08383394 -0.11791518 0.2557224 0.13028267
000300 ee a6 49 be dd 57 e4 bd 8b 37 08 3e 5f f6 5f be
       -0.19692585 -0.11149571 0.13302438 -0.21871327
000310 43 b2 18 be 7f 8e 66 3e 4f bc c8 bd 49 8f 0c be
       -0.14911751 0.22515295 -0.09801542 -0.13726534
000320 a1 1b 32 be 39 f5 d5 bd da 6f 9b 3d 9d 6d 83 3e
       -0.17393352 -0.10447163 0.07589693 0.25669566
000330 49 91 a3 3d 60 0c 91 be c8 4b 16 3e cb db 88 3e
       0.07986695 -0.28329754 0.14677346 0.2673019
000340 4f 3c 82 bd 67 54 9f 3d c0 de 82 3d 17 e9 4c 3e
       -0.06359159 0.0777977 0.063901424 0.20010792
000350 92 27 b6 bd e1 3b 3c be c0 31 94 3d e1 d5 4c 3e
       -0.08894266 -0.18382217 0.072360516 0.20003463
000360 0c a0 a4 be c4 61 1a be 09 8c 05 3e f4 e8 1b 3e
       -0.32153356 -0.15076357 0.130417 0.15225583
000370 7f 59 f3 3c 4c 6b ca bd 67 81 87 bd 24 b5 b2 3d
       0.029705761 -0.098837465 -0.066164784 0.08725956
000380 ad a7 13 3e 87 24 2e bd 79 50 d9 3d cf 02 ae 3a
       0.14419432 -0.042515304 0.10611052 0.0013275984
000390 3b 44 f6 3c 1f 0a 55 3e 13 04 18 be 5e e9 a0 3d
       0.030061832 0.20804642 -0.14845304 0.07857011
0003a0 a5 8f c9 bd d3 43 36 be c9 84 91 3e af 2b 87 3e
       -0.09841851 -0.1779931 0.2842162 0.26400515
0003b0 41 b4 66 bd 30 fe de 3d 22 11 02 3e 14 ff 43 bc
       -0.056324247 0.10888326 0.12701848 -0.011962671
0003c0 71 37 61 be 3b f9 0f be d0 b5 88 3e e7 ce 3c be
       -0.21993805 -0.14059918 0.26701212 -0.18438302
0003d0 ba d4 2a be f6 99 4b 3d 83 f5 69 3e 55 53 26 be
       -0.16682711 0.049707375 0.22847562 -0.16242726
0003e0 e0 14 28 3e 65 8f c4 3d c2 50 3f bd 48 d1 95 be
       0.16414213 0.09597663 -0.046707876 -0.2926123
0003f0 70 b5 5d 3d 62 5c 87 be 42 c3 d3 3d 25 31 80 3d
       0.05412811 -0.2643767 0.10339977 0.062593736

encoder.actor_encoder.net.mlp.0.bias f4 [256]
000000 e4 b9 80 3d e3 7a 4e bd 67 51 42 3e ed 7e 4d 3d
       0.06285456 -0.050410163 0.18976365 0.050169874
000010 de f1 47 be 63 a3 a1 be 71 85 96 be 6b a8 4b bc
       -0.19525859 -0.31569967 -0.29398683 -0.012430291
000020 9d 79 7a be 23 c9 82 3e d2 01 99 3c 1e cd 92 be
       -0.24460454 0.2554408 0.018677626 -0.28672117
000030 b2 f6 4c 3e 7b f0 a7 be 82 a0 11 3d 1c 62 c6 3d
       0.20015982 -0.3280066 0.035553463 0.09686682
000040 1b 44 df bd 73 98 61 be 1f 73 6a be ab 27 49 bb
       -0.10901662 -0.22030811 -0.22895478 -0.003069381
000050 ee 18 93 be 2e d7 5d 3d 3a 98 db bd 1e 9d 21 3d
       -0.28729957 0.05416029 -0.10722394 0.03945648
000060 e4 30 00 be 19 53 a2 3e 8e c9 c0 3d 62 5d 24 bd
       -0.1251865 0.31704023 0.094134435 -0.04012812
000070 43 d4 83 be f0 d2 84 3d 5b 7b 9e be 7e da 40 bd
       -0.2574788 0.06485546 -0.30953488 -0.04708337
000080 0a bc 2a 3e b6 93 bd bd ec 48 1a be 8c ae 59 be
       0.16673294 -0.09256689 -0.1506688 -0.2125799
000090 e3 3a 8a 3e 59 f3 3f 3e a4 54 88 3e f7 96 ec 3d
       0.26998052 0.18745174 0.26627076 0.11552232
0000a0 bc 4a 62 be 93 a0 54 3e b8 69 88 3e 7d 91 73 bd
       -0.22098821 0.20764379 0.26643157 -0.05946492
0000b0 60 c2 42 bc 22 15 02 be 53 2f 01 3e 90 88 5d be
       -0.011887163 -0.12703374 0.12615709 -0.21634126
0000c0 91 6a 31 bd af 89 a0 3d 02 76 10 be 4b 1c 3e be
       -0.04331452 0.07838761 -0.14107516 -0.1856548
0000d0 e9 e5 61 3e ad 02 28 3e cc 6c 48 be a0 a1 24 3e
       0.2206036 0.1640727 -0.19572753 0.1607728
0000e0 ea cb 17 be f4 bf 6d be 4e df 36 3d 19 cc 8c bd
       -0.14823881 -0.23217756 0.044646554 -0.06874866
0000f0 02 86 1b 3e 9b 49 a4 3e 7e fe 63 3d c6 41 88 3e
       0.15187839 0.32087407 0.055662625 0.2661268
000100 e1 b7 93 3d 98 73 90 3e a5 34 8b bb fa d6 77 3c
       0.072128065 0.2821319 -0.004248219 0.015126938
000110 2a 24 84 bd 25 af 5d 3e 10 97 79 3e a8 9e d9 bd
       -0.0645221 0.21648844 0.24374032 -0.106259644
000120 0b 38 75 be d8 c3 e4 3d be c8 19 be ab 18 97 3e
       -0.2394716 0.11170167 -0.15017983 0.29511008
000130 af 09 57 be aa 7d e0 3d 7c f0 d7 bd 27 88 72 be
       -0.20999788 0.109614685 -0.10543916 -0.2368475
000140 e0 9e fb 3c e1 78 78 be fb d4 bc 3d 0a 89 e5 bb
       0.030715406 -0.24264862 0.0922031 -0.0070048617
000150 02 c7 10 3e ee d5 96 bc 44 a8 71 be 11 8a e2 3d
       0.14138415 -0.018412556 -0.23599344 0.1106149
000160 c4 2a a1 3e 8b a7 4b bd 87 2e 49 3e d0 b0 22 3d
       0.3147794 -0.04972033 0.19646655 0.039719403
000170 52 e7 18 be 44 c5 e8 3b 0f d4 1f be 59 b0 8f be
       -0.14931992 0.007103594 -0.15608238 -0.2806423
000180 c4 5a a0 be 52 34 1f be e4 98 52 3e 8e 6b 2a be
       -0.3131925 -0.15547302 0.20566136 -0.16642591
000190 bb d0 96 3e 5f 83 34 3d 32 bc db bd b5 4e 8b bd
       0.29456124 0.044070598 -0.10729255 -0.068021215
0001a0 28 2b a8 bd df e7 dc 3d e3 b4 40 be 79 84 a2 3e
       -0.082113564 0.107864134 -0.18819003 0.31741694
0001b0 a1 1b 14 3d a8 eb f4 bb 8b e1 ed 3d 2d 30 7f 3e
       0.03615916 -0.0074743815 0.116152845 0.24920721
0001c0 2d 3e 2a 3e f8 e9 04 3e 31 3c a8 be f3 6d fe 3d
       0.1662528 0.12979877 -0.32858422 0.12423315
0001d0 47 6c 87 3e b4 a1 e9 bc 46 cf 8f be a6 d7 46 3e
       0.26449797 -0.028519489 -0.28087825 0.19418201
0001e0 e1 ad f0 bd d2 80 75 be 3e f4 be 3c b2 8f 86 3d
       -0.11751915 -0.23974922 0.023309823 0.065703765
0001f0 11 c2 a0 be 50 5e 36 3d af a6 3d be 02 e0 0d 3b
       -0.3139806 0.044523537 -0.18520616 0.0021648412
000200 cb 0a cd 3d 3e b8 9a bd 52 2e 35 3e c1 e7 19 be
       0.10011824 -0.07554673 0.17693451 -0.15029813
000210 02 56 9b be 9e fb 7e bd 5a 5d 9a 3e 81 30 a0 be
       -0.30339056 -0.06225168 0.30149347 -0.31287006
000220 78 a5 54 bd b9 58 2b be df a2 91 3e 1c 93 26 3d
       -0.051915616 -0.16733064 0.28444573 0.04066764
000230 36 f7 4d bd ff 41 3a 3e 56 23 81 3e e6 40 14 3e
       -0.050284587 0.18189238 0.25222272 0.14477882
000240 0d 27 35 3e 1c d2 00 bd 14 d2 81 bd fe b6 bb 3d
       0.17690678 -0.031450376 -0.06338897 0.09165762
000250 ef 8f e5 bc 65 cf 41 3e f8 d8 df bd 9b 8d 62 3d
       -0.028022734 0.18926771 -0.109300554 0.055310827
000260 23 a3 91 be 01 44 c1 3d 31 03 3c 3e 5f 7e 43 bd
       -0.28444776 0.09436799 0.18360592 -0.04772794
000270 39 58 02 3e 41 c8 19 3e b8 53 27 be 9d ad 94 bd
       0.12728967 0.15017797 -0.1634053 -0.072596766
000280 ab 08 ce bc b7 59 8e 3c ba 3d d4 bd bd 83 0c bc
       -0.025150618 0.017376764 -0.10363336 -0.008576331
000290 3e c3 6d be 81 1d dd bc 18 18 06 be 7e 31 7e bd
       -0.2321901 -0.026991608 -0.13095129 -0.06205892
0002a0 e0 aa 86 3d 96 4e f2 3d 00 fe 55 3e d0 ad 7a 3e
       0.065755606 0.11831395 0.20897675 0.24480367
0002b0 da e3 49 3e c4 51 6f 3e a5 4d c9 3c 2d 8a b0 be
       0.19715825 0.23371035 0.024573157 -0.3448042
0002c0 96 29 36 3d d5 77 03 be dd 39 3e be 98 8c 7f be
       0.044473253 -0.12838681 -0.1857676 -0.24955976
0002d0 66 81 38 be f5 cf 8f 3e c3 52 52 be 80 ce 03 3e
       -0.18018112 0.28088346 -0.20539384 0.12871742
0002e0 0f fd e0 3c 33 87 fc bd 68 30 64 3e 78 3d eb 3d
       0.027464418 -0.12330475 0.2228409 0.114863336
0002f0 6e 98 3d be 56 e4 d6 3d db 83 87 3d 67 b1 75 3e
       -0.18515179 0.104927704 0.06616946 0.23993455
000300 11 ff 20 3d c8 67 df 3d 8f 9e c1 bc 7d d3 89 3d
       0.03930575 0.109084666 -0.023635177 0.06729791
000310 3e 0e 2c be a2 74 1e 3e f2 91 3f be 66 cb 7a be
       -0.16802308 0.1547418 -0.18708017 -0.24491653
000320 dc 4d 83 be 2b 1b 01 be 83 38 29 3e 6a 03 b4 3c
       -0.2564534 -0.1260802 0.16525464 0.021974284
000330 fc 69 de 3d d9 c2 a3 3e 07 04 56 be 22 92 ad be
       0.10860059 0.31984594 -0.20899974 -0.33900553
000340 0e f7 98 3e 23 fa 95 be 07 f8 de bc 31 bd 92 3e
       0.29875988 -0.29292402 -0.027217878 0.28659967
000350 af b8 f5 bd 8f 68 a7 3d 28 b5 35 be 43 e5 82 be
       -0.11998116 0.0817424 -0.17744887 -0.25565538
000360 c4 78 42 be e9 39 98 be 26 3a b1 3d dd b4 46 3c
       -0.18991381 -0.29731682 0.08653669 0.012128082
000370 39 b6 5e be e2 be a7 3e 07 7b 1a 3d ec be af bc
       -0.217492 0.3276282 0.037714984 -0.021453343
000380 e9 fc a9 bd 4f be 46 3d ee d3 a3 be c2 08 8b 3d
       -0.08300192 0.048521336 -0.31997627 0.0678878
000390 55 fa 53 bc f4 92 8b bd 63 1c 91 3e ef 75 86 be
       -0.012938102 -0.068151385 0.2834197 -0.2626185
0003a0 ce 30 7e be 76 e8 a0 be 7c f0 3a be a0 f8 87 3e
       -0.24823305 -0.31427354 -0.182558 0.26556873
0003b0 03 b0 ae bd 7c da 74 3e e2 eb 06 be ce ff a7 bd
       -0.08529665 0.2391147 -0.1317592 -0.08203088
0003c0 8c a0 87 be e6 11 2d be fc 47 9b 3e d2 36 38 3e
       -0.26489675 -0.16901359 0.30328357 0.17989662
0003d0 e5 b9 5f be db 2b bf bc 7a dd 8b be 23 26 5c be
       -0.21848257 -0.023336342 -0.2731741 -0.21498923
0003e0 b6 3d 87 be 18 c8 c4 bc 43 9a 84 bd ea f5 55 be
       -0.2641427 -0.024021193 -0.064747356 -0.2089459
0003f0 a0 22 b9 bd 1f e6 95 3c 95 cf 9d 3d 2a 2d 8d be
       -0.09039807 0.018298207 0.07705609 -0.2757352

encoder.actor_encoder.net.mlp.2.weight f4 [256, 256]
000000 96 cd fb bb e2 9d ee 3c 9f 57 8d 3d 1f c4 0d bd
       -0.00768442 0.029128019 0.06901478 -0.034610864
000010 a7 02 97 3d e3 ef 0b bd 2a df cd 3c 8b b6 00 3c
       0.07373553 -0.03416432 0.025130827 0.007856022
000020 11 e1 2a 3d 3f 15 5c 3c be 70 94 3c eb 99 df bb
       0.041718546 0.0134328 0.018120166 -0.0068237684
000030 d8 43 4d 3b 86 77 49 3d 57 ee ec bc b2 52 18 3d
       0.0031320956 0.049186252 -0.028922243 0.03718824
000040 e3 0d 38 bd a4 d3 5c bc b1 41 7a 3d 7d 35 98 bc
       -0.04493512 -0.013478193 0.061097804 -0.018580193
000050 fa 81 24 3d e2 7c f5 3c 09 f2 98 bb 1e f6 82 bb
       0.040163018 0.029966775 -0.0046675247 -0.0039966246
000060 06 73 1e 3d cd d0 99 bc 47 f8 ab 3a c4 09 53 bd
       0.038683914 -0.018776322 0.0013120257 -0.051522985
000070 33 de 01 bd b0 5f 6f bc 84 b1 d4 3c da 56 60 3c
       -0.031706046 -0.014610216 0.025963552 0.013692582
000080 1d 64 2b 3d 4e 59 7a 3d ea c1 de bc 42 54 0f bd
       0.041843522 0.061120324 -0.027192075 -0.034992464
000090 22 b2 ba bc bb 1b 57 3c bf bd 58 3d e3 23 8d bd
       -0.022790018 0.01312917 0.05291533 -0.068916105
0000a0 1e 13 74 bd f1 59 05 bd 95 1d 3d 3d 7c 12 f3 bc
       -0.059588544 -0.032556478 0.04617079 -0.0296719
0000b0 dc 07 30 bc b7 c1 24 bc 0f ae 9d bc e6 c8 d9 bb
       -0.010744061 -0.010055951 -0.019248037 -0.0066462634
0000c0 8e 41 7f bc 14 3c da 3c de 45 0c 3a e4 3c 7d bc
       -0.015579594 0.026639976 0.0005350987 -0.015456412
0000d0 e0 63 07 3d a8 cf be 3c 8b 0b 18 3c 84 20 eb bc
       0.033054233 0.023292378 0.009280096 -0.028702028
0000e0 ad da fd bc 67 8d aa bc dd 51 24 3d e1 01 86 ba
       -0.030988062 -0.020819379 0.040117133 -0.0010223949
0000f0 7c 06 2d bd b9 3f 52 3d ec ab 0a 3d 86 7f 8c 3b
       -0.042242512 0.051330302 0.033855364 0.004287663
000100 57 ee 45 bc 2b 33 c1 3c 2f a0 14 bd 1e eb c8 bc
       -0.01208075 0.02358397 -0.036285575 -0.024526175
000110 0f 02 05 3d 09 64 0e bc 47 04 64 bd 8b c3 67 3d
       0.032472666 -0.008690842 -0.05566814 0.05658297
000120 99 80 6d 3d 6b dd 49 bd c3 f1 4a bd 24 80 be bc
       0.05798397 -0.049283426 -0.04954697 -0.023254462
000130 45 d5 fe bc 89 0c 59 bc e1 8d b3 3c 0a af ce 3c
       -0.031107554 -0.0132476175 0.02191824 0.02522995
000140 9e 85 76 3d 61 50 c3 3a 36 6e f8 3b 2f f9 d0 bc
       0.06018602 0.0014901274 0.0075814975 -0.025509445
000150 f8 7b ff bc dc 0f 3c 3d ad 4d 03 3d 3e 4f ad 3b
       -0.031187043 0.045913562 0.0320565 0.0052889874
000160 03 93 22 3c f3 fd ec bc d8 8b 39 3d 6c 44 05 bb
       0.009922746 -0.028929686 0.04529938 -0.0020334972
000170 ce 9b 5f bd 56 be 9d 3c c8 7b fa 3c b2 e5 38 3d
       -0.054591946 0.019255798 0.030576602 0.04514093
000180 fa 2b 0a 3d 8c 87 40 3d 7a d0 6d 3d 65 84 4d 3c
       0.033733346 0.047004268 0.058060147 0.012543772
000190 12 10 ca bc 78 51 fe 3c 50 86 cd bc fc a9 97 bc
       -0.024665866 0.031044707 -0.02508846 -0.018513672
0001a0 ca 45 ef 3b 03 91 0c bd d8 2b dc 3c 31 6b 40 3b
       0.0073020207 -0.03431798 0.026876375 0.0029360766
0001b0 f6 f6 5c 3d de 7f f9 3c df 0d 16 bd 60 e0 a7 3c
       0.053946458 0.03045648 -0.036634322 0.020492733
0001c0 3b 8f 08 bd 92 ae c7 bc 27 82 d2 3b 9a 02 9b bc
       -0.03333972 -0.024375234 0.006424207 -0.018922139
0001d0 aa 0a 4c bd c1 c5 1a 3c 5e 0e 00 bd 70 0e 04 bd
       -0.049814858 0.009446562 -0.0312637 -0.03224033
0001e0 ae f9 4c bc 35 db 7b bc 4d c1 86 bc 83 2c 92 3c
       -0.0125107 -0.015372087 -0.016449595 0.01784349
0001f0 6a e8 09 bd db cf 3e bd be 71 81 bc ec bf 10 bc
       -0.033668913 -0.046584945 -0.015801307 -0.00883482
000200 fe 89 2c 3d 09 79 78 3d b4 26 b9 bb 04 d3 22 3d
       0.042123787 0.060662303 -0.0056503657 0.03975202
000210 b0 f9 33 bc ef a3 3b bb 1c 66 5d 3d 6a ec b9 bc
       -0.010984823 -0.0028631648 0.054052457 -0.022695739
000220 04 e9 8a bc 04 bb c4 3c 7b 83 c3 3b 0b 98 d7 3c
       -0.016956814 0.024014957 0.0059666014 0.026317617
000230 fd 41 6d 3d a9 be b2 3b a7 a1 33 3d 7d a3 13 3d
       0.05792426 0.0054548574 0.043855336 0.036044586
000240 d1 a0 63 bd 51 69 77 bc bc 16 42 bc db 9f ac bb
       -0.05557329 -0.015100793 -0.011846241 -0.0052680797
000250 c2 4d 25 bd 72 c0 91 bc e0 a7 6a bd 83 52 2b bc
       -0.04035736 -0.01779196 -0.057289004 -0.010456684
000260 b2 86 89 3c 16 b3 90 3c c2 82 e0 39 5f 9d 82 bd
       0.01678786 0.01766352 0.00042822032 -0.063776724
000270 0d 48 20 3d 20 eb e5 bc ad ab 55 bd d1 d9 35 bd
       0.039131213 -0.028066218 -0.052165676 -0.04439718
000280 56 8f 2a 3d f1 ba 9b b9 43 f6 89 bb 0b 1c c2 bc
       0.041640602 -0.00029703186 -0.004210265 -0.023695013
000290 dc 04 0d bd 00 b8 7c 3d 9b 6c e2 bc a8 b2 6a bd
       -0.034428462 0.061698914 -0.027639678 -0.057299286
0002a0 9f 61 7e bd 11 a1 55 bd 20 f7 2c 3b 5d 5c 36 3d
       -0.062104817 -0.052155558 0.0026392415 0.04452168
0002b0 53 29 6a bd 56 9e aa bb ff 0c 09 bd 2d 83 02 3d
       -0.057168316 -0.0052068634 -0.03345966 0.03186338
0002c0 f8 23 30 3d db b5 8f bc 0d f7 8a bc de 6b 61 3d
       0.043003052 -0.01754277 -0.016963506 0.05503451
0002d0 55 f1 16 bd 73 ca a2 bc dd f7 20 bb 58 d8 60 3d
       -0.036851246 -0.019871926 -0.00245618 0.05489382
0002e0 d1 aa 9c 3c a9 9d 63 3d de ca f2 bc e8 48 99 3c
       0.01912442 0.05557028 -0.02963775 0.018711522
0002f0 93 b2 6c 3d d1 f3 4d 3d 43 32 15 3d a9 bd 23 3c
       0.05778749 0.05028135 0.036424886 0.009993949
000300 48 fe 33 bd cf 8e 46 bd dc 50 02 bb c8 66 42 bd
       -0.043943673 -0.048476037 -0.0019884622 -0.0474613
000310 75 78 c5 bc 90 92 28 bd a6 cd c0 bc ae 37 31 bd
       -0.02410529 -0.041155398 -0.02353556 -0.04326599
000320 78 1f 80 3c 8f 09 87 bd 19 ed 37 bd a5 1c 02 3d
       0.015640005 -0.0659362 -0.04490385 0.0317656
000330 8b d6 16 bd 23 3c 1f bd 81 01 54 3d 03 a6 32 3d
       -0.036825698 -0.03887571 0.051759247 0.043615352
000340 c5 d0 05 3d c5 a2 75 3c 38 c8 38 bd 7a c9 cb 3c
       0.0326698 0.014992421 -0.04511282 0.024876345
000350 36 db 07 3d 11 5a 06 bd a2 9c 83 3d fe 19 a9 3a
       0.03316804 -0.032800738 0.0642636 0.0012901423
000360 e1 bb 00 bd e0 3c 1c 3a 06 2f 66 bd ec 0f 29 bd
       -0.031429175 0.0005959999 -0.05619719 -0.04127495
000370 ff b0 bd bc 92 59 bb 3b 8f 8e e8 3c cd 26 1d 3d
       -0.023155687 0.0057174647 0.02838829 0.03836708
000380 53 85 41 bc 91 ae 04 3c ae b8 66 3d 39 18 f3 3a
       -0.011811572 0.0080982605 0.056328468 0.0018546648
000390 a5 5f 2c 3d ab 73 c3 bc ed f0 1a bd 99 1e 35 bd
       0.0420834 -0.023858866 -0.03782742 -0.044218633
0003a0 f4 fe 50 3d b7 74 08 bd 90 f5 0d 3d fa 7a 10 3d
       0.051024392 -0.033314433 0.034658015 0.03527353
0003b0 a8 4f ed 3b dd 7b 0b 3c c7 44 18 3c d0 08 5f 3d
       0.007242162 0.008513418 0.009293742 0.054451764
0003c0 ff c4 31 bd 94 79 60 bd 60 bf 60 bb 78 bf 7e bd
       -0.04340076 -0.054803446 -0.0034293756 -0.062194318
0003d0 fa 48 12 bc 1c cd 5e 3d e3 12 33 bd 0f b6 5b bd
       -0.008928532 0.054394826 -0.043719184 -0.05364042
0003e0 3a 62 32 bd d5 ed 4a 3d f5 13 f0 3c 1b b0 22 bd
       -0.043550707 0.04954322 0.029306391 -0.03971873
0003f0 fc 66 02 bd 59 0e 09 3d af 14 61 3d 21 b5 ec bc
       -0.031836495 0.03346095 0.054951366 -0.028894963

encoder.actor_encoder.net.mlp.2.bias f4 [256]
000000 c4 04 98 bc e3 d3 ec bc 63 fc d8 bc 7e 76 fd 3c
       -0.01855696 -0.02890963 -0.026487535 0.03094029
000010 d1 8a bd 3c 70 fd 02 bc 22 ff 95 3c fd c5 d0 3c
       0.023137482 -0.0079949945 0.018310133 0.025485033
000020 15 8a 26 bd ba b6 fe bc 94 81 9b 3c 98 d5 46 3d
       -0.04065903 -0.03109299 0.018982686 0.048543543
000030 c3 cf 41 bd 9d 98 70 3d 95 bb 7a 3d cc 96 bc ba
       -0.047317278 0.058739293 0.06121405 -0.0014388203
000040 56 8f a5 3c 89 11 ee 3b 82 64 fb 38 79 d3 a9 3c
       0.02020995 0.007265274 0.00011987334 0.02073072
000050 25 c3 77 3d 2d f0 60 bd 0a b6 20 bd c4 1e 71 3d
       0.06048884 -0.05491655 -0.039236106 0.05886723
000060 07 ab 13 3d 3f 77 8a bb 8c 10 36 3d df 3a 3f bd
       0.036051776 -0.004225641 0.044449374 -0.046687003
000070 36 76 10 3d 4c a0 35 3d dd 99 33 3d 84 21 03 3c
       0.035268985 0.044342324 0.043847907 0.008003596
000080 9c 55 54 bd 15 a0 4f bd 04 c9 e8 3b 63 c7 36 bd
       -0.051839456 -0.050689775 0.007104041 -0.044623744
000090 fa 7b 44 3d c8 b2 26 3c 7f 1d 4e bc f3 84 c4 3c
       0.047969796 0.010174461 -0.012580275 0.023989176
0000a0 d9 cf 82 3d f4 06 c9 3c 69 59 40 bd 23 74 24 bd
       0.063873 0.024539448 -0.04696027 -0.04014982
0000b0 11 3c 29 bd fd bb f9 3c 51 f3 16 bd bd 22 82 3c
       -0.04131705 0.030485148 -0.03685314 0.015885705
0000c0 c9 13 3b bd 82 27 38 3d 25 6b 52 bd a3 fe 07 bd
       -0.045673165 0.044959553 -0.051371712 -0.033201825
0000d0 fd 3a 4b bd f8 6e 1a 3a 04 ad 43 3d 31 12 07 bd
       -0.049616802 0.00058911694 0.047772422 -0.032976333
0000e0 b3 48 04 3d c7 b5 63 3d 82 a0 1e bd 25 5b 1a 3d
       0.032295894 0.05559328 -0.03872729 0.03768458
0000f0 26 f8 80 3c 88 42 40 bc c2 d0 1f bd 4a 99 28 bc
       0.015743326 -0.011734612 -0.039017446 -0.010290453
000100 a2 f0 d8 3c 34 85 c8 3b 29 66 58 bd f0 05 55 bb
       0.02648193 0.0061193947 -0.052831803 -0.003250476
000110 de 73 1c 3d a6 60 a0 3c 73 a0 f4 bc d1 89 f6 3c
       0.038196437 0.019577336 -0.029861664 0.030095013
000120 00 ce 70 3d 73 5b 43 3d 4b 86 2c 3d 4f 82 83 3d
       0.058790207 0.047694635 0.04212026 0.06421339
000130 dc 37 8b bc d4 28 16 bd 74 a6 50 bd 1a c2 85 bd
       -0.01699441 -0.03666003 -0.050939992 -0.065311626
000140 77 2c 92 3d 10 16 d9 3c 2b f8 e7 bb 2c 8a fd bc
       0.07137387 0.026499778 -0.0070791445 -0.030949675
000150 ce 9e 3d 3d d9 43 5e bd 94 87 53 bd 28 ac 1e bc
       0.046294026 -0.054263923 -0.05164297 -0.0096846
000160 38 b3 cc bc 73 9a 5f bc 0b 55 40 bc 2c ff c0 bc
       -0.024987802 -0.013647663 -0.011739026 -0.023559175
000170 8c 9e 36 3c 3a 5f 1c bd 1b 79 f7 bb ee bd 8a 3d
       0.011146199 -0.038176753 -0.0075522787 0.067745075
000180 0f 67 bb 3b 20 0b 20 bd f3 77 1f bb 43 13 93 3c
       0.0057190727 -0.03907311 -0.002433297 0.01795352
000190 6c 18 95 3c cf 46 ec 3c 85 72 02 3c d4 c4 f4 3b
       0.018200122 0.028842358 0.007961874 0.007469753
0001a0 28 db 85 bb 8d 62 28 bd b2 dd 67 3c f4 6e 8d 3d
       -0.0040849634 -0.04110961 0.014151977 0.06905928
0001b0 eb 7e 3b bc f4 35 1f bd f9 93 ba bc 2c 43 e7 3c
       -0.011443834 -0.038869813 -0.022775637 0.028230272
0001c0 9f 71 f1 3c c4 48 33 bd c7 d6 eb bc c7 c0 38 bc
       0.029473124 -0.043770567 -0.028788937 -0.01127643
0001d0 c8 75 8b 3d 29 85 06 3c ba ae 35 bd d1 d1 f0 bc
       0.06809574 0.008210459 -0.044356085 -0.029396923
0001e0 47 6e 6a 3d cb 47 1d 3c 1b e8 5d 3d 78 eb 22 bb
       0.057234075 0.009599636 0.05417643 -0.0024859589
0001f0 29 bb 37 b9 8a 7d 46 3c 86 a1 ae 3b d0 24 46 bd
       -0.00017521963 0.012114892 0.0053293137 -0.04837495
000200 a3 aa 0e 3d 22 97 d5 bb d5 5b f6 3a 95 f3 19 bd
       0.0348307 -0.0065182606 0.0018795679 -0.037585814
000210 2d 5f ca bc 0a a4 27 bd 51 4d 81 3d 1a 50 9a 3c
       -0.024703586 -0.040927924 0.06313575 0.018837024
000220 8a 4f 14 bc a2 b1 57 bc 8f d6 18 3d 0d 5c 06 bd
       -0.009052167 -0.01316491 0.037313994 -0.03280263
000230 21 ac 3f 3d 0c d3 d4 bc 3f 4c 9b 3a 38 6b f6 3b
       0.046795014 -0.025979541 0.0011848285 0.0075201057
000240 b5 09 76 3c 53 67 6b bc 66 10 eb 3c 80 54 2a bd
       0.015016963 -0.014367896 0.028694343 -0.04158449
000250 82 fe 46 3d 8e cd 58 bd 04 2a 21 3d 43 cb 81 3c
       0.04858256 -0.052930407 0.03934671 0.015843993
000260 11 a1 2c bd 0a 90 bf 3c 5a a3 64 3d 90 65 22 3d
       -0.042145792 0.023384113 0.055819847 0.03964764
000270 be 4c a4 bc b6 32 5c ba 4f 4b e3 3c 6d 32 74 3d
       -0.020056125 -0.00083998905 0.02774587 0.059618402
000280 38 f8 57 bd 9c e9 83 bd d9 43 46 bc 10 45 1e 3b
       -0.052726954 -0.06441042 -0.012101137 0.0024150051
000290 0e 8c a7 bb 82 ed 40 bd 81 3d 17 3c 40 6b 16 bc
       -0.0051131314 -0.047101505 0.009230972 -0.009180844
0002a0 94 08 07 bd 03 c7 8b 3c 7d ae 79 bc 32 47 7d bd
       -0.032967165 0.01706267 -0.015239355 -0.061835475
0002b0 0f 5e df bc ae 91 9c bc 24 61 19 3d 74 ee 00 bd
       -0.02726653 -0.019112434 0.037446156 -0.031477407
0002c0 43 70 49 bd 37 18 0f 3d b5 58 21 3c 92 60 0c bd
       -0.049179327 0.034935202 0.00984781 -0.034271784
0002d0 6a bf 0d 3d c1 70 1a 3d 80 0f 5f bc e4 f7 d6 bc
       0.034606375 0.037705187 -0.013614535 -0.02624125
0002e0 21 c4 53 bd fe 21 51 3d 7e be 3f 3b 82 3e 4c 3c
       -0.051700715 0.051057808 0.002925783 0.012466075
0002f0 2b 68 7c bb b9 58 7f 3d 45 54 0f 3c 82 68 83 bd
       -0.0038514237 0.062340472 0.008748119 -0.06416418
000300 9d 68 3b bc 05 66 1d bc ab 91 16 3d 94 52 5a 3d
       -0.011438516 -0.009606843 0.036760014 0.05330141
000310 74 64 77 3d c8 7f 2c 3d 14 16 36 bd b4 79 89 bc
       0.060398534 0.04211405 -0.04445465 -0.016781665
000320 c1 bd 41 bd 05 25 38 3c a6 e4 e1 bc f7 0a 3f bd
       -0.047300104 0.011239295 -0.027574848 -0.046641316
000330 4c 71 5c bd 35 f5 1b 3c f4 3b 52 bd 14 90 50 bd
       -0.053818986 0.009518911 -0.051326707 -0.050918654
000340 76 e8 29 3d 4e de 4e 3d f7 85 60 bd 41 0d 54 bd
       0.041481458 0.050504975 -0.05481526 -0.051770452
000350 79 f6 76 3d 3a 0f 7c bc b9 2a 4d 3b 3f d3 08 bd
       0.06029365 -0.01538449 0.0031305982 -0.033404585
000360 d8 96 9d bc 6c 6d ba 3c 70 d9 92 bd f2 16 28 bc
       -0.019236967 0.022757255 -0.07170379 -0.010259377
000370 51 d8 9b bc 8a fb 10 3d c1 21 29 bc ec aa 64 bd
       -0.019024046 0.035396136 -0.010322989 -0.055827066
000380 3f 28 84 bd 77 c5 9e bc 9e 34 f2 bb 7f 4e 01 3d
       -0.06452989 -0.019381268 -0.0073915264 0.031569
000390 05 00 31 3d 60 1f 84 3d 8d a4 46 3d 8b 43 1d 3d
       0.04321291 0.06451297 0.04849677 0.038394492
0003a0 cc 16 6d 3b ab c4 99 bc 7b 8a b7 bb 3a 6d d3 bc
       0.0036176918 -0.018770536 -0.005601225 -0.02580892
0003b0 3c cb 47 3b 47 6d 0e 3d ce 27 0a bc 13 62 c7 3c
       0.0030486127 0.034772184 -0.008432342 0.024338758
0003c0 4a 44 42 3d 98 86 14 3d f4 d3 66 bd ba 26 55 bd
       0.047428407 0.03626117 -0.056354478 -0.052038886
0003d0 18 bf 00 3c f5 5f f0 3c 82 d8 1a 3c 28 82 79 3d
       0.00785806 0.02934263 0.009451034 0.060915142
0003e0 d3 89 df bc 1b 21 6d 3c 28 4e 81 bd 1f a6 26 bd
       -0.0272874 0.014473225 -0.06313735 -0.04068577
0003f0 26 77 52 bc 1d 8c 0b 3d dd ed d5 3c de 27 81 bc
       -0.01284579 0.03406917 0.026114399 -0.01576608

encoder.critic_encoder.net.mlp.0.weight f4 [256, 10]
000000 e8 7e 9c be 74 95 8a bd e8 a3 8a 3c 62 23 32 be
       -0.30565572 -0.06766787 0.01692386 -0.1739631
000010 b2 a8 63 3e 61 de 9e be ae d1 64 bd 81 64 84 be
       0.22232321 -0.31029037 -0.05586403 -0.25857928
000020 05 6a 70 3e c3 8c bc 3d a6 6a 27 3e ec b4 10 3d
       0.23477943 0.09206536 0.16349277 0.03532879
000030 94 e6 99 3e 1e 73 ce 3c 5a 90 b2 3d d5 71 75 3d
       0.3005873 0.025201377 0.08718939 0.05992301
000040 c7 ed a1 3d c8 9f 6a 3e 84 d6 a5 bd 04 2c 46 3d
       0.079066806 0.22912514 -0.08097556 0.04838182
000050 f1 2a 0e 3e 72 ac 86 be be 28 88 be c7 d1 8c bb
       0.13883568 -0.2630344 -0.26593584 -0.0042974683
000060 88 4c 1f 3c 56 75 4c be 95 e6 9f 3e 15 fc 10 3e
       0.009722836 -0.19966635 0.31230608 0.14158662
000070 59 8a 8a be 46 db d4 3d d8 88 a1 3e 48 e7 9f 3d
       -0.27058676 0.103933856 0.31549716 0.07807785
000080 d5 6f 79 3d b0 9c 4e bd c3 7c 65 bd 7a 94 88 3a
       0.060897667 -0.050442398 -0.056027185 0.0010420226
000090 aa 72 28 be cb b2 72 3e d4 1c 38 be 36 c5 e8 3c
       -0.16449991 0.23701017 -0.17979747 0.02841435
0000a0 07 f4 0d 3e ee 3c 0b 3d 81 b5 6f be ae a3 cc 3d
       0.1386262 0.033993654 -0.23409082 0.09992157
0000b0 24 17 80 be 9a d3 c9 3d 13 49 20 3e 81 95 80 bd
       -0.25017655 0.09854813 0.15652876 -0.062785156
0000c0 49 fc 37 3e df 20 88 bd 94 67 2e be bb 5a 61 3e
       0.17967333 -0.06646895 -0.170317 0.22007267
0000d0 79 1b 7b 3e 5b e6 14 be b5 1e dd bd 78 58 55 be
       0.24522199 -0.14540999 -0.107968725 -0.2083453
0000e0 41 a3 13 3e 1c ee 3b 3d cf ca 39 be 82 81 a7 bc
       0.14417745 0.045881376 -0.18143772 -0.020447496
0000f0 fe e3 ff bd 59 65 8e 3e 0f e1 2f 3e cb 39 40 be
       -0.12494658 0.27811697 0.17175697 -0.18772046
000100 67 08 69 be 62 91 98 be 5a df d5 bd 34 4f 56 be
       -0.22757111 -0.29798418 -0.104429916 -0.20928651
000110 02 6c de bc 2c f3 20 3e 84 47 03 3e f1 c0 d2 3d
       -0.027151112 0.15717763 0.1282025 0.10290707
000120 56 5c 75 bd 9f be 8d be c4 7e 33 be c5 97 8f be
       -0.05990251 -0.27684495 -0.17528826 -0.28045478
000130 80 b1 4b be 6f ff 0c 3d d9 df 7e 3e ba c1 fb 3d
       -0.1989193 0.034423288 0.24890079 0.1229281
000140 d0 a1 91 3e bb 7e 0f bc 02 c5 dd bd 1a bb 01 be
       0.28443766 -0.008758242 -0.10828592 -0.1266903
000150 66 ee 97 be dc 14 19 3d 96 c1 bf 3d a5 8a 50 be
       -0.2967407 0.03737341 0.093630955 -0.20365389
000160 80 26 a7 bd d1 cb 57 3e 28 63 88 3e 52 b0 ac bc
       -0.0816164 0.21073844 0.2663815 -0.02108017
000170 f7 b7 8c bc 45 4e 39 3d b4 be 9b be c4 fd 98 3e
       -0.017177565 0.04524066 -0.30418932 0.29881108
000180 e1 7d 7f 3e ea e2 27 be 27 be 09 be 82 91 3c 3e
       0.24950363 -0.16395155 -0.13451444 0.18414882
000190 cf cb 03 be b5 da 01 3e 1b 54 07 be 82 d0 69 be
       -0.12870716 0.12681086 -0.13215677 -0.22833446
0001a0 c4 b6 10 be 98 b5 49 3e 55 65 6d be f3 8c 92 3e
       -0.1413222 0.19698179 -0.23183186 0.2862316
0001b0 f0 19 97 be f4 fa e9 3d e8 1e a6 3c 04 d7 97 be
       -0.29511976 0.11424819 0.02027841 -0.2965623
0001c0 48 33 58 3e 50 8a e3 3d ea 22 24 bd 1b 8e 48 be
       0.21113312 0.111103654 -0.04007236 -0.19585459
0001d0 87 fb 91 be 73 52 8a bd 82 6b ce 3d de e5 33 3e
       -0.28512213 -0.06754007 0.10079099 0.17568156
0001e0 13 c8 55 3e 76 6a 67 3d 46 1b 75 be 0c 67 20 bd
       0.20877104 0.056498013 -0.23936185 -0.039160773
0001f0 ae bf 1a 3e 10 ac 3e 3e a6 82 a1 be 3b 08 09 3e
       0.15112182 0.18620324 -0.3154499 0.13382046
000200 b8 ed 8e 3d c1 02 bb 3d 54 ab 5d be 93 a7 8f 3e
       0.06978935 0.09131385 -0.21647388 0.28057536
000210 ab cb ee 3d 8c 47 72 3d 10 03 81 be 34 64 9c 3e
       0.1165994 0.059150264 -0.2519765 0.305452
000220 b8 37 24 bc 60 35 25 3e 46 9e 1e 3e f2 c2 54 be
       -0.01002305 0.16133642 0.15490064 -0.2077749
000230 20 9f 18 3e 08 09 d1 bb a5 98 26 be f5 6e 2e be
       0.14904451 -0.0063792504 -0.16269167 -0.17034514
000240 fe 0d 27 be 09 84 8c 3d b2 03 2b 3d e0 f2 94 3e
       -0.16313931 0.06861121 0.04175157 0.2909155
000250 0d c6 42 be ca 89 02 bc a7 85 23 be 44 9d 19 3d
       -0.19020863 -0.007967422 -0.15968953 0.037503496
000260 33 9b 54 be e9 2a 29 bd 4d e1 4f be 93 ae 9e bb
       -0.20762329 -0.041300688 -0.20300789 -0.004842588
000270 07 85 b3 3d 4f f8 50 3e 2e 5d 9a be ca 13 8a be
       0.08765607 0.20407222 -0.30149215 -0.26968223
000280 37 62 96 3e 3a b8 c3 bd 91 f5 2c 3d 7a cf 94 3e
       0.29371807 -0.09556623 0.042226378 0.29064542
000290 b4 11 00 3e 73 d4 10 be db 66 ee 3d 78 59 89 3e
       0.12506753 -0.14143543 0.11640712 0.26826072
0002a0 68 0b 42 3e 4e 26 de 3d 34 cd 80 be 1b a0 c5 3c
       0.18949664 0.1084715 -0.25156558 0.024124196
0002b0 47 e6 2d 3d 20 7c ea 3d 59 d7 4c bd d3 b7 08 3e
       0.042455938 0.11449456 -0.05001006 0.13351373
0002c0 a0 d2 b4 3c 38 8c 91 bd 9d 6a 48 3e e0 01 59 3c
       0.02207309 -0.07106823 0.1957192 0.013245076
0002d0 cd 66 33 3e f3 92 99 b9 01 f7 04 be 42 af 5e 3e
       0.17519684 -0.0002929192 -0.1298485 0.21746543
0002e0 48 e7 ad 3e 2a d1 1f be 9c 9c d2 3d ee 9f 8c 3e
       0.33965516 -0.15607134 0.10283777 0.27465767
0002f0 fa 4a 6a bd 5d 7c 95 3e ec d6 c2 bd 5e 7e 94 be
       -0.05720041 0.29196444 -0.09513649 -0.2900266
000300 72 ae 3e be a2 ea 16 be db d4 6f be 7e 62 fc 3d
       -0.18621233 -0.14737943 -0.23421042 0.123234734
000310 5d a7 a0 be 2e 48 8e be d7 68 ad bc d4 38 3c 3e
       -0.31377688 -0.27789444 -0.021168156 0.18381053
000320 57 26 65 3e 93 c4 50 be 9f 80 08 3d 1a 58 12 3e
       0.22377907 -0.20387487 0.033325788 0.1429142
000330 cb a6 87 3e 80 f2 77 3d c8 9d 89 bc 40 1a d4 bd
       0.2649444 0.060534 -0.016798869 -0.10356569
000340 f7 6b 85 be ff 65 0f bd c9 73 90 3e 92 04 3a 3e
       -0.26058933 -0.03500938 0.28213337 0.18165806
000350 62 d7 6a 3e 97 07 40 bd f6 2a 4a be 34 ab cb bd
       0.22933725 -0.04688224 -0.19742951 -0.09944764
000360 23 0d 68 be 5a 2c 80 bc 0f 67 91 3e d2 d8 84 be
       -0.22661261 -0.015646148 0.2839894 -0.2594667
000370 70 0e 88 3c 85 60 80 3e a7 da 10 3e 30 79 3d 3e
       0.016608447 0.2507364 0.14145909 0.1850326
000380 5d 2b 5d bd 30 0e e6 3d bc a2 47 3e 7f 25 40 3c
       -0.053996433 0.11233175 0.19495672 0.01172769
000390 52 f8 83 3e 87 52 a4 bc 68 96 93 be 86 85 55 3e
       0.2577539 -0.020058883 -0.28825688 0.20851716
0003a0 ed 24 91 bc 8d a3 29 3e f4 3a 5f be e5 3a 8e be
       -0.017717803 0.16566296 -0.21799833 -0.27779308
0003b0 11 4b 49 3e 87 d5 e2 bd f7 be 7d 3e 8e c1 44 3d
       0.19657542 -0.11075883 0.24779879 0.04803615
0003c0 04 82 7c be 92 27 a7 3e 3d e9 8b bd 00 d7 b0 bd
       -0.24658972 0.32647377 -0.06831596 -0.08634758
0003d0 9c ea 32 be 58 d3 b7 bc 49 75 5b bc 1f 75 67 3e
       -0.17472309 -0.022439644 -0.013394662 0.22603272
0003e0 67 71 83 be 83 e8 c5 3d b9 55 31 be b3 ff f4 ba
       -0.25672457 0.09663489 -0.17317857 -0.0018691927
0003f0 dc 71 53 3e f7 2d 26 3c 91 9d 32 be c9 4b b6 3c
       0.20648903 0.010142795 -0.1744292 0.022252934

encoder.critic_encoder.net.mlp.0.bias f4 [256]
000000 1b ef 25 be e5 0b 08 3e d8 38 92 bd 98 47 a5 3e
       -0.16204493 0.13285787 -0.07139748 0.32281184
000010 7d 5a 63 be aa c2 85 be 79 41 fd 3d 56 e8 48 be
       -0.22202487 -0.2612508 0.123660035 -0.19619879
000020 02 41 00 3d 5b 80 74 be 62 61 89 3d 93 2e af bd
       0.031311996 -0.23877089 0.067080274 -0.08553805
000030 de 23 94 3e 43 16 04 3e 2e f5 8a 3d 41 01 97 3e
       0.28933614 0.12899117 0.067850456 0.29493144
000040 a2 47 07 be 9c 22 09 3e f0 7e bc bd 5a 1b 59 bd
       -0.1321092 0.13392109 -0.09203899 -0.0530046
000050 49 5e 83 be 8e bf cf 3d b1 5d c8 3c 28 0e a8 3d
       -0.2565787 0.10143958 0.024458738 0.08205825
000060 e9 87 6a bb 82 ed 75 be 95 5f 21 3d 10 15 10 3e
       -0.0035786575 -0.24016383 0.039397795 0.14070535
000070 7a 42 e6 bd 48 c3 77 3d 80 b6 55 3e e0 e6 a8 3e
       -0.11243148 0.06048897 0.208704 0.32988644
000080 d2 e0 14 3d a4 15 f6 3d 2e af 0a be 40 8f bf bd
       0.036347218 0.12015846 -0.13543388 -0.09353495
000090 6d 50 9f 3d 97 92 9e be db b5 89 3e 80 35 53 be
       0.07779012 -0.30971214 0.26896557 -0.20625877
0000a0 e3 eb 16 be 77 93 28 3d 72 2f 76 be 4e 6c 78 3c
       -0.14738421 0.04115626 -0.24041536 0.015162541
0000b0 bd 09 7d be ac 74 54 3e 5a 85 70 be 58 73 34 be
       -0.24710746 0.20747632 -0.2348837 -0.17622125
0000c0 a4 3a 5c 3e b7 ab ad 38 29 0e 0d 3e 11 b9 6a 3c
       0.21506745 8.281267e-05 0.13774933 0.01432635
0000d0 df da cc bd dc ec 30 be f9 c1 49 3e ee 41 00 3d
       -0.10002684 -0.17277855 0.19702901 0.031312875
0000e0 52 4d 84 be 0f 47 3b be 0c 59 85 3e 85 c4 6b be
       -0.2584024 -0.18288825 0.260445 -0.23024185
0000f0 86 4f 96 3d 42 db 2d 3e 72 29 38 be f5 37 a6 be
       0.07339387 0.16978171 -0.1798456 -0.32464567
000100 8d 5b 45 be fe 0d 69 3c 51 32 28 be 05 77 de bd
       -0.19273205 0.014224527 -0.16425444 -0.10862545
000110 64 1d fc bb cb 3a e0 3d eb 1b 9d 3e 76 4a ae 3e
       -0.0076939333 0.10948714 0.30685362 0.34041184
000120 e6 13 75 bd 3b c5 8f be 64 c4 0e 3e db d6 5e 3e
       -0.05983343 -0.28080162 0.13942105 0.21761648
000130 b6 39 a2 3d 59 a0 9c 3d 78 3e 86 3d b5 45 7b be
       0.07921164 0.076477714 0.06554884 -0.2453831
000140 90 c9 57 bd 42 53 19 3c 4c 06 fb 3d 4f cb 77 be
       -0.05268246 0.009358229 0.122570604 -0.2419865
000150 7d b1 c4 bd 71 f6 27 3e e4 2f 04 be 2b 25 d9 bd
       -0.09604166 0.16402604 -0.12908894 -0.10602792
000160 2a 72 60 3e d3 5c 30 3e 0e 1a 4b 3e 5b 68 89 bd
       0.2191855 0.1722291 0.19834158 -0.06709357
000170 d0 48 85 3e a7 85 0c bd e8 e3 91 3e 10 40 98 3d
       0.26032114 -0.03430715 0.2849419 0.07434094
000180 2e e3 2d be 43 93 89 3e e4 a2 9e bd 0c 66 86 bd
       -0.16981193 0.26870164 -0.07745913 -0.06562433
000190 0c a5 4d 3e 7d e7 7b be 48 c6 70 3e 11 27 15 3d
       0.20082492 -0.24600025 0.23513138 0.03641421
0001a0 03 e4 8e bd dc 84 07 bd 70 0e 58 be 4a ae a1 be
       -0.069770835 -0.03308569 -0.21099257 -0.31578285
0001b0 b9 56 09 3e 12 16 e5 3d eb f1 24 be 86 bf 75 3e
       0.13411988 0.1118585 -0.1610791 0.23998842
0001c0 9e 78 8a be 80 21 69 be 0b 4c 27 3e ae 18 92 be
       -0.2704515 -0.22766685 0.16337602 -0.28534454
0001d0 45 7b 32 3e ab fe 53 bd 9f b3 6b be 8e 9e a3 3e
       0.17429836 -0.051756542 -0.23017739 0.31956905
0001e0 1c 58 b7 3d 3c 2f 9e be 2e e5 3b be 7d 13 87 3e
       0.089523524 -0.30895412 -0.18349144 0.26382056
0001f0 cf f0 08 be d3 a6 96 be 32 ab 7e be 79 6d 55 be
       -0.13373111 -0.29424152 -0.24869993 -0.20842542
000200 cf de 9c 3e 82 e5 84 be ec ed 19 3e 9a 2a 24 be
       0.3063874 -0.2595635 0.15032166 -0.16031876
000210 7d 23 aa be 87 6c c8 3d 57 af f0 3d 87 39 47 be
       -0.332302 0.09786325 0.117521934 -0.19455539
000220 48 11 1b be 3c 59 da bd 3d 94 de bd cf 44 0c 3e
       -0.15143311 -0.10661551 -0.10868118 0.13698123
000230 39 b7 90 be c6 f9 9e 3d da 8e 1a be 3e fe 46 bd
       -0.28264788 0.07762484 -0.15093556 -0.048582308
000240 69 59 f9 3d 7a d8 ee bd 6e 24 f7 3d cf 40 ab 3e
       0.12175257 -0.116623834 0.12067495 0.33447883
000250 c5 72 95 be e5 bc 98 bc f0 ce 35 3e f2 41 f1 3d
       -0.29189125 -0.01864476 0.17754722 0.11780156
000260 4d 5c 03 bd a2 86 10 ba 9c 64 47 be 28 de 54 bd
       -0.032070447 -0.0005513226 -0.19471973 -0.051969677
000270 44 18 7c be 77 b7 06 3e 12 b8 1f be a2 bb 3f 3c
       -0.24618632 0.13155924 -0.15597561 0.01170245
000280 42 29 2f 3e af 46 74 be 80 44 e3 3d 56 b6 85 3e
       0.17105582 -0.23855089 0.1109705 0.26115674
000290 e3 41 29 3e 5c dd ef 3d 7a da 5a 3b a3 d1 64 3e
       0.1652904 0.11712143 0.0033394382 0.22345595
0002a0 1c 4c 75 be 60 2c 0b 3e 2e 3f 86 be 1d a5 7d 3e
       -0.23954815 0.13591146 -0.26220077 0.24770017
0002b0 90 e6 06 3e 46 9f 1a 3e 24 cc 6f 3e e4 a5 14 be
       0.1317389 0.1509982 0.23417717 -0.14516407
0002c0 33 fd 16 bd a5 68 6e 3e 7e a2 3f be e6 28 44 3e
       -0.036862563 0.23282106 -0.1871433 0.19156227
0002d0 82 dd 08 3e 94 8d 2a be e4 2c 9e 3d ec 33 3c 3e
       0.13365749 -0.1665557 0.07723406 0.18379182
0002e0 de 79 46 3e a1 2c 78 3e bb 6a fc bc 64 07 03 be
       0.19382426 0.24235775 -0.030812612 -0.12795788
0002f0 08 37 37 be d2 05 89 bc 27 a2 29 3e 76 f9 83 be
       -0.17892087 -0.016726408 0.16565762 -0.2577626
000300 03 d0 85 3e 41 31 dc bc 6f 51 6d 3e cd 01 9d be
       0.26135263 -0.026878955 0.23175596 -0.30665436
000310 93 10 fa 3d d0 c2 75 be 9c 3f 4d be c9 4a 0e 3e
       0.122101925 -0.24000096 -0.20043796 0.13895716
000320 a1 e4 c1 ba f7 a9 63 3e b3 6b a5 bd 72 22 e9 bd
       -0.0014792868 0.22232805 -0.080771826 -0.11383523
000330 92 d3 93 3d 69 28 83 3e 9c c8 1a be 4d 79 fd bd
       0.07218088 0.25616768 -0.15115589 -0.12376652
000340 0d 75 55 3e 1d fd b3 be cd 31 37 be 77 86 d7 bd
       0.20845433 -0.35154048 -0.17890091 -0.10523694
000350 4c 9e c5 3d 28 bd 40 3d e9 2e 69 be 41 10 78 be
       0.09649333 0.047055393 -0.22771801 -0.2422495
000360 6c 29 65 3e 13 fe 82 3e 1c 9b 4c 3e 42 3f a1 bd
       0.22379082 0.25584468 0.19981045 -0.078733936
000370 01 e1 8b 3e b9 18 89 3c eb 5a 90 3a 02 9a 6a be
       0.27320102 0.016735421 0.0011013424 -0.22910312
000380 c8 e0 68 39 68 de 55 bd 5a 6c 04 3e cd e3 26 3e
       0.00022208982 -0.052214056 0.12931958 0.16297837
000390 a9 94 b5 be 44 d2 86 bd bc 02 40 bd de 46 3f be
       -0.3546498 -0.06583074 -0.046877608 -0.18679377
0003a0 2f 6b 7f 3e f5 d8 d5 3d 0d 3c f6 bd ce ba a5 bd
       0.24943231 0.10441772 -0.120231725 -0.08092271
0003b0 db 16 7a 3e 4d 1c 07 3e 8f d4 93 be cb 36 50 3e
       0.24422781 0.1319439 -0.28873107 0.20333402
0003c0 28 30 7c 3e ec 5f cb 3c 2f 37 01 3e 85 59 e3 bd
       0.24627745 0.024826013 0.12618707 -0.11101059
0003d0 be e0 36 3e 1f 3d b3 bd 91 8e 87 be 6e 82 d0 bd
       0.1785917 -0.08751892 -0.26475957 -0.101811275
0003e0 cb 63 93 bd 3f 25 8e 3e 3d b5 07 3e a0 d3 33 bd
       -0.071967684 0.27762792 0.1325273 -0.043902993
0003f0 44 88 91 3d d9 95 d4 bd 98 e7 a9 be 2d 25 9d 3e
       0.07106069 -0.10380144 -0.33184505 0.30692425

encoder.critic_encoder.net.mlp.2.weight f4 [256, 256]
000000 9b 79 2e 3d 7b 40 1e 3c ea 0c 03 bd 55 2e 5d 3d
       0.04259644 0.009658928 -0.031994738 0.053999264
000010 7f c3 34 bd 15 65 59 3b fb 19 28 3b 63 18 43 bd
       -0.044131752 0.0033171822 0.0025650251 -0.04763068
000020 41 f2 60 bc 67 a1 df bc c8 88 8f bb a8 fd cb 3a
       -0.013729633 -0.027298642 -0.0043803193 0.0015563266
000030 a2 fb e6 3b d9 64 6e 3d ea 99 27 bc 19 ad 5f 3d
       0.00704904 0.058201645 -0.010229567 0.05460844
000040 2b e2 4b 3b 59 5a 85 3c a0 e7 2e 3d e9 e6 1c 3d
       0.0031110148 0.016278433 0.042701364 0.03830615
000050 4c 71 b2 bd 26 03 ea 3c f5 11 f2 bb f0 3e 2a 3d
       -0.08713016 0.028565954 -0.0073873946 0.041563928
000060 7e 5c 88 3d a9 d1 ce 3c bf c2 95 3c 2a e3 84 bc
       0.066582665 0.025246458 0.018281339 -0.016221602
000070 d9 ff 57 3d d8 3c ec bc 4b f8 88 3b 50 36 15 bd
       0.05273423 -0.028837606 0.0041799895 -0.03642875
000080 40 38 0a 3e a1 37 3d bd ab 7f 45 bd cf 31 29 3c
       0.1349802 -0.04619563 -0.048217457 0.010326817
000090 56 65 6d 3c 88 71 88 bd 22 65 89 3c 3e a3 ae 3d
       0.014489492 -0.06662279 0.016771857 0.0852723
0000a0 bf 4d e4 bc 54 71 31 bc 53 ff bf 3c fd 08 07 3c
       -0.027869103 -0.010830242 0.023437178 0.008241889
0000b0 0f 57 d6 bc ba 14 b4 3c f9 34 57 bd 7b 50 4a bd
       -0.02616456 0.02198254 -0.052540753 -0.04939316
0000c0 a5 16 bf 3c 90 a0 1a 3d b7 52 61 bd 97 c4 51 bd
       0.023326227 0.03775078 -0.055010524 -0.051212873
0000d0 f7 bb 79 bc 3b 49 54 bd c8 53 ad 3c 37 f0 01 bd
       -0.015242568 -0.05182765 0.021158114 -0.031723227
0000e0 ba c9 c8 bc a8 a8 e1 3b a4 1b 87 bc 9f d9 d8 bc
       -0.024510253 0.0068865605 -0.016492672 -0.026470957
0000f0 e0 e3 4e bd 79 38 82 3b 9b 57 b1 bc d1 b8 40 3d
       -0.050510287 0.003974017 -0.021648219 0.047051255
000100 da 41 49 3d 31 3c 1b 3d 13 1d e9 3b 01 09 25 bd
       0.049135067 0.0378992 0.0071140616 -0.04029179
000110 af e4 75 3d 9e 17 82 bc 00 e4 6e bd 28 f6 2b bd
       0.060032543 -0.015880402 -0.058322906 -0.0419828
000120 bd 81 4f 3b e0 fe 05 3d 0d aa 54 bd a2 61 0a 3d
       0.0031663023 0.03271377 -0.051919986 0.033784516
000130 98 3a 27 3d fc d2 e7 3c 06 6e 57 bc 00 cd 37 3d
       0.040827364 0.028298847 -0.01314879 0.044873238
000140 aa 43 54 3d 6f 68 70 bc 6d 66 2e bd ad 2c d8 bc
       0.051822342 -0.014673336 -0.04257815 -0.02638849
000150 84 a4 57 bc 79 4c ee 3c ae bb 0d bc f8 3d b9 3c
       -0.013161782 0.0290892 -0.008650703 0.022612557
000160 f4 5d 14 3d ac 74 1c 3d a8 76 44 bc b2 2c d5 bb
       0.036222413 0.038197204 -0.0119911805 -0.0065055722
000170 95 4d b1 3b 43 32 7c bd 68 de e2 3b 4f f0 02 3d
       0.00541086 -0.06157137 0.0069234855 0.031967457
000180 f0 9d 18 bb e5 06 0c bc 31 7d c9 3b 60 93 2e bd
       -0.0023287497 -0.008546566 0.006148957 -0.042621017
000190 11 30 b9 3d aa 47 84 bc 3b 40 2c 3c a4 d0 b4 3a
       0.09042371 -0.016147453 0.010513361 0.001379509
0001a0 9c 41 e2 3b 2b a2 0e bb 98 56 89 3c 60 8d f0 bb
       0.006904794 -0.002176414 0.016764924 -0.007341072
0001b0 4d ba 39 bd 74 70 59 bd 8b c1 69 3c af ca ec bd
       -0.045343686 -0.05308576 0.014267336 -0.11562096
0001c0 23 4f c8 3c ce de f6 3c d3 ba 7d 3d e7 f2 4b 3d
       0.024451798 0.030135538 0.061945748 0.049792197
0001d0 bf 3e 25 3d 46 d2 6a 3d 5c 84 07 bb 00 d0 81 3d
       0.040343042 0.05732944 -0.0020678258 0.06338501
0001e0 86 e1 73 3d 2b b9 b2 bd 9f 7e c1 bc 90 01 0a bd
       0.059541248 -0.08726724 -0.023619948 -0.033692896
0001f0 32 5d 07 bd 6c 17 44 3d 36 23 5c 3e 29 80 70 3d
       -0.033047862 0.0478739 0.21497807 0.058715973
000200 2d 4d 43 3d 3c 94 d6 3d 50 d1 76 3d 69 6e 15 3d
       0.047681022 0.10477492 0.06025821 0.03648225
000210 23 d8 36 bd 7e b2 ff 3b 23 05 99 bd 93 8f b9 bc
       -0.044639718 0.0078032603 -0.07471683 -0.02265147
000220 b8 cc 87 bc 32 c3 a6 bb d1 c3 51 3d e1 c7 4e 3d
       -0.01657711 -0.005089187 0.051212136 0.050483588
000230 fd 40 97 bc 29 41 7b bd eb 76 cd bc f5 8c 1d 3d
       -0.018463606 -0.06134144 -0.025081119 0.038464505
000240 eb 9a 36 b9 7c 88 4b bd 52 4a 2a 3d 32 eb 25 3d
       -0.00017414584 -0.04969071 0.041574784 0.040507503
000250 b2 a3 48 bd 54 8c b4 3c b9 e7 d2 3c b9 65 7a 3d
       -0.048984237 0.02203957 0.02574526 0.061132167
000260 fd 9e c2 bb 8f 9b 4b bd dc 89 a6 3c db 1a 22 bc
       -0.005939363 -0.0497089 0.020329408 -0.009894098
000270 5e 9b 21 3d b0 78 77 bd f7 e9 df 3a 31 39 f4 bb
       0.03945481 -0.06041783 0.0017083277 -0.007453107
000280 a1 09 4c 3d e5 2c 5c bd e2 89 06 bc 33 b0 9a bb
       0.04981387 -0.053753752 -0.008211585 -0.0047207116
000290 63 8e ec 3c 37 c6 02 3d 60 7e cd 3c 09 33 26 3d
       0.028876489 0.031927314 0.025084674 0.040576015
0002a0 bf b8 81 bc fe e7 b1 bc 31 b9 5b bd 74 23 d6 bc
       -0.015835164 -0.021717068 -0.05364341 -0.026139952
0002b0 09 6d a4 3c 9a 3e 2c bc 82 10 02 bd ff 27 af 3c
       0.020071523 -0.010512972 -0.031754024 0.021381376
0002c0 19 1f 27 bd 79 c3 26 bd a5 4a a0 3c 34 28 af bb
       -0.04080114 -0.04071376 0.019566843 -0.0053453688
0002d0 23 32 8b 3c 1e 8f eb bc 31 04 1e 3d ed c2 18 bd
       0.01699168 -0.028754767 0.038578216 -0.03729527
0002e0 f5 00 24 3e 2d 8a 6f bd a3 81 1a bd 98 91 98 bd
       0.1601599 -0.058481384 -0.037721287 -0.07449645
0002f0 6a 44 73 bd 34 80 5b bc c0 ec ff bd 61 c4 5e 3d
       -0.059391417 -0.013397265 -0.12496328 0.0543865
000300 8e 15 68 3c ad b9 50 bd e7 e3 77 3d 4f fd 09 bb
       0.014165295 -0.050958324 0.06052008 -0.0021055525
000310 4d 23 32 bd 16 3b 87 3d df f9 50 bd 4f 47 8f 3d
       -0.043490697 0.066030666 -0.051019546 0.06996023
000320 3e 1b a8 3a eb a2 c4 bc 8b c4 7a bd b3 cc 22 3d
       0.0012825502 -0.024003467 -0.061222594 0.039745998
000330 83 21 3c 3d 82 ee 1f 3d 37 c2 6c 3d 2e 19 5e bd
       0.045930397 0.03904582 0.057802405 -0.054223232
000340 12 a2 93 bc 03 1c 08 bb ab d6 0e bd 7e a7 2e bd
       -0.018021617 -0.002076865 -0.034872692 -0.0426402
000350 42 10 06 3d 62 11 7d 3b a1 1f 18 bc b0 6d 50 bc
       0.03273035 0.0038615097 -0.009284885 -0.012721464
000360 62 e2 fc 3d 6d 9d fd bc 67 96 b7 3c f8 62 b0 bd
       0.123478666 -0.030958856 0.022410585 -0.08612627
000370 66 60 d9 3c ef 4c 8a bd dd 88 19 bb dc 3c 23 3d
       0.026535224 -0.06752955 -0.0023427524 0.039852962
000380 34 19 f2 bc f7 4d 53 3d f7 17 09 bd fd 9e 3c bd
       -0.029553033 0.051588025 -0.03347012 -0.04605006
000390 7b 0f 21 bc 5e 34 09 bb ea 60 12 bd 9a 0c 1d bd
       -0.009830351 -0.0020935754 -0.035736956 -0.038342096
0003a0 26 05 8c bd d7 b8 c5 ba c2 fd 2e 3d fe 26 10 bc
       -0.068369195 -0.0015084994 0.04272247 -0.008798359
0003b0 a0 c3 c1 bc 80 ec 1d 3d 3d 87 66 3d f3 d6 be 3c
       -0.023652852 0.038555622 0.056281317 0.023295855
0003c0 86 fc 8b 3c 8f 85 06 3b c1 f2 24 bd 3a a7 3f 3b
       0.017088186 0.0020526384 -0.04027057 0.0029243962
0003d0 a2 86 60 3d f8 0b 41 3c e4 d0 a3 bc 6e da 3b bd
       0.054815896 0.011782639 -0.019997068 -0.045862608
0003e0 7a 87 92 bc 00 b0 39 bd ac 83 69 3d a0 71 0e 3d
       -0.017886866 -0.045333862 0.057010338 0.03477633
0003f0 3f 0e 9d 3c a3 f9 01 bc 2e b6 5c 3d 19 73 2c bd
       0.019171832 -0.007933053 0.053884678 -0.042101953
