trained_policies_ppo/trained_models/policy_model_mrx_ppo/model.pt (torch, 606437 bytes, 14 tensors)

_last_output f4 [13, 9]
3.5669706 0.6208773 2.6522787 -5.427764 -5.543475 -3.7541149 -0.5471797 -1.0445943
6.6588445 -0.37561682 0.4482551 2.3928394 1.2182918 -0.3034894 0.28826934 -1.8916879
-0.77626705 0.10516268 -0.8058182 0.46273145 2.5410056 0.5052015 -0.6922687 -0.1315595
-1.8974872 -0.62651837 1.4412526 8.6759615 -1.2071558 2.1036158 -3.4816499 -3.9010403
-3.0263336 -1.1078454 -1.4847293 1.0883853 -1.5688289 1.1892033 3.0443785 -0.59222084
-1.1190081 -0.19131313 -0.8554078 -1.9570037 1.9604218 -1.9670862 1.3456981 3.3436537
-0.033104826 -0.9821855 -0.50248414 -1.1504043 -1.874869 1.8961377 -2.5756545 0.84916824
2.1215107 -0.5366018 0.17468694 0.85553676 0.41258535 -2.1645985 0.75984365 -1.7042794
0.9544031 1.5731349 -1.3830879 -1.2128303 0.3945782 0.84371966 -1.6036183 1.7417891
-0.23004411 1.4981877 2.4959984 -6.347158 -5.9582815 -3.7883277 0.35370797 -1.0390818
9.803276 -1.9670862 1.3456981 3.3436537 -0.033104826 -0.9821855 -0.50248414 -1.1504043
-1.874869 1.8961377 10.4064 -1.8974245 1.8806041 -1.9855127 -1.676174 -2.0592408
-1.9519961 -1.9941573 -2.5661755 -0.6055042 0.5498539 2.0117223 1.2998837 0.17189606
0.5870904 -1.1042185 -0.9689146 -0.746922 10.708146 -2.2106664 1.442459 -1.1938835
-1.4716724 -1.8877964 -1.5823767 -2.0622313 -3.5580716
00000000: 3f49 6440 d1f1 1e3f efbe 2940 3eb0 adc0
00000010: 2664 b1c0 6b43 70c0 f813 0cbf 44b5 85bf
00000020: 4115 d540 d950 c0be b181 e53e 4824 1940
00000030: fcf0 9b3f f662 9bbe 0a98 933e d422 f2bf
00000040: 70b9 46bf 885f d73d 1a4a 4ebf 23eb ec3e
00000050: d69f 2240 e354 013f 8638 31bf 89b7 06be
00000060: dce0 f2bf 8263 20bf f77a b83f bdd0 0a41
00000070: 1584 9abf a4a1 0640 5ad3 5ec0 a5aa 79c0
00000080: 73af 41c0 e1cd 8dbf 9c0b bebf 3650 8b3f
00000090: 63cf c8bf d037 983f 19d7 4240 c99b 17bf
000000a0: a83b 8fbf 97e7 43be 01fc 5abf 197f fabf
000000b0: 1aef fa3f 7bc9 fbbf d63f ac3f 6cfe 5540
000000c0: ed98 07bd 8270 7bbf cda2 00bf 7340 93bf
000000d0: b5fb efbf a4b4 f23f 86d7 24c0 1763 593f
000000e0: d5c6 0740 bc5e 09bf 22e1 323e 7504 5b3f
000000f0: 633e d33e c888 0ac0 1d85 423f d425 dabf
00000100: c353 743f 7c5c c93f 0609 b1bf 063e 9bbf
00000110: 2706 ca3e 03fe 573f 5d43 cdbf f2f2 de3f
00000120: af90 6bbe 9dc4 bf3f 70be 1f40 eb1b cbc0
00000130: 3eaa bec0 f673 72c0 3619 b53e a200 85bf
00000140: 38da 1c41 7bc9 fbbf d63f ac3f 6cfe 5540
00000150: ed98 07bd 8270 7bbf cda2 00bf 7340 93bf
00000160: b5fb efbf a4b4 f23f 9d80 2641 cede f2bf
00000170: a3b7 f03f 4825 febf df8c d6bf 9aca 03c0
00000180: 02db f9bf 8c40 ffbf 383c 24c0 5302 1bbf
00000190: 3ac3 0c3f 0fc0 0040 9762 a63f 8505 303e
000001a0: 8e4b 163f 0857 8dbf ca0a 78bf 4836 3fbf
000001b0: 9154 2b41 8f7b 0dc0 7fa2 b83f 2dd1 98bf
000001c0: c35f bcbf 50a3 f1bf 528b cabf 99fb 03c0
000001d0: 72b7 63c0

weight f4 [9, 256]
-0.006987792 0.06360942 0.13289192 0.0049085584 -0.08770308 -0.053072296 0.0609467 0.052924566
-0.05454075 -0.03960213 -0.13341206 -0.11646127 0.1343822 0.10169306 0.04638088 -0.042007815
0.03540191 0.04113237 0.026106015 0.09748127 0.04417225 -0.06271878 -0.095512524 0.08404535
0.05899635 -0.08071783 -0.022101928 -0.079064004 -0.037791334 -0.0054083765 -0.12757272 -0.05449481
0.0028311666 0.25735134 0.106867135 0.047703173 0.13423765 0.0030674017 0.08838131 0.059968974
0.035838246 -0.077124424 0.042667165 0.16424777 -0.029978972 0.06639001 0.07363913 0.02020329
-0.10431514 -0.002466206 -0.05774653 0.03280258 -0.08416173 0.021964142 -0.12778805 0.08909175
-0.025630886 0.05376094 0.10797267 0.022058746 -0.09233099 -0.14008024 0.1345694 -0.0334669
0.058193106 -0.11563724 0.09774819 -0.13760273 0.003027693 -0.06094038 -0.045618195 -0.036423672
-0.126108 -0.13573977 0.061545752 -0.02713783 -0.1541408 0.012542826 0.112731524 0.03700301
-0.06451742 -0.118337736 -0.0077215475 -0.07140819 0.035263523 0.09873 -0.05223161 0.02899213
0.18921427 -0.018141327 -0.12156122 -0.06654448 0.088576205 -0.0831588 0.09617799 -0.0037860097
0.038423274 -0.061551865 0.04481791 0.044691406 0.020914685 -0.0005851629 -0.14434242 0.123029694
0.059128013 0.13075158 0.05638048 0.04294984 0.12759253 0.036521886 -0.042724114 -0.021631178
0.04149475 0.068833165 -0.08105836 0.11023223 0.015654849 0.0792961 0.030993056 0.055526644
0.016447209 0.0017758117 0.14077896 -0.060612783 -0.085471 0.07955193 0.070752874 0.027211301
0.08643581 0.1955938 -0.06543534 -0.13005987 0.029098319 0.11842265 -0.038972396 0.058130853
-0.091994934 -0.024273498 -0.05488031 -0.039943967 0.009227405 0.10056105 -0.061454784 0.008474988
-0.003934921 -0.0037771608 0.05157258 0.031357504 0.037338994 0.0048467238 -0.09194987 -0.12337376
0.11202863 -0.045736395 -0.054106604 0.01710045 -0.047923394 -0.15025142 0.056713782 -0.00691638
-0.13624038 0.099827714 -0.06865308 0.0869267 -0.12290629 0.07744191 -0.02747699 0.07305906
-0.09962454 -0.005809619 -0.022977911 -0.018301662 -0.08301526 -0.19821571 0.14337932 0.04020108
-0.10820285 -0.03026625 0.08332108 0.024450112 -0.16176362 0.07319296 0.08296286 0.0001834713
0.022662392 0.02832883 -0.0111187035 -0.030762354 -0.01937217 0.020952167 -0.06900003 -0.08707875
-0.017871523 0.041823983 0.025490886 0.07255531 0.048815712 0.063991815 -0.013295577 -0.074666925
-0.011354017 0.122843355 0.05419772 0.07430528 -0.047109272 0.019877665 -0.091924936 -0.04245134
-0.051727906 0.06706536 0.11764237 -0.0145965405 0.077968664 -0.017125424 -0.0708761 0.070021324
0.0020141518 0.09551766 -0.015499947 0.0076910155 -0.028182147 -0.13138457 0.09616933 0.08155164
-0.08617731 0.090309784 -0.0010125012 -0.121474855 -0.073378764 0.079267085 -0.025335945 -0.018092172
-0.104370914 -0.039632346 -0.04373435 -0.028933004 0.052611332 -0.024768211 -0.19312139 0.054070067
0.11272022 -0.07139703 0.1885675 -0.04429656 0.097546324 0.007332512 0.11268604 -0.076989464
0.0026076615 0.123865835 0.12222913 0.10589369 -0.11127085 -0.075550765 -0.20358571 -0.012114592
00000000: d9f9 e4bb a845 823d d214 083e f9d7 a03b
00000010: ac9d b3bd 5662 59bd 3fa3 793d 6ec7 583d
00000020: 1f66 5fbd d835 22bd 2c9d 08be 3f83 eebd
00000030: 7d9b 093e 7344 d03d e1f9 3d3d 6310 2cbd
00000040: 9801 113d 6a7a 283d 48dc d53c 43a4 c73d
00000050: f6ed 343d b472 80bd 129c c3bd f81f ac3d
00000060: 28a6 713d 644f a5bd 1a0f b5bc 4fec a1bd
00000070: 16cb 1abd c038 b1bb 6ca2 02be f335 5fbd
00000080: 188b 393b 8ec3 833e 28dd da3d 6764 433d
00000090: 9875 093e 7606 493b 4301 b53d 07a2 753d
000000a0: 20cb 123d 69f3 9dbd c4c3 2e3d 9130 283e
000000b0: 7696 f5bc 7cf7 873d 1dd0 963d 5f81 a53c
000000c0: 2da3 d5bd 12a0 21bb a087 6cbd 005c 063d
000000d0: fc5c acbd 25ee b33c dfda 02be bc75 b63d
000000e0: ddf7 d1bc 6e34 5c3d c620 dd3d 8bb4 b43c
000000f0: 0818 bdbd 3271 0fbe 90cc 093e 9714 09bd
00000100: e55b 6e3d 38d3 ecbd 3430 c83d bbe7 0cbe
00000110: 426c 463b 9f9c 79bd 25da 3abd fd30 15bd
00000120: 7522 01be 5eff 0abe 6617 7c3d 2850 debc
00000130: 16d7 1dbe 6d80 4d3c c9df e63d 7890 173d
00000140: b621 84bd 0e5b f2bd 0905 fdbb 753e 92bd
00000150: 7c70 103d f432 ca3d d0f0 55bd e780 ed3c
00000160: 63c1 413e 1f9d 94bc 17f5 f8bd 7948 88bd
00000170: 7167 b53d 294f aabd f7f8 c43d b41e 78bb
00000180: b961 1d3d cf1d 7cbd fc92 373d 560e 373d
00000190: 4655 ab3c 9e65 19ba 80ce 13be fef6 fb3d
000001a0: 3730 723d bee3 053e 38ef 663d 2cec 2f3d
000001b0: 9ea7 023e f997 153d 7bff 2ebd de33 b1bc
000001c0: 66f6 293d 67f8 8c3d ed01 a6bd 6fc1 e13d
000001d0: 993e 803c fe65 a23d 26e5 fd3c e86f 633d
000001e0: 4cbc 863c 5ac2 e83a 5c28 103e 1c45 78bd
000001f0: 6b0b afbd 1fec a23d e2e6 903d 3cea de3c
00000200: 4205 b13d be49 483e f702 86bd 6a2e 05be
00000210: 995f ee3c 9387 f23d 85a1 1fbd 9e1a 6e3d
00000220: d767 bcbd 37d9 c6bc 2dca 60bd 499c 23bd
00000230: 8b2e 173c f4f2 cd3d 03b8 7bbd adda 0a3c
00000240: 83f0 80bb 3e8a 77bb c53d 533d ba70 003d
00000250: c6f0 183d 44d1 9e3b 3750 bcbd 62ab fcbd
00000260: 446f e53d 1656 3bbd e39e 5dbd 3e16 8c3c
00000270: 524b 44bd 82db 19be b64c 683d cda2 e2bb
00000280: 9982 0bbe 7972 cc3d fc99 8cbd a006 b23d
00000290: 4bb6 fbbd dd99 9e3d 6d17 e1bc fd9f 953d
000002a0: f307 ccbd 9e5e bebb 2c3c bcbc 5eed 95bc
000002b0: e803 aabd 0ff9 4abe 07d2 123e e3a9 243d
000002c0: 7599 ddbd edf0 f7bc 3ea4 aa3d 9a4b c83c
000002d0: 5da5 25be 31e6 953d 6fe8 a93d 3462 4039
000002e0: 7ba6 b93c dd11 e83c 392b 36bc 5501 fcbc
000002f0: 63b2 9ebc e1a3 ab3c e34f 8dbd 5856 b2bd
00000300: 4d67 92bc a04f 2b3d 43d2 d03c e197 943d
00000310: fcf2 473d 240e 833d b1d5 59bc f9ea 98bd
00000320: 3306 3abc 4c95 fb3d 6efe 5d3d 5e2d 983d
00000330: a7f5 40bd 7cd6 a23c 2443 bcbd 75e1 2dbd
00000340: a4e0 53bd 9059 893d 7cee f03d 5426 6fbc
00000350: 09ae 9f3d 9e4a 8cbc 7d27 91bd 5767 8f3d
00000360: dcff 033b c39e c33d 7df3 7dbc ea04 fc3b
00000370: 3fde e6bc ad89 06be 6df4 c43d 8c04 a73d
00000380: bb7d b0bd 56f4 b83d e7b5 84ba cfc7 f8bd
00000390: 9b47 96bd c856 a23d 548d cfbc 0936 94bc
000003a0: 6bc0 d5bd 8755 22bd ca22 33bd e804 edbc
000003b0: fb7e 573d b4e6 cabc 9dc1 45be 9378 5d3d
000003c0: dcd9 e63d 9b38 92bd d717 413e 4f70 35bd
000003d0: 5ec6 c73d 9245 f03b f0c7 e63d a7ac 9dbd
000003e0: 4de5 2a3b 5fad fd3d 4453 fa3d cade d83d
000003f0: f9e1 e3bd 5cba 9abd c678 50be 487c 46bc

bias f4 [9]
0.020948451 -0.014574763 0.0014022714 -0.0090803085 -0.0040585278 -0.005185448 0.013788723 -0.039320912
0.018980423
00000000: 169c ab3c fdca 6ebc 6ccc b73a 93c5 14bc
00000010: 66fd 84bb b1ea a9bb 19ea 613c f70e 21bd
00000020: d57c 9b3c

weight f4 [256, 18]
0.103554405 0.040833756 0.25049 -0.33322513 0.008780741 0.08004658 0.08681046 0.6329597
0.0133665595 -0.3540407 0.05195988 0.32993743 -0.42169446 0.14209756 -0.16310248 -0.025278702
0.21367317 -0.05048961 0.16873343 0.0020593246 0.024332576 0.004868998 0.22591536 0.3785801
-0.11372978 0.22018233 0.11816888 -0.585441 0.2812477 -0.0582174 0.06524764 -0.21423587
0.31167272 -0.16273451 -0.27133712 0.29959828 -0.634348 0.10660329 -0.07184335 -0.09059795
0.06044394 -0.0704541 0.2560367 -0.023178665 -0.15466389 0.063611604 -0.24480215 0.4258658
0.4073861 -0.18874303 0.0006249893 -0.0072055366 0.024053136 -0.17830378 0.13555832 0.4053717
0.18743101 0.045536492 0.2695457 -0.11133788 0.15003642 0.13115357 -0.24929443 -0.3799575
-0.3834533 -0.21793506 -0.17716247 -0.40057853 0.16672954 -0.08862559 -0.029341351 0.19310841
0.33539563 0.3599666 -0.16363144 -0.36346436 -0.047886886 -0.16079119 -0.15339546 -0.11582898
0.4153063 -0.3011153 0.14781547 0.037465718 -0.22746985 -0.32653952 0.105776526 0.2564955
-0.18526053 -0.2676061 0.055880606 0.19640586 -0.15800385 -0.047387592 0.24430735 0.06426997
-0.40746656 0.35123 -0.2245551 0.006374014 0.0072999005 0.21688849 0.00015697669 -0.022709152
-0.15391962 -0.308291 -0.5512538 -0.3121558 0.21545568 0.055608813 -0.09888419 -0.015542497
-0.02496425 0.25393242 -0.11575789 -0.26330298 0.38364512 -0.09703734 0.2773402 0.31960776
0.31556794 -0.20608875 -0.45294896 -0.31685004 0.055695623 0.18942502 0.035540815 -0.04375723
-0.15975337 -0.0789464 0.15644863 -0.099122085 -0.0807693 -0.31917596 0.20644476 0.054950535
0.04310234 -0.02035963 -0.24185576 -0.5340609 0.21023208 0.5509199 0.29957822 -0.10269235
0.2200229 0.14307293 -0.12414514 -0.031372193 -0.11245293 0.10624139 -0.19976918 0.028109742
0.34541023 -0.0017037898 -0.3513111 0.44648504 -0.19253832 -0.12344791 -0.18570237 -0.34230912
0.43213376 -0.14254418 0.19663286 0.04949562 0.37396035 -0.047184676 -0.5076101 0.006395742
-0.0058117383 0.051567905 -0.017674059 -0.095115736 0.2538076 0.09571939 -0.050422378 -0.40216702
-0.123479456 -0.4950566 0.19906564 -0.21382011 0.084382094 0.14123668 -0.30977127 -0.0113898115
0.054810572 0.23955682 0.02869094 -0.44649148 -0.18627463 -0.18422559 -0.09707256 0.18338805
-0.04334528 -0.13415344 0.06731679 0.29602802 0.5361388 -0.286023 0.05992495 -0.042820174
0.12080631 0.026195498 -0.16491526 0.14796668 -0.3419941 -0.11025171 0.4665757 0.18048532
-0.024565646 -0.5989494 -0.1429823 0.10242194 0.07102492 -0.29844373 0.065539636 0.20705906
-0.06959441 0.37435514 -0.18067367 0.0614001 0.21758828 0.017317269 0.24377282 0.5774357
0.18745701 -0.104287 0.0012526102 -0.14723209 -0.10027428 -0.30766192 0.37490246 -0.16750146
-0.00014162518 -0.34283444 -0.12137767 0.32001117 0.26748827 0.3762943 -0.17230499 0.2602753
-0.3137115 0.011390511 0.048186418 -0.40720743 -0.19396123 -0.34225282 -0.19853428 0.15152775
0.19163504 -0.005809847 0.14975446 0.2951431 0.18943135 0.20694855 -0.3847511 0.19549145
00000000: 5514 d43d 4c41 273d 3a40 803e 7c9c aabe
00000010: 19dd 0f3c 76ef a33d afc9 b13d a609 223f
00000020: 6aff 5a3c d344 b5be e2d3 543d 8fed a83e
00000030: 56e8 d7be 0682 113e 5604 27be 4815 cfbc
00000040: 24cd 5a3e 31ce 4ebd 75c8 2c3e bcf5 063b
00000050: 1c55 c73c 1e8c 9f3b 5b56 673e 40d5 c13e
00000060: 29eb e8bd 7a77 613e 8702 f23d 76df 15bf
00000070: b3ff 8f3e 5e75 6ebd 8ea0 853d a660 5bbe
00000080: 9193 9f3e e0a3 26be b3ec 8abe f264 993e
00000090: a164 22bf d352 da3d 9b22 93bd 6b8b b9bd
000000a0: 1194 773d 3d4a 90bd 3e17 833e 2fe1 bdbc
000000b0: 3660 1ebe cd46 823d 6aad 7abe 150b da3e
000000c0: e994 d03e da45 41be 52d6 233a 6c1c ecbb
000000d0: 150b c53c 4495 36be cdcf 0a3e e18c cf3e
000000e0: eaed 3f3e 7984 3a3d e501 8a3e 1d05 e4bd
000000f0: 26a3 193e 1f4d 063e 0a47 7fbe ca89 c2be
00000100: fe53 c4be 5e2a 5fbe 146a 35be a118 cdbe
00000110: 26bb 2a3e 5581 b5bd 465d f0bc 36be 453e
00000120: fab8 ab3e 8b4d b83e 008f 27be 0018 babe
00000130: 0a25 44bd 72a6 24be b313 1dbe bf37 edbd
00000140: 07a3 d43e c92b 9abe f05c 173e a775 193d
00000150: dbed 68be 3030 a7be 5da1 d83d 6153 833e
00000160: f0b4 3dbe ab03 89be 10e3 643d 9e1e 493e
00000170: c3cb 21be 7e19 42bd b52b 7a3e f99f 833d
00000180: 759f d0be 6bd4 b33e c6f1 65be 1bdd d03b
00000190: 0134 ef3b 0418 5e3e 1c9a 2439 8b08 babc
000001a0: 1b9d 1dbe 51d8 9dbe f81e 0dbf e3d2 9fbe
000001b0: 6aa0 5c3e 11c6 633d cb83 cabd f5a5 7ebc
000001c0: d481 ccbc 6e03 823e 7912 edbd a6cf 86be
000001d0: 226d c43e 83bb c6bd 89ff 8d3e a1a3 a33e
000001e0: 1f92 a13e ee08 53be ede8 e7be 2b3a a2be
000001f0: 1821 643d a2f8 413e 3f93 113d c83a 33bd
00000200: 6396 23be a6ae a1bd 1234 203e 8500 cbbd
00000210: 606a a5bd 086b a3be 4166 533e d013 613d
00000220: 148c 303d 3dc9 a6bc 09a9 77be 37b8 08bf
00000230: 1447 573e 1609 0d3f 5162 993e 5e50 d2bd
00000240: af4d 613e b681 123e cf3f febd 2180 00bd
00000250: b94d e6bd 1695 d93d 4b90 4cbe 6746 e63c
00000260: 9cd9 b03e b351 dfba 0cdf b3be b099 e43e
00000270: c428 45be 42d2 fcbd c328 3ebe 2443 afbe
00000280: a340 dd3e 1af7 11be 205a 493e ebbb 4a3d
00000290: bb77 bf3e b844 41bd bcf2 01bf 5f93 d13b
000002a0: 6570 bebb de38 533d 30c9 90bc 0acc c2bd
000002b0: 12f3 813e 8708 c43d b287 4ebd d6e8 cdbe
000002c0: cce2 fcbd 0f78 fdbe ddd7 4b3e a9f3 5abe
000002d0: 85d0 ac3d 59a0 103e 579a 9ebe 559c 3abc
000002e0: 0d81 603d 624e 753e 4309 eb3c 889a e4be
000002f0: c7be 3ebe a2a5 3cbe facd c6bd 14ca 3b3e
00000300: d28a 31bd 855f 09be 63dd 893d fc90 973e
00000310: 6440 093f 9b71 92be dd73 753d 3564 2fbd
00000320: 4c69 f73d f197 d63c 8cdf 28be 9484 173e
00000330: da19 afbe a6cb e1bd 03e3 ee3e 25d1 383e
00000340: e53d c9bc bf54 19bf f469 12be 98c2 d13d
00000350: 8375 913d 9ecd 98be a539 863d 4a07 543e
00000360: 8487 8ebd 7aab bf3e 8502 39be ac7e 7b3d
00000370: 76cf 5e3e f2dc 8d3c 959f 793e d3d2 133f
00000380: bbf4 3f3e 6c94 d5bd a02e a43a 02c4 16be
00000390: 9a5c cdbd dd85 9dbe 37f3 bf3e 8185 2bbe
000003a0: 3881 14b9 ff87 afbe db94 f8bd 81d8 a33e
000003b0: 39f4 883e a6a9 c03e b870 30be ce42 853e
000003c0: cb9e a0be 449f 3a3c 1f5f 453d 7e7d d0be
000003d0: c69d 46be c33b afbe 924c 4bbe 172a 1b3e
000003e0: fa3b 443e 8760 bebb 3c59 193e ff1c 973e
000003f0: 4bfa 413e 52ea 533e 19fe c4be e92e 483e

bias f4 [256]
-0.082169436 -0.011212443 -0.02415749 -0.037277807 -0.030082315 0.0025389707 -0.010552824 -0.00060303754
-0.010385991 -0.032836843 0.031124113 0.055481035 -0.0009114971 0.020841084 0.018407108 0.0005189373
-0.04589706 -0.06811819 -0.1442147 0.04660279 -0.035430484 0.031886436 -0.027775519 9.2535854e-05
-0.021214265 0.05099984 0.012952266 0.060350787 -0.040174384 -0.024312623 0.009968288 -0.047232397
-0.009685348 -0.04699834 -0.004175687 0.08490263 0.0127713485 -0.020486796 0.00013094064 -0.029628672
-0.018048229 0.096665725 0.038859297 -0.021485064 -0.021613434 0.012734407 -0.051949337 0.04066929
-0.01962493 0.029216085 -0.012115906 -0.029689098 0.03278005 -0.030934202 -0.022885688 -0.046195146
0.023012348 0.052750558 0.010847024 -0.029031556 0.008391962 -0.040379524 -0.09618416 -0.007030613
-0.013984232 0.0875698 -0.010936426 0.01735719 0.017490812 0.002234778 0.019468928 1.2397611e-05
0.045984834 -0.04060643 -0.0022409894 0.020815263 -0.00013159982 0.04580446 0.0059079523 0.051667526
0.016651072 -1.9599336e-06 -0.017120427 0.010799526 0.014475625 -0.03249011 -0.059348892 -0.05979156
0.00759006 0.034355078 0.008644118 0.08809611 -0.012693349 0.015515587 0.007509208 0.124330096
-0.011724683 -0.092377335 0.04175543 -0.026830992 0.109339364 -0.0032621513 0.074728 0.029888142
-0.03405065 -0.046046503 0.0020836375 -0.037651848 -0.073578924 0.0 -0.047837384 0.008095196
-0.049886312 0.06465576 -0.027643291 0.03407307 0.017981086 0.096438624 0.07064438 0.014459486
0.06277023 0.0032023021 0.015116519 0.038051758 -0.05722538 0.0033245906 0.05184087 -0.0031997995
0.0148047665 0.014831173 0.068124376 -0.01380878 0.03211172 -0.06766768 0.053302504 0.005237156
-0.0006525421 0.12258829 -0.023341112 0.055734582 -0.03875219 -0.0068391925 0.06213198 0.029638972
-0.10145695 0.090010926 0.0050981417 0.06435059 0.009199691 -0.02717318 0.020962814 0.040189166
-0.0066066147 0.059621226 0.012769821 0.08881178 0.04113182 -0.035047814 -0.02910971 0.022221973
-0.017344933 0.027531445 -0.035077047 0.010253681 0.02120967 -0.009988423 -0.033288363 0.057640675
0.04538015 0.031208238 -0.07650378 -0.028660513 0.003553581 0.082290165 0.029454257 -0.06037291
0.087150075 -0.014655992 -0.02550076 0.04247888 0.018041592 -0.044901665 -0.047249246 0.0916651
0.09220855 -0.016357552 0.024409862 0.0024022711 0.0019653542 0.014066239 0.08022018 -0.048219513
-0.017838126 0.05985877 -0.016152553 0.01548362 -0.0034041929 0.017258765 -0.04250452 0.005667181
0.020619698 -0.017131 0.051102683 0.03969883 -0.04312118 -0.037794758 -0.036337953 0.09308336
0.03539223 0.026747657 -0.061053477 0.004998475 0.013808085 0.054571282 -0.021542743 -0.03811943
-0.08545587 -0.00074825314 -0.0040944624 -0.040836323 0.009874123 0.045568746 -0.009984518 0.09418688
-0.003505238 -0.013912663 -0.006821318 0.031290617 -0.02067547 0.058621638 0.009855927 0.067625895
0.0060388735 -0.005745219 0.07575829 -0.023127511 0.004696964 0.040976986 -0.024631644 0.016908566
0.10978947 -0.018584996 -0.051211245 0.013728867 0.032362293 0.042378716 -0.02949489 -0.024411127
-0.04094893 0.0068837716 0.06049435 -0.041495096 0.025772328 -0.053660356 -0.05055307 0.0833254
00000000: 7348 a8bd 65b4 37bc eee5 c5bc 9db0 18bd
00000010: 306f f6bc dc64 263b c0e5 2cbc 2a15 1eba
00000020: 012a 2abc ed7f 06bd fff7 fe3c 1540 633d
00000030: 89f1 6eba ecba aa3c 81ca 963c 4b09 083a
00000040: 8efe 3bbd 8d81 8bbd 05ad 13be 91e2 3e3d
00000050: 8e1f 11bd 5a9b 023d 7c89 e3bc cf0f c238
00000060: 8ac9 adbc 35e5 503d be35 543c 6332 773d
00000070: e58d 24bd 442b c7bc 0852 233c c276 41bd
00000080: 4baf 1ebc 5581 40bd 34d4 88bb 6ee1 ad3d
00000090: eb3e 513c edd3 a7bc 1c4d 0939 d4b7 f2bc
000000a0: e1d9 93bc aef8 c53d ed2a 1f3d 7201 b0bc
000000b0: a80e b1bc f9a3 503c d4c8 54bd d794 263d
000000c0: 76c4 a0bc 9256 ef3c cb81 46bc 8d36 f3bc
000000d0: 6044 063d b969 fdbc c47a bbbc 1f37 3dbd
000000e0: 6484 bc3c f810 583d b7b7 313c 96d3 edbc
000000f0: 717e 093c 0065 25bd 33fc c4bd 0e61 e6bb
00000100: 1f1e 65bc cc57 b33d b22e 33bc aa30 8e3c
00000110: e448 8f3c 5a75 123b 4d7d 9f3c 55ff 4f37
00000120: 985a 3c3d ee52 26bd 90dd 12bb c584 aa3c
00000130: 0ffe 09b9 759d 3b3d 7f97 c13b 54a1 533d
00000140: d467 883c 6787 03b6 2340 8cbc 7ff0 303c
00000150: 2c2b 6d3c 5914 05bd d317 73bd ffe7 74bd
00000160: 0ab6 f83b e9b7 0c3d 0fa0 0d3c bc6b b43d
00000170: c4f7 4fbc 1735 7e3c cd0f f63b c7a0 fe3d
00000180: e318 40bc 5430 bdbd be07 2b3d abcc dbbc
00000190: 51ed df3d d1c9 55bb fe0a 993d fad7 f43c
000001a0: b278 0bbd 429b 3cbd a38d 083b d338 1abd
000001b0: 8cb0 96bd 0000 0000 22f1 43bd b7a1 043c
000001c0: 9755 4cbd 3d6a 843d 2f74 e2bc 3490 0b3d
000001d0: 124d 933c 9d81 c53d 00ae 903d 7be7 6c3c
000001e0: ae8d 803d b7dd 513b 47ab 773c 29dc 1b3d
000001f0: 2965 6abd 60e1 593b 1857 543d bab3 51bb
00000200: b18f 723c 73fe 723c cb84 8b3d 393e 62bc
00000210: 9487 033d 5a95 8abd ba53 5a3d 739c ab3b
00000220: 5c0f 2bba 920f fb3d dc35 bfbc f249 643d
00000230: 9eba 1ebd 4e1b e0bb 1a7e 7e3d 6ecd f23c
00000240: a9c8 cfbd a657 b83d 500e a73b 3eca 833d
00000250: 4dba 163c 4a9a debc 35ba ab3c 659d 243d
00000260: 4d7c d8bb 6335 743d 8338 513c f3e2 b53d
00000270: d779 283d 4c8e 0fbd 7d77 eebc db0a b63c
00000280: f616 8ebc a089 e13c f3ac 0fbd 0eff 273c
00000290: e7bf ad3c 7ca6 23bc 6159 08bd a118 6c3d
000002a0: 89e0 393d 6ba8 ff3c 04ae 9cbd 74c9 eabc
000002b0: 32e3 683b bf87 a83d 0e4a f13c 9649 77bd
000002c0: bd7b b23d b01f 70bc f8e6 d0bc 56fe 2d3d
000002d0: f6cb 933c cfea 37bd 6d88 41bd e9ba bb3d
000002e0: d6d7 bc3d 4600 86bc 31f7 c73c 6c6f 1d3b
000002f0: 2ccd 003b 1576 663c 7a4a a43d d381 45bd
00000300: 4321 92bc 782e 753d 5c52 84bc 02af 7d3c
00000310: e118 5fbb 4162 8d3c 3819 2ebd c3b3 b93b
00000320: a4ea a83c 5056 8cbc 0c51 513d 3e9b 223d
00000330: d69f 30bd adce 1abd 1bd7 14bd 7da2 be3d
00000340: 71f7 103d e71d db3c 3613 7abd 3fca a33b
00000350: 4e3b 623c 2386 5f3d 687a b0bc 1f23 1cbd
00000360: 7d03 afbd 6b26 44ba d72a 86bb fd43 27bd
00000370: 13c7 213c 4ba6 3a3d 1b96 23bc 0de5 c03d
00000380: 23b8 65bb f0f1 63bc 5d85 dfbb 972a 003d
00000390: 9a5f a9bc 3e1d 703d c17a 213c 727f 8a3d
000003a0: bee1 c53b 6442 bcbb 2a27 9b3d e875 bdbc
000003b0: fde8 993b 7cd7 273d 4dc8 c9bc d583 8a3c
000003c0: 4dd9 e03d 903f 98bc e2c2 51bd 0bef 603c
000003d0: 538e 043d 4e95 2d3d 449f f1bc d8f9 c7bc
000003e0: 11ba 27bd 4391 e13b ecc8 773d c3f6 29bd
000003f0: 7d20 d33c f6ca 5bbd bc10 4fbd 82a6 aa3d

weight f4 [256, 256]
0.081340484 -0.03894852 -0.020437172 0.10513016 -0.013198614 0.13425109 0.07107114 0.001953336
0.14630283 -0.06938301 0.09729208 -0.05912907 0.04305874 -0.08495148 0.11884065 0.09321935
-0.019502476 -0.14160922 0.0041495133 0.07211689 0.10705953 0.0069583743 0.08786615 0.008865366
0.089407854 0.058583565 -0.06045221 0.0116660595 0.034470502 0.09362858 0.026973896 0.118225776
-0.09366006 -0.046737794 -0.13387594 0.018700488 -0.026584724 0.05898776 -0.06332077 0.02341699
-0.10812916 0.037900735 0.019967189 -0.019245317 -0.084229074 0.036177184 0.06733987 0.10735341
-0.10293187 0.0058396747 0.12967414 0.06806665 0.020049982 0.13005441 -0.084455535 -0.12645632
0.102581434 -0.02783146 0.026488714 0.06175082 -0.068131074 -0.09330449 0.10219438 -0.19672455
-0.096648596 -0.10782359 -0.06615723 -0.0008944978 0.033396233 -0.15456821 -0.1507834 -0.06795654
-0.084979974 0.0032789505 0.051533207 0.06739519 -0.036570795 0.087391526 -0.18216552 -0.028592704
0.031032475 -0.055701815 0.0058236904 0.09418432 0.018600564 0.0019550717 -0.08762568 0.004524059
-0.0544638 -0.04094063 0.01558863 -0.05257367 -0.04096197 -0.09732792 -0.061081953 -0.066277966
-0.05899801 -0.10609479 -0.054685455 -0.036491826 -0.0153944455 0.02556349 -0.119984485 -0.0062968736
-0.050008714 -0.041637782 0.16479462 -0.0160443 0.067491435 -0.033268128 -0.093477204 0.062078666
-0.05743405 -0.059292786 0.1097841 -0.045057677 -0.05330691 0.0041675717 -0.06657323 0.046441805
-0.045874767 -0.0035449783 0.0127207795 -0.0020917521 -0.069510974 -0.029000552 -0.10139183 0.065674976
-0.09816629 0.01625805 -0.016605547 0.064281456 -0.06853699 -0.036878433 -0.005890164 -0.0934925
-0.10235309 0.054439545 -0.018935088 0.12620623 0.19011894 -0.049313247 0.011339456 -0.16109411
-0.12549615 -0.08816 0.07458633 -0.060524568 -0.11352583 -0.0262139 -0.07456669 -0.012784832
-0.008059746 -0.020825084 0.042510428 0.03501482 -0.035920385 0.033339933 0.099099696 0.09930746
0.001006771 -0.02003253 -0.0016002973 0.043323822 0.024993839 0.0078820195 0.05008174 -0.099525094
0.0062330854 0.093990006 -0.022557862 -0.09014408 -0.008786866 0.03148533 -0.038412325 -0.07907343
-0.030546635 0.025567554 -0.13076036 -0.011532248 0.03224168 -0.06443763 -0.04421105 0.04829397
-0.09644642 0.018608846 0.07169862 -0.019339027 0.12526281 -0.040512223 -0.026768606 -0.031058513
0.053236417 0.028797729 -0.04205599 0.02977282 0.033152748 -0.078049205 0.000672409 -0.13661192
-0.040580094 0.17676614 0.021839237 -0.034798376 0.0010463321 -0.010955974 -0.080824815 -0.027221186
-0.025372932 -0.08443667 -0.019511549 -0.014401988 -0.0537642 -0.051945288 -0.0272914 -0.045475427
-0.030954728 0.13466902 -0.13646227 0.03279051 -0.045563173 0.08978525 -0.12563774 -0.15652515
0.07819652 -0.020933326 0.04194188 -0.081969745 0.055100773 -0.09262865 0.0045730746 0.0011021192
0.019912235 -0.12687157 0.08668262 -0.009788256 0.10975771 -0.073570505 0.05723541 -0.08741341
0.04172786 -0.033218134 0.06365977 0.12571914 -0.0005514197 0.02471037 0.007215145 0.01690643
-0.0058506895 0.02004136 -0.16729094 -0.12868458 -0.03396478 0.0524544 0.0616203 0.003534665
00000000: d795 a63d 7c88 1fbd db6b a7bc 7b4e d73d
00000010: 003f 58bc 1e79 093e bf8d 913d 8a03 003b
00000020: 69d0 153e ae18 8ebd 1241 c73d 5331 72bd
00000030: 5d5e 303d 0bfb adbd ba62 f33d c9e9 be3d
00000040: a8c3 9fbc 0202 11be a4f8 873b 05b2 933d
00000050: 0742 db3d 1303 e43b 2bf3 b33d 0a40 113c
00000060: 771b b73d 52f5 6f3d bd9c 77bd 0023 3f3c
00000070: f130 0d3d 57c0 bf3d 5cf8 dc3c 5b20 f23d
00000080: d8d0 bfbd 2170 3fbd c616 09be c431 993c
00000090: 35c8 d9bc 269d 713d 52ae 81bd fdd4 bf3c
000000a0: d272 ddbd cd3d 1b3d 3b92 a33c 5ba8 9dbc
000000b0: 4b80 acbd 872e 143d 7ce9 893d 1bdc db3d
000000c0: f2cd d2bd be5a bf3b 4cc9 043e 8766 8b3d
000000d0: dc3f a43c fc2c 053e 06f7 acbd c47d 01be
000000e0: 3716 d23d cdfe e3bc dcfe d83c 6eee 7c3d
000000f0: 4e88 8bbd 6d16 bfbd 494b d13d 2972 49be
00000100: b3ef c5bd 9dd2 dcbd 717d 87bd bb7c 6aba
00000110: 7dca 083d 2147 1ebe f766 1abe cc2c 8bbd
00000120: fb09 aebd a9e3 563b 7c14 533d 7d06 8a3d
00000130: 42cb 15bd 54fa b23d 9989 3abe 3f3b eabc
00000140: d137 fe3c 9627 64bd a8d4 be3b b5e3 c03d
00000150: 3660 983c a920 003b 1875 b3bd 8f3e 943b
00000160: 6f15 5fbd 5db1 27bd 7467 7f3c 7d57 57bd
00000170: bdc7 27bd dc53 c7bd 1231 7abd bebc 87bd
00000180: e6a7 71bd 3a48 d9bd dbfd 5fbd 7478 15bd
00000190: fc38 7cbc 866a d13c 6dba f5bd 0156 cebb
000001a0: f0d5 4cbd 618c 2abd ecbf 283e 566f 83bc
000001b0: f338 8a3d 2944 08bd fa70 bfbd 3346 7e3d
000001c0: f73f 6bbd fedc 72bd 7cd6 e03d 668e 38bd
000001d0: 5958 5abd 2090 883b 8c57 88bd c339 3e3d
000001e0: 2ee7 3bbd de52 68bb d16a 503c c715 09bb
000001f0: c55b 8ebd 9192 edbc 85a6 cfbd 9a80 863d
00000200: 680b c9bd 9a2f 853c 5b08 88bc ffa5 833d
00000210: 1f5d 8cbd d70d 17bd 4702 c1bb ff78 bfbd
00000220: 7f9e d1bd 00fc 5e3d c21d 9bbc 353c 013e
00000230: 8aae 423e b0fc 49bd 20c9 393c dbf5 24be
00000240: 1082 00be 3b8d b4bd b8c0 983d 9ce8 77bd
00000250: 3b80 e8bd 88be d6bc 6cb6 98bd 7977 51bc
00000260: 060d 04bc 5e99 aabc 6a1f 2e3d b36b 0f3d
00000270: 4121 13bd 748f 083d c8f4 ca3d b661 cb3d
00000280: a1f5 833a 431b a4bc 11c1 d1ba 5274 313d
00000290: e1bf cc3c 9623 013c 8322 4d3d d0d3 cbbd
000002a0: e93e cc3b d57d c03d 44cb b8bc 769d b8bd
000002b0: caf6 0fbc c3f6 003d 3e56 1dbd 40f1 a1bd
000002c0: f03c fabc 0c73 d13c 0be6 05be c1f1 3cbc
000002d0: da0f 043d e0f7 83bd a516 35bd e6cf 453d
000002e0: b385 c5bd 9471 983c bad6 923d e16c 9ebc
000002f0: e544 003e 25f0 25bd d649 dbbc 6c6e febc
00000300: 6e0e 5a3d 37e9 eb3c e742 2cbd 21e6 f33c
00000310: 2dcb 073d 43d8 9fbd 9b44 303a ffe3 0bbe
00000320: 5037 26bd 2f02 353e 33e8 b23c be88 0ebd
00000330: 1425 893a b080 33bc 7b87 a5bd f7fe debc
00000340: e5da cfbc 22ed acbd afd6 9fbc 51f6 6bbc
00000350: da37 5cbd 95c4 54bd 3792 dfbc 7144 3abd
00000360: c594 fdbc ade6 093e c4bc 0bbe 584f 063d
00000370: 73a0 3abd 54e1 b73d 2ea7 00be 2148 20be
00000380: 7f25 a03d 5e7c abbc 40cb 2b3d c1df a7bd
00000390: 59b1 613d 17b4 bdbd bbd9 953b fc74 903a
000003a0: fc1e a33c 9fea 01be a886 b13d ec5e 20bc
000003b0: a6c8 e03d 22ac 96bd ad6f 6a3d cd05 b3bd
000003c0: d5ea 2a3d bd0f 08bd 0e60 823d 85bc 003e
000003d0: 268d 10ba 676d ca3c 066d ec3b 5a7f 8a3c
000003e0: 24b7 bfbb c72d a43c 514e 2bbe e4c5 03be
000003f0: a71e 0bbd 6dda 563d 9165 7c3d d7a5 673b

bias f4 [256]
0.016206695 0.0033920272 -0.0012582743 0.007608455 0.004935047 0.0046791746 0.012050393 -0.002311662
0.0075110393 -0.009464418 0.022697983 0.003396635 -0.021813449 0.004124901 0.020503735 -0.0003497985
-0.0030881155 0.015771912 0.0032596774 -0.03445391 0.016438002 0.008582856 -0.01756583 -0.008667444
0.010695926 -5.574811e-05 0.006025585 -0.0030871492 -0.007232214 -0.00028816258 0.015970666 0.005922107
0.00084138726 -0.023174092 -0.0034457787 0.023088701 0.0039025012 -0.005529175 0.0026490977 -0.011437244
-0.0060993647 0.008632867 0.011717911 0.0035271533 -0.023813304 -0.006755934 0.005172736 0.016916571
-5.2631392e-05 -0.0015214598 0.0016955202 0.004863743 -0.00806708 0.016778344 -0.013001401 0.0062003713
0.012351861 -0.0044009457 0.023690937 0.004039885 0.0027298832 0.00784966 0.014324505 0.012459897
-0.0047060675 0.0097859055 -0.0024715213 -0.0010129613 0.004269734 -0.023568673 0.003529356 0.014126254
0.011500439 0.007221945 0.0076711443 0.011176645 -0.005911179 -0.0019437243 0.00623588 -0.0039542574
0.021454832 -0.013979471 -0.01952014 0.0023982867 0.0056978697 -0.013732553 0.0070714685 0.019696765
-0.0030740625 -0.0019316548 -0.011920023 0.00053157884 0.016837161 -0.01275297 -0.0030896373 0.0019987673
0.0026933248 -0.02215509 -0.0023065184 0.0039800936 -0.0007868232 0.0023707817 0.0035872564 -0.0021892942
0.0006227619 0.010843366 -0.012463865 0.0234456 0.0038901982 0.0010103409 -0.013010698 -0.012288039
0.008024153 -0.006354669 -0.005518994 -0.0113646705 0.0043515554 -0.00847401 -0.0013166202 -0.0013992409
-0.005668052 -0.0016188476 0.0044745295 -0.012697245 -0.0075441008 0.010958598 0.012419158 0.012732911
-0.02473781 -0.008557747 0.014168101 -0.0066650063 0.02177287 0.016998386 -0.0019506342 -0.011972871
-0.0058539314 -0.011125995 0.008162074 0.00030083177 0.0020743252 -0.0036586388 -0.0074298377 0.021351043
-0.01881559 0.005411378 0.0040873764 0.005582266 0.007751436 -0.0002340766 -0.008356417 0.002120666
0.0126344375 0.030491462 0.001809535 -0.00091555767 0.02287172 -0.012568277 -0.0032401804 -0.014475053
0.011215458 0.00018309485 -0.015109964 -0.0038463315 0.008688747 0.0075287246 -0.0074790344 -0.007350099
-0.024512222 0.011424942 -0.017063133 -0.03612554 0.010856994 0.03030857 -0.0028049094 0.015153202
-0.008643141 -0.006801229 -0.010738255 0.02631817 0.004782647 0.008523821 -0.00030934892 -0.00056558126
-0.012477691 -0.018042145 0.013933197 -0.0021958605 0.006418502 0.0024631566 0.014948667 0.016387055
-0.0048994385 -0.0015777214 0.008551304 0.010060624 0.011713129 -0.019795997 0.009575859 -0.014404148
-0.010872278 0.008720793 0.0018583302 -0.0009925159 0.015476837 0.0068486244 -0.007483354 -0.0073557105
-0.0033968554 -0.003966508 0.004935398 0.005642219 -0.0071344576 -0.0013275163 0.0055851093 0.03161865
0.0035320723 -0.0062846565 -0.019341445 0.011532592 0.0056776498 0.0031565945 0.0061070696 -0.013396191
0.0005172831 -0.014256687 0.002011672 0.00996417 0.004419371 0.011689651 -0.012384785 0.0007086111
0.008966011 0.008529646 0.009956169 -0.006235335 0.011243666 -0.0011232916 -0.0042606355 -0.008577668
-0.01882211 -0.027046802 -0.015323354 -0.0020303747 -0.005217885 -0.0038344872 0.01712905 0.004960911
0.022342073 0.023539564 0.011730041 -0.004561505 -0.0012738961 0.016813375 -0.006132395 0.008654782
00000000: e7c3 843c c64c 5e3b aeec a4ba 5950 f93b
00000010: 2db6 a13b c353 993b 036f 453c 417f 17bb
00000020: 2a1f f63b a510 1bbc 1ff1 b93c 149a 5e3b
00000030: 1eb2 b2bc 2d2a 873b 73f7 a73c 2965 b7b9
00000040: fb61 4abb 1934 813c 50a0 553b 8b1f 0dbd
00000050: fda8 863c 1b9f 0c3c 37e6 8fbc e501 0ebc
00000060: f73d 2f3c 14d3 69b8 4572 c53b c551 4abb
00000070: 35fc ecbb 8714 97b9 ead4 823c 3c0e c23b
00000080: 8b90 5c3a 98d7 bdbc 93d2 61bb 8424 bd3c
00000090: 1bc1 7f3b 152e b5bb 7c9c 2d3b 4763 3bbc
000000a0: 2edd c7bb de70 0d3c 7bfc 3f3c d027 673b
000000b0: 1e14 c3bc e260 ddbb 0e80 a93b 9f94 8a3c
000000c0: 87c0 5cb8 b86b c7ba 383c de3a 0960 9f3b
000000d0: c92b 04bc bd72 893c d403 55bc 7c2c cb3b
000000e0: 765f 4a3c cf35 90bb 7f13 c23c 0361 843b
000000f0: d7e7 323b dc9b 003c 54b1 6a3c 9924 4c3c
00000100: 5b35 9abb 1055 203c 3ff9 21bb 57c5 84ba
00000110: 20e9 8b3b 1713 c1bc c54c 673b ce71 673c
00000120: 566c 3c3c 11a6 ec3b 395e fb3b 3f1e 373c
00000130: 90b2 c1bb 91c4 feba 5a56 cc3b b792 81bb
00000140: 0bc2 af3c 270a 65bc b3e8 9fbc 932c 1d3b
00000150: 32b5 ba3b 81fe 60bc c7b7 e73b 1c5b a13c
00000160: 3676 49bb 942f fdba 334c 43bc a759 0b3a
00000170: 16ee 893c d5f1 50bc 837b 4abb c0fd 023b
00000180: 7e82 303b 977e b5bc f528 17bb 726b 823b
00000190: d042 4eba 1e5f 1b3b 2d18 6b3b 437a 0fbb
000001a0: d840 233a 60a8 313c 3d35 4cbc fd10 c03c
000001b0: b2f2 7e3b 6a6d 843a d32a 55bc c553 49bc
000001c0: bd77 033c d43a d0bb add8 b4bb e232 3abc
000001d0: 7e97 8e3b 93d6 0abc 7192 acba bc66 b7ba
000001e0: 11bb b9bb 832f d4ba 139f 923b 1b08 50bc
000001f0: 8134 f7bb b18b 333c b979 4b3c b39d 503c
00000200: f3a6 cabc cb35 0cbc 5321 683c 2066 dabb
00000210: 055d b23c 3340 8b3c 6cac ffba dc29 44bc
00000220: 56d2 bfbb ce49 36bc 38ba 053c f5b8 9d39
00000230: 67f1 073b c6c5 6fbb ff75 f3bb 62e8 ae3c
00000240: 2723 9abc ee51 b13b 66ef 853b 71eb b63b
00000250: c2ff fd3b 7572 75b9 5ae9 08bc dffa 0a3b
00000260: ac00 4f3c 3bc9 f93c eb2d ed3a 0902 70ba
00000270: 795d bb3c 2deb 4dbc 3559 54bb c628 6dbc
00000280: 0ac1 373c 26fd 3f39 c88f 77bc bc12 7cbb
00000290: 3f5b 0e3c 85b3 f63b b012 f5bb 19d9 f0bb
000002a0: dbcd c8bc ae2f 3b3c fcc7 8bbc 60f8 13bd
000002b0: 89e1 313c ae49 f83c 92d2 37bb 2345 783c
000002c0: f69b 0dbc d8dc debb 82ef 2fbc 3499 d73c
000002d0: c0b7 9c3b 7fa7 0b3c 1c30 a2b9 8443 14ba
000002e0: 3b6f 4cbc 1fcd 93bc 1048 643c 6de8 0fbb
000002f0: 4c52 d23b e96c 213b 41eb 743c 253e 863c
00000300: 788b a0bb 8ccb ceba c51a 0c3c 51d5 243c
00000310: 6ce8 3f3c 372b a2bc 10e4 1c3c 60ff 6bbc
00000320: a421 32bc a8e1 0e3c 3793 f33a 4f17 82ba
00000330: 8f92 7d3c 6d6a e03b ec36 f5bb 2c08 f1bb
00000340: c79d 5ebb 7bf9 81bb 1fb9 a13b 5de2 b83b
00000350: 2bc8 e9bb 0e00 aeba 4b03 b73b 8f82 013d
00000360: 577a 673b 85ef cdbb f371 9ebc 32f3 3c3c
00000370: 940b ba3b dede 4e3b d01d c83b b37b 5bbc
00000380: 489a 073a e194 69bc 41d6 033b c240 233c
00000390: 5fd0 903b f385 3f3c 8ee9 4abc 16c2 393a
000003a0: 2de6 123c eebf 0b3c 331f 233c c851 ccbb
000003b0: 5a37 383c 693b 93ba cd9c 8bbb 5989 0cbc
000003c0: d330 9abc 4191 ddbc ce0e 7bbc 0910 05bb
000003d0: cbfa aabb 054c 7bbb 3952 8c3c 238f a23b
000003e0: b906 b73c 0bd6 c03c 5c2f 403c ad78 95bb
000003f0: dcf8 a6ba 34bc 893c 42f2 c8bb c9cc 0d3c

weight f4 [256, 18]
-0.16746064 -0.47628143 -0.49644253 -0.080366276 0.06357859 0.21705645 0.077715516 0.0060262447
-0.085940056 -0.18489052 -0.2573164 -0.30510443 0.13470873 0.22864583 -0.031057902 0.24018916
0.10947449 -0.32436535 -0.1453856 0.2670306 0.13990912 -0.6198132 0.54311866 0.076596305
0.12701085 -0.12340811 -0.22274783 -0.011659608 -0.07987935 -0.2081787 -0.014734212 -0.46251556
-0.018589733 0.024391344 -0.15730157 -0.06741952 0.27927777 -0.002906132 -0.012096665 -0.13534547
-0.04089086 -0.38826594 0.06934292 -0.10324816 -0.3969725 -0.2682306 -0.15109985 0.3044121
-0.028592294 -0.49592492 -0.2266422 -0.28552982 0.29891303 0.09608379 0.3787249 -0.022887861
0.1766203 -0.19047055 0.03870963 0.3117528 0.17922512 -0.01419332 0.26155952 -0.26179004
0.17127322 -0.3455551 0.20861852 0.12081242 0.20281029 0.10871452 0.27320775 -0.4360267
-0.34475824 0.06239714 0.10342319 -0.24630746 -0.12466206 -0.19538175 -0.3494343 0.030893667
0.4707163 0.26545253 0.044675056 -0.14457862 -0.06686076 0.18525982 0.067427404 0.2721676
0.19146276 0.13045648 0.27462417 0.08515111 0.41199106 0.027987398 0.09510707 0.22454602
0.45263854 -0.23949541 0.049646482 -0.06634157 -0.12952174 0.43352857 0.2546979 0.16345471
-0.11574419 -0.38337108 -0.08325222 -0.06923383 -0.14542231 0.33765665 0.26104355 0.31902233
0.3316098 0.29449978 -0.029081866 0.13382694 0.11243538 -0.22683398 0.26857984 0.19873703
-0.33853775 -0.14990193 -0.07193584 0.3288275 -0.23583226 0.2109269 -0.06689236 0.12041162
-0.48519823 -0.23817663 0.087397195 -0.24826272 0.091231875 0.018221907 0.5049333 -0.23538688
0.07950221 0.2600683 -0.3383053 0.22220883 -0.0212559 0.15320033 0.088061444 0.0886322
-0.28035077 0.1951993 -0.10358544 0.017515302 0.01230534 0.105276056 0.063612446 0.5137039
-0.23210056 -0.15590043 -0.29871786 0.15327665 -0.103174746 -0.46525416 -0.41746485 0.072079726
0.09886541 0.02415007 -0.27954635 0.07679053 0.14803687 0.014344471 0.38968647 -0.2481539
0.12601438 -0.3716946 -0.055747237 -0.23498115 -0.28767574 0.43429166 -0.21647789 -0.20955443
0.2009633 0.13740686 0.11005115 0.11973327 -0.021260677 -0.23203544 -0.14160009 0.13326316
-0.29039174 0.06238166 -0.49027225 -0.12557581 0.1242209 -0.04851838 0.33064684 0.27155238
0.29970738 0.35650572 -0.23277014 0.19824892 0.09298713 -0.20165823 0.5432452 0.124506734
-0.1948757 0.16516943 -0.40934983 -0.00012205506 -0.032550137 -0.018760568 -0.018897511 -0.07115166
0.08054597 -0.10408961 -0.036448635 0.4714163 0.17319283 -0.30861345 -0.10516837 0.2520519
-0.37403426 -0.42662323 -0.11658307 -0.08330206 0.24292992 -0.1355894 -0.0353159 0.2650524
-0.2963903 -0.11866399 0.09501014 0.05534242 0.10279246 -0.43092677 0.116145685 -0.3846502
-0.22148584 0.03365274 0.037034206 -0.012687051 -0.547027 -0.1981624 0.12556623 0.077219754
-0.2518722 -0.010738265 -0.17161177 -0.16209258 -0.5238945 0.18051395 0.34172332 0.054194413
-0.093590565 0.19080438 0.099041134 0.26643264 -0.271551 0.30925417 -0.014870457 0.017810082
00000000: cd7a 2bbe 29db f3be b72d febe 1397 a4bd
00000010: 7e35 823d 0c44 5e3e 5029 9f3d ce77 c53b
00000020: 5701 b0bd f153 3dbe fabe 83be a636 9cbe
00000030: 16f1 093e 2222 6a3e 246d febc 26f4 753e
00000040: 2934 e03d 3713 a6be f6df 14be 3cb8 883e
00000050: 5644 0f3e 14ac 1ebf d309 0b3f 86de 9c3d
00000060: 220f 023e 64bd fcbd 0218 64be f107 3fbc
00000070: c997 a3bd cc2c 55be c467 71bc d7ce ecbe
00000080: 7f49 98bc 5bd0 c73c aa13 21be 3f13 8abd
00000090: 7ffd 8e3e ce74 3ebb 1731 46bc 0198 0abe
000000a0: 2d7d 27bd cbca c6be a903 8e3d c573 d3bd
000000b0: fb3f cbbe 8555 89be ebb9 1abe e7db 9b3e
000000c0: 633a eabc dfe9 fdbe e514 68be f730 92be
000000d0: 210b 993e 94c7 c43d 3be8 c13e 537f bbbc
000000e0: f4db 343e b60a 43be fd8d 1e3d 109e 9f3e
000000f0: ca86 373e 198b 68bc 21eb 853e 5809 86be
00000100: 3f62 2f3e 99ec b0be 18a0 553e 816c f73d
00000110: 80ad 4f3e b8a5 de3d e3e1 8b3e e43e dfbe
00000120: 2784 b0be 2594 7f3d 8acf d33d 0638 7cbe
00000130: d24e ffbd 2712 48be 0de9 b2be b714 fd3c
00000140: ba01 f13e 65e9 873e 31fd 363d 6b0c 14be
00000150: 4bee 88bd c0b4 3d3e 6117 8a3d 8d59 8b3e
00000160: d00e 443e 6296 053e 8a9b 8c3e b563 ae3d
00000170: 7ef0 d23e d445 e53c 7fc7 c23d 64ef 653e
00000180: 3dc0 e73e 493e 75be 1c5a 4b3d 17de 87bd
00000190: 59a1 04be 75f7 dd3e c367 823e ac60 273e
000001a0: 4a0b edbd 3749 c4be 2480 aabd 77ca 8dbd
000001b0: 96e9 14be 55e1 ac3e 80a7 853e e556 a33e
000001c0: c2c8 a93e adc8 963e 183d eebc ee09 093e
000001d0: 8544 e63d 2b47 68be 4c83 893e b881 4b3e
000001e0: d254 adbe e47f 19be 1953 93bd 145c a83e
000001f0: 037e 71be 39fd 573e ddfe 88bd 5e9a f63d
00000200: e76b f8be 93e4 73be 4dfd b23d 9538 7ebe
00000210: c7d7 ba3d 1c46 953c 4f43 013f 4209 71be
00000220: 0ed2 a23d ac27 853e 5a36 adbe b68a 633e
00000230: da20 aebc 8ce0 1c3e 8f59 b43d cd84 b53d
00000240: 238a 8fbe 53e2 473e 9a24 d4bd 407c 8f3c
00000250: 569c 493c f99a d73d 3e47 823d 1982 033f
00000260: c5ab 6dbe 5da4 1fbe 8cf1 98be 8ef4 1c3e
00000270: 484d d3bd cb35 eebe f4bd d5be 899e 933d
00000280: f379 ca3d 5ed6 c53c b320 8fbe 5a44 9d3d
00000290: fa96 173e 1205 6b3c fc84 c73e 0e1c 7ebe
000002a0: ea09 013e c14e bebe 3757 64bd e69e 70be
000002b0: 3c4a 93be 7a5b de3e 61ac 5dbe 7095 56be
000002c0: 53c9 4d3e 62b4 0c3e 7f62 e13d b736 f53d
000002d0: df2a aebc b39a 6dbe 9dff 10be 2376 083e
000002e0: 3aae 94be e983 7f3d f704 fbbe f296 00be
000002f0: 8767 fe3d 35bb 46bd 8b4a a93e ea08 8b3e
00000300: 3f73 993e eb87 b63e 4c5b 6ebe c401 4b3e
00000310: 0970 be3d 7f7f 4ebe 1e12 0b3f 63fd fe3d
00000320: 7f8d 47be 2d22 293e 4d96 d1be d0f7 ffb8
00000330: 4b53 05bd c3af 99bc f4ce 9abc f6b7 91bd
00000340: 49f5 a43d ef2c d5bd 2a4b 15bd 7a5d f13e
00000350: 7659 313e 9502 9ebe 8462 d7bd f20c 813e
00000360: 6b81 bfbe 5c6e dabe 1bc3 eebd 459a aabd
00000370: 9fc2 783e f3d7 0abe 68a7 10bd f3b4 873e
00000380: 78c0 97be 1b06 f3bd ad94 c23d bcae 623d
00000390: da84 d23d 6fa2 dcbe cadd ed3d dff0 c4be
000003a0: 2fcd 62be 75d7 093d 2eb1 173d 59dd 4fbc
000003b0: f609 0cbf 16eb 4abe 6f94 003e 6425 9e3d
000003c0: 65f5 80be 8cef 2fbc ffba 2fbe 99fb 25be
000003d0: f31d 06bf a6d8 383e 5cf6 ae3e f6fa 5d3d
000003e0: 69ac bfbd 3962 433e 14d6 ca3d dc69 883e
000003f0: bc08 8bbe 9056 9e3e 38a3 73bc 73e6 913c

bias f4 [256]
-0.0034223506 -0.09736602 -0.052428864 -0.005091969 -0.0975798 0.03183335 0.034582593 0.033210896
-0.030271752 -0.05091755 0.015237912 0.04114841 -0.004434451 -0.030035986 -0.028688097 0.03932055
0.038635414 -0.013589502 0.054596096 -0.055072036 0.055584546 -0.014320256 -0.0911615 0.018677901
0.0010952192 0.104335055 -0.0067490702 -0.009318856 -0.0009839793 0.010707608 -0.04164585 -0.008925553
0.00083757757 -0.06507145 -0.030442137 -0.03469061 -0.06999663 -0.03821471 -0.044459775 0.101155646
-0.018430065 0.026228849 -0.002076231 -0.055417344 -0.057609577 -0.057949953 -0.039903183 -0.03525982
0.08110589 0.017676475 0.031050961 0.042059526 -0.008538768 0.034495547 0.099760875 -0.055419657
0.03945625 0.0036920023 -0.017425578 -0.042232748 0.09138382 0.006358494 0.025223242 0.053001277
0.004990028 -0.026810978 -0.043561447 -0.051777985 -0.04482749 0.070626006 -0.08199315 -0.06892795
0.026505327 0.084694505 0.016226644 -0.006761803 0.008906448 -0.07162476 -0.028062573 0.054537013
0.08617171 -0.066906735 0.023135498 -0.0503804 -0.013502344 -0.00085938635 -0.02467904 0.015919166
0.08624098 0.13419646 0.028894361 0.024902772 0.08001756 0.12057076 -0.0056955707 0.00054735126
-0.027986482 0.0580004 0.0049489746 0.03716789 -0.10704443 -0.008850161 -0.020016443 -0.110884465
-0.022104701 -0.020304428 0.028838655 -0.047737997 -0.087689176 -0.084609866 -0.071169265 -0.028966805
-0.0068262443 0.062297005 0.067371294 0.028416133 -0.035675086 -0.010960695 -0.0132785365 -0.026582392
0.06275698 0.06583727 -0.074393764 -0.002179839 -0.09419866 0.0053328434 -0.040914457 0.07026952
-0.0904266 -0.055176847 0.00513499 0.073496535 -0.0797212 0.12115934 2.7919132e-05 -0.015723487
-0.07809376 0.04625579 -0.16659708 -0.027745219 0.04692666 0.053730052 0.01867786 0.10234885
-0.027981555 0.055004515 -0.017468952 0.047716834 0.0124749625 0.036957674 0.014228059 0.020547966
0.018854152 -0.082706064 -0.0020196084 -0.008114285 -0.038982857 -0.016369479 0.009157233 -0.010501395
0.03376607 -0.058932453 -0.06953864 0.018706227 0.0073993495 -0.10216269 0.08922438 0.078570135
-0.055045757 -0.060098 -0.007284754 0.062366564 -0.013416728 -0.046012096 -0.03210086 -0.03580868
-0.019854618 -0.0005723063 0.062682204 -0.031143615 -0.16379467 2.5328693e-05 0.027025966 -0.073778935
0.021658337 0.06362841 0.0646575 -0.04133435 0.025233937 -0.042670384 0.0543155 0.06500598
0.018307498 0.03367675 0.043973576 0.08694384 0.026604343 -0.038898744 0.016492026 -0.029263534
0.015291727 -0.051044002 -0.0071276147 0.06596704 -0.033340387 -0.11365775 0.047781732 -0.02549606
0.07134813 -0.016050788 -0.05145933 -0.007470647 0.050749596 -0.032249168 0.0883419 -0.01733145
-0.009786662 0.04576922 -0.0045199925 0.019731821 -0.028510936 0.010904505 0.020142281 0.0857218
-0.053167604 0.018712232 -0.0022611236 0.022421269 0.081298076 -0.069579445 -0.07853006 -0.01784971
0.060376775 0.0034931873 -0.03080839 -0.007630132 0.010402464 0.033890814 -0.07002433 4.4067416e-05
-0.10552523 0.0822298 0.000202786 -0.03214361 -0.00030049708 -0.026259571 0.0026803361 -0.013463879
-0.01733111 -0.08955918 0.089307025 -0.0006955365 -0.02964744 -0.023630297 -0.030313319 0.077188075
00000000: 8449 60bb d667 c7bd a6bf 56bd 88da a6bb
00000010: ebd7 c7bd b063 023d 7aa6 0d3d 2608 083d
00000020: 77fc f7bc ec8e 50bd 6fa8 793c 3c8b 283d
00000030: df4e 91bb 070e f6bc 4d03 ebbc 960e 213d
00000040: 2b40 1e3d 81a6 5ebc 28a0 5f3d 3793 61bd
00000050: 9fac 633d 829f 6abc e1b2 babd 6602 993c
00000060: 758d 8f3a 9ead d53d 4e27 ddbb 1dae 18bc
00000070: def8 80ba f76e 2f3c d794 2abd 7c3c 12bc
00000080: e190 5b3a 2e44 85bd ca61 f9bc be17 0ebd
00000090: 655a 8fbd 0787 1cbd 741b 36bd b12a cf3d
000000a0: a6fa 96bc e2dd d63c 6011 08bb 4cfd 62bd
000000b0: 05f8 6bbd ee5c 6dbd 8571 23bd 9a6c 10bd
000000c0: d81a a63d 41ce 903c 965e fe3c 9c46 2c3d
000000d0: 30e6 0bbc 344b 0d3d 6e4f cc3d b9ff 62bd
000000e0: e09c 213d 85f5 713b 16c0 8ebc 3ffc 2cbd
000000f0: 7127 bb3d ea5a d03b f9a0 ce3c de17 593d
00000100: 6483 a33b b2a2 dbbc 7d6d 32bd 2715 54bd
00000110: 089d 37bd 5ea4 903d 06ec a7bd 192a 8dbd
00000120: b321 d93c 5074 ad3d bded 843c 1d92 ddbb
00000130: 5aec 113c 01b0 92bd 7be3 e5bc 3462 5f3d
00000140: cb7a b03d 6606 89bd a886 bd3c ae5b 4ebd
00000150: ef38 5dbc 7148 61ba b32b cabc e968 823c
00000160: 1c9f b03d cc6a 093e deb3 ec3c e600 cc3c
00000170: 3fe0 a33d cded f63d e9a1 babb 1f7c 0f3a
00000180: e843 e5bc d491 6d3d 022b a23b 5c3d 183d
00000190: 1c3a dbbd 4400 11bc 86f9 a3bc 6517 e3bd
000001a0: eb14 b5bc 7955 a6bc 0b3f ec3c eb88 43bd
000001b0: 6296 b3bd f047 adbd 31c1 91bd cb4b edbc
000001c0: b0ae dfbb 252b 7f3d f6f9 893d f3c8 e83c
000001d0: 0a20 12bd 7d94 33bc 388e 59bc 51c3 d9bc
000001e0: bb86 803d b1d5 863d c25b 98bd a1db 0ebb
000001f0: 3aeb c0bd 22bf ae3b eb95 27bd 77e9 8f3d
00000200: 9531 b9bd 1e01 62bd 6b43 a83b 5a85 963d
00000210: de44 a3bd 6322 f83d e133 ea37 8bce 80bc
00000220: 9fef 9fbd b676 3d3d 6d98 2abe f149 e3bc
00000230: 2b36 403d 0b14 5c3d 5002 993c 469c d13d
00000240: 9339 e5bc 6a4c 613d 0c1b 8fbc ba72 433d
00000250: c963 4c3c ee60 173d ce1c 693c 3554 a83c
00000260: 0674 9a3c cc61 a9bd 685b 04bb c7f1 04bc
00000270: 7dac 1fbd 4919 86bc 3808 163c 0b0e 2cbc
00000280: 4a4e 0a3d 2863 71bd 466a 8ebd cd3d 993c
00000290: 3e76 f23b ac3a d1bd 46bb b63d 61e9 a03d
000002a0: a977 61bd 5229 76bd f2b4 eebb 1574 7f3d
000002b0: d6d1 5bbc 2e77 3cbd 317c 03bd 1fac 12bd
000002c0: 27a6 a2bc d306 16ba 875f 803d e520 ffbc
000002d0: cab9 27be f478 d437 8f65 dd3c 6919 97bd
000002e0: d36c b13c 9d4f 823d 276b 843d 354e 29bd
000002f0: 67b7 ce3c 24c7 2ebd ee79 5e3d db21 853d
00000300: 9bf9 953c a2f0 093d a31d 343d 9d0f b23d
00000310: 5af1 d93c 4a54 1fbd 491a 873c 14ba efbc
00000320: 278a 7a3c 8413 51bd c48e e9bb ba19 873d
00000330: ee8f 08bd 65c5 e8bd c7b6 433d 1ddd d0bc
00000340: f81e 923d f17c 83bc 05c7 52bd 54cc f4bb
00000350: cfde 4f3d b417 04bd 99ec b43d affa 8dbc
00000360: 3c58 20bc 8178 3b3d 721c 94bb a1a4 a13c
00000370: c48f e9bc cfa8 323c 6d01 a53c e98e af3d
00000380: 46c6 59bd 654a 993c 5c2f 14bb cfac b73c
00000390: 9b7f a63d ab7f 8ebd 5ed4 a0bd 8e39 92bc
000003a0: a34d 773d f5ed 643b e061 fcbc 3006 fabb
000003b0: 196f 2a3c 18d1 0a3d ea68 8fbd 07d5 3838
000003c0: 9d1d d8bd 1968 a83d f4a2 5439 05a9 03bd
000003d0: 098c 9db9 501e d7bc 94a8 2f3b 9a97 5cbc
000003e0: f9f9 8dbc ce6a b7bd 9ae6 b63d aa54 36ba
000003f0: 30df f2bc 5394 c1bc a353 f8bc c814 9e3d
