trained_policies_ppo/trained_models/policy_model_mrx_ppo/model.pt (torch, 736549 bytes, 14 tensors)

_last_output f4 [128, 9]
0	0xbe64a339	-0.2232789
1	0x3eaaa0d8	0.3332584
2	0xbe5dc596	-0.21657404
3	0x3e8b6346	0.27224177
4	0x3b5cb136	0.0033674962
5	0x3e94a740	0.29033852
6	0x3d71e3da	0.059055187
7	0xbef23768	-0.47307897
8	0xbcf2bb49	-0.02963032
9	0x3e39faee	0.18162128
10	0x3e6347ae	0.22195312
11	0xbc8248f3	-0.015903926
12	0x3e37c916	0.17947802
13	0xbec9fb72	-0.3944965
14	0x3dfb3ed8	0.12267846
15	0xbe28074b	-0.16409032
16	0xbe41ddaa	-0.18932214
17	0xbd2379cc	-0.039911076
18	0xbcf4ed07	-0.02989818
19	0x3e70dabb	0.23520939
20	0xbe7da1d8	-0.2476877
21	0x3d30f97b	0.043206673
22	0x3d370f3f	0.044692274
23	0x3e29572b	0.16537158
24	0xbd07590d	-0.03304391
25	0xbecb4ec8	-0.39708543
26	0x3e5c6f36	0.21526799
27	0xbcffe474	-0.031236865
28	0x3df3d60d	0.11906061
29	0xbe8cfdc8	-0.2753737
30	0x3e8653f6	0.26235932
31	0xbed3b2b8	-0.4134729
32	0x3e6afde1	0.2294841
33	0xbc8e3f32	-0.017364118
34	0xbe84ff36	-0.2597596
35	0x3e9587d8	0.29205203
36	0x3a213a32	0.00061503344
37	0x3e3ae064	0.1824966
38	0xbd11635d	-0.03549515
39	0x3ea13c5b	0.3149136
40	0xbe3110c2	-0.17291549
41	0x3e21c7dc	0.15798897
42	0xbe17e169	-0.14832081
43	0xbe987bea	-0.2978204
44	0xbd8d2a0e	-0.06892787
45	0x3b99b937	0.004691269
46	0x3dfead98	0.12435454
47	0xbee6c6e2	-0.4507361
48	0x3dc4818e	0.09595023
49	0xbe83dcb2	-0.25754315
50	0x3e844308	0.2583239
51	0xbcf59332	-0.029977415
52	0xbe9b26aa	-0.30302936
53	0x3ee3cb88	0.4449122
54	0xbcbf1ed0	-0.023330122
55	0x3dfd45da	0.12366839
56	0xbed9e5b7	-0.4255807
57	0x3e205e33	0.15660934
58	0xbe8a8bf8	-0.27059913
59	0x3e869b27	0.26290247
60	0xbcd1e222	-0.025620524
61	0xbe9e89fd	-0.30964652
62	0x3ed12dea	0.40855342
63	0x3e50fd7d	0.20409198
64	0x3dbd6483	0.09247687
65	0xbe397288	-0.18110096
66	0x3cc8b0b2	0.024498317
67	0xbe8e8d66	-0.27842253
68	0x3dd652d0	0.10465014
69	0xbe25b314	-0.16181594
70	0xbe82ed64	-0.2557174
71	0x3e9f6f90	0.31139803
72	0xbe16f5e4	-0.14742237
73	0x3e8f0a14	0.27937376
74	0xbeb0e56f	-0.34550044
75	0x3e328ea4	0.17437226
76	0xbd381be5	-0.044948477
77	0x3e845bdd	0.25851336
78	0x3cd7520e	0.026284244
79	0xbedad9d5	-0.42744318
80	0x3e456f6c	0.19280785
81	0xbc385c9d	-0.0112525495
82	0x3dfbbeba	0.122922376
83	0xbe9d2798	-0.3069427
84	0x3e079fbc	0.13244528
85	0xbe1c8c46	-0.15287885
86	0x3e67493f	0.22586535
87	0xbd7aac1f	-0.061199304
88	0xbe9f5464	-0.31119072
89	0x3e915d24	0.28391373
90	0xbd9b8182	-0.07593061
91	0x3e8fa83e	0.28058046
92	0xbd6a61b1	-0.057222072
93	0x3e9d9f1d	0.30785456
94	0xbe946716	-0.28984898
95	0x3e198153	0.1499074
96	0x3d4fa9bf	0.050698992
97	0xbe7dddb2	-0.24791601
98	0xbddcaae2	-0.10774781
99	0xbdcf7bcf	-0.101310365
100	0x3de3d696	0.111249134
101	0xbe530687	-0.20607959
102	0x3e2d77f0	0.16940284
103	0xbde51f94	-0.11187664
104	0x3e82dbb8	0.25558257
105	0xbda06eb7	-0.07833617
106	0xbea6946e	-0.32535118
107	0x3e859b55	0.2609507
108	0xbc95ca61	-0.018284978
109	0x3e6a3763	0.22872691
110	0xbe9cca91	-0.30623296
111	0x3c930e71	0.017951222
112	0x3d0a3af9	0.033747647
113	0x3e25eb13	0.16202955
114	0xbb901c38	-0.004397895
115	0xbec60e64	-0.38682854
116	0x3e931688	0.28728127
117	0x3d984efe	0.074369416
118	0xbd2f964f	-0.042867955
119	0xbe69ca47	-0.22831069
120	0x3e1eff8a	0.15527168
121	0xbedcd2d2	-0.43129593
122	0x3e57887a	0.21048155
123	0xbe0243fc	-0.12721246
124	0xbe6d44c6	-0.23170766
125	0x3ef95c80	0.48703384
126	0xbdcaf7f6	-0.09910576
127	0x3e988a2e	0.29792923
128	0xbde897ab	-0.11357053
129	0x3e81042a	0.2519849
130	0x3db70301	0.0893612
131	0x3e51feef	0.20507406
132	0xbd80aa9d	-0.06282542
133	0xbee60e55	-0.4493281
134	0xbda4ef94	-0.080535084
135	0x3c54b511	0.012982623
136	0x3da540f6	0.08069031
137	0xbd86c20e	-0.06579982
138	0x3e2b5734	0.16732484
139	0xbe0d1939	-0.13779153
140	0x3e34daff	0.17661665
141	0xbe19529e	-0.14972922
142	0xbeb86de6	-0.36021346
143	0x3e76b241	0.24091436
144	0x3d41289d	0.047157872
145	0x3dc8a201	0.09796525
146	0xbeedf261	-0.46473983
147	0x3d0df7f9	0.034660313
148	0xbe6e14da	-0.23250142
149	0x3e76a121	0.24084903
150	0xbd871d40	-0.06597376
151	0xbe963fb1	-0.29345468
152	0x3f046bd3	0.51727027
153	0x3e31d09e	0.17364737
154	0x3d57de92	0.052702494
155	0xbe1416ca	-0.14461818
156	0x3e326bee	0.17423984
157	0xbee407f9	-0.44537333
158	0x3e3ce326	0.18446025
159	0xbe44dd70	-0.19225097
160	0xbe1f9a42	-0.15586188
161	0x3e24b6ec	0.16085404
162	0xbe0bc8af	-0.13650773
163	0x3e5c347a	0.21504393
164	0xbebd5d5d	-0.36985293
165	0x3e6848b3	0.22683983
166	0xbe1b5db1	-0.15172459
167	0x3e7eff11	0.24901988
168	0x3d3aaac7	0.045573022
169	0xbeb2a25f	-0.34889504
170	0x3e58c672	0.21169451
171	0x3e15c1b9	0.1462468
172	0x3e178461	0.14796592
173	0x3d8a3234	0.06747857
174	0x3e699348	0.2281009
175	0xbecb5c53	-0.39718875
176	0x3df0c17e	0.11755656
177	0xbde57575	-0.11204044
178	0xbe5c12cb	-0.21491544
179	0xbda94fc4	-0.08267167
180	0xbd22d8d3	-0.03975756
181	0x3e3672ce	0.17817232
182	0x3e113ce4	0.14183384
183	0x3e69b83c	0.22824186
184	0x3d0f3ea7	0.03497186
185	0x3e060630	0.13088298
186	0xbe24dddc	-0.16100258
187	0xbea2c9c3	-0.31794557
188	0xbe33072f	-0.17483209
189	0x3d4a1ca1	0.04934371
190	0x3db22980	0.08699322
191	0xbe7794c3	-0.24177842
192	0x3e4a845b	0.19777052
193	0xbeaaf84a	-0.33392555
194	0x3e8bc90b	0.2730182
195	0xbe11663b	-0.14199154
196	0xbe9a7a1c	-0.30171287
197	0x3e9ebaa8	0.31001782
198	0xbcda6413	-0.026659047
199	0x3e657879	0.22409238
200	0xbe75df06	-0.24010858
201	0x3e38886a	0.18020788
202	0xbe1e39ce	-0.15451738
203	0x3e13ddc2	0.14440063
204	0xbce88cb4	-0.028387405
205	0xbea51804	-0.32244885
206	0x3e1cbf5d	0.15307374
207	0x3bc4e187	0.0060083303
208	0x3e013966	0.12619552
209	0xbef20250	-0.4726739
210	0x3d7555b8	0.0598962
211	0xbe3538a2	-0.17697385
212	0x3e812659	0.2522457
213	0xbce7f6be	-0.028315898
214	0xbe9dd4b1	-0.30826333
215	0x3ee92af3	0.4554058
216	0x3dbb23d9	0.09137697
217	0x3d93a918	0.072099864
218	0xbe02a692	-0.12758854
219	0x3de029f0	0.10945499
220	0xbe96a7b0	-0.2942481
221	0x3e53653a	0.20644084
222	0xbe13a99f	-0.14420174
223	0xbe95538a	-0.29165298
224	0x3e83fd97	0.2577941
225	0xbd5c4887	-0.053780105
226	0x3e44d2f5	0.19221099
227	0xbe75773d	-0.23971267
228	0x3deb1302	0.11478235
229	0xbc016666	-0.007897949
230	0x3e727bd0	0.23680043
231	0xbd902d5f	-0.07039904
232	0xbed37b6e	-0.41305107
233	0x3e82d8d0	0.2555604
234	0x3d3ab0b1	0.045578662
235	0x3e348b0c	0.17631167
236	0xbcda014a	-0.026611943
237	0x3ea0d2ba	0.31410772
238	0xbe6b7da1	-0.22997142
239	0x3e033017	0.12811314
240	0xbe22cb19	-0.15897788
241	0xbe6bacd4	-0.23015147
242	0xbdece977	-0.115679674
243	0xbd5d3154	-0.05400212
244	0x3e1e2009	0.15441908
245	0xbee35124	-0.44397843
246	0x3e05094e	0.1299183
247	0xbe5949f1	-0.21219613
248	0x3e8af549	0.27140263
249	0x3b8af0b9	0.004240122
250	0xbea964b0	-0.3308463
251	0x3ec570d7	0.38562652
252	0x3dc82d22	0.097742334
253	0x3e15a47e	0.1461353
254	0xbe1facc4	-0.15593249
255	0x3dc04d7f	0.09389781

weight f4 [9, 256]
0	0x3b27ecda	0.0025623352
1	0xb814fa36	-3.5518977e-05
2	0xbb5b0e79	-0.0033425374
3	0x3a673ea9	0.0008821288
4	0x3a3c97ae	0.0007194233
5	0x3c184145	0.009292905
6	0x3ba798a9	0.005114634
7	0x3aa7d3d3	0.0012804217
8	0x39a1c19e	0.0003085257
9	0xb99e2495	-0.00030163364
10	0x3ba35274	0.0049841944
11	0x3b606159	0.0034237711
12	0x39d96b89	0.00041469585
13	0x3b601af1	0.0034195746
14	0x3be08632	0.006851935
15	0x3afa8c7c	0.0019115354
16	0x3b0a5e9e	0.0021113525
17	0x3b8f629f	0.00437577
18	0x3c229b40	0.00992471
19	0x3ae3da6d	0.0017383822
20	0x3a74115c	0.0009310448
21	0x3a667722	0.0008791556
22	0x3a9f90aa	0.001217385
23	0x3ae076a0	0.0017125197
24	0xba428633	-0.000742051
25	0xbb409630	-0.0029386394
26	0xba0b3709	-0.000531063
27	0x3c0ab861	0.008466811
28	0x3aad27c4	0.0013210704
29	0xbb184c31	-0.0023238773
30	0x3bf1621d	0.0073664323
31	0xbb1c759d	-0.0023873814
32	0x3a697c13	0.0008906733
33	0x3a8f755e	0.0010945012
34	0x3a3102cc	0.0006752431
35	0x3ba0c5a5	0.0049063736
36	0xba6ec18e	-0.00091078214
37	0x3955b88d	0.00020382013
38	0xbb2b6e28	-0.0026158188
39	0xbaa4301e	-0.0012526547
40	0x3b76b812	0.0037646336
41	0x3b049f9f	0.0020236743
42	0xba0a82aa	-0.00052837527
43	0x3c10e7b6	0.008844307
44	0xba0bfde4	-0.0005340262
45	0x3a39c6c7	0.000708681
46	0x372b22af	1.020047e-05
47	0x3ae0f070	0.00171615
48	0xba802c75	-0.0009778874
49	0xbb4783dc	-0.0030443585
50	0xbbb3f9b5	-0.005492414
51	0x3c04938b	0.008091818
52	0x398ad117	0.00026477195
53	0x3b6a87dd	0.0035786547
54	0xbb36578a	-0.0027823173
55	0x3b1c783b	0.0023875374
56	0x3a242418	0.0006261482
57	0xbbc0485b	-0.0058680004
58	0x3a04b479	0.0005062293
59	0xbbb8d7da	-0.005640966
60	0xba4b30d3	-0.0007751111
61	0xb983d6fd	-0.00025146446
62	0x3b56e0e5	0.0032787856
63	0x3ab05215	0.0013452197
64	0xb943fcc4	-0.00018690812
65	0xbbc5b1d5	-0.006033162
66	0x3b5338a2	0.00322298
67	0x3a4726aa	0.0007597009
68	0x3ac1e149	0.0014791872
69	0x3b5e7533	0.0033944368
70	0xbb194f41	-0.0023393186
71	0x3a26981c	0.00063550635
72	0xbac15ea0	-0.0014752932
73	0x3a2ce95b	0.0006596052
74	0x378468c1	1.5784406e-05
75	0x3b33083a	0.0027318136
76	0x3be9befb	0.0071333623
77	0xbc1f72af	-0.009731933
78	0xbc041656	-0.008061966
79	0x3b358599	0.0027698039
80	0x3ada2842	0.0016644078
81	0x3b00b99b	0.001964188
82	0x38b4a97f	8.61464e-05
83	0x3a8330ca	0.0010009047
84	0xbbb60b7d	-0.0055555687
85	0x3c1034a7	0.008801616
86	0xbabd4366	-0.0014439642
87	0x3b1b0ada	0.002365759
88	0xb8d2a56b	-0.00010044392
89	0xba53a1e1	-0.0008073133
90	0xbaa3db75	-0.0012501316
91	0x3b084346	0.0020792051
92	0x3c280060	0.010253996
93	0x3b5ce675	0.00337067
94	0x3b65ef5e	0.00350853
95	0xbad629a2	-0.0016339312
96	0xbbea4060	-0.0071487874
97	0xbb115064	-0.002217316
98	0xbc0997e6	-0.008398032
99	0x395879ff	0.00020644812
100	0xbc230a3f	-0.009951173
101	0xba01b4c1	-0.0004947894
102	0x3b6def93	0.0036306127
103	0x3b191242	0.002335683
104	0xba378154	-0.00070001674
105	0x3c058bbd	0.008150992
106	0xb8dcfab4	-0.000105371146
107	0x3b2e88df	0.0026631874
108	0x3b297528	0.0025857184
109	0x3b23844a	0.0024950677
110	0x3a1d3e81	0.00059983885
111	0x3a4be4b0	0.00077779125
112	0x3b4073f9	0.0029366
113	0x392bb048	0.000163735
114	0xbbb18be5	-0.005418288
115	0xbaab5e9d	-0.0013074462
116	0xb9926a07	-0.00027926287
117	0xbbe43961	-0.006964848
118	0xbb4d85bf	-0.0031360236
119	0x3bd3c057	0.0064621377
120	0x3b91a18a	0.004444306
121	0xb994c611	-0.0002837633
122	0x3b3e7ced	0.002906616
123	0xbb50021a	-0.0031739534
124	0x3a8f306d	0.0010924466
125	0x35d66414	1.5973369e-06
126	0x3b64e57c	0.0034926822
127	0x3b499605	0.0030759585
128	0x3a81829c	0.0009880844
129	0x3b0dbd4e	0.0021627727
130	0xb983fd8b	-0.0002517517
131	0xbb2bce31	-0.002621543
132	0xb8e3a4f5	-0.00010854929
133	0xbafb1cb9	-0.001915834
134	0x3975648b	0.00023402476
135	0xb87c3f74	-6.0140577e-05
136	0x3a4c05da	0.00077828544
137	0xb97de077	-0.0002421158
138	0x3b27cf66	0.0025605797
139	0xbac54025	-0.0015049024
140	0x3bc130a7	0.0058956924
141	0xbad9d2c1	-0.0016618596
142	0x3a442176	0.00074817927
143	0xb9af8b9d	-0.0003348262
144	0x3aa6f18c	0.0012736782
145	0xbbb357cb	-0.005473112
146	0x3bb0c7d7	0.0053949165
147	0x3bdcbc08	0.0067362823
148	0xb90ed7c1	-0.0001362255
149	0x3a923ac3	0.0011156428
150	0xbad8cf41	-0.0016541259
151	0xbb31e490	-0.002714429
152	0xba4e2376	-0.00078635605
153	0x3bd22850	0.006413497
154	0xbab8b356	-0.0014091532
155	0x3a6762d0	0.0008826675
156	0xbb78b432	-0.0037949202
157	0x3b36d10d	0.00278956
158	0x3abeb7be	0.0014550609
159	0x3bf69d25	0.0075260573
160	0xbb1f709c	-0.0024328595
161	0xbb46e413	-0.0030348345
162	0x3a1886bb	0.0005818416
163	0xbb317ecf	-0.002708364
164	0xbb0f74f5	-0.002188978
165	0x3b49be9a	0.0030783773
166	0x3a210a1a	0.0006143168
167	0xbb42a70c	-0.0029701618
168	0x3a71e314	0.00092272577
169	0x3acdee1e	0.0015711223
170	0x3914c2d8	0.00014186965
171	0xb9a563ed	-0.00031545703
172	0xbb25ab69	-0.002527917
173	0xbb48121c	-0.0030528372
174	0x3b1f6a03	0.0024324663
175	0x390f509e	0.00013667575
176	0xbafff76a	-0.0019528691
177	0x3a901768	0.0010993304
178	0xba9ca7e4	-0.0011951891
179	0x3b517ed3	0.0031966462
180	0xbb81f17c	-0.0039655548
181	0x3b0dc20e	0.0021630558
182	0x3b00711e	0.0019598673
183	0xba997030	-0.0011706408
184	0x3aab0d91	0.0013050308
185	0x3ac08c1a	0.0014690191
186	0xbb3675c3	-0.0027841188
187	0xbb2ad0e5	-0.0026064452
188	0x3a815c38	0.0009869402
189	0x3b987092	0.0046520913
190	0xba4abff0	-0.00077342894
191	0x3c2231e1	0.009899587
192	0xba94cb29	-0.001135205
193	0x3acf986c	0.0015838272
194	0xba837ef0	-0.0010032337
195	0x3abe07f5	0.0014498221
196	0xbc095e7a	-0.008384341
197	0xba649bd5	-0.00087207305
198	0x39b3b542	0.00034276588
199	0x3b361fe5	0.0027790007
200	0xba966a90	-0.001147585
201	0x3b24ee74	0.0025166543
202	0xb9e7345d	-0.00044098767
203	0x3b502dfa	0.0031765685
204	0x387d2141	6.035087e-05
205	0xbac6183c	-0.0015113424
206	0x39c3cfc4	0.00037348096
207	0xb81032c2	-3.4379547e-05
208	0x3b51326f	0.003192093
209	0x3ac0bea9	0.0014705259
210	0xbbcbe578	-0.006222423
211	0xb9b556a2	-0.00034587557
212	0x3b887cc6	0.004165265
213	0x3aafae1d	0.001340333
214	0xbbac5d1e	-0.005260124
215	0x3befbeec	0.007316461
216	0xbbb78527	-0.00560059
217	0xbb3309c8	-0.0027319063
218	0x3945a09a	0.00018847213
219	0xba768b43	-0.0009404907
220	0x3a957229	0.001140182
221	0xbacb21c5	-0.0015497735
222	0x3b2590a7	0.0025263221
223	0x3b388de4	0.0028160745
224	0x3b41e339	0.0029584898
225	0x39ec4b08	0.0004506933
226	0xbc0d0d4e	-0.008609129
227	0xbbfe280f	-0.00775624
228	0xb9d7c73c	-0.00041156437
229	0x3bbc7173	0.005750829
230	0xbb740222	-0.0037232717
231	0x3ae334a0	0.0017334409
232	0x3bb8f614	0.005644569
233	0x3c09eff1	0.008419023
234	0x3c1f9ac9	0.0097414935
235	0xbb42aef1	-0.0029706324
236	0x39e8e7f1	0.00044423298
237	0xbbce87d3	-0.0063028126
238	0xba929702	-0.001118392
239	0x3b96f83f	0.00460723
240	0xbb4ddc0d	-0.0031411678
241	0xbbe59199	-0.007005882
242	0xbb99d2c9	-0.004694317
243	0xbbd63f1b	-0.0065382845
244	0x3b680a98	0.0035406705
245	0xbb98ca84	-0.0046628136
246	0xbbc2f7b6	-0.0059499396
247	0x3b58170b	0.003297272
248	0x3b859994	0.004077146
249	0xb9a58d21	-0.00031576402
250	0x3ac29e4f	0.0014848205
251	0xba5eedba	-0.0008504052
252	0xbbed6181	-0.0072442894
253	0x3baf175b	0.0053433604
254	0x3c1490cd	0.009067726
255	0xbb86f12d	-0.004118106

bias f4 [9]
0	0x3a1e1c68	0.00060314545
1	0x3b1a10f6	0.0023508645
2	0xbac768f9	-0.0015213779
3	0x3b15f0f5	0.0022879217
4	0xbb243567	-0.0025056244
5	0x3aad8951	0.0013239776
6	0xbaad522b	-0.001322334
7	0xbb721b10	-0.00369424
8	0x3a7542f0	0.0009355983

weight f4 [256, 18]
0	0x3c9b0d8d	0.01892736
1	0x3e59f057	0.21283089
2	0xba46b846	-0.00075805595
3	0x3e32bfad	0.17455931
4	0xbe1f8ac8	-0.15580285
5	0xbeb449e7	-0.35212633
6	0x3e6bc199	0.2302307
7	0x3e21811f	0.15771912
8	0x3e3e2337	0.18568121
9	0xbe3b6273	-0.18299274
10	0xbdfe0420	-0.124031305
11	0xbe62b70c	-0.2214014
12	0xbe8bda95	-0.27315202
13	0x3ef7d03a	0.48401052
14	0x3da9ef63	0.082976125
15	0xbed18f03	-0.40929422
16	0x3e27a5b4	0.16371804
17	0x3e6cc341	0.23121358
18	0x3e49aff9	0.19696034
19	0xbeb5f8ce	-0.35541385
20	0xbe826f8b	-0.25475726
21	0x3d3bad30	0.04581946
22	0x3cf3a1d5	0.029740253
23	0xbd9534a5	-0.07285432
24	0x3e4f5049	0.2024547
25	0x3f07113a	0.5276066
26	0xbdef1053	-0.116730355
27	0x3e114ab7	0.14188658
28	0x3e979cb5	0.29611745
29	0x3e527089	0.20550741
30	0x3ec0e230	0.37672567
31	0xbe0b729d	-0.1361794
32	0x3e709da4	0.23497635
33	0x3e407211	0.18793513
34	0xbe10bc4e	-0.14134333
35	0xbd972b34	-0.07381287
36	0xbea88883	-0.3291665
37	0xbd053198	-0.032518
38	0xbe7e25f4	-0.24819165
39	0xbdf2d2d4	-0.118566185
40	0x3e56d1db	0.20978491
41	0x3bf265a5	0.007397371
42	0xbe786b8d	-0.24259777
43	0x3e7f05d2	0.24904564
44	0xbeef5f2c	-0.46752298
45	0x3ea23a41	0.3168507
46	0xbdcad170	-0.09903228
47	0xbd8ac0cc	-0.06775054
48	0xbecdf31e	-0.40224546
49	0x3d535ed3	0.051604103
50	0xbdf2a9bd	-0.11848781
51	0x3e89f89a	0.2694748
52	0xbe499091	-0.19684054
53	0xbe239f17	-0.15978657
54	0x3d3119c9	0.04323748
55	0xbdbbf739	-0.09178013
56	0x3ef55552	0.47916657
57	0xbec51637	-0.3849351
58	0x3de18ca4	0.11013153
59	0xbd93e4d5	-0.072213806
60	0x3d794aa2	0.06086219
61	0xbdc4e9cb	-0.09614905
62	0x3dbbfd1b	0.091791354
63	0x3d55973a	0.052146174
64	0xbea4a2db	-0.321555
65	0x3e9bf4a7	0.30460092
66	0x3d982a3b	0.0742993
67	0xbe3b5d7f	-0.18297385
68	0xbe320285	-0.17383774
69	0x3e2ed1f4	0.17072278
70	0x3eab7abf	0.33492085
71	0xbecc97b1	-0.3995948
72	0xbe1ca721	-0.1529813
73	0xbe81e966	-0.2537338
74	0xbe9d16db	-0.306815
75	0xbe58e96b	-0.21182792
76	0x3d92c5a5	0.07166604
77	0x3dbb18ec	0.09135613
78	0xbece205d	-0.40259066
79	0xbe3a60b5	-0.18200953
80	0xbd2221ec	-0.03958313
81	0x3eb26a57	0.34846756
82	0xbe76119f	-0.2403016
83	0xbd8cfcd8	-0.068841636
84	0x3d1d145b	0.03834949
85	0xbd02d2ad	-0.031939197
86	0x3dcab02f	0.098968856
87	0x3d455fda	0.048187114
88	0xbf19bb65	-0.60051566
89	0xbdbb83c0	-0.09155989
90	0x3bedcfda	0.007257444
91	0xbd3c410e	-0.04596048
92	0xbba7d876	-0.0051222397
93	0xbda33518	-0.07969111
94	0x3d9e3932	0.07725753
95	0x3e4ab6c5	0.19796284
96	0x3ee95b93	0.45577678
97	0xbcf6916e	-0.030098643
98	0x3dd3148c	0.103066534
99	0x3f0ea2b3	0.5571701
100	0xbdb3bcc1	-0.08776236
101	0x3e8de944	0.2771703
102	0x3c632985	0.0138648795
103	0xbd6a911b	-0.05726729
104	0x3edfebed	0.43734685
105	0x3d638284	0.05554439
106	0x3da458ec	0.08024773
107	0xbeb3610e	-0.35034984
108	0xbda194c2	-0.078897014
109	0x3dd0980e	0.10185252
110	0xbefa7e84	-0.4892465
111	0x3dcae690	0.099072576
112	0x3e9c106b	0.30481276
113	0xbe3a2c56	-0.18180975
114	0x3e066487	0.13124286
115	0xbdc55d02	-0.096368805
116	0x3ef6c8cf	0.4820008
117	0xbd1b7877	-0.03795668
118	0xbeb206a1	-0.34770682
119	0xbe43b12c	-0.19110554
120	0xbe468ec4	-0.19390398
121	0xbdd3c3f7	-0.10340112
122	0xbd12b9e9	-0.03582183
123	0xbec79a41	-0.38984874
124	0x3d49cbff	0.04926681
125	0xbd3b331f	-0.04570305
126	0x3ec3f859	0.38275412
127	0xbd1090d7	-0.03529438
128	0x3ef23217	0.4730384
129	0xbea50726	-0.32232016
130	0xbe15786e	-0.14596722
131	0x3d9ddca3	0.07708099
132	0xbe14c1dd	-0.14527078
133	0x3e2c08c9	0.16800226
134	0xbd21fd44	-0.039548174
135	0x3efad2c4	0.48988926
136	0xbe0a0504	-0.13478476
137	0xbcc8a49d	-0.024492556
138	0xbea415fa	-0.32048017
139	0x3d8d894f	0.06910955
140	0x3e596c39	0.2123269
141	0x3d80066b	0.06251224
142	0x3dc61027	0.096710496
143	0x3e2de76d	0.16982813
144	0x3dc2c7e0	0.095107794
145	0xbd79ae2b	-0.060957115
146	0x39d5b82a	0.0004076374
147	0x3d7f7f7f	0.06237745
148	0xbe9a7b47	-0.30172178
149	0xbea0366e	-0.31291527
150	0xbd5defc2	-0.05418373
151	0x3ec6d0aa	0.38831073
152	0x3d4c36c1	0.049856905
153	0xbefba6d4	-0.49150717
154	0xb7a44f4b	-1.9587247e-05
155	0xbd3a65f8	-0.0455074
156	0x3e2c43ff	0.16822813
157	0x3ea8125b	0.32826504
158	0x3dfbc1e7	0.12292843
159	0x3eb37592	0.35050637
160	0xbdaf91e0	-0.08572745
161	0x3eabd27c	0.33559024
162	0xbe041dbc	-0.12901968
163	0x3e963acc	0.29341733
164	0xbec71c8e	-0.38888973
165	0xbeb1cc17	-0.3472602
166	0xbeb406f6	-0.3516156
167	0x3cc4570a	0.023967285
168	0x3dd0278a	0.101637915
169	0xbd9efcb7	-0.07763045
170	0xbc90afee	-0.017662015
171	0xbf0122e5	-0.5044387
172	0xbe8446f8	-0.25835395
173	0x3e351866	0.17685089
174	0xbe3af407	-0.18257152
175	0x3d485d95	0.04891737
176	0xbe019ce1	-0.12657501
177	0xbd8f45cc	-0.069957346
178	0x3ded8330	0.11597288
179	0x3e66f4a2	0.22554258
180	0xbe32257e	-0.17397115
181	0xbe74d9cc	-0.23911208
182	0x3dae4bf0	0.08510578
183	0xbe602797	-0.21890102
184	0x3efc9bec	0.4933771
185	0x3e6f59f8	0.23374164
186	0xbe54d724	-0.20785195
187	0xbeaf0a87	-0.3418772
188	0x3cf0b253	0.029381907
189	0xbe6fc87e	-0.23416325
190	0x3d4df553	0.050282788
191	0xbe1a8db5	-0.1509312
192	0xbe62b44c	-0.2213909
193	0xbe485f79	-0.1956767
194	0x3de86577	0.11347478
195	0x3e1594e7	0.14607583
196	0x3dd74beb	0.10512527
197	0x3edd29d3	0.43195972
198	0x3ef2bc22	0.4740916
199	0x3de292ad	0.110631324
200	0x3e80fd88	0.2519343
201	0xbe1dc09d	-0.15405507
202	0xbe96d6d4	-0.29460776
203	0x3e40398f	0.18771957
204	0xbcd956c3	-0.026530629
205	0x3d31eae7	0.04343691
206	0x3e9a3960	0.301219
207	0x3d5c6c13	0.053814005
208	0x3aa4dd9a	0.001257825
209	0x3cd5f823	0.026119297
210	0x3eb1f119	0.34754255
211	0x3ea06960	0.31330395
212	0xbe607645	-0.21920116
213	0xbd5072f0	-0.050890863
214	0xbeab14ff	-0.33414456
215	0x3e8599c3	0.26093873
216	0x3c048731	0.008088873
217	0xbe9389ff	-0.2881622
218	0x3e09dc6d	0.13462992
219	0x3e67d558	0.22639978
220	0x3e4598e2	0.19296601
221	0x3de1a7ec	0.11018357
222	0x3f07c6ce	0.53037727
223	0x3e80666e	0.25078148
224	0x3e2c568c	0.1682989
225	0xbe9f4ef5	-0.31114927
226	0x3dba83ed	0.09107194
227	0xbe01eb4c	-0.12687415
228	0xbe83a556	-0.2571208
229	0xbd941b03	-0.072317146
230	0x3d890911	0.066911824
231	0xbd6974fe	-0.056996338
232	0xbe89cd96	-0.26914662
233	0xbec47bfa	-0.38375837
234	0xbe40c3de	-0.18824717
235	0x3ea4ea5c	0.32210052
236	0xbe441c56	-0.19151434
237	0xbe950d54	-0.2911173
238	0x3eb56807	0.3543093
239	0xbe0c895c	-0.13724273
240	0xbe8d421f	-0.2758951
241	0xbe6d2c58	-0.23161447
242	0x3c9401e4	0.018067308
243	0xbca6b67e	-0.02035069
244	0xbd45873e	-0.04822468
245	0xbd12850f	-0.035771426
246	0x3ecea46a	0.40359813
247	0x3e33477b	0.17507736
248	0x3dbab952	0.09117378
249	0x3e323cd4	0.17406017
250	0x3e672a86	0.22574815
251	0xbed885ac	-0.42289484
252	0xbe9fbb4f	-0.31197593
253	0xbe60c2b6	-0.21949276
254	0x3f0c8c4a	0.54901564
255	0xbd0967f8	-0.033546418

bias f4 [256]
0	0x3a54da53	0.0008119691
1	0xbb441d6e	-0.0029924768
2	0x3b2d3b70	0.0026433133
3	0xbb063f29	-0.0020484424
4	0xbb616f4b	-0.0034398611
5	0xbaaa8eba	-0.0013012507
6	0xbb8a110d	-0.0042134584
7	0x3b196deb	0.0023411463
8	0xbb0baa8c	-0.002131137
9	0x3b304f00	0.0026902556
10	0x3c0efb67	0.008726931
11	0xbbb5b401	-0.00554514
12	0xb8251306	-3.9356783e-05
13	0x3aab1b51	0.0013054406
14	0xbb9a6523	-0.0047117635
15	0x39cb55ea	0.00038783188
16	0x00000000	0.0
17	0xbb8588cb	-0.004075145
18	0xba54bd03	-0.0008115323
19	0x3bfb861c	0.007675899
20	0x3b12db0f	0.00224084
21	0xbaafffc5	-0.0013427666
22	0xbbe82903	-0.007084967
23	0xbb7443f0	-0.003727194
24	0x3bdeaf60	0.0067958087
25	0x3afbfe06	0.0019225485
26	0x3c726deb	0.014796714
27	0x3b5d58f0	0.0033774935
28	0xbbb74aa0	-0.005593613
29	0x00000000	0.0
30	0x3bdeb646	0.006796631
31	0xbba6c194	-0.0050889943
32	0xbb184e77	-0.0023240128
33	0xbae25646	-0.0017268143
34	0xb94d0083	-0.00019550514
35	0x3b1c15e3	0.0023816756
36	0x3b369836	0.002786172
37	0xbb9073fd	-0.004408358
38	0xbb0ae3e2	-0.0021192958
39	0xbc04ba09	-0.008100995
40	0x3b70ab9b	0.0036723379
41	0xba85227c	-0.0010157372
42	0x3ba593ac	0.0050530042
43	0xba9d5e3b	-0.0012006232
44	0xbb52ae86	-0.003214748
45	0xba9df703	-0.0012051765
46	0x39903db6	0.00027511799
47	0x3a994763	0.0011694249
48	0x3a4a206e	0.0007710521
49	0x3b7c0602	0.003845573
50	0x3c4924c5	0.012276833
51	0xbaa23601	-0.0012375714
52	0x3aa7c753	0.0012800492
53	0xbb4a295b	-0.0030847404
54	0xbb28cd99	-0.0025757311
55	0xb9a89c03	-0.00032159695
56	0xbbc60d69	-0.006044079
57	0x3b91c4df	0.0044485177
58	0x3b9efe7e	0.004852115
59	0xba26ccba	-0.0006362904
60	0x3bc29428	0.0059380718
61	0xba1f61a7	-0.000607992
62	0xbac9f67c	-0.0015408541
63	0xbb1c6b05	-0.00238675
64	0x3bda1f4e	0.006656564
65	0xbb8c6aa2	-0.0042851726
66	0xbc5ac75d	-0.013353196
67	0xbbb7462a	-0.005593081
68	0x00000000	0.0
69	0x3a486c33	0.00076455175
70	0xbbb1d347	-0.0054267976
71	0x3553904f	7.881362e-07
72	0xbb1c47b5	-0.0023846452
73	0xbbe85194	-0.007089803
74	0x3b17dd1a	0.0023172558
75	0x3b7da3e0	0.0038702413
76	0xbb205165	-0.0024462577
77	0x3be4388d	0.006964749
78	0xbb726d85	-0.0036991548
79	0x386264bd	5.397642e-05
80	0xbaf41d77	-0.0018624504
81	0xb96c4ee1	-0.00022536099
82	0xbbaa318b	-0.0051938943
83	0xb9892eba	-0.0002616549
84	0xb965ab47	-0.00021902948
85	0xbbc50284	-0.006012263
86	0x3c1fb03d	0.009746608
87	0x3b3dad66	0.0028942465
88	0x3be7dc18	0.0070757978
89	0x3aab4d3d	0.0013069283
90	0x3c1fe423	0.009758982
91	0x3bfaf5cb	0.0076586953
92	0xbc092ae4	-0.008372042
93	0xba43b0ad	-0.00074649864
94	0x3b1bc566	0.0023768782
95	0x3bbc570d	0.005747682
96	0xbbd59afe	-0.0065187206
97	0x3c0efc56	0.008727154
98	0x00000000	0.0
99	0x00000000	0.0
100	0xba28f47d	-0.0006445123
101	0xbb9f7734	-0.004866505
102	0x3b1763e9	0.0023100323
103	0x3a52f3ec	0.00080472114
104	0x3bcc078c	0.0062264856
105	0xbc003c70	-0.007826909
106	0x3b5fec58	0.0034167971
107	0x3b33fc17	0.002746349
108	0x3b0e2f56	0.0021695695
109	0xbaac9767	-0.001316768
110	0x37208229	9.567048e-06
111	0x3c0c263d	0.008554039
112	0x3c0f0177	0.008728377
113	0xbb08bff5	-0.0020866368
114	0xbacb5594	-0.0015513175
115	0xba9a135d	-0.0011755038
116	0xbb912051	-0.0044289012
117	0xbafcdb10	-0.001929136
118	0x39f93f3d	0.00047540097
119	0x3bc8c0cc	0.006126499
120	0xbb87bca4	-0.0041423608
121	0xb90d9ac7	-0.00013504467
122	0x3b38cf15	0.0028199602
123	0x3a33319d	0.0006835701
124	0xbb844330	-0.0040363297
125	0xb9882864	-0.00025970035
126	0xbbb75acf	-0.005595542
127	0xbb267c34	-0.002540362
128	0xb6e479df	-6.809117e-06
129	0xbb3ecb5b	-0.0029112909
130	0x39065ec9	0.00012814546
131	0xbb790e42	-0.0038002883
132	0xbaaacf26	-0.0013031706
133	0xbba87441	-0.0051408117
134	0xbc0621f0	-0.008186802
135	0xbb30c327	-0.0026971789
136	0xbb601650	-0.0034192987
137	0xbba48736	-0.005021001
138	0xbb8a4cdb	-0.0042205877
139	0xbb5077e6	-0.0031809746
140	0x3a744443	0.0009318033
141	0x3bb551bf	0.0055334265
142	0x3934a4ae	0.00017227486
143	0x3bfb19a9	0.007662971
144	0xbbd0a5de	-0.006367429
145	0x3ba77591	0.0051104506
146	0x3bd0667b	0.006359873
147	0x3b579f69	0.0032901412
148	0xbb1854b8	-0.0023243856
149	0xbb4da328	-0.0031377766
150	0x3bd3ba39	0.0064614085
151	0xbb0cdbc6	-0.00214933
152	0x3bbc603a	0.005748776
153	0x3b275e51	0.0025538395
154	0xbbb34de0	-0.00547193
155	0xbb6b9395	-0.003594612
156	0x3b1ac1f0	0.002361413
157	0xba01ccb6	-0.0004951464
158	0x3ba9a4a5	0.005177098
159	0x3398d99b	7.117634e-08
160	0x3b2221c2	0.002473936
161	0xbbd491e6	-0.006487119
162	0xbb8ad532	-0.0042368406
163	0x36b21e44	5.3083368e-06
164	0x3abde261	0.0014487022
165	0xba3b2c11	-0.00071400503
166	0xbc763582	-0.015027406
167	0x3bd995d1	0.006640174
168	0x3c28560a	0.01027442
169	0xbb0a001e	-0.0021057199
170	0x3c038180	0.008026481
171	0x3bfb8b86	0.0076765446
172	0x3b4f2158	0.0031605568
173	0x3baba812	0.0052385414
174	0xbbe7f3cf	-0.007078625
175	0xbc07d493	-0.008290428
176	0xba6aaa23	-0.0008951744
177	0xbb64d1dd	-0.0034915127
178	0xbc19a991	-0.009378807
179	0xbb6bb491	-0.003596578
180	0xbb044a4a	-0.0020185881
181	0x3ba20a88	0.004945103
182	0xbbb6898b	-0.0055705956
183	0xbc411864	-0.0117856
184	0x3bec6c9f	0.007215097
185	0xbc102f8c	-0.008800399
186	0xbbb5a020	-0.00554277
187	0xb6b53ecb	-5.4015304e-06
188	0x3b7b3c50	0.003833551
189	0x3b31a4ed	0.002710636
190	0x3bd5a5c7	0.0065200063
191	0x3a3d085f	0.0007211025
192	0xba8c8343	-0.0010720271
193	0xbc182ad9	-0.009287559
194	0x3b868b29	0.0041059447
195	0xbc1c167a	-0.009526843
196	0x3b0d4da6	0.0021561175
197	0xb5a62d29	-1.2381107e-06
198	0xbaf7f0c5	-0.0018916359
199	0x3a9811b9	0.0011601961
200	0xbb8115ed	-0.0039393813
201	0xbb427c58	-0.0029676165
202	0xbb932d58	-0.0044914894
203	0xbc401115	-0.011722823
204	0x3c06649b	0.008202697
205	0x3ab68211	0.0013924261
206	0xbbc122df	-0.0058940495
207	0x3b12d517	0.0022404843
208	0xbc0b0b50	-0.008486584
209	0x3bd97373	0.006636077
210	0x3af5e589	0.0018760423
211	0xbbe2c528	-0.0069204755
212	0x3a0edc11	0.00054496626
213	0xbbcf08ab	-0.006318172
214	0xbb20e977	-0.0024553218
215	0x00000000	0.0
216	0x3bb86cff	0.0056282277
217	0x3ba6f752	0.005095401
218	0xbb325799	-0.0027212857
219	0xbc220f56	-0.009891352
220	0x3c1c6467	0.009545422
221	0x3a83b770	0.0010049175
222	0xb99b3be5	-0.0002960853
223	0x3b193c4f	0.0023381894
224	0xbc2a6220	-0.010399371
225	0x3c5b2564	0.013375614
226	0x3abd904b	0.0014462558
227	0x3a8d57e1	0.0010783636
228	0x3b832304	0.004001977
229	0xb8eb0523	-0.0001120663
230	0x3b2a8e65	0.0026024815
231	0xb592e5e3	-1.0944754e-06
232	0x3c7629da	0.015024627
233	0xba152cce	-0.00056905753
234	0xbbfac692	-0.007653066
235	0x3b15f867	0.0022883655
236	0xbc1dfe8a	-0.009643206
237	0x3b87c701	0.004143596
238	0xba72a9a0	-0.00092568435
239	0x3a3c1221	0.0007174332
240	0x3b8ddbcd	0.004329181
241	0xb9a17717	-0.00030797042
242	0xbb20e8a5	-0.002455273
243	0x3bc386be	0.0059669903
244	0x36fd85ef	7.5555795e-06
245	0xbb87b9ce	-0.0041420227
246	0xbb04e21a	-0.0020276369
247	0x3ba3f84b	0.005003964
248	0x3af96092	0.0019025973
249	0xbb08bb24	-0.0020863498
250	0x3bfc5cf6	0.0077015115
251	0xbc15cde7	-0.009143329
252	0x3bd9a949	0.006642495
253	0x3b4338c4	0.0029788474
254	0xba2b7ed8	-0.00065420335
255	0xbac17f9e	-0.0014762764

weight f4 [256, 256]
0	0xbc991d9a	-0.018690873
1	0x3dc844e8	0.09778768
2	0xbc52b402	-0.0128603
3	0x3d92bdb2	0.07165088
4	0x3d4ce31c	0.050021276
5	0x3da7c4a3	0.08191802
6	0xbe041374	-0.12898046
7	0xbd84c2b8	-0.06482452
8	0x3c79c746	0.015245264
9	0x3c000d87	0.007815725
10	0xbe55077a	-0.20803633
11	0xbd644286	-0.055727504
12	0xbe07fa4d	-0.13279076
13	0xbd9d0c7c	-0.07668397
14	0x3dcc19b4	0.0996584
15	0x3db18143	0.08667233
16	0xbc09e5be	-0.008416591
17	0x3d946303	0.072454475
18	0x3de41f5b	0.11138793
19	0x3d0132b7	0.031542506
20	0x3d03e3c3	0.032199632
21	0xbd0f1aa4	-0.034937516
22	0x3d000a9e	0.031260125
23	0x3d9d52e8	0.07681829
24	0x3c429a1a	0.011877561
25	0xbac3253e	-0.0014888418
26	0xbc81b4a7	-0.015833212
27	0xbdf6cf48	-0.120512545
28	0xbd013758	-0.03154692
29	0x3cb2261e	0.021746691
30	0xbd929943	-0.071581386
31	0xbd9addc4	-0.0756183
32	0xbb82f727	-0.003996748
33	0xbd07d805	-0.033164997
34	0xbdb503cd	-0.088386156
35	0x3e0bdb7f	0.1365795
36	0xbd82b3ea	-0.06381972
37	0x3db17f6f	0.08666884
38	0xbd9c39a2	-0.0762818
39	0x3d39a712	0.045325346
40	0xbe0c2acb	-0.13688199
41	0x3c59cc6a	0.013293365
42	0x3d8dbb26	0.06920461
43	0x3d197e24	0.037473813
44	0x3d032a34	0.03202267
45	0x3c015dd6	0.007895907
46	0x3bf754b4	0.007547939
47	0xbc05de39	-0.008170658
48	0x3ce49937	0.02790509
49	0x3ce47c90	0.027891427
50	0x3d2bb11d	0.041916955
51	0xbcf2a8a4	-0.02962143
52	0xbd98f552	-0.07468666
53	0x3c89355d	0.016749078
54	0x3dbbf4b2	0.09177531
55	0x3a836505	0.0010024613
56	0xbcdb1ade	-0.02674621
57	0x3da64d94	0.081202656
58	0x3c885cf7	0.016645892
59	0xbd36f0b2	-0.04466314
60	0xbd961b39	-0.07329411
61	0x3d022d48	0.031781465
62	0x3cf71c5f	0.030164896
63	0x3d4a9c8d	0.049465705
64	0xbcf9d2c1	-0.030496003
65	0x3d427360	0.04747331
66	0x3d3f192b	0.04665486
67	0x3d02922b	0.031877678
68	0x3d8109c7	0.06300693
69	0xbe0947f4	-0.13406354
70	0x3dac1c77	0.08403867
71	0x3d94c51c	0.07264158
72	0xbdb342bb	-0.08752962
73	0xbdbf2d71	-0.09334839
74	0xbdb631b8	-0.08896202
75	0x3d21d4c8	0.039509565
76	0xbd80a2ab	-0.062810265
77	0xbd52f08e	-0.051498942
78	0x3cb4b371	0.02205822
79	0xbd0335a8	-0.032033592
80	0xbd6e57a0	-0.058189034
81	0x3d98c574	0.07459536
82	0x3d30d9a8	0.043176323
83	0xbc880efa	-0.016608704
84	0xbd906053	-0.070496224
85	0xbd10050f	-0.035161074
86	0xbc04dc26	-0.008109128
87	0x3d8aeeb3	0.067838095
88	0x3d62a4aa	0.055332817
89	0x3bf3169e	0.0074184677
90	0x3d99ec07	0.07515722
91	0x3d9a94df	0.07547926
92	0x3d4f0cb1	0.050549213
93	0x3c44aadf	0.0120036295
94	0xbd627655	-0.05528863
95	0x3d9f161e	0.077678904
96	0xbd116561	-0.035497073
97	0xbd2fc740	-0.04291463
98	0x3cf0049a	0.02929907
99	0x3d86ecb0	0.06588113
100	0xbd13b077	-0.036056962
101	0xbc73dd7d	-0.01488435
102	0xbd24588c	-0.040123507
103	0x3b85064b	0.004059588
104	0x3c76289d	0.015024331
105	0xbd0252ac	-0.031817123
106	0xbcf42172	-0.029801104
107	0xbc1c6ef5	-0.009547939
108	0x3c5f6cec	0.013636809
109	0x3d0b7103	0.034043323
110	0xbd81390c	-0.06309709
111	0x3c8baa8b	0.017049095
112	0x3cd7ef1a	0.02635913
113	0xbd8220e4	-0.0635393
114	0xbd59717d	-0.053086746
115	0x3d85c653	0.06531968
116	0xbc1eeb17	-0.0096996045
117	0xbdaf1d46	-0.08550505
118	0xbde378d8	-0.111070335
119	0x3d74f54b	0.059804242
120	0xbd2566fc	-0.040381417
121	0x3a80cd9b	0.00098269
122	0xbd602a08	-0.054727584
123	0x3b399488	0.0028317291
124	0xbdd2cf4b	-0.10293444
125	0xbdf13505	-0.11777691
126	0x3da2bc3d	0.0794606
127	0xbdaf7612	-0.08567442
128	0xbc031f05	-0.008003001
129	0x3c9579cc	0.018246554
130	0x3d0a5f50	0.033782303
131	0x3ca0d4bf	0.019632695
132	0xbda5c286	-0.08093743
133	0x3de84310	0.11340916
134	0x3c57f764	0.013181541
135	0x3d512300	0.05105877
136	0x3c2f9af1	0.010718093
137	0x3d940f08	0.072294295
138	0xbd34a286	-0.044100307
139	0xbc3d7f8c	-0.011566054
140	0xbd13b107	-0.0360575
141	0x3b337c2c	0.0027387245
142	0xbc2949dc	-0.010332551
143	0x3dcae22b	0.09906419
144	0xbd5227b0	-0.05130738
145	0x3e07d097	0.13263164
146	0x3d3dab03	0.046305668
147	0x3ab8fdd9	0.0014113738
148	0x3b942c0d	0.004521853
149	0xbcf4e15c	-0.029892616
150	0xbcbe3137	-0.023216827
151	0xbdcbc5e2	-0.099498525
152	0x3d20396d	0.039117265
153	0xbd1983c1	-0.037479166
154	0x3d82803b	0.06372114
155	0xbc2a7fe0	-0.010406464
156	0xbcc93f04	-0.024566181
157	0xbc01325b	-0.007885541
158	0x3d62cf9f	0.055373784
159	0x3d690269	0.056887064
160	0xbd1f792c	-0.038933918
161	0xbd95025b	-0.0727584
162	0x3d9a4e45	0.0753446
163	0xbd30c8b7	-0.043160167
164	0x3df24b49	0.11830766
165	0x3d47a7ec	0.048744127
166	0x3da325cd	0.07966194
167	0xbd5ec24a	-0.054384507
168	0x3d1eb96b	0.038751047
169	0x3d2746a6	0.04083886
170	0x3def3d57	0.116816215
171	0xbd24ace5	-0.040203948
172	0xbc74c755	-0.014940103
173	0xbdad2a00	-0.084552765
174	0x3d0a7a3b	0.033807974
175	0xbd5e8cf8	-0.054333657
176	0x3de5bb9f	0.112174265
177	0xbe463b45	-0.19358547
178	0xba224b6d	-0.0006191049
179	0x3d068544	0.032841936
180	0xbdacbd83	-0.08434584
181	0xbcc0248e	-0.02345493
182	0x3c44de43	0.012015882
183	0x3d2f3bd6	0.042781673
184	0xbb349e53	-0.002756019
185	0x3b7d8b87	0.00386879
186	0x3d278bf0	0.04090494
187	0xbcc804c8	-0.024416342
188	0xbcd74ca8	-0.02628167
189	0x3d5c64a9	0.053806935
190	0xbd0fd05d	-0.03511082
191	0x3e205031	0.1565559
192	0x3cc4fec4	0.024047263
193	0x3c1e1ce9	0.009650447
194	0xbce83a7e	-0.028348204
195	0x3d76f800	0.060295105
196	0xbc7d7a24	-0.015471015
197	0xbddacf10	-0.10684025
198	0xbdb04c64	-0.0860832
199	0xbe011c32	-0.12608412
200	0xbd3fc043	-0.046814214
201	0x3d80a303	0.06281092
202	0x3d23eaa9	0.04001871
203	0xbd9803af	-0.074225776
204	0x3e06a12f	0.13147424
205	0x3d7294da	0.059223987
206	0xbd8854c0	-0.0665679
207	0x3d820afe	0.06349753
208	0x3bd3abb4	0.0064596776
209	0xbda503b8	-0.0805735
210	0x3d2fb653	0.042898487
211	0x3dc91281	0.098179825
212	0x3da8352d	0.082132675
213	0xbcf7fc07	-0.030271543
214	0xbd967aa1	-0.07347608
215	0x3db99aef	0.09062754
216	0x3a922d57	0.0011152428
217	0x3bef7162	0.0073072175
218	0xbc4079f6	-0.011747828
219	0xbd29661c	-0.041357145
220	0xbb6a619f	-0.0035763753
221	0xbcf3a56d	-0.029741967
222	0xbc82ec14	-0.015981711
223	0x3c9c5ae4	0.019086309
224	0xbdd53ec6	-0.10412364
225	0xbbd1fdb5	-0.006408418
226	0x3d9835a3	0.074321054
227	0xbd94e9ae	-0.07271133
228	0x3c64e807	0.013971335
229	0x3d97b419	0.07407398
230	0xbc6a7f06	-0.014312511
231	0xbd922b40	-0.071371555
232	0xbda21ac5	-0.07915262
233	0xbd29e007	-0.041473415
234	0xbcc2b5e7	-0.023768378
235	0x3d17f509	0.037098918
236	0x3d0d2acd	0.034464646
237	0x3bc1c2bf	0.005913108
238	0xbd1beb7a	-0.038066365
239	0x3c89968d	0.016795421
240	0xbe1e1822	-0.15438893
241	0xbd7d2b9b	-0.061809164
242	0x3d2a56be	0.04158663
243	0xbd00036a	-0.031253256
244	0x3dad91f5	0.08475105
245	0xbbece705	-0.007229688
246	0xbd3743b8	-0.044742316
247	0x3c56bd59	0.013106667
248	0xbd001d45	-0.031277914
249	0x3da36f8f	0.079802625
250	0xbdaaf02d	-0.08346591
251	0xbd3f12cf	-0.046648797
252	0x3d34c3c4	0.04413201
253	0x3dbb81f6	0.091556475
254	0xbcd243b8	-0.025667056
255	0xbd5619de	-0.052270763

bias f4 [256]
0	0xb99e9582	-0.000302475
1	0xbb0264c9	-0.0019896498
2	0xbab7f90a	-0.0014036011
3	0x3b34cf67	0.0027589442
4	0x3b2f1948	0.002671795
5	0xba36da1a	-0.00069752487
6	0x3714edfb	8.876897e-06
7	0x3be11c72	0.006869846
8	0x3ae5a785	0.0017521238
9	0x3afbbbbd	0.0019205731
10	0xbb3269d7	-0.002722373
11	0x3aa56bf6	0.0012620676
12	0x3bf029c9	0.0073292
13	0x3a4868b4	0.00076449965
14	0x3ac8429f	0.0015278644
15	0xba1573c0	-0.0005701147
16	0xba23ad36	-0.0006243767
17	0x3a8f1463	0.001091611
18	0xba2071ff	-0.00061205024
19	0x3b267414	0.0025398778
20	0xbac773ef	-0.0015217046
21	0x3ad5f836	0.0016324583
22	0x3a00ac3f	0.0004908479
23	0x3a046862	0.00050509546
24	0x3ac72824	0.0015194458
25	0x3a39d893	0.0007089462
26	0xba2c8b4b	-0.00065820356
27	0xbad5f4d5	-0.0016323576
28	0x395eb61d	0.00021239412
29	0xb8fd0486	-0.00012064823
30	0xba15824d	-0.0005703315
31	0x3b8d43fe	0.004311084
32	0x3b050230	0.0020295493
33	0x39add532	0.00033155974
34	0xba4a106b	-0.0007708135
35	0x3b27dbe8	0.0025613252
36	0xbb866477	-0.004101332
37	0xbb072f13	-0.0020627424
38	0x3a27758c	0.000638806
39	0x3b0d2882	0.0021539037
40	0xba5324b4	-0.00080544804
41	0xbb0c3afe	-0.0021397467
42	0xba28bd8d	-0.00064369367
43	0xbb8d457d	-0.004311262
44	0x3af7113e	0.0018849743
45	0x3aa0aad4	0.0012257942
46	0xbb3b4fe7	-0.002858156
47	0x3b18b804	0.0023303041
48	0x3acad235	0.0015474024
49	0xb9a6fa7a	-0.00031848607
50	0x3a26387d	0.0006340815
51	0xbb131cf2	-0.0022447673
52	0xb9aba071	-0.000327352
53	0xbba0e279	-0.00490981
54	0xba97ff4f	-0.0011596474
55	0x3a50e66e	0.0007968907
56	0xbb580cf0	-0.0032966696
57	0xbacbbf10	-0.0015544612
58	0x3b9f2db1	0.0048577418
59	0xba8a9af7	-0.0010574748
60	0xba85f095	-0.0010218794
61	0xba773cd8	-0.00094313687
62	0x3ac4b9b7	0.0015008961
63	0x39565a5f	0.00020442296
64	0xbadffe85	-0.0017089403
65	0xb9fa756b	-0.000477712
66	0xba46ba70	-0.0007580882
67	0x3a05383c	0.0005081927
68	0xbaacc739	-0.0013181932
69	0x3a9046d3	0.0011007435
70	0x3759f4ce	1.2991206e-05
71	0x3ba47ea3	0.005019979
72	0xb8f3a452	-0.0001161775
73	0xba7f7e2b	-0.00097462785
74	0x3b1f5e30	0.0024317615
75	0x3a1fd967	0.0006097764
76	0xbb8c6e22	-0.00428559
77	0xba7c0c9b	-0.00096149155
78	0x3b05dba2	0.00204251
79	0xbad275de	-0.0016056856
80	0x3b0a9dba	0.0021151141
81	0xbaaff36f	-0.0013423989
82	0xb9e9679b	-0.00044518415
83	0xbb0bfa5c	-0.0021358943
84	0x3b137db2	0.002250534
85	0xb9a0e174	-0.00030685554
86	0xbb2950d0	-0.0025835522
87	0x3b602e34	0.0034207227
88	0x3afad0bc	0.0019135694
89	0x393c3401	0.0001794845
90	0xb930fabe	-0.00016878077
91	0x3ae157f0	0.0017192345
92	0xbaf14b1e	-0.0018409227
93	0x3ac5b639	0.0015084214
94	0x3b27a37d	0.0025579624
95	0x3b22d4cb	0.0024846073
96	0xbad05d2d	-0.0015896909
97	0xbba2ec73	-0.0049720346
98	0xbb967660	-0.004591748
99	0x3a671374	0.00088148494
100	0x3b133a90	0.0022465326
101	0x3a87263b	0.0010311076
102	0x3baac764	0.0052117575
103	0x3add2645	0.0016872367
104	0xba391199	-0.0007059812
105	0x39807613	0.00024502035
106	0x3bc40c51	0.0059829135
107	0xbb409527	-0.0029385777
108	0xb9bd9eb9	-0.00036167147
109	0x3a0923c4	0.0005231465
110	0x3acc6bcf	0.0015596094
111	0x3b2dc284	0.0026513645
112	0x3a290ace	0.00064484484
113	0x3a6ffdbc	0.0009154936
114	0xba494a0a	-0.0007678574
115	0xbb14ff15	-0.0022735049
116	0x3a9197de	0.0011107882
117	0x391bfba7	0.000148757
118	0x3a7d1903	0.0009654911
119	0xbb767066	-0.0037603616
120	0x3949c93c	0.0001924382
121	0xbb5dfc63	-0.0033872358
122	0xba88ce38	-0.0010437435
123	0xb9fce421	-0.00048235155
124	0xbaf17f6b	-0.0018424814
125	0x3aa78488	0.0012780586
126	0x3b0e2a51	0.0021692703
127	0x3aa11214	0.0012288713
128	0x3b1f4978	0.0024305265
129	0x3abc4eb1	0.0014366714
130	0xbae1280b	-0.0017178071
131	0xbaefe80a	-0.0018303406
132	0x3ac03c45	0.0014666399
133	0x3b90687d	0.004406987
134	0xbb0aa992	-0.00211582
135	0xbb5542e2	-0.0032541086
136	0x3a5355f4	0.0008061819
137	0xbacf04da	-0.0015794293
138	0x399ad4f7	0.0002953184
139	0xbb32a5ec	-0.0027259542
140	0xbb0080d8	-0.0019608047
141	0xba11b395	-0.0005558071
142	0x3ac57695	0.0015065247
143	0xbabd3468	-0.0014435174
144	0x3b13749d	0.0022499927
145	0xbb33681f	-0.0027375293
146	0x3af7ae96	0.0018896635
147	0x3b67a983	0.003534884
148	0xbacecd38	-0.0015777713
149	0x3ace5083	0.0015740547
150	0xbad91a4f	-0.0016563627
151	0xba23a76c	-0.00062429043
152	0x3a9829f7	0.0011609186
153	0x39ae05b2	0.0003319211
154	0x3b4341d0	0.0029793866
155	0xbb429ef1	-0.0029696787
156	0xba14669f	-0.00056610437
157	0x3b5ec8c9	0.003399419
158	0x3b5fdec3	0.0034159876
159	0xbb53f5be	-0.0032342519
160	0xba9cb9a5	-0.0011957182
161	0xba0330fd	-0.0005004553
162	0x3af48efd	0.0018658336
163	0x38ea55fd	0.00011174006
164	0xb909d27c	-0.0001314375
165	0xbabecfef	-0.0014557819
166	0xbb1af9cb	-0.0023647423
167	0x388c588b	6.6922126e-05
168	0xbaada30d	-0.0013247445
169	0x3b938ad3	0.004502633
170	0x39e8bf5c	0.00044393062
171	0xba31221f	-0.00067570986
172	0xba711482	-0.00091964763
173	0x3b0f71a6	0.0021887808
174	0x3ab087ed	0.0013468243
175	0xbb0a63d1	-0.0021116624
176	0x3aa85f3f	0.0012845768
177	0xba71dd0c	-0.0009226359
178	0xbba1d961	-0.0049392437
179	0x3b2ee105	0.0026684415
180	0xba5bafee	-0.00083804026
181	0x3aff847e	0.0019494442
182	0x3a98facb	0.0011671422
183	0xbb5eb5f1	-0.0033982957
184	0x3a474175	0.00076010014
185	0x3b24de1b	0.00251568
186	0xbadaf485	-0.0016704953
187	0xbb1b0265	-0.002365255
188	0xb9b08a07	-0.00033672174
189	0xbb116f8b	-0.002219173
190	0x3abd11a4	0.0014424813
191	0x3b0bfc71	0.0021360184
192	0xba8c8238	-0.001071996
193	0x3ab254e7	0.0013605625
194	0xbaf804ee	-0.0018922368
195	0x3b9648e2	0.004586325
196	0x3aba0717	0.0014192787
197	0xbab2b32f	-0.0013633723
198	0x3b2e6b78	0.002661435
199	0x3b88fdb1	0.004180633
200	0x39d2e7a6	0.00040226913
201	0x3ad66eff	0.0016359984
202	0x3ae094a5	0.0017134143
203	0x3a104572	0.0005503512
204	0x3a7fa638	0.00097522466
205	0xbb0c3b03	-0.0021397478
206	0x3b294de5	0.0025833782
207	0xbaf32fb9	-0.0018553651
208	0xba906ae3	-0.0011018183
209	0x3935fe8b	0.0001735633
210	0x3aadf5c0	0.0013272092
211	0x3b7db06e	0.0038709897
212	0xb9569061	-0.00020462416
213	0x39f3729d	0.00046433965
214	0x3af82fa0	0.0018935092
215	0xbada7742	-0.0016667622
216	0xbb820149	-0.0039674384
217	0x3aef74ec	0.0018269098
218	0x3b0aaaab	0.0021158855
219	0x38cbb54e	9.713565e-05
220	0x39f75dfb	0.00047181532
221	0xba4012e6	-0.0007327035
222	0x3a8bd5ab	0.0010668536
223	0xba9ec413	-0.0012112878
224	0x3b396b7a	0.002829282
225	0x3ad8c22a	0.0016537358
226	0xbbb5d5df	-0.005549177
227	0x3a323bf0	0.00067990925
228	0xbb528001	-0.0032119753
229	0x39490f0f	0.00019174464
230	0xba7fbaae	-0.00097552955
231	0xbb0f1d30	-0.0021837465
232	0xba2229db	-0.00061860465
233	0xba5bd500	-0.00083859265
234	0x39ac1633	0.00032822936
235	0xbb29b952	-0.0025897813
236	0x3b6693d4	0.0035183327
237	0x3ad3d42d	0.0016161256
238	0x3b36aed2	0.0027875197
239	0xba6151fa	-0.00085952843
240	0x3a296265	0.00064615003
241	0x3a6e96f7	0.0009101475
242	0xba95248f	-0.0011378693
243	0x3af4e32d	0.0018683426
244	0x3acd4d8c	0.001566337
245	0xba8846c5	-0.0010397068
246	0xba994dc2	-0.0011696147
247	0x3b99371b	0.0046757585
248	0x3a74b324	0.00093345554
249	0x3aa89671	0.0012862218
250	0x39b79f33	0.00035023093
251	0xbb41fa44	-0.0029598633
252	0x3b28b6b0	0.0025743656
253	0xbb09fb39	-0.0021054281
254	0xba991917	-0.0011680451
255	0x3a4af7be	0.0007742605

weight f4 [256, 18]
0	0x3dc5a02a	0.096496895
1	0xbe08add1	-0.13347556
2	0x3efd9603	0.49528512
3	0xbc3f7f18	-0.011688016
4	0x3dfa83b9	0.12232155
5	0x3e455903	0.19272237
6	0x3e278caa	0.16362253
7	0x3dbec3b3	0.093146704
8	0xbe5c60df	-0.21521328
9	0x3e4181eb	0.18897216
10	0xbd5ce9ca	-0.053933896
11	0xbe4efbb6	-0.20213208
12	0x3e4f4ab3	0.20243339
13	0x3f19f919	0.6014572
14	0x3e2221b8	0.15833175
15	0x3dff8fe0	0.12478614
16	0x3dc1e195	0.094668545
17	0xbe730707	-0.2373315
18	0xbe470c07	-0.19438182
19	0x3e2ff007	0.17181407
20	0x3dd916b3	0.10600033
21	0xbd9c1a3c	-0.07622191
22	0xbdd29729	-0.10282738
23	0x3e7a892e	0.24466392
24	0x3ec0bbe1	0.3764334
25	0x3c96abde	0.0183925
26	0x3eab2263	0.33424672
27	0xbe15739b	-0.14594881
28	0xbea503ef	-0.32229564
29	0xbeca7af2	-0.39546925
30	0x3df70c79	0.12062926
31	0xbdf80872	-0.12110986
32	0x3c590173	0.013244974
33	0xbede62a9	-0.43434647
34	0xbda5c37c	-0.08093926
35	0xbe9b1a4d	-0.30293503
36	0x3e7381ba	0.23779956
37	0x3e84e157	0.2595317
38	0x3e0c70bf	0.13714884
39	0xbe28a5df	-0.16469525
40	0xbdfc3497	-0.12314718
41	0xbe05233c	-0.13001722
42	0xbd262e8e	-0.04057174
43	0xbdf8fa12	-0.12157072
44	0x3ec90b87	0.39266607
45	0xbea8ed46	-0.32993525
46	0xbdc8cb92	-0.09804453
47	0xbd1f5d06	-0.038907073
48	0x3e2dba12	0.16965511
49	0xbf088284	-0.5332415
50	0xbd873581	-0.06602002
51	0xbe925294	-0.28578627
52	0xbe9e4e19	-0.3091896
53	0xbd3576f0	-0.04430288
54	0x3ef98942	0.48737532
55	0x3e742ef5	0.23846038
56	0xbe94d4c0	-0.29068565
57	0x3d11c2d7	0.035586204
58	0xbe322e53	-0.17400484
59	0xbdf4a1b4	-0.11944905
60	0xbf204105	-0.6259921
61	0x3d585fea	0.052825846
62	0x3da65e6d	0.08123479
63	0x3e1933df	0.14961194
64	0x3d6222f2	0.055209108
65	0x3e05cd9f	0.1306672
66	0xbd8139f0	-0.06309879
67	0x3da629e2	0.08113457
68	0xbe3f7475	-0.18696769
69	0x3e736679	0.23769559
70	0x3ccc7439	0.024957763
71	0x3e319577	0.17342173
72	0x3c9c77f9	0.019100176
73	0x3d1dc220	0.03851521
74	0x3ec24343	0.37941942
75	0xbe35971d	-0.17733426
76	0xbe2f4810	-0.17117333
77	0x3ec722a8	0.38893628
78	0xbda03873	-0.07823267
79	0xbe43e9dd	-0.1913218
80	0x3ecceb3e	0.40023226
81	0x3cb5be40	0.022185445
82	0xbd5682b7	-0.052370753
83	0x3e8f4102	0.27979285
84	0xbdbe24a1	-0.0928433
85	0xbde1746c	-0.11008534
86	0x3d8dc3e7	0.06922131
87	0x3dd62359	0.10455961
88	0x3e3b9566	0.1831871
89	0xbf06a31a	-0.52592623
90	0xbe4d39ee	-0.2004163
91	0xbdf16acf	-0.1178795
92	0xbe0d6c44	-0.13810831
93	0x3f0ff586	0.56234014
94	0x3dbbb223	0.09164836
95	0xbe9e8f6a	-0.3096879
96	0x3d582425	0.052768845
97	0x3e0489ff	0.12943266
98	0xbeafeab4	-0.34358752
99	0xbeaf1b11	-0.34200338
100	0x3d92fb1f	0.07176804
101	0xbd7d6127	-0.06186023
102	0x3e105607	0.14095317
103	0x3cc55349	0.024087565
104	0x3e4d79c8	0.20065987
105	0x3c710395	0.014710327
106	0x3eb8732e	0.36025375
107	0x3e5d4494	0.21608192
108	0x3ecb9bf9	0.39767435
109	0x3d4d2d9c	0.050092325
110	0xbc9bcd49	-0.019018786
111	0x3e19fa37	0.15036856
112	0x3dc4d688	0.09611231
113	0x3dbe5e82	0.0929537
114	0x3de87b05	0.11351589
115	0x3e9b77f2	0.3036495
116	0x3e07baa9	0.13254799
117	0xbec1fbff	-0.3788757
118	0x3eb7019c	0.35743415
119	0xbe2a748e	-0.16646025
120	0xbed1b0d6	-0.40955228
121	0x3da23a16	0.07921235
122	0xbdbc5e44	-0.09197667
123	0x3ed24f7b	0.41076264
124	0xbe3a6ba9	-0.18205132
125	0xbc50a4d3	-0.01273461
126	0x3e11b81c	0.14230388
127	0x3d8a6acc	0.06758651
128	0x3d881db4	0.066462904
129	0xbe06001c	-0.13085979
130	0xbc912fab	-0.017722925
131	0xbd05a180	-0.03262472
132	0xbe90911c	-0.2823571
133	0x3e08d8ce	0.13363954
134	0xbe40dc40	-0.18834019
135	0xbe9aa700	-0.30205536
136	0xbe58fe80	-0.21190834
137	0x3e8370cb	0.25671992
138	0x3de3204b	0.11090144
139	0xbf15c526	-0.5850395
140	0x3dbeece8	0.0932253
141	0xbefac8cb	-0.48981318
142	0x3e271e9f	0.16320275
143	0xbca1dffa	-0.01976012
144	0xbecd0d15	-0.40049043
145	0xbe3fb3db	-0.18720953
146	0x3d8700bc	0.06591937
147	0x3de7c07e	0.11316012
148	0xbe1c2fbf	-0.15252589
149	0x3f0a3462	0.5398618
150	0xbe871d54	-0.26389563
151	0xbdb22ba3	-0.08699729
152	0xbd9c7893	-0.07640185
153	0x3dbe9206	0.093051955
154	0xbd2f4696	-0.042791925
155	0x3e72e61e	0.23720595
156	0x3d1a0f6d	0.037612367
157	0xbd8f5a69	-0.06999666
158	0x3e63e676	0.22255883
159	0x3ead66e7	0.3386757
160	0xbec0e785	-0.37676635
161	0x3d979b95	0.07402722
162	0x3e956127	0.29175684
163	0xbe5b2267	-0.21399842
164	0x3e81d720	0.2535944
165	0xbea7ac9b	-0.32748875
166	0xbd9b1a83	-0.07573416
167	0xbd054dea	-0.032545008
168	0xbbca775b	-0.006178779
169	0x3bdd3ca6	0.0067516146
170	0xbd65a7a5	-0.05606808
171	0xbe8a3503	-0.2699357
172	0x3e4e0fbc	0.2012319
173	0x3db2c767	0.08729439
174	0x3db72914	0.08943382
175	0x3e267454	0.16255313
176	0x3ed7189e	0.4201097
177	0xbf1421c9	-0.5786405
178	0x3c617a7b	0.013762112
179	0x3e2323a2	0.15931562
180	0xbe583db3	-0.21117286
181	0xbe6dd755	-0.23226674
182	0x3dd6554f	0.1046549
183	0x3c727003	0.0147972135
184	0x3ed1374f	0.4086251
185	0xbecce751	-0.4002023
186	0xbe8ae683	-0.2712899
187	0xbd61275d	-0.05496918
188	0x3e73b21f	0.23798417
189	0x3ddb09ba	0.106952146
190	0xbdb24e86	-0.087063834
191	0xbed0ca0a	-0.40779144
192	0x3e144236	0.14478382
193	0xbe23d10f	-0.15997718
194	0x3eba2e17	0.3636329
195	0x3d01640b	0.03158955
196	0x3e6fc471	0.2341478
197	0xbdf74122	-0.1207297
198	0xbe15e5d5	-0.14638455
199	0x3db1b6e4	0.08677462
200	0xbeb6b7df	-0.35687158
201	0xbef9453f	-0.48685643
202	0xbd874178	-0.06604284
203	0x3eade547	0.33963987
204	0xbdebd639	-0.11515469
205	0x3dfa25ca	0.12214239
206	0x3e2f066e	0.17092296
207	0x3ecb747c	0.39737308
208	0x3e133995	0.14377435
209	0xbe43d0a6	-0.19122562
210	0xbe222db4	-0.15837747
211	0x3e1e5e14	0.15465575
212	0xbe740e72	-0.23833635
213	0xbe9adb9f	-0.30245683
214	0x3e2a32f1	0.16620995
215	0x3d5b56ea	0.053549685
216	0x3d59f10e	0.053208403
217	0xbe1d36fa	-0.15353003
218	0x3e7f5951	0.24936415
219	0x3c94259e	0.018084344
220	0xbe42c58f	-0.19020675
221	0xbeab80b8	-0.33496642
222	0xbd99b856	-0.075058624
223	0xbeb0eeee	-0.3455729
224	0xbe118718	-0.1421169
225	0x3ec975ec	0.3934778
226	0x3e18f92e	0.14938805
227	0x3decee43	0.11568882
228	0xbdfdd682	-0.1239443
229	0x3e8990a8	0.26868176
230	0x3d21a8d2	0.03946764
231	0xbeb171b5	-0.34657064
232	0xbe8bcdd8	-0.27305484
233	0xbeb9cb61	-0.36287978
234	0x3ea3cb59	0.3199108
235	0x3e17ee84	0.1483708
236	0xbea4125e	-0.32045263
237	0xbe1c90a9	-0.15289558
238	0x3dd7de14	0.10540405
239	0x3e7b0463	0.24513392
240	0x3e38c961	0.1804557
241	0x3f02b9fe	0.5106505
242	0x3da8842f	0.08228337
243	0x3df81145	0.12112669
244	0x3ed2d16a	0.41175395
245	0xbdc77725	-0.09739522
246	0x3e623ca2	0.22093442
247	0x3e91168c	0.28337514
248	0xbd98557b	-0.07438179
249	0xbdd716a0	-0.10502362
250	0xbe416bec	-0.18888825
251	0x3dabc8ae	0.08387886
252	0xbe6554f7	-0.22395693
253	0x3f20c136	0.62794816
254	0xbdd9d02d	-0.106354095
255	0x3e26c6ae	0.16286728
