trained_policies_ppo/trained_models/policy_model_mrx_ppo/model.pt (torch, 736549 bytes, 14 tensors)

_last_output f4 [128, 9]
000000 ca 84 5e be e2 91 9c bc d3 51 7b be c5 51 0f 3e
       -0.21730343 -0.019112531 -0.24542932 0.13996036
000010 af da 1e be 45 4c dc 3e 99 4a 4e 3e 97 45 aa 3e
       -0.15513109 0.4302694 0.20145644 0.33256218
000020 db 16 69 be f9 a9 3d be a6 9a 2a bc 98 0c 68 be
       -0.22762625 -0.1852187 -0.010412848 -0.22661054
000030 fb 2d 1e 3e 02 21 e2 bd 10 2b a0 3e 0e fc 3c 3e
       0.15447228 -0.11041452 0.31282854 0.18455526
000040 31 9f 97 3e 8a 15 68 be ea dc 65 be d1 9f b5 3d
       0.2961364 -0.22664467 -0.22447553 0.08868373
000050 79 04 54 be 46 68 58 3e 99 c2 cb bd 1a 1d 8c 3e
       -0.20704831 0.21133527 -0.09949226 0.27365953
000060 cd a2 37 3e d5 8e 2c 3e 9d 31 53 be 29 06 46 be
       0.17933197 0.16851361 -0.20624395 -0.19338287
000070 3f aa 27 bd c7 77 83 be 17 aa 2b 3e 54 ed 0b be
       -0.040933844 -0.2567732 0.16764103 -0.13664752
000080 e8 57 aa 3e 4d 5b 92 3e df fb 8e 3e db cf 65 be
       0.33270192 0.28585282 0.27926537 -0.22442572
000090 3e 7e 5b be 4c 32 9f bd 8b 81 6a be ce 04 e7 3d
       -0.21434876 -0.07773265 -0.22900979 0.11280213
0000a0 6a de 6a be 4d 76 e8 3e d4 34 9f 3e 0f 7b a7 3e
       -0.22936407 0.45402756 0.31094992 0.32711074
0000b0 f6 b3 56 be 52 f9 2a be 9f b1 03 3c c0 d3 6e be
       -0.20967087 -0.1669667 0.008037954 -0.23322964
0000c0 ea 77 fa 3d 9a 3f 0f be 17 0e c7 3e c0 6a 64 3e
       0.12229903 -0.13989106 0.38877937 0.22306347
0000d0 8d 55 48 3e 4c 8d 3a be 9b b5 86 be 69 73 30 3e
       0.19563885 -0.18217963 -0.2631043 0.17231525
0000e0 a3 8e 46 be 02 21 a3 3e 47 9c 2b bd 0f 9a 97 3e
       -0.19390349 0.3186112 -0.041897085 0.29609725
0000f0 d7 d7 ba bd a2 0d 98 3e 18 71 81 be 9c ca 55 be
       -0.091231994 0.296979 -0.25281596 -0.2087807
000100 46 29 33 3e c2 90 7d be 1a f1 b8 3e 5d d5 d7 bc
       0.17496213 -0.24762252 0.36121446 -0.026346857
000110 13 df 2d 3e 42 41 0f bb 42 99 4d 3e ab f3 60 be
       0.16979627 -0.0021858965 0.20077994 -0.21967952
000120 4e 1d 42 be 8f e8 a4 bd b4 18 9a be ac 0b 12 3e
       -0.18956491 -0.080521695 -0.30096972 0.14262265
000130 d3 94 39 be ce ef d2 3e de d5 a3 3e d0 63 a8 3e
       -0.18123178 0.4119858 0.31999105 0.3288865
000140 9a aa 59 be a4 eb 64 be 62 8c 1b bd 46 a5 70 be
       -0.21256486 -0.22355515 -0.037975676 -0.23500547
000150 4d f7 e4 3d 77 fe 52 be 00 25 e7 3e 6d cd ad 3e
       0.111799814 -0.20604883 0.45145416 0.3394579
000160 5c 2a 99 3e 9b 84 6a be ea 83 4c be 3a c1 1c bd
       0.2991513 -0.22902147 -0.19972196 -0.038270213
000170 3e 0f 85 be 93 94 1f 3e 58 09 05 be 2c a3 c6 3e
       -0.2598819 0.1558402 -0.12991846 0.38796365
000180 3b 64 51 3e b0 ca a8 3e 0a 2e 6d be 08 51 4a be
       0.20448391 0.32967138 -0.23162094 -0.19757473
000190 9c 4e 11 3e a7 fe 75 be 58 90 a6 3e 46 34 3a bd
       0.14190143 -0.24022923 0.32532 -0.045460008
0001a0 90 e6 36 3e 9c 33 f7 3c 43 9e 5d 3e 88 77 60 be
       0.1786139 0.030175976 0.21642403 -0.21920598
0001b0 79 e4 3c be e2 d8 95 3c 87 54 71 be e0 c3 64 3e
       -0.1844653 0.018291894 -0.23567401 0.22340345
0001c0 1b a1 ae bd 51 34 87 3e b4 27 c5 3d 49 c4 95 3e
       -0.08526822 0.26407102 0.096267134 0.29251316
0001d0 d7 69 59 be 3a 08 33 be ff a9 f8 3d b4 7b 62 be
       -0.21231781 -0.17483607 0.12141799 -0.22117501
0001e0 67 3a 92 3e ee 6a 01 bd 65 25 f6 3d e7 fe 76 3d
       0.28560182 -0.031596117 0.12018851 0.060301688
0001f0 32 38 4f 3e 02 07 64 be d8 34 46 be 57 91 77 3c
       0.2023628 -0.22268298 -0.19356096 0.015110335
000200 f7 8b 58 be 5b 84 42 3e 9f 6c 0b be 80 ab 8c 3e
       -0.21147142 0.18995802 -0.13615654 0.27474594
000210 72 22 1f 3e 46 70 92 3e 7b 1b 3c be 38 10 78 be
       0.15540484 0.28601283 -0.18369858 -0.24224937
000220 00 e9 cc bc 8b 76 5d be 27 1d 1f 3e 31 bb 29 be
       -0.025013447 -0.21627252 0.15538464 -0.16575314
000230 92 c4 d9 3e e0 7b 58 3e be ff a9 3e 96 7c 6f be
       0.42532784 0.21141005 0.33202928 -0.2338737
000240 75 9e 51 be c9 1b e9 3d 27 96 78 be 4f ce 97 3e
       -0.20470603 0.11382253 -0.24276029 0.29649588
000250 86 98 94 bd 93 0b 69 3e 01 69 8d 3d 3b 08 78 3e
       -0.07255654 0.22758321 0.069047935 0.2422189
000260 ae 75 69 be f9 ea 33 be b4 a9 6f bd e5 3c 70 be
       -0.22798797 -0.17570104 -0.05851145 -0.2346073
000270 8b 64 fe 3d 7c 00 03 be b8 13 b9 3e c5 84 52 3e
       0.12421521 -0.12793154 0.36147857 0.2055846
000280 ca 34 95 3e fa 6d 3f be 6a 2e 1e be 30 af 68 bc
       0.29141837 -0.18694296 -0.15447393 -0.014201924
000290 84 2c 6d be cf 84 42 3e 26 82 e7 bd 1b c8 63 3e
       -0.23161513 0.18995975 -0.11304121 0.22244303
0002a0 1b 3f 1d 3e 4c 12 95 3e 37 8d 2d be ee d3 2c be
       0.15356104 0.29115522 -0.169484 -0.1687772
0002b0 f3 29 b5 3c ab 24 91 be c1 c8 90 3e 85 ca 70 bd
       0.02211473 -0.28348288 0.28278163 -0.058786888
0002c0 9c 72 3e 3e f4 84 5d 3e 33 57 51 3e bf 99 57 be
       0.18598408 0.21632749 0.2044342 -0.21054743
0002d0 31 6b 55 be 72 d9 ca 3d 2d f2 83 be a1 f5 50 3e
       -0.20841672 0.09904756 -0.25770703 0.204062
0002e0 66 8b f4 bd 90 42 b8 3e 61 9d 60 3e af 05 42 3e
       -0.11940651 0.35988283 0.21935035 0.1894748
0002f0 8d 19 79 be 97 a9 48 be 93 91 d5 3d 86 50 74 be
       -0.24326153 -0.19595943 0.10428157 -0.23858842
000300 3d 4b 92 3e 71 71 be bd 1f 9b 7a 3e bb 60 21 3e
       0.28573027 -0.09298981 0.24473237 0.15759556
000310 4b 70 1b 3e 1c ea 4b be ef 91 4e be 25 6e 95 bc
       0.15179555 -0.19913524 -0.20172857 -0.018240998
000320 25 09 8d be 6b 85 18 3e 42 bf 39 be 91 3c c9 3e
       -0.2754604 0.14894645 -0.18139365 0.3930402
000330 98 9d a5 3e 03 6d 94 3e d5 8e 61 be cb 4e 10 be
       0.32346797 0.2898942 -0.22027142 -0.14092557
000340 ac 41 3b bd 70 d0 8c be b9 37 1e 3e 2b 95 1b be
       -0.045716926 -0.27502775 0.15450944 -0.15193622
000350 70 67 9d 3e 96 88 8c 3e 02 28 84 3e d0 2a 30 be
       0.3074298 0.27447957 0.25811774 -0.17203832
000360 ea d4 22 be 7f 6d cc 3c a2 95 84 be 5e 52 68 3e
       -0.15901533 0.024954556 -0.2589541 0.2268767
000370 69 3f 2b bd d9 2b 4d 3e 32 3c fd 3d 8a 91 7d 3e
       -0.04180852 0.20036258 0.12364997 0.2476255
000380 22 d3 53 be ff 6f 18 be ce f1 08 bd 65 54 51 be
       -0.2068601 -0.14886473 -0.033433728 -0.2044235
000390 d6 1b 2c 3e 1d 0f 60 bd 0a bb 57 3e 02 d2 00 3e
       0.16807494 -0.054701913 0.21067443 0.12580112
0003a0 34 f8 88 3e 2e cc 33 be c4 68 27 be 3d c8 88 3d
       0.26751864 -0.17558357 -0.16348559 0.066788174
0003b0 0d 3f 4e be 20 98 6b 3e b4 fe c4 bc 15 da 12 3e
       -0.2014124 0.2300725 -0.024047233 0.14341004
0003c0 6e ff a6 3d 14 08 3c 3e d8 11 46 be 5f e7 4f be
       0.08154188 0.18362457 -0.19342744 -0.20303105
0003d0 3c 94 13 3b ce bd 47 be dc 46 fc 3d fa fd 11 be
       0.0022518774 -0.19505998 0.12318203 -0.1425704
0003e0 60 ed bc 3e 99 dc 75 3e 25 84 76 3e 01 76 64 be
       0.36899853 0.24009933 0.24073847 -0.2231064
0003f0 28 30 31 be f0 4d 2c 39 a6 63 6d be e1 66 55 3e
       -0.17303526 0.00016432232 -0.23182544 0.20840026

weight f4 [9, 256]
000000 0e d7 aa 3b 49 5c 90 ba 51 b5 3f ba 7d 8a 81 3a
       0.005213625 -0.0011013831 -0.000731309 0.0009883192
000010 31 e0 ff 38 c1 b2 32 3b 86 6b d4 ba c6 42 ea 3a
       0.000122011064 0.002726719 -0.0016206361 0.0017872683
000020 f7 ac 44 bb 14 0c 5b bb 0f dc 5a 3b 08 99 0c 3a
       -0.0030010322 -0.0033423947 0.0033395325 0.00053633796
000030 ce 48 24 bb ee 8a 6e bb 7f ad c5 ba dd 96 94 bb
       -0.002506781 -0.0036398727 -0.0015081613 -0.004534586
000040 6b 88 3e 3b 97 5e d4 3a 20 78 ef 3a d9 2e 89 3b
       0.002907301 0.0016202506 0.0018270053 0.004186493
000050 2e c3 b8 39 24 9d 00 3b 68 a2 6b ba ec 2c ba ba
       0.00035240635 0.0019624913 -0.0008988739 -0.0014204062
000060 ec 2d b2 3a 36 de c7 ba 1a a0 35 bb 81 df e0 38
       0.0013594008 -0.0015248719 -0.0027713836 0.00010722783
000070 b0 2a ac 39 9e 51 25 bb a3 fb 28 bb 32 e5 7e ba
       0.000328382 -0.002522565 -0.0025784753 -0.0009723484
000080 2a 40 0f bb dd 46 1b ba 97 ed cd 3a 9e 5b ae 39
       -0.0021858313 -0.000592334 0.0015711066 0.00033256126
000090 c4 ab 39 bb 9a bb f8 ba 79 39 09 bb 49 56 7a 39
       -0.002833114 -0.0018976808 -0.0020938797 0.00023874002
0000a0 19 cb ff b9 23 43 2e bb 4b 25 58 bb 29 ef 1b 3b
       -0.0004878871 -0.002659031 -0.0032981213 0.0023793674
0000b0 91 d2 3e ba 74 d3 08 bb 5c d4 46 ba 50 f1 49 3b
       -0.00072793016 -0.002087799 -0.00075847446 0.0030814
0000c0 e6 a5 54 b9 78 75 51 ba 66 66 51 ba ce e6 a4 b9
       -0.00020279697 -0.00079902215 -0.0007987976 -0.0003145248
0000d0 44 91 1b 3b 18 f7 04 bb 0b 51 e5 3a ee 65 19 bb
       0.0023737708 -0.002028888 0.0017495466 -0.0023406702
0000e0 38 27 55 3a 05 49 e1 39 62 b4 09 b9 80 73 ac ba
       0.0008131149 0.00042969748 -0.00013132536 -0.001315698
0000f0 79 23 da 3a f4 88 84 ba 04 39 1a 3b 16 c6 0d bb
       0.0016642652 -0.0010111616 0.002353252 -0.002163296
000100 d2 ad 88 3b a5 b5 9e ba c6 b2 3d b7 8f 84 88 39
       0.0041711116 -0.0012108578 -1.1306902e-05 0.00026038705
000110 bd 51 13 bb 02 a3 cd b9 f4 d0 75 bb 15 8d 26 bb
       -0.002247914 -0.00039222097 -0.003750858 -0.0025413681
000120 a8 a3 18 3b f0 ee f5 3a f9 ca 8c bb 47 ba 11 bb
       0.0023290906 0.0018763226 -0.004296657 -0.0022236274
000130 2e f0 1a bb 44 df f8 3a 8a 58 32 bb 45 de 0c bb
       -0.0023641693 0.0018987437 -0.0027213418 -0.0021494788
000140 d8 bb 1f 3b 8a c7 25 bb 41 70 31 bb 84 83 bf ba
       0.0024373438 -0.0025295937 -0.0027074965 -0.0014611338
000150 82 ea 58 ba 3a 37 87 3b 70 2d 25 3b fd 89 d1 3a
       -0.00082746905 0.0041264566 0.0025204085 0.0015986558
000160 15 50 2d 3b dc fe 53 ba 73 f4 42 bb c3 4d 09 bb
       0.0026445438 -0.0008086988 -0.0029747754 -0.002095089
000170 10 18 c7 b7 6f e8 e1 3a f7 72 97 3a 32 8c 25 bb
       -2.3733854e-05 0.0017235408 0.0011554648 -0.0025260565
000180 1e 10 1c 3b 11 c0 79 3b d1 4f df ba 95 15 38 bb
       0.0023813318 0.0038108865 -0.0017037337 -0.0028089036
000190 34 b3 d8 3a 08 ae 37 bb 5c 64 05 bb 25 cf 3b 3b
       0.0016532899 -0.0028027315 -0.0020354008 0.0028657403
0001a0 cc ae 03 b9 c7 13 6a bb 8c 70 4e bb 18 cc 73 bb
       -0.0001255825 -0.0035717355 -0.0031500189 -0.0037200507
0001b0 17 d0 19 ba 24 11 1e ba ba b9 f4 3a b4 31 4c 3b
       -0.00058674946 -0.0006029776 0.0018671073 0.0031157555
0001c0 0c 79 69 3b 2c 25 64 3b d1 bd 9d 3a 01 aa f0 ba
       0.0035625128 0.0034812195 0.0012034719 -0.0018361212
0001d0 97 41 9c ba 66 b3 25 bb c7 47 0e bb c7 1c 3a 3b
       -0.0011921403 -0.0025283932 -0.0021710263 0.00283985
0001e0 9f ed 4b 3b 74 11 4e 3a ff 7b b3 ba d0 87 d6 39
       0.0031116975 0.0007860877 -0.001369357 0.0004091845
0001f0 d3 e0 57 b8 84 13 ab 3a bb b6 70 3a 65 65 16 bb
       -5.146938e-05 0.0013052081 0.00091825024 -0.002294862
000200 b1 fe 20 bb ea 98 e8 3a d2 54 98 3a 2e 97 2c 3b
       -0.002456587 0.0017745767 0.0011621958 0.0026335227
000210 9e c4 25 3a f4 56 e2 3a f5 23 2a 3b f4 a7 09 3b
       0.0006323549 0.0017268346 0.0025961373 0.002100465
000220 2f 6c 0e b9 d1 90 c6 ba 0f 23 3b 3b 2b fd 1b bb
       -0.00013582477 -0.001514936 0.0028554832 -0.0023802023
000230 8b 86 c3 ba 8a 2d c8 3a f3 89 ee ba 1a 21 99 3a
       -0.0014917416 0.0015272361 -0.0018199071 0.0011682839
000240 30 d5 f1 39 59 e2 be 3a 25 3c d8 3a 7d cc 1b ba
       0.0004612594 0.0014563306 0.0016497417 -0.0005943252
000250 7d 46 c5 ba fd c4 77 3a 20 3b fc 3a 3b 50 a0 3a
       -0.0015050914 0.0009451656 0.0019243695 0.0012230942
000260 00 d5 9f 38 6e 4d 7d 3b e8 c3 c3 3a 4c a5 48 3a
       7.621385e-05 0.0038650888 0.0014935704 0.00076540257
000270 1e c9 76 3b 8d 8d eb ba d2 06 f6 ba 5b 57 c6 3a
       0.0037656496 -0.0017971263 -0.0018770343 0.0015132235
000280 e9 45 29 3b 42 9c 0a bb 6b dc fc 39 13 42 02 bb
       0.0025829023 -0.0021150266 0.0004822941 -0.001987581
000290 5c 2f 3b 3b 70 90 82 3a 0c ce 43 3a 76 10 e6 3a
       0.0028562164 0.0009961259 0.0007469363 0.0017552513
0002a0 4c 06 aa 39 fb 04 19 3b fe 42 5e bb 62 90 2c 3b
       0.00032429618 0.0023348916 -0.0033914442 0.0026331176
0002b0 29 e4 65 bb 39 2a 24 bb 11 68 90 3a fb 72 ed 3a
       -0.003507862 -0.002504958 0.0011017342 0.0018115932
0002c0 9b 59 0c bb 37 eb 06 3b c7 0e 13 bb 2e 1f b1 3a
       -0.0021415714 0.0020586976 -0.0022439228 0.0013513321
0002d0 39 08 be 3a 46 82 3c bb 1b 2d e3 39 21 a5 f1 b9
       0.00144983 -0.0028764172 0.0004333042 -0.00046090133
0002e0 48 9e 5b 3b 96 85 2c bb 19 af 81 3b 41 16 b8 ba
       0.003351109 -0.002632474 0.003957641 -0.0014044718
0002f0 ae 2f 61 bb 2f ff 0f bb 69 98 18 39 2c 10 f8 39
       -0.0034360695 -0.002197217 0.00014552627 0.00047314295
000300 31 ec 08 bb be 2f 9c 3a 4e df bc 3a df 14 a3 3a
       -0.0020892734 0.0011916084 0.0014409812 0.0012442133
000310 98 32 46 3a 74 b6 b2 ba 59 f4 30 b9 d0 b4 8c ba
       0.00075606396 -0.0013634698 -0.00016875695 -0.0010735039
000320 ea 0e 61 3b 61 de 0c 3b 09 27 fd 39 2d 3e 51 b9
       0.0034341165 0.0021494853 0.00048285004 -0.00019954955
000330 53 90 69 3b 97 b3 22 3b 73 c3 59 3b dc c7 9d 38
       0.0035639002 0.0024826282 0.003322807 7.52357e-05
000340 8f 60 a6 ba fb 7e 57 bb f3 6e 06 bb 7a 81 10 3b
       -0.0012693572 -0.0032882083 -0.0020512908 0.002204983
000350 e6 d8 49 3a c4 64 4b bb ff 9d 0b bb 38 38 1b 3b
       0.0007699862 -0.0031035403 -0.002130389 0.0023684632
000360 cb fa 6c bb 32 d1 56 3b ea 3a 20 3b 9a 99 3d 38
       -0.0036160226 0.0032778499 0.0024449178 4.5204164e-05
000370 e1 f1 00 bb 59 17 20 3b 3c 3d 03 3b b6 8b cb 3a
       -0.001967542 0.0024427979 0.0020025512 0.0015529308
000380 00 7f 5a bb 44 7a de ba 0e ae 82 bb 15 02 ff 3a
       -0.0033339858 -0.0016973694 -0.003988034 0.0019455577
000390 7d 78 62 3b f1 76 10 bb 11 cb 55 ba 98 3f dd 3a
       0.003455668 -0.002204355 -0.00081555644 0.0016879914
0003a0 3c 46 c4 bb 2c 3f b8 ba ac 44 c5 ba 3b 42 70 3a
       -0.005989818 -0.0014056913 -0.0015050373 0.00091651425
0003b0 1e f0 8c ba 62 9f c6 3a 7c 4f 2c ba 5d 9d 4e bb
       -0.0010752713 0.0015153701 -0.00065731234 -0.0031526901
0003c0 de ab c7 ba b9 dc a5 ba 7e b5 14 39 33 7c 39 3b
       -0.0015233716 -0.0012654281 0.00014181991 0.0028302788
0003d0 24 85 63 bb 05 33 9b 3a ce f1 46 3b 17 9a 42 3b
       -0.003471681 0.0011840767 0.003035653 0.0029693895
0003e0 e4 38 a7 ba f6 dd 90 3b 8f 6f b8 3a 94 97 a6 ba
       -0.0012758044 0.004420991 0.0014071333 -0.0012709969
0003f0 b4 dd 49 3a 4d 43 02 39 5b c5 0b 39 b1 d1 6a bb
       0.0007700578 0.00012422838 0.00013329594 -0.0035830552

bias f4 [9]
000000 bd 1c 04 bb 10 0d 24 3a 0f dc 06 bb e7 02 13 3b
       -0.002015873 0.000625805 -0.0020577942 0.002243215
000010 98 56 67 ba 46 48 27 3b 27 e9 b8 3a bf e6 ef 3a
       -0.0008824854 0.0025525256 0.0014107571 0.0018303021
000020 dd 90 09 bb
       -0.0020990886

weight f4 [256, 18]
000000 78 de a9 3d ba 40 ea 3e 9e cf f7 3d 4e 14 e5 be
       0.08294386 0.45752507 0.12100147 -0.44742054
000010 b9 aa 26 be 58 0b 84 be 8f 9d 3e be 89 c0 80 3e
       -0.16276063 -0.25789905 -0.18614791 0.25146893
000020 f1 47 df 3e 4e c1 14 3e 59 90 1b 3e fa d4 b2 3d
       0.43609574 0.14526865 0.15191783 0.08732028
000030 a9 14 c9 3d 0e 8c 80 be af ba 93 3d b7 a3 16 3e
       0.09818394 -0.25106853 0.072133414 0.1471089
000040 f6 4e d6 bd fd ed 23 3e 58 05 83 bd 04 27 84 3e
       -0.10464279 0.16008754 -0.063975036 0.25811017
000050 bd 3b 75 be 1c 65 da ba 95 be 1c be f2 3b 3e be
       -0.2394857 -0.0016662213 -0.15307076 -0.18577555
000060 0d f7 94 bd 39 16 95 3d 49 c2 ab 3e 06 47 7a be
       -0.07273684 0.07279629 0.33546665 -0.24441156
000070 12 c3 b3 bd c8 2a a7 3d c0 b4 0d 3f 96 a5 f5 3d
       -0.08777441 0.08162457 0.5535393 0.11994474
000080 33 12 e1 be e8 59 1f bd cd a6 4a 3e bb 1f 81 3e
       -0.43959197 -0.0389041 0.19790192 0.2521952
000090 25 90 8e be 6f 51 01 be fe 1f 95 bc de 63 14 be
       -0.2784435 -0.1262872 -0.018203732 -0.14491221
0000a0 32 4f be 3e d1 8f ea 3d 82 27 cb 3d 6b e1 de 3c
       0.37169796 0.11453212 0.09919645 0.027207097
0000b0 18 14 69 3e 88 d9 9e 3d 41 82 79 3e 5b 9f 95 be
       0.22761571 0.077563345 0.24366094 -0.2922314
0000c0 14 d7 e8 be c8 28 83 3e 4f b2 f3 be 78 56 6a 3d
       -0.45476592 0.2561705 -0.47596976 0.05721137
0000d0 8d 93 bc 3d 56 53 ba bd da 08 bd 3c 24 d0 37 3d
       0.092078306 -0.09097926 0.02307551 0.044876233
0000e0 3e 8e 8d 3d 7c 94 a6 bd 53 66 7c be 8e 0f c5 3e
       0.06911896 -0.0813379 -0.24648409 0.3848843
0000f0 07 ad 44 3e dc 26 30 3e bc 14 4d 3d 51 9e 07 3f
       0.1920663 0.17202324 0.050068602 0.52975947
000100 1a 1d fc 3c 28 3c 12 bd 30 13 23 bd f1 3f c5 3c
       0.030775595 -0.0357019 -0.03981322 0.024078341
000110 eb cf 9b 3e d7 0b 2d 3e 9a 0f c5 3e 00 21 cf be
       0.30432066 0.16899048 0.38488466 -0.40454865
000120 9b ad eb be b7 a7 19 be 0b c3 9e 3d dd 82 14 be
       -0.46030888 -0.15005384 0.07752045 -0.14503045
000130 0a 96 27 3d 03 e8 6c 3e c7 f8 a2 3e 01 31 c0 3e
       0.040914573 0.2313538 0.31830427 0.37537387
000140 ba 53 a4 3d 7f 30 17 be b1 0c 5e be bb 32 3b 3e
       0.08023782 -0.14764594 -0.21684529 0.18281071
000150 a5 1f 7e 3e 5b f4 ec 3e 56 e6 51 bd 0c f0 2f 3e
       0.24816759 0.46280178 -0.051245056 0.17181414
000160 f0 a7 a1 3d 24 0f e5 3d c2 30 e6 3c 57 17 81 be
       0.0789336 0.111845285 0.028099421 -0.2521312
000170 79 f4 ef 3d b3 68 7e 3e 14 fb 06 bf e9 b7 2a be
       0.11716551 0.24844627 -0.52726865 -0.16671719
000180 97 c2 40 3e 4b 54 30 3e a6 83 44 3e ce ac 87 3d
       0.1882423 0.17219655 0.19190845 0.06624757
000190 fb 45 8c bd 47 67 c0 be df 3b 38 be 0e 44 cf 3d
       -0.06849285 -0.37578794 -0.17991589 0.10120402
0001a0 24 f4 75 be 0f 0b 4e 3e b6 0a a2 3e 57 ed 76 be
       -0.24018914 0.20121406 0.31648797 -0.24113975
0001b0 5a 94 11 bf 0d 86 29 bd 1d a4 0d 3e 8a 68 4e 3e
       -0.5686699 -0.041387606 0.13832135 0.20157066
0001c0 91 ac 1c 3c 71 64 7a bd 56 7e 7d 3d a1 16 90 3e
       0.009562627 -0.061130945 0.06188806 0.28142264
0001d0 9e b8 a2 3d aa 15 83 3d bb 52 70 3e 59 26 72 3d
       0.07945369 0.064006165 0.23469059 0.059118602
0001e0 c7 ee ad 3e ba 4f 57 3d 90 d1 53 be a1 f2 e4 3e
       0.33971235 0.052566268 -0.2068541 0.4471636
0001f0 ae 3b 34 3e 25 bb 7e 3e 0b 1b d9 be 15 0c df 3e
       0.17600891 0.24876077 -0.42403445 0.43563905
000200 42 3d ba bd d8 d4 e9 3c 8e 94 de 3e 8b 71 32 bc
       -0.09093715 0.028543875 0.43472713 -0.010891329
000210 e0 3b 45 3e 51 c5 4e be 07 38 27 be 46 dd 7a be
       0.19261122 -0.20192458 -0.16329966 -0.24498472
000220 84 33 0f be 8e b1 82 bc 7b db 22 be 1e fd ad bd
       -0.13984495 -0.015953805 -0.15904038 -0.08495544
000230 cf c8 b4 3d 7e 17 96 3c 94 20 ad be 12 6b 9a 3e
       0.08827364 0.018321749 -0.33813918 0.30159813
000240 a4 cb 76 be ef 68 99 3e 66 f1 29 3e 94 0d 58 be
       -0.2410112 0.2996287 0.16595992 -0.2109893
000250 c3 08 0a be 0c ff 10 be 9e 62 fa bd ca 5f 2a be
       -0.13479905 -0.14159793 -0.12225841 -0.16638103
000260 35 69 46 3c 02 56 27 bf 13 b1 6b bd 64 ca 84 3e
       0.012110044 -0.6536561 -0.057541918 0.25935662
000270 39 03 3c 3d cf 20 fe bc e3 d5 95 be 0f b4 42 3e
       0.04590151 -0.031021504 -0.29264745 0.19014
000280 65 e9 bf 3d 2f 8f 83 be 2b f1 0d bf 22 08 82 be
       0.09370688 -0.25695178 -0.5544612 -0.2539683
000290 19 f8 89 be 17 d2 72 be 17 01 f4 3c 1b de b2 3d
       -0.26947096 -0.23712955 0.029785676 0.087337695
0002a0 e9 a3 e4 be 56 16 ed bd 5c 1f 1a 3e 03 af a5 3e
       -0.44656304 -0.11576526 0.15051025 0.32360086
0002b0 81 f6 cb 3d 30 fe 24 be 61 45 79 bd e8 c2 18 3d
       0.09959126 -0.1611259 -0.06085718 0.037295252
0002c0 fe 8a 5a be 31 7c 8d bc d0 04 6f 3e d0 32 6a bd
       -0.21342084 -0.017271133 0.2334168 -0.057177365
0002d0 54 23 17 be 84 55 16 3d ec c2 19 3d 15 50 b3 be
       -0.1475957 0.036702648 0.037539408 -0.35022035
0002e0 36 c0 ee bd 60 86 b0 3e 25 5d 33 be 87 aa 57 be
       -0.11657755 0.3447752 -0.17516 -0.21061145
0002f0 a3 a4 6f 3c 25 9c 2b 3d e4 b3 d9 3d ab b2 1c 3e
       0.014626655 0.041896958 0.106300145 0.15302531
000300 84 92 a2 3e 1d c7 37 3e 2a a3 ab be 8b 3e 3c 3c
       0.31752408 0.1794705 -0.33522922 0.011489521
000310 99 d6 80 be e6 9d 09 3f ac 67 95 bd c3 e1 8f 3e
       -0.25163725 0.5375656 -0.072951645 0.2810193
000320 ff 88 1f 3e a6 34 94 be e4 e3 7c 3e 95 6e cc 3d
       0.15579604 -0.28946418 0.24696308 0.09982029
000330 a8 be c8 3e ce db 33 bd dd ef 84 3d 00 3d 96 be
       0.3920796 -0.043910794 0.06491063 -0.29343414
000340 f0 05 38 3d e6 7e c4 bd 9c 72 3b be 51 34 93 3d
       0.044927537 -0.095945165 -0.18305439 0.07187713
000350 ed b1 b5 3e 89 04 a4 be f9 97 83 3e e4 70 c4 be
       0.3548731 -0.3203471 0.25701883 -0.3836738
000360 c2 18 66 be 26 0c 0f 3e c0 1b c7 bd 9c 48 1b 3f
       -0.22470382 0.13969478 -0.0972209 0.6065767
000370 40 7f 88 3d 0a a3 ae bd 2c 3f bb be 2f d9 80 be
       0.06664896 -0.08527191 -0.36571634 -0.25165698
000380 88 d1 35 3e 79 f0 73 3a fa 92 23 3e c3 d9 c8 3d
       0.17755711 0.00093055476 0.15974036 0.0980716
000390 5b f0 0c 3e ee ef b0 be f3 6d b5 be b8 6a f3 bd
       0.13763563 -0.34558052 -0.35435447 -0.11885589
0003a0 f5 fe af 3c 26 de ba bb 7c a7 94 bd 1f bf 6c 3e
       0.021483878 -0.0057027517 -0.072585076 0.23119782
0003b0 e2 38 ca bd c1 5e f0 3d ff 6d ea bc cf 49 bc bc
       -0.09874131 0.11736823 -0.028616903 -0.022984413
0003c0 70 d8 3b 3d c6 ab c6 be af 3a 97 3e 47 44 15 bf
       0.045860708 -0.38802928 0.2953696 -0.5830731
0003d0 61 93 17 bd 16 1f f9 bd 09 50 d8 3d ae 0a f2 3d
       -0.037005786 -0.12164132 0.105621405 0.11818443
0003e0 d6 7d 87 3d f5 05 ce 3e 1c 89 00 bd f1 b4 b3 3e
       0.06615798 0.4023892 -0.031380758 0.35098985
0003f0 6c 3e 5f 3e f9 7f 4d 3e 7b d8 bd 3c 3d 50 0c 3f
       0.21801156 0.20068349 0.023174515 0.54809934

bias f4 [256]
000000 57 8b 26 35 7f a4 b3 bb 7e ca a3 3a 2b 1e c3 3b
       6.2042585e-07 -0.005482256 0.001249626 0.005954524
000010 46 b2 25 bb 1e 07 35 ba 02 7d 3f 3a 32 a6 4f bb
       -0.0025283261 -0.00069056626 0.00073046994 -0.0031684753
000020 25 e7 92 ba 22 63 af ba e9 60 ae bb 88 fc 37 bb
       -0.0011207802 -0.0013380984 -0.005321611 -0.0028074104
000030 40 a5 49 3b fa 44 19 bc 17 66 aa bb a1 01 ac b9
       0.0030768663 -0.009354824 -0.0052001583 -0.0003280761
000040 cb fc a0 bb 22 3a 9a bb 96 b9 df bb 35 d5 1a bb
       -0.004912948 -0.004706637 -0.0068275435 -0.0023625616
000050 d5 ca c3 bb b0 2c 18 3a bb f9 e2 b9 46 79 ea ba
       -0.005975107 0.0005804999 -0.00043292143 -0.0017888926
000060 b1 31 9b 3a 14 73 07 bb 86 d3 10 ba b7 d6 e4 3b
       0.0011840371 -0.0020667957 -0.00055246835 0.006983604
000070 37 d3 02 bc 68 96 94 b6 3e 31 c7 3b 9c f2 6b bb
       -0.007984928 -4.4282533e-06 0.006078868 -0.003600276
000080 a8 94 97 3a 67 fd 1c 3a 9b 81 1a 3b 00 00 00 00
       0.0011564689 0.00059886876 0.0023575786 0.0
000090 c4 2a a4 3b d4 53 7b ba 07 2a 9d 3b ca 10 8c bb
       0.005009981 -0.00095873815 0.00479627 -0.0042744623
0000a0 0c 24 1f 3b 4c 1d 31 bb c6 36 09 3b 44 28 22 bb
       0.002428296 -0.002702552 0.0020937189 -0.0024743238
0000b0 7a 96 b1 bb d2 46 89 3b d1 f7 d9 ba ba b0 d2 bb
       -0.0054195495 0.0041893506 -0.0016629641 -0.006429759
0000c0 11 5f 52 b9 f2 06 42 bb c7 7b b1 bb b4 10 06 3c
       -0.00020062576 -0.002960619 -0.0054163667 0.008182693
0000d0 8c cd a6 ba 33 b8 59 39 2e f1 1c 3b 80 b9 b7 39
       -0.0012726053 0.00020763352 0.0023947465 0.00035042688
0000e0 00 00 00 00 f6 1f 13 bb c8 a0 92 bb fc dc 29 3b
       0.0 -0.002244947 -0.004474733 0.002591907
0000f0 eb f0 6a 3b 4b ad 4a bb 4d 03 5b 3b f9 d0 a1 bb
       0.0035849165 -0.0030926045 0.0033418715 -0.0049382416
000100 eb 06 2a b8 51 31 da 3a 18 ab db 39 a0 56 f7 3b
       -4.05376e-05 0.0016646778 0.0004189841 0.0075481683
000110 25 8c 3a 3b 1c 8c 41 3b 17 6f 0f 3a 5b ce c3 ba
       0.002846488 0.0029532975 0.0005471571 -0.0014938818
000120 24 a0 61 b9 83 3f 83 3b 78 5d 0a ba 3b c5 a6 ba
       -0.00021517329 0.004005374 -0.000527821 -0.0012723574
000130 64 57 26 b7 e9 f8 22 3a bf 49 90 bb 23 e5 1c bb
       -9.914718e-06 0.00062169 -0.0044033225 -0.0023940287
000140 00 00 00 00 89 53 06 bc b7 8b ca bb 64 cb c5 b9
       0.0 -0.008198627 -0.006181206 -0.00037726306
000150 80 04 a4 bb 29 cc 6b 3b 86 d3 12 b6 b9 ad 9c 3a
       -0.0050054193 0.0035979843 -2.1878818e-06 0.0011953629
000160 c5 21 b9 bb c5 df b6 bb 42 f3 ce bb 7c 31 2e 3b
       -0.0056497776 -0.0055808746 -0.0063156197 0.0026579788
000170 08 91 b0 bb 70 c0 9e 3b 7d 82 5d 3b 1d f2 85 3b
       -0.005388383 0.0048447177 0.00337997 0.0040877
000180 94 6d 2a ba 7c 92 be ba e2 b0 89 3a 9e b9 64 ba
       -0.0006501314 -0.0014539505 0.0010504986 -0.0008725169
000190 c8 4a 8e ba e5 59 4f bb 98 1d 26 3b 13 99 f5 3a
       -0.0010856027 -0.0031639275 0.002534723 0.0018737636
0001a0 00 c4 f0 ba 69 12 93 bb 35 09 ef ba 7a 79 52 3b
       -0.001836896 -0.0044882786 -0.0018236997 0.0032115863
0001b0 5c 3b f8 bb 37 68 14 bb a3 ff 9c 3b b2 8c a0 39
       -0.0075754356 -0.0022645125 0.0047912165 0.00030622404
0001c0 71 6b c1 3a e1 21 18 ba 1f 31 ef ba 41 0c cb 31
       0.0014756751 -0.0005803388 -0.0018248892 5.9094707e-09
0001d0 20 91 44 b9 f3 c2 d8 b3 f2 64 32 3a d9 e2 a2 3b
       -0.0001874608 -1.0093745e-07 0.0006805203 0.00497089
0001e0 d2 26 43 bb a1 50 a4 b4 61 c0 76 bb 5a e0 43 3b
       -0.0029777777 -3.0606046e-07 -0.0037651288 0.0029888363
0001f0 3d 30 e1 3b da 01 a3 3a 03 62 b5 bb a5 7e 5c ba
       0.0068722055 0.0012436465 -0.0055353655 -0.00084112055
000200 be 99 ad 3b dd 43 14 ba 15 b2 10 bb 86 7d e1 ba
       0.0052978685 -0.00056558644 -0.0022078801 -0.0017203547
000210 31 ef 1c bb ee 2f b3 bb 6d 4c ef b9 aa 7a bd 3b
       -0.002394628 -0.00546836 -0.00045642574 0.005782445
000220 de e6 b7 39 ab 2a 90 3b d4 84 a4 3b 1f 0a c1 38
       0.0003507649 0.0043996177 0.005020717 9.204842e-05
000230 37 9a 36 bc 0e fb 7e ba 7e 2d 9d bb 0c 27 fc 3a
       -0.011145166 -0.0009726741 -0.004796683 0.0019237711
000240 2c 5a 36 bb 45 9a 96 3b fd df 10 ba 3c c2 3f ba
       -0.0027824743 0.004596027 -0.0005526541 -0.0007315015
000250 0b a6 b9 3a 9a 04 1c 3b 03 97 37 bb 9b 03 95 3b
       0.0014163865 0.0023806454 -0.0028013594 0.004547549
000260 07 aa d9 3a 47 4e 39 bb 48 c2 49 b9 00 00 00 00
       0.0016606458 -0.0028275417 -0.00019241229 0.0
000270 53 09 4a ba 07 75 52 3b 68 47 84 ba 71 88 26 39
       -0.0007707078 0.003211321 -0.0010092082 0.00015881822
000280 5d 18 60 3a 7a 8c a9 ba a0 24 f4 bb 1e bc d0 b4
       0.0008548552 -0.0012935542 -0.007450655 -3.8879892e-07
000290 56 7d 26 3b 2b 66 03 bb 4f 00 62 b9 0d 4b 9b 3b
       0.0025404296 -0.002004991 -0.00021553155 0.0047391714
0002a0 d7 d9 2a bb 3d 56 98 3a 60 31 48 ba eb 4e a7 bb
       -0.0026069784 0.0011622381 -0.0007636752 -0.0051058433
0002b0 3a e4 13 3b a9 7c 9e 38 11 ca 07 b4 b1 5d a0 3a
       0.0022566454 7.557247e-05 -1.2646366e-07 0.0012234953
0002c0 00 00 00 00 57 4e 3a 3b bf 25 6e 3b 39 28 8f 3b
       0.0 0.0028428042 0.0036338416 0.0043688086
0002d0 24 40 8f bb a1 b0 89 bb 46 3d 6e bb 7b 44 c4 3a
       -0.00437166 -0.004201964 -0.003635244 0.0014974022
0002e0 53 13 bc 3b 41 d5 2e bb 42 a1 12 3b c8 59 91 3b
       0.0057396083 -0.0026677402 0.002237395 0.0044357516
0002f0 fc 2f 6e ba 58 91 4e 3a 60 18 ba bb 36 bf 21 3a
       -0.000908613 0.0007879934 -0.0056791753 0.0006170155
000300 af 44 20 ba 00 00 00 00 ee 99 d9 bb 17 46 41 38
       -0.000611375 0.0 -0.0066406643 4.6080062e-05
000310 e1 61 13 3c 9b 17 93 39 f3 5b f2 3b e2 fb af ba
       0.008995504 0.00028055612 0.007396215 -0.0013426507
000320 48 81 15 3b 32 06 06 3b 24 76 71 bb 09 f1 c2 bb
       0.0022812653 0.002045047 -0.00368441 -0.005949144
000330 28 d1 0d bb 64 8b eb 39 bf 3a a2 bb fb f6 98 3b
       -0.002163956 0.00044926547 -0.0049508507 0.0046681142
000340 c3 bf 00 3c 1b 26 83 3b 1b 92 28 bb a0 7f cc ba
       0.00785822 0.0040023453 -0.0025721851 -0.0015602
000350 dc c5 55 38 82 03 83 b7 e0 c0 80 3a d0 0e ed 3b
       5.096743e-05 -1.561805e-05 0.0009823106 0.007234432
000360 54 a4 6f bb 0e 01 99 bb 89 9e ef 3a 1f 2c 44 ba
       -0.0036566453 -0.004669315 0.00182815 -0.0007483381
000370 2c 0b e8 bb 16 28 1a 3b 96 1f 74 b5 62 3e 77 bb
       -0.00708141 0.0023522428 -9.0943047e-07 -0.0037726392
000380 e7 3b 36 bb 75 ae bf bb 43 b7 2c 3b 82 31 db b9
       -0.00278067 -0.0058496543 0.002635435 -0.0004180782
000390 f9 55 1d 39 f9 5e ef ba 3f 65 90 ba 3d 39 a7 bb
       0.00015004714 -0.0018262557 -0.0011016502 -0.005103259
0003a0 97 62 0b bb f5 9c 47 3b ff d9 f3 3a 77 25 01 b9
       -0.002126848 0.0030458544 0.0018604397 -0.00012316355
0003b0 ce f7 2f 3b 4b 0d 89 3a 2f 37 b4 3b 74 b5 fa 39
       0.0026850584 0.0010456232 0.0054997425 0.0004781891
0003c0 9f c6 c6 3a 0e 54 2e 3a d2 c0 1c 3b a9 b0 29 bb
       0.0015165395 0.00066500984 0.002391864 -0.0025892651
0003d0 49 42 bf 39 b1 53 bd bb 7e a3 d4 3b 3d ad 7e 3b
       0.00036479745 -0.005777799 0.0064892164 0.0038860582
0003e0 5a ff f8 ba cb e4 f2 ba cd bf 15 3a 23 f3 15 ba
       -0.0018996999 -0.001853132 0.00057124795 -0.0005720129
0003f0 52 d8 2d ba f6 4b 97 bb ab b9 f7 39 12 a4 58 3b
       -0.00066316605 -0.0046172095 0.00047249845 0.0033056778

weight f4 [256, 256]
000000 57 f4 72 ba 47 d9 9e 3c 5c 88 5e 3d ed 75 c8 bc
       -0.0009267977 0.019390715 0.05432926 -0.024470294
000010 ed a7 8f 3d ab f4 f3 3c dd 50 03 bd 9a 4e 46 bd
       0.07014451 0.029779753 -0.03205954 -0.048414804
000020 c2 b7 02 bd 9d 36 f0 bc 39 08 0e bd 27 31 17 3d
       -0.031913526 -0.029322917 -0.03467581 0.03691211
000030 99 72 32 bc 70 b3 81 3d 4d a5 26 bd 18 1e 06 3c
       -0.01089158 0.06333053 -0.040684987 0.008185886
000040 e9 01 a2 3d 5d 96 1a be c8 6a b3 bd 88 e2 28 3d
       0.079105206 -0.15096422 -0.08760601 0.041231662
000050 3d 1f 04 3d d0 9f 16 bc 47 45 85 bd a5 82 19 3d
       0.032256354 -0.009193376 -0.06507354 0.037478108
000060 bc 0e 0b bd 08 53 04 3d fb e8 21 3d 2d 8b bf 3c
       -0.0339496 0.032305747 0.039528828 0.023381794
000070 f4 1d dc bc 9d e8 b4 3d 16 fb 43 ba 53 3c 4f bc
       -0.026869752 0.0883343 -0.00074760744 -0.01264866
000080 e5 1b 82 bb 13 92 73 3b 93 e8 b2 3d 98 ad 19 bd
       -0.0039706104 0.0037165924 0.08735766 -0.037519068
000090 80 ec db bc 47 51 8d 3c fe 87 c6 bc f7 c1 ee bc
       -0.02684617 0.01725067 -0.024234768 -0.029145224
0000a0 72 76 d4 3d 5e 97 0b bd 0e b6 ac 3d a9 78 8d 3c
       0.10374154 -0.034079902 0.08433162 0.01726945
0000b0 eb 17 0b 3e a6 bf 13 bc 3a 6e 27 bd 26 0e 00 be
       0.13583343 -0.0090178605 -0.040876605 -0.12505397
0000c0 05 93 5b 3d a3 01 7d bc 91 20 93 bb fd 7b 22 3e
       0.053607006 -0.015442285 -0.004489966 0.1586761
0000d0 ce 4c 15 bd 7c 0f 27 3d 4f f1 95 3c a0 84 29 3d
       -0.0364502 0.04078625 0.018303541 0.041386247
0000e0 61 32 c6 37 e1 7a 43 3d d0 c6 ad bd e9 da ac 3d
       2.3626899e-05 0.04772461 -0.08485186 0.08440191
0000f0 62 bd 6e bb 20 71 4c 3d 5b c7 8c bd da 4d 1d 3e
       -0.00364288 0.049912572 -0.068739615 0.1536173
000100 d0 17 39 3d 04 ba 74 3d 06 db 42 bd 29 72 da bc
       0.045188725 0.05974771 -0.04757216 -0.026665764
000110 46 e1 a2 3c f3 2e 69 3c c3 90 17 bc e9 99 a2 bd
       0.01988281 0.014232385 -0.0092508225 -0.07939512
000120 70 f0 db 3c 95 b4 a4 bc 20 14 6d 3d 82 e3 55 bc
       0.026848048 -0.02010564 0.05788052 -0.01305473
000130 1a 79 9e 3b 1e 49 ed bd 2d af f1 bc 80 e8 9a bd
       0.004836214 -0.115862116 -0.029502476 -0.07563877
000140 c0 08 bd bc 2a 1b ab ba 15 23 86 3d a5 68 b3 3d
       -0.023075461 -0.001305436 0.0654966 0.08760194
000150 e1 27 35 bd 4f bc 0e bd af 5b f9 3b 83 42 34 bc
       -0.044227485 -0.034847554 0.0076098065 -0.011002186
000160 78 23 2b 3d a0 df 1b 3d eb 2c 0a bc 32 77 87 3d
       0.041781873 0.038055062 -0.008433561 0.066145316
000170 fd 79 bb bd d2 9e ba 3b 95 54 86 bd ec 54 65 bd
       -0.09154127 0.0056952024 -0.065591015 -0.05598919
000180 36 2f 97 bd ba d0 30 bd da b3 12 bd 20 b9 a8 3d
       -0.07382052 -0.043167807 -0.03581605 0.08238435
000190 9e a5 a5 bc 4e 02 93 bd ee 50 39 3b df ba a8 bd
       -0.020220574 -0.07178174 0.0028276998 -0.08238768
0001a0 e5 ad 74 bd fa aa fc bd 8e d6 8e 3d a9 97 a9 3d
       -0.05973615 -0.12337299 0.06974517 0.0828088
0001b0 63 48 1a bd 3f 4f 63 bd a4 06 2a 3d 4a 46 6a bd
       -0.03766669 -0.055495497 0.04151024 -0.05719594
0001c0 b6 de e8 3d 1c cc 06 bd e5 8c 1d bd 22 2d 98 bd
       0.11370604 -0.032909498 -0.038464446 -0.074304834
0001d0 e4 b8 53 bd 63 ad 14 3d 53 35 c1 bc 0d 76 38 3d
       -0.051689997 0.036298167 -0.023584997 0.045034457
0001e0 a5 8d 22 bd 6d 16 a6 3c 9e f3 1e bc 4e 03 cf 3c
       -0.039685864 0.020274365 -0.009701638 0.02527013
0001f0 d6 50 69 bd f3 14 a6 bc fc 24 3c bc ac c3 4e bb
       -0.056961857 -0.020273661 -0.011483427 -0.0031549735
000200 bc 97 a0 bd a4 a3 ae 3d 92 58 aa 3d 8f 85 fe bd
       -0.07841441 0.08527306 0.08317675 -0.12427818
000210 b3 a6 a6 bc 55 67 d0 3c 3c dd 20 3d 10 a9 45 3d
       -0.02034316 0.025439898 0.039273486 0.048256934
000220 e4 c7 9d 3d ea 57 ee bd 73 3d 3f 3c e7 31 cc 3c
       0.07704142 -0.11637862 0.0116723655 0.024926139
000230 19 b3 3b 3c 69 51 af 3d 9f 2f 0f 3d 9b a7 0e bd
       0.011456274 0.0856045 0.034957524 -0.03482781
000240 11 4a b4 bd 0b f7 90 3c 7e 95 15 3d 7c 9a 5c bb
       -0.088031895 0.017695924 0.03651952 -0.0033661416
000250 0a 2c b7 3d b2 6a 64 bd 03 c8 9a 3d 83 93 3d 3d
       0.08943947 -0.055765815 0.075576805 0.046283256
000260 10 10 63 3b a3 d0 38 be 88 40 90 bc 43 d5 81 bd
       0.0034647025 -0.18048339 -0.017608896 -0.063395046
000270 74 58 08 bc ad d9 fe bd 81 b8 29 3d e6 f5 bb 3a
       -0.00832187 -0.12443862 0.041435722 0.0014340251
000280 dd d7 8e 3c be 86 5d bd 30 19 b9 bc 69 fb 14 bd
       0.017436916 -0.05408358 -0.022595018 -0.036372576
000290 09 eb e0 bd 5f 07 de 3b 05 65 d7 3b db 65 27 3d
       -0.109823294 0.006775781 0.0065733218 0.04086862
0002a0 b0 5a b4 3b 2b 8f 10 3c bd 40 b6 3d dd b4 f9 bc
       0.005503975 0.008823196 0.088990666 -0.03048175
0002b0 f4 35 9c bb 23 ee 03 be 39 9c 98 bd 11 6c 71 bb
       -0.004767174 -0.1288381 -0.07451672 -0.0036838094
0002c0 32 aa ea 3d 16 c1 aa bc 76 f3 1c 3d d2 2f 13 bd
       0.114582434 -0.020844024 0.03831812 -0.035934277
0002d0 59 18 04 be c2 eb 03 bd e3 23 e2 3d b6 8c 7f bd
       -0.12899913 -0.032207258 0.11042001 -0.06239005
0002e0 44 4a b0 3d f1 aa db bd fe 9f 3e 3c 39 58 80 bd
       0.08607915 -0.10725964 0.011634825 -0.06266827
0002f0 e2 7a 3c bd 06 1e 3b 3c d3 04 b8 3d 2f df 34 3e
       -0.046015628 0.011420732 0.08985295 0.17663263
000300 ce 83 9c bc 91 e5 7f 3d fe 1c 89 3d 6b f0 5f 3d
       -0.019105818 0.06247479 0.06694983 0.05467264
000310 6d 84 78 3c 52 5d 7d bd b2 e7 d1 bd 11 87 0b 3d
       0.0151682915 -0.061856575 -0.102492705 0.034064356
000320 d0 dc aa bc fe 1b 78 bc d2 a4 eb bb 5e 51 2c bd
       -0.020857245 -0.015143393 -0.007191279 -0.042069785
000330 22 50 41 bd b8 39 b6 bd e7 e5 de 3d 51 61 f2 b9
       -0.04719556 -0.08897728 0.10883694 -0.00046230343
000340 74 f4 fc 3d c8 26 95 3d 16 99 39 b9 6e 74 9c 3c
       0.12351313 0.072827876 -0.00017700004 0.019098487
000350 77 83 b1 3a 9c fe 36 3d e3 9f a0 bc 70 15 df bd
       0.0013543208 0.04467641 -0.01960749 -0.10892761
000360 f7 91 05 3d 5e c6 6d bd 43 f4 7a bd 79 66 10 be
       0.032609906 -0.058050506 -0.061268102 -0.1410159
000370 e7 fa b8 3d e6 4a cc 3c 9a 65 3a bd 52 8f 82 bd
       0.09032231 0.024938058 -0.04550705 -0.063749924
000380 2c 8d 65 bc e6 87 03 3d fb c5 72 3d 1e ff 7e bd
       -0.014010709 0.032112025 0.05927084 -0.062255017
000390 a8 fe d9 3d 63 e2 f0 bb 45 cb d9 bc 37 07 88 bb
       0.10644275 -0.007351206 -0.026586184 -0.0041512507
0003a0 31 e1 ae 3c d1 9b 88 3d fd 96 e8 bd 33 2f 95 3d
       0.021347614 0.066703446 -0.11356924 0.07284393
0003b0 24 c9 2d bd 6d 2e d3 3c e9 59 01 bd 14 51 ff bd
       -0.04242815 0.025778973 -0.031579886 -0.12466636
0003c0 d6 70 56 bd ba 87 f7 3d 90 60 02 3d e3 24 2f bc
       -0.052353702 0.12086435 0.03183037 -0.010689947
0003d0 1e a0 3e 3d 7e 89 52 bd 14 74 0b bd aa 95 db bd
       0.04653942 -0.051400654 -0.034046248 -0.107219055
0003e0 fc e1 d8 3d f8 d1 b0 3d f7 93 23 bd 46 4c 4d bd
       0.10589978 0.08633798 -0.039936032 -0.05012157
0003f0 12 cc 14 3d 34 be d6 bd 6f db e5 bd 48 74 35 bd
       0.03632743 -0.10485497 -0.11223494 -0.044300348

bias f4 [256]
000000 7e 42 12 3b 0f 48 20 3a 7a 21 51 3b 85 da ce ba
       0.0022317464 0.0006114253 0.0031910823 -0.0015781677
000010 6b a1 20 38 6e 3b 3e bb ec 19 1c bb 87 b1 29 3b
       3.8297305e-05 -0.0029027122 -0.0023819162 0.0025893168
000020 06 2c 61 3a c8 92 52 3a 6a c9 fa b8 db d2 1b bb
       0.0008589629 0.00080327364 -0.00011958445 -0.0023776803
000030 5f 9e 59 3a 1c 37 26 bb f9 35 7e 3a c5 2e b6 b9
       0.0008301492 -0.0025362438 0.00096973736 -0.0003474859
000040 de 36 fb b9 01 79 5f ba c4 3f 82 ba 94 43 1b 39
       -0.0004791533 -0.0008524806 -0.0009937217 0.00014807127
000050 00 94 3f 3a 13 00 95 ba 7e 12 80 3b 64 ca 26 39
       0.00073081255 -0.001136782 0.0039084544 0.0001590639
000060 22 ff 18 39 60 e1 72 38 6f 0e 33 3b c5 1b 7c 3b
       0.00014590894 5.7907193e-05 0.0027321836 0.00384687
000070 82 12 82 ba 9a 90 c7 3a 3e c1 7f 3b 12 5d 9d 3b
       -0.0009923729 0.001522559 0.0039025093 0.0048023546
000080 f5 6a 55 3b 12 39 31 3b b3 4c 15 39 c5 23 f5 ba
       0.0032564972 0.0027042073 0.0001423832 -0.0018702677
000090 ef 59 fd 3a f5 8a 7d 3a c6 93 b6 3a f0 15 00 3a
       0.001932917 0.00096718903 0.0013929538 0.00048860814
0000a0 80 79 a0 3a 55 b4 17 3b 0f 24 7d ba 88 e6 5f ba
       0.0012243241 0.0023148258 -0.0009656557 -0.0008541127
0000b0 84 96 8f 3a 60 8f 5d 3a 10 d7 84 ba 0f eb 8c b8
       0.0010954891 0.00084518455 -0.0010134894 -6.719503e-05
0000c0 27 df 85 ba 3e 1d 16 3a 24 57 19 bb e6 d9 57 bb
       -0.0010213599 0.00057264033 -0.0023397887 -0.0032936274
0000d0 7b f9 7b 3a d4 cf 0e bb c9 9a 09 b9 a2 5a a0 ba
       0.00096120656 -0.0021791356 -0.00013123 -0.0012234042
0000e0 ca 96 f5 ba e6 9d 7a ba 7c c8 a3 39 05 23 70 3b
       -0.0018736955 -0.0009560272 0.00031239155 0.0036641967
0000f0 72 ca 8a ba e2 d1 5e 3b bc bb 5f 3b 97 6f 26 ba
       -0.0010588898 0.0033999612 0.0034138998 -0.00063490256
000100 09 91 80 ba 78 6a 33 3a 3b 59 52 3a 0c 8a a3 38
       -0.0009808849 0.0006844173 0.00080241606 7.798159e-05
000110 a0 52 2a 3b 3d 31 cc 39 fe 38 53 39 88 12 be 3a
       0.002598919 0.00038946597 0.0002014376 0.0014501372
000120 89 46 8e bb 86 c7 67 ba 99 f0 db ba d2 30 2f 3a
       -0.0043419045 -0.0008841682 -0.0016780078 0.0006682995
000130 58 05 34 3b fc 91 17 3a f3 60 32 3b f3 9e 7c 3b
       0.0027469005 0.0005781946 0.002721843 0.003854689
000140 5d 10 04 bb 2a 2f 9b 3a 81 89 37 3a 25 90 5a 3b
       -0.0020151355 0.0011839618 0.00070013857 0.0033350077
000150 b6 fe 29 3a a4 17 50 3a 39 06 4a b9 25 bb ab ba
       0.0006484793 0.0007938093 -0.0001926654 -0.0013102038
000160 3b 96 a5 39 14 7f 1d ba 52 78 ea 3a 21 46 26 ba
       0.00031583183 -0.0006008011 0.0017888641 -0.00063428475
000170 00 c3 bb 3a 42 8a 8c b8 53 5b 03 ba 7e 37 2e bb
       0.0014325082 -6.701473e-05 -0.0005010862 -0.002658337
000180 df ea 89 bb 25 ff 89 ba 73 52 84 3a b7 ab fd 3a
       -0.004208907 -0.001052831 0.0010095373 0.0019353543
000190 83 5e 62 bb 6f 2b b1 3a bc bd 5e 3a 69 eb 80 3a
       -0.0034541197 0.0013516973 0.00084969006 0.0009835783
0001a0 d5 73 b9 b9 de 69 58 ba 17 4e ab 39 c3 52 8f ba
       -0.0003537225 -0.00082555215 0.00032673843 -0.0010934699
0001b0 b0 55 d2 3a 74 30 07 ba a4 a3 43 ba 17 20 0a 3b
       0.0016047265 -0.00051570614 -0.0007463044 0.0021076256
0001c0 63 b8 59 bb 96 9d 29 ba aa 22 02 3b 01 d2 a2 ba
       -0.0033221475 -0.00064703205 0.0019857087 -0.0012422205
0001d0 bf 15 33 3b 1d 0c 07 3b 35 36 cf b9 b8 1d a1 b9
       0.0027326194 0.0020606585 -0.00039522504 -0.00030730455
0001e0 28 7e b7 ba 2b e9 f7 ba 49 77 b6 3a 3a 1f 0b bb
       -0.001399939 -0.0018914094 0.0013921048 -0.002122833
0001f0 43 77 ea ba e5 69 ee ba ba db 23 3a c2 86 e0 3a
       -0.0017888326 -0.0018189518 0.00062506984 0.0017130005
000200 c8 7c 4f 3a 93 c5 9f ba c1 d7 d4 ba 35 9c 6d bb
       0.0007915017 -0.0012189619 -0.0016238616 -0.0036256437
000210 46 eb df 3a 34 54 a9 3a a9 db 19 bb 27 90 e9 ba
       0.0017083667 0.0012918771 -0.0023476875 -0.001781945
000220 b1 69 fa 3a d8 c2 1b b8 b4 be 03 3b 8f c1 20 3b
       0.0019104985 -3.7136342e-05 0.0020102682 0.0024529432
000230 c4 75 03 b9 ae a1 a9 b9 62 81 74 3b bc 39 c3 ba
       -0.00012537005 -0.00032354653 0.0037308563 -0.0014894526
000240 6c f4 3b 3b 24 3d 36 bb 57 7e bc 3a 83 c3 3c 3b
       0.0028679622 -0.0027807439 0.0014380914 0.0028803058
000250 74 28 53 bb 65 74 30 3b b6 cd 2e bb 4b 8f ec b9
       -0.0032220157 0.0026924845 -0.0026672906 -0.0004512019
000260 5e b8 f4 3a ff b6 eb ba e0 b1 21 3a 82 ff e8 ba
       0.0018670668 -0.0017983614 0.0006168168 -0.0017776343
000270 fd 41 9d 38 b1 58 6e 3a 68 91 98 3b 8d ca 13 bb
       7.498635e-05 0.00090921955 0.0046560057 -0.002255115
000280 f0 82 1e 3b d3 d0 39 3a a3 73 90 ba 6f 55 f8 3a
       0.0024186932 0.0007088307 -0.001102079 0.001894636
000290 2d d9 35 ba 94 05 eb b9 9a 29 a9 ba ff 9e 46 bb
       -0.0006936964 -0.0004482685 -0.0012906075 -0.0030307171
0002a0 b8 3a 6f 3b 5d b2 38 3a 92 10 59 3a d4 c0 f3 ba
       0.0036503505 0.0007045621 0.0008280362 -0.0018596896
0002b0 49 67 d5 3a 9e df 12 3b 18 b6 7c ba e9 98 8d ba
       0.0016281392 0.0022411118 -0.0009640171 -0.0010803017
0002c0 ba b1 03 3b e0 42 46 bb ff 5f 49 3b ae e8 0f bb
       0.0020094947 -0.0030252263 0.0030727384 -0.0021958756
0002d0 c3 1b 05 ba 4c 43 c4 b9 f6 37 b4 ba 3a 06 11 3b
       -0.0005077684 -0.00037434173 -0.0013749588 0.0022128955
0002e0 90 23 f0 ba f3 d8 73 3b 65 ff 0d 3a ef f1 19 b9
       -0.0018321145 0.003720817 0.000541678 -0.00014681344
0002f0 f8 d8 9d 39 5d 0c f0 ba 0f b0 07 ba 56 a7 7d ba
       0.00030107028 -0.0018314231 -0.0005176076 -0.0009676119
000300 ee 58 f4 3a 72 23 45 bb b5 39 31 bb 52 21 82 b9
       0.0018642226 -0.0030080942 -0.0027042453 -0.00024820358
000310 c5 f5 5a bb 88 30 6d 3b fc 72 4a bb 7e 46 35 3b
       -0.003341065 0.0036192257 -0.003089129 0.0027660425
000320 78 ef ff 39 56 40 38 bb ac aa c2 ba fc e2 14 ba
       0.00048815808 -0.002811452 -0.001485189 -0.0005679575
000330 56 30 91 ba cb a5 0e bb f0 58 88 3b 4c 30 cb ba
       -0.0011077027 -0.00217663 0.004160993 -0.0015502064
000340 d5 ed 63 bb 61 a7 d6 b9 c6 21 23 3b ec 39 46 bb
       -0.003477921 -0.00040941968 0.0024891957 -0.0030246926
000350 3d dd ed 39 ca d4 6c ba 7d c4 cd 39 d0 b0 82 bb
       0.00045368998 -0.00090343936 0.00039247042 -0.003988363
000360 32 1d 20 38 69 53 87 b9 50 ba eb ba 80 ca a7 ba
       3.8174163e-05 -0.00025811352 -0.0017984603 -0.0012801439
000370 8c 34 3c 39 07 1f 1a bb e8 45 cb ba cf 63 35 bb
       0.00017948652 -0.002351703 -0.0015508505 -0.0027677899
000380 7f 79 bc 3a be 34 79 3b a3 06 71 b9 db 3d 70 bb
       0.001437947 0.0038025822 -0.00022986023 -0.0036657962
000390 5f 03 a8 ba d8 63 f1 3a 63 84 96 3b 3b a5 2e b9
       -0.0012818387 0.0018416597 0.0045934184 -0.00016655486
0003a0 74 68 3b 3a a8 05 43 bb 75 75 8e ba 2a b6 ef ba
       0.00071490486 -0.002975801 -0.0010868745 -0.0018288542
0003b0 c8 cc d2 ba 77 9e 35 ba 72 17 37 ba dc c9 73 3a
       -0.0016082758 -0.0006928215 -0.00069843896 0.0009299794
0003c0 f5 fb 86 3a b7 ee 51 bb 9c 92 e6 b7 52 07 37 38
       0.0010298478 -0.0032033154 -2.7486407e-05 4.3637418e-05
0003d0 0e bc 4e ba 42 9c f0 ba 7a 60 01 bb 02 08 2a bb
       -0.00078862987 -0.0018357115 -0.0019741342 -0.0025944714
0003e0 8a a1 38 3b 4f 27 5e b9 1c 5e 9d ba 68 7f 17 ba
       0.0028172457 -0.00021186213 -0.0012006196 -0.0005779178
0003f0 a7 14 06 ba 43 1b 0d bb 6d ae 7d b9 da eb 58 ba
       -0.0005114772 -0.0021531142 -0.00024192939 -0.0008274891
