largest_sim_yet/trained_policies_ppo/trained_models/policy_model_mrx_ppo/model.pt (torch, 592869 bytes, 14 tensors)

_last_output f4 [1, 9]
5.0103507 -3.8096771 -1.4767 -3.5103939 -1.9697468 -1.8209938 5.153091 0.9194826
-1.272313
00000000: cb54 a040 c0d1 73c0 8104 bdbf 4baa 60c0
00000010: aa20 fcbf 5316 e9bf 1fe6 a440 3663 6b3f
00000020: 27db a2bf

weight f4 [9, 256]
-0.006425176 0.06660539 0.13192862 0.0053956555 -0.087436706 -0.052342504 0.06371411 0.05607551
-0.053972818 -0.040592305 -0.13348907 -0.11482537 0.13295221 0.09917906 0.047171593 -0.040953536
0.033072315 0.042491537 0.026326986 0.09765467 0.045082208 -0.067383386 -0.09228121 0.07828602
0.058850247 -0.08251873 -0.016577259 -0.07895877 -0.040548448 -0.007607774 -0.123938106 -0.053619508
-0.00060703355 0.25419948 0.105436884 0.04958219 0.1362417 0.0011032501 0.08892345 0.05724041
0.032318015 -0.082187034 0.0416069 0.1633663 -0.030171055 0.06295712 0.071958356 0.021026436
-0.103189304 -0.0036757507 -0.053510822 0.0345947 -0.082051896 0.019379148 -0.12543893 0.087236926
-0.025045084 0.049614873 0.10902885 0.017229885 -0.09119146 -0.13951527 0.13646218 -0.0318388
0.057168208 -0.112020016 0.09769741 -0.13612643 0.0048022666 -0.060420703 -0.04688292 -0.037127715
-0.13080221 -0.13418421 0.058726113 -0.02648731 -0.15375842 0.011232218 0.11533068 0.03658668
-0.06478046 -0.11755309 -0.009188161 -0.07024501 0.035320126 0.0945259 -0.050702825 0.030889742
0.195366 -0.013620814 -0.122492865 -0.065632686 0.08955441 -0.08452949 0.09594681 0.0006417767
0.038720444 -0.06233665 0.0448383 0.04803508 0.020549528 -0.0011439372 -0.14344217 0.1201328
0.05417749 0.13099296 0.05724576 0.04594871 0.12908746 0.03246162 -0.041721307 -0.022246879
0.041501477 0.06762917 -0.081460476 0.10789177 0.015399001 0.07924741 0.029970104 0.053786457
0.0147195365 0.003976324 0.14411199 -0.060923796 -0.08675909 0.07893116 0.07046421 0.028717397
0.08376958 0.19863605 -0.06235194 -0.1305038 0.030105889 0.118372425 -0.04121086 0.057511102
-0.09416014 -0.03147027 -0.05426142 -0.03869036 0.0084349215 0.10213592 -0.06337318 0.010198983
-0.0039603263 -0.0021461558 0.053901277 0.02782872 0.03818349 0.0060839066 -0.0910753 -0.11940006
0.11291725 -0.04404327 -0.053760376 0.016964156 -0.047032934 -0.14929284 0.05703623 -0.00563013
-0.13340466 0.103357665 -0.06882831 0.08356686 -0.11911669 0.07677046 -0.02828665 0.07165583
-0.09918103 -0.0049388995 -0.024133764 -0.019605998 -0.08102565 -0.19833525 0.14454558 0.040550157
-0.10912381 -0.030810608 0.082002014 0.023796206 -0.1608435 0.07538246 0.08059043 1.4431134e-06
0.022880038 0.030860288 -0.008224486 -0.027221289 -0.019661717 0.02145292 -0.068824954 -0.08622545
-0.01633574 0.041192062 0.023848755 0.07112427 0.049945325 0.057950813 -0.013737028 -0.07277545
-0.009529266 0.12342287 0.052544527 0.07218628 -0.04309406 0.019880675 -0.09017702 -0.043114197
-0.054069176 0.06765128 0.11694392 -0.013195331 0.079003185 -0.016924677 -0.07312456 0.070261896
0.0036548162 0.094912514 -0.015844198 0.007374376 -0.030834675 -0.13132201 0.09349762 0.080792144
-0.09015494 0.08850861 1.1642251e-05 -0.12213455 -0.07285637 0.07854739 -0.024825627 -0.01715486
-0.10331564 -0.039634947 -0.040983904 -0.030245405 0.053874735 -0.02239632 -0.19127141 0.0512137
0.1105789 -0.073121406 0.18740568 -0.04309642 0.099390745 0.0076209353 0.11287425 -0.07687141
0.003966903 0.12423747 0.121663235 0.10643819 -0.114275135 -0.07244121 -0.20416753 -0.008179283
00000000: 488a d2bb 6868 883d 4c18 073e 0ace b03b
00000010: 0412 b3bd 1865 56bd 8b7c 823d 6faf 653d
00000020: 9a12 5dbd 1e44 26bd 5cb1 08be 9029 ebbd
00000030: a024 083e 641e cb3d 0037 413d e5be 27bd
00000040: d676 073d 9b0b 2e3d b1ab d73c 2cff c73d
00000050: 1fa8 383d 4d00 8abd eefd bcbd 6c54 a03d
00000060: f50c 713d 94ff a8bd 08cd 87bc 23b5 a1bd
00000070: 2116 26bd a24a f9bb 43d3 fdbd 21a0 5bbd
00000080: 5521 1fba 6f26 823e 4bef d73d b216 4b3d
00000090: f282 0b3e ee9a 903a 7f1d b63d ec74 6a3d
000000a0: e55f 043d ad51 a8bd ff6b 2a3d 7f49 273e
000000b0: 4a29 f7bc aaef 803d e75e 933d a23f ac3c
000000c0: ea54 d3bd dde4 70bb 2a2e 5bbd 2cb3 0d3d
000000d0: d30a a8bd 05c1 9e3c 1073 00be 46a9 b23d
000000e0: 592b cdbc f738 4b3d 854a df3d b025 8d3c
000000f0: 97c2 babd 17dd 0ebe bebc 0b3e 6769 02bd
00000100: 3629 6a3d c06a e5bd 9415 c83d ba64 0bbe
00000110: 555c 9d3b b37b 77bd 4e08 40bd 3b13 18bd
00000120: 04f1 05be 9667 09be cb8a 703d eafb d8bc
00000130: d972 1dbe 5607 383c 7e32 ec3d eadb 153d
00000140: 9eab 84bd adbf f0bd f189 16bc 9edc 8fbd
00000150: d6ab 103d cc96 c13d c4ad 4fbd 7c0c fd3c
00000160: 060e 483e d629 5fbc 8add fabd 6e6a 86bd
00000170: 4d68 b73d cc1d adbd c37f c43d e83c 283a
00000180: 5499 1e3d b754 7fbd 5ea8 373d 6fc0 443d
00000190: 7c57 a83c 2af0 95ba 81e2 12be 2f08 f63d
000001a0: 37e9 5d3d 0523 063e 887a 6a3d b734 3c3d
000001b0: 812f 043e 7af6 043d f6e3 2abd 163f b6bc
000001c0: 74fd 293d 2a81 8a3d c0d4 a6bd 5cf6 dc3d
000001d0: 174c 7c3c 774c a23d dd83 f53c 304f 5c3d
000001e0: 362a 713c d34b 823b 1892 133e 3b8b 79bd
000001f0: c0ae b1bd a9a6 a13d 8a4f 903d bf40 eb3c
00000200: 638f ab3d 4067 4b3e bf64 7fbd caa2 05be
00000210: a0a0 f63c 3e6d f23d b8cc 28bd c390 6b3d
00000220: 08d7 c0bd f8e6 00bd 3941 5ebd c879 1ebd
00000230: a032 0a3c a32c d13d ccc9 81bd a319 273c
00000240: a0c5 81bb 85a6 0cbb 96c7 5c3d 0ef9 e33c
00000250: 4b66 1c3d 825b c73b b085 babd 0588 f4bd
00000260: 2941 e73d b766 34bd d733 5cbd 6af8 8a3c
00000270: 9ba5 40bd 39e0 18be d29e 693d f47c b8bb
00000280: 3b9b 08be 2fad d33d dbf5 8cbd 1a25 ab3d
00000290: 73f3 f3bd d539 9d3d 68b9 e7bc 4bc0 923d
000002a0: 6d1f cbbd 7ed6 a1bb 2cb4 c5bc c29c a0bc
000002b0: c7f0 a5bd 6518 4bbe c203 143e ec17 263d
000002c0: 4e7c dfbd 8766 fcbc acf0 a73d 43f0 c23c
000002d0: 29b4 24be 1f62 9a3d 980c a53d 00b1 c135
000002e0: eb6e bb3c b7ce fc3c ffbf 06bc 2eff debc
000002f0: 9c11 a1bc 09be af3c 19f4 8cbd f896 b0bd
00000300: 88d2 85bc 02b9 283d 775e c33c 9aa9 913d
00000310: 7893 4c3d d55d 6d3d 4611 61bc 4c0b 95bd
00000320: a320 1cbc 21c5 fc3d ee38 573d 66d6 933d
00000330: 6683 30bd ccdc a23c bbae b8bd 8398 30bd
00000340: a477 5dbd c18c 8a3d 4b80 ef3d 3b31 58bc
00000350: 6ccc a13d 9fa5 8abc 54c2 95bd 78e5 8f3d
00000360: a485 6f3b 7e61 c23d b1cb 81bc c0a4 f13b
00000370: 0099 fcbc 4779 06be ae7b bf3d 5a76 a53d
00000380: 27a3 b8bd 0144 b53d 1653 4337 ae21 fabd
00000390: b835 95bd 74dd a03d 1d5f cbbc 5988 8cbc
000003a0: 2697 d3bd 4158 22bd bdde 27bd 36c5 f7bc
000003b0: c1ab 5c3d 7d78 b7bc a7dc 43be 75c5 513d
000003c0: 3177 e23d adc0 95bd 46e7 3f3e df85 30bd
000003d0: 608d cb3d 0ab9 f93b 9d2a e73d c26e 9dbd
000003e0: cbfc 813b 3770 fe3d 932a f93d 44fc d93d
000003f0: 1509 eabd 0f5c 94bd 4b11 51be 6602 06bc

bias f4 [9]
0.022671165 -0.01436771 -0.00018611219 -0.009636929 -0.0035500473 -0.0045050695 0.012591215 -0.036835518
0.019155882
00000000: e1b8 b93c 8b66 6bbc 1c27 43b9 36e4 1dbc
00000010: e9a7 68bb 439f 93bb 624b 4e3c d7e0 16bd
00000020: ccec 9c3c

weight f4 [256, 18]
0.10321407 0.04025252 0.24903496 -0.33762953 0.0038024932 0.08188195 0.0860202 0.63298374
0.013087985 -0.35367516 0.05282724 0.33050707 -0.420585 0.14272402 -0.16543259 -0.028158287
0.21332021 -0.05660462 0.16714387 -0.0009617307 0.02261518 0.005603033 0.22343633 0.37762102
-0.11483317 0.217729 0.1178652 -0.5871532 0.28209585 -0.058524847 0.06337814 -0.2160054
0.31118104 -0.16616969 -0.27579588 0.29480937 -0.63839203 0.10337299 -0.0756344 -0.0842047
0.05559566 -0.076122686 0.25106385 -0.029968904 -0.1639224 0.058952764 -0.2507617 0.4205324
0.40292576 -0.19569516 -0.0051835645 -0.010262455 0.021593751 -0.17829888 0.13896231 0.4120396
0.19227396 0.045176197 0.2769397 -0.106290296 0.14769627 0.13110504 -0.25267226 -0.37265697
-0.37629154 -0.21149646 -0.17212693 -0.39580595 0.17020638 -0.08187054 -0.023343561 0.19745006
0.3375906 0.36084452 -0.16124754 -0.36530137 -0.046273865 -0.16006975 -0.15202636 -0.11474451
0.4125297 -0.29985476 0.14964429 0.03710938 -0.22585018 -0.32539743 0.10552181 0.2575429
-0.18490969 -0.26951006 0.055103052 0.19514069 -0.15851973 -0.047945287 0.24528936 0.0626847
-0.40744892 0.35088715 -0.21900918 0.003650531 0.005552742 0.21875745 0.00020671748 -0.022511894
-0.15770878 -0.3069916 -0.55236024 -0.31463513 0.21286082 0.054441184 -0.101461396 -0.014484471
-0.02428351 0.2569835 -0.1124835 -0.25831264 0.38791925 -0.09505955 0.27848884 0.31922743
0.3171676 -0.20660146 -0.4543892 -0.31588507 0.055588808 0.18798243 0.04095602 -0.036816254
-0.15352276 -0.07460063 0.16378094 -0.08928232 -0.076502115 -0.3154494 0.20992449 0.06153118
0.05061977 -0.014770062 -0.23635007 -0.5265111 0.21617368 0.5572071 0.30762637 -0.09742137
0.21653324 0.13971572 -0.12754628 -0.021386623 -0.11815261 0.10628177 -0.20328894 0.027260035
0.34528768 -0.0040802346 -0.35263962 0.44454312 -0.19462156 -0.12628117 -0.19091497 -0.34611723
0.42928156 -0.14239958 0.19562301 0.051666267 0.37357384 -0.049394727 -0.50671655 0.0061537256
-0.007943473 0.050719116 -0.018027717 -0.094496325 0.25649855 0.0999294 -0.04982028 -0.40164614
-0.12117883 -0.49572778 0.20093553 -0.21045856 0.088072315 0.1455498 -0.3074253 -0.009770703
0.058099262 0.24181348 0.029338539 -0.44298086 -0.17423157 -0.18273775 -0.09186448 0.1895966
-0.040668115 -0.13029568 0.07325058 0.29675874 0.5412648 -0.27971599 0.05749766 -0.044974312
0.118617564 0.022274451 -0.16741395 0.14698444 -0.3443829 -0.115374684 0.4600598 0.17892909
-0.026574153 -0.60403347 -0.14645106 0.09787788 0.06908734 -0.2989308 0.062336132 0.20366694
-0.07174049 0.37309185 -0.1865752 0.06328517 0.208568 0.018387226 0.24326867 0.57312775
0.18740156 -0.10335372 -0.0012370177 -0.14644843 -0.100609176 -0.30903867 0.37808663 -0.16903494
-0.001617503 -0.34409273 -0.121393755 0.32096928 0.26827133 0.37883458 -0.1710384 0.26091924
-0.31212986 0.012194811 0.04781867 -0.40649346 -0.19416112 -0.34151673 -0.19724731 0.15249172
0.19224933 -0.005400815 0.15044329 0.2968749 0.19278368 0.20808476 -0.38130784 0.19429517
00000000: e661 d33d d4df 243d 0503 7f3e c7dd acbe
00000010: 4033 793b b9b1 a73d 5c2b b03d 390b 223f
00000020: fd6e 563c e914 b5be 6061 583d 3938 a93e
00000030: eb56 d7be 3f26 123e 2967 29be 35ac e6bc
00000040: 9d70 5a3e 3fda 67bd c327 2b3e a81c 7cba
00000050: 7843 b93c a699 b73b 7ecc 643e 8b57 c13e
00000060: a72d ebbd 5af4 5e3e 4f63 f13d ac4f 16bf
00000070: de6e 903e c0b7 6fbd 66cc 813d 8530 5dbe
00000080: 1f53 9f3e 6328 2abe 1e35 8dbe 41f1 963e
00000090: a96d 23bf 38b5 d33d 35e6 9abd 8473 acbd
000000a0: 46b8 633d 36e6 9bbd 718b 803e 5981 f5bc
000000b0: 46db 27be 7478 713d d663 80be 0650 d73e
000000c0: 494c ce3e 5064 48be e4da a9bb db23 28bc
000000d0: 61e5 b03c fb93 36be 234c 0e3e dbf6 d23e
000000e0: 77e3 443e ad0a 393d 0acb 8d3e baae d9bd
000000f0: b13d 173e 6640 063e 425e 81be e5cc bebe
00000100: 49a9 c0be 8792 58be 0b42 30be 14a7 cabe
00000110: 954a 2e3e beab a7bd ff3a bfbc 5930 4a3e
00000120: add8 ac3e 9dc0 b83e 131e 25be c808 bbbe
00000130: aa89 3dbd 53e9 23be ccac 1bbe 2bff eabd
00000140: 1837 d33e 9086 99be 5a3c 193e 0100 183d
00000150: 4545 67be 7e9a a6be d21b d83d aadc 833e
00000160: f758 3dbe 39fd 89be bdb3 613d f6d2 473e
00000170: ff52 22be 4762 44bd 222d 7b3e d660 803d
00000180: 259d d0be 7ba7 b33e f143 60be bf3d 6f3b
00000190: c7f3 b53b f401 603e 4dc2 5839 dd6a b8bc
000001a0: 697e 21be 012e 9dbe 7b67 0dbf db17 a1be
000001b0: 30f8 593e b8fd 5e3d feca cfbd 4650 6dbc
000001c0: 36ee c6bc 5793 833e c05d e6bd 8e41 84be
000001d0: 5a9d c63e 95ae c2bd 1796 8e3e c771 a33e
000001e0: cb63 a23e 558f 53be b4a5 e8be b0bb a1be
000001f0: 17b1 633d 777e 403e 80c1 273d a4cc 16bd
00000200: 1235 1dbe 37c8 98bd 31b6 273e a6d9 b6bd
00000210: 24ad 9cbd 9582 a1be 72f6 563e 1e08 7c3d
00000220: ad56 4f3d 21fe 71bc c105 72be 6ec9 06bf
00000230: a25c 5d3e 20a5 0e3f 3481 9d3e db84 c7bd
00000240: e4ba 5d3e a311 0f3e 7e9b 02be 0033 afbc
00000250: fff9 f1bd 42aa d93d fa2a 50be 7050 df3c
00000260: 8cc9 b03e 7db3 85bb 2e8d b4be 289b e33e
00000270: e04a 47be da4f 01be 377f 43be 4736 b1be
00000280: cbca db3e 32d1 11be 6651 483e 02a0 533d
00000290: 1245 bf3e 2052 4abd 2db8 01bf 31a5 c93b
000002a0: 5725 02bc d9be 4f3d ddae 93bc 4a87 c1bd
000002b0: c753 833e c9a7 cc3d 5a10 4cbd 90a4 cdbe
000002c0: 9b2c f8bd 08d0 fdbe 0bc2 4d3e 7382 57be
000002d0: 425f b43d 020b 153e d966 9dbe 4c15 20bc
000002e0: 7ef9 6d3d f49d 773e 6057 f03c 63ce e2be
000002f0: c369 32be 9b1f 3bbe 7223 bcbd 9c25 423e
00000300: 9c93 26bd 3b6c 05be 6604 963d c3f0 973e
00000310: 5490 0a3f ef36 8fbe ab82 6b3d fc36 38bd
00000320: c4ed f23d e978 b63c 906e 2bbe 1783 163e
00000330: f552 b0be 9049 ecbd f58c eb3e 3039 373e
00000340: 0ab2 d9bc f0a1 1abf 44f7 15be 3374 c83d
00000350: aa7d 8d3d 750d 99be 2c54 7f3d 118e 503e
00000360: aeec 92bd e505 bf3e 920d 3fbe a89b 813d
00000370: da92 553e cfa0 963c 6c1b 793e 80b8 123f
00000380: 32e6 3f3e 1dab d3bd 6d23 a2ba 94f6 15be
00000390: 2f0c cebd 513a 9ebe 9294 c13e 7f17 2dbe
000003a0: 6502 d4ba ec2c b0be 4a9d f8bd 1656 a43e
000003b0: dc5a 893e 9bf6 c13e b124 2fbe 3597 853e
000003c0: 7ccf 9fbe bfcc 473c 82dd 433d e91f d0be
000003d0: 2cd2 46be 48db aebe 33fb 49be ca26 1c3e
000003e0: 02dd 443e 52f9 b0bb ce0d 1a3e fdff 973e
000003f0: 1669 453e 2c14 553e c83a c3be 50f5 463e

bias f4 [256]
-0.08275065 -0.014233497 -0.02738774 -0.030609857 -0.02920414 0.0012736643 -0.0117203845 0.0063379384
-0.013742953 -0.030666234 0.03543712 0.05332692 -0.0021744203 0.021799259 0.019543376 -0.00097412907
-0.04447512 -0.06838916 -0.14111365 0.04427035 -0.03165267 0.033577576 -0.030383583 0.0036239123
-0.02746508 0.050434884 0.013163748 0.058464497 -0.042864293 -0.021340242 0.008470595 -0.050875172
-0.009688485 -0.049416043 -0.0016585256 0.08824796 0.013547458 -0.022419255 0.00013094064 -0.030379836
-0.017950667 0.08700539 0.038523212 -0.026143935 -0.02122752 0.011424852 -0.05194612 0.04647689
-0.018250355 0.03358799 -0.015552771 -0.032978415 0.03344277 -0.034111924 -0.02289107 -0.04469664
0.022700936 0.054262836 0.010079228 -0.035565134 0.004798868 -0.043788143 -0.09603384 -0.008146406
-0.011976403 0.08810367 -0.01355939 0.015120173 0.01702693 0.0075881155 0.022497285 1.2397611e-05
0.050175056 -0.041301854 -0.0022320547 0.023099175 -0.000109564266 0.042972837 0.006110628 0.05639186
0.019382764 -1.9599336e-06 -0.017164014 0.012189899 0.015241723 -0.03438869 -0.06224297 -0.05983569
0.006382602 0.034286067 0.00940214 0.08232708 -0.015557226 0.012455592 0.010322298 0.1258334
-0.00966329 -0.09498407 0.039169773 -0.022495463 0.10706442 -0.00983228 0.07402414 0.03140247
-0.029811153 -0.03661033 -0.0025940393 -0.041804723 -0.070304066 0.0 -0.044493344 0.005493326
-0.048931956 0.06252481 -0.026965287 0.034672678 0.016180024 0.0939442 0.06917798 0.018279418
0.06514186 0.0046991482 0.014943513 0.04146531 -0.06098523 0.0031334392 0.051831447 0.0021146538
0.015198102 0.014088824 0.070188366 -0.012539944 0.035529308 -0.0678556 0.0535557 0.0063582566
0.000122024474 0.1178663 -0.023357734 0.063807964 -0.037171412 -1.9086769e-05 0.065033704 0.031350605
-0.09887595 0.09365097 0.0028023438 0.063298024 0.010856181 -0.028465107 0.018665742 0.039627746
-0.007155724 0.064460315 0.012560489 0.09041098 0.04135894 -0.036329348 -0.030750552 0.020623753
-0.014278896 0.023662288 -0.03684846 0.0050759455 0.020690702 -0.013251949 -0.03282699 0.055055916
0.048231445 0.033533975 -0.077299334 -0.025282148 0.0020218943 0.08210366 0.028466798 -0.06376425
0.08703069 -0.015281442 -0.022451729 0.036544982 0.015464893 -0.044528633 -0.0512271 0.09447862
0.09206846 -0.007846051 0.02464135 0.0016873789 0.0009392256 0.011128936 0.08189045 -0.047942568
-0.018871997 0.06366024 -0.018116796 0.014259268 0.001502354 0.015434623 -0.0367999 0.009896836
0.01721041 -0.018264282 0.051551174 0.050235614 -0.04015217 -0.03545977 -0.037298333 0.09661929
0.035513304 0.024568966 -0.060260613 0.0048049935 0.015131225 0.054715853 -0.023311662 -0.045377668
-0.08822956 -0.00073856895 -0.0031887693 -0.039827466 0.013934029 0.048478704 -0.010962765 0.09629467
-0.0048617534 -0.015174422 -0.0050430987 0.037359513 -0.025662027 0.057190597 0.01030335 0.070208795
0.0031178151 -0.008865947 0.08410116 -0.015185237 0.008055046 0.043296717 -0.027232954 0.017683256
0.112919256 -0.02065605 -0.05301827 0.018244106 0.031435512 0.03945615 -0.024770392 -0.02264744
-0.0400911 0.0078110807 0.06423576 -0.039643414 0.02813194 -0.051715616 -0.04373085 0.08152577
00000000: 2c79 a9bd 9d33 69bc 415c e0bc 86c1 fabc
00000010: 853d efbc 15f1 a63a db06 40bc 7bae cf3b
00000020: 1f2a 61bc c137 fbbc 8326 113d 546d 5a3d
00000030: b880 0ebb 5c94 b23c 6e19 a03c b25c 7fba
00000040: 8b2b 36bd 9e0f 8cbd 1980 10be d454 353d
00000050: 3ba6 01bd a488 093d fee6 f8bc 297f 6d3b
00000060: 73fe e0bc cf94 4e3d c3ac 573c 7878 6f3d
00000070: 7892 2fbd bbd1 aebc 40c8 0a3c 7c62 50bd
00000080: 74bc 1ebc 7a68 4abd e262 d9ba 59bb b43d
00000090: 28f6 5d3c 96a8 b7bc 1c4d 0939 22df f8bc
000000a0: 470d 93bc e22f b23d 84ca 1d3d ce2b d6bc
000000b0: 56e5 adbc 4d2f 3b3c 74c5 54bd 8d5e 3e3d
000000c0: c581 95bc 8f93 093d 0dd1 7ebc 6014 07bd
000000d0: 49fb 083d f2b8 0bbd 0e86 bbbc d313 37bd
000000e0: 50f7 b93c b542 5e3d 5923 253c bfac 11bd
000000f0: d33f 9d3b 325b 33bd 64ad c4bd 8178 05bc
00000100: ad38 44bc b26f b43d 3428 5ebc 9aba 773c
00000110: 0f7c 8b3c baa5 f83b 3a4c b83c 55ff 4f37
00000120: 5c84 4d3d 222c 29bd aa47 12bb 7b3a bd3c
00000130: dec5 e5b8 4904 303d aa3b c83b 27fb 663d
00000140: 9ac8 9e3c 6787 03b6 8c9b 8cbc 24b8 473c
00000150: 6bb8 793c 28db 0cbd 7cf2 7ebd 4516 75bd
00000160: 2525 d13b 8c6f 0c3d 6f0b 1a3c 1a9b a83d
00000170: bce3 7ebc 8a12 4c3c db1e 293c 79da 003e
00000180: c752 1ebc 0287 c2bd 7c70 203d 6848 b8bc
00000190: 9744 db3d 9217 21bc f899 973d e09f 003d
000001a0: 8536 f4bc b7f4 15bd c200 2abb 6e3b 2bbd
000001b0: 94fb 8fbd 0000 0000 a73e 36bd 5c01 b43b
000001c0: e06c 48bd 020d 803d 4ee6 dcbc f004 0e3d
000001d0: f88b 843c d165 c03d 2fad 8d3d b8be 953c
000001e0: 1869 853d 50fb 993b a3d5 743c 87d7 293d
000001f0: a6cb 79bd 635a 4d3b 364d 543d 0196 0a3b
00000200: 7601 793c d0d4 663c ebbe 8f3d 5674 4dbc
00000210: 2e87 113d e0f7 8abd 395d 5b3d ec58 d03b
00000220: 64e7 ff38 e363 f13d b858 bfbc c0ad 823d
00000230: 0d41 18bd 861c a0b7 6430 853d 7e69 003d
00000240: 797f cabd 14cc bf3d 87a7 373b 65a2 813d
00000250: 20de 313c a82f e9bc e6e8 983c b450 223d
00000260: 907a eabb c503 843d 82ca 4d3c 6429 b93d
00000270: fe67 293d 15ce 14bd 95e8 fbbc 25f3 a83c
00000280: 08f2 69bc 6ad7 c13c 69ee 16bd 1e54 a63b
00000290: 8c7f a93c b41e 59bc 9875 06bd 5082 613d
000002a0: 568e 453d ec5a 093d 1d4f 9ebd 821c cfbc
000002b0: c281 043b f725 a83d 3433 e93c d596 82bd
000002c0: 253d b23d 035f 7abc b0ec b7bc 31b0 153d
000002d0: 7660 7d3c a863 36bd 82d3 51bd 027e c13d
000002e0: 648e bc3d b98c 00bc a8dc c93c 0a2b dd3a
000002f0: 5d36 763a 2456 363c 2eb6 a73d 6d5f 44bd
00000300: 7299 9abc 4d60 823d ad69 94bc b49f 693c
00000310: a3ea c43a 80e1 7c3c 7ebb 16bd 5726 223c
00000320: d9fc 8c3c fa9e 95bc 5327 533d dcc3 4d3d
00000330: 9a76 24bd 443e 11bd 23c6 18bd 56e0 c53d
00000340: 6676 113d db44 c93c d5d3 76bd 3573 9d3b
00000350: f5e8 773c bb1d 603d 19f8 bebc efdd 39bd
00000360: b3b1 b4bd 869c 41ba acfa 50bb 2022 23bd
00000370: 8e4b 643c 9b91 463d 2b9d 33bc 2436 c53d
00000380: 584f 9fbb 249e 78bc 9440 a5bb 4a06 193d
00000390: 2c39 d2bc b040 6a3d 62cf 283c a1c9 8f3d
000003a0: 4254 4c3b 7a42 11bc 3b3d ac3d 80cb 78bc
000003b0: 50f9 033c e657 313d a517 dfbc 7adc 903c
000003c0: 3642 e73d e036 a9bc af29 59bd aa74 953c
000003d0: 86c2 003d c69c 213d 47eb cabc 2087 b9bc
000003e0: 9136 24bd 18f4 ff3b 0a8e 833d 2261 22bd
000003f0: f474 e63c c1d3 53bd 1f1f 33bd fcf6 a63d

weight f4 [256, 256]
0.082167104 -0.039211284 -0.020663574 0.10583054 -0.012747713 0.1325893 0.071701854 0.0012889574
0.14319295 -0.07098834 0.09947109 -0.059675172 0.043390963 -0.08485942 0.1187134 0.09421615
-0.018352527 -0.1425152 0.0042201183 0.07307528 0.1093515 0.007796693 0.087246425 0.008738697
0.09083889 0.057694625 -0.05842452 0.012686209 0.036210272 0.094705574 0.02745924 0.119192205
-0.09277093 -0.04589422 -0.13350874 0.01921957 -0.027717313 0.058479246 -0.062431835 0.023457242
-0.111939386 0.037078198 0.01968199 -0.018355805 -0.08506294 0.038794067 0.06814193 0.10822347
-0.10298995 0.005006272 0.12960427 0.06868253 0.019860348 0.13039926 -0.08534438 -0.12553573
0.103206776 -0.02952939 0.02536704 0.062036008 -0.068564594 -0.092905946 0.10262087 -0.195536
-0.0964406 -0.1070596 -0.064840265 0.00026148188 0.033250805 -0.15517253 -0.15045631 -0.068845384
-0.08602873 0.0034777788 0.052422166 0.06777746 -0.037459753 0.08833052 -0.18211235 -0.027978882
0.029552596 -0.054812856 0.0036442177 0.093521334 0.019322496 0.0023508694 -0.08669206 0.0050529847
-0.054770473 -0.040819664 0.0150035955 -0.053295232 -0.041755497 -0.09535562 -0.058569975 -0.065571986
-0.060701706 -0.10651469 -0.054183424 -0.03502021 -0.015328564 0.02464118 -0.120468356 -0.006110791
-0.050294627 -0.040748842 0.16619512 -0.016547184 0.06839141 -0.034157086 -0.09310968 0.060435332
-0.059380617 -0.0601509 0.11014224 -0.04588933 -0.052439373 0.0043911836 -0.06375114 0.04696359
-0.0449965 -0.003652056 0.012475824 -0.0030616722 -0.06923987 -0.02953185 -0.10050298 0.06611017
-0.09539708 0.015354826 -0.01712275 0.063026704 -0.0677761 -0.035998866 -0.00479303 -0.09429785
-0.10276416 0.05449681 -0.019822141 0.12732574 0.19220105 -0.04842228 0.011646745 -0.16175565
-0.1256258 -0.08830786 0.07456386 -0.059840653 -0.11486068 -0.025351716 -0.074333325 -0.013373658
-0.00717086 -0.020120287 0.044929452 0.03400345 -0.035734206 0.032816235 0.09873031 0.097909965
0.0016136457 -0.019387111 -0.0005698674 0.04421278 0.025236128 0.0050961543 0.050356485 -0.09930187
0.0067787697 0.09311854 -0.023939118 -0.08941161 -0.007475053 0.030347317 -0.03931704 -0.079035096
-0.02832172 0.024257908 -0.13165356 -0.012312805 0.029188806 -0.06450692 -0.042620752 0.04738362
-0.09741605 0.019289037 0.070526354 -0.018472612 0.1250254 -0.04076256 -0.027901618 -0.031639237
0.053989906 0.028776234 -0.04290828 0.029942932 0.032306187 -0.0788149 0.0015998655 -0.13472487
-0.04043214 0.17603447 0.021072514 -0.035455644 -0.00090915925 -0.009227308 -0.082390495 -0.025539672
-0.024095336 -0.08292296 -0.017719692 -0.013045202 -0.052609213 -0.051968116 -0.02839137 -0.044974208
-0.030642357 0.13555793 -0.1359338 0.033118967 -0.045661584 0.089639924 -0.12524462 -0.15794304
0.07897986 -0.018471796 0.04203617 -0.082327954 0.054625638 -0.09357843 0.005094933 0.00039664164
0.019044736 -0.12750149 0.08769856 -0.009121533 0.10993619 -0.07513329 0.058419935 -0.086960085
0.04186672 -0.033634152 0.06322462 0.124790974 0.00055350666 0.024225743 0.007810494 0.01878669
-0.00647935 0.020962633 -0.16844445 -0.12885079 -0.03451841 0.053561017 0.060573135 0.006165207
00000000: 3a47 a83d 039c 20bd a846 a9bc afbd d83d
00000010: c9db 50bc 7dc5 073e 6cd8 923d 3cf2 a83a
00000020: 2ca1 123e 5662 91bd 80b7 cb3d f46d 74bd
00000030: b9ba 313d c7ca adbd 0320 f33d 66f4 c03d
00000040: 0a58 96bc 81ef 11be eb48 8a3b 7ea8 953d
00000050: aef3 df3d 677b ff3b 41ae b23d c02c 0f3c
00000060: bd09 ba3d 3351 6c3d 8d4e 6fbd d1d9 4f3c
00000070: 3951 143d fff4 c13d 33f2 e03c 0b1b f43d
00000080: affe bdbd 94fb 3bbd 84b6 08be 5c72 9d3c
00000090: 6b0f e3bc ef87 6f3d 86b8 7fbd 6729 c03c
000000a0: 7a40 e5bd 4fdf 173d 203c a13c ea5e 96bc
000000b0: 7b35 aebd 87e6 1e3d ff8d 8b3d 44a4 dd3d
000000c0: 65ec d2bd a70b a43b fbb6 043e 6da9 8c3d
000000d0: 2bb2 a23c 6287 053e 09c9 aebd 708c 00be
000000e0: 135e d33d 9fe7 f1bc 8ace cf3c 7819 7e3d
000000f0: 986b 8cbd 7945 bebd e42a d23d 973a 48be
00000100: a682 c5bd 1042 dbbd f9ca 84bd 8117 8939
00000110: ff31 083d 8ce5 1ebe 3811 1abe cffe 8cbd
00000120: d52f b0bd 72eb 633b a0b8 563d e9ce 8a3d
00000130: 666f 19bd a2e6 b43d a97b 3abe f833 e5bc
00000140: 4918 f23c 7283 60bd d4d3 6e3b 1d88 bf3d
00000150: 364a 9e3c 0b11 1a3b 9b8b b1bd 8293 a53b
00000160: 0157 60bd 8532 27bd a4d1 753c 1a4c 5abd
00000170: d007 2bbd cf49 c3bd 12e7 6fbd 9b4a 86bd
00000180: 5aa2 78bd 6024 dabd 70ef 5dbd 5a71 0fbd
00000190: a824 7bbc 4ddc c93c 1db8 f6bd 083d c8bb
000001a0: bd01 4ebd 42e8 26bd 0e2f 2a3e f68d 87bc
000001b0: cc10 8c3d 4de8 0bbd 4ab0 bebd 0a8b 773d
000001c0: 1739 73bd ca60 76bd 4192 e13d 73f6 3bbd
000001d0: abca 56bd ebe3 8f3b f58f 82bd e55c 403d
000001e0: 404e 38bd 5557 6fbb 6667 4c3c 56a6 48bb
000001f0: a2cd 8dbd c7ec f1bc 82d4 cdbd c564 873d
00000200: 8b5f c3bd cf92 7b3c 0245 8cbc 2514 813d
00000210: 32ce 8abd 8c73 13bd da0e 9dbb 3b1f c1bd
00000220: 0476 d2bd 0c38 5f3d 0b62 a2bc ae61 023e
00000230: 5ad0 443e 7156 46bd fdd1 3e3c 46a3 25be
00000240: 0da4 00be c0da b4bd f0b4 983d 791b 75bd
00000250: 143c ebbd 67ae cfbc 123c 98bd 301d 5bbc
00000260: 89f9 eabb 4dd3 a4bc f207 383d 3447 0b3d
00000270: 085e 12bd 516a 063d 1e33 ca3d 0585 c83d
00000280: f780 d33a b8d1 9ebc 2763 15ba 7618 353d
00000290: ffbb ce3c a4fd a63b 9a42 4e3d c75e cbbd
000002a0: 7120 de3b efb4 be3d f81b c4bc 6f1d b7bd
000002b0: 4af1 f4bb f09a f83c e80a 21bd 27dd a1bd
000002c0: f402 e8bc 85b8 c63c 31d0 06be a6bb 49bc
000002d0: 5d1d ef3c 341c 84bd 1993 2ebd 5415 423d
000002e0: 1182 c7bd 0b04 9e3c 1f70 903d e053 97bc
000002f0: a906 003e a4f6 26bd ef91 e4bc 2598 01bd
00000300: 8524 5d3d 23bc eb3c 98c0 2fbd e14a f53c
00000310: 7e53 043d b569 a1bd 94b2 d13a 51f5 09be
00000320: 2c9c 25bd 6142 343e 44a0 ac3c f039 11bd
00000330: a554 6eba 232e 17bc 59bc a8bd 9338 d1bc
00000340: 9563 c5bc 83d3 a9bd e328 91bc 8bbb 55bc
00000350: c27c 57bd 85dc 54bd 0595 e8bc e036 38bd
00000360: ae05 fbbc b3cf 0a3e 3b32 0bbe c1a7 073d
00000370: a407 3bbd 2395 b73d 2040 00be d2bb 21be
00000380: 31c0 a13d 2a52 97bc 1e2e 2c3d 8f9b a8bd
00000390: 22bf 5f3d 0ca6 bfbd 65f3 a63b 57f4 cf39
000003a0: b503 9c3c c08f 02be 4d9b b33d 7b72 15bc
000003b0: 3a26 e13d 7bdf 99bd be49 6f3d 2118 b2bd
000003c0: 707c 2b3d f7c3 09bd e97b 813d 6992 ff3d
000003d0: 3419 113a 1175 c63c 2cef ff3b 8be6 993c
000003e0: ba50 d4bb d4b9 ab3c b47c 2cbe 76f1 03be
000003f0: 2d63 0dbd cc62 5b3d 891b 783d 8105 ca3b

bias f4 [256]
0.01709553 0.0016349073 0.0010208373 0.009077113 0.0022943723 0.0030864365 0.015694324 0.0024227987
0.007246703 -0.010032869 0.025071349 0.0053158686 -0.023097929 0.0033624899 0.021497143 0.0009688017
-0.0072286967 0.017089888 0.004978741 -0.033568665 0.016164867 0.0060226703 -0.01828092 -0.012841491
0.008936883 -0.0011353694 0.005145091 -0.0023417925 -0.008252793 -0.002501591 0.015672661 0.0037674324
0.0012385687 -0.022966519 -0.0030169948 0.02164216 0.005585421 -0.0061218212 0.0057825358 -0.010635384
-0.0053788708 0.008280467 0.011502448 0.007768038 -0.022760496 -0.0073556597 0.006976531 0.019200785
-0.0031253896 0.00039519847 0.0025501566 0.0064289235 -0.008898108 0.016705362 -0.01306616 0.0072917566
0.011724009 -0.0044781384 0.023329748 0.003991446 0.0032658195 0.0061418754 0.014453813 0.012357134
-0.004458412 0.012029154 -0.000450838 -0.0014352046 0.002592061 -0.02480292 0.0047753514 0.013717436
0.008855706 0.0076968437 0.0077388315 0.011201869 -0.007160157 -0.0029378757 0.006492192 -0.0045811064
0.02330256 -0.018662017 -0.02222725 0.0016741503 0.0039744293 -0.011986835 0.0053437296 0.019357726
-0.0018850643 -0.0010013976 -0.012786157 -0.0028072558 0.019339876 -0.013056186 -0.0012910652 0.0039188187
-0.0018764666 -0.02198849 -0.0032960917 0.0035463227 -0.0022713805 0.0049187355 0.00405895 -0.00054348895
0.00071249664 0.011708504 -0.015415252 0.022910623 0.0033169661 0.0020860378 -0.013879014 -0.014327302
0.0057502096 -0.00021844835 -0.004691476 -0.010822746 0.0079312315 -0.011651084 -0.005385096 -0.0045594173
-0.0056771305 -0.0006020446 0.004779552 -0.014230552 -0.006566157 0.013904265 0.012127083 0.0113087
-0.025454508 -0.0043218383 0.014086563 -0.009570165 0.022747716 0.017779848 -0.0031303135 -0.010591007
-0.0055324743 -0.016714182 0.008611401 -0.00039872256 0.0013605122 -0.0024804873 -0.0075138807 0.022477034
-0.015777305 0.008045157 0.0032904095 0.004712655 0.007889035 0.0059889304 -0.009033333 0.0003976751
0.013304119 0.03126257 0.0022563974 -0.002405555 0.02102459 -0.016142314 -0.0030842014 -0.014086734
0.012211036 -0.0019729577 -0.016520767 -0.004090518 0.007825935 0.008660866 -0.007358281 -0.0075260843
-0.026533205 0.011047368 -0.017623564 -0.03631043 0.013427854 0.031972073 -0.002041514 0.015922448
-0.0116543155 -0.0062862113 -0.013113875 0.023939658 0.0047723907 0.0092864735 -0.0014052901 0.002366815
-0.016983591 -0.01891923 0.015861584 -0.0025804602 0.006329213 0.0037487154 0.01878862 0.018666374
-0.0005708689 -0.002536771 0.008276977 0.010447344 0.011994685 -0.019347768 0.011716623 -0.013615131
-0.008996804 0.0070059528 0.0015121716 -0.0026067405 0.01783887 0.0059872805 -0.009701985 -0.008356231
-0.004711027 -0.0051491214 0.007004784 0.006912878 -0.0053060935 -0.005923248 0.0061457492 0.03297005
0.0036958207 -0.0075081442 -0.017152332 0.0138344895 0.0065221936 0.0034671684 0.0028533577 -0.013668427
0.0019311704 -0.014959078 -0.0012719164 0.011006376 0.0049794507 0.015189101 -0.009185644 -0.00097646046
0.009379209 0.009586708 0.01157992 -0.008346953 0.014417905 0.001289516 -0.0044919224 -0.007440576
-0.018682696 -0.026659267 -0.015096614 -0.0030325076 -0.0038772398 -0.0043411055 0.020337692 0.0054475833
0.023682177 0.025111876 0.015680252 -0.0015977431 0.0019150799 0.020000836 -0.005459031 0.00804906
00000000: ed0b 8c3c 634a d63a 9ecd 853a 2cb8 143c
00000010: 2e5d 163b d045 4a3b 6291 803c d1c7 1e3b
00000020: c075 ed3b e760 24bc 6e62 cd3c bd30 ae3b
00000030: de37 bdbc 385d 5c3b c71a b03c 2ef7 7d3a
00000040: b4de ecbb 1800 8c3c b524 a33b 4c7f 09bd
00000050: 2f6c 843c d259 c53b dec1 95bc 1e65 52bc
00000060: 016c 123c add0 94ba 2798 a83b c278 19bb
00000070: b936 07bc bcf1 23bb f463 803c 07e7 763b
00000080: 7857 a23a 4824 bcbc c6b8 45bb e64a b13c
00000090: e805 b73b 8f99 c8bb 6d7b bd3b 0940 2ebc
000000a0: 3d41 b0bb ccaa 073c c374 3c3c 078b fe3b
000000b0: 3874 babc bf07 f1bb 629b e43b f74a 9d3c
000000c0: 56d3 4cbb a432 cf39 8720 273b b8a9 d23b
000000d0: 5fc9 11bc afd9 883c 7213 56bc b0ef ee3b
000000e0: 0f16 403c 59bd 92bb 071e bf3c adca 823b
000000f0: 5c07 563b c941 c93b b0cf 6c3c 9475 4a3c
00000100: df17 92bb ee15 453c 745e ecb9 7a1d bcba
00000110: 91df 293b 7e2f cbbc 8d7a 9c3b 19bf 603c
00000120: 8617 113c ce35 fc3b 0696 fd3b 0b88 373c
00000130: c09f eabb 6089 40bb 74bc d43b 1b1d 96bb
00000140: 03e5 be3c 16e1 98bc ec15 b6bc 2a6f db3a
00000150: ee3b 823b 6e64 44bc 741a af3b 1894 9e3c
00000160: 4314 f7ba 5441 83ba 087d 51bc f0f9 37bb
00000170: a96e 9e3c 9de9 55bc f638 a9ba 6f69 803b
00000180: c5f3 f5ba 3521 b4bc 3e03 58bb 6c69 683b
00000190: 71db 14bb 582d a13b f100 853b ed78 0eba
000001a0: d7c6 3a3a 06d5 3f3c 4190 7cbc 0faf bb3c
000001b0: 7561 593b e8b5 083b ce64 63bc 0fbd 6abc
000001c0: 416c bc3b 480f 65b9 f4ba 99bb e351 31bc
000001d0: fff1 013c 30e4 3ebc 7675 b0bb 2a67 95bb
000001e0: 3907 babb 87d2 1dba ca9d 9c3b 4327 69bc
000001f0: eb28 d7bb b7ce 633c acb0 463c 2048 393c
00000200: f985 d0bc 359e 8dbb 54cb 663c 2ecc 1cbc
00000210: 6b59 ba3c 0ba7 913c f225 4dbb e785 2dbc
00000220: c249 b5bb 2eec 88bc d516 0d3c a30b d1b9
00000230: 3753 b23a ac8f 22bb 0037 f6bb c221 b83c
00000240: 683f 81bc d6cf 033c e9a3 573b 9e6c 9a3b
00000250: 0341 013c ca3e c43b 8b00 14bc 0c7f d039
00000260: 85f9 593c 2e0d 003d 11e0 133b 84a6 1dbb
00000270: c33b ac3c e33c 84bc 5020 4abb 0bcc 66bc
00000280: cc10 483c bd4c 01bb 8f56 87bc c109 86bb
00000290: 5a38 003c 4ee6 0d3c bc1d f1bb 5f9d f6bb
000002a0: 2a5c d9bc 0500 353c 4b5f 90bc 3fba 14bd
000002b0: 8000 5c3c 26f5 023d ecca 05bb cb6f 823c
000002c0: bef1 3ebc 90fc cdbb 94db 56bc 1a1d c43c
000002d0: b761 9c3b 4b26 183c b631 b8ba 911c 1b3b
000002e0: 2c21 8bbc 80fc 9abc 27f0 813c f01c 29bb
000002f0: 4965 cf3b 02ad 753b 98ea 993c 39ea 983c
00000300: 5da6 15ba f43f 26bb 289c 073c 562b 2b3c
00000310: 5b85 443c 367f 9ebc 14f7 3f3c 0012 5fbc
00000320: 5567 13bc 3192 e53b 0f34 c63a d9d5 2abb
00000330: d222 923c f330 c43b 13f5 1ebc 93e8 08bc
00000340: f55e 9abb f6b9 a8bb 6388 e53b 6c85 e23b
00000350: bdde adbb ce17 c2bb 4862 c93b 9a0b 073d
00000360: 9535 723b e106 f6bb 0c83 8cbc 0eaa 623c
00000370: 20b8 d53b 6f39 633b 66ff 3a3b 8af1 5fbc
00000380: 531f fd3a ec16 75bc 6fb6 a6ba 1654 343c
00000390: a92a a33b b5db 783c 627f 16bc 27f9 7fba
000003a0: 41ab 193c 9111 1d3c b4b9 3d3c a9c1 08bc
000003b0: 1439 6c3c fa04 a93a fa30 93bb 13d0 f3bb
000003c0: 740c 99bc 8964 dabc ca57 77bc 09bd 46bb
000003d0: 4a19 7ebb d53f 8ebb 3b9b a63c a481 b23b
000003e0: 2001 c23c 6cb7 cd3c df73 803c 5d6b d1ba
000003f0: 6b03 fb3a cbd8 a33c ace1 b2bb 34e0 033c

weight f4 [256, 18]
-0.16748014 -0.4738238 -0.49595308 -0.080366276 0.065084316 0.21886006 0.07754255 0.0058532446
-0.08611302 -0.18427414 -0.25610292 -0.30382404 0.13484132 0.23022701 -0.02958483 0.24196228
0.111290544 -0.3238832 -0.13573302 0.27573213 0.15120667 -0.6193734 0.5465525 0.08387754
0.13689634 -0.115986235 -0.2167821 -0.005066089 -0.07067027 -0.19897209 -0.006005381 -0.4547156
-0.01053683 0.03252671 -0.14864287 -0.0590966 0.27861962 -0.0045309765 -0.0129529545 -0.14206348
-0.044985916 -0.38812613 0.06748069 -0.10199364 -0.39388594 -0.27007392 -0.15130088 0.30474824
-0.029854583 -0.4958795 -0.2283602 -0.28988698 0.29875514 0.095349826 0.3796475 -0.023546828
0.17587496 -0.19053632 0.039645933 0.30920923 0.17965905 -0.0138301365 0.26199374 -0.26218203
0.17070037 -0.34587523 0.20897616 0.11907339 0.20346086 0.10876763 0.27341095 -0.43708783
-0.33992353 0.06574368 0.10849191 -0.2439766 -0.123290025 -0.18944974 -0.34823406 0.036804773
0.4672889 0.2680234 0.04867183 -0.14564118 -0.066278204 0.19058928 0.06853483 0.27353835
0.19686194 0.13113974 0.27120999 0.084309496 0.41114938 0.027987402 0.094288595 0.22371405
0.4534798 -0.23865479 0.050487842 -0.06729892 -0.13020223 0.4331283 0.2536479 0.16245055
-0.116381936 -0.3841261 -0.0840338 -0.06966855 -0.14542231 0.33771405 0.2610793 0.31902233
0.33162066 0.29449978 -0.029101258 0.13380755 0.11241595 -0.22680789 0.26865107 0.1987933
-0.33848277 -0.14987555 -0.07188248 0.3288275 -0.23582034 0.21094221 -0.07443338 0.11431587
-0.49233925 -0.23037143 0.083456606 -0.2545102 0.08805593 0.011504147 0.49813664 -0.24113819
0.07475505 0.256419 -0.34106785 0.21509367 -0.028091645 0.14724785 0.08273448 0.084361106
-0.28001422 0.19621468 -0.10292825 0.019232742 0.0132633075 0.10468614 0.06407932 0.5130643
-0.23097216 -0.15529107 -0.29889455 0.15456462 -0.10312221 -0.46519765 -0.4166097 0.072216064
0.099789105 0.024526997 -0.2740789 0.07850679 0.1518665 0.009404983 0.3953683 -0.24776371
0.1319093 -0.3750676 -0.053841796 -0.2298046 -0.28899094 0.42977306 -0.2137412 -0.20976987
0.20012735 0.14083481 0.10919395 0.11777738 -0.022803957 -0.23373017 -0.14271551 0.13329397
-0.29469103 0.06127475 -0.4927176 -0.12728602 0.1210001 -0.04929453 0.32760155 0.26825783
0.29843313 0.3547482 -0.23397365 0.19686428 0.090724595 -0.2037177 0.5414335 0.12416863
-0.19627121 0.16179799 -0.4103877 -0.0039435443 -0.033600654 -0.021145975 -0.018528795 -0.07222171
0.07927191 -0.103832304 -0.037205245 0.46817955 0.17315555 -0.3107722 -0.107041195 0.25428632
-0.37403426 -0.42662323 -0.11658307 -0.08330206 0.24292992 -0.1355894 -0.0353159 0.2650524
-0.2963903 -0.11866399 0.09501014 0.05534242 0.10279246 -0.43092677 0.116145685 -0.3846502
-0.22148584 0.03365274 0.034077413 -0.015758807 -0.5499188 -0.19823675 0.12360455 0.07414576
-0.25306597 -0.011713217 -0.17311807 -0.16492398 -0.52636886 0.1775535 0.3401856 0.05077258
-0.09578078 0.18635216 0.0955056 0.2639131 -0.2670004 0.31420276 -0.010514127 0.017701047
00000000: ea7f 2bbe 0899 f2be 90ed fdbe 1397 a4bd
00000010: ed4a 853d da1c 603e a1ce 9e3d 93cc bf3b
00000020: 065c b0bd 5cb2 3cbe ec1f 83be d38e 9bbe
00000030: d813 0a3e a1c0 6b3e e35b f2bc f6c4 773e
00000040: 4cec e33d 05d4 a5be 99fd 0abe c32c 8d3e
00000050: ecd5 1a3e 418f 1ebf ddea 0b3f fdc7 ab3d
00000060: 8e2e 0c3e 318a edbd 20fc 5dbe 6f01 a6bb
00000070: 93bb 90bd 57bf 4bbe c9c8 c4bb 7cd0 e8be
00000080: aba2 2cbc ba3a 053d d635 18be 470f 72bd
00000090: 3ba7 8e3e 9678 94bb a138 54bc 1779 11be
000000a0: 2743 38bd 78b8 c6be 5133 8a3d 0be2 d0bd
000000b0: 6bab c9be 2147 8abe 9eee 1abe f607 9c3e
000000c0: 9991 f4bc ebe3 fdbe 42d7 69be 116c 94be
000000d0: 6ff6 983e c546 c33d 2861 c23e 47e5 c0bc
000000e0: 9118 343e f41b 43be c663 223d ac50 9e3e
000000f0: 8bf8 373e cc97 62bc 0b24 863e b93c 86be
00000100: 14cc 2e3e 8f16 b1be d9fd 553e c0dc f33d
00000110: 0b58 503e 90c1 de3d 85fc 8b3e fac9 dfbe
00000120: 750a aebe 9fa4 863d 0231 de3d 00d5 79be
00000130: 7b7f fcbd 1dff 41be bc4b b2be 9ac0 163d
00000140: 7e40 ef3e 5d3a 893e 1d5c 473d f622 15be
00000150: debc 87bd d629 433e fd5b 8c3d 380d 8c3e
00000160: 2d96 493e 7f49 063e 09dc 8a3e 75aa ac3d
00000170: 2c82 d23e d645 e53c 611a c13d 4c15 653e
00000180: 812e e83e ec61 74be 57cc 4e3d 04d4 89bd
00000190: bc53 05be fec2 dd3e 23de 813e 7059 263e
000001a0: a759 eebd 2dac c4be ea19 acbd 62ae 8ebd
000001b0: 96e9 14be dbe8 ac3e 30ac 853e e556 a33e
000001c0: 2fca a93e adc8 963e c365 eebc d904 093e
000001d0: 553a e63d 5440 68be a28c 893e 7990 4b3e
000001e0: 9d4d adbe fa78 19be 1f37 93bd 145c a83e
000001f0: e37a 71be 3c01 583e 8770 98bd 701e ea3d
00000200: e413 fcbe 7de6 6bbe 4ceb aa3d 294f 82be
00000210: ab56 b43d e47b 3c3c c40b ff3e eeec 76be
00000220: 2d19 993d 5a49 833e 72a0 aebe 8441 5c3e
00000230: 7320 e6bc 24c8 163e b270 a93d 84c5 ac3d
00000240: 065e 8fbe 80ec 483e 0ccc d2bd fc8d 9d3c
00000250: 584e 593c b065 d63d 053c 833d 2f58 033f
00000260: f783 6cbe 9f04 1fbe b508 99be 3046 1e3e
00000270: bd31 d3bd 632e eebe de4d d5be 04e6 933d
00000280: 3b5e cc3d d7ec c83c 1254 8cbe 2bc8 a03d
00000290: e482 1b3e 5c17 1a3c b76d ca3e c5b5 7dbe
000002a0: 3b13 073e dc08 c0be 3789 5cbd e651 6bbe
000002b0: 9ff6 93be 370b dc3e f9de 5abe eacd 56be
000002c0: 2fee 4c3e 0037 103e 14a1 df3d 4435 f13d
000002d0: 5dcf babc f656 6fbe 0424 12be 377e 083e
000002e0: bee1 96be 3bfb 7a3d 7b45 fcbe 4457 02be
000002f0: e7ce f73d 10e9 49bd 64bb a73e 1759 893e
00000300: 3acc 983e 8ea1 b53e ca96 6fbe ca96 493e
00000310: d1cd b93d 5f9b 50be 639b 0a3f 1f4c fe3d
00000320: 52fb 48be 5fae 253e 561e d2be d938 81bb
00000330: d7a0 09bd 533a adbc b3c9 97bc fae8 93bd
00000340: 5059 a23d 08a6 d4bd 8764 18bd 3bb5 ef3e
00000350: b04f 313e 891d 9fbe 6a38 dbbd d131 823e
00000360: 6b81 bfbe 5c6e dabe 1bc3 eebd 459a aabd
00000370: 9fc2 783e f3d7 0abe 68a7 10bd f3b4 873e
00000380: 78c0 97be 1b06 f3bd ad94 c23d bcae 623d
00000390: da84 d23d 6fa2 dcbe cadd ed3d dff0 c4be
000003a0: 2fcd 62be 75d7 093d c294 0b3d 9d18 81bc
000003b0: 7ac7 0cbf 93fe 4abe 6224 fd3d bbd9 973d
000003c0: dd91 81be cbe8 3fbc dd45 31be d5e1 28be
000003d0: 1cc0 06bf 96d0 353e cf2c ae3e e9f6 4f3d
000003e0: b728 c4bd 1ad3 3e3e 7198 c33d 9e1f 873e
000003f0: 47b4 88be 2fdf a03e 7243 2cbc c901 913c

bias f4 [256]
-0.0032493488 -0.08866531 -0.054053705 -0.0057509225 -0.09423327 0.030991707 0.03460197 0.02711517
-0.029256457 -0.049201198 0.013543085 0.040810328 -0.004434451 -0.033107717 -0.023739219 0.03859308
0.038677532 -0.013045724 0.05318883 -0.059470173 0.056547005 -0.013443244 -0.09117145 0.017798627
0.0036624908 0.09486694 -0.006659224 -0.007316308 0.0028304963 0.010116048 -0.03996107 -0.012709623
-0.0021173628 -0.06429914 -0.02956424 -0.031265456 -0.067769386 -0.038359076 -0.03993074 0.099544376
-0.019176938 0.022827737 -0.010799359 -0.057241853 -0.051686775 -0.061000425 -0.044682518 -0.0372874
0.08188196 0.018572453 0.028855907 0.040936776 -0.009048733 0.038153622 0.10484595 -0.05551046
0.036366716 0.0036920023 -0.0196754 -0.042549137 0.09139138 0.009950539 0.025197832 0.056359988
0.0070166597 -0.0394173 -0.044216868 -0.060548905 -0.045262232 0.07676384 -0.086894676 -0.07727022
0.01855604 0.08290049 0.016664093 -0.007947673 0.006417104 -0.07075498 -0.027575167 0.055005714
0.08372822 -0.060639285 0.02805962 -0.050933763 -0.009565639 -0.00085938635 -0.018950934 0.013993903
0.08638657 0.11993461 0.031795185 0.029131535 0.08021287 0.11739665 -0.0063370303 0.00054735126
-0.027554106 0.05596941 0.0057446114 0.037302017 -0.11115217 -0.0017773968 -0.019540533 -0.11219665
-0.025570951 -0.018478671 0.026082398 -0.045308977 -0.08449445 -0.09022951 -0.07067301 -0.032718677
-0.009248073 0.0573558 0.069279626 0.021072064 -0.035197675 -0.0073703625 -0.01118729 -0.026690379
0.05929942 0.06465391 -0.07408288 -0.004540491 -0.097449414 0.0007009628 -0.045076925 0.07294093
-0.088609755 -0.05644728 0.0054226024 0.082659364 -0.08470328 0.1154473 -0.0032820783 -0.01039826
-0.079389915 0.036274157 -0.17419401 -0.03226225 0.049500387 0.05366538 0.018214203 0.10894392
-0.028019674 0.05194634 -0.019545719 0.050446257 0.013951555 0.04423019 0.014422752 0.017122936
0.018214805 -0.08205137 -0.0052175047 -0.008080135 -0.03898058 -0.015950745 0.009314428 -0.010075626
0.03341972 -0.06195876 -0.06555915 0.016233033 0.007497383 -0.10314908 0.08853117 0.07860848
-0.054574553 -0.0618102 -0.0076079564 0.06599035 -0.010515706 -0.041262373 -0.036462683 -0.03211096
-0.021996165 -0.0005723063 0.060625155 -0.03349104 -0.1731094 2.5328693e-05 0.025006508 -0.07324887
0.033668336 0.063444056 0.059652645 -0.037002407 0.025183659 -0.03751383 0.051520653 0.06496557
0.018788524 0.03367448 0.043686483 0.08786856 0.0219345 -0.038899913 0.018069467 -0.03828584
0.014045002 -0.04574839 -0.005297661 0.06529629 -0.02776861 -0.11572321 0.038552944 -0.03504223
0.075476125 -0.014484087 -0.04770842 -0.011044788 0.047049385 -0.024649333 0.09079031 -0.01733012
-0.009680465 0.044588517 -0.00571384 0.022942988 -0.025891332 0.008185137 0.014046754 0.084129184
-0.051249977 0.027246036 -0.0076175747 0.02488465 0.07898401 -0.07416143 -0.07891073 -0.017917702
0.054957815 0.005113896 -0.03145171 -0.017250618 0.009480955 0.03248182 -0.06570422 0.00075205194
-0.10529273 0.08292971 0.00020278805 -0.041031606 -0.00030049708 -0.029391848 0.003126279 -0.015087102
-0.026549479 -0.09009323 0.0982073 -0.0006955365 -0.03037181 -0.026514305 -0.032144174 0.0771666
00000000: 07f3 54bb 2896 b5bd 6b67 5dbd 3c72 bcbb
00000010: 5ffd c0bd 52e2 fd3c ccba 0d3d a220 de3c
00000020: 3dab efbc 3287 49bd d1e3 5d3c bb28 273d
00000030: df4e 91bb f59b 07bd c078 c2bc c713 1e3d
00000040: 556c 1e3d bbbd 55bc 88dc 593d ff96 73bd
00000050: d59d 673d 0d41 5cbc 19b8 babd 6dce 913c
00000060: 6606 703b 9949 c23d 9f35 dabb a4bd efbb
00000070: d97f 393b c8bd 253c 38ae 23bd 063c 50bc
00000080: 74c3 0abb 44af 83bd b430 f2bc 3510 00bd
00000090: adca 8abd 681e 1dbd 6a8e 23bd ecdd cb3d
000000a0: f418 9dbc 3c01 bb3c cbef 30bc 6f76 6abd
000000b0: 83b5 53bd 95db 79bd 0405 37bd acba 18bd
000000c0: bbb1 a73d 4225 983c 3963 ec3c 52ad 273d
000000d0: 2341 14bc f946 1c3d 79b9 d63d f05e 63bd
000000e0: 44f5 143d 85f5 713b 4e2e a1bc 0148 2ebd
000000f0: 672b bb3d 9607 233c af6b ce3c bbd9 663d
00000100: 02ec e53b 0974 21bd bf1c 35bd 2102 78bd
00000110: e464 39bd 5c36 9d3d d6f5 b1bd d93f 9ebd
00000120: d602 983c bbc7 a93d 2383 883c f536 02bc
00000130: 9246 d23b fde7 90bd 51e5 e1bc ac4d 613d
00000140: b379 ab3d e660 78bd 4add e53c ec9f 50bd
00000150: 33b9 1cbc 7148 61ba fd3e 9bbc af46 653c
00000160: 71eb b03d 47a0 f53d ab3b 023d 42a5 ee3c
00000170: a546 a43d a86d f03d dda6 cfbb 1f7c 0f3a
00000180: 26b9 e1bc 2e40 653d 4b3d bc3b 00ca 183d
00000190: c0a3 e3bd 8af7 e8ba 7813 a0bc 5bc7 e5bd
000001a0: 2c7a d1bc 9560 97bc c1aa d53c e895 39bd
000001b0: 6d0b adbd 40ca b8bd 03bd 90bd 0504 06bd
000001c0: 3b85 17bc eaed 6a3d 7ae2 8d3d 529f ac3c
000001d0: 702b 10bd 1583 f1bb e54a 37bc c8a5 dabc
000001e0: f3e3 723d 4569 843d c4b8 97bd 66c8 94bb
000001f0: 8f93 c7bd d1c0 373a 95a2 38bd 0e62 953d
00000200: 0879 b5bd 4335 67bd 16b0 b13b 5049 a93d
00000210: ea78 adbd a26f ec3d 2318 57bb 775d 2abc
00000220: 2e97 a2bd 3694 143d ea5f 32be 6c25 04bd
00000230: ebc0 4a3d 3bd0 5b3d f435 953c fd1d df3d
00000240: 8489 e5bc afc5 543d 581e a0bc bca0 4e3d
00000250: 1095 643c b72a 353d 684d 6c3c 6645 8c3c
00000260: 3737 953c 8c0a a8bd 9af7 aabb 8b62 04bc
00000270: 1aaa 1fbd 23ab 82bc 8b9b 183c 3d14 25bc
00000280: 1ee3 083d 78c8 7dbd e043 86bd 23fb 843c
00000290: 9bac f53b d33f d3bd d44f b53d 7cfd a03d
000002a0: 9189 5fbd b12c 7dbd 2a4c f9bb f325 873d
000002b0: 114a 2cbc bc02 29bd e559 15bd c886 03bd
000002c0: 4d31 b4bc d306 16ba 1552 783d e72d 09bd
000002d0: 9743 31be f478 d437 73da cc3c 8103 96bd
000002e0: cfe7 093d f5ee 813d 5556 743d d68f 17bd
000002f0: f64d ce3c 1aa8 19bd 5207 533d ab0c 853d
00000300: 64ea 993c 40ee 093d 99f0 323d 6ef4 b33d
00000310: fbaf b33c 8455 1fbd 6b06 943c 9dd1 1cbd
00000320: 021d 663c aa62 3bbd 0098 adbb 10ba 853d
00000330: ff7a e3bc 4a00 edbd b1e9 1d3d 7188 0fbd
00000340: 3a93 9a3d aa4e 6dbc e769 43bd 33f5 34bc
00000350: dbb6 403d 66ed c9bc 45f0 b93d e5f7 8dbc
00000360: d09a 1ebc 73a2 363d 2a3b bbbb eff2 bb3c
00000370: 0f1a d4bc f41a 063c 5b24 663c ec4b ac3d
00000380: 7feb 51bd 1433 df3c d99c f9bb e5da cb3c
00000390: 5ec2 a13d f3e1 97bd f39b a1bd 25c8 92bc
000003a0: 721b 613d 7892 a73b 82d3 00bd 2b51 8dbc
000003b0: 0256 1b3c a80b 053d ef8f 86bd 5a25 453a
000003c0: b7a3 d7bd 0dd7 a93d 81a3 5439 c210 28bd
000003d0: 098c 9db9 2cc7 f0bc 42e2 4c3b e42f 77bc
000003e0: 4b7e d9bc cd82 b8bd e920 c93d aa54 36ba
000003f0: 4dce f8bc 8734 d9bc 9ca9 03bd 8609 9e3d
