trained_models/policy_model_cop_ppo/model.pt (torch, 739685 bytes, 14 tensors)

_last_output f4 [128, 9]
0	0x3f1a0337	0.60161155
1	0xbdf05594	-0.11735073
2	0x3f5515d9	0.8323646
3	0x3e895e87	0.2682993
4	0x3f5118f0	0.81678677
5	0xbecb9dc3	-0.397688
6	0xbf80b24a	-1.005441
7	0xbeeb5fa8	-0.45971417
8	0xbef1a627	-0.47197077
9	0x3f0f1ad8	0.55900335
10	0x3f3b6b23	0.7321035
11	0x3d0135f7	0.031545606
12	0xbfcfc73c	-1.6232677
13	0xbf521158	-0.82057714
14	0xbe08d9b3	-0.13364296
15	0x3f0472f1	0.51737887
16	0x3ebdd8bc	0.37079418
17	0x3e9de316	0.30837315
18	0x3ecee9fe	0.40412897
19	0xbf7b5fbc	-0.98192954
20	0xbf5d878a	-0.8653494
21	0xbc581cb9	-0.013190442
22	0x3ee20205	0.44142166
23	0x3efca4da	0.49344522
24	0x3fa86354	1.3155313
25	0x3e4c52e0	0.1995349
26	0xbf8197f0	-1.0124493
27	0x3ed143ab	0.4087194
28	0xbf56b300	-0.8386688
29	0x3fa6ef96	1.3041866
30	0x402d183b	2.704604
31	0x4010fd4b	2.2654598
32	0x3c19bb3e	0.009383021
33	0xbf8beba6	-1.0931289
34	0xbf470e8e	-0.77756584
35	0xc0864079	-4.19537
36	0xbf211179	-0.62917286
37	0xbe4d3973	-0.20041446
38	0x3f14dfb3	0.5815384
39	0x40264306	2.5978408
40	0x3fc85f6d	1.5654122
41	0x3f07ce89	0.5304952
42	0xbf1ab32b	-0.6042964
43	0xbf26eec0	-0.65208054
44	0xc05e9bb0	-3.4782524
45	0xbd8f3691	-0.069928296
46	0x3fa0e913	1.2571129
47	0x3f948346	1.1602561
48	0x404addee	3.1697955
49	0xbd0469ba	-0.03232739
50	0x3d50b1ba	0.050950743
51	0xc06bdcec	-3.685359
52	0xbffa970b	-1.9577345
53	0xbf09bba2	-0.5380193
54	0xbf910d3c	-1.1332164
55	0x3fc41571	1.5319043
56	0xbf275089	-0.6535726
57	0xbf5036c9	-0.81333596
58	0xc057b5e6	-3.3704772
59	0xbf1ec67a	-0.620216
60	0xbe59870c	-0.21242923
61	0x3fe12d14	1.7591882
62	0x404c92f8	3.1964703
63	0xbecc43ae	-0.39895386
64	0xbf287bc5	-0.6581386
65	0xbf8cb24c	-1.0991912
66	0x3fe71ba4	1.805531
67	0x3fcdb6c9	1.6071407
68	0x3d0123d2	0.0315283
69	0x3f2ddde5	0.6791671
70	0xbecc5845	-0.39911094
71	0xbff36c5f	-1.9017447
72	0x3f5691e3	0.83816355
73	0x3e86fb30	0.26363516
74	0xbfd995c8	-1.6998835
75	0xbf405dbf	-0.75143045
76	0xbfb63bfa	-1.4237053
77	0x3ec49348	0.38393617
78	0x3f7cc121	0.9873219
79	0x3cb42932	0.0219923
80	0x3f7964e8	0.97419596
81	0x3fe4bc35	1.7869936
82	0xbfd37999	-1.6521484
83	0xbfac398e	-1.3455064
84	0x4010473b	2.2543476
85	0x3e468b86	0.19389161
86	0x3f774fbf	0.9660606
87	0x3f2f19f2	0.68398964
88	0xbf7d1123	-0.98854274
89	0xc01f5864	-2.48977
90	0xbf7c9bf0	-0.9867544
91	0xbec014ee	-0.37515968
92	0x3f79d057	0.97583526
93	0x4004e97c	2.0767508
94	0x401750ca	2.364306
95	0x3ece22a7	0.40260813
96	0xbf5b62c2	-0.8569757
97	0xbe8fed92	-0.2811094
98	0xc0509531	-3.259106
99	0xbefcacd6	-0.49350613
100	0xbe03a32f	-0.12855218
101	0x3f75810f	0.9590005
102	0x4031e681	2.7796938
103	0x4003046e	2.0471454
104	0x3f591739	0.8480106
105	0xbf98c584	-1.1935277
106	0xbf83bbc5	-1.0291678
107	0xc0823738	-4.0692406
108	0xbe6ccf76	-0.23126015
109	0xbc9c97d8	-0.019115373
110	0xc0541588	-3.3138142
111	0xbe900ba4	-0.2813388
112	0xc00651a6	-2.0987334
113	0x3d41a0c2	0.04727245
114	0x3fdc630d	1.7217728
115	0xbc933f06	-0.017974388
116	0x40678dbf	3.6180265
117	0xbe2b70ba	-0.1674222
118	0xc0045e8c	-2.0682707
119	0xc06c797c	-3.6949148
120	0x3f58be51	0.846654
121	0xbf7d46b2	-0.98936
122	0x4009ec69	2.1550543
123	0x4050b77a	3.2611985
124	0xbdc5a886	-0.09651284
125	0x3e381cbe	0.17979714
126	0x3ec4c166	0.384288
127	0x3fb30dd1	1.3988591
128	0x3fd68546	1.6759422
129	0x407c0dd3	3.9383438
130	0xbf9d3ed1	-1.2284795
131	0xbf51efe5	-0.82006675
132	0xc061401a	-3.5195374
133	0xbfdaa40a	-1.7081311
134	0xbf7f69ee	-0.9977101
135	0x3f6e64a4	0.93122315
136	0x3f79ea5f	0.97623247
137	0xbf232461	-0.63727385
138	0x3fcddaf3	1.6082443
139	0x3f0b63c5	0.5444911
140	0xbf87a56c	-1.0597358
141	0xbf535842	-0.82556546
142	0xbf94157b	-1.1569055
143	0xbf8d3683	-1.1032261
144	0xbf04e0e5	-0.5190566
145	0x3ff45bc8	1.909051
146	0x3f74774d	0.9549454
147	0xbf31078d	-0.69152147
148	0xbfed23a7	-1.8526505
149	0xbf41d435	-0.7571443
150	0xbf943c48	-1.1580896
151	0x3f4d3ca3	0.8017065
152	0x3f8abb19	1.0838348
153	0xbd022e6d	-0.031782556
154	0x3f86f927	1.0544785
155	0x3faed853	1.3659767
156	0xbf9a4fcb	-1.2055601
157	0x3e4a4890	0.19754243
158	0xbf87d89b	-1.0612978
159	0xbf78bd13	-0.97163504
160	0xbdcea0df	-0.100892775
161	0x3f65d72a	0.8978144
162	0x3fa8c41f	1.3184851
163	0xbf0ad422	-0.5422994
164	0xbf7d7693	-0.99009055
165	0x4008e39b	2.138892
166	0xbfaeda82	-1.3660433
167	0x3f289d31	0.65864855
168	0x3e5bd516	0.21468005
169	0xbf51d48f	-0.81964964
170	0xbfb3dbef	-1.4051493
171	0x3d0122cf	0.031527337
172	0xbf57cffa	-0.8430172
173	0xbfea4e80	-1.8305206
174	0xbffadb35	-1.9598147
175	0xbe0d029a	-0.13770524
176	0x3fc60589	1.5470439
177	0x4032b982	2.7925725
178	0x3eed547c	0.4635352
179	0x3c1e7488	0.009671338
180	0xbe955754	-0.2916819
181	0x3fe93b9d	1.8221318
182	0x3fdac080	1.7089996
183	0x403ca0cf	2.947315
184	0x3f482d23	0.78193873
185	0xbf7e3a98	-0.99308157
186	0xc045eb89	-3.092501
187	0xbfa13760	-1.2595024
188	0xc00fc900	-2.246643
189	0x3f9883e7	1.1915253
190	0x3f1ad011	0.60473734
191	0xbda7d3ac	-0.0819467
192	0xbfece67b	-1.8507837
193	0xbeb2e93f	-0.34943578
194	0xbf847f62	-1.0351374
195	0x3f139979	0.57656056
196	0xbec1506c	-0.3775667
197	0x3f997075	1.1987444
198	0xbfcb9b80	-1.590683
199	0x3f2fce24	0.6867392
200	0xbf8fe120	-1.1240578
201	0xc0007895	-2.0073597
202	0xc06e4715	-3.7230885
203	0xbe6f6b5a	-0.23380795
204	0x3fb262de	1.3936422
205	0x40310beb	2.7663524
206	0x4072bf5a	3.7929292
207	0x3f08f60e	0.5350045
208	0xbfdd8857	-1.7307233
209	0xc095e3a1	-4.6840367
210	0xbfb20473	-1.3907608
211	0xc0061cee	-2.0955157
212	0x3f954d36	1.1664188
213	0x409d273c	4.9110394
214	0x3eb0ec92	0.3455549
215	0x4014897c	2.3208914
216	0x3f6f6a86	0.93521917
217	0xbe88a3ba	-0.26687413
218	0xbf9a3460	-1.2047234
219	0xbee9379b	-0.45550236
220	0xbebfdff1	-0.3747554
221	0x3f24d29d	0.6438387
222	0x3f990cf6	1.195708
223	0x3e2914c4	0.16511828
224	0xbf698882	-0.9122392
225	0xbed660a2	-0.418706
226	0x3fcedd70	1.6161327
227	0x3ebceed5	0.36900964
228	0xbfd600c1	-1.671898
229	0xbfcbc1b6	-1.5918491
230	0x3dac03e3	0.08399179
231	0xbccf57f8	-0.025310501
232	0x3f75978b	0.9593436
233	0x3f2db5a8	0.6785531
234	0x402d371f	2.7064893
235	0xbf701a65	-0.93790275
236	0xc01bfd58	-2.4373379
237	0x3ea73858	0.32660174
238	0x3d2f554a	0.042805947
239	0xbe5b139a	-0.21394196
240	0x3fe10ff4	1.7582994
241	0xbf8f719c	-1.1206546
242	0xbf6a1601	-0.91439825
243	0xbe680745	-0.22659023
244	0xbfe8f559	-1.8199874
245	0xc01f4a50	-2.4889107
246	0x4035ae3f	2.8387601
247	0xbf0300e8	-0.5117326
248	0x3ff37aa2	1.90218
249	0x3f86ebfa	1.0540764
250	0xbf334a7c	-0.7003553
251	0xbf3e8668	-0.7442384
252	0xbf646435	-0.89215404
253	0xbf9829ab	-1.1887716
254	0xbfebde98	-1.8427305
255	0x402aa40f	2.6662633

weight f4 [9, 256]
0	0x3b3f1926	0.0029159277
1	0xbca0d755	-0.019633928
2	0xbd991041	-0.07473803
3	0x3cfffece	0.03124943
4	0xbc7775e2	-0.015103789
5	0xbc0b87fb	-0.008516307
6	0xbcaf3b7e	-0.021390673
7	0x3c50bb86	0.012740022
8	0x3c619aa5	0.01376978
9	0x3daa0cf1	0.083032496
10	0xbce3c507	-0.02780391
11	0x3d068853	0.032844853
12	0x3b1100c6	0.0022125705
13	0xbc29d51f	-0.010365753
14	0x3bcca22c	0.0062449183
15	0x3cc25efd	0.023726935
16	0x3cb113b7	0.021615846
17	0xbc10cf3d	-0.008838472
18	0x3cb90f73	0.022590375
19	0xbd74f6c3	-0.059805643
20	0xbd23c5e1	-0.039983634
21	0xbbafe338	-0.0053676628
22	0x3c57dbef	0.013174995
23	0x3c91d4b2	0.017801616
24	0xbd1308a7	-0.035896923
25	0xbca2b3fd	-0.019861216
26	0x3d75d5d2	0.060018368
27	0xbc8d5890	-0.017254144
28	0x3ceb3cb2	0.028715465
29	0xbcba7a60	-0.022763431
30	0x3c97e01e	0.018539485
31	0xbd7d8196	-0.06189116
32	0x3c257431	0.010098503
33	0xbcb47729	-0.022029476
34	0xbce850fe	-0.028358933
35	0x3c31bf44	0.010848824
36	0x3ca25b4b	0.019818923
37	0x3d32d568	0.04366055
38	0x3c8bbc33	0.017057514
39	0xbba75239	-0.0051062373
40	0xbcca52da	-0.02469771
41	0x39c7ef8f	0.00038134723
42	0x3bd65023	0.0065403148
43	0x3d1ff54d	0.039052296
44	0xbd7bc950	-0.061471283
45	0xbca360dd	-0.019943649
46	0x3cf9df52	0.030501995
47	0x3b1285b1	0.0022357518
48	0x3d0f2bea	0.03495399
49	0x3d3cefe5	0.04612722
50	0xbd0f502d	-0.03498857
51	0xbcdc52e4	-0.026894994
52	0x3c2ac96b	0.010423998
53	0x3d9433d4	0.07236448
54	0x3ceb8727	0.02875097
55	0xbc8b9268	-0.017037585
56	0x3be19b47	0.0068849656
57	0xbc8ce967	-0.017201139
58	0x3ce3c235	0.027802566
59	0xbccf17cf	-0.025279908
60	0x3c2a40b9	0.010391408
61	0x3d8628af	0.065507285
62	0x3c2f26d2	0.010690408
63	0x3d4af1fa	0.049547173
64	0xbc2f5e12	-0.01070358
65	0xbcbb10a7	-0.022835089
66	0xbda7e239	-0.081974454
67	0xbd3656fe	-0.044516556
68	0x3ca4fe02	0.020140652
69	0xbc11cbfc	-0.008898731
70	0x3cc5817d	0.024109596
71	0x3d53704c	0.051620767
72	0xbd33f148	-0.043931276
73	0x3cb00851	0.02148834
74	0xbca123c1	-0.01967037
75	0x3cad0d6f	0.02112457
76	0xbd356c39	-0.044292662
77	0x3d11e0b8	0.0356147
78	0xbd16d864	-0.03682746
79	0xbc38255d	-0.011239377
80	0x3d90c159	0.07068128
81	0xbd9dd9b3	-0.077075385
82	0x3c859b19	0.016309308
83	0xbc96facb	-0.018430134
84	0xbcbab75d	-0.022792513
85	0xbd3f0c53	-0.046642613
86	0xbd0d536e	-0.034503393
87	0xbc8ca742	-0.017169598
88	0x3c0daa49	0.008646556
89	0x3ca925d8	0.020647928
90	0xbd833bcf	-0.06407892
91	0xbba9f290	-0.0051863864
92	0x3c83100c	0.015998863
93	0x3cd104df	0.025515018
94	0x3c114a12	0.008867757
95	0x3d2f24b8	0.042759627
96	0xbd4235af	-0.047414478
97	0x3ce7b8b3	0.028286314
98	0xbcd47597	-0.025934977
99	0x3c296adb	0.010340418
100	0x3cdb8800	0.026798248
101	0x3cb904e8	0.022585347
102	0xbc9b5175	-0.01895974
103	0x3b1ef97c	0.002425759
104	0xb9cf35ef	-0.000395223
105	0x3c82030c	0.015870593
106	0xbd5471af	-0.05186623
107	0xbc198033	-0.009368944
108	0x3c98c8aa	0.018650372
109	0xbaa85e2b	-0.0012845447
110	0x3c89e54f	0.016832976
111	0xbc1b1030	-0.009464309
112	0xbd44b225	-0.048021454
113	0xbc51219e	-0.012764363
114	0xbd00b973	-0.03142686
115	0x3c71088a	0.0147115085
116	0xbbac33fa	-0.0052552195
117	0x3cdbea3a	0.026845086
118	0x3ca7853c	0.020449273
119	0x3d16602d	0.036712814
120	0x3c9e77cd	0.019344235
121	0xbbde82e9	-0.006790508
122	0xbc8f8d23	-0.017523354
123	0xbbd1c524	-0.006401675
124	0xbd286d35	-0.041119773
125	0x3cf8716f	0.030327527
126	0x3d031fbd	0.03201269
127	0xbc71dc13	-0.014761942
128	0x3a8fe8ae	0.0010979378
129	0xbd536edf	-0.051619407
130	0xbc810afa	-0.015752304
131	0x3c7697a4	0.015050802
132	0xb98ff627	-0.00027458483
133	0xbcbcad39	-0.023031818
134	0x3ad426aa	0.0016185839
135	0xbd311585	-0.043233413
136	0xbd2a3f78	-0.041564435
137	0xbd2bb5bc	-0.041921362
138	0xbd488273	-0.04895253
139	0xbd426f76	-0.04746958
140	0x3c15aa35	0.009134819
141	0xbcbbbbc6	-0.022916686
142	0x3bec7bae	0.007216892
143	0x3c871bc3	0.01649273
144	0x3d1ced03	0.03831197
145	0x3d12d3a6	0.035846375
146	0x3d41fd44	0.047360674
147	0xbdb23023	-0.087005876
148	0xbc7aa1cf	-0.015297367
149	0xbcf5cff9	-0.030006396
150	0x3c817a5f	0.015805421
151	0x3c74aaeb	0.014933328
152	0xbd01a36f	-0.031650003
153	0xbd6315ca	-0.0554407
154	0x3c5e9244	0.013584677
155	0xbc37b0a5	-0.011211549
156	0x3c6dcaf5	0.014513721
157	0xbc5ba2f8	-0.013405554
158	0xbba63028	-0.0050716586
159	0xbca50768	-0.020145133
160	0xbd07ced8	-0.033156246
161	0x3d60f08b	0.0549169
162	0xbd5113a5	-0.051044125
163	0x3c9f473d	0.019443149
164	0xbb5cf442	-0.0033714925
165	0xbb76f52b	-0.0037682753
166	0xbbb5c94f	-0.0055476795
167	0x3b72cb7d	0.0037047558
168	0x3d26ff28	0.04077068
169	0x3cbb3b0c	0.022855304
170	0x3c85623c	0.016282193
171	0xbd0c5704	-0.034262672
172	0x3d0a8003	0.033813488
173	0xbcef61e6	-0.029221486
174	0xbd0e27ec	-0.03470604
175	0x3c3d950b	0.011571179
176	0x3d1ec4c8	0.038761884
177	0x3d78418e	0.060609393
178	0x3d852c79	0.06502623
179	0xbd069ff6	-0.032867394
180	0x3cb2d63b	0.021830669
181	0x3cd86040	0.026413083
182	0xbc59c90b	-0.013292561
183	0x3ce2bca1	0.027677836
184	0x3cf0eed5	0.029410759
185	0x3b472c7b	0.0030391503
186	0x3bd869d8	0.0066044144
187	0x3be03bc5	0.0068430626
188	0x3cb432a0	0.021996796
189	0x3b862c1f	0.004094615
190	0xbcd38c6c	-0.025823794
191	0xbc238248	-0.009979792
192	0x3cdd8f06	0.027045738
193	0x3cb5d7ef	0.022197692
194	0x3ca85cca	0.020552058
195	0x3c630555	0.013856252
196	0x3d7a175c	0.061057433
197	0x3d368885	0.04456379
198	0x3be7efe0	0.007078156
199	0x3cd405b2	0.025881622
200	0x3c72a130	0.014808938
201	0xbd460529	-0.048344765
202	0xbbb7aeef	-0.0056055705
203	0xbd09be9d	-0.03362905
204	0x3cf946c6	0.030429255
205	0x3d8f792e	0.07005535
206	0xbc71fa01	-0.014769078
207	0xbce1f8c3	-0.02758444
208	0x3a9fac31	0.0012182054
209	0xbcc258aa	-0.023723919
210	0x3bfd209c	0.0077248346
211	0x3c946571	0.018114777
212	0xbd95f356	-0.07321803
213	0x3cc12ef6	0.023581963
214	0x3c55f8d7	0.013059816
215	0xbb6d179e	-0.0036177407
216	0xbad11498	-0.0015951572
217	0xbd722eb9	-0.05912659
218	0x3c8ea803	0.017414099
219	0x3cd6212f	0.02613887
220	0xbd59512d	-0.05305593
221	0xbc44bc34	-0.012007762
222	0xbd2e7e59	-0.042600963
223	0xbc69bdff	-0.01426649
224	0xbc8128cf	-0.01576653
225	0xbbddb8f8	-0.0067664348
226	0xbcb268a4	-0.021778412
227	0x3d109bd3	0.035304856
228	0xbd18690a	-0.037209548
229	0xbb543a7e	-0.0032383497
230	0x3c031a3b	0.008001859
231	0xbcb47695	-0.0220292
232	0xbd18997f	-0.03725576
233	0x3d476df0	0.04868883
234	0xbd07a8c5	-0.033119936
235	0x3d622d2e	0.055218868
236	0x3d19d8ab	0.037560146
237	0x3c7efaeb	0.015562753
238	0x3ce0a449	0.027422087
239	0x3bf8d587	0.007593814
240	0x3c8c2d0e	0.017111327
241	0xbcd9d3a0	-0.026590168
242	0xbd96a326	-0.07355337
243	0x3c6eb58d	0.014569652
244	0x3c0faef9	0.008769744
245	0x3bd9e18f	0.006649203
246	0xbc3437ad	-0.010999602
247	0x3d1822c9	0.03714255
248	0x3c2b8f8c	0.010471236
249	0xbcdc0a60	-0.026860416
250	0x3d873f4b	0.06603869
251	0x3b9322e8	0.004490245
252	0x3bb782b6	0.0056002988
253	0xbcd1c9cd	-0.025608921
254	0x3d083fdc	0.033264026
255	0x3b080887	0.0020757036

bias f4 [9]
0	0x3bdda191	0.006763645
1	0x3bf5a59a	0.007496548
2	0xbbd3ec49	-0.0064673764
3	0x3c35ea7d	0.01110327
4	0xbc4e5151	-0.0125926295
5	0xbb8e2eca	-0.004339074
6	0x3c3f3307	0.011669881
7	0xbbef4ca8	-0.0073028393
8	0xbc242429	-0.010018387

weight f4 [256, 19]
0	0xbd26cbb5	-0.040721614
1	0x3dbb3b73	0.091421984
2	0xbeac074a	-0.3359931
3	0x3d78f463	0.06077994
4	0xbe979ab9	-0.29610232
5	0x3d28c948	0.04120758
6	0x3d003038	0.031295985
7	0x3da2eb6b	0.07955059
8	0xbdc239d5	-0.09483687
9	0x3e74e518	0.23915517
10	0xbef6d1f2	-0.4820705
11	0xbeb6ef33	-0.3572937
12	0xbe0d5458	-0.13801706
13	0x3e21b068	0.1578995
14	0x3e58e347	0.2118045
15	0x3e8dc3eb	0.27688536
16	0xbe06b357	-0.1315435
17	0xbc5eacf9	-0.013591045
18	0xbeac8937	-0.33698437
19	0xbe7e37dd	-0.24825998
20	0x3e83ea4e	0.25764698
21	0x3c299d39	0.010352426
22	0x3c04f099	0.008114004
23	0xbd3b4c05	-0.045726795
24	0xbea3caa5	-0.31990543
25	0xbe58d72e	-0.21175835
26	0x3ddf987a	0.109177545
27	0xbe2eab40	-0.17057514
28	0xbc613a3a	-0.013746792
29	0xbe23ea87	-0.16007434
30	0xbc8bb33e	-0.017053243
31	0x3eaae522	0.3337794
32	0xbe9b57fd	-0.30340567
33	0xbe332660	-0.17495108
34	0xbf199c68	-0.6000428
35	0x3e286ead	0.1644847
36	0xbe55f686	-0.20894822
37	0xbd9d7fc3	-0.07690384
38	0x3e9345a1	0.2876406
39	0xbd6273a2	-0.055286057
40	0xbe20a9b5	-0.15689738
41	0x3e089adf	0.13340329
42	0xbd31c3a5	-0.04339947
43	0x3e3371a0	0.17523813
44	0xbe28b4d3	-0.16475229
45	0x3c25e6c1	0.010125817
46	0xbe612972	-0.21988466
47	0xbd355d74	-0.044278577
48	0x3daf22bb	0.08551546
49	0xbec5b473	-0.38614234
50	0x3ea938e3	0.33051214
51	0xbdb104c7	-0.08643489
52	0xbeedd6ee	-0.4645304
53	0x3e038ce6	0.12846717
54	0x3dab1fdd	0.08355687
55	0x3efc90ce	0.49329227
56	0x3da4b015	0.080413975
57	0xbd2d5feb	-0.042327803
58	0x3e4e216b	0.20129935
59	0x3efcbf9a	0.4936493
60	0x3ed2df4d	0.4118599
61	0xbd4fc644	-0.05072619
62	0x3e096314	0.13416702
63	0x3ec77631	0.3895736
64	0x3d965e74	0.07342234
65	0x3d135453	0.03596909
66	0xbe5ad7a3	-0.21371321
67	0xbe1e7e66	-0.15477905
68	0x3d5cb526	0.053883694
69	0x3e8d5fe1	0.27612212
70	0x3ea6fd61	0.32615188
71	0xbd97ac6f	-0.07405936
72	0x3db3349d	0.087502696
73	0xbe5515b1	-0.20809056
74	0x3e82b832	0.25531155
75	0xbda1310b	-0.07870682
76	0xbeabdcac	-0.33566797
77	0xbd5b948d	-0.053608466
78	0x3b3d5c28	0.002889404
79	0xbe346a9f	-0.17618798
80	0xbeb1c3c6	-0.34719676
81	0xbdc13689	-0.0943423
82	0xbdb8815e	-0.0900905
83	0xbeb6dfe3	-0.35717687
84	0xbe4e2391	-0.20130755
85	0xbe70f816	-0.23532137
86	0x3ea00ae2	0.31258303
87	0xbdcc53a7	-0.09976893
88	0xbda30874	-0.07960597
89	0x3e82e157	0.25562546
90	0x3e8ea1cf	0.27857825
91	0x3ee96708	0.4558642
92	0xbe2db98d	-0.16965313
93	0x3e258bdb	0.16166632
94	0x3d7c5a92	0.061609812
95	0xbe51cdf9	-0.20488729
96	0x3e801005	0.25012222
97	0xbe37fe46	-0.17968091
98	0xbeafc77c	-0.34331882
99	0x3e2cd6d9	0.16878833
100	0xbeab02f8	-0.33400702
101	0xbd792bc2	-0.060832746
102	0x3e5d60bd	0.21618934
103	0x3dc4729c	0.095921725
104	0xbce7b8df	-0.028286396
105	0x3e23e7a9	0.1600634
106	0xbe682586	-0.22670564
107	0x3d0930a9	0.03349367
108	0xbc5f7c4c	-0.0136404745
109	0x3e497be8	0.19676173
110	0x3e814000	0.2524414
111	0x3ea0d0c5	0.3140928
112	0x3ede2ba0	0.43392658
113	0xbdc211b4	-0.09476033
114	0x3e0edbe2	0.13951066
115	0x3e109b70	0.14121795
116	0x3e856ebb	0.26061043
117	0x3e9ba93c	0.30402553
118	0x3c7ce34c	0.015435051
119	0x3e64715d	0.2230887
120	0xbec25d9e	-0.3796205
121	0xbe0aa564	-0.13539654
122	0xbef97f8e	-0.4873013
123	0xbdf46484	-0.11933234
124	0xbd4d02a8	-0.05005136
125	0xbb71a537	-0.0036872157
126	0x3e65483b	0.22390835
127	0x3ebefeb1	0.3730369
128	0xbe8d4774	-0.27593577
129	0xbd4fc074	-0.050720647
130	0xbdd067a0	-0.10176015
131	0xbd67e599	-0.056615446
132	0x3db3f5da	0.08787127
133	0xbd4fb64e	-0.05071097
134	0xbe87e7c9	-0.26544026
135	0xbd8c9fc5	-0.06866411
136	0x3f01d049	0.5070844
137	0x3e30a8dc	0.17251915
138	0x3e482963	0.19547038
139	0xbdb5d7a7	-0.08879023
140	0xbe8fd789	-0.28094128
141	0x3ebfabf3	0.37435874
142	0x3e197e18	0.14989507
143	0x3e461372	0.19343355
144	0xbd410084	-0.047119632
145	0x3e945343	0.28969774
146	0xbe577e45	-0.21044262
147	0xbe1d02aa	-0.15333048
148	0xbe5ac0d7	-0.21362625
149	0xbe3fa027	-0.18713437
150	0x3e8e4ae6	0.27791518
151	0xbd3cde45	-0.04611041
152	0x3e5299fc	0.20566553
153	0x3d65391a	0.05596266
154	0xbda5ca17	-0.08095186
155	0x3ed04414	0.4067694
156	0xbde5a6d5	-0.11213461
157	0x3dc154db	0.09440013
158	0xbd19e3b1	-0.03757066
159	0xbbf153cd	-0.007364726
160	0x3ea6764a	0.32512122
161	0xbf0ed6b6	-0.5579637
162	0xbe9806c4	-0.29692662
163	0x3d5b7676	0.05357977
164	0xbe3c5f35	-0.18395694
165	0xbe116065	-0.14196928
166	0x3af95cc3	0.0019024838
167	0x3d9ba655	0.07600085
168	0xbe7fd62e	-0.24984047
169	0xbedf947e	-0.43667978
170	0xbd7be195	-0.06149443
171	0x3d31e3e5	0.043430228
172	0xbe5b0540	-0.21388721
173	0x3993bd42	0.00028179033
174	0xbebe0bd5	-0.37118402
175	0xbcf22681	-0.029559376
176	0xbf066fd0	-0.5251436
177	0x3d773642	0.06035448
178	0x3d93da24	0.072193414
179	0x3ea1861c	0.3154763
180	0x3d32680e	0.043556266
181	0xbe85c2ad	-0.26125088
182	0x3b5129cf	0.003191579
183	0x3e81e89f	0.25372788
184	0x3ef4d4c5	0.4781858
185	0x3c99bc8c	0.018766664
186	0xbce57ed5	-0.02801458
187	0x3d9a56e8	0.07536107
188	0x3de2099c	0.11036989
189	0xbd9e473b	-0.0772843
190	0x3e86708a	0.26257735
191	0x3e723f51	0.23656966
192	0x3e3b20ab	0.1827418
193	0xbe6b6b6f	-0.22990201
194	0x3e1d7bde	0.15379283
195	0x3d2a2b5b	0.041545253
196	0xbed84fd0	-0.42248392
197	0x3caf2b9c	0.0213831
198	0xbddbeaa1	-0.10738111
199	0xbea8661a	-0.32890397
200	0xbe8e21ee	-0.2776026
201	0xbd08cb4a	-0.033396997
202	0xbcd35002	-0.025794987
203	0xbf04a161	-0.51808745
204	0xbe6bd0f9	-0.23028935
205	0xbd6a335e	-0.057177894
206	0x3db3027e	0.0874071
207	0x3e1332e7	0.14374886
208	0xbd3f7c03	-0.046749126
209	0x3b2b15ca	0.0026105517
210	0xbe2ee48e	-0.17079374
211	0x3d806bf1	0.06270588
212	0x3df1ad2f	0.1180061
213	0xbf0e32fb	-0.5554654
214	0x3e2d3fd0	0.16918874
215	0x3d1d76a5	0.038443226
216	0xbd825a69	-0.063649006
217	0x3edb3f1d	0.4282159
218	0xbed2a006	-0.41137713
219	0xbd8e81f5	-0.06958381
220	0x3d3e395e	0.04644143
221	0xbde9d218	-0.11417025
222	0xbe2b62f1	-0.16736962
223	0x3e09daba	0.13462344
224	0xbe5caf33	-0.21551208
225	0xbce7a897	-0.028278632
226	0x3e621236	0.2207726
227	0x3e6de23d	0.23230834
228	0x3eb5b477	0.35489246
229	0xbe71a143	-0.23596673
230	0xbe05e795	-0.13076623
231	0xbc61ba58	-0.013777338
232	0xbd175357	-0.036944713
233	0xbee2cc54	-0.44296515
234	0xbe524437	-0.20533834
235	0xbe8d0cee	-0.27548927
236	0xbec6965a	-0.38786584
237	0xbd667895	-0.05626734
238	0x3daabe83	0.083371185
239	0xbe0d3ebd	-0.13793464
240	0x3e2a78c7	0.16647635
241	0xbe409edc	-0.188106
242	0xbc8f2320	-0.017472804
243	0xbe155928	-0.14584792
244	0x3e92a321	0.28640082
245	0x3ed501ec	0.4160303
246	0xbddae5fb	-0.106883965
247	0xbd1d2319	-0.03836355
248	0x3cc27250	0.02373615
249	0x3ea6ff45	0.3261663
250	0xbd202d2a	-0.03910557
251	0xbdf8a34c	-0.121405214
252	0xbe2ece57	-0.170709
253	0x3c49fb50	0.012327984
254	0xbd92028b	-0.07129391
255	0x3de0be7c	0.10973832

bias f4 [256]
0	0x3cce317e	0.025170084
1	0x3c3d60a7	0.011558688
2	0x3c127e96	0.008941313
3	0xbcc55659	-0.024089025
4	0x3d0e10ae	0.034683876
5	0xbd4ae1c3	-0.04953171
6	0xbd6c46b2	-0.057684608
7	0x3c9bd0ef	0.019020526
8	0x3baf986c	0.0053587463
9	0xbb0dd179	-0.0021639748
10	0xbb6a33c5	-0.0035736423
11	0x3d02476d	0.0318064
12	0x3ca56610	0.020190269
13	0xbc2fe9d0	-0.010736898
14	0x3bf98fc5	0.0076160156
15	0x3d4dada5	0.05021443
16	0x3aa52b0c	0.001260133
17	0x3ba2f5db	0.004973156
18	0x3d1a9d2a	0.03774754
19	0x39a9c3a8	0.00032379967
20	0xbb5440ff	-0.0032387374
21	0x3c35e155	0.011101087
22	0x3ca1556c	0.019694053
23	0x3c80081d	0.015628869
24	0x3cce6344	0.025193818
25	0x3acc6b4f	0.0015595945
26	0xba124241	-0.00055793306
27	0xbc4805e2	-0.012208434
28	0xbcc33ea5	-0.023833582
29	0xbd303f9c	-0.043029413
30	0xbd190737	-0.037360396
31	0xbcf99591	-0.030466827
32	0xbc80a8f8	-0.01570557
33	0x3d318488	0.043339282
34	0x3bfc0d24	0.007691996
35	0x3c374aba	0.01118725
36	0xbb2d87b7	-0.0026478597
37	0x3a9a679e	0.0011780148
38	0x3d1d5d74	0.038419202
39	0x3cb9b24f	0.022668032
40	0x3cd75620	0.026286185
41	0xbc4292b1	-0.011875794
42	0xbc7a4f27	-0.01527766
43	0xbcc7f513	-0.024408853
44	0x00000000	0.0
45	0xbd653b24	-0.055964604
46	0xbd62f335	-0.05540772
47	0xbd5f2b35	-0.054484565
48	0x3d202568	0.039098173
49	0x3bca769f	0.0061786915
50	0x3c03dc49	0.008048126
51	0x3c911c23	0.017713612
52	0x3d2c6fa0	0.04209864
53	0xbc67c1ec	-0.014145356
54	0x3c10ba2a	0.0088334475
55	0x3c786aba	0.015162164
56	0x3b475c8d	0.0030420155
57	0xbcb8c7a6	-0.022556137
58	0xbd0b1e44	-0.03396441
59	0xbca2b939	-0.019863712
60	0xbcf350db	-0.02970164
61	0xbd2b870e	-0.041876845
62	0xbcb3c441	-0.021944167
63	0x3d2009b8	0.03907177
64	0x3cbbad09	0.022909658
65	0x3c650645	0.013978546
66	0xbc619041	-0.013767303
67	0xbd2b8201	-0.04187203
68	0xbd643ea8	-0.055723816
69	0x3b983aa5	0.004645663
70	0xbd080b46	-0.033213876
71	0x3ac951d2	0.0015359467
72	0xbca0c2fd	-0.019624228
73	0x3c50c57e	0.012742398
74	0xbd41dedc	-0.047331676
75	0xbc06689c	-0.008203652
76	0x3d3d4e97	0.046217527
77	0xbd0eb96b	-0.034844797
78	0x3ca63862	0.020290557
79	0xbc8ae751	-0.016956003
80	0x3b190e09	0.0023354313
81	0x3cc8a1fd	0.024491305
82	0x3cb1d1e7	0.021706535
83	0x3b615675	0.0034383808
84	0xbbad7100	-0.0052930117
85	0xbc59928f	-0.013279571
86	0x3d28b716	0.04119023
87	0xbd0f9302	-0.035052307
88	0xbc65deb0	-0.014030144
89	0xbc636590	-0.013879195
90	0x3c85772e	0.01629218
91	0x35db145f	1.63227e-06
92	0x3d2b0ec1	0.041762117
93	0x3cddf182	0.027092699
94	0xbc9dd30d	-0.019265676
95	0xbcda3cfe	-0.026640411
96	0xbc155425	-0.0091143
97	0xbc0ce7db	-0.0086002005
98	0x3cf9fad2	0.030515108
99	0xbcdc8b57	-0.026921911
100	0x3c72d052	0.014820175
101	0xbab247b5	-0.0013601693
102	0x00000000	0.0
103	0xbd22f4c9	-0.039784227
104	0x3da35006	0.07974248
105	0xbb649445	-0.0034878415
106	0xbcae8fda	-0.021308828
107	0x3c8148f1	0.015781851
108	0x3d3f4203	0.046693813
109	0xbc0de8b8	-0.0086614415
110	0x3cca7165	0.024712274
111	0x3d071d32	0.032986827
112	0xbd91fdb0	-0.07128465
113	0x3c046359	0.008080327
114	0xbd6419ae	-0.055688553
115	0x3d365a7c	0.044519886
116	0xba7b0efd	-0.00095771236
117	0x3b9a9ba0	0.004718259
118	0xbd8e726c	-0.06955418
119	0xbbf78752	-0.0075539732
120	0x3d0defb4	0.034652427
121	0x3d44f253	0.04808266
122	0x3b813bbb	0.003943888
123	0xbcc46901	-0.023975851
124	0x35656caa	8.5467275e-07
125	0x3b0c3cd3	0.0021398559
126	0xbbef7ecb	-0.007308816
127	0x3c7413dd	0.014897314
128	0x3c62923a	0.013828808
129	0xbcb33cf1	-0.021879645
130	0x3c29aa6a	0.010355571
131	0xbc78fa2e	-0.015196366
132	0xbd1f50b4	-0.038895324
133	0x3bc7df86	0.006099644
134	0xbc6eada3	-0.014567765
135	0xbd075524	-0.03304018
136	0x3bdaa611	0.0066726287
137	0x3d101244	0.03517367
138	0x3c56493d	0.013078985
139	0x3c8c5edd	0.017135078
140	0xbc59b626	-0.0132880565
141	0xbd0027c0	-0.03128791
142	0xbb559134	-0.0032587769
143	0xbc314969	-0.010820725
144	0x3c7b179b	0.015325452
145	0x3ced29f8	0.028950676
146	0xbce102eb	-0.027467212
147	0xbc9886cb	-0.018618962
148	0xb876fc16	-5.8885744e-05
149	0x3d0de754	0.03464444
150	0xbccb6cc9	-0.024832146
151	0xbbc8985a	-0.0061216773
152	0x3caa04c6	0.02075423
153	0xbcc86a87	-0.024464859
154	0xbd0a0058	-0.033691734
155	0xba60e4df	-0.00085790263
156	0x3b9ac3ee	0.0047230637
157	0xbd148e5c	-0.036268577
158	0x3b83e500	0.0040251017
159	0xbbe1b100	-0.006887555
160	0x3ca911b3	0.020638322
161	0xbca3d0b6	-0.019996982
162	0xbc8f7a37	-0.017514331
163	0x3d13e539	0.036107276
164	0x3d728320	0.05920708
165	0x3c110196	0.008850476
166	0xba407c00	-0.0007342696
167	0xbc95e4a8	-0.018297508
168	0x3d00c42d	0.031437088
169	0x3d53c1f3	0.051698636
170	0x3b6289d4	0.0034567015
171	0x3ba06d31	0.004895829
172	0x3cff1c97	0.031141562
173	0xbc2e2ef2	-0.01063131
174	0xbd45a7e8	-0.04825583
175	0xbb99bb24	-0.0046914984
176	0xbcba061f	-0.022707997
177	0xbc38d7d5	-0.011281927
178	0xba8f37b5	-0.0010926636
179	0xbb24929d	-0.0025111802
180	0xbbee9396	-0.007280777
181	0x3afc2eb0	0.0019239988
182	0x3b119ea6	0.0022219806
183	0xbcaf734e	-0.021417286
184	0x3b699a39	0.0035644902
185	0x3ca179ea	0.019711453
186	0x3c9c8840	0.019107938
187	0x3c251c4c	0.010077547
188	0x3c8c0a45	0.01709474
189	0xbd013755	-0.03154691
190	0xbcd343ac	-0.025789104
191	0xbb124cf9	-0.0022323711
192	0xbb2060ea	-0.0024471828
193	0x3b4b7f20	0.0031051114
194	0x3c47772b	0.012174408
195	0xbc43cd34	-0.01195078
196	0xbd5df8d5	-0.054192383
197	0xbcda95b5	-0.026682714
198	0xbd65bb67	-0.056086924
199	0xb8b67e05	-8.701909e-05
200	0xbc5cbe4f	-0.0134731075
201	0x3b8e2c3a	0.0043387683
202	0x3c4c0188	0.012451537
203	0x3bdd1123	0.0067464276
204	0x3d181e33	0.037138175
205	0xbbf9b48c	-0.0076204
206	0x3c72a2b0	0.014809296
207	0xba2f2413	-0.00066810957
208	0xbd003b37	-0.03130647
209	0x3c1967a8	0.0093630925
210	0xbd08d7e6	-0.03340902
211	0x3acad08d	0.001547353
212	0x3d67403a	0.056457736
213	0xbaced96b	-0.0015781348
214	0xbca67f00	-0.02032423
215	0xbd327200	-0.04356575
216	0x3c2d7fd9	0.010589563
217	0x3cf4f95c	0.02990406
218	0x3d7daa84	0.061930194
219	0x3bd76c95	0.0065742233
220	0xbc9d0814	-0.019168891
221	0x3c4a84ac	0.012360733
222	0xb711fcff	-8.701579e-06
223	0xbcc2bb67	-0.023771001
224	0x3cb855a0	0.022501767
225	0x3b45689d	0.0030122169
226	0xbb466da2	-0.0030277749
227	0xbd152855	-0.036415417
228	0x3a7dd781	0.00096832967
229	0xbbd7100f	-0.0065631936
230	0x3b950c27	0.004548568
231	0xbd15a010	-0.0365296
232	0x3c070d1f	0.008242874
233	0x3caa77ed	0.020809138
234	0x3bf0c351	0.0073475023
235	0x3b69d23b	0.0035678286
236	0xbcb15f84	-0.02165199
237	0x3c33b4a8	0.010968365
238	0x3ca2b69a	0.019862462
239	0x3b9c5fd9	0.004772168
240	0x3c8e96af	0.017405836
241	0xb85a3890	-5.2027928e-05
242	0x3c91ed5b	0.017813375
243	0x3d12efd1	0.035873238
244	0x3a96ac03	0.0011495355
245	0x3ccdd960	0.025128067
246	0xbd02baeb	-0.03191654
247	0xbd1ce326	-0.038302563
248	0xbc6bcff8	-0.014392845
249	0xbc88792f	-0.016659347
250	0xbd2669bc	-0.04062818
251	0xbc7c1455	-0.015385707
252	0x3ce07d30	0.027403444
253	0x3cff4379	0.031160103
254	0x3ca2197a	0.019787539
255	0x3ce2392a	0.027615149

weight f4 [256, 256]
0	0xbde01342	-0.10941173
1	0x3d62b2da	0.055346347
2	0x3de9738e	0.113989934
3	0xbdf4345e	-0.11924051
4	0xbe0ed89f	-0.13949822
5	0xbbd4ff59	-0.0065001664
6	0x3d886d1f	0.06661438
7	0xbd7b2b06	-0.061320327
8	0x3d452e72	0.048139997
9	0xbdf0bc96	-0.1175472
10	0xbca530e6	-0.020164918
11	0x3d970050	0.073731065
12	0x3dbd265c	0.09235832
13	0x3dabd76d	0.083906986
14	0x3d24a05a	0.040191986
15	0x3d0230c4	0.031784788
16	0xba96db25	-0.0011509402
17	0x3ade5405	0.0016962296
18	0xbd1105e9	-0.035406027
19	0xbcfee1d5	-0.031113544
20	0xbc61d0a8	-0.013782658
21	0x3cc69ce1	0.024244728
22	0xbc8c031a	-0.017091323
23	0xbe007a6b	-0.12546699
24	0xbd526ab4	-0.05137129
25	0x3d717286	0.05894711
26	0x3d99f64a	0.07517679
27	0x3d267380	0.040637493
28	0x3b7da00e	0.0038700136
29	0x3c839ddb	0.016066482
30	0xbc82afe9	-0.015953021
31	0x3a54e6d1	0.00081215525
32	0x3d9319f2	0.07182683
33	0xbcd867f7	-0.026416762
34	0xbcc21b28	-0.02369459
35	0xbdb770c5	-0.08957056
36	0x3c6592d7	0.01401206
37	0xbd26b590	-0.040700495
38	0x3c37d74d	0.011220765
39	0xbbbdae35	-0.0057885894
40	0xbcd5d38d	-0.026101852
41	0x3e17dccb	0.1483032
42	0xbd838862	-0.06422497
43	0x3c009ecf	0.007850363
44	0xbd847f32	-0.06469573
45	0x3db030fb	0.08603092
46	0x3dd35d41	0.10320521
47	0x3c697c77	0.014250866
48	0x38584fc6	5.1572708e-05
49	0x3d199775	0.037497956
50	0xbdc1181e	-0.09428428
51	0xbd8be984	-0.06831649
52	0x3d8eb7ee	0.069686756
53	0xbe05efa4	-0.13079697
54	0x3c64934f	0.013951137
55	0x3adcf866	0.0016858696
56	0x3dcf420b	0.101200186
57	0x3d7cf635	0.06175824
58	0xbdbfe210	-0.0936929
59	0xbcb7b113	-0.022423303
60	0xbcfe23e1	-0.031022968
61	0x3d12420c	0.03570752
62	0x3caed067	0.021339608
63	0x3af4520e	0.0018640177
64	0xbd0611dc	-0.032731876
65	0xbdc5dba9	-0.096610375
66	0xbdba6b41	-0.09102488
67	0x3d4ba09f	0.049713727
68	0xbd876055	-0.06610171
69	0x3d7dbc71	0.06194729
70	0xbe131d69	-0.14366688
71	0xbc868edb	-0.01642554
72	0xbdc7e8a3	-0.09761169
73	0x3dbf0b0d	0.0932828
74	0xbdce4242	-0.100712314
75	0xbe40e527	-0.18837415
76	0x3da8bc20	0.08239007
77	0x3d617a58	0.055048317
78	0x3ceebd6e	0.029143061
79	0xbc25ab59	-0.010111653
80	0xbe275ef0	-0.1634481
81	0xbd5822ab	-0.052767437
82	0x3d6a0ac1	0.057139162
83	0x3dae144a	0.084999636
84	0x3d759314	0.059954718
85	0x3ca020fe	0.019546982
86	0x3d0329af	0.032022174
87	0x3cdfb1e1	0.027306499
88	0x3d2147c4	0.03937508
89	0xbcd228f2	-0.02565429
90	0xbda08bce	-0.07839166
91	0x3ddf3f8b	0.10900792
92	0x3c55bf95	0.013046165
93	0x3c87901c	0.016548209
94	0x3d54a951	0.051919285
95	0xbcdd3d85	-0.027006874
96	0xbb827678	-0.0039814077
97	0xbd73aae0	-0.05948913
98	0xbc4bac15	-0.012431164
99	0xbd30cb53	-0.043162655
100	0xbdaa6871	-0.08320702
101	0xbcfacb73	-0.03061459
102	0xbce75a6b	-0.028241357
103	0x3d3385e9	0.04382888
104	0xbd0601f0	-0.03271669
105	0x3c4e88d8	0.012605868
106	0xbd7a46cb	-0.06110267
107	0x3c6f357e	0.014600156
108	0x3decc0a7	0.11560183
109	0xbdb777c7	-0.089583926
110	0xbdabb9f9	-0.08385081
111	0xbd05c1d4	-0.032655552
112	0x3d250a8e	0.04029327
113	0xbddf499f	-0.10902714
114	0x3d149c3e	0.036281817
115	0x3c498ef2	0.012302147
116	0xbd8e3b05	-0.06944851
117	0x3d4e7e02	0.05041314
118	0xbb01087f	-0.0019688902
119	0x3d051b93	0.032497
120	0xbe07c101	-0.13257219
121	0x3d04988b	0.03237204
122	0x3c523c67	0.012831784
123	0xbd803007	-0.062591605
124	0x3d945687	0.07243066
125	0x3c20569f	0.009786277
126	0x3b7dafaf	0.0038709452
127	0x3c8590ad	0.016304338
128	0x3d87f4b5	0.06638471
129	0xbcb21a2a	-0.021740992
130	0x3c43c258	0.011948191
131	0xbd8f7197	-0.070040874
132	0xbdd21ca5	-0.1025937
133	0xbd8d72ce	-0.06906663
134	0xbe06232c	-0.13099355
135	0xbe26264d	-0.16225548
136	0xbd623d86	-0.055234455
137	0xbd93ee45	-0.07223181
138	0x3cd49176	0.025948267
139	0x3c33282a	0.010934869
140	0x3d16b505	0.036793727
141	0xbd2ca68c	-0.04215102
142	0xbdedb946	-0.11607604
143	0xbc30fe66	-0.010802841
144	0xbbd431b4	-0.0064756516
145	0x3d0bb057	0.034103718
146	0xbdaa3a80	-0.08311939
147	0x3ccf8834	0.025333501
148	0x3bca3b82	0.0061716447
149	0x3dfd5a10	0.12370694
150	0x3dbb7b66	0.09154396
151	0xbd3a2520	-0.04544556
152	0x3e0656f1	0.13119103
153	0xbcfb2a60	-0.030659854
154	0x3da33ff0	0.079711795
155	0x3d58f137	0.052964415
156	0xbd932145	-0.0718408
157	0x3c153a6a	0.009108165
158	0xbb31e4a1	-0.002714433
159	0xbc83ceac	-0.01608976
160	0x3d20f8c6	0.03929975
161	0xbc5259f8	-0.012838833
162	0x3c0a9ed4	0.008460719
163	0xbd7e9000	-0.062149048
164	0xbdb2805a	-0.08715887
165	0xbc601ae7	-0.013678289
166	0x3da4acf3	0.080408
167	0xbcf0d54b	-0.029398581
168	0xbd70db29	-0.058802757
169	0x3dcb34b5	0.099221624
170	0xbda533bf	-0.080665104
171	0x3bd2eb9b	0.0064367778
172	0xbc1d2c16	-0.00959303
173	0x3c112a71	0.0088602165
174	0x3d530ef5	0.051527936
175	0x3d0f398c	0.03496699
176	0xbd4c8a69	-0.049936686
177	0xbd5d5587	-0.054036643
178	0xbdc026b0	-0.09382379
179	0x3c914e51	0.01773754
180	0x3d3f16b7	0.046652522
181	0xbd86424f	-0.06555616
182	0xbc3f7583	-0.011685732
183	0x3deef5c5	0.116679706
184	0x3d042527	0.032261994
185	0xbbcf3290	-0.006323166
186	0xbc4469bb	-0.011988099
187	0x3b8c7d7e	0.004287421
188	0x3d7a78db	0.061150413
189	0x3d31203c	0.04324363
190	0x3d2adf2b	0.041716736
191	0xbd26630b	-0.0406218
192	0xbd99047c	-0.074715585
193	0xbd6f2cfa	-0.058392502
194	0x3b09f0d6	0.002104809
195	0xbb6693a8	-0.0035183225
196	0x3cdb1293	0.026742255
197	0xbcdbef2a	-0.02684744
198	0xbd1c65be	-0.038182966
199	0x3d50367b	0.050833207
200	0xbd9d57f6	-0.07682793
201	0x3d9e2dea	0.07723601
202	0x3d622666	0.0552124
203	0x3d40feee	0.04711812
204	0xbcdf0ece	-0.02722874
205	0x3d965f63	0.07342412
206	0xbd7cee2f	-0.061750587
207	0x3dc2b542	0.095072284
208	0x3d2c99c0	0.042138815
209	0xbd770902	-0.060311325
210	0x3d0111eb	0.03151123
211	0xbe320a13	-0.17386656
212	0x3ad5ebe8	0.0016320916
213	0x3c8f3954	0.01748339
214	0x3c68e8cf	0.014215662
215	0xbd6c4adc	-0.05768858
216	0xbd893e66	-0.06701355
217	0x3d168e75	0.03675695
218	0x3d8c55ac	0.06852278
219	0xbd07e4ac	-0.033177063
220	0xbe04f9b1	-0.12985875
221	0x3d1423c6	0.03616693
222	0x3da062aa	0.07831319
223	0xbcd35883	-0.025799042
224	0xbcc504a7	-0.02405007
225	0xbda17e84	-0.07885459
226	0x3dd696b7	0.10477965
227	0xbdaa8d3a	-0.08327718
228	0xbd1b6bee	-0.037944727
229	0xbda5cf60	-0.08096194
230	0x3d24be42	0.040220506
231	0x3d5e9619	0.054342363
232	0xbb966c79	-0.0045905677
233	0x3d8dfafd	0.06932638
234	0x3e435935	0.19076999
235	0x3c2db345	0.010601823
236	0x3cc7865f	0.024356065
237	0x3c6c6e85	0.014430647
238	0xbd8db145	-0.06918577
239	0xbcf0890d	-0.029362226
240	0xbd60151f	-0.054707643
241	0x3d824287	0.06360345
242	0x3d8a38c4	0.067491084
243	0x3d72aa53	0.059244465
244	0xbd9a2ac5	-0.07527689
245	0xbdaf6c2a	-0.085655525
246	0xbe05c3bb	-0.13062946
247	0xbce2d13b	-0.02768766
248	0x3d415a52	0.047205277
249	0xbd111280	-0.035418034
250	0xbd50eb1b	-0.051005464
251	0xbe1fd952	-0.15610245
252	0x3e2ba8e6	0.16763648
253	0xbe16dffb	-0.1473388
254	0xbe14befa	-0.14525977
255	0x3d2c87c3	0.04212166

bias f4 [256]
0	0xbbd5ec9a	-0.0065284492
1	0xbaa94430	-0.0012913998
2	0x3bd4b3a6	0.0064911423
3	0x3b64a21c	0.0034886664
4	0xbc46b575	-0.012128224
5	0xbb1e091d	-0.0024114319
6	0xbb1980f6	-0.0023422814
7	0x3ac27777	0.0014836629
8	0x3c2c1a09	0.010504254
9	0xbb189b64	-0.002328598
10	0xb9d6a62d	-0.0004094107
11	0xbc81c782	-0.015842203
12	0xbb0e4061	-0.0021705853
13	0x3a9f3a16	0.0012148048
14	0xbb097f45	-0.00209804
15	0x3a029146	0.0004980754
16	0x3bdcf811	0.006743439
17	0x3b23cb78	0.0024993103
18	0xbb48562c	-0.003056894
19	0x3c882277	0.016617997
20	0xb98d272d	-0.00026922804
21	0x3b6eb0fd	0.0036421411
22	0xbc62be41	-0.013839305
23	0x3b545fb3	0.0032405674
24	0xbaa4963f	-0.0012556984
25	0x3c56a767	0.013101435
26	0xbc01bed6	-0.007919034
27	0xbb9b1166	-0.0047322987
28	0xbbc63f20	-0.0060500056
29	0xba66750b	-0.00087912445
30	0x3bb2cf6a	0.0054568546
31	0x3accecff	0.0015634595
32	0xbbb6b379	-0.005575594
33	0xb99ec223	-0.00030280752
34	0x3bc745aa	0.0060813027
35	0xbbb7f21a	-0.0056135776
36	0xbc659b38	-0.014014058
37	0x3b05aa16	0.0020395569
38	0xb9cc2ad1	-0.00038941813
39	0xbbab3257	-0.005224507
40	0x3ae4c8a5	0.0017454816
41	0xbaeec1bb	-0.0018215695
42	0x3b8429ee	0.0040333187
43	0x3b8076ec	0.0039204266
44	0xbbaf90fb	-0.005357859
45	0x3c289f95	0.010291954
46	0x3bd23191	0.0064146
47	0x3a92a040	0.0011186674
48	0xb9e6b463	-0.00044003417
49	0xba99989a	-0.0011718452
50	0x3bbd2426	0.0057721315
51	0x3c2a3e97	0.010390899
52	0xbb7f951a	-0.0038998784
53	0x39d4b093	0.0004056735
54	0x3b83d87e	0.0040236106
55	0x3bff0958	0.0077830963
56	0x3b019f02	0.0019778614
57	0xbb89dced	-0.0042072446
58	0xbbbf22ab	-0.00583299
59	0x3c4ce6dc	0.012506213
60	0x3ba2f250	0.0049727336
61	0xbb6e6160	-0.0036373958
62	0xbb604be0	-0.0034224913
63	0xbb34e117	-0.0027599984
64	0xbaeab81a	-0.001790765
65	0xba304c97	-0.000672528
66	0xbb595e2e	-0.0033167708
67	0xbbdb9f1d	-0.0067023174
68	0x3c2e5936	0.010641387
69	0x3bf2a736	0.007405187
70	0x3b8ed677	0.0043590623
71	0xbc313ba4	-0.010817442
72	0x3bf0e6bd	0.007351725
73	0xbb7a4f44	-0.0038194219
74	0x381f42fa	3.797093e-05
75	0x3992f409	0.0002802911
76	0xbb407f3c	-0.0029372713
77	0x3ad9de42	0.0016622024
78	0x3b11a26c	0.0022222055
79	0x3b3972f3	0.0028297275
80	0xbaf0ca37	-0.0018370812
81	0x3b3b1d0b	0.0028551247
82	0xba47b8ed	-0.00076188036
83	0x3bb4e8a8	0.005520899
84	0x3bfeabc3	0.0077719404
85	0x3c0c4e25	0.008563553
86	0x3c3d0197	0.011536024
87	0x3ba148b3	0.0049219965
88	0x3be48180	0.0069734454
89	0xbc1a8f72	-0.009433614
90	0x3ba0a1c4	0.0049020965
91	0x3c001b33	0.007818985
92	0xbb31a277	-0.0027104893
93	0x3b900287	0.0043948325
94	0x3bd3b30c	0.006460553
95	0xbb5a8848	-0.003334539
96	0x3a9b67cb	0.0011856494
97	0xbc0f908c	-0.00876249
98	0x3c0ed939	0.008718782
99	0xbb215c31	-0.00246216
100	0xbafbecfb	-0.0019220406
101	0xbc027139	-0.007961565
102	0xbaa74565	-0.001276177
103	0x3b1f1c59	0.002427837
104	0x3b08fbfe	0.0020902152
105	0x3b93eee8	0.004514564
106	0x3bb2b115	0.0054532387
107	0xbb55133c	-0.0032512685
108	0xbb08ff1e	-0.0020904015
109	0xbbf9ef7a	-0.007627425
110	0x3bea981c	0.007159246
111	0xbb6f222e	-0.0036488879
112	0xbba57b5f	-0.0050501074
113	0x3c5342ea	0.0128943715
114	0xbb7cbae1	-0.0038563537
115	0xbba7f387	-0.0051254663
116	0xbc0578f7	-0.008146516
117	0xbb58c03f	-0.0033073572
118	0xb9e04f3d	-0.00042783646
119	0xbc39ce70	-0.011340722
120	0x3820fa15	3.837988e-05
121	0xbb33b189	-0.0027419052
122	0xbbc90df7	-0.006135698
123	0x3b147b57	0.0022656524
124	0x3b0ae8f5	0.0021195982
125	0x3b42ac79	0.0029704852
126	0xbaebc19c	-0.0017986777
127	0x3bab419b	0.0052263266
128	0xbb8c8325	-0.0042880946
129	0x3bc845c6	0.0061118333
130	0xbb9a51f9	-0.004709479
131	0xbb181f61	-0.0023212063
132	0x3c8d2c41	0.017233016
133	0x3c197b79	0.009367817
134	0x3b8fdce9	0.004390348
135	0x3c90adfd	0.01766109
136	0xbb8b42c0	-0.0042499006
137	0x3a5f4082	0.00085163873
138	0xbc514c85	-0.012774591
139	0x3aab68bf	0.0013077481
140	0x3b6f5458	0.0036518779
141	0x3bbf3660	0.0058353394
142	0x3c1e1f20	0.0096509755
143	0xba836841	-0.0010025577
144	0x3aeac404	0.00179112
145	0x39b894c1	0.00035206045
146	0xbbb8192c	-0.005618235
147	0x3be344ae	0.0069356775
148	0xba87b1f1	-0.0010352713
149	0x3c0d0c36	0.008608868
150	0x3b4743ab	0.0030405323
151	0x3b586067	0.0033016445
152	0x3be7b4a6	0.0070710955
153	0x3bf4bc33	0.007468724
154	0xbc789b80	-0.015173793
155	0x3bc1761f	0.0059039737
156	0x3b1edc54	0.0024240213
157	0x3bf10e1c	0.0073564183
158	0x3bfc04a8	0.0076909848
159	0x3babc326	0.0052417694
160	0x3b8453c4	0.004038306
161	0x3c2dfdf9	0.010619634
162	0x3ba33967	0.004981208
163	0xbb115f52	-0.002218206
164	0x3acb320c	0.0015502586
165	0x3b2f291e	0.0026727389
166	0x3b161916	0.0022903136
167	0xbb32da60	-0.0027290806
168	0x3b98d2a5	0.0046637827
169	0xb9b47f36	-0.00034427055
170	0x3a92625c	0.0011168229
171	0x3b5c785f	0.0033641083
172	0xbb09fc3b	-0.0021054882
173	0xb94157e7	-0.0001843866
174	0xba9691f0	-0.0011487585
175	0xbb83fe8e	-0.004028148
176	0xbc193cc1	-0.009352864
177	0xbbf5a271	-0.007496171
178	0xbc7d146c	-0.0154467635
179	0x3bff41bd	0.007789819
180	0xb971599b	-0.00023016932
181	0xbbc4eac1	-0.00600943
182	0xbb3f5762	-0.0029196371
183	0x3bb9b158	0.005666893
184	0x3bb2ac64	0.0054526795
185	0xbaf397d4	-0.0018584677
186	0xbaebb197	-0.0017982003
187	0x3b3463e2	0.0027525355
188	0x3bac89b0	0.005265437
189	0xbb730f6f	-0.0037088057
190	0x3b357df0	0.0027693473
191	0x36fe7d68	7.584389e-06
192	0xb94d44d8	-0.0001957597
193	0xba8757f6	-0.0010325897
194	0xbc2ac138	-0.0104220435
195	0x3c0aa444	0.008462016
196	0xbc323738	-0.010877423
197	0x3b332157	0.0027333105
198	0xbb2dee71	-0.0026539827
199	0x3a8105aa	0.0009843607
200	0xbabc605a	-0.0014371977
201	0x3be655f9	0.0070292917
202	0x37a5a75f	1.9747471e-05
203	0xbc3b22ed	-0.011421901
204	0xbac8cea7	-0.0015320376
205	0xbb19aade	-0.0023447792
206	0xbaa7631d	-0.0012770627
207	0xbc510e3c	-0.012759741
208	0x3ba814e6	0.0051294444
209	0xbb6f5d17	-0.0036523992
210	0x3bf94af1	0.0076078107
211	0x3bc506ba	0.0060127648
212	0xbbec872c	-0.007218262
213	0xbbe40730	-0.0069588646
214	0x39338374	0.0001711974
215	0x3b79ef98	0.0038137194
216	0x3b8b2eff	0.0042475457
217	0x3c6fcdbf	0.014636456
218	0xbbdf6b3e	-0.006818204
219	0x3ba66c3c	0.0050788205
220	0x3ba8b245	0.0051482045
221	0xb9c71331	-0.00037970537
222	0xbc09dbc4	-0.008414213
223	0xbaa262dc	-0.0012389082
224	0x3c460098	0.0120851025
225	0x3a88fb1d	0.0010450814
226	0x3c121119	0.008915209
227	0x3aab5071	0.0013070238
228	0x3b634a6c	0.003468181
229	0xbb29a785	-0.0025887203
230	0x3a496caa	0.0007683734
231	0x3b825df2	0.0039784843
232	0xbb9a10f8	-0.00470173
233	0xbb8aa7b5	-0.004231418
234	0x3c09ccb4	0.008410621
235	0xbbc246bc	-0.0059288424
236	0xbc7cd341	-0.015431226
237	0xbbf1e15d	-0.0073816017
238	0xbb2a6bc6	-0.002600418
239	0xbb6b1b9f	-0.0035874618
240	0x3b0e2775	0.0021690999
241	0xbbe64f5d	-0.007028504
242	0xbb338441	-0.0027392062
243	0x3a4bea32	0.0007778733
244	0x3b3abbd8	0.0028493311
245	0xbb1b1847	-0.0023665593
246	0xba2acc37	-0.0006515416
247	0xbc206064	-0.009788606
248	0x3b29a43d	0.0025885247
249	0xbbb3d0a0	-0.0054875165
250	0xbc7aa216	-0.015297433
251	0x3b554977	0.003254501
252	0x3b6605ca	0.0035098665
253	0xbc12c773	-0.008958685
254	0x3b2c4944	0.0026288787
255	0xbbbddb83	-0.00579399

weight f4 [256, 19]
0	0x3dc4dc0a	0.096122816
1	0xbe952792	-0.29131752
2	0xbea2516c	-0.31702745
3	0xbde58d7d	-0.112086274
4	0x3ee5f02b	0.44909796
5	0x3e838437	0.2568681
6	0x3e32bed1	0.17455603
7	0xbdca30bf	-0.09872579
8	0x3ee48f13	0.44640407
9	0xbcd8b4cb	-0.026453396
10	0x3e08c09d	0.13354726
11	0xbe99976a	-0.29998332
12	0xbe90e853	-0.2830225
13	0x3cdbf928	0.026852205
14	0xbdd39867	-0.10331803
15	0x3e851fd7	0.26000854
16	0x3dd43c79	0.10363097
17	0x3e38af4f	0.18035625
18	0x3dbc147e	0.09183596
19	0x3d7f907b	0.062393647
20	0xbe2e5bea	-0.1702725
21	0x3e294d28	0.16533339
22	0x3e9977de	0.29974264
23	0x3e2639cf	0.1623299
24	0xbd32f043	-0.043686163
25	0xbe96eef3	-0.2947918
26	0xbec7ee46	-0.39048976
27	0x3d97b5fd	0.074077584
28	0x3e2509ba	0.16116992
29	0x3e0df078	0.13861263
30	0x3dd0b017	0.101898365
31	0xbd262387	-0.040561225
32	0xbdaf8aac	-0.085713714
33	0xbe71a46a	-0.23597875
34	0x3ec0b644	0.37639058
35	0x3ef294b1	0.47379068
36	0x3b9d81dd	0.0048067407
37	0x3e851be4	0.2599784
38	0xbce49dfb	-0.027907362
39	0x3e7c9874	0.24667531
40	0xbe01ac5f	-0.1266341
41	0x3dbfc456	0.0936362
42	0x3eb0fb6e	0.34566826
43	0xbdc09e90	-0.094052434
44	0x3f1272ea	0.57206595
45	0x3d2bb09b	0.04191647
46	0x3d427a89	0.04748014
47	0xba9b210b	-0.0011835409
48	0x3e58202b	0.21106021
49	0x3d034c32	0.032055087
50	0x3eb40fb8	0.35168242
51	0x3dd6a9fc	0.10481641
52	0xbe5f9c80	-0.21837044
53	0x3d406548	0.04697159
54	0xbe629b16	-0.22129473
55	0xbe4d2d18	-0.20036733
56	0xbedc629f	-0.43043992
57	0x3e72c318	0.23707235
58	0xbe8835c1	-0.2660351
59	0x3e4323a3	0.19056563
60	0xbe9c96db	-0.30583844
61	0xbd36aa9d	-0.044596303
62	0xbcfe748f	-0.031061439
63	0xbe070447	-0.13185225
64	0xbec92e71	-0.39293244
65	0x3e98753a	0.29776937
66	0x3e1c79f1	0.15280892
67	0xbe9b92f1	-0.30385545
68	0xbd911b26	-0.07085256
69	0xbd7157e7	-0.05892172
70	0x3d849407	0.064735465
71	0x3e7cedcc	0.24700087
72	0x3eb218c5	0.34784523
73	0xbd33fab9	-0.04394028
74	0xbe38deb2	-0.18053702
75	0xbe9d1b7c	-0.3068503
76	0xbe2382d1	-0.15967871
77	0xbdf30abd	-0.118672825
78	0xbe439f6e	-0.19103786
79	0x3d88c95c	0.06679031
80	0xbedf4480	-0.4360695
81	0x3e90ca60	0.282794
82	0xbcf3055c	-0.029665641
83	0xbd5ad6e1	-0.05342758
84	0xbe21d630	-0.15804362
85	0x3de216e8	0.11039525
86	0xbea99aa5	-0.33125797
87	0x3df78c05	0.120872535
88	0xbe068719	-0.13137473
89	0x3e93760c	0.28801
90	0x3e63efd9	0.22259463
91	0x3d7d23d8	0.06180176
92	0xbed4b3c9	-0.41543415
93	0xbe960466	-0.2930023
94	0xbe9b9f2a	-0.3039487
95	0x3ecdcaf7	0.40193912
96	0xbccba26f	-0.024857728
97	0xbd69817a	-0.057008244
98	0xbe867280	-0.26259232
99	0xbe9a477f	-0.30132672
100	0x3e3bd7d7	0.18344055
101	0x3ec353cb	0.38149866
102	0x3e17d6fc	0.14828104
103	0x3e4e30ca	0.20135799
104	0x3e8bbfd9	0.27294806
105	0xbe9f5359	-0.31118277
106	0xbda4c6aa	-0.08045705
107	0xbe420ae5	-0.18949468
108	0x3e2f4d00	0.17119217
109	0xbed14637	-0.40873882
110	0xba01f892	-0.00049579993
111	0x3d0f862d	0.03504007
112	0xbe15bd49	-0.14622988
113	0xbe1d4516	-0.15358385
114	0x3edfb9c5	0.43696418
115	0xbe594770	-0.21218657
116	0x3d4ba4d3	0.049717735
117	0xbcbe184a	-0.023204941
118	0x3e0070bd	0.12543006
119	0xbeb4f335	-0.35341802
120	0x3d915220	0.07095742
121	0xbe91a796	-0.2844817
122	0x3e427df6	0.18993363
123	0xbe28d260	-0.16486502
124	0xbdc62e54	-0.09676805
125	0xbe44dc6d	-0.19224711
126	0x3e36309a	0.17791978
127	0xbe0d530c	-0.13801211
128	0xbed9d699	-0.42546538
129	0x3e60d65e	0.21956775
130	0xbd50c7e7	-0.05097189
131	0xbec9c46f	-0.3940768
132	0x3da636c1	0.08115912
133	0xbd8ca726	-0.068678185
134	0x3e350724	0.17678505
135	0x3e1f6bf8	0.1556853
136	0xbe8f4793	-0.27984294
137	0x3e3a9747	0.1822177
138	0xbdd4b045	-0.10385183
139	0x3cc1b910	0.023647815
140	0x3ea87b9a	0.329068
141	0xbd3670d4	-0.044541195
142	0x3e4018f6	0.18759522
143	0xbdee02d4	-0.11621633
144	0xbc12647c	-0.00893509
145	0x3db921b7	0.09039634
146	0x3aa0d537	0.0012270574
147	0xbddaa674	-0.1067628
148	0xbe2a80d5	-0.16650708
149	0xbdfc682e	-0.12324558
150	0xbecb7e20	-0.39744663
151	0x3f2a7afa	0.665939
152	0xbda4d90e	-0.080492124
153	0xbe1f2a82	-0.15543559
154	0xbe3be189	-0.18347754
155	0x3e7d0ba1	0.24711467
156	0x3ead4dda	0.3384846
157	0xbe35d526	-0.17757091
158	0xbe4511f8	-0.19245136
159	0x3c5177e8	0.0127849355
160	0x3e95cb21	0.29256538
161	0xbe09c269	-0.13453068
162	0xbd3f0e54	-0.046644524
163	0x3d84a401	0.06476594
164	0xbe5fc8c0	-0.21853924
165	0x3e90f06b	0.28308424
166	0x3e8fffa5	0.2812473
167	0xbdfe1bd2	-0.1240765
168	0x3f1474ac	0.5799053
169	0xbe2f2046	-0.17102155
170	0xbe480218	-0.19532049
171	0xbd9c7e03	-0.07641222
172	0xbe1fa94c	-0.15591925
173	0x3ebc38cb	0.3676208
174	0xbdcfc742	-0.10145427
175	0xbe94f436	-0.29092568
176	0xbe6a4618	-0.22878301
177	0x3d8f893b	0.070085965
178	0x3d96347e	0.07334231
179	0xbe50546a	-0.20344701
180	0x3e1e14ea	0.15437666
181	0x3e55e2fb	0.20887367
182	0xbcceee31	-0.025260063
183	0x3e0683ff	0.1313629
184	0x3ea1495a	0.31501275
185	0xbe63d628	-0.22249663
186	0xbd340e63	-0.043959033
187	0xbefd951e	-0.4952783
188	0x3d92dc6f	0.071709506
189	0x3ede5363	0.43422994
190	0xbe0ef47d	-0.13960452
191	0x3c38fb76	0.011290422
192	0x3e2d4a2b	0.16922824
193	0xbd9924ca	-0.0747772
194	0x3c701fdc	0.014656033
195	0x3e56c7e8	0.20974696
196	0xbdc15eb5	-0.09441892
197	0x3eb0c2ea	0.34523708
198	0xbde209f7	-0.11037057
199	0x3eb44911	0.35211995
200	0x3ecdb0da	0.4017399
201	0xbf03a3ec	-0.51422
202	0xbe662069	-0.22473301
203	0x3dccc205	0.09997944
204	0xbd91d15d	-0.07120011
205	0x3e572334	0.21009523
206	0x3ccea1df	0.02522367
207	0x3ea506de	0.32231802
208	0xbe31c426	-0.17359981
209	0x3e86c1d2	0.26319748
210	0xbeb3c389	-0.3511012
211	0x3e3c6691	0.18398501
212	0xbe8f312a	-0.27967197
213	0x3e1789bb	0.14798634
214	0x3d84c70e	0.06483279
215	0x3e3f421f	0.18677567
216	0xbceeb6c7	-0.02913989
217	0xbf1ff323	-0.6248037
218	0xbcd40728	-0.025882319
219	0xbe10f304	-0.14155203
220	0xbe6b92ff	-0.23005293
221	0xbd8c280b	-0.06843575
222	0x3d8798fd	0.06620977
223	0x3e760ac4	0.24027544
224	0xbd884fa5	-0.06655816
225	0xbe1a999a	-0.15097657
226	0x3e092342	0.13392356
227	0x3e0b7bed	0.13621493
228	0xbc10b3e1	-0.008831949
229	0xbe51ca4c	-0.20487326
230	0x3f2885c7	0.6582913
231	0xbe15df61	-0.14635994
232	0x37c8f16c	2.3954279e-05
233	0xbe386322	-0.18006566
234	0xbd6dd770	-0.058066785
235	0xbe2fdd45	-0.17174251
236	0xbeac91b7	-0.33704922
237	0x3e37f892	0.17965916
238	0xbe5870b7	-0.21136747
239	0xbe4e472b	-0.20144336
240	0xbe07b0af	-0.13250993
241	0x3e7ddc94	0.24791175
242	0xbe05c8ff	-0.13064955
243	0xbe706fb6	-0.23480114
244	0x3e13ba07	0.14426433
245	0x3be47abe	0.00697264
246	0x3db3bc3d	0.08776138
247	0x3eb3260d	0.34989968
248	0x3e8a639b	0.27029118
249	0xbd72140d	-0.059101153
250	0xbd6910e6	-0.05690088
251	0x3dd6dafe	0.10490988
252	0xbe8c421a	-0.2739418
253	0xbdcde841	-0.100540645
254	0xbe579d70	-0.21056151
255	0x3e8b40a6	0.2719776
