largest_sim_yet/trained_policies_ppo/trained_models/policy_model_cop_ppo/model.pt (torch, 739173 bytes, 14 tensors)

_last_output f4 [128, 9]
00000000: bf0e 9fc0 41c3 1ac1 90e4 a0c1 2063 2dc1
00000010: d26b 4fc1 f80b 40c1 e374 8ac0 a411 8d41
00000020: 989a d9bf 22f0 6fc1 8e2c 02c1 653d b5c1
00000030: 933d c2c1 d4f4 01c2 707a 89c1 9d3d 54c1
00000040: 7932 4f41 1f03 9b41 bf0e 9fc0 41c3 1ac1
00000050: 90e4 a0c1 2063 2dc1 d26b 4fc1 f80b 40c1
00000060: e374 8ac0 a411 8d41 989a d9bf bf0e 9fc0
00000070: 41c3 1ac1 90e4 a0c1 2063 2dc1 d26b 4fc1
00000080: f80b 40c1 e374 8ac0 a411 8d41 989a d9bf
00000090: bf0e 9fc0 41c3 1ac1 90e4 a0c1 2063 2dc1
000000a0: d26b 4fc1 f80b 40c1 e374 8ac0 a411 8d41
000000b0: 989a d9bf 22f0 6fc1 8e2c 02c1 653d b5c1
000000c0: 933d c2c1 d4f4 01c2 707a 89c1 9d3d 54c1
000000d0: 7932 4f41 1f03 9b41 22f0 6fc1 8e2c 02c1
000000e0: 653d b5c1 933d c2c1 d4f4 01c2 707a 89c1
000000f0: 9d3d 54c1 7932 4f41 1f03 9b41 bacd 6bc1
00000100: 9b38 76c1 343f 6ac1 a8d4 6bc1 b913 65c1
00000110: 010d 6dc1 9bef eac1 d508 6ac1 8c95 bd40
00000120: 22f0 6fc1 8e2c 02c1 653d b5c1 933d c2c1
00000130: d4f4 01c2 707a 89c1 9d3d 54c1 7932 4f41
00000140: 1f03 9b41 bacd 6bc1 9b38 76c1 343f 6ac1
00000150: a8d4 6bc1 b913 65c1 010d 6dc1 9bef eac1
00000160: d508 6ac1 8c95 bd40 bacd 6bc1 9b38 76c1
00000170: 343f 6ac1 a8d4 6bc1 b913 65c1 010d 6dc1
00000180: 9bef eac1 d508 6ac1 8c95 bd40 bf0e 9fc0
00000190: 41c3 1ac1 90e4 a0c1 2063 2dc1 d26b 4fc1
000001a0: f80b 40c1 e374 8ac0 a411 8d41 989a d9bf
000001b0: 22f0 6fc1 8e2c 02c1 653d b5c1 933d c2c1
000001c0: d4f4 01c2 707a 89c1 9d3d 54c1 7932 4f41
000001d0: 1f03 9b41 22f0 6fc1 8e2c 02c1 653d b5c1
000001e0: 933d c2c1 d4f4 01c2 707a 89c1 9d3d 54c1
000001f0: 7932 4f41 1f03 9b41 bacd 6bc1 9b38 76c1
00000200: 343f 6ac1 a8d4 6bc1 b913 65c1 010d 6dc1
00000210: 9bef eac1 d508 6ac1 8c95 bd40 bacd 6bc1
00000220: 9b38 76c1 343f 6ac1 a8d4 6bc1 b913 65c1
00000230: 010d 6dc1 9bef eac1 d508 6ac1 8c95 bd40
00000240: 22f0 6fc1 8e2c 02c1 653d b5c1 933d c2c1
00000250: d4f4 01c2 707a 89c1 9d3d 54c1 7932 4f41
00000260: 1f03 9b41 c1b1 d6bf 7f35 18c1 6d41 b2c1
00000270: 8ece 22c1 a2d7 36c1 df0d 03c1 a851 04c0
00000280: ab38 8541 5912 34c0 22f0 6fc1 8e2c 02c1
00000290: 653d b5c1 933d c2c1 d4f4 01c2 707a 89c1
000002a0: 9d3d 54c1 7932 4f41 1f03 9b41 bf0e 9fc0
000002b0: 41c3 1ac1 90e4 a0c1 2063 2dc1 d26b 4fc1
000002c0: f80b 40c1 e374 8ac0 a411 8d41 989a d9bf
000002d0: bf0e 9fc0 41c3 1ac1 90e4 a0c1 2063 2dc1
000002e0: d26b 4fc1 f80b 40c1 e374 8ac0 a411 8d41
000002f0: 989a d9bf bacd 6bc1 9b38 76c1 343f 6ac1
00000300: a8d4 6bc1 b913 65c1 010d 6dc1 9bef eac1
00000310: d508 6ac1 8c95 bd40 22f0 6fc1 8e2c 02c1
00000320: 653d b5c1 933d c2c1 d4f4 01c2 707a 89c1
00000330: 9d3d 54c1 7932 4f41 1f03 9b41 bacd 6bc1
00000340: 9b38 76c1 343f 6ac1 a8d4 6bc1 b913 65c1
00000350: 010d 6dc1 9bef eac1 d508 6ac1 8c95 bd40
00000360: c1b1 d6bf 7f35 18c1 6d41 b2c1 8ece 22c1
00000370: a2d7 36c1 df0d 03c1 a851 04c0 ab38 8541
00000380: 5912 34c0 bacd 6bc1 9b38 76c1 343f 6ac1
00000390: a8d4 6bc1 b913 65c1 010d 6dc1 9bef eac1
000003a0: d508 6ac1 8c95 bd40 bacd 6bc1 9b38 76c1
000003b0: 343f 6ac1 a8d4 6bc1 b913 65c1 010d 6dc1
000003c0: 9bef eac1 d508 6ac1 8c95 bd40 22f0 6fc1
000003d0: 8e2c 02c1 653d b5c1 933d c2c1 d4f4 01c2
000003e0: 707a 89c1 9d3d 54c1 7932 4f41 1f03 9b41
000003f0: bacd 6bc1 9b38 76c1 343f 6ac1 a8d4 6bc1
-4.97055 -9.672669 -20.111603 -10.8367 -12.963823 -12.002922 -4.3267684 17.633614
-1.7000303 -14.996126 -8.135878 -22.654978 -24.280066 -32.48909 -17.184784 -13.265042
12.949822 19.376524 -4.97055 -9.672669 -20.111603 -10.8367 -12.963823 -12.002922
-4.3267684 17.633614 -1.7000303 -4.97055 -9.672669 -20.111603 -10.8367 -12.963823
-12.002922 -4.3267684 17.633614 -1.7000303 -4.97055 -9.672669 -20.111603 -10.8367
-12.963823 -12.002922 -4.3267684 17.633614 -1.7000303 -14.996126 -8.135878 -22.654978
-24.280066 -32.48909 -17.184784 -13.265042 12.949822 19.376524 -14.996126 -8.135878
-22.654978 -24.280066 -32.48909 -17.184784 -13.265042 12.949822 19.376524 -14.737726
-15.38882 -14.64043 -14.739418 -14.317315 -14.815675 -29.366995 -14.627156 5.924505
-14.996126 -8.135878 -22.654978 -24.280066 -32.48909 -17.184784 -13.265042 12.949822
19.376524 -14.737726 -15.38882 -14.64043 -14.739418 -14.317315 -14.815675 -29.366995
-14.627156 5.924505 -14.737726 -15.38882 -14.64043 -14.739418 -14.317315 -14.815675
-29.366995 -14.627156 5.924505 -4.97055 -9.672669 -20.111603 -10.8367 -12.963823
-12.002922 -4.3267684 17.633614 -1.7000303 -14.996126 -8.135878 -22.654978 -24.280066
-32.48909 -17.184784 -13.265042 12.949822 19.376524 -14.996126 -8.135878 -22.654978
-24.280066 -32.48909 -17.184784 -13.265042 12.949822 19.376524 -14.737726 -15.38882
-14.64043 -14.739418 -14.317315 -14.815675 -29.366995 -14.627156 5.924505 -14.737726
-15.38882 -14.64043 -14.739418 -14.317315 -14.815675 -29.366995 -14.627156 5.924505
-14.996126 -8.135878 -22.654978 -24.280066 -32.48909 -17.184784 -13.265042 12.949822
19.376524 -1.6772996 -9.513061 -22.281946 -10.175428 -11.427645 -8.1908865 -2.067484
16.65267 -2.8136199 -14.996126 -8.135878 -22.654978 -24.280066 -32.48909 -17.184784
-13.265042 12.949822 19.376524 -4.97055 -9.672669 -20.111603 -10.8367 -12.963823
-12.002922 -4.3267684 17.633614 -1.7000303 -4.97055 -9.672669 -20.111603 -10.8367
-12.963823 -12.002922 -4.3267684 17.633614 -1.7000303 -14.737726 -15.38882 -14.64043
-14.739418 -14.317315 -14.815675 -29.366995 -14.627156 5.924505 -14.996126 -8.135878
-22.654978 -24.280066 -32.48909 -17.184784 -13.265042 12.949822 19.376524 -14.737726
-15.38882 -14.64043 -14.739418 -14.317315 -14.815675 -29.366995 -14.627156 5.924505
-1.6772996 -9.513061 -22.281946 -10.175428 -11.427645 -8.1908865 -2.067484 16.65267
-2.8136199 -14.737726 -15.38882 -14.64043 -14.739418 -14.317315 -14.815675 -29.366995
-14.627156 5.924505 -14.737726 -15.38882 -14.64043 -14.739418 -14.317315 -14.815675
-29.366995 -14.627156 5.924505 -14.996126 -8.135878 -22.654978 -24.280066 -32.48909
-17.184784 -13.265042 12.949822 19.376524 -14.737726 -15.38882 -14.64043 -14.739418

weight f4 [9, 256]
00000000: 586d 0d3e a1b4 e13d ecbd a73e e1cb 39be
00000010: 6b14 513e feb0 4dbe c2dd 723e 38c9 bebe
00000020: 01c2 00be a3f3 1cbe 07e8 663d fa50 95be
00000030: 0812 0c3d 9dd1 b23e 83dd 673e d595 78bd
00000040: 97f6 00bd 5dc5 373d befa 2a3e 1084 ad3e
00000050: c551 63be 6085 883d 7731 07be 9423 113e
00000060: b14f 3a3e 8e2d 5e3d ff3e f13b e005 adbd
00000070: b2e6 68bd 73c4 d539 5741 49be 6723 083d
00000080: 444f 5a3d fff9 a6bc b889 8a3e 7d3e 9a3e
00000090: e61c 1dbe 2aca 31be 7922 bf3c 5465 a03e
000000a0: be3d d5bd 36e3 7abd ebce 9e3e 86fb a13e
000000b0: ea62 053e 1511 343e a3d8 513e 7997 eabc
000000c0: 6b0b 063e 0e6f 023e 221d bebd 622f 2ebc
000000d0: d232 023d 2be6 ba3e 43d6 8d3e e3c5 bd3d
000000e0: 8567 073e 4529 55be 77be a73e 5c7a 2d3e
000000f0: a41f 713e eab4 debd 5cbb 05be 1cc2 2bbb
00000100: a997 64be 484f 6c3d 5722 c93d 9d9f 8fbe
00000110: 1fb7 493e 8e5c b3bd 4c77 083b d68e 73bd
00000120: 0ca3 a2be e5cf 363d 37cd aabe 4544 fd3d
00000130: 9ed9 673e 2143 613e 2ebf f63d 1a0f 81be
00000140: 4aa8 8d3e 7c84 1f3e 0f59 c4bd 3a6d 483d
00000150: cdaf 85be 69e2 a2bd 4608 6a3e 2b62 473d
00000160: 1056 733d ac52 d13e a004 173d bdfb f0bd
00000170: e2af a63d ac2d 3e3e 3173 d43e b41e 42be
00000180: 7c6f 3ebe 6d61 1d3e c11f 303c bff5 a23d
00000190: 0ef4 b0bd c40f 883e c876 d8bd 2029 91be
000001a0: ffad cbbc ee3c bc3e 1016 e1bd 375b 583e
000001b0: 1395 813d 09f3 d83e f372 a33d adf9 cfbd
000001c0: 3701 073d c3a8 1cbd f5b3 793e 0ebd b43e
000001d0: e498 e23d c59f 933d 7c52 64be 72be b7bd
000001e0: 4217 313b f454 413d a7c0 27bd 2791 6a3d
000001f0: 4ea3 7d3d d3c8 46be acad 113e ba2f 43be
00000200: f795 69be 0510 233e 91bb a8be 23e7 333e
00000210: 9de4 51be a647 1cbd 667c 2a3e b7d9 a33c
00000220: c5e3 81be 9c3c 643e bd60 7abe 5f49 46be
00000230: fcac 89be e56f 6abe 45ba 583d 1e49 bdbd
00000240: 8641 87be e62f 643d 8a05 6c3d ab59 453e
00000250: 1bd7 c93d c45b 46be b7a9 9cbd 8416 88be
00000260: 5f9d ee3d 1bb4 a93e 22df adbe 6249 883e
00000270: 034f 073c 1519 8e3e 7b71 92be 3e3a 593e
00000280: 3c7b 70bd 2759 3dbd d802 1dbe 6dc8 d8be
00000290: d02f 83bd 6d91 6cbc 8f46 aebc 6972 5e3e
000002a0: b5eb 18be d593 0ebd c4a7 74be 8545 a13e
000002b0: a53c f3bc 45cc 20bd 9191 243e 1720 35be
000002c0: 66c5 9abd 3402 e7bd a53b a9bd cefb 023e
000002d0: 1585 e4bd 1b67 99be f66d c13d 761f 653e
000002e0: 7a76 88bc b5f3 a5be a2ac 2d3e b894 6c3e
000002f0: b2b5 72bd 176e 90be 701c 123e 1447 3d3e
00000300: 477c f43d 52bf da3d cc99 183b 3dd7 1c3e
00000310: 2068 0fbe 941d 8ebd 04c6 a8bd 47e7 203d
00000320: 2dc4 55bd ac89 dbbe a2cd 76be ff65 113e
00000330: a14f 2bbd 7495 673d 6a88 0fbc 48e8 0fbe
00000340: 8322 2d3d 78b4 9bbe fee6 a2be 622f 08be
00000350: 13a8 1bbe 47c1 ecbc 0e45 d7bd ae31 7fbd
00000360: 6ce8 a8bd 03ec 033e 85f6 f9bd bb94 67be
00000370: bd8a 663e 5d57 9e3d 6ed5 463d 808e d63d
00000380: 1e6f 583e b573 febd 17e4 14be e26f 67bd
00000390: 851d 6dbc 92ea 4bbe f188 5e3e 854e e4bd
000003a0: a2d8 d73c 2d41 0bbe 0bdc 223e 5cea f43c
000003b0: 1c9a b53d e2e6 903d 3e62 a1be cc54 ae3e
000003c0: d7d6 7dbe cc9a e9be 41df b43d 77fa 26bd
000003d0: ea46 183e b962 2abe 9747 95be a929 e63c
000003e0: 2af0 b93d 663d 92be e19b 033e 3451 f7be
000003f0: a379 86bd 7c27 573e e196 12be 55bc ef3d
0.13811243 0.1102078 0.32762086 -0.1814418 0.20417945 -0.20087048 0.23717406 -0.37262893
-0.12574007 -0.15327315 0.056373622 -0.29163343 0.034196883 0.34925547 0.22643094 -0.060689766
-0.031485166 0.044865955 0.16697213 0.33889818 -0.22199161 0.06666064 -0.13202463 0.14173728
0.18194462 0.054242663 0.007362246 -0.08448386 -0.056860633 0.00040772892 -0.19653831 0.033236887
0.05329825 -0.02038288 0.27058196 0.301258 -0.15343055 -0.17362276 0.023331868 0.31327307
-0.10412167 -0.06125184 0.3101724 0.3163721 0.13026014 0.17584641 0.20492797 -0.02863668
0.13090293 0.12737677 -0.092829004 -0.010631414 0.031786747 0.3650373 0.2770253 0.092662595
0.13223083 -0.20816524 0.327625 0.16941208 0.23547226 -0.1087435 -0.13059753 -0.0026208228
-0.22323479 0.057692796 0.09821003 -0.28051463 0.19698761 -0.08757888 0.002082306 -0.05946239
-0.3176502 0.044631857 -0.33359692 0.12366537 0.22641608 0.21998264 0.120481834 -0.25206834
0.27667457 0.15577883 -0.09587299 0.04893229 -0.26110688 -0.079533406 0.22854719 0.048677605
0.059408247 0.40883386 0.036869645 -0.11766765 0.08139016 0.1857211 0.41494134 -0.18957025
-0.18597215 0.15369196 0.010749758 0.079570286 -0.086403 0.26574528 -0.10569531 -0.28351688
-0.024863241 0.36765236 -0.10990536 0.21128546 0.06327262 0.4237292 0.07980909 -0.10155044
0.032960143 -0.03824688 0.24385054 0.35300487 0.11064318 0.07208208 -0.2229709 -0.089718714
0.002702192 0.04720016 -0.040955212 0.057267334 0.061923318 -0.19412546 0.14226407 -0.19061175
-0.22811113 0.1592408 -0.32955602 0.1756864 -0.20497365 -0.038154267 0.16649017 0.020001275
-0.25369087 0.22288746 -0.24450965 -0.19363926 -0.2688979 -0.22894247 0.052912015 -0.092424616
-0.26417178 0.055709742 0.05762247 0.19272487 0.09855481 -0.19370943 -0.07649558 -0.26579678
0.1165111 0.33145222 -0.339593 0.26618487 0.008258584 0.2775351 -0.28602204 0.21213624
-0.058711275 -0.0462276 -0.15333116 -0.42340413 -0.06405604 -0.014438969 -0.02127388 0.21723332
-0.14933665 -0.034808952 -0.23892123 0.31498352 -0.029692004 -0.039257307 0.16071154 -0.17688023
-0.07557182 -0.11279717 -0.082633294 0.12791368 -0.11158196 -0.29961476 0.094448015 0.22375283
-0.016658057 -0.32412496 0.16960385 0.23103607 -0.05925531 -0.28208992 0.1426866 0.18484145
0.119377665 0.10681023 0.002328503 0.15316482 -0.14004564 -0.06939235 -0.082408935 0.039283063
-0.05218904 -0.42878473 -0.2410188 0.14199065 -0.041823987 0.056539014 -0.008760551 -0.14053452
0.04226924 -0.30411124 -0.31816858 -0.13299325 -0.15200834 -0.028900756 -0.10511218 -0.062303238
-0.08247456 0.12883 -0.12205223 -0.2261533 0.22513862 0.07731507 0.048543386 0.104763985
0.21136138 -0.12424413 -0.14540134 -0.056503184 -0.01447237 -0.199137 0.21731927 -0.11147789
0.026348416 -0.13599081 0.15904252 0.029896908 0.08867285 0.070752874 -0.31520265 0.3404907
-0.24788986 -0.45625913 0.08831645 -0.040766206 0.14870802 -0.16639222 -0.2915618 0.028096037
0.09079011 -0.28562468 0.12852432 -0.4830414 -0.06566169 0.21011156 -0.14315368 0.11705843

bias f4 [9]
00000000: 483a 36bd 4387 83be c1fa 18be 8170 10be
00000010: 2c45 abbd f260 0fbe ae4e 923d 2736 863d
00000020: 6141 c2b9
-0.044489175 -0.25689134 -0.14939405 -0.14105417 -0.08362803 -0.14001825 0.07143913 0.065532975
-0.00037051275

weight f4 [256, 19]
00000000: 966b a5be a529 e53d f7eb 1e3e bcfc 1cbe
00000010: 011f 59bc d6ee 0dbf 56a6 edbc 109c 0bbe
00000020: 817f 1bbd 5486 a2bd 664f f3b9 1939 f1bd
00000030: 34b5 db3e d10e 66be 3c8a d1bd 55c3 1ebd
00000040: ca55 ba3e d35c c6be 43e3 013f 405e b7be
00000050: f511 d5bd fe51 8e3e 1818 99be f56b b53e
00000060: 3169 d53d 90c6 82be d359 7f3c ec47 a43d
00000070: 878e 24be 8426 ffbd 3029 083e 7b52 b3be
00000080: ed06 013f d08b 7ebd 5c41 3cbe c713 883e
00000090: 1767 78bd 1800 27be 833d 9fbe 0221 40bf
000000a0: 73b1 c93c 4f32 883e 1c0a c6bd 0481 c9bb
000000b0: 9f46 1b3d f1e2 8a3e 17c2 3fbd eb95 993c
000000c0: 407f b93d 0446 50bc d783 6fbe e889 74bc
000000d0: 82d0 91be faaa d4bd 505f 82bb b696 05be
000000e0: 434d c73d 22e7 f63d c356 bebd 3d2b 98be
000000f0: 207f 6b3e 08e6 66be 24c1 223e 055d dcba
00000100: d3ea 04be 255e d93e ba20 833d 641e b03e
00000110: 45de 233c 845d 7cbe e29b 77bd 66d5 aa3d
00000120: 5011 bc3e e7ba 16bc bf53 21be 4148 d4be
00000130: 0fec 03bf f716 fe3d 1f39 c8bd 0f64 9e3e
00000140: df96 a63c a327 2dbd 1923 a2be d45f 80be
00000150: 39be 87be fe15 403e c11e dabe 9b70 fabd
00000160: 598f 6e3b 49c6 3bbe 761b fabd 2101 2c3d
00000170: a721 9f3e 421c 10be 026e 9b3d 7dff 2ebe
00000180: 691f 0e3e 229f 57be 24cf 55be 6d65 2fbe
00000190: de06 e5be 6c35 933e 8f57 cfbc afef 053f
000001a0: 3ab7 133e 7cd6 e03d 429a 053e 21ff 093b
000001b0: 1751 8f3e 4803 ae3d 738f 183e b7ec 373e
000001c0: 00ce 13bc e837 963e 1d1b c2be fa00 3bbe
000001d0: 90a3 973e 82c5 c3bd 3366 9c3e 42e3 e5bd
000001e0: 840f 743e 65a8 87bd 80d2 a83d 2e36 0ebf
000001f0: 1f8e 3e3e b83e e83e d80b ed3c 5919 95bd
00000200: 4b9f 553e f294 e2bc 65fc 3dbd cb4b a6be
00000210: 46dd 8a3d 7bcb 04be 6f34 bc3c b040 2a3d
00000220: 4614 c43d b4cf a33d 176a 413e 5b6f 9abe
00000230: 5cdf c33e d3c0 68be b92e cf3d a795 8ebe
00000240: b506 f6be 6b61 c13e 44ba 0fbe a589 6dbe
00000250: bc8f 36be 2eda 80bd 1e94 d83d c2db ae3e
00000260: c344 3dbc 5d6e 3e3e 00a7 0abe 91eb 08bf
00000270: 75a8 75be d2bf afbe 4d2f 11be 06b8 b93e
00000280: b991 3cbd 2367 2abe 7289 35bd 68cd 40be
00000290: b4d9 083e 97fa ab3e 3618 1ebb 91bd c9be
000002a0: 782a d93e 9fee a1be a1e6 9bbd 195d 26bd
000002b0: 9d95 2cbe 726f 243e 7642 4abe 8adb cfbe
000002c0: 2515 273e 5b14 62bd 5d66 c73c 5756 ba3e
000002d0: 9403 c0bd 7e2e 8c3e 3b8d e4bd 16a5 823e
000002e0: 83a9 c0bc 67d1 c6be 8317 8b3e ae18 433e
000002f0: 6e2a d13e e24c 4b3e 3a7f 873e c96f 423d
00000300: d980 cebe 22de f63e fab5 97bd 14e3 a1bd
00000310: 69ff aaba 3d12 063e 7718 1fbe 21cb 5bbe
00000320: 6bb2 9dbe 8123 9bbe ac28 7b3e 4bc6 603e
00000330: e240 fa3e 2a01 843e 9966 eb3d 3680 08be
00000340: beae 2dbd 80e3 933d 399e 49bd c8c0 eabe
00000350: 0c9c 0bbf 9f35 c9bd 11dc 0ebe ba7a 52bd
00000360: e5c7 c43e e1d1 383e 2075 d9bd 7d68 bc3e
00000370: d904 6abd 0b9d 96be de0e cebd 32d0 60be
00000380: f4f5 ba3d 29ef 9b3e 8979 9ebe c846 413e
00000390: b538 cabd 269b 13b9 4a8f ca3e 4e0c 153e
000003a0: 943f 98be 41ed 8c3d f32a 57be 72f9 dabe
000003b0: dc5a 813e 6f24 c3be 8c76 9e3a 890b 323d
000003c0: c78e 6b3e 3193 193e f28c 05bf d1c0 9c3d
000003d0: 308c c13d 79aa 133e 1db8 493e 63a1 d1bd
000003e0: 9a7b cc3d a0d7 49bc 647e 34be 9593 343d
000003f0: 691d 29be d184 79bd e7b0 96be 2bc9 7f3d
-0.32308644 0.11189584 0.15519701 -0.15330786 -0.013252021 -0.5544256 -0.02900998 -0.13633752
-0.037963394 -0.07935777 -0.00046407728 -0.11778469 0.42911685 -0.2246659 -0.10231444 -0.038760502
0.36393577 -0.38742694 0.507374 -0.35814095 -0.10403816 0.2779693 -0.29901195 0.35433927
0.10420454 -0.25542116 0.015585381 0.080215305 -0.16069995 -0.12458518 0.13296962 -0.35023865
0.5040119 -0.062145054 -0.18384308 0.2657759 -0.06064519 -0.1630863 -0.31101617 -0.75050366
0.024620747 0.26600882 -0.09669897 -0.006149413 0.037909146 0.27126268 -0.046815958 0.018748244
0.09057474 -0.0127120055 -0.23390137 -0.014925458 -0.2847939 -0.10384174 -0.0039786473 -0.13045773
0.097315334 0.12055804 -0.09293892 -0.29720488 0.22997713 -0.22548687 0.1589399 -0.001681239
-0.12980203 0.4245464 0.064027265 0.34398186 0.010001724 -0.24645048 -0.060451396 0.08341484
0.36731958 -0.009199834 -0.15754603 -0.41461375 -0.5153207 0.12406724 -0.0977652 0.30935714
0.020335613 -0.04227413 -0.31667402 -0.2507311 -0.26512316 0.1875839 -0.42601588 -0.12228509
0.003640136 -0.18337359 -0.12212269 0.041993264 0.31080362 -0.1407328 0.07589342 -0.17089649
0.1387917 -0.21056798 -0.20879799 -0.17128535 -0.44731802 0.28751695 -0.025310306 0.52318853
0.14425364 0.1097841 0.13047126 0.002105661 0.27991554 0.084967196 0.14898472 0.17961393
-0.009021282 0.29339528 -0.3791131 -0.18262091 0.29616976 -0.09559156 0.30546722 -0.112249866
0.23834044 -0.066239156 0.08243275 -0.5555142 0.18608902 0.4536035 0.028936312 -0.07280225
0.20861547 -0.027658913 -0.04638328 -0.324797 0.06780486 -0.12968247 0.022974221 0.041565597
0.09574179 0.079986006 0.18888126 -0.30163082 0.38256347 -0.22729807 0.101163335 -0.2784855
-0.48051992 0.37769637 -0.14035898 -0.23197038 -0.17828268 -0.062916145 0.10575126 0.34152037
-0.011552039 0.18596788 -0.13540268 -0.53484446 -0.23990043 -0.34326035 -0.141782 0.3627321
-0.04603741 -0.16640906 -0.04432053 -0.18828356 0.13364297 0.33589622 -0.0024123318 -0.3940244
0.42415214 -0.31627366 -0.07612348 -0.04061613 -0.16853948 0.16058138 -0.19751915 -0.40597183
0.1631666 -0.055195194 0.024340803 0.36393997 -0.093756825 0.2737922 -0.1115975 0.25516576
-0.02351833 -0.38831636 0.27166376 0.19052383 0.40852684 0.19853547 0.26464254 0.047469888
-0.40332678 0.4821635 -0.07407756 -0.0790464 -0.0013046089 0.13092895 -0.15536676 -0.21464206
-0.30800185 -0.30300525 0.24527234 0.21950643 0.48877627 0.25782138 0.11494178 -0.13330159
-0.042402975 0.072211266 -0.04922316 -0.45850205 -0.54534984 -0.098246805 -0.13951136 -0.051386572
0.38433757 0.18048812 -0.10618043 0.36798468 -0.05713353 -0.2941669 -0.100614294 -0.2195442
0.09128943 0.30455902 -0.309521 0.18874657 -0.09874097 -0.0001407681 0.39562446 0.14555475
-0.29736006 0.0688119 -0.21012478 -0.42768437 0.25264633 -0.38113734 0.0012089773 0.043468032
0.23003684 0.14997555 -0.5216819 0.07653964 0.09450567 0.14420499 0.1969914 -0.1023586
0.099845126 -0.012319475 -0.17626339 0.044086058 -0.16515125 -0.06091768 -0.2943184 0.062447708

bias f4 [256]
00000000: 2862 0a3d e3f1 2cbd 0000 0000 cf7e 993d
00000010: 4798 c23d 7a2d 81bd feb9 98ba c81d 9a3c
00000020: 14e6 f1bd 94a7 efbd a136 b23a 0a9a 253d
00000030: 80df f33c 7cc0 34bd f1c0 47bd d05b 7f3b
00000040: 2b00 7d3c a067 683d e7ad 57bc 6b07 253e
00000050: 9cd1 bc3d 0ec7 953c cf48 a4bd 0a05 803c
00000060: 0af8 043d 3e2d bbbc daca 373c 865a 7e3d
00000070: e1cc 6ebc 098a 633c 9473 4fbd ac1c bc3d
00000080: 7452 a9bd af74 823c 3e0b 2e3c 889a 9bbb
00000090: 29f9 96bc d910 f8bc 4181 83bd 78ca 013e
000000a0: 4d47 6b3d 877b 0fbb b73e 95bc ba8b fdbc
000000b0: 586c 5d3d 71aa db3d f465 703c 29c2 cabc
000000c0: 97c7 abbc c0ff 563d 7dab f13c b8b4 8737
000000d0: d6cf 97bc 6e18 8c3c b5b0 b33d 0e9f 63bc
000000e0: 67d7 c53c c23f 413d 6bc6 863b 1233 7bbd
000000f0: d32f 583d 32f4 2a3c 9a7c 36bd 0a81 6d3c
00000100: 6e91 8ebd dbc1 89bd 404f 45bd bc6c 393b
00000110: cb1a 163d 2c37 c5bd 2006 2dba 2afe f4bc
00000120: 8188 24bb 9569 813c 47f8 493d fc02 a23d
00000130: 9108 48bd 3e3a 1538 7fc3 2b3d 4340 a2bc
00000140: 77bb 76bd 78c7 003d 77b5 efbc 92fa a537
00000150: c2ff 80bd 4500 c2bd 9744 69bd 0a81 803d
00000160: ee0a 1a3b a938 55bd e3f2 9dbd cdb2 ac3d
00000170: 1e98 893d abb1 2b3d 03b2 573d 1fc7 69bb
00000180: a75d acbb bb7a 6a3d 1972 ad3a 4b70 29bd
00000190: f912 94bc c689 c2bd 4078 e338 c3f5 30be
000001a0: 4f80 c43c 1040 99bc e365 1dbd 013c b8bd
000001b0: 4edf 043d 846b a03c f675 213d 3eb1 55bd
000001c0: 594d 18be dd8e a8bd a016 eb3c ff45 613d
000001d0: 5437 5cbd 36d9 9b3c 31ab c13d 4591 3f3a
000001e0: 87c3 433d 42b1 243d 27bc 183d 0bae 6e3d
000001f0: bffb 8dbc 63f7 563d cd7b 953d ef03 55bd
00000200: 9167 813d 557f 02be b418 d53a ef8f 2d39
00000210: 31ed 6e3c 9938 ccbd b3ee 48bc 1d30 b8bc
00000220: e5d1 73bb d5f6 203c cf4b c9bb 1a70 51bd
00000230: 33e4 eb3a b7d4 053e f078 943c dfd4 6ebc
00000240: f761 a2bb 2b74 b53d 9b11 2fbd 11be bf3d
00000250: 41ec 28bd 38ed f43b 3710 953b b75c 0d3e
00000260: 3bec f03c ce62 d43c f12b a33c 6211 a2bc
00000270: f41f 7fba a687 c6bd 2fc1 8b36 1121 bbbb
00000280: d180 d2bc ef0d d73d 4635 f9bd 6770 c4bc
00000290: 5e67 e83d c2fd f23b c08c 8dbd c943 45bc
000002a0: 8894 96bd b45f 823c 80cc 2dbc 2071 a0bd
000002b0: 09c0 59bd de58 4b38 2128 5dbd 9b15 a03d
000002c0: 6941 913d bfad 213d 3ffb 253b 4d05 0abe
000002d0: 19ac f5bc b52b 503d c75a 8abd 8514 9abb
000002e0: dd74 833d d112 da3c 9ff2 f3bb f17e 6f3d
000002f0: 09b7 2b3d 4558 d13d 45a6 eb3d 318b b336
00000300: 020a 633c 95a6 7f3d 1140 5bbc c2f2 b63d
00000310: 00f6 b23d f314 0834 c43b 7c3c 8de1 f3bc
00000320: f130 563c 6d32 ecbc 841b 98bd 441e 633d
00000330: bab3 e63c 4f53 023d 0a86 963c 05a4 c93b
00000340: 863b d9bb b613 3fbc cbf5 ac3d de77 773d
00000350: 5793 d2bd 303f 9e3d 34de b7bc 6c99 99bd
00000360: 99c0 133c 2c31 d33b 0d1a c83c d79a b73a
00000370: 9512 cebd cb13 053e 435a 983d 9d94 95bb
00000380: 8306 bb3c 1a4e 423d 6e36 593d 6bf6 4abc
00000390: 6667 153d 1522 78bc f9f4 17bd 969d 5abd
000003a0: 97e3 e33c 81c3 0dbb 529f 643d c7d8 0d3c
000003b0: 4a75 353d 1652 8eba 6dd8 cb3d 82f1 bf3c
000003c0: 9b51 62bb 138e 03bd d596 8fbd c27b a3bc
000003d0: 27d4 bdbd 3b95 933d 126e 53bd 138b 8d3d
000003e0: 40ce 9fbc 399e 1fbd 7079 9a3d a67a ca3c
000003f0: 2341 f13c 3d0e c9bc 89c6 783d 1228 353c
0.033785015 -0.04222287 0.0 0.0749489 0.09501701 -0.06307502 -0.001165211 0.018813029
-0.11811462 -0.11701885 0.0013596603 0.040430106 0.029769659 -0.04412888 -0.048767988 0.0038964637
0.015441935 0.05673945 -0.01316402 0.16116111 0.09219667 0.018283393 -0.080217 0.015627403
0.03246311 -0.022848722 0.011217797 0.06209805 -0.014575214 0.013887891 -0.050647333 0.09185156
-0.0826768 0.01592478 0.0106227975 -0.004748646 -0.018429356 -0.030281471 -0.064211376 0.12674892
0.057441045 -0.0021893696 -0.018218381 -0.030950416 0.054058403 0.107258685 0.014672745 -0.024750786
-0.020969195 0.052489996 0.029500717 1.6177408e-05 -0.018531721 0.017101493 0.087739386 -0.013892902
0.024150563 0.047179945 0.0041130087 -0.061328 0.052779984 0.010434197 -0.044552423 0.014496097
-0.06961332 -0.06726428 -0.04817128 0.002829357 0.036646646 -0.09629664 -0.0006600339 -0.029906351
-0.0025105777 0.015797416 0.04930904 0.079107255 -0.048836295 3.557861e-05 0.041934486 -0.019806033
-0.060237374 0.03144023 -0.029261334 1.9786214e-05 -0.06298782 -0.09472708 -0.056950178 0.06274612
0.002350505 -0.05205599 -0.077123426 0.08432541 0.06718467 0.041917484 0.05266 -0.0035671664
-0.0052601877 0.05724595 0.0013232856 -0.041366857 -0.018075453 -0.094989344 0.00010846602 -0.1728125
0.023986964 -0.018707305 -0.038427245 -0.0899582 0.032439522 0.019582517 0.039419137 -0.052170984
-0.14873256 -0.08230374 0.028697312 0.054998394 -0.053763703 0.019024473 0.0945648 0.00073077186
0.04779389 0.04020811 0.03728881 0.05827145 -0.017331956 0.05248202 0.07299004 -0.052005704
0.06318582 -0.12743886 0.0016257972 0.00016552185 0.014582918 -0.09971733 -0.012263942 -0.02248388
-0.0037203964 0.009824474 -0.0061430703 -0.0511323 0.0017997086 0.13069426 0.018124074 -0.01457712
-0.004955526 0.08860048 -0.0427414 0.09362424 -0.041240934 0.0074745677 0.004549052 0.13804899
0.029409518 0.02592602 0.019918414 -0.01978368 -0.00097322394 -0.09693842 4.1650123e-06 -0.005710729
-0.02569619 0.105007045 -0.12168364 -0.023979379 0.11347841 0.007415504 -0.069116116 -0.012040087
-0.07352549 0.015914775 -0.010607839 -0.07834077 -0.053161655 4.8481736e-05 -0.053993348 0.07816621
0.07092554 0.039472338 0.0025326756 -0.13478585 -0.02998929 0.050822932 -0.06755596 -0.004702153
0.06418774 0.0266203 -0.007444694 0.05847067 0.041922603 0.10221914 0.11506323 5.3508197e-06
0.0138573665 0.062414724 -0.013381974 0.08933021 0.08738327 1.2673608e-07 0.015395109 -0.029770637
0.013073192 -0.028832639 -0.07427123 0.055448785 0.028161872 0.03181773 0.018374462 0.006153586
-0.00662941 -0.011662414 0.08445319 0.06041705 -0.10282009 0.07726896 -0.022444822 -0.07499966
0.009018087 0.0064450707 0.024426484 0.0014007938 -0.10062138 0.12995832 0.07439091 -0.004564835
0.022830253 0.047437765 0.053030424 -0.012387852 0.03647556 -0.015144845 -0.03709886 -0.053372942
0.027818484 -0.0021631422 0.055816002 0.008657641 0.04430131 -0.0010858204 0.09953389 0.02343059
-0.0034533504 -0.032117914 -0.07011191 -0.019956473 -0.092689805 0.07206198 -0.051618643 0.06911292
-0.019507527 -0.038969252 0.075426936 0.024716686 0.029450005 -0.024542922 0.060736213 0.011056917

weight f4 [256, 256]
00000000: eea3 9e3d 5645 5939 5403 32bd 613e 223e
00000010: 2d47 0fbe 83ad 4dbc b227 83bc f4ab 083d
00000020: 5ac9 143d b289 2bbc c3b1 64bd c381 dc3d
00000030: ad8e 95bc 1513 38bc 1dfc 133e 70ba 0b3e
00000040: a714 1dbd 1191 1abe b8e6 f5bd 1d75 d73c
00000050: fd8d 833d 6edb 2dbe 1c5b 01be b60d 87bd
00000060: a9f0 8abc 6c9f 4bbe 7cbc d93d 55af 09bd
00000070: 863e 39bd 589f 093e 658c 373d c3d9 adbd
00000080: ecc6 ebbd 562e 35bd 4fc5 cdbd ad09 ae3d
00000090: ba8a 9c3d 9fd0 41bc 6c18 1a3e 0d9c 093d
000000a0: d02a 8ebd 26b0 d43d 8791 973d a1fc e4bc
000000b0: ba9f 583a 8ae5 fa3a 0869 20bd 52ea 993d
000000c0: 3c72 39ba 3bbb 1bbc 59ba 9abd 2125 bebd
000000d0: 56d4 c0bc 8531 31bc 30fb d73d c3ff 323d
000000e0: 797d 26bd fba7 253e c947 1dbb 633a 79bd
000000f0: f3e6 693c b4a7 b4bd 3520 513d 4484 6cbe
00000100: 8c00 393c d920 eabc 9e50 f63d 2ab9 903d
00000110: f159 2f3e 5033 3b3d c3dd aabd c96c 9b3c
00000120: ec1b 413d d980 b33d 0799 3d3e 7a82 2dbd
00000130: 601c 543b 4654 6a3d df8d 0f3e ebf0 473e
00000140: f1f1 a33d 3c26 be3c a735 b13d 1f65 f03d
00000150: 7e8f 283d 0314 653d bb08 473c 9169 d7bb
00000160: 67bc febd 8cb9 ed3d 175f 82bd ab68 acbb
00000170: b55b c93c 7a43 2b3e e46d 753d 7dd0 1a3d
00000180: 0d43 6b3d e5dd 2f3d 1b2b c0bd ea75 5d3d
00000190: 956d c03d bcd7 22be fa89 0ebd 1626 0e3c
000001a0: 64d7 a4bd 3d1e 1f3d 94cf 8ebd 61b8 303d
000001b0: 8cb5 3dbd 5bb3 47be b6a6 33be be7f 38be
000001c0: 5259 8fbd 6399 f1bd aa65 283e 5499 7c3e
000001d0: a1a5 0a3d 5808 1d3c b3df 843d 2885 4ebd
000001e0: afac af3d 4ff6 163e 91ae 483d 32ec 863b
000001f0: 9cd8 6ebc 4504 ab3d bcc5 1e3e 1b0b 1dbd
00000200: d773 1ebe d7c1 5bbb 1b3c 53be eacc cd3b
00000210: cebc d93d 8b25 b33d c1c7 dcbd 0ab1 023c
00000220: 8ac9 8c3d 7364 9e3d 389f 033d 51a1 5a3d
00000230: 7887 e03c 6282 20bc a094 a3bd f28d c9bd
00000240: b259 513e f7a0 b63d 372a 1e3e 9d63 99be
00000250: d747 14be aeef 8dbd e919 d23b 50e9 93bd
00000260: ab0d 483c 4b12 2bbe ea50 09be 0068 ae3d
00000270: 7bd9 d43d 5587 903d ecc2 71bc a9c2 773e
00000280: 24a3 a63c 5906 c4bd 6f2c 903d 6255 1abc
00000290: 7039 553d 96a2 f7bd be71 73bc 4327 4d3d
000002a0: d2fe f63c 7101 a93d 21b7 8e3d ef4f 8ebd
000002b0: 9317 95bd f6a4 e03d f2fc 433d e7ef ff3c
000002c0: 5a3d b5bc 0873 0abb ec38 1fbd f634 9dbd
000002d0: f470 b4bd 1590 57bb fbd8 84bd 7c28 99bb
000002e0: 77a0 623d 4f4a f43d 4609 f6bd 29a8 49bc
000002f0: e3ad 1abe f216 0cbe 902c eabc 5729 b23d
00000300: a963 503e 87d4 273d 0d17 fb3c a2a4 8a3d
00000310: 4d6c 0dbd 326a 28bd f21e b83d 0503 a2bd
00000320: 59f8 c0bb cd1e 6bbd e533 073e 8aba ba3c
00000330: 89b7 e8bd ef2c 11be 5497 a8bc 41b2 c63d
00000340: 33ee a43d 62b9 3ebd ba38 4fbd 876f 803d
00000350: 3671 5bbd 06f6 2fbb c6da 51bd 22bb 2dbd
00000360: d3c0 18bb dae2 ea3d 77b6 c63b 4f0c cd3c
00000370: f778 c03d 06b4 d5bd 0c32 153b 5b4d 123d
00000380: 4bef 74bd 6332 20be 7040 7c3d 2d36 533e
00000390: b52f 053e fd7a 87bc 48d5 c33b d67d 11bc
000003a0: 5f4b 0bbe a610 1cbd 3f21 e43b c1bb c3bc
000003b0: 22e2 0fbb 02f5 02be 4d59 d9bc 054a 2c3d
000003c0: 213d a43d 5a97 463c df9b 553a e228 3a3c
000003d0: 8061 a43d 4473 0bbe 7289 e73c 3dff e03d
000003e0: e310 a63d acfe a93b e083 f9bd 9b82 ad3c
000003f0: 0f1d 8cbd f856 453c 54d9 1fbc 2a4e 46be
0.07746111 0.00020720562 -0.043460205 0.15844108 -0.13991995 -0.012553575 -0.01601014 0.033367112
0.036324836 -0.010469841 -0.05583359 0.107669376 -0.01825651 -0.011235018 0.14451642 0.13645339
-0.038349774 -0.15094401 -0.12006897 0.026300961 0.064235665 -0.16978237 -0.12632412 -0.06594412
-0.016960459 -0.19885033 0.10631654 -0.033614475 -0.045225643 0.13439691 0.044811625 -0.084888004
-0.11512551 -0.044233643 -0.10047399 0.08497939 0.076436475 -0.011829524 0.15048379 0.033596087
-0.069417596 0.1038516 0.07400804 -0.027952494 0.0008263547 0.0019141894 -0.039162666 0.07515396
-0.0007074212 -0.009505088 -0.07555074 -0.092844255 -0.02353875 -0.010815029 0.10545957 0.043700945
-0.040647004 0.1617736 -0.0023999086 -0.060846698 0.014276254 -0.08821049 0.051056106 -0.2309733
0.011291634 -0.028580116 0.12027095 0.07066567 0.17124154 0.045703232 -0.08343079 0.018972771
0.04714577 0.0876481 0.18515407 -0.04236076 0.0032365546 0.057209276 0.14018963 0.19525497
0.08005131 0.023211591 0.086528115 0.11738037 0.04115247 0.055927288 0.012148078 -0.006573864
-0.12438279 0.11607656 -0.06365793 -0.005261501 0.024579862 0.16724959 0.059919253 0.037796486
0.05743699 0.042936224 -0.09383222 0.05406753 0.09395901 -0.15902609 -0.034799553 0.008676073
-0.08048895 0.038847197 -0.06973186 0.043144587 -0.046315715 -0.19502012 -0.17544064 -0.1801748
-0.069994584 -0.11796834 0.16445032 0.24667865 0.033849362 0.009584509 0.0648798 -0.050419956
0.08577859 0.14742397 0.048994604 0.004117512 -0.014578011 0.08350424 0.15505117 -0.03834067
-0.15473877 -0.0033532286 -0.20628397 0.006280531 0.10631715 0.08747395 -0.107802875 0.00797678
0.06874378 0.07734003 0.032134265 0.0533765 0.027408347 -0.009796711 -0.07987332 -0.09841527
0.20444372 0.0891742 0.15445791 -0.2995881 -0.1448053 -0.06930481 0.00641178 -0.07222235
0.01221029 -0.16706197 -0.13409773 0.0851593 0.103930436 0.070570625 -0.014755946 0.2419535
0.020341463 -0.09571523 0.07039725 -0.009419771 0.05205673 -0.12091558 -0.014858661 0.05008627
0.030150805 0.08252228 0.06968523 -0.0694884 -0.07279887 0.10968964 0.04784865 0.031242324
-0.022123981 -0.0021125693 -0.038872644 -0.07676117 -0.088106066 -0.0032892276 -0.06486698 -0.0046740156
0.055328812 0.11928236 -0.120134875 -0.012308159 -0.15105395 -0.13680628 -0.028585702 0.08699291
0.20350517 0.040974166 0.03065064 0.067696825 -0.03452711 -0.0411169 0.08990277 -0.07910732
-0.0058889803 -0.05740242 0.1320339 0.022794027 -0.113631316 -0.14177297 -0.020579971 0.09701968
0.080532454 -0.046563514 -0.050591208 0.06271272 -0.053574763 -0.0026849522 -0.05123403 -0.042414792
-0.0023308292 0.1146905 0.006064232 0.025030283 0.09398072 -0.10434727 0.0022765426 0.035718303
-0.05979852 -0.15644221 0.06158489 0.20626135 0.1300648 -0.016538138 0.005976353 -0.008880099
-0.1360297 -0.038101815 0.006961971 -0.023893239 -0.0021954854 -0.12788776 -0.02653184 0.042062778
0.08019472 0.012121046 0.0008148532 0.011362286 0.08026409 -0.13618189 0.028263781 0.10986183
0.0810869 0.00518783 -0.12183356 0.021180442 -0.0684148 0.012044661 -0.009756405 -0.19365755

bias f4 [256]
00000000: 2336 76bc 2b55 813b f2ee e43b 4227 4ebd
00000010: 0d9b 9bbc 9839 c13c dfa3 473c 22d1 253d
00000020: 27f8 28bd 4917 32bc d734 17bb 1012 4e3d
00000030: 3c5a c3bc 63e5 1bbb 0391 31bc 3188 8dbc
00000040: 16ca 923c e4f7 1e3d 845c 933c 9d62 8f3c
00000050: b179 483c 294d 53ba ce14 e7bc b83b a2bd
00000060: 974a 57bd ff0c c2bb 1987 7ebc 5863 d73c
00000070: cbb7 6cbc 6831 033d 081d a53c c57f bfbc
00000080: f307 d6bc dc82 01bd 928f 19bd 84c1 2c3b
00000090: 936c f2bb 3830 ae3c 69bb 273d 97c8 333a
000000a0: 5bad 95bc 3a9d 41bd eb2a ad3b 80cf 4d3b
000000b0: ce9d c6bb 5fc6 7cbb 6a25 2cbd 9346 883c
000000c0: 5f08 15bb 13ed 47bd 6f73 c23c 6988 aabc
000000d0: 05e0 a63c a67e c0bc 46aa 0ebc f457 efbb
000000e0: 00e4 b1bb 09e0 a43c e366 4ebd b74b 2bba
000000f0: 130e 833b 3217 04bd ba9f 16bd 0887 933c
00000100: 1d20 413d 964b ba3c ef5d 0b3c 7ecb b1bb
00000110: 5ca3 9ebc 9c62 373d 7fb6 95bc d760 b4bb
00000120: 1422 963c 85f6 00bc 1f06 243b 7a6d 9e3c
00000130: 2e35 e2bc 71c1 98bc 4303 8f3c e4de cfbc
00000140: bc86 6d3c 3265 f53c 6408 b3bc 67b8 01bb
00000150: 7fa5 363d 74c0 93bc 0616 6c3c bca5 a8bd
00000160: 1b66 833b c91b 24bc a34e 26bb d06d a83c
00000170: 7394 82bc 3411 f23c 6a4c 28bd 47e3 f0bc
00000180: cb01 bf3c 0fb8 f3bb 625a 863d 9fb0 3abc
00000190: abd1 24bb 3f37 4ebd 94e7 0c3c f623 34bd
000001a0: b9ae a83b 2b86 90bb c828 0dbd af96 66bd
000001b0: 3327 703c 6417 41bd 7300 17bd 87bb 54bc
000001c0: ab4d ee3c a736 52bb 3d27 b0bc c957 503a
000001d0: e167 0f3c baac 4e3c 6afc bfbc 9137 2c3d
000001e0: 43c3 293c fc6c 0dbd fc70 86bc b625 293d
000001f0: 8e55 1abd edf9 5b3d fc59 d53b 1ce3 163d
00000200: 6baf 093d ce9f 64bc 4715 873c 8c75 633d
00000210: c426 c33c a455 653d 0e6a b3bc 93bd 223d
00000220: f71e 9fbb 8650 fd3c fad1 f3b8 7f58 a03b
00000230: 269a 7a3c afce 59bb ff2a e13c 18ea febc
00000240: f504 083d d85e b3bb fc75 8e3d 7841 033d
00000250: a7dc 083d 44d4 b7bc 9549 b4bb 161a 7ebc
00000260: 6514 53bc f3c0 48bd a26c 1fbc 08ee 873c
00000270: cc8e 68bd 0728 1dbb 9ed2 ea3a 3d27 d53b
00000280: 37ae 4eba 7680 a03b 2ec9 98bc e175 503d
00000290: 213f 783c 80d8 cebc dbfb 053d 3375 853d
000002a0: 20cb 803c 0b6b f83c f9b6 9b3c b459 763c
000002b0: 885c abbc 57ae 1dbc dfc2 1ebd 95af 1fbd
000002c0: 0596 ef3c 0f21 6dbc c665 1d3c 2ad0 ebbc
000002d0: 8308 523d dea8 143d 9879 d739 7a01 8ebb
000002e0: 96f7 eb3b 434b 073d f6d2 963c aaab 193b
000002f0: 19c0 14bd 83cf fc3b f3e1 54bd 5765 6fbb
00000300: 9929 b53a d3b2 a6bd db60 2fbd 55d2 ddbc
00000310: de8f b83b bc52 533b 8ac9 073d a17c 343b
00000320: 03ae 913c 9098 303c 71ff 7e3c d502 f8bc
00000330: e308 92bd e57f 1e3d 6ae0 883c a905 18bc
00000340: d156 603c 2ac2 0abc 055c 183d 5bb4 1ebd
00000350: 6073 dd39 9534 d43b cc59 1e3d 3aec f4bb
00000360: e6ed f43c 74c8 9bbc 0855 873c 3767 debc
00000370: 14f9 0d3d a211 193c 889b 9ebc 175e 72bd
00000380: ba1d 5dbc a87c dd3c 1c80 cdbc 3148 89ba
00000390: a7e2 963c c787 3a3c bbdd 3ebc 827a 0ebd
000003a0: 50bb a83c 8fc7 4dbc 9342 8bbd dba8 42bc
000003b0: 2bd5 01bd 16d6 803d 0b9a f53a ea85 6bbc
000003c0: aa36 243b c678 0739 4df8 e03c b10b a53b
000003d0: dab8 073d 9f1c ec3c 928a edbb 0767 003d
000003e0: 1fcb 4c3d 7996 f03b 148f 8e3c 54bc 2e3d
000003f0: 5046 4139 4dcf 393a 159b 883d f72d f63c
-0.015027556 0.0039469204 0.0069864923 -0.050330408 -0.018994832 0.023587033 0.012185066 0.040482648
-0.04125228 -0.010869809 -0.0023072266 0.050310194 -0.023846738 -0.0023787848 -0.010837796 -0.017276855
0.017918628 0.038810626 0.01798845 0.017503077 0.012236045 -0.0008060509 -0.028208163 -0.07921547
-0.05256137 -0.0059219594 -0.0155351395 0.026292488 -0.0144481165 0.03202954 0.020155445 -0.023376355
-0.026126837 -0.031618938 -0.037490435 0.0026360461 -0.007398197 0.021263227 0.040950213 0.00068581983
-0.018271139 -0.047269084 0.0052846572 0.0031404197 -0.0060612923 -0.0038570387 -0.04202787 0.016635215
-0.0022740585 -0.048810076 0.023736684 -0.020816999 0.020370493 -0.02349789 -0.008707589 -0.007304186
-0.005428791 0.02012636 -0.05039109 -0.0006534415 0.0039994805 -0.032248683 -0.03677342 0.018008724
0.047149766 0.02274112 0.008506282 -0.0054258695 -0.019365005 0.044771776 -0.018275497 -0.0055047083
0.018326797 -0.007871275 0.0025028063 0.019339312 -0.027613249 -0.018646928 0.01745761 -0.025374837
0.014497455 0.02995548 -0.021854587 -0.001979375 0.044591423 -0.018036105 0.014409548 -0.08234736
0.0040099747 -0.01001639 -0.002537646 0.020560175 -0.015939927 0.029549219 -0.0410885 -0.02940525
0.023316285 -0.007437713 0.06560208 -0.011394649 -0.0025149386 -0.050345656 0.008600134 -0.043979608
0.0051477817 -0.0044105253 -0.03446272 -0.056296047 0.014657783 -0.047141448 -0.036865663 -0.012984163
0.02908977 -0.0032076032 -0.021503085 0.00079476513 0.008752794 0.012614423 -0.02343579 0.04204518
0.010361495 -0.034527764 -0.016411297 0.04129573 -0.037679248 0.053705145 0.006510971 0.036837682
0.033614557 -0.013954116 0.016489638 0.055532023 0.023822196 0.055989876 -0.021901157 0.039731573
-0.004855986 0.030922186 -0.00011626254 0.004893362 0.015295541 -0.0033234765 0.027486322 -0.031117484
0.033207852 -0.0054739527 0.069560975 0.032044858 0.033413555 -0.022440083 -0.0055019357 -0.015509149
-0.01288328 -0.049012136 -0.00973049 0.016592994 -0.056776807 -0.0023980157 0.0017915552 0.0065049217
-0.00078842364 0.0048981262 -0.018650617 0.050893668 0.01515177 -0.02524972 0.03271089 0.065164946
0.015721858 0.03032448 0.019008147 0.015036035 -0.020918146 -0.009624085 -0.038760062 -0.038985807
0.02924634 -0.014473214 0.009606784 -0.028785784 0.05127765 0.036293857 0.0004109859 -0.004333672
0.0072011454 0.03303076 0.01841114 0.0023448267 -0.03631601 0.007715167 -0.051973294 -0.003652891
0.0013821601 -0.08139577 -0.042816978 -0.027077833 0.0056323847 0.0032245358 0.033151187 0.0027540105
0.01778317 0.010778561 0.015563832 -0.030274788 -0.07130601 0.03869619 0.016708571 -0.009278693
0.013692574 -0.008469144 0.03719713 -0.03874622 0.00042238366 0.006475995 0.038659856 -0.0074744495
0.029898595 -0.019016482 0.016520038 -0.027148826 0.034661368 0.009342583 -0.019361272 -0.059171762
-0.013495857 0.02703698 -0.025085501 -0.0010473785 0.018418623 0.011384911 -0.011649544 -0.0347848
0.02059713 -0.0125597855 -0.067998074 -0.011881079 -0.031697433 0.06290834 0.0018737925 -0.014375189
0.0025056996 0.00012919595 0.027462149 0.005036794 0.033135273 0.028822241 -0.007249185 0.031348255
0.0499984 0.0073421565 0.01740221 0.042660072 0.00018432108 0.000708808 0.066702046 0.030051215

weight f4 [256, 19]
00000000: a8ad ce3d 27dd 55bc 1c2e b5be 1262 ef3e
00000010: 629a 253e 40df 603e 5944 85be 0efe 4fbe
00000020: 9e61 f73d f00e 923e 9501 bf3e c19b a53d
00000030: dabf abbe c57a acbd 9812 153e b7b0 adbc
00000040: e15a 263d 4527 c1be 6ae5 7ebe 67e4 45be
00000050: 1679 8a3e 5f53 7fbe 229f 7a3b fe7d b03d
00000060: b5d2 dfbd de5c 433e f8d8 e63d 79e0 f7bd
00000070: 416a 4cbd dcb9 aebe 967f 96be 82f2 c1be
00000080: 1487 fdbd c58f 94be 90f2 873e 47a2 263e
00000090: f644 1ebe e3a6 acbe 2928 2abc c307 06bd
000000a0: d8fb b1be bef6 60bd 75f5 1c3e f15a 32be
000000b0: 540a be3d 8d74 663e dc4a d4ba 4b02 a73e
000000c0: 3146 fbbd a039 e8be 68e8 6a3c c82a 4a3e
000000d0: e651 75be 44a6 2bbd 59db 83be 741a b93e
000000e0: ccec ebbd 3d8c 8b3e ab16 bdbd 9292 f03d
000000f0: 3fe3 a33c f9b8 9a3e 4209 dd3d cb59 cb3e
00000100: 1a9e 543e 28a7 cdbd 5ffc 73bd 487e 753d
00000110: e6dc 083d 1fd1 cabe 9d57 95be f246 933d
00000120: 10f8 7b3d 5839 0e3e 88d2 82be cb05 353f
00000130: 5ace 833e d447 233d 10be cabe 7d5a 653d
00000140: a1fa 9abc f228 97bd 9e90 35be fd02 383d
00000150: fc3d 093e d2bf a03e 1d31 0dbe a7d5 183d
00000160: 384a acbe a5d0 143f 01f8 84bd 21f4 983e
00000170: d005 eebd 0b35 27be d020 803e f9e2 803d
00000180: b7ad 853d 04a8 85bc f69c 6c3e 92e4 b73e
00000190: 380e 0b3e 79f1 883d f15f 5abe 0919 1d3f
000001a0: c141 27be bf35 86be 2f6f a03e 11bd 4ebe
000001b0: 5699 413e 24af 2dbe 6eda 88bd 61f8 96be
000001c0: 2e49 93be f416 693e 1f8e 313d e361 c2be
000001d0: 8fa0 30be e93f 183b a50d 95be ee1e 97be
000001e0: 7e94 e43e b187 163c 8449 82bd 06c1 5bbe
000001f0: 58c9 b9bd 2975 9e3e 3fbb 63be ce7f 943e
00000200: 5934 903e 0a51 2e3e 7ae5 a63d 4d42 253e
00000210: 7322 5f3d b814 80be dbaf 523c 6bd7 013c
00000220: 8a0a e63d db2c 7cbc f807 8dbc 9c96 293d
00000230: 42e4 8fbe bdbe c13e 331e 69be 4e90 cdba
00000240: 16cf 993e f4ea a43e 5130 2f3e 569c 41be
00000250: ebc0 46be 476e 493e 31a8 f1be a2a5 0bbd
00000260: 1e72 40be aa0e 1d3e 843a 92bd f8ab 1f3e
00000270: 2c7d 9cbd 34bb 613c 8497 be3e 0786 78be
00000280: 57a0 b6be 9f55 053e f70e 81be fd90 703e
00000290: d6ee bf3e 8e64 893e a2b5 acbe 5773 15be
000002a0: 12aa 08be ca19 08ba bdd1 bb3d 4860 8a3e
000002b0: 1eaf bfbd 3204 1c3e dd7d 8b3d 2556 a83d
000002c0: 73a0 1b3e f59e 8bbe 1b60 383e bf76 383c
000002d0: ff1c c1be c0ab 9e3e 8355 b0be d742 d13d
000002e0: becf 2ebe ea32 8a3d e42a 1a3e f9da 08bf
000002f0: 2d98 5fbd ed2a 98bd 9241 cd3e ced5 8cbe
00000300: 94ea 5cbe bae1 f9bd 7975 f33c ced6 df3e
00000310: a03a 3dbb d934 513e fc07 ac3e d724 9b3d
00000320: 0fb8 2fbd 2bc1 a33d 5bc7 36bc d3dc a73c
00000330: cdee d53e 6c1b fd3d 341d bebe aa44 f63d
00000340: 7fb6 f5bd 8453 88be 734f 9f3e 7640 15bf
00000350: 182c fd3e 055c 253e 6007 15be d1ef 743d
00000360: 8fdc b83d af79 b13e 6f1e c63b c53b 983c
00000370: 43f0 953d 97c6 9dbe a63b eb3c fb0e d33c
00000380: 3baa d9bd c092 bf3d 50ed 4dbe e04c 593d
00000390: 9cb3 6a3e 89cd edbe 7a73 b5bd a56d c2bd
000003a0: 7634 e13d f446 b43d 8508 f13d 52e2 dc3e
000003b0: b1bf 243d dce7 1abd a252 bebd a304 57be
000003c0: 1c56 df3d a829 083e 9ea5 04be 3470 80be
000003d0: 2a23 ee3e 686c 27be 39ae 343e c9a3 1b3e
000003e0: d4fd a4bd 2de0 10be be0d 1dbe caf2 663e
000003f0: 66ac a43d 48f1 85be 437e 3fbe f90d 1d3e
0.10091716 -0.013053215 -0.3538674 0.4675451 0.16172174 0.21960163 -0.26028708 -0.20311758
0.12079166 0.2852702 0.37305894 0.08086348 -0.3354481 -0.08421854 0.14557874 -0.021202428
0.040614013 -0.37725273 -0.24892202 -0.1932541 0.27045506 -0.24934147 0.0038241823 0.08617781
-0.10928861 0.19078395 0.11271852 -0.12103362 -0.04990602 -0.34126174 -0.29394215 -0.3788033
-0.1237928 -0.29015937 0.26552248 0.16272841 -0.15455994 -0.33721074 -0.0103855515 -0.032722246
-0.34762454 -0.05492281 0.1532801 -0.17417504 0.09279314 0.22505398 -0.0016196626 0.32618937
-0.12269247 -0.45356464 0.0143376365 0.19742882 -0.23957023 -0.04190661 -0.25753286 0.36152995
-0.11519775 0.2725543 -0.09232839 0.11746706 0.02000582 0.30219248 0.107927814 0.39716944
0.20763436 -0.10041648 -0.05956685 0.059934884 0.03341379 -0.39612672 -0.29168406 0.07191266
0.061515868 0.13889062 -0.25551248 0.70711964 0.2574337 0.039863423 -0.3959813 0.0559945
-0.018918337 -0.073808566 -0.17730948 0.044924725 0.13402551 0.31396347 -0.13788266 0.03731313
-0.33650374 0.58130866 -0.064926155 0.29873756 -0.116222024 -0.16328828 0.25025034 0.062932916
0.06527274 -0.016315468 0.23106751 0.35916573 0.13579643 0.06686682 -0.21325661 0.61366326
-0.16333677 -0.2621288 0.31334826 -0.2018931 0.1890615 -0.16961342 -0.06682287 -0.29486373
-0.2876677 0.22762662 0.043348428 -0.37965307 -0.17248748 0.0023231453 -0.29111972 -0.29515785
0.4464454 0.009187625 -0.06361678 -0.21460351 -0.090716064 0.3094876 -0.22239397 0.29003757
0.28164938 0.17023101 0.08149238 0.16138573 0.054476213 -0.25015807 0.01285931 0.007924895
0.11232479 -0.015391554 -0.017215714 0.041403398 -0.28103834 0.37840834 -0.22765426 -0.0015683265
0.30040807 0.32210505 0.17108275 -0.18907294 -0.1940953 0.19670974 -0.47198632 -0.034093507
-0.18793532 0.15337625 -0.07140067 0.15592945 -0.07641062 0.013777543 0.37224972 -0.24269877
-0.35669205 0.13020943 -0.2520673 0.23492809 0.37486905 0.2683453 -0.33732325 -0.1459478
-0.13346127 -0.0005191831 0.09170864 0.27026582 -0.09359573 0.15235975 0.06811116 0.08219556
0.15197925 -0.27269712 0.18005411 0.01125878 -0.37717435 0.3099041 -0.3444024 0.10217827
-0.17071435 0.06747992 0.15055424 -0.53459126 -0.054588486 -0.074300624 0.4008909 -0.2750687
-0.2157386 -0.12201257 0.029719101 0.4371857 -0.0028874055 0.20430316 0.33599842 0.07575386
-0.04290014 0.07995828 -0.0111559285 0.02049104 0.41783753 0.12358746 -0.37131655 0.120248154
-0.11997699 -0.26626217 0.31115302 -0.58301485 0.49447703 0.16148384 -0.14553595 0.05979902
0.09026443 0.3466315 0.0060461084 0.018583188 0.07321217 -0.30815575 0.028714966 0.02576398
-0.10628172 0.09354162 -0.20110059 0.05305183 0.22920078 -0.46445873 -0.08859916 -0.09493569
0.10996334 0.08802596 0.11769203 0.4314142 0.040221874 -0.037818775 -0.09293105 -0.20997863
0.10905096 0.1329714 -0.12953803 -0.25085604 0.46511203 -0.16349947 0.17644586 0.15199198
-0.080562264 -0.14148016 -0.15337273 0.22553554 0.08040695 -0.26160645 -0.18700509 0.15337361

bias f4 [256]
00000000: b75b 2d3b 95d4 03bc f515 913d 7f27 14bd
00000010: d442 97bc a0b3 bebc a5fd 113d 6717 7bbc
00000020: 24d5 a03c b7e1 9bbd 9096 1cbd 6dc2 db3c
00000030: 0f20 aabd 79b7 0fbd 2c89 2cbc c0f5 c9bc
00000040: efe4 553d 46c2 91bc b924 c9bd 2e40 dd3d
00000050: a63f 4ebd d820 453c ee35 83bd 9a21 cc3d
00000060: dec1 453d 3671 0e3e 0927 223a c0d6 6abd
00000070: 5750 e63b b9d7 063c 6cf4 03bc 36ef 093d
00000080: 0fe8 623d 8ff1 debc 25ca 3fbd 6a6f 713c
00000090: a476 1a3d 8ea1 c93d 8a8b a93b 100a cebd
000000a0: a569 66bd e434 11bd d7fc c9bb 8bfe c53c
000000b0: 0b76 a93d fce6 fabc 7ebc 7cbd 7ce7 6d3c
000000c0: 55b0 df3d 57a5 11bc 9389 703b 9d4e 163c
000000d0: c7a2 91bc 024a 7bbd 833f 71bd 0000 0000
000000e0: 6048 533c de46 0e3e b389 04bd 7481 fd3c
000000f0: f506 9b3d e795 5a3d 2b41 353d 30e7 85bc
00000100: bae2 6d3b 0000 0000 36f4 933c 5af3 893d
00000110: 9f0c 1c3c 0000 0000 a918 513c 1da5 30be
00000120: 8829 9cbd af7a a53c 19f2 2b3c 8000 8c3c
00000130: a3f7 0dbe 0000 0000 e4fd e7bc a20d 51bd
00000140: fa01 a3bd 7647 c6bc 8e69 f83c 00c0 b1bd
00000150: 498e b93d 01a7 2bbd fc2b 2c3d f95e 773c
00000160: eaf0 f13c 1564 9f3d 7954 893c b691 6cbc
00000170: 7c79 04bc 623e c23c 2579 a6bd e76a fbbd
00000180: f9c2 693d 277c 90bd 3202 963c 58bb 04bd
00000190: 1bdd 013c 0000 0000 aeeb eb3d 4f75 adbd
000001a0: 1842 9f3c 49e4 7b3d 2ee8 e33c 4ff6 0a3c
000001b0: ecbd c9bd 4e67 5bbd ffc5 bbbc a035 603d
000001c0: c8eb 923d 7972 453d c24a 29bd b8b4 453d
000001d0: 5ea3 7b3d ca51 a43d ccd1 b6bd 8b19 2cbd
000001e0: 3f46 1bbe 88a2 dabd a712 d43d 2def b8bd
000001f0: b362 1cbd e31f 073c 879c ca3d 4eb5 7e3c
00000200: e2d3 4cbc 3b21 a7bb 9a99 9e3a f3de 4a3d
00000210: 0000 0000 6c35 253d 1635 243e 61dd e5bd
00000220: 6cb6 1ebb 70b5 eabb f900 28b9 0000 0000
00000230: f59f 373c e746 5dbc 6af1 57bd 8086 353d
00000240: 3e64 84bd 9b97 ef3c 7ec3 d2bc a964 6d3d
00000250: 882b 763c e0a9 243d 6848 3bbd 1afc 3a3d
00000260: 950c b23c 6eef 83bd 6850 d6bd 1e69 92bd
00000270: cf58 d4bb 5624 953d fea7 ab3d 6619 993c
00000280: 6c32 e3bc a9a1 693d 2bb1 a33b b711 46bd
00000290: bcd7 553b 4bdd 5339 aabd fa3b 0eaf 9ebd
000002a0: de17 4cbc 3a48 f9bb 082b 7d3d 438d 523d
000002b0: 38d5 dd3c cfee b1bd 3c66 46bd c869 bebd
000002c0: dfbd 48bd a3ed d4bc d9fb e53c 77a7 6fbb
000002d0: 0000 0000 c1be 89bd 65f4 06be ff03 953c
000002e0: 5ea9 5cba 1788 e0bc 3478 173d a401 b1bd
000002f0: 56f9 5bbd 4b92 04be 2b24 f9bd ebdf 8c3d
00000300: 0c00 d238 fead 36bd d55d 733d 7cc7 0d3e
00000310: 5c0e 1d3d 74d8 ffb9 6f97 d5bc 19d9 ff3c
00000320: b8d1 30bd 1802 fe3d 0000 0000 cedd 02bd
00000330: 0000 0000 d3cd 963d 5d55 3839 408a 723d
00000340: f5a5 763d e7fa b63c acb6 60bd 4dd4 3dbd
00000350: 98aa 19bd 6198 ae3a eaf0 3f3c 4a12 f53b
00000360: 0f33 b6bb e805 b33c 8073 ed3d 9d12 8a3c
00000370: e294 b4bd e6c5 0cbc 386c 553c 5c17 96bc
00000380: 6e08 c43d fb15 9cbd fbbd df3d 53b0 95bd
00000390: 929a eebd 7d32 96bd d5aa e1bd 8674 cd3c
000003a0: c74c b3bd 72e2 053d 6622 353d 7af9 02bd
000003b0: b3e1 f9ba 8b0d 0ebb 061c 92bd 72f2 debc
000003c0: 6d30 a937 f6f3 85bd 1c47 b13c 07d0 11bd
000003d0: acab 9bbd 19c0 be3c 21f9 bcbd 91b8 25bd
000003e0: 57c2 a63c 5d04 3cbc 97ab 5cbd bd68 70bc
000003f0: e54e c03c 812d dbbb f4a9 e73c fcc5 38bd
0.0026452371 -0.008046289 0.07084266 -0.03617048 -0.018464483 -0.023279011 0.035642285 -0.015325404
0.019632883 -0.07611411 -0.038229525 0.026826108 -0.08306896 -0.035087083 -0.010530751 -0.024653316
0.05222028 -0.017792832 -0.098214574 0.10803257 -0.05035367 0.012031756 -0.06406771 0.099673465
0.04828059 0.13910374 0.0006185626 -0.057333708 0.00702862 0.008230143 -0.00805388 0.033675395
0.05539709 -0.027214793 -0.04682364 0.014736036 0.0377108 0.09845267 0.005174105 -0.10060513
-0.056253094 -0.03545083 -0.006164174 0.024169227 0.08274468 -0.03062772 -0.061703198 0.014520522
0.109223045 -0.008889518 0.0036703094 0.009174016 -0.017777814 -0.061349876 -0.05889846 0.0
0.0128956735 0.13894221 -0.032357883 0.030945517 0.07569686 0.053365614 0.044251602 -0.01634559
0.003629847 0.0 0.018060785 0.06735869 0.0095244935 0.0 0.012762227 -0.17250486
-0.07625109 0.020200102 0.010494732 0.017090082 -0.13863997 0.0 -0.028319307 -0.051038392
-0.079593614 -0.024203997 0.03032377 -0.08679199 0.09060342 -0.041907314 0.042034134 0.015098327
0.029533822 0.07782761 0.016763913 -0.014439037 -0.008085605 0.023711387 -0.08128575 -0.122762494
0.057070706 -0.0705493 0.018311594 -0.032405227 0.007926251 0.0 0.11519562 -0.084696405
0.019440696 0.061497007 0.027820673 0.008481576 -0.09850678 -0.053565316 -0.02292156 0.05473864
0.07173878 0.048204873 -0.04133106 0.04826805 0.061435096 0.080234125 -0.08926734 -0.042016547
-0.15163516 -0.106755316 0.1035512 -0.09029994 -0.038180064 0.0082473485 0.098931365 0.015546156
-0.012501689 -0.005100397 0.001210022 0.049529027 0.0 0.04033415 0.16035876 -0.11223865
-0.0024217619 -0.0071627423 -0.00016022091 0.0 0.01120757 -0.013505674 -0.052720465 0.044317722
-0.06464432 0.029247096 -0.025727984 0.057957325 0.015025027 0.040201068 -0.04572335 0.04565058
0.021734515 -0.06442152 -0.10464555 -0.07148956 -0.0064803134 0.07282321 0.08381651 0.018688869
-0.027734004 0.057038937 0.0049954853 -0.048356738 0.0032629808 0.00020204966 0.0076520042 -0.07748233
-0.012456862 -0.007607487 0.061808616 0.05140425 0.02707921 -0.08688127 -0.048437342 -0.0929752
-0.0490092 -0.02599222 0.028074192 -0.0036568323 0.0 -0.067258365 -0.13179167 0.018190382
-0.00084175717 -0.027408643 0.03697987 -0.08642891 -0.053704582 -0.12946431 -0.121651016 0.068786465
0.00010013589 -0.044599526 0.059415657 0.13845628 0.038343772 -0.0004879866 -0.026073186 0.03123145
-0.043168753 0.12402743 0.0 -0.03194981 0.0 0.073634766 0.00017579408 0.059213877
0.060216863 0.022336436 -0.05486171 -0.046345044 -0.037516207 0.0013320559 0.011715153 0.007478987
-0.005560286 0.021853402 0.115942955 0.016854579 -0.0881746 -0.008592105 0.01302629 -0.018321685
0.0957192 -0.0762138 0.10924908 -0.07309022 -0.11650576 -0.073338486 -0.11018912 0.025079977
-0.087548785 0.03268666 0.044222258 -0.0319762 -0.0019064456 -0.0021675553 -0.07134251 -0.027215216
2.016892e-05 -0.065406725 0.021640353 -0.03559878 -0.07601103 0.023284959 -0.09227205 -0.04045922
0.02035634 -0.01147565 -0.05387458 -0.014673409 0.02347512 -0.006688774 0.028279282 -0.045110688
