trained_models/policy_model_mrx_ppo/model.pt (torch, 737061 bytes, 14 tensors)

_last_output f4 [128, 9]
000000 49 4e 28 3f b2 c4 6f bf 0b 74 c2 3e 29 cd b7 bf
       0.65744454 -0.9365951 0.3797916 -1.4359485
000010 54 b2 05 c0 6b 94 4b bf 0f 20 23 3f 59 20 18 40
       -2.0890093 -0.7952334 0.6372079 2.3769743
000020 9f fc e3 3e 8e fd 47 3f 55 03 34 bf ed ff 31 3d
       0.44528672 0.7812127 -0.70317584 0.04345696
000030 70 54 18 bd 26 f4 bf 3c b4 70 3a bf e5 8a e7 3e
       -0.0371899 0.023431849 -0.7282822 0.45223156
000040 9e fc 3e 3f 6b 73 2a bf c8 27 72 3f dc f7 a0 bf
       0.74604213 -0.66582364 0.9459195 -1.2575641
000050 a7 fb bc be a1 10 79 be a8 17 18 bf cf 78 bc be
       -0.36910746 -0.2432275 -0.59411097 -0.3681092
000060 49 ab cb 3f ed be 8b 3f ee 7e 75 bf 35 97 1e 3f
       1.5911647 1.0917641 -0.95896804 0.61949474
000070 9b 9d 55 bf 7a 57 4a bd aa 2c 30 3f cb ac d2 3f
       -0.8344361 -0.04939983 0.6881815 1.6458982
000080 28 98 11 be 1a 2c c7 bc 4a 05 18 3d 72 f1 f7 bf
       -0.14218199 -0.024313021 0.03711442 -1.9370558
000090 90 f5 60 bd 68 73 f4 be a6 c2 20 3d 25 b1 7c be
       -0.054921687 -0.47744298 0.03924813 -0.2467695
0000a0 ff 52 da bd 09 60 26 3e 73 d1 f3 bd 7f 89 93 3f
       -0.106603615 0.16247572 -0.11905184 1.1526335
0000b0 93 8c 58 bf b8 a2 ae 3e bc d8 76 3d f9 25 b7 3f
       -0.845895 0.3410852 0.060265288 1.4308463
0000c0 4e b9 f2 3e 63 55 97 3d 92 3c af bf 08 f8 e6 bf
       0.47407 0.07389333 -1.369036 -1.8044443
0000d0 22 bd 8a 3d 5d 19 1c 3f 63 87 5b 3f 3f af 82 bf
       0.067743555 0.609762 0.8575346 -1.0209731
0000e0 4e 64 5b 3d ec 61 67 bf 41 51 2e bf a8 a3 09 bf
       0.053562455 -0.9038379 -0.68092734 -0.53765345
0000f0 c5 fb 5a 3f b2 50 ad 3f 7c 7e 68 be 11 4b 4a 3f
       0.8554042 1.3540251 -0.227045 0.7902079
000100 95 e7 95 bf f7 02 a2 3e ad 08 24 bf de bd 3b bf
       -1.1711298 0.31642887 -0.6407574 -0.7333659
000110 51 5b b3 be 2e 33 2a 3f f9 7e 96 3f 0d e8 c1 be
       -0.35030606 0.66484344 1.1757499 -0.37872353
000120 67 6e 07 3f fc a4 91 bf e8 fe cd be 97 78 92 bf
       0.52902836 -1.1378474 -0.4023354 -1.1443051
000130 bc 22 c0 bf cb 30 c6 bd 26 c2 b9 3f 38 57 14 40
       -1.50106 -0.09677275 1.4512374 2.3178234
000140 27 41 43 bf 52 5d 2d 3e 78 1d 1d 3c dd 08 03 40
       -0.7627129 0.1693013 0.009589545 2.047416
000150 0e d7 09 3f 31 74 d6 3d 66 04 3a bf f8 f4 0e c0
       0.5384377 0.104713805 -0.7266296 -2.2337017
000160 03 29 6d be 8b 04 68 3d da 0b 84 3e de 0b 97 be
       -0.23160176 0.056644958 0.25790292 -0.2950124
000170 43 01 ae 3e ef d2 05 bf 50 42 c5 be 94 10 35 bf
       0.33985338 -0.52274984 -0.38527155 -0.7072842
000180 2e 96 f4 be 09 be a9 3f ca 18 8e 3d dc 67 c6 3e
       -0.47770828 1.3261119 0.06938322 0.38751113
000190 80 f5 f0 be 3f 6f 29 3e 2e ec 39 bf 96 c9 1d be
       -0.47062302 0.16546343 -0.72626007 -0.1540893
0001a0 06 c1 db be cb 0c 01 3d c5 37 b5 3f 0a 83 29 bf
       -0.42920703 0.03150634 1.4157645 -0.66215575
0001b0 29 d4 1b 3f 4d b1 82 bf bb e4 56 be 24 91 49 bf
       0.60870606 -1.0210358 -0.20985691 -0.7873709
0001c0 c5 8e 73 bf d9 c4 01 bf ac 27 95 3f 63 6e f3 3f
       -0.95139724 -0.5069099 1.1652732 1.9018062
0001d0 0d 6a 40 bf 7f 37 3a 3f ca 8a 8e bf c3 c1 5b be
       -0.7516182 0.7274093 -1.1136105 -0.21460633
0001e0 93 6e 76 bf a7 c7 ae bf 89 f3 8c be b0 d3 a7 3f
       -0.9626247 -1.3654679 -0.27529553 1.3111477
0001f0 0a 71 01 40 ba de 46 bf a0 59 2d 3e 61 28 1c bf
       2.0225244 -0.77683604 0.1692872 -0.60999113
000200 83 a9 c2 bd f5 b9 19 be 84 7d a8 3e 2c 8a 81 3e
       -0.09504988 -0.15012343 0.3290826 0.2530073
000210 76 a5 9d 3e 08 e6 81 3f ca cf d7 bf 00 4b 85 3e
       0.307903 1.0148325 -1.6860287 0.26033783
000220 7f 4f 53 be 41 22 a7 3e 24 4f e5 be 7e 60 06 bf
       -0.20635794 0.3264332 -0.44786942 -0.52490985
000230 92 99 39 bf 13 93 9b be 01 6a b2 3f da 9e 3c be
       -0.72499955 -0.30385646 1.39386 -0.18419972
000240 b4 ca 5a 3f 97 96 48 bf e8 aa c4 3e 22 ce 89 bf
       0.8546555 -0.7835478 0.3841164 -1.0766032
000250 02 8c bf bf df 44 5a bf 40 d6 70 3f a6 f2 8d 3f
       -1.4964602 -0.8526134 0.9407692 1.1089675
000260 33 cb 37 3f 98 5b a6 3e 69 b7 93 bd be b8 3e 3f
       0.7179443 0.32491755 -0.07212717 0.74500644
000270 29 cd 86 3f 39 64 39 3d bd e5 95 bf 3a 18 28 bf
       1.053136 0.045261595 -1.1710736 -0.65661967
000280 64 1a d6 be 41 49 a6 3e 09 64 ba 3e 60 a5 a9 be
       -0.4181701 0.32477763 0.36404446 -0.33133984
000290 24 bd 08 3f 8c f5 ba bf 54 cc bd bf fb bc 4c bf
       0.53413606 -1.4606185 -1.4827981 -0.7997586
0002a0 38 52 55 3e 91 ab f9 3f 98 0e db 3e 6b d0 66 3f
       0.20832145 1.9505483 0.42784572 0.9016177
0002b0 dd 3b ab bf 4b 7b b8 be b1 52 89 bf df 02 d4 bf
       -1.3377644 -0.36031565 -1.072836 -1.6563376
0002c0 0d 8e c1 be 84 aa f1 3f bc 07 03 40 e9 aa 15 bf
       -0.3780369 1.8880162 2.047347 -0.58463913
0002d0 1b 87 6b 3f 35 47 da bf d2 12 38 bf 38 db 80 bf
       0.9200303 -1.7052981 -0.7190372 -1.00669
0002e0 09 06 df bf c6 5a c1 bd 4a f7 19 40 39 9e f0 3f
       -1.7423717 -0.09441142 2.4057183 1.8798286
0002f0 b2 a2 b2 be 63 47 1a 3f 52 db 39 bf e7 1c 12 3f
       -0.34889752 0.6026518 -0.7260028 0.5707535
000300 4d 09 81 bf f1 14 98 bf 56 d8 39 bf 12 ac 94 3e
       -1.0080963 -1.1881391 -0.7259573 0.2903753
000310 ba e5 b7 3f c6 91 b2 3e f7 c1 4e 3f 9d 43 6c bf
       1.4366982 0.3487684 0.80764717 -0.9229067
000320 98 1e 51 3e 8f a7 a3 bf c4 2b 85 bf b2 16 24 bf
       0.20421827 -1.278551 -1.0403981 -0.6409713
000330 58 6a 2f 3f cf 78 d7 3f dc f4 cb 3d ed b1 37 3f
       0.6852164 1.6833743 0.099588126 0.7175587
000340 0e c8 75 bf 39 12 8b bc e9 8b b2 bc 1b 4f 4d 3e
       -0.96008384 -0.016976463 -0.02179523 0.20049708
000350 e1 f5 0b bf a5 61 72 3e 2b 70 80 3f 04 aa 61 bf
       -0.54672056 0.23670061 1.0034231 -0.8815005
000360 fd 04 37 3f 78 06 0e bf b6 00 c4 3e 96 28 25 bf
       0.71491987 -0.5547862 0.38281792 -0.64515054
000370 81 b7 91 bf 19 96 91 bf 7a b7 32 3f b4 ac 37 3f
       -1.1384126 -1.1373931 0.69811213 0.717479
000380 fc f3 6f 3f f7 18 0a 3f 08 d7 0b bf d6 d0 64 3f
       0.93731666 0.53944343 -0.54624987 0.8938116
000390 a0 45 d8 bf f3 40 1a c0 09 1a 8c bf 47 6a b3 3d
       -1.6896248 -2.4102142 -1.0945445 0.08760505
0003a0 18 5a 16 40 a4 bd 8b 3f 4f 6c 87 3f ac 18 b6 bf
       2.349249 1.0917249 1.0579928 -1.4226279
0003b0 b4 83 6e bf b4 ef ac 3e 9a b7 05 3f ef 25 2c be
       -0.93169713 0.3377663 0.5223328 -0.16811346
0003c0 30 f0 df 3f d5 d9 c5 3e 69 a7 af bf ca c7 78 3f
       1.7495174 0.38642755 -1.3722965 0.97179854
0003d0 ba e3 a9 bf eb c5 89 bf ff e7 5a bf e5 3d 89 bf
       -1.3272622 -1.0763525 -0.8551025 -1.0722014
0003e0 ed ee 3c be 28 0b 21 40 90 39 b3 3f 99 f6 0b bf
       -0.18450518 2.516306 1.4001942 -0.54673153
0003f0 6b 9c f4 3e 48 c0 54 3c 26 84 c5 3f be 4b d8 bc
       0.47775587 0.012985297 1.5430954 -0.026403304

weight f4 [9, 256]
000000 d6 ae dc bb 6e cc 97 3b 4b 73 f6 3b 7d 4e 3a 3c
       -0.0067347093 0.004632524 0.007521068 0.011371252
000010 1a dd ce 3b 1d e1 6d 3b f4 27 a3 3c 4a e1 5e 3c
       0.0063129785 0.0036297508 0.019916512 0.013603518
000020 ee 2a 8b 3b 24 ce 06 bb 81 eb 0a 3c c3 ba fe ba
       0.004247061 -0.0020569647 0.008479 -0.0019434321
000030 f1 5f 8c b9 a2 e1 81 3c 1b e0 8b bb cd c5 36 3b
       -0.00026774363 0.01585466 -0.004268659 0.0027888895
000040 c2 df 84 bc 75 1a 07 bb 69 ff 15 3b 9e b8 16 bc
       -0.016219977 -0.0020615135 0.0022887832 -0.00919929
000050 f1 53 58 bc a5 b1 32 bb 69 63 55 3c ad 44 b3 3c
       -0.013203607 -0.002726653 0.0130241895 0.021883333
000060 a7 ea c4 3c 7c 31 f5 bb b8 cc 15 bc c9 70 cb bc
       0.024037672 -0.0074827056 -0.009143047 -0.024834054
000070 7a 64 74 3c 43 13 ef ba d1 bc c3 bb a3 e0 a0 3b
       0.014916534 -0.0018239993 -0.0059734364 0.0049095913
000080 20 0a 99 bc 15 06 4d bb 97 84 cd 3c 6f 01 94 bc
       -0.018681586 -0.0031284143 0.025087638 -0.01806709
000090 38 f9 65 bc 88 68 cc 3b b8 f7 db 3a 07 24 37 bb
       -0.014036469 0.006238047 0.00167822 -0.0027945058
0000a0 ed a0 8b 3b 9b 66 6d 3b 62 67 d1 3b 99 81 20 bc
       0.004261127 0.0036224488 0.006390498 -0.0097965235
0000b0 90 45 cc 3b e5 68 75 bc e6 14 43 3c 2c 31 cc 38
       0.0062338784 -0.014978622 0.011906838 9.736637e-05
0000c0 c5 eb bd b9 6e 75 e4 bb 37 1a 4d 3c 40 4a 86 3a
       -0.0003622455 -0.0069720065 0.012518457 0.0010245517
0000d0 84 33 4f 3b 81 bb 9b 3c 77 71 80 bc 71 22 75 3c
       0.00316164 0.019010307 -0.015679104 0.014961825
0000e0 3d 7a d3 3a fe 40 4d 3c 76 93 89 b9 d8 2d 65 3c
       0.0016134452 0.012527702 -0.00026240543 0.013987981
0000f0 a7 0c 1c 3c 27 31 cc bc f5 51 a3 ba 84 c3 7e 3b
       0.009524501 -0.024925781 -0.0012460338 0.003887386
000100 6b 72 5d ba 8a 16 12 3c eb fb 37 3b 1e 8e f4 bb
       -0.00084475306 0.008916507 0.0028073739 -0.0074632308
000110 ad a0 8d bc fc 53 bc 3c 83 94 2a bc 49 d8 a3 bb
       -0.01728853 0.022989266 -0.0104113845 -0.0050001484
000120 e4 f6 67 bc a6 3e d5 3a 89 48 a2 bb 7a 80 fd bb
       -0.014157984 0.0016269281 -0.0049524945 -0.007736263
000130 63 b3 db 3b dc e1 bd bb 2b 3c 16 3b 23 19 52 bc
       0.006704734 -0.005794747 0.0022924046 -0.012823376
000140 e7 6a 7f 3c fb 32 33 3b 22 48 6d 3a cf b1 91 bc
       0.015589452 0.002734362 0.0009051581 -0.017784981
000150 90 4b 4e 3c 3d d8 82 3b 2a 56 c5 3b 7a b6 63 bb
       0.012591258 0.003993063 0.0060222344 -0.0034746216
000160 40 1b f3 bb b9 71 79 bc 1f ed 82 bc 8b 28 17 3c
       -0.00741902 -0.0152248675 -0.015982209 0.009225975
000170 dd 5f 7b bc d3 58 26 3c f0 3d e7 3b 3d 04 44 bc
       -0.01534268 0.010153013 0.007056944 -0.011963901
000180 75 a0 69 3c e2 87 12 bc 58 c0 13 bc e3 f6 51 3c
       0.014259447 -0.00894353 -0.009018026 0.01281521
000190 b5 5d 88 bc 20 7c 9f 3c 93 4b 25 bd f8 71 54 3b
       -0.016646245 0.019468367 -0.040355276 0.0032416563
0001a0 32 fa 3c ba 22 ab 8a bc 1a a5 a0 3c 10 02 52 39
       -0.0007208913 -0.016927306 0.019609977 0.00020027929
0001b0 d3 64 90 ba 5b 31 d2 3c 60 a6 a3 3b 63 d3 b8 3c
       -0.0011016376 0.0256583 0.0049941987 0.022561735
0001c0 e1 48 8b 3b 7d 67 16 3c 53 2a b6 3b 8d f4 81 3c
       0.004250631 0.009179947 0.0055592447 0.015863681
0001d0 f0 ad 22 3c 82 39 8e bc e4 07 d3 3c fa 59 37 3b
       0.009929165 -0.017361406 0.025760598 0.0027977214
0001e0 5b 1f 33 bc 26 3e be bb 72 63 fa 39 b4 b7 6a 3c
       -0.010932769 -0.0058057485 0.00047757808 0.014326025
0001f0 09 69 37 3c 0b 63 9d bc f6 64 f6 bb bb 2e 2f 3c
       0.011194476 -0.019212266 -0.0075193597 0.010692294
000200 d1 4c d7 3b dc a8 c9 38 4c 66 9a 3b d6 18 7d 3c
       0.0065704365 9.6158794e-05 0.004711902 0.015447816
000210 cc 80 91 bc 85 0b ed bb 52 56 52 bb ff d1 80 bc
       -0.01776161 -0.0072340393 -0.0032094908 -0.015725134
000220 fd 10 76 3c 02 0d c4 3c c8 83 77 3a 90 bf 00 3b
       0.015018699 0.023931984 0.0009441939 0.001964543
000230 52 d8 4a 3c 19 f5 09 3c c6 90 35 bc ba e0 62 3c
       0.012380676 0.008420252 -0.01108188 0.013847524
000240 cf cd de 3b d3 bb de bc f7 cf 18 3c b0 51 39 3c
       0.0067994366 -0.027189171 0.009326926 0.01131098
000250 53 c3 37 3b 18 ab cd 3b e3 e4 9a 3c 6b c9 8d bc
       0.0028040006 0.0062764995 0.01890797 -0.017307958
000260 f8 90 91 ba 52 34 e9 bb c6 fc 5e bc c6 6c d6 3b
       -0.0011105826 -0.007116833 -0.013610071 0.0065437285
000270 22 fa 8c 3a e1 ac 09 bc c6 b7 7c bc 06 4f 01 3c
       0.0010755698 -0.008403034 -0.015424674 0.007892376
000280 dd ee 43 3c f5 b4 dd 3a c0 18 d8 3b 20 7c 18 bb
       0.011958805 0.0016914891 0.0065947473 -0.0023267344
000290 eb 46 0e 3b db ca ca 3c b3 84 05 3c bc 68 42 bb
       0.002170975 0.024754932 0.008149314 -0.0029664477
0002a0 6d 6b ed 3c f7 4e 87 3c f9 18 92 bc fc 1b 0c 3b
       0.028981889 0.016517146 -0.017834174 0.0021378985
0002b0 7a 30 60 3b f4 84 0c 3c 40 6b 8e bb cf ab 20 ba
       0.0034208582 0.00857662 -0.0043462813 -0.0006129117
0002c0 f6 2e e8 3a e2 b2 1d bc 4d 59 8b 3b 12 d3 cc 3c
       0.0017714191 -0.0096251685 0.004252589 0.02500299
0002d0 1a d7 ca bb 1f 00 0d 3b 5b b1 fc 3b 72 7f 96 3c
       -0.006190193 0.0021514965 0.007711572 0.018371318
0002e0 73 8a 35 bc 34 95 5e bc 5d 66 13 bb 56 fc 9e 3b
       -0.011080372 -0.0135853775 -0.0022491433 0.004851858
0002f0 c9 d0 94 3b ba 84 3e bb af c3 7f 3b 40 5d e8 bb
       0.0045414907 -0.002907081 0.0039026549 -0.0070911944
000300 d5 40 dc bb 0f be 1f bc 56 86 a8 bb a5 42 cd 3b
       -0.006721596 -0.009749903 -0.005142967 0.006264048
000310 f5 17 5f 3c 94 79 37 3c 62 c8 25 bc 96 80 85 3b
       0.013616552 0.01119842 -0.010118576 0.0040741665
000320 e7 e5 51 3c 4f 57 4a bc b0 fe 74 bb e8 67 25 3c
       0.012811161 -0.012349918 -0.003738325 0.010095574
000330 fc 95 b1 bc c3 c1 4f 3c 3b 1d 2f bc 60 8e 1f 3c
       -0.021677963 0.012680474 -0.010688121 0.009738535
000340 23 87 b9 3b 79 db b2 bb 9d 50 49 bb 8a af 13 bc
       0.0056618615 -0.005458292 -0.0030718215 -0.00901402
000350 61 43 72 38 3b 02 b3 ba 72 18 a5 3a ab d6 05 bc
       5.7760048e-05 -0.0013657281 0.0012595786 -0.008168857
000360 3e c5 71 3c 66 ea 98 3c 59 2a d1 3b 05 cf ac bb
       0.014756499 0.018666457 0.006383222 -0.005273702
000370 d2 18 f1 bc d6 70 03 bb 50 56 cc bb 40 15 3c ba
       -0.02943078 -0.002005627 -0.006235875 -0.00071747974
000380 6e 9a 33 ba 70 3a c1 3b 64 0c b5 3b a0 d3 2e bb
       -0.000685132 0.005896859 0.0055251587 -0.0026676431
000390 89 c5 a1 3b c1 2d 14 bb 05 4f af 3b 00 6e 05 bc
       0.004936878 -0.002261028 0.005349996 -0.008143902
0003a0 0e 52 73 bb fa 19 ab bb 5e 07 5d bc e6 49 39 bc
       -0.0037127766 -0.0052216025 -0.013490526 -0.011309123
0003b0 bd a5 23 3b 60 7b a2 3c 03 1c aa bc 30 e5 be bb
       0.0024970614 0.01983422 -0.02076531 -0.005825661
0003c0 92 f3 ed bb c8 af 9e bb 8b c1 89 bc 04 d7 98 bb
       -0.007261702 -0.004842732 -0.016815921 -0.0046643037
0003d0 3f ca 7e bc 5f 3b 15 bc e5 08 49 bb 59 cf 81 bc
       -0.015551149 -0.009108393 -0.0030675468 -0.015845941
0003e0 6c 5b 90 3c cc f7 97 3c 2d ed 66 3c c3 90 54 ba
       0.017621718 0.018550776 0.014094633 -0.00081087294
0003f0 9c 01 f0 bb 92 c7 05 ba 22 d5 17 bc bc 6a 13 bb
       -0.0073244106 -0.00051032857 -0.009267123 -0.0022494039

bias f4 [9]
000000 6b a9 fd 3b f0 8d 4d bc 13 de e1 3b 10 79 4d ba
       0.0077411435 -0.012546048 0.0068929284 -0.0007838169
000010 d2 a6 cc 3b 23 cb 19 bc 1e a5 18 3b a0 8f 11 3c
       0.0062454725 -0.0093868105 0.0023291777 0.0088843405
000020 86 eb 16 bc
       -0.009211427

weight f4 [256, 18]
000000 22 5a f5 3e c5 a3 0c 3e 93 b9 f1 3e 6f 55 ba 3d
       0.47920328 0.13734348 0.47211894 0.090983264
000010 e3 a2 ea bb 61 9b c0 bd ca 44 92 be d0 fc 48 3e
       -0.007160531 -0.09404636 -0.28568107 0.1962769
000020 82 34 02 bd b9 56 53 3e fb 63 0d be 66 7d f0 3c
       -0.031788357 0.20638551 -0.13807671 0.02935667
000030 1b 1a bc 3e a7 f6 fb 3c de 8d 3a be 18 18 6f be
       0.36738667 0.030757261 -0.1821818 -0.23349035
000040 5a e9 ac be 21 b7 f0 bc b8 10 3c be 77 99 5d 3d
       -0.33771783 -0.029384198 -0.18365753 0.054101434
000050 e3 5c f8 bc eb ac e1 3e 40 5c 86 be 8e 35 c4 bc
       -0.03031773 0.44077238 -0.26242256 -0.023951318
000060 86 c2 13 3e 58 95 2c be af 31 b6 be 72 0c a1 bd
       0.14429674 -0.16853845 -0.3558478 -0.07863702
000070 61 28 fc 3e 0c 6b 46 3e 9c 9b e5 be f0 00 58 3e
       0.49249557 0.19376773 -0.44845283 0.21094108
000080 29 cf 0e bd 51 b5 39 3d 96 87 ee 3c e4 b3 c9 3d
       -0.034865532 0.045338932 0.029117387 0.098487645
000090 63 b4 69 be 06 d6 82 3a 5d d2 63 bd ba 4c 7a be
       -0.22822718 0.0009981997 -0.05562054 -0.24443331
0000a0 7c 4a 5a be e9 f9 8e 3e d6 e8 58 3d d3 d6 b4 3e
       -0.21317476 0.2792504 0.052956425 0.35320148
0000b0 d5 ed 1c 3e 16 07 50 be e7 bb 7a be 4e 3c 96 be
       0.153251 -0.20315203 -0.24485742 -0.29342884
0000c0 17 fa c3 bd ec e6 c6 3e ee 91 b7 3e 6f 20 61 3e
       -0.09569185 0.38848054 0.35853523 0.21985029
0000d0 71 41 93 be 8a bf 1d 3d 21 be 1e be 6c c6 86 3d
       -0.28760865 0.038512744 -0.15502216 0.06580815
0000e0 36 ac 9a bd 97 c8 70 be 97 08 aa be be 23 92 3d
       -0.07552378 -0.23514019 -0.3320968 0.071357235
0000f0 e5 77 60 be f8 7f 88 bd a0 9e 99 be b5 04 53 3e
       -0.21920736 -0.06665033 -0.30003834 0.20607264
000100 a0 5f b1 3e 7a 6a 09 bc a2 53 1b be 7e 55 0e 3e
       0.3464327 -0.008387202 -0.15168622 0.138998
000110 df 9c b8 be 05 ef c2 be 55 30 05 be 9c 25 df 3e
       -0.36057183 -0.38072982 -0.13006718 0.4358338
000120 c0 64 31 3e 23 ef 82 bd df ad 02 be 3f 68 39 bd
       0.1732359 -0.06393268 -0.12761639 -0.045265432
000130 7a bd 80 3e 14 f2 88 3d ac 0c 1b be 7e 5c 01 3e
       0.2514456 0.06686798 -0.15141553 0.12632939
000140 22 1c 41 bd c2 b0 08 bf 28 29 dc be 1a 2e 60 3c
       -0.04714597 -0.5339471 -0.4300015 0.0136828665
000150 be db c1 3e 0e d4 32 3e 38 4a 93 3e 47 57 4a be
       0.37862962 0.17463705 0.28767562 -0.19759856
000160 e0 3d 66 3e 7d 94 11 3e 7e e8 8c bc 10 81 35 3e
       0.22484541 0.142168 -0.017200705 0.17725015
000170 1b 66 7a be db 53 27 be 90 00 ab 3d b0 6f 8b bd
       -0.24453013 -0.16340582 0.08349717 -0.06808412
000180 c1 2f f5 3b ef 0c 26 3c db 76 b7 3d f1 36 28 3e
       0.0074824993 0.01013492 0.08958217 0.16427208
000190 43 17 b4 3e f4 84 93 bd 55 26 0a be b3 c7 60 be
       0.35173997 -0.07203093 -0.13491185 -0.21951179
0001a0 1c fd e5 3e 98 a2 16 3d 95 8c 10 3f 5a 81 ac be
       0.4491967 0.036776155 0.5646451 -0.33692437
0001b0 4c 72 25 3e 22 6c 22 3e 4a 5f dd 3d 67 17 c5 bc
       0.16156882 0.15861562 0.108091906 -0.02405901
0001c0 80 5f 3f 3e ca 72 63 3e 3f cd 18 be 80 da 95 3e
       0.18688774 0.22211757 -0.14922045 0.29268265
0001d0 62 5c d8 3e 4d 82 97 be 5e 2e a5 be 69 89 f0 3e
       0.42257982 -0.295916 -0.32261938 0.46979836
0001e0 b0 1f 0f bd bc b5 0a 3b eb 79 af 3c 01 49 08 3e
       -0.03494233 0.002116545 0.02142044 0.13309099
0001f0 91 bc 99 be 52 80 2c 3e 23 4c f7 bd a6 30 56 3e
       -0.30026677 0.16845825 -0.12075069 0.20916995
000200 92 fd a1 3e 32 b0 77 3e 76 69 d8 3e d6 19 47 bd
       0.3163877 0.24188307 0.4226796 -0.048608623
000210 6f 24 3e be af 4a 1c 3e 1d 52 d0 3c d4 5e f5 bd
       -0.18568586 0.15262865 0.02542978 -0.11980978
000220 61 04 b5 3d 9e 96 33 3e 9e f7 1b 3e 37 2c 85 be
       0.08838726 0.17537925 0.15231177 -0.26010296
000230 d5 14 84 3e 32 eb f0 3d ac 13 40 3d f9 36 10 3f
       0.25797144 0.1176361 0.04689376 0.5633388
000240 dc 3d e5 3e 4e 90 e7 bd 5c 8b dc 3b b3 44 a7 bd
       0.44773757 -0.11306821 0.00673048 -0.081674
000250 85 c3 0d bf 59 be aa 3d d3 a7 35 3e 83 47 3c be
       -0.55376464 0.08337087 0.17739801 -0.18386655
000260 54 9f a4 be eb 68 86 bc 06 de 5d 3d 00 d1 21 3d
       -0.32152808 -0.01640745 0.054166816 0.03950596
000270 85 3b d9 3e b2 2f 4d 3c aa 6a 8b 3c a8 f6 60 3e
       0.42428222 0.0125235785 0.017018635 0.21969092
000280 73 86 31 3d 29 5b 8a be c2 d1 01 3e 8a 2d dd bd
       0.04334111 -0.27022675 0.12677673 -0.107997015
000290 2d ef cc 3e b9 2e c2 be d9 f2 a5 3e 49 be 4f be
       0.40026227 -0.37926272 0.3241184 -0.20287432
0002a0 b6 c0 be 3d 5f 70 0c 3e da 42 e1 bd 66 75 b8 3d
       0.093141004 0.13714741 -0.10999079 0.09006767
0002b0 a7 c6 a1 be 1a f0 27 3e 17 bc bb be 46 ef df be
       -0.31596872 0.16400185 -0.3666694 -0.4373724
0002c0 67 77 2d 3c 02 ef d9 bd d3 c7 63 3c 5c 7c b7 3d
       0.01058755 -0.1064129 0.013902622 0.089592665
0002d0 64 45 0c be 68 82 87 3e f9 67 e4 be ba d5 98 3e
       -0.13698345 0.2646668 -0.44610575 0.2985056
0002e0 61 fd ab be 3e 9d 46 3e b8 67 b9 be e7 92 48 bd
       -0.3359175 0.1939592 -0.36211944 -0.048968222
0002f0 bf a4 42 3d c1 5f b1 3d da 97 f0 bd fc ca 3d be
       0.047520395 0.08660842 -0.117477134 -0.18534464
000300 b2 8a ba 3e fa ca f6 3d 63 a0 a9 be 2a 43 16 3e
       0.3643394 0.120504335 -0.33130178 0.14674059
000310 45 88 b9 3d 81 88 2c 3d eb af 0a 3d 9d be 6b be
       0.090591945 0.042122368 0.033859175 -0.23021932
000320 b6 c5 86 3e 59 b4 9e 3d 41 92 05 3f 42 8c b7 3c
       0.26322716 0.07749242 0.5217629 0.022405747
000330 2b 5e bc 3d 83 c4 22 bb 51 eb 86 be 65 c0 22 3e
       0.091976486 -0.0024836368 -0.26351407 0.15893705
000340 db 83 97 be a6 c7 09 bc 08 9b 9b 3e 0b aa e1 3c
       -0.29592785 -0.008409416 0.30391717 0.027546903
000350 9e 86 7e be bd e6 7a bd 0a 5a 9f 3e 28 45 a7 3e
       -0.2485604 -0.061255205 0.31123382 0.3266995
000360 93 21 ae bb 36 6c d5 bd e5 e0 e5 bd cf 84 c9 be
       -0.005314061 -0.1042103 -0.11224536 -0.39359137
000370 4a c0 0f bd 76 08 e9 3e 3c e4 92 3d c5 84 65 3e
       -0.03509549 0.45514268 0.071724385 0.22413929
000380 a8 e6 41 be 3d 94 85 be fb 52 8d 3e e2 f9 e3 3e
       -0.18935645 -0.2608966 0.27602372 0.44526583
000390 07 b1 70 3d 5e 38 d4 be 97 55 12 3d 68 a3 59 3d
       0.058762576 -0.41449255 0.035726156 0.053134352
0003a0 9f 5f 78 3c f1 a6 1f 3e 08 09 41 3e 61 20 ce 3e
       0.015159517 0.15591027 0.18851101 0.40259078
0003b0 d7 e6 91 3e 34 24 0b bd cb 67 8d bd 22 af 02 bd
       0.2849643 -0.033970073 -0.069045626 -0.0319053
0003c0 b3 f4 65 be da ef 1a 3e aa 13 8b be 5b 1c 2a bd
       -0.22456627 0.15130559 -0.2716344 -0.041530948
0003d0 b1 83 07 3f 45 ce 45 be 4c c4 c0 bc de 32 8d 3e
       0.5293532 -0.19316967 -0.023531102 0.2757787
0003e0 eb be 84 3e 59 eb 7d bc 5d 63 52 3e 9b 24 7e 3e
       0.2592691 -0.015498006 0.20545717 0.24818651
0003f0 ee 4a 4b be 41 90 29 3e c0 61 42 be 6f b3 c9 bd
       -0.19852802 0.16558935 -0.18982601 -0.09848677

bias f4 [256]
000000 4d d4 15 3c 27 f7 a2 39 85 af 57 3c 35 20 5f bc
       0.009144855 0.0003108319 0.013164406 -0.013618519
000010 7d 0a 0a 3b 95 90 93 bb 10 89 3b 3c 92 0f fe 35
       0.002106338 -0.0045033195 0.011446252 1.8929006e-06
000020 a5 f7 6d 3b a4 3c 92 3c 1c 91 42 bc f4 ea e3 bc
       0.0036310938 0.017851181 -0.011875417 -0.027821995
000030 03 30 82 ba 00 00 00 00 5f 5f 2a bc 99 8d 85 bc
       -0.0009932521 0.0 -0.010398715 -0.01630287
000040 9a 75 91 3a 22 e6 e9 3b c8 65 0f 3d 6b 04 df 3c
       0.001109767 0.0071380297 0.035009176 0.027223786
000050 9a bc 62 3b 13 f2 b3 bb 39 a9 54 bc 2f 78 02 3b
       0.0034597279 -0.005491504 -0.012979799 0.001990806
000060 6e ff d4 bc e3 95 93 bc 02 9b 51 3c ba 06 94 bb
       -0.026000705 -0.018015807 0.012793304 -0.0045174034
000070 01 47 61 39 00 00 00 00 e5 1e 12 3b e8 a3 17 bc
       0.00021484123 0.0 0.0022296247 -0.009255387
000080 a5 9f 0d bc 6a 02 dc bc 75 11 68 3c 8a 85 1b 3d
       -0.008644019 -0.02685662 0.014164318 0.03796915
000090 7e 8a bc bb c1 dc 64 bc 13 f1 4d bc 6c 61 a3 3c
       -0.0057538142 -0.013968647 -0.012569684 0.019943915
0000a0 17 10 bd 3c 28 24 c5 bb 82 7f 12 bc 85 e5 75 3c
       0.023078961 -0.006016273 -0.008941533 0.015008335
0000b0 d9 b3 e7 bb bb 33 15 36 8f fe 8e 3c 9f 58 53 b7
       -0.007071 2.2232841e-06 0.017455367 -1.2597214e-05
0000c0 5a 04 12 3c ff 93 9d 3b 5f be 9f bb 68 d2 df 3b
       0.00891217 0.0048089023 -0.004874989 0.0068305023
0000d0 60 8b 5a 3c 86 f1 dc 3b f7 64 e6 ba e2 2b 5f bd
       0.013338894 0.006742659 -0.0017577697 -0.05448521
0000e0 7a 21 a6 bc 54 ab 02 bc a0 8d 4d bc 06 3e 4d 3c
       -0.020279635 -0.007975418 -0.012545973 0.012526995
0000f0 07 43 79 3c 51 8a 4d bc 3b 09 89 bc 65 ed 22 bc
       0.0152137345 -0.012545184 -0.016728034 -0.009944295
000100 12 35 87 bc 3a f7 9c bc 39 a5 90 b7 98 c1 c5 bc
       -0.016504798 -0.019160856 -1.7243075e-05 -0.024140164
000110 81 7d 00 bc f3 88 d2 3c 20 35 5c bc ae 51 34 bc
       -0.007842422 0.025700068 -0.0134404 -0.011005802
000120 ec b8 ce bb ab ff 6e bb 15 63 8c 3b 4e 42 ce bc
       -0.0063086655 -0.0036468308 0.0042842724 -0.0251781
000130 be ea 8f bc 73 f1 fe bc fe 2d b7 bb 00 00 00 00
       -0.017567988 -0.031120991 -0.0055901995 0.0
000140 73 3b e3 bb b3 4f e1 bc a4 94 99 bc 9d a5 1d 3b
       -0.006934577 -0.027503824 -0.018747635 0.0024055012
000150 4e 39 85 3b d5 9b 88 3c 14 4c 04 3b 84 4b 85 3c
       0.004065669 0.016675869 0.0020186948 0.01627136
000160 38 dd 23 ba f7 55 85 bc 19 87 11 bd 81 43 31 3d
       -0.00062509207 -0.016276343 -0.03552923 0.043277267
000170 00 00 00 00 a1 f7 42 3c b0 b2 ca b5 42 97 a0 3b
       0.0 0.01189986 -1.5102178e-06 0.004900844
000180 59 99 93 bc 1f 86 c2 3b 20 c1 a6 3c 55 67 dd 3b
       -0.018017458 0.0059363986 0.020355761 0.006756703
000190 63 7c ca 39 23 2a d5 3c ed fd 46 bb 0a f6 76 bc
       0.00038621118 0.026021069 -0.0030363754 -0.015073309
0001a0 45 8b b1 3c a6 9e 3b ba 02 5b 13 3c da 39 0d bd
       0.021672854 -0.00071571243 0.008993866 -0.034479
0001b0 ee 45 ca bc 25 44 12 3b a3 4e 11 3c 6f 4b 99 3c
       -0.024691548 0.002231845 0.008868846 0.018712727
0001c0 97 f9 31 3b e1 94 ea ba 68 a2 d6 34 5a 06 f7 3b
       0.0027156824 -0.0017897153 3.9978772e-07 0.007538599
0001d0 ee e2 2e 3c cf d7 f7 bb 74 03 47 bc b1 f2 04 bc
       0.010674221 -0.007563568 -0.012146819 -0.008114503
0001e0 21 e8 18 bd dc 2e 92 bc 70 d9 4b bc 0d 79 d1 3c
       -0.03733075 -0.01784461 -0.012441978 0.025570417
0001f0 cd b0 f7 3b 26 54 d2 3b ab ab ac bc c8 4b f2 3c
       0.007558918 0.0064187227 -0.021077951 0.029577151
000200 8a 72 18 bb 1c 21 b8 3b 9d 82 6a 3c 7f 4d 93 3c
       -0.002326163 0.0056191813 0.014313367 0.017981289
000210 70 a3 9e 3a 99 2d b2 bc 56 18 aa bc 7b 00 05 3c
       0.0012103152 -0.021750258 -0.020763557 0.00811779
000220 fd 4f bb ba 22 1d 78 3c 6a 7c 43 bc df c1 af bc
       -0.0014290806 0.015143665 -0.011931518 -0.02145475
000230 fa 41 a7 3c 56 d6 df 3b 2a 97 71 3b 9d 3d b6 bc
       0.020417202 0.0068309708 0.0036863782 -0.022246176
000240 94 1b 09 bc d9 7f 9c 3c 47 f8 4c 3c e7 68 b3 bb
       -0.008368392 0.019103931 0.012510366 -0.005475152
000250 4b 8d a9 3b c0 29 06 3c 2b ac 98 bc 7b 14 01 bd
       0.005174314 0.008188665 -0.018636784 -0.031513672
000260 c1 5c 88 3b 8a 23 af 3c cc 82 11 3c 29 5f 47 bc
       0.0041614478 0.021379251 0.008881282 -0.012168684
000270 2c d9 3d b4 f2 eb 7f 3c d1 08 20 bd 2b 1a 89 3b
       -1.7681003e-07 0.015620219 -0.039070908 0.0041840277
000280 b9 5b 09 3c 2a 68 c3 bc 19 e8 06 3c b3 90 a6 bc
       0.008383685 -0.02385338 0.008234047 -0.02033267
000290 47 7a 18 3b 43 75 41 3c 26 8a 0a bc 07 ee 9d 3c
       0.0023266242 0.0118077425 -0.008455789 0.01927854
0002a0 0e 44 f8 bb c4 b1 4c 3c 9d e3 07 bd 8d e4 48 3c
       -0.007576472 0.0124935545 -0.033176053 0.012261522
0002b0 9f 27 2f bc e6 1b ab 3c 99 bf 72 bc 8f fb 40 bb
       -0.010690599 0.020887326 -0.014816188 -0.0029446816
0002c0 03 17 a8 bc c3 8b b3 bb 57 dd 00 ba c7 cc 46 3c
       -0.020518785 -0.0054793074 -0.00049157947 0.012133784
0002d0 2e 4f e4 bc 32 75 8c bb 0c aa 36 39 81 81 84 3c
       -0.027869787 -0.0042864317 0.0001742022 0.016175034
0002e0 ac 22 c3 3c b8 fe bd bb 2b 66 49 bc 1d f7 33 bc
       0.023820244 -0.005798187 -0.012292425 -0.010984209
0002f0 de ae ef bc 0b ab 79 3c 60 af 1a 3c 26 1d 97 bb
       -0.029258188 0.015238534 0.009441227 -0.004611629
000300 b9 74 a4 bb 1a c6 ee 3b 0a 7e 37 3c 92 0a fa 3c
       -0.0050187972 0.007286799 0.011199484 0.030522618
000310 d3 70 09 3a d9 40 91 3c 3c 7f 83 bc f9 57 3c bb
       0.00052429474 0.017731117 -0.016051881 -0.002873896
000320 cb 7e b2 bc 62 29 3e 38 8d 82 0a bd 5b 35 9c bc
       -0.021788975 4.533807e-05 -0.03381591 -0.01906841
000330 21 14 49 bc 21 7b 05 bc 12 8d 44 bc 4c 01 3f 3c
       -0.0122728655 -0.008147032 -0.011996524 0.011658024
000340 78 36 9c 3c fe 76 70 3c 27 89 73 3b 62 29 71 bc
       0.019068941 0.014676807 0.0037160607 -0.014719339
000350 b2 e5 36 ba 9f 59 ff bb 7e b6 fc bb de f8 ce bb
       -0.00069769763 -0.007792666 -0.0077121845 -0.0063162884
000360 93 d3 a1 bb 9f b7 09 bb d7 b1 5f 3c 04 71 35 3a
       -0.0049385517 -0.0021013988 0.01365324 0.00069214427
000370 a8 14 84 3a 80 54 8c 3b 3a ce 37 3d 2b 07 b8 3b
       0.0010076957 0.004282534 0.044874407 0.005616089
000380 76 fd c5 3c 38 5c 1a bb 1f 04 6b bc f9 79 2f 3a
       0.024168711 -0.0023553502 -0.014344244 0.00066938956
000390 a1 47 e0 bb 12 2f 3f bb 5a b4 9c 3c 62 91 5c 3a
       -0.0068444763 -0.0029172343 0.019128967 0.0008413998
0003a0 56 9c 21 bc 55 86 d3 bc 64 57 b8 bc f0 af 88 3d
       -0.009863934 -0.02582089 -0.022502609 0.066741824
0003b0 3c a5 3b bc 55 77 8e bc 66 d0 ea 39 91 67 c1 b9
       -0.011452969 -0.017390886 0.00044787227 -0.00036888992
0003c0 9d a9 3e 3b 69 47 8f bb e2 6f cb 3b ef 31 4e bc
       0.0029092797 -0.0043725264 0.006208406 -0.012585147
0003d0 59 e3 b1 3b 00 00 00 00 b9 ef 64 3c e3 da 79 3b
       0.0054287133 0.0 0.01397317 0.0038124851
0003e0 f2 55 e9 bc c4 58 ad bc ea 0f be bb 85 57 9d 3c
       -0.028483365 -0.02116049 -0.005800237 0.019206772
0003f0 c7 d5 e4 3a e8 00 60 3c 10 7e ff bb 0f 73 be 3c
       0.001745873 0.013672091 -0.0077970102 0.023248224

weight f4 [256, 256]
000000 67 b7 02 3d 86 49 19 bd 3e 58 eb 3c 3b a9 7b 3d
       0.031913187 -0.037423633 0.0287286 0.061440688
000010 fd 7c 2d bd e4 18 0f bc da 03 8f bd de 12 b9 bd
       -0.042355526 -0.008733962 -0.069831565 -0.09036802
000020 25 a1 69 3d bf 64 e9 3c 36 87 9b bd cc 3f cc 3d
       0.057038445 0.028490422 -0.07594149 0.09973106
000030 66 c0 88 3d 2a 9c 03 be 76 76 53 3d f8 eb 07 bd
       0.06677322 -0.1285254 0.051626645 -0.03318402
000040 fe f7 60 bd 13 de 0d bc 48 8b 82 bd c9 7c 83 bc
       -0.054924004 -0.008658904 -0.06374222 -0.016050713
000050 a0 ac e7 3c d8 d4 56 bc 29 5b 73 bc 5c 86 2d bc
       0.028280556 -0.013112269 -0.014853277 -0.010591116
000060 81 1d 43 bd 16 1a de bd 12 7e c3 bb 14 96 b2 bd
       -0.04763556 -0.10844819 -0.0059659565 -0.087200314
000070 02 d4 d4 3d 27 f7 05 bd c4 4a 4f 3d d7 7d ae 3d
       0.10392 -0.032706406 0.05060841 0.08520096
000080 ac 74 57 3c 0a a3 bb bd fa 80 bc 3b 74 c4 9d bd
       0.013150375 -0.091619566 0.00575268 -0.07703486
000090 c7 87 95 3d c5 34 d5 3d 4d 80 d4 bd b8 1f e2 bc
       0.07301288 0.104104556 -0.10376034 -0.027603015
0000a0 7a 9a 74 3d 13 0b ae 3d 0c f4 d2 3c 81 fe a6 bb
       0.059717633 0.08498206 0.025751136 -0.005096257
0000b0 c5 d2 b0 bd 3c ec 59 bd 60 22 b1 bd c3 2f a4 bd
       -0.08633951 -0.053203806 -0.08649135 -0.08016922
0000c0 7f c4 4a bd ac bc 9f 3d ca b8 ab bb 5e 95 5f 3d
       -0.0495038 0.07799658 -0.0052405344 0.054585807
0000d0 43 44 c9 3c 7b a4 de bd 7b 92 f8 ba 8b 0f ba bc
       0.024568683 -0.10871216 -0.0018964553 -0.02271249
0000e0 e1 76 25 bb d8 3b c5 3d e1 8c 0c 3b 63 cc 3a 3b
       -0.002524786 0.09630555 0.0021446275 0.0028503172
0000f0 ac d9 38 3d a2 f4 af bd dd 60 94 3d 11 5e ad 3d
       0.045129463 -0.08591582 0.07245038 0.08465207
000100 c8 22 8a 3d 8f 7f e7 bc 89 f3 6b 3d ae d3 ab 3d
       0.06744915 -0.028259067 0.0576053 0.08389984
000110 1d 7e ed 3c ed 8c f6 bc 01 29 b5 3c fa 36 23 bd
       0.0289908 -0.030096496 0.022114279 -0.03984735
000120 61 54 ba 3c f9 f4 83 bd 32 99 ce 3c 61 b4 29 bd
       0.022745313 -0.06443209 0.025219534 -0.04143179
000130 b3 f7 97 3d e4 3a 2f bd f1 28 dd bd a5 fa 70 3b
       0.07420292 -0.04278077 -0.107988246 0.003677049
000140 c8 8b f0 bc 20 9e 97 3c b3 f6 c5 3d 29 48 e6 3d
       -0.029363528 0.018508017 0.09666195 0.11244232
000150 80 0a fa 3c c9 3e 62 bd 1a 49 a2 bd 22 94 6d bd
       0.030522585 -0.055235658 -0.07924099 -0.0580026
000160 b8 ff 77 3d 44 3c 6e bc 7b bb 13 bd c9 ff c7 bd
       0.060546607 -0.014540736 -0.036067467 -0.09765584
000170 4b bd 6f 3c ec d2 3c bc 86 34 9a 3d d8 52 52 3d
       0.014632533 -0.011524897 0.07529549 0.051348537
000180 13 82 a2 bd 0c 33 1a 3d 52 e6 05 bd c4 3a 89 3c
       -0.07934966 0.03764634 -0.032690354 0.016751654
000190 40 f0 9a bc bb b6 eb 3c 2d ab 73 bd 53 2e 70 bd
       -0.018913388 0.028773656 -0.059489418 -0.05863793
0001a0 cd 3e 01 3e 65 0b dc 3b 96 b6 2f bd e0 a9 a8 3b
       0.12621613 0.0067152255 -0.042898737 0.005147204
0001b0 75 6d 2e bd 88 64 1a bd 0b 3e 99 3c e8 7c a2 3d
       -0.042584855 -0.03769353 0.018706342 0.0793398
0001c0 17 5a 10 3e b3 95 2d 3c d6 7c 00 3d 05 5c 15 be
       0.14096867 0.010594773 0.031369053 -0.14585884
0001d0 57 4d 96 3d 7d 04 21 3d af 10 92 3d af 57 d0 3d
       0.0733897 0.03931092 0.071320884 0.10172974
0001e0 16 86 8d 3c 60 d2 16 be 20 14 33 bc 13 c0 37 3c
       0.017275851 -0.14728689 -0.010930091 0.011215228
0001f0 59 f7 00 3e 88 98 7f bb 01 b9 84 bd 5b 16 1d 3b
       0.12594356 -0.0039000828 -0.06480599 0.0023969624
000200 46 17 00 3d 84 e6 5a bc ec d3 fb bb ca f2 70 3d
       0.031272195 -0.013360623 -0.007685175 0.05882529
000210 53 8e ed 3c 1a 87 8d bc 02 b9 13 3e 72 19 97 3c
       0.02899853 -0.017276336 0.14426044 0.01844475
000220 b1 d6 90 bd f5 94 74 3c 93 e7 a9 bd d5 9d 3b 3c
       -0.07072199 0.014928092 -0.082961224 0.011451204
000230 77 d3 ac bd a5 55 c6 bc 71 b2 c7 3d 16 2d ab 3d
       -0.08438771 -0.02421076 0.09750832 0.08358209
000240 a2 71 de bd 9f 20 38 bd 04 9d 2b 3d 20 5a 58 3c
       -0.108615175 -0.044952985 0.04189779 0.013205081
000250 36 64 07 be 43 0d 00 3d d5 41 cb bc b7 31 0b 3d
       -0.13221821 0.031262647 -0.024811665 0.03398296
000260 27 d8 8d bd d3 fc 56 3d 08 65 a0 bd bd 13 ec 3d
       -0.069259934 0.052487206 -0.0783177 0.11527202
000270 71 16 98 3b 78 8e 39 3c 67 2a b1 bc 00 cf 8b bb
       0.004641347 0.011325471 -0.021626664 -0.0042666197
000280 3d bf 57 3d c6 ba 9a bd f3 d5 78 bd f2 99 27 3d
       0.052672613 -0.075551555 -0.060750913 0.040918298
000290 60 e2 a4 bd 3a cb dc 3a 53 59 8c bc 61 42 99 bd
       -0.0805099 0.0016845234 -0.017132437 -0.07483364
0002a0 49 05 cd bc 79 33 d9 bd d6 90 e4 3c aa ca b1 bd
       -0.025026934 -0.10605521 0.027901094 -0.08681233
0002b0 8c 01 8c 3c 84 7d f2 bd fb 99 8b bd 3a 5b 9d 3d
       0.017090581 -0.118403465 -0.06816479 0.07683416
0002c0 05 bd 97 3d 5a 4f 6d 3d 0f e3 2f 3d cd 2f 16 bd
       0.074090995 0.057937004 0.04294115 -0.03666668
0002d0 79 54 ef 3b 48 94 3f 3c 83 3f e4 3a 82 27 1c bd
       0.007303771 0.011693068 0.0017413947 -0.038123615
0002e0 e7 f7 ea 39 50 5c bd bd 2a c5 4e bc 9a 27 87 3d
       0.0004481666 -0.09246123 -0.01262025 0.0659935
0002f0 41 85 9f bd 47 1d 8c bd 75 56 9a 3d 95 4e a8 bc
       -0.07789088 -0.06841522 0.075360216 -0.020545283
000300 6a 5a 10 bb 08 23 92 bd 91 dc 45 3d b8 7a 14 3d
       -0.0022026547 -0.07135588 0.04830605 0.036249846
000310 35 8a 3c 3c 05 ec c3 3d 83 35 5a bd 16 ca 3b bd
       0.0115075605 0.095665015 -0.05327369 -0.04584702
000320 aa 00 2c bd 0b 7c bf 3c 8f ef 8a 3c 37 7d 81 bb
       -0.04199282 0.023374578 0.016959934 -0.0039516944
000330 dd 1c 9f 3d 77 14 62 be 6f e6 12 be db 10 ab 3d
       0.07769177 -0.22078119 -0.14345716 0.08352824
000340 96 a3 b4 bd 62 6d 54 bd da 55 e0 ba 0b c0 82 bd
       -0.08820264 -0.051862128 -0.001711543 -0.063842855
000350 0e db cb bd d8 6e ea bc 3a f3 2b 3e 27 32 33 bd
       -0.09953891 -0.028617308 0.16792002 -0.043749
000360 45 9d 22 3c 4e f6 49 3d f7 45 e6 3d 26 2f d2 bc
       0.009925191 0.04930716 0.112438135 -0.025657248
000370 c7 23 94 bc 89 db bb 3c ad 4e 55 bd d3 7e ff bd
       -0.018083466 0.022931831 -0.052076984 -0.12475362
000380 72 1f c0 3c 0b bf 27 bc 14 7c ab 3b 75 3d 4c 3c
       0.023452494 -0.010238419 0.005233297 0.012465824
000390 5a 8d 20 3d a6 35 c1 3d 52 23 76 3d 43 06 7c bd
       0.039197303 0.09434061 0.060092278 -0.06152941
0003a0 0c ca 11 bd af 83 12 3e ca f9 10 3d d9 c0 9f bc
       -0.035593078 0.14308046 0.035394467 -0.019501137
0003b0 34 fe 98 bc 31 ff 2c bc 28 58 14 3e b6 1f a1 3d
       -0.018675901 -0.010558889 0.14486754 0.078673765
0003c0 a5 52 5a bd 66 5c 96 3c e3 72 c8 3d c1 65 83 3d
       -0.053301472 0.018354606 0.09787538 0.064158924
0003d0 f3 b7 25 bd 59 4d bc 3d 0b 00 91 bb 72 61 90 bd
       -0.04045863 0.091944404 -0.004425054 -0.07049836
0003e0 60 c4 b5 3d fd dc ec 3d 7a 59 0a bb 67 21 2a 3d
       0.08875346 0.11565588 -0.002111046 0.04153576
0003f0 ca 80 87 bd c7 70 d0 bc 70 27 97 bd fa 8e f2 bc
       -0.066163614 -0.025444401 -0.07380569 -0.029609192

bias f4 [256]
000000 fa c3 0f 3b 5f 1c 7b 3b 22 c8 c5 3b 35 8b 15 bb
       0.002193688 0.003831647 0.0060358206 -0.002281857
000010 1b 49 d6 3b e1 55 2b ba 62 e2 c1 bb ae 4e 8f bb
       0.0065394766 -0.0006535929 -0.0059168795 -0.004373393
000020 9e fc ac 3b bf 34 1d bc 9a 13 91 3b 71 47 54 bb
       0.0052791378 -0.009595095 0.0044273855 -0.0032391215
000030 bd ce de 3a 24 c9 92 3b 4f 54 7d 3c 1b ba 75 bb
       0.0016998869 0.0044795442 0.015461995 -0.003749496
000040 be 34 92 3b 26 b2 20 bc 30 f9 e9 bb 92 c4 2e bc
       0.0044618538 -0.009808099 -0.007140301 -0.010666983
000050 f6 54 af b7 02 5f b0 bb 36 5a 6b ba ee 70 91 bb
       -2.0901189e-05 -0.0053824196 -0.0008977981 -0.004438511
000060 41 11 77 3b a3 77 c8 bb 62 be d1 b9 ae 98 a2 3b
       0.0037699493 -0.0061177774 -0.00040005433 0.0049620485
000070 f4 ed 4d 3b d9 0d 6e bb 84 e3 05 3b 1e d8 c7 3a
       0.0031422349 -0.0036324172 0.00204298 0.0015246903
000080 80 10 05 bb cd 38 81 3c 49 26 ec ba b4 99 98 ba
       -0.0020304024 0.015774155 -0.0018016781 -0.0011642487
000090 e7 8c ec 3b 29 d8 91 bb b4 5a 34 3b 62 4c 0f bc
       0.0072189453 -0.004450817 0.0027519884 -0.008746238
0000a0 b8 58 64 bb 42 59 34 3b 17 05 09 3c 32 24 4a bc
       -0.003484292 0.0027519022 0.00836303 -0.012337731
0000b0 cd 3d f9 3b 20 ce a2 3b 61 6e 11 bb 9f 57 f1 ba
       0.007606244 0.0049684197 -0.0022191035 -0.0018412954
0000c0 5a 38 a4 3a 1a df 08 3b c6 8f 73 bb 43 be 74 bb
       0.0012529001 0.0020884932 -0.0037164553 -0.003734485
0000d0 cf e4 a0 bb 3d 28 9c ba 1f e8 fd 39 fd b4 b7 ba
       -0.0049100886 -0.0011913847 0.00048428864 -0.0014015731
0000e0 38 dd f2 3b 29 e7 ae bb a4 6a a5 3b a4 3c c0 3b
       0.0074116252 -0.005337615 0.005048113 0.005866604
0000f0 89 3b 6a bb f6 59 82 ba 77 7a d2 b9 91 a6 9b 3b
       -0.0035741052 -0.0009945023 -0.00040145565 0.004750081
000100 10 53 a5 bb 96 1e 4f 3a d5 47 b0 3b 06 a3 7d bc
       -0.005045302 0.0007900981 0.005379657 -0.015480762
000110 b1 62 d8 b8 71 87 b2 bb 6d 56 f1 b8 3d 73 8e bb
       -0.00010318065 -0.005448275 -0.000115078736 -0.0043472336
000120 e4 d8 04 bb ba ae 40 3b 6b 37 9f bb d7 a7 3d 3b
       -0.0020270878 0.002940102 -0.0048589013 0.0028939152
000130 3d f1 ed bb 98 71 10 3c 23 6d ba bb 8f d3 c1 bb
       -0.007261424 0.008816145 -0.0056892796 -0.0059151123
000140 5b 87 08 bb ce 02 27 3c b3 8f 65 bc ba 95 10 bb
       -0.0020832631 0.01019354 -0.014011311 -0.00220619
000150 8c fe d2 ba 14 b3 99 bb 99 c3 a2 3b 70 e7 31 ba
       -0.0016097589 -0.004690537 0.0049671647 -0.0006786501
000160 de 2a ca 3a 34 b7 fe 39 19 bc 16 bb a3 59 38 39
       0.0015424152 0.00048583152 -0.0023000299 0.00017581
000170 a7 a6 2c 3b e9 b9 20 3b 59 86 85 3c 36 98 d2 3b
       0.002634445 0.0024524874 0.016299414 0.0064268364
000180 26 19 f1 bb 66 b4 11 bc 51 5d 5d 3c 72 d9 1b bc
       -0.0073577343 -0.008893108 0.013511018 -0.009512292
000190 89 c9 03 3a 0f 84 d8 3b a5 c0 3a 3b 47 6f 61 ba
       0.00050272845 0.0066075395 0.0028496173 -0.00085996505
0001a0 c0 4f 28 bb 43 49 39 3b 6e 09 7e 3a ba b0 04 ba
       -0.00256823 0.0028272427 0.0009690736 -0.00050617347
0001b0 77 16 0b bc 92 cb 70 38 95 ca 05 bc ef c8 0a b9
       -0.008489243 5.741005e-05 -0.008165975 -0.00013235559
0001c0 14 25 7d 3a 46 cc 37 39 81 39 01 3b 10 2a b0 3b
       0.0009656709 0.00017528338 0.0019718113 0.005376108
0001d0 80 d8 2e bc ea a5 58 bb 00 5e 1c ba 89 a6 63 bb
       -0.010671735 -0.0033057877 -0.0005964935 -0.0034736714
0001e0 66 25 c2 bb 6d b1 ee 3b 61 a1 2e bc 8b 08 1a bc
       -0.0059248684 0.0072843344 -0.010658593 -0.009401451
0001f0 1d 40 23 bb c4 30 15 bc 44 73 59 3b 32 e1 3e bb
       -0.002491004 -0.009105865 0.0033180276 -0.0029125926
000200 bc 58 2f bb 7f 42 1b ba 12 55 1b 3c 25 59 ea bb
       -0.002675577 -0.00059226895 0.009480732 -0.00715174
000210 b1 aa 1d 3a 92 43 b1 ba 93 35 13 bc f4 59 bb 3b
       0.00060145097 -0.0013524166 -0.008984941 0.0057175104
000220 67 25 83 ba a2 2e 7c 3b 69 25 60 ba a0 63 ff 3b
       -0.0010005654 0.0038479944 -0.00085504964 0.0077938586
000230 70 b8 1b bb 7a f1 b1 3a 03 57 80 3b 42 60 73 b9
       -0.0023761056 0.0013575994 0.0039166226 -0.00023210145
000240 12 6b c2 ba 3a ec c3 bb 40 cb 15 bc b1 0f f0 ba
       -0.0014832935 -0.005979088 -0.009142697 -0.0018315223
000250 53 4d 33 3c 35 0a c3 bb bc 43 88 3b ae e1 c1 bb
       0.0109437285 -0.0059521445 0.004158465 -0.0059167957
000260 85 d4 39 3b 26 bb c7 3b 09 1f b5 3a c4 65 39 3b
       0.0028355431 0.006095308 0.0013818453 0.0028289417
000270 6f 47 9b 3b 67 b2 a3 3b fb 4f b6 3b d6 6e 01 bb
       0.00473874 0.0049956325 0.0055637336 -0.0019749901
000280 ef 96 54 ba a3 c8 de 3b fd 2c 2b bc fb 74 87 39
       -0.0008109649 0.00679882 -0.010447738 0.00025836364
000290 01 3e d0 b8 f8 c4 b8 3b 63 7a 9d 3b f5 97 42 39
       -9.929762e-05 0.005638715 0.0048058494 0.0001855789
0002a0 2e 84 1b 3c ce 36 7c 3b 4a 1f d4 ba c0 e5 97 ba
       0.009491963 0.0038484815 -0.0016183641 -0.0011588857
0002b0 de 5d 9f 3b e2 1a 04 bc e8 78 d9 3b 9a a0 32 3b
       0.0048634848 -0.00806305 0.0066367276 0.002725637
0002c0 29 5d b3 bb be 66 d1 3b 5e 64 be 3b 92 24 88 bb
       -0.005473752 0.0063904217 0.0058103045 -0.00415475
0002d0 6f f9 94 ba e9 49 73 3c 36 83 05 bc f1 a9 8e 3a
       -0.0011365841 0.0148491645 -0.008148959 0.0010884387
0002e0 83 c9 39 bb f5 8e 5c 3b b3 b4 fc ba 0f 6f 0a bb
       -0.002834887 0.0033654545 -0.0019279927 -0.0021123325
0002f0 c1 8f 8a ba 5e 69 d0 37 e8 09 84 ba 81 e4 53 bc
       -0.0010571406 2.4844598e-05 -0.0010073753 -0.012932898
000300 39 93 26 3b e1 84 31 3a e8 24 19 bb 91 25 9b 3b
       0.0025417341 0.00067718147 -0.0023367945 0.004734703
000310 9f 42 c8 bb 43 ca 44 3c 65 f5 72 3b 2d 26 6a 3a
       -0.0061114575 0.012011114 0.0037072536 0.000893208
000320 92 d6 04 3b 21 c5 86 3a 08 d1 e6 38 57 13 22 bb
       0.0020269495 0.0010282138 0.0001100619 -0.0024730766
000330 40 32 97 bb bc c6 e5 3b 20 bc ad ba 85 7d d2 3b
       -0.0046141446 0.0070122164 -0.0013254918 0.0064236545
000340 16 90 10 bb 1a 93 8c bb 20 4f 07 bb f6 1c f3 bb
       -0.0022058538 -0.004289997 -0.0020646527 -0.007419224
000350 32 b8 b6 ba b9 e4 16 bc 19 7c 0b bc 9e ad 35 bc
       -0.0013940393 -0.009209805 -0.008513474 -0.011088757
000360 fb e2 cf 3b e7 40 84 3b 75 91 0f 3c 4b 7d bb 3b
       0.006344197 0.0040360573 0.008762707 0.005721723
000370 33 d9 0f 3b aa fe 81 3b 87 84 65 b9 1c 78 0c 3b
       0.002194953 0.003967126 -0.00021888512 0.0021433895
000380 c6 c2 d6 bb 8e dd dc 3b 66 9d f0 3a d2 0b 13 3b
       -0.0065539805 0.0067402786 0.0018357455 0.0022437465
000390 af 38 17 3b fe 56 c2 bb bc 7d f3 39 bd e1 cd 3a
       0.0023074558 -0.0059307804 0.0004644225 0.0015707534
0003a0 1c f1 cb ba 28 a2 3c bb c1 15 63 3b 9d 40 7e 3a
       -0.0015559527 -0.0028783176 0.0034650418 0.0009698959
0003b0 1c cb 4b 3b 97 05 80 3b 7a 44 a1 bb d6 88 26 ba
       0.0031096404 0.0039069164 -0.004921493 -0.00063527876
0003c0 e8 73 77 bb fb 77 29 bb 09 68 82 ba 6e 45 8a ba
       -0.0037758294 -0.0025858867 -0.0009949218 -0.0010549256
0003d0 63 3f 04 3c 46 a8 13 bb 26 d6 ad bb d6 90 32 bb
       0.008071753 -0.0022530719 -0.0053050695 -0.0027246973
0003e0 35 e5 42 bb 8a fd ec 3b c4 03 ad 3a 53 ff 2e 3c
       -0.0029738669 0.0072323726 0.0013199975 0.010680991
0003f0 c0 64 8c bb 6a 1d be bb cc 5d 17 ba be c8 9a 3b
       -0.0042844713 -0.0058018463 -0.00057741697 0.0047236374

weight f4 [256, 18]
000000 9a 04 ab 3e 19 7b 88 3e bc 8f 85 3e 8a 54 6c be
       0.33401948 0.26656416 0.26086223 -0.23079124
000010 c7 20 33 3c 76 ba cd bc 21 72 c3 3d 6c d3 12 3e
       0.010933108 -0.025113326 0.09543253 0.14338464
000020 48 df 5a be c8 63 d2 3e 16 ef 6e 3e 11 40 be be
       -0.21374238 0.41091752 0.23333392 -0.37158254
000030 44 9e 8b 3e b9 ff 50 be 78 6a 58 bd 07 54 5a 3e
       0.27269185 -0.2041005 -0.05283591 0.21321116
000040 be 91 1e be c3 ad b2 3e d5 9d 5e be 96 b4 c7 3c
       -0.15485284 0.34898195 -0.21739896 0.024378102
000050 6d c1 28 be b4 be 37 bc de c5 60 bd 29 43 70 be
       -0.16480036 -0.011214901 -0.0548762 -0.2346312
000060 5f 2c 44 be 90 26 54 3e ca 30 b4 be 09 9b 0f bf
       -0.19157551 0.20717835 -0.35193473 -0.5609594
000070 54 94 38 be 82 7a d6 3d 9d 06 83 3d 37 5e c6 be
       -0.18025333 0.10472585 0.06397746 -0.38743755
000080 3e f1 98 3a 52 53 2e 3e 79 5b 23 bd a4 5f 49 be
       0.0011668575 0.17023972 -0.039882157 -0.1966539
000090 67 e3 b9 3e f0 ea 33 bd 3f f8 60 3e 6e e6 89 be
       0.36306307 -0.043925226 0.21969698 -0.26933616
0000a0 6e 24 df bc 02 8c d2 be b9 7d ee bb 80 f3 f8 3e
       -0.02723905 -0.41122442 -0.007278171 0.48623276
0000b0 bc 40 98 be ad 5e 1c 3e 1c 68 2f 3e 08 bb bc bd
       -0.29736888 0.15270491 0.17129558 -0.09215361
0000c0 aa de 63 3d 22 87 71 bd 78 2e 25 3c d3 bd b4 3e
       0.05563227 -0.058966763 0.01008188 0.35301074
0000d0 3c 26 72 bd 46 8d 55 3e 69 ab bf 3c f7 69 ab 3d
       -0.059118494 0.20854673 0.023397164 0.083698206
0000e0 d3 e7 2c 3e 3f 6b 2b be 60 60 e2 be 2b e5 5a bc
       0.16885309 -0.1674013 -0.44214153 -0.013360302
0000f0 d7 a0 33 bb f7 ff cd be ad b0 38 3e 39 3f a9 bd
       -0.00274091 -0.40234348 0.18036146 -0.08264012
000100 cf 8c 96 be 77 e9 5d be 99 7a 08 3e 9f 0f cc be
       -0.29404303 -0.21671091 0.13328017 -0.39855668
000110 f9 43 82 bd c7 b0 03 3e 93 ab 34 3e 04 db d8 3e
       -0.06360621 0.12860404 0.17643575 0.42354596
000120 8d 76 14 be 8d 77 b2 bd a2 01 4c 3d f1 e5 7f 3e
       -0.14498349 -0.08714209 0.049806245 0.2499006
000130 7c 51 c4 3d 98 67 08 3d 7d ee 07 be 48 28 b2 3d
       0.095858544 0.03330192 -0.1327457 0.08699089
000140 b0 36 96 3d 83 33 4e 3f 09 08 e8 3d f3 d2 9d 3e
       0.073346496 0.8054735 0.113296576 0.30825004
000150 8f d5 84 3e d9 bc 25 3e ba 4e 42 bd e4 d1 a4 3d
       0.25944182 0.16185321 -0.04743836 0.08047846
000160 7c 38 44 3e 93 20 d4 3d 04 71 b4 3e e1 57 d7 bd
       0.19162172 0.103577755 0.35242474 -0.105148084
000170 43 d2 a4 3e 85 3e f6 3d e1 2e 3a be 01 1b 3a be
       0.32191667 0.120236434 -0.18181945 -0.18174364
000180 1e 23 4d 3e 6f 86 17 3d 2c 57 e0 bd 77 cf dd 3d
       0.20032927 0.03699344 -0.10954127 0.108305864
000190 5f 0b a0 bd fa 56 c5 be dd 38 08 3e b2 f4 7b 3d
       -0.07814669 -0.3854292 0.13302942 0.061512657
0001a0 ab ae 0c bf 55 a4 9d 3e 13 89 c8 3c ae e4 66 3e
       -0.5495402 0.30789438 0.024479425 0.22548172
0001b0 c9 9b c3 3d 74 40 11 3e c2 d7 1f be 23 ee 38 3e
       0.09551198 0.14184743 -0.15609649 0.18059592
0001c0 d5 13 3d be 75 6a 92 be 8a f2 bc 3d 56 bc 2e 3e
       -0.18464597 -0.28596845 0.09225948 0.17064032
0001d0 20 c6 7b be 43 7f a5 be 0c fe b9 3d 9e 09 1d bd
       -0.24587297 -0.32323655 0.09081659 -0.03833925
0001e0 23 d5 04 bf 78 33 f2 be be 1d 20 3e 1f aa 4c 3e
       -0.5188772 -0.47304893 0.15636346 0.19986771
0001f0 ee e1 12 be e7 39 b3 b9 78 33 ed 3d 23 1d 03 bd
       -0.14343998 -0.0003418468 0.115820825 -0.03201021
000200 b5 9a aa 3d f9 f9 f2 be e7 04 ce bd 45 c6 92 3d
       0.08330289 -0.4745634 -0.10059529 0.07166723
000210 52 e2 ff bc 4e ba 30 3d 3e a8 2a be 5b b5 70 3d
       -0.031235848 0.043146424 -0.16665742 0.058766704
000220 d1 45 d8 be a0 2d 16 3f ad 05 6a be ab fe 0c be
       -0.42240766 0.5866337 -0.22853728 -0.13769023
000230 35 10 11 bd f9 48 74 be 6c 32 48 be 7a 58 51 be
       -0.035415847 -0.23855962 -0.19550484 -0.20443907
000240 a7 18 a4 3e 67 fb a9 be ac 99 30 be fe f1 29 3e
       0.32050058 -0.33199617 -0.17246121 0.16596219
000250 d6 4e b8 bd 60 58 52 be 90 3a c5 be 3a 2e 9d 3e
       -0.08999412 -0.20541525 -0.38521242 0.3069933
000260 0c d8 47 be 7b 6b 31 3d bf ad e3 3e 63 3d 08 3d
       -0.19516009 0.043315392 0.44468495 0.033261668
000270 52 b9 5c bc 7f 7e 8b be f0 d1 a4 3d cc ee 45 be
       -0.013471918 -0.27244946 0.08047855 -0.19329375
000280 71 32 62 be 80 81 36 3e a5 8b d5 3d 83 f1 ad 3e
       -0.22089554 0.17822838 0.10427026 0.3397332
000290 3d 50 c9 be e6 f8 9f 3d 7b 6f e4 bd 85 db 99 bd
       -0.3931903 0.078111455 -0.11154076 -0.07512573
0002a0 9d 81 01 3f 3f 0b 0a be fc f9 ca 3e 01 f4 09 bd
       0.505884 -0.13480853 0.39643848 -0.033679966
0002b0 19 b8 c4 3d 55 5d b2 3e 35 59 35 be b9 0c 99 3e
       0.09605426 0.34836832 -0.17709811 0.2989252
0002c0 6e a4 2c 3e 9a 4e ae bd 14 73 6c 3e 6a c1 1f bd
       0.168596 -0.08511086 0.23090774 -0.039002813
0002d0 0a 44 bd 3b 16 ee 6a 3e 70 ca 97 bd 72 ac fb bd
       0.005775933 0.22942385 -0.07411659 -0.12288751
0002e0 a6 41 26 be 93 d5 00 3f 25 82 a6 be ba d8 a1 be
       -0.1623598 0.5032589 -0.32521167 -0.31610662
0002f0 f9 90 91 3b d4 26 56 3e de a9 43 3d a9 26 85 3d
       0.004442331 0.20913249 0.04776942 0.065015145
000300 a7 a1 b5 bc 1a d9 1d be 1f 58 12 bf 90 65 e0 bb
       -0.022171808 -0.15414849 -0.5716571 -0.0068480447
000310 4d 30 5b be f3 4a 00 be 88 a1 58 3e 52 cc 0b be
       -0.21405144 -0.12528591 0.2115537 -0.13652161
000320 7f 9a 93 3c f6 f9 79 3e 06 ff ca bd a2 03 d4 3e
       0.018018005 0.24411759 -0.09911923 0.41409022
000330 3f d8 cf 3e 4d 87 50 3e 04 8a 95 be 95 4e 61 be
       0.4059467 0.20364113 -0.2920686 -0.22002633
000340 e3 a3 0a be 83 57 3f be 52 d9 2a be d9 8a 9c be
       -0.1353908 -0.18685727 -0.16684464 -0.30574682
000350 33 8b 7d 3e e6 70 64 be d2 a1 55 3e 7e cb 28 3e
       0.24760132 -0.22308692 0.20862511 0.16483876
000360 b6 ab 90 3d 09 af 0b bf df 47 81 3d 08 00 5e be
       0.07064001 -0.5456396 0.063125364 -0.216797
000370 53 ba 7b 3e 24 35 a8 3e 33 6c 04 be e3 98 75 3e
       0.24582796 0.32853043 -0.129319 0.23984103
000380 f9 1f c9 bd fc ce 82 3d f0 49 af be 19 24 19 be
       -0.098205514 0.063871354 -0.34236097 -0.14955176
000390 a5 e2 82 bd 60 fa ee bd 6a df 25 3a 65 21 5d be
       -0.06390885 -0.11668849 0.0006327542 -0.2159477
0003a0 ff c3 80 be 7c 6c b3 be f5 c8 55 be 2e 6c a5 be
       -0.25149533 -0.35043705 -0.2087744 -0.32309097
0003b0 82 00 95 3e 7a 89 ca bd 02 03 9b bc 75 f0 cb bd
       0.2910195 -0.09889503 -0.018922333 -0.09957973
0003c0 16 00 b3 be 97 38 30 3e ac a9 5b be 40 d1 49 bc
       -0.34961003 0.17209087 -0.21451443 -0.0123179555
0003d0 9e 01 45 be b9 3c da 3e f4 af 52 bb f8 e0 24 3e
       -0.19238898 0.42624453 -0.0032148333 0.16101444
0003e0 54 ed 87 3e f8 b2 ca bd 21 bd 44 be 43 47 dd 3e
       0.26548254 -0.09897417 -0.19212772 0.4321843
0003f0 8b ea 42 3d 7e c7 a0 3e 01 61 d2 3e 35 f5 63 be
       0.04758696 0.314022 0.41089633 -0.22261508
