trained_policies_backup/learner/module_state/cop_policy/module_state_dir/module_state.pt (torch, 553090 bytes, 11 tensors)

encoder.actor_encoder.net.mlp.0.weight f4 [256, 7]
0.21622843 -0.07331128 -0.10784083 -0.07792926 0.3208496 0.085330784 -0.13484107 0.10808563
-0.12661856 -0.16817953 0.35058063 0.19707824 0.13986258 -0.37318885 0.067445986 0.1498903
0.3164629 -0.10120164 -0.3237729 0.18084276 0.24527907 0.26712286 -0.04670575 -0.091152735
0.04751173 0.2609719 0.31059074 -0.31048954 0.35952136 0.2563912 -0.1303509 -0.19902599
-0.3651647 0.41154972 0.24847908 -0.30120632 -0.04015374 0.088265724 -0.4129278 0.0071558487
-0.0636149 -0.36740103 -0.21382804 -0.080449365 0.32800114 0.17434058 -0.22239473 0.3004715
0.045350965 -0.0171762 0.11764113 -0.22922328 -0.08170002 -0.31959403 0.3744285 -0.28890988
0.124007665 -0.33029205 0.24145916 0.28038624 0.18279181 0.050126474 0.087330945 -0.37518954
0.25239885 -0.031010214 -0.18748447 -0.16281113 0.06486013 -0.086295225 0.005201547 0.021467283
0.28450626 0.14888132 0.18479392 0.061628412 0.09782873 -0.07352865 -0.23946227 -0.2468496
0.15198874 0.31167185 0.15030389 -0.18768649 0.3019198 -0.26782522 0.31105524 -0.1741739
0.12688115 0.12064663 -0.04300743 0.29197535 -0.25171408 0.39431375 0.15685855 0.38519943
0.36373648 0.30004334 -0.17482239 -0.24409303 0.36114797 -0.29252726 0.39958227 0.07451926
0.16119476 -0.18078302 0.025218701 0.22624388 -0.29134822 -0.35315427 0.33457407 -0.047470767
0.35689026 -0.18464074 0.13975473 0.3828282 -0.38465258 0.2907021 0.114104606 0.04640056
-0.041649144 0.13078274 -0.06587655 -0.046672642 0.0068186866 -0.22496448 -0.35066837 0.3725739
0.032764416 0.39230275 -0.34129158 -0.26501548 -0.26095146 -0.20701057 -0.26006123 0.07858898
-0.17480971 -0.24728899 0.13495697 0.064927645 0.17033914 0.3022916 0.30450207 0.20831297
-0.11044438 0.08660121 -0.38902837 -0.087343834 0.21200678 -0.2506719 0.19906774 -0.30210954
-0.04131614 -0.32434714 0.0472149 -0.11638526 0.2376153 -0.15531498 0.24025409 -0.0835461
0.19806935 -0.19275929 -0.10587299 0.18589967 0.35839468 0.31503707 -0.19686528 -0.11420805
0.1917812 -0.10504959 -0.19329438 0.46517962 0.025798539 -0.31953743 0.2955898 -0.2763132
-0.3009439 -0.1047718 -0.062470403 -0.105935834 -0.14470218 0.036864437 0.20363161 -0.30839694
0.21379735 -0.11520038 -0.37644652 0.118733 0.11177108 0.18948175 0.21882363 -0.1527201
-0.31831625 0.09921141 0.15615049 -0.2995232 0.14963238 0.25886038 -0.28364298 -0.14129263
-0.43104208 0.2524006 0.029872118 -0.117392674 0.011703822 0.186183 0.07328622 0.28210172
0.20122084 0.43161777 -0.24551827 0.3435446 0.35701242 0.29580197 -0.30125457 -0.17143407
-0.043515857 -0.1274207 0.26943243 0.3221386 0.13973612 0.39569488 -0.424369 -0.2932146
0.34994334 -0.14511503 -0.21253727 0.113417394 0.26562074 0.17234215 0.100562446 -0.1466238
-0.010060781 -0.19684392 -0.10403551 0.25079742 0.20245136 -0.11819243 -0.288397 -0.2783658
-0.37084752 -0.041397225 -0.3578899 0.32089925 -0.16521585 -0.06574997 0.2960299 -0.19320637
-0.005099247 0.29283756 -0.4264462 -0.38554427 -0.25542304 -0.31584913 0.03824931 0.33911863
00000000: fc6a 5d3e 3924 96bd a7db dcbd 6099 9fbd
00000010: 6646 a43e e8c1 ae3d c713 0abe 005c dd3d
00000020: 4ca8 01be 4137 2cbe 4e7f b33e e1ce 493e
00000030: 2338 0f3e 9c12 bfbe 1f21 8a3d d87c 193e
00000040: 6d07 a23e ce42 cfbd 90c5 a5be d82e 393e
00000050: 702a 7b3e 54c4 883e 874e 3fbd 49ae babd
00000060: a99b 423d 1c9e 853e c005 9f3e 7cf8 9ebe
00000070: 2f13 b83e b545 833e b57a 05be 78cd 4bbe
00000080: def6 babe a5b6 d23e 4d71 7e3e b737 9abe
00000090: 4078 24bd a9c4 b43d 466b d3be 9c7b ea3b
000000a0: 8748 82bd fd1b bcbe bdf5 5abe a3c2 a4bd
000000b0: c4ef a73e 5686 323e 72bb 63be 67d7 993e
000000c0: efc1 393d 1ab5 8cbc d5ed f03d 82b9 6abe
000000d0: 5752 a7bd d4a1 a3be 18b5 bf3e ffeb 93be
000000e0: bbf7 fd3d 0a1c a9be 1241 773e c98e 8f3e
000000f0: c72d 3b3e 6b51 4d3d 91da b23d d818 c0be
00000100: 6c3a 813e 2209 febc eefb 3fbe f6b7 26be
00000110: 63d5 843d 8dbb b0bd bd71 aa3b 28dc af3c
00000120: ceaa 913e 5874 183e 9e3a 3d3e 136e 7c3d
00000130: 6e5a c83d 3096 96bd 9935 75be 24c6 7cbe
00000140: f0a2 1b3e 7493 9f3e 43e9 193e e330 40be
00000150: 3b95 9a3e 6320 89be a242 9f3e a55a 32be
00000160: 22ed 013e 9515 f73d 8f28 30bd cb7d 953e
00000170: abe0 80be 7ee3 c93e 879f 203e dc38 c53e
00000180: ab3b ba3e 489f 993e a404 33be 86f3 79be
00000190: 63e8 b83e 22c6 95be 0c96 cc3e 8e9d 983d
000001a0: 3d10 253e 2f1f 39be 7397 ce3c 7aac 673e
000001b0: 982b 95be a3d0 b4be 4b4d ab3e b570 42bd
000001c0: 52ba b63e 7612 3dbe dd1b 0f3e 0f02 c43e
000001d0: 2ff1 c4be e8d6 943e adaf e93d 830e 3e3d
000001e0: 4b98 2abd e9eb 053e 49ea 86bd d02b 3fbd
000001f0: 4a6f df3b 175d 66be ce8a b3be 02c2 be3e
00000200: fb33 063d e8db c83e c5bd aebe 1cb0 87be
00000210: 6e9b 85be 94fa 53be bf26 85be 42f3 a03d
00000220: 5101 33be 5339 7dbe 2932 0a3e c9f8 843d
00000230: 626d 2e3e f7c5 9a3e b2e7 9b3e ff4f 553e
00000240: aa30 e2bd fa5b b13d ba2e c7be 53e1 b2bd
00000250: 4e18 593e 1158 80be 6ad8 4b3e 1aae 9abe
00000260: 1d3b 29bd d410 a6be 6964 413d 655b eebd
00000270: 6d51 733e e40a 1fbe 2b05 763e 381a abbd
00000280: b1d2 4a3e b162 45be f0d3 d8bd 7c5c 3e3e
00000290: 827f b73e 8a4c a13e 0d97 49be e9e5 e9bd
000002a0: 4a62 443e 3d24 d7bd f6ee 45be 062c ee3e
000002b0: 7557 d33c 699a a3be 8c57 973e ec78 8dbe
000002c0: 5215 9abe 9992 d6bd f7e0 7fbd e3f4 d8bd
000002d0: cf2c 14be 2aff 163d ce84 503e 34e6 9dbe
000002e0: b1ed 5a3e 2dee ebbd 99bd c0be 492a f33d
000002f0: 3ce8 e43d 8107 423e 4d13 603e a862 1cbe
00000300: 59fa a2be 5a2f cb3d eae5 1f3e 1b5b 99be
00000310: 3b39 193e 5989 843e a739 91be 04af 10be
00000320: 8cb1 dcbe a73a 813e 5fb6 f43c 926b f0bd
00000330: 63c1 3f3c c2a6 3e3e 1617 963d a36f 903e
00000340: d60c 4e3e 01fd dc3e 2469 7bbe 14e5 af3e
00000350: 55ca b63e 5b73 973e 0a3e 9abe 6a8c 2fbe
00000360: af3d 32bd 927a 02be 0cf3 893e 5aef a43e
00000370: fc16 0f3e 8598 ca3e e546 d9be 3920 96be
00000380: c62b b33e 0999 14be 5fa3 59be 6147 e83d
00000390: 71ff 873e 767a 303e aff3 cd3d 8d24 16be
000003a0: f9d5 24bc 7491 49be 9210 d5bd 8568 803e
000003b0: 694f 4f3e df0e f2bd c6a8 93be f685 8ebe
000003c0: badf bdbe 2390 29bd 583d b7be e84c a43e
000003d0: 582e 29be eca7 86bd 3b91 973e e4d7 45be
000003e0: 9617 a7bb ceee 953e 2857 dabe 0f66 c5be
000003f0: cfc6 82be fab6 a1be 4fab 1c3d f5a0 ad3e

encoder.actor_encoder.net.mlp.0.bias f4 [256]
-0.34142214 0.3817138 0.22095059 0.08751331 -0.041503116 0.08463931 0.10409256 0.19558208
0.14779624 0.17375301 -0.3455304 0.2678736 -0.2129789 0.06823021 0.102090836 -0.25365528
0.30516237 -0.15319854 -0.33307496 -0.1650099 -0.33018312 0.35359275 0.31269398 0.23466316
0.2866416 0.07584368 0.19162658 -0.21214579 -0.27090785 -0.3425959 -0.06507058 0.19890995
-0.011614761 0.33338428 0.30649653 -0.41431758 0.18034396 0.35004795 0.14148271 -0.2026545
-0.054746974 -0.06849631 0.15545303 0.0039570876 -0.28094777 0.3828481 0.019990578 -0.2970786
0.12318441 0.3687599 -0.14501764 0.2555813 -0.20610115 -0.2459453 0.3154129 -0.120163456
-0.21263015 -0.17809233 0.31344455 -0.028142184 0.102388985 0.058917765 0.05032337 -0.12996547
0.19856428 -0.17845474 0.15033023 -0.29196912 -0.39520997 0.27660918 0.07686351 0.14968303
-0.14166187 -0.2857813 0.090857826 0.12997308 -0.38880694 0.17676611 -0.051518466 -0.19235921
-0.2767853 0.23318481 -0.07925046 -0.015294538 -0.15500565 0.12951413 0.06517949 -0.1457972
0.25469148 -0.17773809 0.09667746 0.27973694 -0.15513015 -0.21074942 0.25997892 -0.1256613
-0.0529288 0.3120521 -0.002516372 0.05313639 -0.2705966 0.030370893 -0.07792496 -0.08961376
-0.31198084 0.14566733 0.32396948 0.13229886 -0.064329475 0.069911174 0.31275976 0.33348858
0.18833047 0.23497096 0.38597074 -0.0730606 -0.034265533 0.31934988 0.3769688 -0.0897793
0.050195772 -0.16763256 0.03242627 -0.27041152 -0.0095376335 -0.00966649 0.36648223 -0.16545501
-0.4206021 -0.25942162 -0.21432398 0.2595936 0.008759437 -0.30012605 0.19889998 -0.025775623
-0.17806642 -0.30546254 0.30706206 0.1758614 0.39407054 -0.3363569 -0.08154696 0.19129077
-0.34155598 -0.14978959 -0.23929144 0.023404637 -0.2989496 0.08647562 -0.14033785 -0.39072722
-0.25231403 0.011768573 0.26220366 -0.02952576 -0.14852595 -0.08068389 0.052681834 -0.0077274423
0.04305595 0.27584976 -0.2859245 0.29932186 0.32855046 -0.07328834 -0.083811715 0.17175876
0.09897 -0.14184922 -0.30158195 0.15846111 -0.065592684 -0.36345667 -0.01712494 0.24479651
-0.2113443 0.14937463 -0.057018623 -0.061819296 -0.39003238 -0.269281 0.27329856 0.10972523
0.026991362 -0.095058694 0.33208916 -0.16409515 0.36075714 0.26327777 -0.14919578 0.22687836
0.21125883 -0.111794114 0.23144865 -0.36847275 -0.32575586 0.22493286 0.15303797 -0.37099114
-0.10310691 -0.32903555 -0.102259 0.37855518 -0.3786243 0.14638804 -0.06102277 -0.28376853
-0.30897996 -0.26216558 0.2720252 0.03454531 -0.13908687 0.01924776 -0.14356376 -0.31549078
0.27739474 -0.045701794 0.23719425 0.28322077 -0.17649093 -0.1916536 -0.036083102 0.36457887
0.13426451 -0.11689654 -0.23865585 -0.31639588 -0.21602282 -0.07456993 -0.15047698 0.024103215
0.05261436 -0.0016387169 0.009293107 -0.05553819 0.16090225 -0.24651854 -0.20948477 0.085165106
-0.32026097 -0.012685803 0.3242834 0.029907422 -0.007517792 0.0728181 -0.26650357 0.33918265
-0.3234181 -0.12789041 0.39258966 0.051919386 0.34722131 -0.062010955 -0.24651858 0.10740883
00000000: e2ce aebe fe6f c33e df40 623e 2e3a b33d
00000010: 2cff 29bd 6057 ad3d 7b2e d53d ab46 483e
00000020: e657 173e 4fec 313e 5ce9 b0be ba26 893e
00000030: 2417 5abe 48bc 8b3d 0015 d13d 1bdf 81be
00000040: 3e3e 9c3e 14e0 1cbe cd88 aabe 5bf8 28be
00000050: c30d a9be 1c0a b53e 6d19 a03e 8a4b 703e
00000060: b0c2 923e ee53 9b3d c239 443e bf3c 59be
00000070: 6fb4 8abe bb68 afbe b943 85bd 0daf 4b3e
00000080: d74b 3ebc 58b1 aa3e 1ded 9c3e 6f21 d4be
00000090: 16ac 383e 7c39 b33e d8e0 103e a984 4fbe
000000a0: 5d3e 60bd cb47 8cbd 142f 1f3e 75aa 813b
000000b0: 63d8 8fbe ab04 c43e 48c3 a33c b01a 98be
000000c0: 1c48 fc3d 19ce bc3e 817f 14be 8ddb 823e
000000d0: 2e0c 53be 16d9 7bbe cd7d a13e 4218 f6bd
000000e0: b8bb 59be d65d 36be ce7b a03e 708a e6bc
000000f0: 51b1 d13d c153 713d e11f 4e3d ab15 05be
00000100: 6f54 4b3e d7bc 36be 2bf0 193e fa7c 95be
00000110: f658 cabe b89f 8d3e 9e6a 9d3d 8246 193e
00000120: cf0f 11be ed51 92be ab13 ba3d aa17 053e
00000130: b411 c7be 2d02 353e 0705 53bd d0f9 44be
00000140: ceb6 8dbe 00c8 6e3e 114e a2bd f195 7abc
00000150: cdb9 1ebe 5a9f 043e d37c 853d dc4b 15be
00000160: ec66 823e f900 36be d5fe c53d ae39 8f3e
00000170: 70da 1ebe b2ce 57be f51b 853e 5bad 00be
00000180: dfcb 58bd 4bc5 9f3e b7e9 24bb 8ba5 593d
00000190: a38b 8abe 61cc f83c 1f97 9fbd 6b87 b7bd
000001a0: f4bb 9fbe d129 153e 54df a53e 5a79 073e
000001b0: 2cbf 83bd 972d 8f3d 0c22 a03e 04bf aa3e
000001c0: b4d9 403e 3a9c 703e f59d c53e cca0 95bd
000001d0: 045a 0cbd d481 a33e 0e02 c13e 36de b7bd
000001e0: 159a 4d3d dfa7 2bbe 69d1 043d 6173 8abe
000001f0: bc43 1cbc 3360 1ebc 8fa3 bb3e 0a6d 29be
00000200: 2959 d7be e9d2 84be bf77 5bbe 74e9 843e
00000210: be83 0f3c 1faa 99be 70ac 4b3e 6627 d3bc
00000220: 0b57 36be 9665 9cbe 3d37 9d3e 0315 343e
00000230: 9dc3 c93e f936 acbe 1802 a7bd bae1 433e
00000240: 6de0 aebe 7162 19be d108 75be 15bb bf3c
00000250: ec0f 99be 211a b13d bab4 0fbe 660d c8be
00000260: 4e2f 81be f9d0 403c 8f3f 863e 02e0 f1bc
00000270: 3017 18be 983d a5bd e8c8 573d 7c36 fdbb
00000280: 705b 303d 2e3c 8d3e b264 92be b740 993e
00000290: c437 a83e 3218 96bd 7aa5 abbd 87e1 2f3e
000002a0: c9b0 ca3d ec40 11be f368 9abe a143 223e
000002b0: 7555 86bd fe16 babe 9a49 8cbc f0ab 7a3e
000002c0: a46a 58be aaf5 183e 5c8c 69bd 3b36 7dbd
000002d0: 53b2 c7be 33df 89be caed 8b3e 9fb7 e03d
000002e0: fd1c dd3c 22ae c2bd 9707 aa3e 8f08 28be
000002f0: 29b5 b83e 58cc 863e c7c6 18be cd52 683e
00000300: 3c54 583e 50f4 e4bd e000 6d3e 76a8 bcbe
00000310: 79c9 a6be cd54 663e fcb5 1c3e 8df2 bdbe
00000320: b729 d3bd 5977 a8be 2b6d d1bd fcd1 c13e
00000330: 0bdb c1be bfe6 153e 03f3 79bd 1c4a 91be
00000340: 9f32 9ebe 913a 86be e346 8b3e 627f 0d3d
00000350: ca6c 0ebe 7aad 9d3c 6102 13be 0288 a1be
00000360: af06 8e3e ce31 3bbd 0de3 723e 5002 913e
00000370: 0aba 34be d740 44be e0cb 13bd 15aa ba3e
00000380: a37c 093e 7467 efbd 3362 74be a4fe a1be
00000390: 1635 5dbe 1fb8 98bd a316 1abe 1b74 c53c
000003a0: 2882 573d 37ca d6ba 1e42 183c 037c 63bd
000003b0: 8fc3 243e 5b6f 7cbe 2d83 56be 0b6b ae3d
000003c0: 3ff9 a3be 1dd8 4fbc 7908 a63e 6900 f53c
000003d0: cf57 f6bb a821 953d 2873 88be 59a9 ad3e
000003e0: 0f97 a5be b4f5 02be 8301 c93e 6ca9 543d
000003f0: fec6 b13e 33ff 7dbd 5e6f 7cbe 29f9 db3d

encoder.actor_encoder.net.mlp.2.weight f4 [256, 256]
0.050993215 -0.039117105 0.030571869 -0.027945666 0.018952964 -0.049385626 -0.07094434 -0.041321117
0.029939378 -0.06341566 -0.015241953 0.03185893 0.016139012 0.05033069 -0.038424857 -0.047156278
-0.008214987 0.0373308 0.06556561 0.029100498 0.049053315 0.052880026 -0.0017690094 0.11632969
0.057770733 0.028632274 0.012223328 -0.020672841 -0.055496406 0.04079855 0.043260887 -0.038269103
0.0115094185 0.015598491 -0.038329225 0.039455403 0.06633957 -0.057950195 0.032125622 0.014217465
0.041965388 -0.023232985 -0.06779602 0.0044770623 0.018337142 -0.029153097 0.058826607 -0.03297512
-0.06786445 -0.031126712 0.00018720528 -0.067730725 0.03641176 0.023305403 0.051179525 -0.044439223
-0.038712524 0.03953913 -0.010805718 -0.05336303 0.025417559 -0.014355912 -0.060361344 -0.02410706
-0.04052961 0.04224312 0.007068003 0.044119813 0.056379482 -0.018706534 -0.041134734 0.059304416
-0.095490515 0.023837231 0.07589586 -0.0075354143 -0.038197 -0.06542908 0.031608768 -0.025124582
0.045660064 0.03025002 -0.0023260692 -0.014732485 0.031762198 0.001934889 0.02345415 -0.012061698
-0.0026921844 -0.0016358858 0.058091845 -0.08019687 0.07332029 -0.019035302 -0.0080285035 0.013457405
0.02165024 -0.016432645 0.052048422 0.0073694834 0.056857612 0.018290034 0.027500995 -0.009755634
0.058550764 0.012614645 -0.0138129685 0.034097645 0.036761016 -0.06558495 -0.01068201 -0.033183403
-0.023209605 -0.025790958 0.07509447 -0.04490997 0.008064544 -0.069203615 -0.020690052 -0.055209644
0.02484412 0.034652624 0.023123853 0.034847666 0.054683167 -0.0044279397 0.03723101 -0.025358433
0.051885433 0.024279084 0.011334122 0.050215285 -0.001391519 -0.0017683561 0.033012778 0.057096884
-0.04184267 -0.0105143925 0.009720876 -0.010740359 -0.07343556 0.017949143 -0.03138271 -0.040588032
-0.0049617947 0.035035994 -0.05613744 -0.052482247 0.022915684 -0.037043296 -0.02990274 0.05664037
0.053345263 0.020362647 0.030440915 0.024111703 0.024426341 -0.056436773 0.07180036 -0.0007969589
0.06378721 0.098376885 -0.055966027 0.03914234 0.0027754763 0.017318862 -0.030796183 0.03313058
-0.0029730839 0.032373834 0.04970441 -0.04210188 -0.07330522 0.0668118 0.054427292 0.0522302
-0.021381404 0.03032945 0.031764727 -0.024937475 -0.040739566 -0.04724802 -0.045380525 -0.032308504
-0.053349983 -0.010941571 0.04661252 0.036750372 0.06624355 -0.05862938 -0.027037958 -0.046695016
-0.07689214 -0.028061084 -0.028057829 -0.013424829 0.0061373045 -0.042180948 0.039720368 0.075623296
-0.0053366185 0.07742325 -0.003944771 -0.022065036 -0.027625274 0.01032384 0.009889463 -0.051472478
-0.1066863 0.009526941 -0.047262378 0.0097506475 0.05646654 -5.4331762e-05 -0.046774883 0.021615326
-0.006145493 0.06831864 0.0020786372 0.0381745 -0.030333372 -0.052109618 -0.045202054 -0.12732081
-0.058175877 0.085516244 0.041766346 0.01559446 -0.04183807 -0.0420936 0.003042486 0.034493793
-0.046810698 -0.02273841 0.028783094 -0.017218001 0.05562128 0.024961777 0.03839917 0.0048732543
0.0738448 -0.034969993 0.025308749 -0.03245922 0.048969794 0.010770734 0.032546673 0.065574355
-0.0489773 0.03193318 -0.037321046 -0.03513956 -0.043695975 0.005606912 0.05771454 -0.007231547
00000000: 43de 503d 4239 20bd db71 fa3c 4fee e4bc
00000010: 3f43 9b3c 9548 4abd 444b 91bd 5540 29bd
00000020: 6d43 f53c 12e0 81bd 62b9 79bc 827e 023d
00000030: f635 843c 8e27 4e3d 6263 1dbd f126 41bd
00000040: 2798 06bc 2ee8 183d 4347 863d 2b64 ee3c
00000050: 21ec 483d ba98 583d 1bde e7ba 433e ee3d
00000060: 01a1 6c3d 3b8e ea3c 5b44 483c 175a a9bc
00000070: 3350 63bd 611c 273d 5432 313d 10c0 1cbd
00000080: 0092 3c3c d090 7f3c 1bff 1cbd fd9b 213d
00000090: 0add 873d 2f5d 6dbd 2896 033d 5ff0 683c
000000a0: e6e3 2b3d 1a53 bebc a4d8 8abd 52b4 923b
000000b0: c637 963c 7ad2 eebc 2bf4 703d eb10 07bd
000000c0: 84fc 8abd 72fd febc 894c 4439 68b6 8abd
000000d0: 7f24 153d f9ea be3c 9fa1 513d e705 36bd
000000e0: 0691 1ebd c8f3 213d 770a 31bc 3193 5abd
000000f0: 7c38 d03c 0f35 6bbc 753d 77bd 2b7c c5bc
00000100: 6002 26bd 1f07 2d3d b59a e73b fab6 343d
00000110: 2cee 663d 723e 99bc e57c 28bd 30e9 723d
00000120: 8890 c3bd 4c46 c33c 4a6f 9b3d a3eb f6bb
00000130: 7574 1cbd aeff 85bd 3278 013d 11d2 cdbc
00000140: 0c06 3b3d e4ce f73c f770 18bb 8560 71bc
00000150: 1419 023d 1a9c fd3a eb22 c03c 6e9e 45bc
00000160: 5c6f 30bb 386b d6ba b7f1 6d3d 423e a4bd
00000170: f328 963d ecef 9bbc fc89 03bc 737c 5c3c
00000180: d85b b13c c19d 86bc ba30 553d b57b f13b
00000190: 87e3 683d fbd4 953c c449 e13c 18d6 1fbc
000001a0: edd2 6f3d a8ad 4e3c ca4f 62bc f9a9 0b3d
000001b0: b892 163d 6751 86bd 9903 2fbc 52eb 07bd
000001c0: 1222 bebc 8f47 d3bc 21cb 993d 84f3 37bd
000001d0: 2621 043c a0ba 8dbd 2f7e a9bc 8223 62bd
000001e0: e585 cb3c e9ef 0d3d 3c6e bd3c 6dbc 0e3d
000001f0: 75fb 5f3d 4018 91bb 8b7f 183d 7dbc cfbc
00000200: d285 543d eee4 c63c c1b2 393c 8bae 4d3d
00000210: a163 b6ba 2fc8 e7ba 6838 073d 6cde 693d
00000220: 3863 2bbd 8f44 2cbc 4f44 1f3c 55f8 2fbc
00000230: 6265 96bd 150a 933c 288b 00bd a33f 26bd
00000240: 8d96 a2bb e781 0f3d 5ff0 65bd a0f7 56bd
00000250: acb9 bb3c b6ba 17bd 97f6 f4bc bcff 673d
00000260: 9080 5a3d 91cf a63c 3a5f f93c e885 c53c
00000270: c019 c83c 3f2a 67bd 110c 933d 02eb 50ba
00000280: dea2 823d d279 c93d a23c 65bd b853 203d
00000290: c4e4 353b 49e0 8d3c 4748 fcbc eeb3 073d
000002a0: 12d8 42bb 6d9a 043d da96 4b3d 0573 2cbd
000002b0: 0c21 96bd a0d4 883d 27ef 5e3d 56ef 553d
000002c0: 0e28 afbc 7775 f83c bb1b 023d ad49 ccbc
000002d0: 88de 26bd 2487 41bd eee0 39bd ec55 04bd
000002e0: 8385 5abd 4644 33bc c5ec 3e3d 8f87 163d
000002f0: b3aa 873d 5c25 70bd b57e ddbc 4643 3fbd
00000300: a079 9dbd 5ce0 e5bc 88d9 e5bc d0f3 5bbc
00000310: 711b c93b eec5 2cbd d3b1 223d 63e0 9a3d
00000320: cdde aebb 1590 9e3d 2343 81bb bcc1 b4bc
00000330: 664e e2bc 5325 293c 6a07 223c ced4 52bd
00000340: 597e dabd e316 1c3c 3296 41bd 2ec1 1f3c
00000350: 7549 673d 49e2 63b8 0597 3fbd a012 b13c
00000360: 2260 c9bb a5ea 8b3d bf39 083b dd5c 1c3d
00000370: b17d f8bc e570 55bd ca25 39bd 6360 02be
00000380: d449 6ebd 2423 af3d 3013 2b3d e87f 7f3c
00000390: 655e 2bbd 576a 2cbd 7264 473b 5d49 0d3d
000003a0: 93bc 3fbd e745 babc 86ca eb3c c40c 8dbc
000003b0: 24d3 633d a47c cc3c 7348 1d3d d2af 9f3b
000003c0: f13b 973d b23c 0fbd 4b54 cf3c f6f3 04bd
000003d0: 8d94 483d bc77 303c a94f 053d d94b 863d
000003e0: 6c9c 48bd 5ecc 023d f4dd 18bd 80ee 0fbd
000003f0: 8dfa 32bd 30ba b73b 1566 6c3d 9df6 ecbb

encoder.actor_encoder.net.mlp.2.bias f4 [256]
-0.037031367 0.0012283879 0.05845482 0.07069456 0.048121355 0.0644428 0.063047044 0.034347113
-0.047273237 0.010075177 -0.052313298 -0.039905835 0.055617705 -0.07557819 -0.0041807075 0.053796276
-0.025026763 -0.012234961 -0.0042935642 -0.03571438 0.025098067 -0.0009930861 -0.073914506 0.018579265
-0.050829258 0.04366643 0.018476363 -0.0300291 -0.02842055 0.045401007 -0.0626365 0.034468528
-0.051407054 0.047643326 -0.01938399 -0.04070467 -0.038511474 0.0029344638 0.022416636 -0.061017025
0.006437816 0.011017397 0.010035609 -0.008165763 -0.05278773 0.04411512 -0.052521653 -0.04661979
-0.018441293 0.00023519198 0.046815876 0.027360898 -0.004523272 -0.024474438 0.0067876633 0.009721981
0.01476187 0.028553091 -0.023498245 -0.042646445 -0.032881144 0.015180526 -0.059101738 -0.04178623
-0.04774886 -0.02532221 0.03749369 0.056572035 0.037527084 0.041826934 0.053436566 -0.037210718
0.061094634 0.05072733 0.07832003 -0.035260882 -0.04040701 0.008147117 -0.008324371 0.004370869
-0.015669173 -0.029951511 -0.042631533 0.0017154468 0.023597078 -0.078453444 0.059026815 -0.068608515
0.039868623 0.035437115 -0.050358 -0.054430638 0.07703679 -0.04342983 -0.07362384 -0.004275467
0.017449778 -0.024103032 -0.028389975 -0.03811728 0.014463232 0.029035628 0.050886452 0.03592711
-0.022477722 0.03696161 0.034508366 -0.044150487 0.011429128 -0.05240143 -0.013888732 0.02482029
-0.07688082 0.059692185 0.025954468 0.029688286 -0.066830784 -0.04698426 -0.03500472 0.0043837773
-0.04798599 0.011690915 0.009558885 -0.005590629 0.004495802 0.0129680345 -0.06351159 0.067783825
0.023333734 -0.029489616 -0.0010427394 0.013342113 -0.03897097 0.005191911 -0.044069424 0.025202727
-0.024463454 0.014810498 -0.04631399 -0.068288915 0.007968168 0.054834377 0.06138256 0.06314765
-0.029030139 0.011486643 -0.05369601 0.0392904 0.028976172 -0.04285122 0.003795533 0.066204
-0.077188686 0.01362996 0.005242009 -0.025679251 0.026335958 0.015743634 -0.060354795 0.032820553
0.040506706 0.030158892 0.05508498 0.03279187 0.075874045 -0.017868638 0.060085624 0.06548113
-0.071618795 -0.031948525 -0.011384012 0.033689316 -0.008263654 -0.046116844 -0.02713851 -0.022342486
-0.019905094 0.0068364944 0.025748506 0.0019821597 -0.016704038 0.041854203 -0.052504268 0.030755132
0.032674935 -0.043887246 0.031122709 -0.0760086 -0.021528987 -0.013524637 -0.028485263 -0.050448854
0.012883807 0.0021682417 -0.023912286 0.023612162 0.053235516 -0.025258316 -0.07752949 -0.008980871
-0.015565733 0.037307657 -0.07359398 0.030734561 -0.008370469 -0.06621355 -0.023584587 0.0076925233
0.039267164 0.055648193 -0.04561935 -0.037026227 -0.009385272 -0.043927133 -0.0692263 -0.031352
0.05781021 0.04826098 -0.036193345 -0.043313332 0.015631324 -0.0055264495 0.022037512 0.011704876
0.026907483 0.013609001 0.023991277 0.028890772 -0.0013876748 0.02385384 -0.0153268175 -0.017593535
-0.041432988 -0.035331506 -0.01931624 -0.016194478 -0.06190939 0.0240594 0.038121577 0.07071391
0.014484479 0.007962664 0.063065864 0.035351727 -0.0130243795 -0.02754828 -0.013198633 0.002074818
-0.054706853 -0.004819525 -0.0508626 -0.056382854 -0.0054871696 0.03890332 0.059973534 -0.05048441
00000000: 34ae 17bd dc01 a13a 526e 6f3d 4fc8 903d
00000010: e61a 453d 96fa 833d cf1e 813d 8faf 0c3d
00000020: 95a1 41bd 5b12 253c 7846 56bd 4d74 23bd
00000030: 64cf 633d bdc8 9abd 51fe 88bb 7c59 5c3d
00000040: ed04 cdbc 2575 48bc 07b1 8cbb 3e49 12bd
00000050: 769a cd3c 712a 82ba 7d60 97bd 8b33 983c
00000060: 5732 50bd 92db 323d be5b 973c 96ff f5bc
00000070: 37d2 e8bc 68f6 393d 9147 80bd df2e 0d3d
00000080: 3490 52bd a625 433d 2ccb 9ebc f1b9 26bd
00000090: 35be 1dbd 2250 403b 18a3 b73c fdec 79bd
000000a0: 51f4 d23b 5082 343c 656c 243c b1c9 05bc
000000b0: f237 58bd 0eb2 343d f220 57bd 65f4 3ebd
000000c0: 3212 97bc de9d 7639 01c2 3f3d f623 e03c
000000d0: f537 94bb 9e7e c8bc 0c6b de3b f248 1f3c
000000e0: c5db 713c 2ce8 e93c 647f c0bc 0aae 2ebd
000000f0: 61ae 06bd beb7 783c aa14 72bd 0a28 2bbd
00000100: 4f94 43bd 8670 cfbc fc92 193d 14b8 673d
00000110: 00b6 193d b852 2b3d 4de0 5a3d 446a 18bd
00000120: 5e3e 7a3d 76c7 4f3d 4066 a03d b76d 10bd
00000130: d281 25bd 7c7b 053c f162 08bc 8239 8f3b
00000140: a35c 80bc df5c f5bc 679e 2ebd d8d8 e03a
00000150: a94e c13c 33ac a0bd 1ac6 713d 9f82 8cbd
00000160: 484d 233d 8226 113d 3144 4ebd a9f2 5ebd
00000170: 77c5 9d3d 7ae3 31bd 19c8 96bd 3719 8cbb
00000180: d6f2 8e3c b973 c5bc 1892 e8bc dd20 1cbd
00000190: 31f7 6c3c 20dc ed3c 506e 503d 4e28 133d
000001a0: 3323 b8bc 0f65 173d a558 0d3d 24d7 34bd
000001b0: 3d41 3b3c e2a2 56bd 908d 63bc ec53 cb3c
000001c0: b173 9dbd cb7f 743d 779e d43c d934 f33c
000001d0: 94de 88bd 9172 40bd 1c61 0fbd caa5 8f3b
000001e0: f58c 44bd 408b 3f3c df9c 1c3c 9831 b7bb
000001f0: 8551 933b e177 543c 5d12 82bd 3fd2 8a3d
00000200: 6326 bf3c 3594 f1bc 87ac 88ba e198 5a3c
00000210: 06a0 1fbd e820 aa3b 2482 34bd f375 ce3c
00000220: 9567 c8bc bba7 723c bdb3 3dbd 0fdb 8bbd
00000230: eb8c 023c 039a 603d 476c 7b3d 8e53 813d
00000240: 9dd0 edbc 7932 3c3c 59f0 5bbd f8ee 203d
00000250: 705f ed3c c384 2fbd 7abe 783b f695 873d
00000260: 1a15 9ebd 3250 5f3c 29c5 ab3b 4b5d d2bc
00000270: 82be d73c cbf8 803c 9736 77bd d86e 063d
00000280: 5cea 253d c80f f73c caa0 613d c550 063d
00000290: da63 9b3d 4061 92bc 581c 763d f81a 863d
000002a0: e0ac 92bd 75dc 02bd 0284 3abc cffd 093d
000002b0: 4764 07bc 04e5 3cbd 9551 debc 9707 b7bc
000002c0: 0210 a3bc ac04 e03b 88ee d23c 1fe7 013b
000002d0: e8d6 88bc 506f 2b3d b70e 57bd 30f2 fb3c
000002e0: 27d6 053d 1dc3 33bd 0df5 fe3c 66aa 9bbd
000002f0: 8f5d b0bc 7096 5dbc ed59 e9bc 75a3 4ebd
00000300: 9a16 533c 0f19 0e3b b3e3 c3bc 4b6e c13c
00000310: 7c0d 5a3d 87ea cebc c8c7 9ebd 8124 13bc
00000320: 6b07 7fbc eacf 183d 71b8 96bd 0cc7 fb3c
00000330: 4b24 09bc f89a 87bd 7734 c1bc 9011 fc3b
00000340: 9bd6 203d 5cef 633d 5bdb 3abd d0a8 17bd
00000350: afc4 19bc f0ec 33bd 85c6 8dbd f46a 00bd
00000360: 66ca 6c3d 4ead 453d 793f 14bd 5269 31bd
00000370: 430d 803c 3817 b5bb 0388 b43c cfc5 3f3c
00000380: 156d dc3c 4af8 5e3c 5b89 c43c 57ac ec3c
00000390: a4e2 b5ba 2169 c33c 551d 7bbc 5120 90bc
000003a0: a3b5 29bd c5b7 10bd 173d 9ebc 48aa 84bc
000003b0: b394 7dbd 3818 c53c 5f25 1c3d 74d2 903d
000003c0: 4f50 6d3c d575 023c ad28 813d f9cc 103d
000003d0: 3564 55bc eeac e1bc 143f 58bc abf9 073b
000003e0: 4b14 60bd 1bed 9dbb 4d55 50bd b5f1 66bd
000003f0: b7cd b3bb 1659 1f3d cfa6 753d bec8 4ebd

encoder.critic_encoder.net.mlp.0.weight f4 [256, 7]
-0.12849243 0.09892557 0.059344698 0.24546827 -0.4326121 0.04985106 0.30283538 -0.29531708
0.030516861 -0.31101692 0.08521293 0.2981106 -0.019386645 0.19476895 -0.020165524 0.25784224
0.33823076 0.08964379 -0.04288853 0.1588303 -0.32142642 -0.43001708 0.1563649 -0.16898322
-0.056444254 0.21681115 -0.12317059 0.07831297 -0.048686452 0.1426385 -0.08626644 0.09843043
0.28786722 -0.14960305 -0.18201809 -0.26922432 0.23813625 0.18043646 -0.40578693 -0.34608755
-0.062715724 -0.034933858 0.086798474 -0.015093841 0.25629932 0.26502383 -0.15969773 -0.10251679
0.28068474 -0.029136162 -0.12403787 0.1896862 -0.059462517 -0.14988895 -0.23013262 -0.0074055223
0.3944321 -0.122583255 -0.13100916 -0.22841588 0.22944 0.108974464 -0.3017887 -0.09109977
0.3172722 0.13924251 -0.11984322 0.14701708 -0.25674927 -0.37351307 0.34083912 0.363399
-0.29651433 0.13671452 -0.35650808 -0.1113294 -0.27229097 0.24114846 -0.35015416 0.18590418
0.12045547 -0.2142886 -0.2785266 0.11817653 0.23885052 0.24369125 -0.15878834 0.08216505
0.2524665 0.29404208 0.33890852 -0.19324607 0.0011553931 0.18983838 0.37009418 -0.3251603
0.064910874 0.11976617 0.2529778 0.13997136 -0.3484618 0.25256172 -0.016578604 -0.38896492
-0.18476996 0.10707623 -0.34452915 -0.13826604 -0.06139503 -0.29447374 0.0060066846 -0.23675154
0.11364434 0.016061347 -0.05732675 -0.091718584 -0.13715152 -0.33519906 -0.046676975 0.21851906
0.14735538 0.20101088 0.13165282 -0.03094533 0.11155483 0.116256714 -0.016660973 0.03587227
-0.07069546 0.055739745 -0.22770083 -0.049315717 -0.063396215 0.30717936 -0.28383574 0.030727044
0.2586399 -0.2723053 -0.33261406 -0.2982771 0.21262681 0.008512411 -0.20236155 0.30972284
0.052754574 -0.12497365 -0.25481808 -0.083974466 0.05932836 -0.1101937 0.2411108 0.25559977
-0.31122902 -0.35999823 0.2663293 -0.3768665 -0.19303657 0.29390937 -0.009017002 -0.22403333
-0.097867124 0.23601851 -0.045323342 -0.19934459 -0.24848036 0.18537728 0.20386468 -0.08281589
-0.1891051 -0.12229406 -0.0031514086 0.33004743 0.26344335 -0.09475042 -0.08686124 -0.3413097
0.28852922 -0.3360068 -0.29617956 0.18362473 0.2783987 -0.17343283 -0.032320037 0.1471755
0.13786286 0.18998158 0.112158135 0.27354375 0.21122131 -0.20541897 -0.16607122 0.30325276
0.058893297 -0.14804639 -0.15553562 0.091527835 0.2571915 0.023124369 -0.34255254 0.33414394
0.27043387 -0.24938764 -0.10336514 -0.24000058 0.22978657 0.04916928 0.28290084 -0.3740069
-0.19940479 0.029559776 -0.055682797 0.17882559 0.365511 0.16773532 0.03753394 -0.06277824
0.053923994 0.3581512 -0.06299882 -0.27480537 -0.1679224 -0.22990356 0.26276627 -0.24613617
0.23511751 0.06540397 -0.31409362 0.03668892 0.22395283 0.18709859 0.21927425 -0.36218125
-0.22288436 -0.38944364 0.32812268 -0.38929033 -0.04207926 0.2321128 0.26203084 -0.2887637
-0.0132831745 -0.32151455 0.15807267 0.27226153 0.24984525 0.30968162 0.21879002 -0.11407456
0.2757888 -0.16925067 0.09317907 -0.34996393 -0.35194036 0.34598932 -0.10887585 -0.0815238
00000000: 8593 03be 7d99 ca3d 6d13 733d 095c 7b3e
00000010: 557f ddbe a030 4c3d 3d0d 9b3e cd33 97be
00000020: 7ffe f93c 9c3d 9fbe 1e84 ae3d f4a1 983e
00000030: bed0 9ebc 8371 473e 2b32 a5bc e603 843e
00000040: 952c ad3e 2a97 b73d e2ab 2fbd 69a4 223e
00000050: 0192 a4be 332b dcbe 1f1e 203e f009 2dbe
00000060: 1732 67bd be03 5e3e dd40 fcbd 8d62 a03d
00000070: 726b 47bd d40f 123e 76ac b0bd e595 c93d
00000080: 5563 933e 8b31 19be f362 3abe c5d7 89be
00000090: fdd9 733e 56c4 383e 4ec3 cfbe 6332 b1be
000000a0: 1a71 80bd ce16 0fbd 66c3 b13d 284c 77bc
000000b0: aa39 833e 34b1 873e cd87 23be 53f4 d1bd
000000c0: e9b5 8f3e f6ae eebc 9107 febd 193d 423e
000000d0: f88e 73bd 7d7c 19be e3a7 6bbe 06aa f2bb
000000e0: 01f3 c93e ee0c fbbd 4427 06be dae5 69be
000000f0: 52f2 6a3e 012e df3d 0c84 9abe 8492 babd
00000100: 8071 a23e 9795 0e3e 5d70 f5bd a58b 163e
00000110: a474 83be 1b3d bfbe 7782 ae3e 6f0f ba3e
00000120: bad0 97be e4fe 0b3e 3a88 b6be ab00 e4bd
00000130: b969 8bbe 9fef 763e 6847 b3be aa5d 3e3e
00000140: 5cb1 f63d 796e 5bbe 0a9b 8ebe 8906 f23d
00000150: 3b95 743e 338a 793e 6999 22be 2646 a83d
00000160: 4a43 813e af8c 963e 6b85 ad3e 4ce2 45be
00000170: 8f70 973a fe64 423e fc7c bd3e 697b a6be
00000180: feef 843d f747 f53d 4e86 813e a754 0f3e
00000190: 9669 b2be c54f 813e dacf 87bc 6926 c7be
000001a0: 5634 3dbe c84a db3d 2066 b0be 9d95 0dbe
000001b0: 5b79 7bbd 43c5 96be b9d3 c43b ff6e 72be
000001c0: 5dbe e83d 1693 833c 74cf 6abd f4d6 bbbd
000001d0: 7371 0cbe 369f abbe 5b30 3fbd 76c3 5f3e
000001e0: 54e4 163e ccd5 4d3e ffcf 063e 1081 fdbc
000001f0: dc76 e43d 0018 ee3d 987c 88bc cdee 123d
00000200: c8c8 90bd 5c4f 643d 682a 69be 47ff 49bd
00000210: e0d5 81bd 9d46 9d3e eb52 91be 48b7 fb3c
00000220: 736c 843e 9a6b 8bbe 644c aabe c7b7 98be
00000230: d8ba 593e a477 0b3c de37 4fbe fe93 9e3e
00000240: 2e15 583d 2ff2 ffbd 8477 82be cefa abbd
00000250: 4b02 733d 3cad e1bd c0e5 763e f9dd 823e
00000260: 6959 9fbe b051 b8be 505c 883e a5f4 c0be
00000270: 61ab 45be 4a7b 963e 0cbc 13bc fe68 65be
00000280: 8f6e c8bd d6ae 713e f8a4 39bd fd20 4cbe
00000290: a371 7ebe 8bd3 3d3e e7c1 503e 619b a9bd
000002a0: c4a4 41be 4f75 fabd dd87 4ebb fafb a83e
000002b0: 0ce2 863e 820c c2bd 4ee4 b1bd 25c0 aebe
000002c0: 1aba 933e 1509 acbe d9a4 97be 1f08 3c3e
000002d0: 468a 8e3e 6098 31be 0462 04bd 2db5 163e
000002e0: ec2b 0d3e 888a 423e 2ab3 e53d ed0d 8c3e
000002f0: 664a 583e 5a59 52be 930e 2abe f243 9b3e
00000300: 193a 713d 7999 17be bb44 1fbe f272 bb3d
00000310: 9bae 833e 516f bd3c 0c63 afbe ea14 ab3e
00000320: 4f76 8a3e 795f 7fbe 1ab1 d3bd b6c2 75be
00000330: 2c4d 6b3e ba65 493d 61d8 903e d57d bfbe
00000340: c530 4cbe 5827 f23c a513 64bd 0e1e 373e
00000350: 4224 bb3e cfc2 2b3e 30bd 193d e191 80bd
00000360: 68df 5c3d 985f b73e 8605 81bd 4ab3 8cbe
00000370: daf3 2bbe d76b 6bbe 4d89 863e 1f0b 7cbe
00000380: a5c2 703e 84f2 853d e1d0 a0be 1f47 163d
00000390: e453 653e c696 3f3e 6e89 603e d26f b9be
000003a0: cc3b 64be 2865 c7be b2ff a73e 1051 c7be
000003b0: 4d5b 2cbd faae 6d3e e828 863e d6d8 93be
000003c0: aca1 59bc 8e9d a4be cddd 213e dd65 8b3e
000003d0: 6fd7 7f3e 978e 9e3e 7e0a 603e ec9f e9bd
000003e0: 3134 8d3e 0c50 2dbe abd4 be3d 792e b3be
000003f0: 8731 b4be 8325 b13e 4dfa debd f3f5 a6bd

encoder.critic_encoder.net.mlp.0.bias f4 [256]
-0.2688519 0.0034576827 0.015786858 0.15912889 0.21007536 -0.2176741 -0.30239058 -0.21032661
0.20284534 0.27542835 -0.26807716 -0.28282306 -0.20061564 -0.16216081 0.1165996 -0.2594207
0.35916284 0.112796634 0.020738857 0.12213074 0.19199333 -0.23097782 0.32807216 -0.046072416
-0.4062543 0.35373166 0.3908108 -0.18815534 0.1551598 -0.27741727 0.2310712 0.26542738
-0.0748716 -0.16747928 0.30796117 0.23412324 0.17714937 0.2537671 0.22765875 0.024373293
-0.25372025 0.07340199 -0.006192828 0.09539356 0.051229443 -0.18754031 0.34789717 -0.15985276
0.3215956 -0.1555457 0.101720095 0.32291347 0.1795423 0.030435696 0.16237187 -0.16602327
0.058977176 -0.2806359 -0.27887085 0.14857087 0.33606917 -0.3011157 -0.29051185 0.3707546
-0.2777762 -0.25463128 -0.15343106 -0.033924505 -0.06968919 -0.3806865 -0.076044604 -0.08284761
-0.14607742 0.122945584 -0.1709742 0.11958331 -0.017856788 0.37979078 -0.26335552 -0.15785442
0.10306946 -0.2216986 0.24011399 -0.25360587 -0.077037655 0.38736 0.36881348 -0.30939132
-0.26981902 0.13647856 -0.28548852 0.36243385 0.11480697 -0.29399264 -0.21166849 -0.06369892
-0.27439815 0.028052796 -0.3128261 -0.30891028 -0.14741491 0.066689104 0.33243108 0.3641381
0.09806568 0.08698048 -0.38738307 0.15077774 -0.14746267 -0.27352878 0.2053485 0.31172442
-0.32371184 -0.17586756 0.21610638 -0.27089635 -0.19070794 -0.2050201 0.38491896 -0.214622
0.34154454 0.40548828 -0.21696167 -0.07602007 0.27488384 -0.107173964 0.27073902 -0.18173784
-0.23602176 -0.2321139 -0.031455062 0.28876755 -0.18552189 0.3499827 0.04778849 -0.35541734
0.35097763 0.3699651 0.17865296 -0.13227832 -0.016138539 0.10312935 0.42580777 -0.3001978
0.27036673 0.06161025 0.24746647 -0.12713428 -0.37827545 0.072171904 0.2389145 -0.15926626
0.14786021 0.10079392 -0.25607392 -0.031456463 0.25435922 0.122994654 -0.19017859 -0.28181908
0.11365837 -0.25202805 0.014082662 -0.03429976 0.17063017 -0.3153629 -0.34113717 0.012174966
-0.10053066 0.2593512 -0.2262762 0.21853401 0.30735967 -0.1649551 0.33540177 -0.23239385
-0.3963725 -0.17907724 0.21700597 0.0655418 -0.25972155 -0.06815912 0.18493943 -0.12481185
0.35918128 -0.017838825 -0.10303134 0.3021807 0.18007956 -0.2808252 0.21582304 -0.12037748
-0.12344858 -0.10878826 -0.23224391 -0.19959961 -0.006734038 -0.113113776 -0.3100642 -0.36081988
0.23342644 0.15918122 -0.2552538 0.025764212 0.13538077 0.3606535 0.22432435 0.23972699
0.30333447 -0.35225716 0.24395686 0.10280441 0.017872965 0.19840658 -0.17125937 0.34280232
0.19733979 -0.13263544 -0.0022202577 -0.11451768 0.32965842 -0.09659426 0.4325626 0.23986208
0.18358344 0.12820983 -0.16928604 0.13239346 0.28300163 0.31682596 -0.25132 -0.27375707
0.3235122 0.07739184 -0.35828424 0.32539144 -0.08574506 -0.11016338 0.15174754 -0.20737599
0.17168777 -0.058057122 -0.12040747 0.3020435 0.25790533 -0.18890843 0.2767113 0.16010918
-0.12836024 0.09213557 0.2875589 -0.227406 -0.28161752 0.22039194 -0.028041199 -0.2305587
00000000: f5a6 89be 4a9a 623b 7153 813c aff2 223e
00000010: ff1d 573e f6e5 5ebe f0d2 9abe dc5f 57be
00000020: b0b6 4f3e f204 8d3e 6941 89be 2fce 90be
00000030: 306e 4dbe 7c0d 26be c5cb ee3d cad2 84be
00000040: 31e4 b73e ec01 e73d 89e4 a93c ae1f fa3d
00000050: e699 443e 7385 6cbe 13f9 a73e 6eb6 3cbd
00000060: 9000 d0be 511c b53e 5a18 c83e cbab 40be
00000070: 36e2 1e3e a309 8ebe ee9d 6c3e 19e6 873e
00000080: 4856 99bd b07f 2bbe 16ad 9d3e 01be 6f3e
00000090: a566 353e c3ed 813e 601f 693e 80aa c73c
000000a0: 9fe7 81be c853 963d 35ed cabb b35d c33d
000000b0: f7d5 513d 910a 40be 941f b23e 71b0 23be
000000c0: 2ea8 a43e 5f47 1fbe a052 d03d ea54 a53e
000000d0: f0d9 373e 4854 f93c d044 263e 0102 2abe
000000e0: 0d92 713d 82af 8fbe 29c8 8ebe f622 183e
000000f0: 4211 ac3e d62b 9abe f8bd 94be 8cd3 bd3e
00000100: af38 8ebe 085f 82be 081d 1dbe 6cf4 0abd
00000110: 35b9 8ebd 57e9 c2be 46bd 9bbd 02ac a9bd
00000120: 5295 15be e5ca fb3d dc13 2fbe 18e8 f43d
00000130: 6648 92bc f073 c23e 89d6 86be 97a4 21be
00000140: 1516 d33d f504 63be 71e0 753e a1d8 81be
00000150: ebc5 9dbd 0d54 c63e 1fd5 bc3e 8a68 9ebe
00000160: b825 8abe 09c1 0b3e 8d2b 92be ee90 b93e
00000170: eb1f eb3d 3486 96be a0bf 58be 9474 82bd
00000180: ea7d 8cbe face e53c be2a a0be 7d29 9ebe
00000190: eff3 16be 4c94 883d 6834 aa3e 4f70 ba3e
000001a0: a9d6 c83d d222 b23d 1357 c6be 7b65 1a3e
000001b0: 7400 17be f70b 8cbe e146 523e 589a 9f3e
000001c0: 8fbd a5be a016 34be fe4a 5d3e edb2 8abe
000001d0: f148 43be caf0 51be 1914 c53e dfc5 5bbe
000001e0: edde ae3e 299c cf3e 332b 5ebe 69b0 9bbd
000001f0: 93bd 8c3e 067e dbbd 4e9e 8a3e 7c19 3abe
00000200: b0af 71be 44af 6dbe 06d7 00bd 57d9 933e
00000210: 73f9 3dbe ef30 b33e ddbd 433d 43f9 b5be
00000220: 57b3 b33e 116c bd3e cdf0 363e f873 07be
00000230: f834 84bc 7b35 d33d 7a03 da3e 87b3 99be
00000240: 826d 8a3e 085b 7c3d da67 7d3e 7d2f 02be
00000250: 52ad c1be ddce 933d 01a6 743e b216 23be
00000260: ab68 173e 0b6d ce3d 1f1c 83be 7ed8 00bd
00000270: 5f3b 823e 9fe4 fb3d 2dbe 42be 974a 90be
00000280: b8c5 e83d d209 81be f7ba 663c e87d 0cbd
00000290: adb9 2e3e 3f77 a1be 88a9 aebe 8279 473c
000002a0: 05e3 cdbd aec9 843e f3b4 67be 61c7 5f3e
000002b0: 3f5e 9d3e fde9 28be c8b9 ab3e a7f8 6dbe
000002c0: 56f1 cabe 0660 37be d036 5e3e c73a 863d
000002d0: 39fa 84be 0297 8bbd c360 3d3e 5b9d ffbd
000002e0: 9ce6 b73e ba22 92bc 1802 d3bd 6eb7 9a3e
000002f0: c766 383e 52c8 8fbe b700 5d3e 7888 f6bd
00000300: 9cd2 fcbd 61cc debd 59d1 6dbe d763 4cbe
00000310: 34a9 dcbb 32a8 e7bd bcc0 9ebe 62bd b8be
00000320: 5707 6f3e 6700 233e a0b0 82be 780f d33c
00000330: 42a1 0a3e 93a7 b83e 48b5 653e fe7a 753e
00000340: a84e 9b3e 0d5b b4be d4cf 793e 1e8b d23d
00000350: 536a 923c 182b 4b3e 9e5e 2fbe c983 af3e
00000360: 7113 4a3e 96d1 07be be81 11bb 3f88 eabd
00000370: fdc8 a83e 36d3 c5bd d878 dd3e 689e 753e
00000380: 4cfd 3b3e 7049 033e 5259 2dbe 2792 073e
00000390: 97e5 903e 0337 a23e 04ad 80be e329 8cbe
000003a0: 64a3 a53e 9d7f 9e3d 0871 b7be b599 a63e
000003b0: 1b9b afbd 579d e1bd b563 1b3e 5f5a 54be
000003c0: ebce 2f3e 4ecd 6dbd 3198 f6bd 72a5 9a3e
000003d0: 2b0c 843e 3671 41be 1aad 8d3e a9f3 233e
000003e0: de70 03be 93b1 bc3d ec3a 933e 1edd 68be
000003f0: 2c30 90be 6dae 613e a8b6 e5bc 9417 6cbe

encoder.critic_encoder.net.mlp.2.weight f4 [256, 256]
-0.08157928 0.0008628667 -0.083155334 -0.04129593 -0.04190317 -0.006298775 0.031150494 0.019467639
0.086802356 -0.0024858608 -0.08426443 0.050483465 -0.022842428 -0.047756467 -0.064954326 -0.018821284
-0.009842499 0.020395739 0.06299883 0.022975009 0.025568852 0.04168487 0.011742285 0.0286695
0.026242752 0.030512985 0.01860031 0.06763805 -0.0013328873 -0.08344787 -0.08360357 -0.0319098
-0.035587534 -0.02736939 0.025793253 0.037993696 0.0055340636 0.074171886 0.059437975 -0.0068901544
0.008477622 -0.0049313176 0.04700182 -0.032647837 0.07167042 -0.057179727 -0.06838515 -0.022721836
-0.0060701235 0.034019016 -0.05956903 -0.02424789 0.071538046 0.01677121 0.017603736 0.033954117
0.078018695 -0.010337227 -0.01916098 0.027161967 -0.05029609 -0.014007319 0.08062071 -0.06662175
0.03707186 -0.0031986567 -0.027515091 0.021017864 -0.0738072 0.025794633 -0.007505574 0.07306607
0.0073619774 -0.038213845 -0.076061495 -0.06941912 0.013510625 -0.007371846 -0.04213201 0.07308273
-0.015700124 -0.018040419 0.023257725 -0.034424517 -0.068712346 0.026342614 0.021518894 -0.024554012
-0.0057267253 0.012776753 0.0017985768 0.062160976 0.06081731 -0.01145 -0.037152123 0.031291056
-0.043603778 0.017282236 -0.002580786 0.004813414 0.038881067 -0.0086587975 0.051678434 -0.008235822
-0.086650394 -0.01935071 -0.0008853672 0.008390017 0.079315804 0.06778302 -0.06134239 0.041511923
0.011467412 0.039328925 0.007138897 0.03069587 -0.06128449 -0.017990183 0.043309342 -0.009621241
-0.01848656 0.031850945 0.04969466 0.05556777 -0.0009880333 0.008227403 -0.01893602 -0.0074399794
0.0045037144 0.066914916 0.023756398 -0.0034692264 -0.06321643 -0.0011271575 0.06533929 0.004891521
0.020387165 -0.00030062158 -0.004010282 0.014209282 0.0139484275 0.02473586 -0.015636722 -0.03675831
0.06873195 0.009665347 0.02922306 0.006151233 -0.003688196 -0.01857597 0.0019118725 -0.08452678
-0.036208883 0.08543758 -0.06234303 -0.025559274 -0.020635054 0.04672987 -0.07860002 -0.017492337
0.022500327 0.042248767 0.0033284924 -0.025463065 0.06615802 -0.07355654 -0.062273633 0.018447073
0.0149025805 0.0036001126 0.09753225 0.03568259 0.0777307 -0.008128922 0.0026628277 -0.01680108
0.070338644 0.0009086389 0.009654109 0.043620504 -0.03191062 -0.022586409 0.08837891 0.068329304
0.06276884 0.060367588 -0.03480886 0.020296095 0.019843139 -0.03697171 -0.0157797 0.071915366
-0.049992427 -0.036575254 0.012336306 0.04207973 -0.034075394 -0.064789094 -0.06463948 -0.043415353
0.043549147 -0.0289343 -0.076717265 0.058764443 0.03899923 -0.042809702 0.027422102 0.03796271
0.024454448 -0.025862645 -0.008495734 -0.031994924 0.031368513 0.02387589 -0.027641974 -0.058067765
-0.014889613 -0.0125760315 0.027424617 -0.02052788 -0.048961796 0.06354851 -0.038148537 0.018360402
9.487432e-05 -0.022134742 -0.052387483 -0.052956477 0.012676998 -0.013731978 -0.02098475 -0.07423052
0.01890007 0.040579338 0.037105095 -0.029807108 -0.029982582 -0.012515039 -0.06530543 -0.0043346575
-0.03990865 -0.029023247 -0.033740062 -0.0843065 0.01162366 0.0140542835 0.012363184 0.06780202
0.07490577 0.07218815 -0.035654455 0.007486904 0.033894427 0.024551632 -0.01862329 -0.037877697
00000000: 0a13 a7bd 0132 623a 584d aabd ec25 29bd
00000010: a9a2 2bbd f465 cebb 522f ff3c 997a 9f3c
00000020: 6fc5 b13d d3e9 22bb d492 acbd c0c7 4e3d
00000030: 0b20 bbbc 499c 43bd c606 85bd 182f 9abc
00000040: 6f42 21bc f714 a73c 8805 813d 1636 bc3c
00000050: c575 d13c c1bd 2a3d b762 403c 4ddc ea3c
00000060: 0afb d63c 5ef6 f93c ad5f 983c d185 8a3d
00000070: 47b4 aeba b8e6 aabd 5938 abbd dab3 02bd
00000080: 3cc4 11bd c535 e0bc 5f4c d33c 479f 1b3d
00000090: 1757 b53b 6ee7 973d 3c75 733d cec6 e1bb
000000a0: b9e5 0a3c e496 a1bb fb84 403d bdb9 05bd
000000b0: f1c7 923d 4a35 6abd 830d 8cbd 2523 babc
000000c0: e3e7 c6bb 8657 0b3d a8fe 73bd 83a3 c6bc
000000d0: 8a82 923d c763 893c b635 903c 7913 0b3d
000000e0: 44c8 9f3d 795d 29bc 7df7 9cbc c682 de3c
000000f0: 4603 4ebd f47e 65bc 791c a53d fc70 88bd
00000100: aad8 173d 8ea0 51bb 5467 e1bc a82d ac3c
00000110: 3b28 97bd 444f d33c 51f1 f5bb aaa3 953d
00000120: be3c f13b 1f86 1cbd 21c6 9bbd 9d2b 8ebd
00000130: ab5b 5d3c 878f f1bb 9d92 2cbd 66ac 953d
00000140: 8c9d 80bc 80c9 93bc fc86 be3c b900 0dbd
00000150: 0fb9 8cbd 77cc d73c 6448 b03c 7f25 c9bc
00000160: 41a7 bbbb 9655 513c 39be eb3a 829c 7e3d
00000170: 921b 793d c898 3bbc d32c 18bd 0d2b 003d
00000180: e099 32bd 7a93 8d3c 6722 29bb d8b9 9d3b
00000190: c141 1f3d a1dd 0dbc c4ac 533d 8bef 06bc
000001a0: c375 b1bd 6185 9ebc fd17 68ba 4876 093c
000001b0: 5370 a23d d3d1 8a3d 2842 7bbd 6808 2a3d
000001c0: d0e1 3b3c 5e17 213d 69ed e93b e875 fb3c
000001d0: 7205 7bbd 2660 93bc 2365 313d 69a2 1dbc
000001e0: 2071 97bc 2376 023d a18c 4b3d 089b 633d
000001f0: e580 81ba 3bcc 063c b61f 9bbc 12cb f3bb
00000200: e593 933b b00a 893d c79c c23c f65b 63bb
00000210: 9e77 81bd 21bd 93ba 9bd0 853d 0d49 a03b
00000220: fc02 a73c bf9c 9db9 af68 83bb 0cce 683c
00000230: f287 643c dca2 ca3c 9518 80bc e28f 16bd
00000240: 56c3 8c3d 675b 1e3c 3365 ef3c 4890 c93b
00000250: a9b5 71bb a22c 98bc cc97 fa3a 601c adbd
00000260: c44f 14bd e6f9 ae3d 685b 7fbd af61 d1bc
00000270: d80a a9bc d267 3f3d 0cf9 a0bd 174c 8fbc
00000280: 9b52 b83c 0b0d 2d3d d622 5a3b eb97 d0bc
00000290: db7d 873d d0a4 96bd a312 7fbd 511e 973c
000002a0: f429 743c deef 6b3b fdbe c73d e827 123d
000002b0: 4631 9f3d 2c2f 05bc d682 2e3b 6ba2 89bc
000002c0: b50d 903d b931 6e3a 452c 1e3c 6aab 323d
000002d0: b6b4 02bd 2207 b9bc 0100 b53d 3cf0 8b3d
000002e0: f38c 803d 0144 773d bc93 0ebd ff43 a63c
000002f0: 148e a23c a66f 17bd 6e44 81bc 5d48 933d
00000300: dcc4 4cbd efcf 15bd 381e 4a3c cc5b 2c3d
00000310: a492 0bbd 25b0 84bd b461 84bd 4cd4 31bd
00000320: 9760 323d a007 edbc f11d 9dbd fcb2 703d
00000330: a8bd 1f3d 3a59 2fbd 51a4 e03c c97e 1b3d
00000340: b254 c83c e6dd d3bc b131 0bbc 1c0d 03bd
00000350: 457c 003d 5f97 c33c 6c71 e2bc 77d8 6dbd
00000360: 90f3 73bc b30b 4ebc 97a9 e03c 162a a8bc
00000370: 2a8c 48bd b925 823d a441 1cbd 8e68 963c
00000380: 43f7 c638 eb53 b5bc 4294 56bd e4e8 58bd
00000390: 2fb3 4f3c 17fc 60bc 36e8 abbc 2c06 98bd
000003a0: 52d4 9a3c 8536 263d 83fb 173d 092e f4bc
000003b0: 089e f5bc e10b 4dbc dabe 85bd be09 8ebb
000003c0: 4177 23bd 29c2 edbc 0533 0abd e3a8 acbd
000003d0: 2a71 3e3c f043 663c f48e 4a3c c9db 8a3d
000003e0: 3268 993d 61d7 933d 680a 12bd b454 f53b
000003f0: e2d4 0a3d 8120 c93c df8f 98bc a525 1bbd

encoder.critic_encoder.net.mlp.2.bias f4 [256]
-0.02181538 0.039699025 0.005309616 -0.030257206 0.040629677 0.07449747 0.04215405 -0.03785953
0.053279124 -0.050793197 0.008753334 -0.00089782866 0.00062949065 0.016658414 -0.034106053 0.023768598
0.08736383 -0.041537326 -0.04088703 -0.003986042 0.068961844 -0.052333813 -0.004401885 -0.022443015
-0.023818668 0.03614362 -0.009580985 0.039841197 0.015818233 -0.041247074 -0.04558546 -0.061307546
0.056748044 -0.054987665 0.025823819 0.0008035707 0.044424612 -0.02608746 -0.027087897 0.022363702
0.031982116 0.04950555 -0.014754134 0.0047549256 -0.07672526 0.06304051 0.011000517 -0.041938588
0.0032087876 0.04303551 -0.0026269848 -0.019082805 0.024825044 -0.059543658 0.027547123 -0.015382088
0.07472159 -0.06775291 -0.009629258 -0.062446855 -0.04875448 -0.051619757 0.017490627 -0.019026496
0.07052078 0.00018683354 0.0032579778 -0.07701671 -0.08009103 -0.05401697 -0.01651393 -0.06407776
0.002191325 -0.02481642 0.024129698 0.049091995 -0.06567644 -0.032645293 0.045539234 -0.035610802
-0.0062196967 -0.016133692 0.020985339 0.05812325 -0.06640239 0.034292515 0.06302488 0.010596121
-0.005764831 0.07185027 -0.035631955 -0.06616321 0.041178178 -0.026939757 -0.05896668 -0.02798746
-0.016610444 0.0015647927 0.0084046405 -0.017977918 -0.049484067 0.08874291 0.005853382 -0.029161623
-0.048416384 -0.009686192 -0.015472724 -0.009385892 -0.028005665 -0.038628343 0.021623649 0.006348978
-0.055500712 0.0021007045 -0.0031298618 -0.008021668 -0.07782925 -0.04244651 0.0111826155 -0.031750847
0.015881624 -0.05548712 -0.01056563 -0.056334075 0.0014542753 -0.039051484 -0.012650943 -0.082164675
-0.016881103 0.04814731 0.023431096 0.021455552 0.002357295 -0.034111418 -0.059652563 0.07367675
-0.045327313 -0.04037586 0.057083476 -0.046659958 0.022516768 0.022250643 -0.07847897 0.01694781
0.055426016 0.05651204 -0.024063088 0.0033483324 0.047701914 0.037864536 -0.004693032 -0.02426123
-0.0045488216 0.05081562 0.048548397 -0.06331258 0.014002518 -0.020028032 0.012914775 -0.026427856
-0.04136434 -0.020000637 -0.041483585 0.034957748 0.06777152 0.07773412 0.01462419 0.0653627
0.05524451 0.0031026038 0.024999475 -0.042908713 -0.059649885 0.052584182 0.028525418 0.06534702
-0.035366934 -0.019869823 0.061668105 0.009648097 0.05728629 0.040585123 0.034483604 -0.03112505
-0.03617999 -0.06298628 -0.05701806 -0.024344798 -0.046563752 0.04183358 0.051440727 0.03680054
0.026774293 0.07774493 0.009761645 -0.04349837 0.050242487 0.06969559 0.044768456 0.030930731
0.01735076 -0.01725494 -0.018989475 0.010026378 -0.040678587 -0.026363237 -0.017691536 0.0010000864
-0.013953835 -0.019815972 -0.07113353 0.018807583 0.035284337 0.0159198 0.03698459 -0.056130473
-0.0600084 -0.023794148 -0.02326181 -0.01700083 -0.0463931 -0.04002719 0.013028618 -0.028899621
0.036300886 -0.03600252 -0.027771251 -0.018010652 -0.04058989 -0.023992695 -0.004034736 0.05600898
0.016286714 -0.01910331 -0.06428434 0.048990928 0.034633163 -0.004357871 -0.061923657 0.025147794
-0.01960059 0.022000983 -0.0690705 -0.004415749 0.009639911 -0.07505243 0.011691944 -0.020791404
-0.011232727 -0.064211786 -0.015654186 -0.0580832 -0.04909619 -0.018377576 0.002788865 -0.029513601
00000000: 2bb6 b2bc 729b 223d 4afc ad3b f6dd f7bc
00000010: 4e6b 263d 2192 983d baa9 2c3d 9812 1bbd
00000020: 363b 5a3d 870c 50bd 256a 0f3c 435c 6bba
00000030: 6704 253a 3a77 883c cab2 0bbd 5db6 c23c
00000040: cfeb b23d 0b23 2abd 2979 27bd 589d 82bb
00000050: de3b 8d3d fb5b 56bd b03d 90bb 6ada b7bc
00000060: 5e1f c3bc 550b 143d 90f9 1cbc 8630 233d
00000070: 3d95 813c b1f2 28bd d2b7 3abd 9f1d 7bbd
00000080: a370 683d bf3a 61bd 798c d33c b8a6 523a
00000090: 95f6 353d 5eb5 d5bc 70e7 ddbc 1534 b73c
000000a0: aeff 023d 55c6 4a3d 53bb 71bc 35cf 9b3b
000000b0: 2222 9dbd 621b 813d 833b 343c ccc7 2bbd
000000c0: 864a 523b 0146 303d 7e29 2cbb 8b53 9cbc
000000d0: e45d cb3c 0de4 73bd 81aa e13c 2705 7cbc
000000e0: a207 993d 0ac2 8abd 09c4 1dbc 46c8 7fbd
000000f0: c7b2 47bd 3d6f 53bd 8148 8f3c 74dd 9bbc
00000100: 336d 903d bfe8 4339 cc83 553b f0ba 9dbd
00000110: c406 a4bd e640 5dbd 3948 87bc 333b 83bd
00000120: 559c 0f3b ce4b cbbc a5ab c53c b014 493d
00000130: 5f81 86bd 12b7 05bd 5987 3a3d a2dc 11bd
00000140: 99ce cbbb ce2a 84bc 72e9 ab3c a512 6e3d
00000150: fafd 87bd 4f76 0c3d 3013 813d 5a9b 2d3c
00000160: e8e6 bcbb 3c26 933d d0f2 11bd 9480 87bd
00000170: 73aa 283d c4b0 dcbc 0c87 71bd f545 e5bc
00000180: a012 88bc bb19 cd3a 9eb3 093c 6d46 93bc
00000190: ceaf 4abd d8be b53d bacd bf3b 5be4 eebc
000001a0: 4250 46bd d5b2 1ebc 4f81 7dbc 49c7 19bc
000001b0: 236c e5bc c138 1ebd 1424 b13c 160b d03b
000001c0: b754 63bd f9ab 093b 5e1e 4dbb 506d 03bc
000001d0: f164 9fbd 64dc 2dbd 4a37 373c 2d0d 02bd
000001e0: 2e1a 823c 7646 63bd 771b 2dbc 8fbe 66bd
000001f0: 629d be3a 73f4 1fbd e745 4fbc f445 a8bd
00000200: 3d4a 8abc 1d36 453d 92f2 bf3c 8ec3 af3c
00000210: d97c 1a3b 6ab8 0bbd 3f56 74bd d6e3 963d
00000220: 22a9 39bd 2861 25bd 5dd0 693d 831e 3fbd
00000230: 1675 b83c fb46 b63c 95b9 a0bd 22d6 8a3c
00000240: 6406 633d 2b79 673d f41f c5bc b26f 5b3b
00000250: 1563 433d d817 1b3d 01c8 99bb 7dbf c6bc
00000260: 480e 95bb 0a24 503d afda 463d 07aa 81bd
00000270: d16a 653c d411 a4bc 7e98 533c 3b7f d8bc
00000280: a76d 29bd 60d8 a3bc b1ea 29bd db2f 0f3d
00000290: cbcb 8a3d 1133 9f3d 4c9a 6f3c e1dc 853d
000002a0: 1148 623d 0e55 4b3b b3cb cc3c 0cc1 2fbd
000002b0: 7053 74bd 8362 573d 23ae e93c a9d4 853d
000002c0: ebdc 10bd 0ac6 a2bc b297 7c3d 0d13 1e3c
000002d0: 07a5 6a3d 963c 263d ae3e 0d3d f6f9 febc
000002e0: 7831 14bd f3fe 80bd c58b 69bd be6e c7bc
000002f0: a2b9 3ebd b059 2b3d 83b3 523d 2abc 163d
00000300: c355 db3c bc38 9f3d 4fef 1f3c 592b 32bd
00000310: 11cb 4d3d 90bc 8e3d 215f 373d 7262 fd3c
00000320: 2e23 8e3c 3b5a 8dbc d18f 9bbc ad45 243c
00000330: 979e 26bd b7f7 d7bc d7ed 90bc 5515 833a
00000340: a09e 64bc 1b55 a2bc 75ae 91bd 5c12 9a3c
00000350: 4f86 103d 3e6a 823c 277d 173d 11e9 65bd
00000360: 5ecb 75bd f2eb c2bc 8d8f bebc 5345 8bbc
00000370: b106 3ebd 8df3 23bd fc75 553c e6be ecbc
00000380: 3db0 143d 6177 13bd 8980 e3bc 138b 93bc
00000390: 9641 26bd 548c c4bc d235 84bb ac69 653d
000003a0: b76b 853c 8b7e 9cbc 82a7 83bd b6aa 483d
000003b0: 81db 0d3d 79cc 8ebb a9a3 7dbd bf02 ce3c
000003c0: 6b91 a0bc 683b b43c d674 8dbd fdb1 90bb
000003d0: b8f0 1d3c 17b5 99bd 918f 3f3c bc52 aabc
000003e0: 7909 38bc 7881 83bd 353d 80bc a6e8 6dbd
000003f0: 1619 49bd 928c 96bc 64c5 363b 82c6 f1bc
