1v1/trained_policies/learner/module_state/cop_policy/module_state_dir/module_state.pt (torch, 553090 bytes, 11 tensors)

encoder.actor_encoder.net.mlp.0.weight f4 [256, 7]
00000000: ed8e 0e3d 2178 8fbe 1c45 273e f7a9 f03d
00000010: 898a 8abe d338 133e 2ff0 61be e910 cb3b
00000020: 8d86 d5bd 8f5d 9a3e 3861 c3be ae1a 503e
00000030: e063 f4bd 1c3f 383d fe71 f33d 1462 853e
00000040: 90e6 babe e05d 38bb 336b efbd 8755 823e
00000050: 0aed e8bc abac a8be adf6 103e d40e 2abc
00000060: a6cc 87be 86d2 74bd 3a93 7ebd 826a c53e
00000070: 4d2f 313e c9a1 263e 3e3c bbbe 1fb0 4bbe
00000080: f262 97be 3c0a a33d 20d6 323e 756d ebbc
00000090: a26b 883e 42ab b1be b05f 9dbe 0861 67bc
000000a0: a7c8 af3e f331 8a3e 6a8d 6b3e fb50 3a3c
000000b0: b538 0b3a 11b9 c83c 8684 1c3e d8d6 a0bd
000000c0: a653 fabd 7598 58be 4386 923e f0b0 c2be
000000d0: 8d73 a9be 508c b33e 8f00 ae3d 28a0 09be
000000e0: 51fe 8fbe 95a7 9dbe 7af3 093e b7aa 02be
000000f0: f873 b13c 62f0 b53d 3f40 e6bd e566 02be
00000100: cf38 3dbe 1fff 8b3e 8cee 8ebe b7d4 a9bc
00000110: adb3 7cbe 4682 e43d 6e99 813c ef54 7fbe
00000120: aa5a 2b3e 27e0 893e b48e d73c f57c 983e
00000130: f025 26bd 7b1a 3d3e 2229 323e 8a60 22be
00000140: 2f32 f1bd 5d59 49be 9b85 b9be 7beb 003e
00000150: cb30 253e b332 423e 2601 5f3d 9acf 1d39
00000160: 6ad3 273e c026 bfbe 1557 c9be a7a4 863e
00000170: bbfb 68bd e35f 903c cac2 bb3e 7b75 8f3c
00000180: 0c6f 0bbe 9670 1fbd 6929 9d3e 6ae3 bd3e
00000190: b4df bb3e 00ff c53d 410e b4bd 9a8c 1b3e
000001a0: 92fb 073e dd79 0bbe 2d34 013a 1612 95bd
000001b0: b858 f33d 963f c23e ea90 46be da8d 2dbe
000001c0: b074 9cbe 2ca0 cb3d 1bc4 77bd c2e5 8cbc
000001d0: a4e7 4bbe f54a 09be a490 5abe 99d4 a6be
000001e0: a2cf f0bd 859e e7bd b549 b4bd 7377 e63d
000001f0: 0486 cd3c 7bb9 95be a4df b73d 2a3a 6e3d
00000200: a84c 563d ec4d 993d 2427 833e e665 4dbe
00000210: a604 943e 6f27 7e3e 12b3 8ebe 6b5d 9ebe
00000220: 5849 023c c3ba bfbe 898b 693e fa35 1cbe
00000230: 30e2 483e 28bf 9a3e 581a 9fbe 5133 86be
00000240: 4b18 14be db4c 99be 3e62 90be 8cf7 31bd
00000250: 9ac5 983e a006 a83e 3eb1 88be 1077 943e
00000260: 87f3 40be a413 e1bd 8de3 5dbe 738c a4be
00000270: 5857 a53e 56fa 15be 7ad0 ae3e 7be5 b73e
00000280: b973 173e 1c3f ad3d 5dfc 29be e7d4 7a3c
00000290: cc98 a5bd 45e2 89be 5328 b73e 1600 b03e
000002a0: 3fbe aabe 15b0 e13d 5ca2 22bd abdc e83d
000002b0: 18db dcbd a9a2 9c3e 3df5 053e e662 063e
000002c0: c0ec 23be d186 a4bd 8f09 613e 9f0b 1f3e
000002d0: 8ec8 ad3d f14d 7f3e f66f b8be c189 653d
000002e0: 2893 b6be 6145 5b3d bff5 fb3d b109 1cbd
000002f0: 8087 b3be cb7f 8cbe 5048 2abe 9748 f93d
00000300: a4f1 9cbe 25b5 593e 4424 603e 54fc 1dbe
00000310: fe96 2b3e d05a 40be 4f3c 693e abb9 86be
00000320: 7830 a5be 16ef 653e ce5a abbe 0d71 4fbe
00000330: db46 bdbd e929 423d 9385 3ebd e907 8bbe
00000340: 4008 c53e c6ee 243d 962b 74be 2371 a1bc
00000350: 4f86 06be 4ecc 193e ee1b 85be 5286 a0be
00000360: 4a16 333d eb70 833c 512e 6cbe 8f1b bd3d
00000370: 39f9 a7bc e883 d43e 6ddc 4fbe 8afb 6f3d
00000380: 75fc 7c3e d193 883d 45e1 b63d 9c76 263e
00000390: 6354 e1bc ec09 adbe e9d7 5ebe 6d2c 39bd
000003a0: 2056 d7bd 2523 1a3e 3e31 a0bd c986 723d
000003b0: 6214 9d3e fe6c 46be 29e7 a03e f10a 213e
000003c0: 096c 803d 776e cebe d655 a6be a410 01be
000003d0: 3348 26be 8030 2b3d b0a5 5d3e ce9a 82be
000003e0: 0d71 dfbe 6add 413e b72b 60be 824d ab3d
000003f0: a3d4 5f3e 9046 82be 0ea0 7b3e e8bf c3be
0.034804273 -0.2802134 0.16334957 0.11751168 -0.2705882 0.14377145 -0.22064279 0.006197084
-0.10426054 0.30149505 -0.3816011 0.20322677 -0.11933112 0.04498206 0.11886977 0.2605139
-0.3650403 -0.0028132126 -0.116903685 0.25455877 -0.028433342 -0.32944235 0.141566 -0.010379512
-0.26523322 -0.059771083 -0.062152125 0.38557822 0.173032 0.16272654 -0.365694 -0.19891404
-0.29567677 0.079609364 0.17464495 -0.028738717 0.26644617 -0.34700972 -0.30737066 -0.014122255
0.34332773 0.26991233 0.23003164 0.011371846 0.0005310879 0.024502309 0.15284929 -0.07853478
-0.12222986 -0.21151908 0.2861806 -0.38025618 -0.3309597 0.35067987 0.084962 -0.13440001
-0.28123716 -0.30791917 0.13471785 -0.12760435 0.021661744 0.0888374 -0.11242723 -0.12734564
-0.18478702 0.2734308 -0.27916372 -0.020731313 -0.24677916 0.1115766 0.015820231 -0.24934743
0.16733804 0.26928827 0.026313163 0.29782835 -0.040563524 0.18467133 0.17398503 -0.15857139
-0.1177715 -0.19662996 -0.36234745 0.12589829 0.16131894 0.18964653 0.054444455 0.00015050024
0.16389242 -0.3733425 -0.3932425 0.26297495 -0.056880694 0.017623847 0.3667205 0.017512074
-0.1361658 -0.03892573 0.30695656 0.37087566 0.3669411 0.09667778 -0.08791781 0.15190354
0.1327956 -0.13620706 0.0004928734 -0.0727884 0.11882156 0.37939137 -0.19391218 -0.16948643
-0.30557775 0.0994266 -0.060489755 -0.0171994 -0.19912583 -0.134075 -0.21344239 -0.32584074
-0.11758353 -0.11309532 -0.08803121 0.11253252 0.025088318 -0.29243073 0.08978203 0.05816094
0.0523192 0.074855655 0.256158 -0.20058402 0.28909796 0.2481973 -0.27870995 -0.30930647
0.007952057 -0.37447175 0.22807135 -0.15254965 0.19617534 0.30223966 -0.31074786 -0.26211026
-0.14462392 -0.2994145 -0.28199953 -0.04344897 0.29838258 0.32817554 -0.26697725 0.28997087
-0.18842898 -0.10990074 -0.21668835 -0.32138404 0.322932 -0.14646277 0.3414343 0.35917267
0.14790238 0.08459303 -0.16600175 0.015309549 -0.08085784 -0.26930442 0.35772952 0.34375066
-0.3334827 0.11019913 -0.03970562 0.11370214 -0.10783976 0.3059285 0.13081832 0.13123664
-0.16008282 -0.08033527 0.21976303 0.15531777 0.084855184 0.24932076 -0.3602292 0.056039575
-0.35659146 0.05353296 0.12302732 -0.03809518 -0.35064316 -0.27441248 -0.16629148 0.121720485
-0.30653107 0.21260507 0.21888834 -0.15428287 0.16756818 -0.18784642 0.22776912 -0.26313528
-0.3226354 0.22454485 -0.33467716 -0.20257969 -0.0924203 0.04740325 -0.046514105 -0.27154472
0.38482857 0.040266775 -0.23844752 -0.019707268 -0.13137172 0.15019342 -0.2599787 -0.31352478
0.04372243 0.016045054 -0.23064543 0.09233772 -0.02050458 0.41506886 -0.2029893 0.058589496
0.2470568 0.06668819 0.089296855 0.16256183 -0.027506059 -0.33796632 -0.2176205 -0.045208383
-0.10514474 0.15052469 -0.07821892 0.059210572 0.30679613 -0.19377515 0.3142636 0.1572683
0.06270606 -0.40318653 -0.32487363 -0.12604004 -0.1623848 0.0417943 0.21645236 -0.25508732
-0.43640938 0.18932119 -0.21891676 0.08364393 0.21858458 -0.2544446 0.24572775 -0.3823235

encoder.actor_encoder.net.mlp.0.bias f4 [256]
00000000: 9128 843e 2d1a c1be 0637 c73e bfff 13be
00000010: 09b9 a63d 2303 bf3d 9a92 c23e 7405 813e
00000020: af74 ee3d c35d d0be adc1 4fbe e33b 4ebd
00000030: 3c32 743e 1c55 a63e e680 9bbe 97e0 353e
00000040: c77a 293e 4041 4d3e aac0 9bbe 5ce3 82be
00000050: 17dd c03e 20bf 94be ccff d2bd 78df 133d
00000060: d07c b83e d585 afbe a6fe 84be 39a0 c03c
00000070: e145 b8be 70e0 00be e0f4 2bbe 71eb 713e
00000080: 59fc 983e 4492 99be ae82 3c3e f04b 773d
00000090: cff8 c6bd 68f0 6b3e 98b7 20bd 2ea1 86be
000000a0: 1696 103e 82d5 fbbc 09ee 77bd f2db 50be
000000b0: c552 06be 4f79 983c f856 d8be 9815 483e
000000c0: b49c 0d3e 8752 433e bd94 cb3e 52a8 c8bd
000000d0: 565b 653e 00c5 113c 7982 0f3c c0a0 1bbd
000000e0: 9340 9dbe bb98 63be ad32 643e 1146 bb3e
000000f0: 88c2 acbe 9785 55be fe4c 93be 6af2 c03d
00000100: d3eb 39be e9a9 173e 2a2f c53e 764b 32b9
00000110: a9cb 74be 2617 373e ef13 52bd 1639 ce3d
00000120: 2572 98be 5110 aabe a07b e0bd a860 ce3d
00000130: e6de 713e b184 ae3b 3e8f ed3d a611 0cbe
00000140: a57f 1a3e a82d d33d 9018 383e f9bd 063e
00000150: 20be 9cbe 7a8b c7bd f2b8 8b3e cafc a3bc
00000160: a495 933d 96aa 443e d85a 02be ea18 953e
00000170: 7177 613e b7f4 4a3d 2b82 d0bd 73b5 4f3d
00000180: 3846 5fbc 9873 72be 0576 dfbe 4cfb b73e
00000190: 6c33 fe3d 7a24 2f3e b9b2 a4be 0907 513e
000001a0: 9f90 7bbe 3d1b 1b3e be67 8b3e 4d93 d4be
000001b0: 3d4f 68be 2702 8ebe 42ed eebd 263b fabc
000001c0: cc1d 113d dea2 9ebd 65e0 273d 2437 613d
000001d0: fe85 2f3e a9fc 3b3d 558b b23e f2eb 9d3e
000001e0: 5136 1f3e d1c7 81bd 1895 94bd 00c7 963e
000001f0: 8da8 22be 6863 463e b98c 9abe 9060 88be
00000200: 059b cfbd f98f 2b3e 6820 b1be 6a5f 3b3e
00000210: 1cd3 64be c166 16be 1fef 98be 619e 9e3d
00000220: 04ab babe 16df d8bc 4851 833e e94b 513e
00000230: 96bf 90be 47e8 bd3e 6ab7 983e 31cc 8f3e
00000240: 062f 84be 1061 5f3e f1c7 983e c00f dfbd
00000250: 9ec1 db3d d04b e3bd a4b6 89be 6dc9 c13e
00000260: 6215 ba3e b48b 693c 96d1 8e3e 2a21 c9be
00000270: cf98 bb3d 2dfd b33e 139c 4c3e 8a65 acbe
00000280: a7bf 73bc 139f 31be cafd c5bd 147c 80be
00000290: ac9b 753e 79df 073e 4a7d 993e 875e 903e
000002a0: a939 c53e 42df 183e 52d4 23bd d087 fa3d
000002b0: 6cce 973d 4c57 05be bc0f 12be 2b66 c53e
000002c0: 5b60 b73e d8a9 90be 6f91 9dbd e7ee 773e
000002d0: ffcb 493e c97e 933e 1055 c7be 9a69 c73e
000002e0: 83f2 263e 1bfc c33e 915d 963d 1e72 48be
000002f0: b6e4 6e3e 15d6 4fbe e12e b63e 0f3c 97be
00000300: 3e16 0439 2c5b 9d3e 86da d13d 23c1 a5bd
00000310: d8d5 2f3d ba92 e3bd b182 a63e 1199 bc3e
00000320: e435 2e3d ec39 75be 4498 bebe 8363 4c3e
00000330: b501 c33e 2cf3 6fbd 3c78 9dbd 68d0 2cbe
00000340: 02bd 44bd c370 21bb 7f88 2abe 35e4 a33e
00000350: ac8d bc3e 8781 96be 1dab cc3d f263 58be
00000360: 34cc c43e 987b d03d bc29 e23b ba93 143e
00000370: 35c9 bbbe 4bad 853d 293c aa3e d9b4 6c3e
00000380: 2413 dd3c 6e83 d0bd 0901 4bbe 05db 953e
00000390: 5972 c23e 759e c03e ea62 983e 48a9 973e
000003a0: cac9 cebd 6f5f 28be 573e 9b3e 8028 443c
000003b0: 95b8 bb3d 738e 5bbe ce7b 763d c22f 8c3d
000003c0: bf47 9bbe ba9d bbbe aaa4 1c3e fe13 8ebe
000003d0: 0aeb a03d 0264 2bbe 26bb 35be dc8d 2abb
000003e0: 7103 203e 2465 88bd 4907 84be 61ef 0ebd
000003f0: 1ad6 32be 548c c43d 30fe 4f3e cb4d 1d3e
0.258122 -0.37715283 0.38909167 -0.14453028 0.081407614 0.0932677 0.38002473 0.25199473
0.116433494 -0.40696535 -0.20288725 -0.05035008 0.23847288 0.32486808 -0.3037178 0.17761455
0.16550742 0.20044422 -0.3042043 -0.25564086 0.37668678 -0.29052067 -0.10302696 0.03610179
0.36032724 -0.34281793 -0.2597553 0.0235139 -0.35990813 -0.12585616 -0.16792631 0.2362497
0.29880026 -0.29994404 0.18409225 0.060375154 -0.09715425 0.23040926 -0.03923759 -0.26294845
0.14119753 -0.030741457 -0.060529742 -0.20396402 -0.13117512 0.018612532 -0.42253852 0.19539487
0.13829309 0.1907445 0.39761916 -0.097977296 0.22398123 0.008897066 0.008759134 -0.0379951
-0.3071333 -0.22226231 0.22284956 0.36576894 -0.33742166 -0.20851742 -0.28769678 0.09421237
-0.18156366 0.1481091 0.38512546 -0.00017003514 -0.23905815 0.17879924 -0.05128854 0.10069482
-0.29774585 -0.33215573 -0.109610796 0.100770295 0.23620185 0.0053258766 0.11599587 -0.13678607
0.15087755 0.103114426 0.1797812 0.13158406 -0.30613804 -0.097434 0.2728954 -0.020018
0.07206276 0.19205698 -0.12729967 0.2912057 0.2201822 0.049549785 -0.101810776 0.050710153
-0.013627581 -0.23676908 -0.4364473 0.35933912 0.12412152 0.17103758 -0.32167605 0.2041284
-0.24566887 0.1514711 0.27227587 -0.41518632 -0.22686477 -0.27736017 -0.11666347 -0.030545782
0.035428807 -0.07745908 0.040985484 0.054984227 0.17140958 0.045895252 0.34871927 0.30844074
0.15548064 -0.0633694 -0.07255 0.294487 -0.1588461 0.19373858 -0.30185488 -0.2663617
-0.101369895 0.1675414 -0.34595037 0.18298116 -0.22346157 -0.14687635 -0.29869935 0.07745052
-0.364586 -0.026473563 0.2564795 0.20439114 -0.28271168 0.37091276 0.29827434 0.28085473
-0.25817126 0.2181437 0.29840043 -0.10891676 0.10730289 -0.110984445 -0.26897156 0.37848988
0.3634444 0.014254499 0.27894276 -0.39283115 0.09160005 0.35154095 0.19981413 -0.33671218
-0.014877236 -0.17345838 -0.09667547 -0.25094664 0.23985165 0.13268842 0.299784 0.2819712
0.38520554 0.14928916 -0.039997406 0.122329354 0.07412419 -0.13021582 -0.14263815 0.3855451
0.358157 -0.2825458 -0.07693755 0.24212228 0.19706725 0.28807667 -0.38932085 0.38947755
0.16303448 0.3827828 0.07342065 -0.19574782 0.23329434 -0.2029651 0.3558264 -0.2953801
0.00012596787 0.3073362 0.10246758 -0.080934785 0.042928547 -0.1111197 0.32521585 0.3683553
0.042531863 -0.23947877 -0.37225544 0.19959836 0.3808724 -0.058581516 -0.076889485 -0.16876376
-0.048031814 -0.0024633862 -0.16653632 0.32010046 0.36826837 -0.29395697 0.09993575 -0.21131876
0.38437045 0.10179824 0.006901948 0.14509478 -0.36676946 0.06527194 0.33249024 0.23115863
0.026986666 -0.10181318 -0.19824614 0.2926866 0.37977865 0.37620893 0.29762965 0.2962134
-0.10097082 -0.16442655 0.30321 0.011972547 0.091660656 -0.21441059 0.060176663 0.068450466
-0.30328175 -0.36643773 0.1529719 -0.27749628 0.0785733 -0.16737369 -0.17747173 -0.0026024496
0.15626313 -0.06659916 -0.25786808 -0.03489626 -0.17464486 0.09597078 0.20311809 0.15361707

encoder.actor_encoder.net.mlp.2.weight f4 [256, 256]
00000000: 8d31 393d cafa 233d fb02 693b 8152 a13d
00000010: 474f 803c 9b4d 293d 6449 5dbc 2c8b 29bb
00000020: 275f 91bc 6e2f debc 95e1 d2bc 0a08 2fbd
00000030: 9de2 52bd 2fb9 52bd 1269 e13b 242d a1bc
00000040: 666f 75bd 5048 a33a 65d3 2bbd b909 23bd
00000050: 3516 0dbc 45af 23bd 9835 09bd f73b 4fbd
00000060: 6ebe 513c f0f6 e73b 580b 4b3d e8be 683b
00000070: 8e85 893d 6fbd 25bd cf96 253d cb04 6a3d
00000080: 0d64 59bd 8046 953d b082 833d e672 4f3d
00000090: d477 8f3d 628a 01bd e3e7 09bd f7d5 153d
000000a0: b74f 13bd 71c4 4c3d 3cb3 d83b c896 a0bc
000000b0: 00ac 4dbd 504c 683d ceac 4a3d 78fd a53d
000000c0: ba43 c9bc c5be f93c 38fb 343d 1918 b13c
000000d0: bbde 01bd 8679 a33b 3646 07bc 4893 40bd
000000e0: 5eb8 35ba 22ae b13c fab1 663b 9b9f 68bd
000000f0: 940a 0c3c 8cba a23d 6908 6c3c e371 653d
00000100: bbcf 903d 355f 4c3d 9c16 55bb 34a5 e3bc
00000110: 9fa4 8bbc 19d0 11bd b0a5 d7bc 7189 803d
00000120: d09d 3bbd 752d f3bc bfca 103d 5fe5 d1bc
00000130: 9238 5d3c d30d 9dbc 76fb 5a3d 8210 9d3b
00000140: a82f 843c b0e5 323d 45c2 483d 16d5 4b3d
00000150: 3c35 ee3c f588 1d3d 6e33 85bd debb 5cbd
00000160: 925a 6fbc f47f 123d e3d1 6b3d 3f64 1d3d
00000170: e3c2 c83c 05d7 50bd 6c85 6d3d 783f 043d
00000180: 0694 a0bd a9f1 04bc 86d9 6ebd a8eb 273d
00000190: 8b65 473d d0d8 363a 2cfa 0abd 763d 3a3d
000001a0: 4777 4c3c 9726 70bc 3266 67ba 6c94 253c
000001b0: 1606 8ebb e095 6f3d 3b48 6c3c 8532 813b
000001c0: db1d 813d 2664 f53c d62a 31bc 229b 12bd
000001d0: c55f 09bd b1a1 5d3d 1a5e f23c e44d 833d
000001e0: a72b 033d 356c 553d c168 583b d492 8fbd
000001f0: 77b4 a1bd f473 6e3c 57d1 8cbc ba8f ebbc
00000200: 1241 35bd 70ae 473d 3d2d 9bbc 2d59 353d
00000210: 4ebd 60bd efc7 f23b 42c4 4ebd 3cec 11bc
00000220: e7f1 0a3d 0e2b 463d 1dc5 fd3c adf1 a1bc
00000230: 6156 b6bc b0df 59bd 8b52 40bc 5c44 833d
00000240: ff3c cc3c eea5 0d3d 39d9 ae3d 2881 853d
00000250: 7dfd ed3c 9fd4 263d a87d 153b 320e b83c
00000260: 364b 18ba f117 35bd 692f 1b3c 43c8 873d
00000270: 0e86 103d 2dc3 05bd b604 7abc e3df 803d
00000280: ac0b a83c f484 5a3d 143c 573c 2378 e03c
00000290: 0462 003d 21d2 28bd 2454 a1bc fa1e 6f3d
000002a0: 53b3 833c 9d7c aabc 157b 2cbc 5a6b 313b
000002b0: d73a 6c3d 2540 15bc a36b cbbb a658 e23c
000002c0: c12c 90bd b447 3fbd 110c 983c 80fc 053d
000002d0: 002a 97bb c061 f43c 5d24 7bbc 7217 b1bd
000002e0: 55fe 863d dbc4 4ebd 5387 563d caf2 cd3c
000002f0: 3a60 0c3d bba1 2a3d 720d 29bd 57f3 a13c
00000300: 6b90 1fbd 0d08 de3c f14b 5bbc bbc5 1ebd
00000310: c2ac 4d3d ce3b 563d 84ca 573d d3a8 813c
00000320: 2e84 32bc 56be 4e3d e9e0 893d 7045 273b
00000330: 5a79 8c3b 779f 903d c357 35bd 0e46 47bc
00000340: a1ca 113d ac28 ebbc 877d d93c b207 90bb
00000350: 8780 cbbb 8064 10bd ff87 2b3d 2da0 56bd
00000360: 8aa0 babb ea09 03bd 52d9 b2bc 689b 0d3c
00000370: 14ba 52bd 42eb 9b3c c4cf 55bd 0c27 153b
00000380: f7ee ec3c 8ddb efbc 7d5d 3abc 902e 32bd
00000390: 652b 03bc 7cfc d93c 4b5a cbbd 39c8 623d
000003a0: 8b4a 8b3c 0447 d63c a834 cebc e4ab e5bb
000003b0: 7a7b 803c e4fc 463d 3022 843c d56c cbbc
000003c0: fad6 323d 99f2 07bc 4972 4c3c 64d3 88bd
000003d0: c14e 4bbd ae5c 90bc b228 9fbc 3068 1ebd
000003e0: eefe 65bd f50b 953c 1067 3fbc 3382 c63d
000003f0: 3804 74bd 8bcc 043d 6b92 ac3c 4841 2b3d
0.04521327 0.040034093 0.0035554755 0.078770645 0.015662802 0.041333776 -0.013506267 -0.0025870306
-0.017745567 -0.027122226 -0.025742332 -0.042732276 -0.051485647 -0.051446136 0.0068789804 -0.019674845
-0.05992069 0.0012457464 -0.04194965 -0.039804194 -0.008611252 -0.039962072 -0.033498377 -0.050594296
0.01280175 0.007078998 0.049571365 0.003551418 0.06714927 -0.04046386 0.040427025 0.057133477
-0.05307393 0.072888374 0.06421411 0.050646685 0.07005277 -0.031626113 -0.03366841 0.036581006
-0.035964694 0.04999203 0.0066131633 -0.019603148 -0.05021286 0.056713402 0.049481206 0.08104986
-0.024568427 0.030486474 0.044184893 0.021617936 -0.031706553 0.004988852 -0.008256486 -0.04701546
-0.0006932075 0.021689478 0.0035201297 -0.056792837 0.008547444 0.07945737 0.014406302 0.056016814
0.070708714 0.049895484 -0.0032514697 -0.027788736 -0.01704627 -0.035598848 -0.026324123 0.06276215
-0.0458048 -0.029684762 0.035349604 -0.025622068 0.013502257 -0.019171631 0.053462468 0.0047932277
0.016136006 0.04367608 0.049013395 0.04976376 0.029078119 0.03846069 -0.0650395 -0.0538901
-0.014608996 0.035766557 0.05757321 0.03842568 0.024506992 -0.05098631 0.05798857 0.03228709
-0.07840733 -0.008114257 -0.058312915 0.040996224 0.048680823 0.00069750566 -0.03392999 0.04546877
0.01247961 -0.014657638 -0.0008827179 0.010106187 -0.0043342216 0.05849254 0.014421518 0.00394279
0.063045226 0.029954981 -0.010813436 -0.035792477 -0.0335386 0.05410928 0.029585887 0.06411341
0.032024052 0.052105147 0.0033021423 -0.07010427 -0.07895749 0.014554013 -0.017189665 -0.028755058
-0.04425151 0.04875034 -0.01894247 0.044274498 -0.054868035 0.007409088 -0.050480135 -0.00890642
0.033922102 0.048380904 0.03097778 -0.01976856 -0.022257986 -0.05319184 -0.01173843 0.06409523
0.024931429 0.03458207 0.08537526 0.06518775 0.029051537 0.040730115 0.0022810493 0.022467706
-0.0005809547 -0.044212285 0.009471753 0.06629994 0.035284095 -0.032656837 -0.015259912 0.06292703
0.020513378 0.05334945 0.013136882 0.027401036 0.031343475 -0.04121602 -0.019693442 0.05837915
0.01607672 -0.020811373 -0.010527392 0.0027072043 0.0576733 -0.0091095315 -0.0062078997 0.027630161
-0.07039786 -0.04669924 0.018560441 0.032711506 -0.004613161 0.029831767 -0.015328494 -0.0864705
0.06591479 -0.050480705 0.05237515 0.025140185 0.034271456 0.041658144 -0.041272588 0.019769354
-0.038956087 0.027103448 -0.013384805 -0.03876279 0.050213583 0.052303128 0.05268337 0.015827572
-0.010895772 0.050474487 0.06732351 0.0025523566 0.004286927 0.070616655 -0.04427315 -0.012162698
0.035593633 -0.028705917 0.026549114 -0.0043954486 -0.00621039 -0.035252094 0.041877743 -0.05239885
-0.0056954073 -0.031991877 -0.021832142 0.008643009 -0.05144699 0.019033078 -0.052200094 0.002275887
0.028922541 -0.029279495 -0.011374828 -0.043501437 -0.0080059515 0.026609652 -0.099293314 0.05536673
0.017003318 0.02615691 -0.025171593 -0.0070090163 0.015683878 0.04858102 0.016129583 -0.024832169
0.04366205 -0.008297586 0.01247842 -0.066809446 -0.049635652 -0.017622318 -0.019428585 -0.03867358
-0.056151323 0.018194178 -0.011682287 0.09692802 -0.059574336 0.03242163 0.021065911 0.041810304

encoder.actor_encoder.net.mlp.2.bias f4 [256]
00000000: 0b8a 71bb a4dc 803d 6975 a4bc a050 d9bc
00000010: 573b 203d 34e0 afbb d1a4 323b cda3 fe3c
00000020: 0942 843b 858e 093d c101 00bd 7ac8 563b
00000030: c956 893a ec24 6dbc fad6 81bd e338 503c
00000040: 4453 563d b736 91bd b58c 1ebd 6848 a5bd
00000050: ba7e 073c bb02 e83c 4ef9 983d 11ab 7fbd
00000060: d396 013d 6cf0 80bd eaac ca3c 2bde f0bc
00000070: fca5 ca3c e1b8 333d cf2c 05bd a0a4 dcb8
00000080: 45e9 34bd a6c4 bdbc 80b9 b2bb e3f7 8abd
00000090: 8a10 363d 3301 d33c 1437 0c3d 2464 03bb
000000a0: b5c2 f73c a7d2 433d ba27 673c 01cd 063c
000000b0: 9b89 063d 760f 14bd 61ce 123d 351d 37bd
000000c0: 3bac 933d 68bf 42bd 7435 23bd 1eb3 69bc
000000d0: cfad f13b dc4a 443c ae13 61bc bcdc 17bd
000000e0: d9ed 283d 23e2 473d 6128 f4bc eb8a 51bc
000000f0: 0a4c fabc 3602 823d c36a 81bc e61a 143d
00000100: 003e 8eba 90c1 cdbc 4cea 743c c458 f23c
00000110: 876f 0f3c 107f c0bc 6ab3 123d 2adc 0f3d
00000120: dc1e 3fbc 0220 8cbd 6592 dd3c 371d d03c
00000130: df23 44bb 72ac 0d3c 3c24 193a a30b cf3b
00000140: 5134 383d c5a4 403d 6bc7 443d d56a 483d
00000150: 45be 833c 9dd9 14bd d773 45bb 82c6 843c
00000160: 1899 37bd 3c4f d23c 8bfc 80bc 0ee1 3cbc
00000170: b4a4 eb3c 5d38 303c 16e1 24bd f953 b33b
00000180: 4ad9 39bd b627 513b b875 2a3d 4fd5 13bd
00000190: ef3a edbc 0e44 f8bc 3fd6 d2bc b1a9 003d
000001a0: fade 673d 4ebf 8dbc 1ce6 04bd 85d4 febb
000001b0: a648 6a3c 8868 47bc d521 d83c 6f0a e6bc
000001c0: e016 e63c 4cee 62bc e573 193c cf96 bdbc
000001d0: 4d16 3f3d 2b27 d8bc 231b 2a3d 2e2c 113c
000001e0: 9870 b43c 941e 2cbd eb53 283d ab40 063d
000001f0: 230f 08bd f6bf ea3b 6d25 1d3d 15b0 15bd
00000200: 62ac f8bc 9a83 373d bd40 753b c700 0d3c
00000210: fe73 e6bc eed3 023d 67c2 333d 4f6c b1bc
00000220: b9d8 4e3d 80ef e1bc af55 19bd 9834 2dbd
00000230: 20dd 72bc 445b 9a3c c65d 22bd 8f7f e63b
00000240: 08c3 903c 47c7 dd3b baf6 90bd 6e0a 4dbd
00000250: a20c fb3c ab6a 43bd 20c0 bcbb 568c 4fbb
00000260: 5080 8dbc b359 213d 4009 b7bc 6b6d 3f3d
00000270: e9dd 193c 54a5 3dbd 6dd5 bc3c dc95 3e3c
00000280: 4564 83bc 1452 d93c 47e4 4b3d cc86 8bbc
00000290: 85cf dfbc 8906 503d c3c0 d63c 4e72 0dbd
000002a0: e637 40bd e427 ffbc 7a8c 0a3d 49a7 b13c
000002b0: 3d3e 21bd 0972 cbbc 0777 10bd e706 3cbd
000002c0: 6544 c6bc e468 48bd 4529 a33c 2677 d53c
000002d0: e4d6 eebc 8086 e5bc 0234 92bd 8cf1 6fbd
000002e0: 76bc 0dbc 76dd 363d 8831 6ebd 9e14 043d
000002f0: 997b cebc 8be8 e43c a87b 49bd 24e2 d13b
00000300: a330 0bbd b490 79bc 985a 163b 6a7c f03b
00000310: 93f6 4c3c 3213 1c3d 7b81 b13c 832d 86bd
00000320: 6f4c 293d 0c93 8ebd fc98 213d 032a e9bc
00000330: 4bd6 713d d52b 8a3c 58a3 573d 6e7d 68bd
00000340: 6285 443a 7ef1 47bd fd3e 54bc a251 083d
00000350: 7dfd e4bb 226d b2bc e2a2 263d 0868 57bc
00000360: 739f 2fbd e86c ac3c 9a40 b0bb cc96 ccbc
00000370: f62a 653b 009f 573d 6123 853c bf04 393c
00000380: 4dc5 553d 6e22 75bd 384a ec3c 53f7 483a
00000390: f16f 3dbd 240f 333d 5666 763d e510 5a3d
000003a0: 683d 9fbc 5dc1 6fbc 417b 69bd 115c 2bbc
000003b0: 48c6 f2bc 9f36 20bd d487 4d3d 3214 b3bc
000003c0: 63d1 abbc fcdd f0bc 4f14 853d c83f 08bc
000003d0: 5687 6bbd b0f5 fb3a c3a4 aebd 22da ac3b
000003e0: 5e79 7c3d a67e e9bc 8db1 bd3c ec2f 2dbb
000003f0: c0c9 8b3d 2cb7 993d 129d bcbc 1f70 45bb
-0.0036855962 0.06292084 -0.020075517 -0.026527703 0.03911909 -0.0053673033 0.0027258883 0.031083966
0.0040361923 0.033583183 -0.031251673 0.0032773302 0.0010478134 -0.014474135 -0.06339832 0.012708875
0.052325502 -0.07090514 -0.038708407 -0.08070451 0.00826996 0.028321614 0.07469426 -0.062419
0.031637978 -0.06295857 0.024740655 -0.029402813 0.02473735 0.043877486 -0.032513436 -0.00010521081
-0.044167776 -0.023165058 -0.005454242 -0.06785562 0.044449367 0.025757408 0.034232214 -0.0020048702
0.03024421 0.047808316 0.014108593 0.008227588 0.032846075 -0.036147557 0.03584135 -0.04470559
0.07210585 -0.04754582 -0.0398459 -0.014263896 0.007375456 0.0119807385 -0.013737602 -0.037075743
0.041242454 0.048799645 -0.02980441 -0.012789468 -0.030553836 0.06348078 -0.015797978 0.036158465
-0.0010852218 -0.025116712 0.014948439 0.029583342 0.008754618 -0.023498088 0.035815634 0.035122074
-0.011665072 -0.068420425 0.027047345 0.025404556 -0.0029928607 0.008647071 0.0005841886 0.006318526
0.044971768 0.047032136 0.048041742 0.048930008 0.016081939 -0.036340345 -0.003012886 0.016207937
-0.044823736 0.025672548 -0.015745422 -0.011528267 0.02876506 0.010755626 -0.04025372 0.005472657
-0.04537324 0.0031914539 0.04161617 -0.0360921 -0.028958766 -0.030305889 -0.025736926 0.03141183
0.05660913 -0.017303135 -0.032446012 -0.007776799 0.014299547 -0.012170918 0.02638332 -0.028081147
0.02808708 -0.01385076 0.00936601 -0.0231432 0.046652127 -0.026385864 0.041529786 0.008860631
0.022026345 -0.04202135 0.041095655 0.032776516 -0.03321756 0.007163997 0.03836577 -0.036544878
-0.030355636 0.04480324 0.003742262 0.008606142 -0.028131481 0.031940393 0.04388657 -0.02165809
0.05049965 -0.027580023 -0.03743523 -0.042286485 -0.014823228 0.018842347 -0.03964021 0.007034249
0.017671123 0.0067681405 -0.07078309 -0.050058775 0.030645672 -0.04770915 -0.005760208 -0.003166934
-0.017273098 0.039392184 -0.022343278 0.04673521 0.009391286 -0.046300247 0.023050988 0.011632409
-0.016039023 0.026528396 0.04977825 -0.01703205 -0.027320633 0.050787482 0.026214963 -0.034532838
-0.04692831 -0.031146951 0.033825375 0.021686213 -0.039365996 -0.02483465 -0.035269763 -0.04590502
-0.024202535 -0.048928156 0.01991714 0.026057791 -0.029155202 -0.028018236 -0.07138826 -0.058579966
-0.00865089 0.044644795 -0.058152705 0.032246225 -0.02520542 0.027942916 -0.049190193 0.006405132
-0.03398193 -0.015232254 0.0022942182 0.00733905 0.01250996 0.038104244 0.021668186 -0.065516494
0.04133266 -0.06961641 0.039452538 -0.028462416 0.059042256 0.016866604 0.05264601 -0.056760244
0.0007496682 -0.04881429 -0.012954471 0.033280976 -0.006988226 -0.021780554 0.04068268 -0.013147362
-0.042876672 0.021048024 -0.005378795 -0.02497425 0.0034968234 0.05264187 0.016252222 0.011292635
0.052190114 -0.059847288 0.028843984 0.0007666249 -0.046249334 0.04371561 0.06015619 0.053238768
-0.01943846 -0.014633504 -0.05700231 -0.010458962 -0.029635563 -0.03911459 0.050178364 -0.021860216
-0.020973867 -0.029402725 0.06498014 -0.008315988 -0.057502113 0.0019223001 -0.085275196 0.005275027
0.061639182 -0.028502773 0.023155952 -0.0026426269 0.0682559 0.075056404 -0.023024116 -0.0030126644

encoder.critic_encoder.net.mlp.0.weight f4 [256, 7]
00000000: 70a1 8a3e 4613 17bd f0f9 dbbe 916f c0be
00000010: 4762 563e bc82 0ebe 61e1 94be 102c 16bd
00000020: c972 a7be 0ee6 9e3e c619 71be 5967 87be
00000030: 265c 4f3e d52f 993d be8b 73bd 20a7 9ebe
00000040: 3285 573e b3f3 aabe 3b81 6a3d 8d48 cb3e
00000050: abf1 1fbe 1531 dabd c16a a2be 7411 7ebe
00000060: 5aad dcbe eaf8 fbbe ccd9 373e add6 be3e
00000070: cb5b 5e3a 18e4 f33c 2889 a83e 0300 78bd
00000080: d4f3 f63c 3a2f 9ebe 00ad 82be 3797 e93e
00000090: 08de 08be 411a d53e a95a e73e 43ce 683e
000000a0: 5bd9 13be 19d5 063d 26cf e2be c5eb 8d3c
000000b0: 19e9 6fbe c9f0 c9be 6bc1 07be e622 303e
000000c0: abb9 9d3c c5ff a03e 90a8 1ebe 2f00 a4bd
000000d0: 5625 b5bd cb25 8b3c 46bb 9fbe faff 27be
000000e0: 700d 0ebe 3e56 903e 05c4 a3be 7dff b0be
000000f0: 2234 4c3e d43b 3ebe 5389 d0be 6f02 883e
00000100: 1b1a a7be 5afc be3d d7a1 3dbe 4791 6c3e
00000110: f624 e7bd 8e88 21be 67bc 4d3e 2408 ba3e
00000120: 74f3 053e 2d27 09be c847 4abe c3d0 b93d
00000130: c8ec 3f3d e46f a3be 094c 0cbe e965 a63d
00000140: 34fe 833e 49d8 44be 9652 58be 7240 29be
00000150: 6407 b2be fd3a 183e fc52 37be 76ea a13e
00000160: d2a6 883e c505 e6bd abcb 8f3d c1fa c3be
00000170: 3a8e 073e aa8e 533e fdf9 5b3d 9396 733e
00000180: 9a6a 773e 65aa 27be b258 a03e 7dd3 953e
00000190: df96 2abe 3c15 1dbe 414d ebbd dd64 ca3e
000001a0: 7848 af3e 68a4 b03e 3046 9bbe 68f1 723b
000001b0: 6f74 bb3d 03ff 9e3e 455f 5d3e f6a2 77be
000001c0: e067 043e c0da 183e e6b7 713e b98b c53e
000001d0: 900d 3b3e c40b a63e cdf1 8b3d 30de d93e
000001e0: b7f4 2cbe 1c00 683e 7b78 9f3d f2f4 493c
000001f0: 7313 47be 4a46 f83e d9e4 a0bd 6acc 503c
00000200: a5b4 bebd 060a c4be 663c 03be 76cd 89be
00000210: 3b0b 19be 346e b63e f829 8d3e a3d0 a43e
00000220: d711 4fbc b156 e03d 3a85 8c3d c27c 95be
00000230: 31b3 9a3e f076 adbe ca7a b0be 5a7e 5cbe
00000240: 75af 11be 8929 8abc 68d3 39be 2372 063e
00000250: 0c2a 8d3e c025 b1be 1819 c6bc cfab 30be
00000260: cc8b 8b3d 13b4 6abe 395e 0cbe 0ec9 7e3e
00000270: 024e cdbe 8499 4f3e 9cb6 abbc 811c 03be
00000280: 2caf cbbe 4dda 9b39 216a 52be a132 8b3d
00000290: ac4f c93e 2a8c 8abe 1a29 b43e 5b96 84be
000002a0: 9c8d b7bd e5a6 bcbd aedc 8abe 8b84 ce3e
000002b0: d9c8 7abd b3d2 d53e 4874 1cbe fc99 0cbe
000002c0: fa87 10be 5103 b83d 17e1 81bd 579c 02bd
000002d0: 06cd cebd bf62 b9be b046 3c3e 7d7d 72bd
000002e0: 5469 ce3e 4ffc 28be 87ad c7bd de29 c8bd
000002f0: a485 913e 13db a0be 93da 9cbd 6a25 a3bb
00000300: 578e afbe 6e27 9c3e 2b6d a5be b417 96bd
00000310: c16b 153e 6f99 25be 9942 30bd 22c9 233e
00000320: 00fd 4cbd 46b9 573e 70c9 30be 214f 55bd
00000330: b090 403e 2c40 b1bd c2c1 cbbe a68e 64be
00000340: bec1 953d 0f4c c1be 9cb2 a3be a8db 8b3e
00000350: 6f3d acbe 319d 89be c805 aebe 2e7e 4fbe
00000360: b870 9f3e ef2c f83d a505 0fbe 76be 43be
00000370: 65e6 453d 08d3 4e3c 4962 ba3e 5680 cf3e
00000380: dd49 e2be cfb6 023e 4744 883e e365 3b3c
00000390: e44c 93bd 6308 a23e 5725 f1bb 7c09 1a3e
000003a0: 748f 463e b874 fbbd e957 15be 2614 433e
000003b0: 38f8 42be 72f5 c7be 1fb6 b5bd 744a d03d
000003c0: bfa0 05be a155 bb3d 45b6 fbbd b9a9 b43e
000003d0: 7d2a 023d 4b46 96be fe76 833e 97a4 0e3d
000003e0: 644a 873e 05dc afbe 1ae4 c7bc 8d81 1ebe
000003f0: bc16 ab3e 4de6 563d b9c6 7dbd 0f52 6bbe
0.27076292 -0.036883615 -0.42964125 -0.37585118 0.20935927 -0.13917059 -0.290782 -0.036663115
-0.32704762 0.31034893 -0.23544988 -0.26446036 0.20249996 0.07479826 -0.05945944 -0.3098688
0.21046904 -0.33389053 0.05725215 0.3970379 -0.15619533 -0.10653893 -0.31722072 -0.24811345
-0.43101007 -0.49213344 0.17954177 0.3727316 0.0008482306 0.02977185 0.32917142 -0.060546886
0.030145563 -0.30895406 -0.25522614 0.4562318 -0.13365948 0.41621593 0.45186356 0.22734933
-0.14438383 0.03291807 -0.44298667 0.017324338 -0.23428763 -0.39441517 -0.13257377 0.17200813
0.019253572 0.31445137 -0.15493989 -0.080078475 -0.08845012 0.016985795 -0.31197566 -0.16406241
-0.13872313 0.28190798 -0.3198549 -0.34569922 0.19941762 -0.1857751 -0.4072977 0.26564357
-0.32637104 0.09325476 -0.18518768 0.23102294 -0.112863466 -0.15774748 0.20091401 0.36334336
0.13081151 -0.1339385 -0.19753945 0.09073021 0.04685667 -0.31921303 -0.1370088 0.081249066
0.2577988 -0.19223131 -0.21125254 -0.1652849 -0.34771264 0.14866252 -0.1790275 0.31624192
0.26689774 -0.11231569 0.070212685 -0.38277248 0.13237849 0.20659891 0.053705204 0.23787908
0.24161759 -0.16373594 0.3131767 0.29262915 -0.16659115 -0.15340132 -0.114893444 0.39530078
0.34234977 0.34500432 -0.30326986 0.003707016 0.09153067 0.31053934 0.21618374 -0.24183258
0.1293025 0.14927197 0.23605308 0.38583162 0.18266892 0.3243085 0.06833229 0.42552328
-0.16890226 0.22656292 0.07786652 0.012326466 -0.19441013 0.48491126 -0.07856149 0.012744049
-0.09311799 -0.38288897 -0.12816009 -0.26914567 -0.1494569 0.35630953 0.27571082 0.32190427
-0.012638531 0.10954035 0.068613485 -0.29196745 0.30214837 -0.33879805 -0.3446868 -0.21532574
-0.14227088 -0.016865509 -0.18147051 0.13129477 0.27571142 -0.34599113 -0.024181888 -0.1725304
0.068137735 -0.22920255 -0.13707818 0.24881384 -0.40098578 0.20273405 -0.020961098 -0.12803842
-0.39782083 0.0002972655 -0.20548297 0.06796766 0.39318597 -0.27060062 0.35187608 -0.25895962
-0.08962557 -0.0921152 -0.2712149 0.40335497 -0.0612267 0.41762313 -0.15278733 -0.13730615
-0.14114371 0.089850076 -0.063417606 -0.03188738 -0.10097699 -0.3620815 0.1838634 -0.059201706
0.40314734 -0.16502498 -0.097498946 -0.097736105 0.28422272 -0.3141714 -0.07658877 -0.0049788253
-0.34288284 0.30498832 -0.3230985 -0.0732874 0.14591886 -0.16171812 -0.043032262 0.15994695
-0.050045967 0.2106677 -0.17264342 -0.052077416 0.18805194 -0.08654818 -0.39796263 -0.22320041
0.07312344 -0.3775334 -0.31972206 0.27316022 -0.3364062 -0.2687774 -0.33988786 -0.20262977
0.31140685 0.121179454 -0.13966997 -0.19115624 0.048315424 0.012623556 0.3640311 0.405276
-0.44196978 0.12765048 0.2661459 0.011437866 -0.071924 0.31647024 -0.0073591876 0.1504268
0.1939066 -0.12278122 -0.14584316 0.19050655 -0.1904 -0.39054447 -0.088726275 0.10170451
-0.13049601 0.09147192 -0.122906245 0.35285738 0.0317788 -0.29350504 0.2567672 0.034824934
0.26423943 -0.3434755 -0.02440076 -0.15479107 0.33415782 0.052465726 -0.061957095 -0.22980522

encoder.critic_encoder.net.mlp.0.bias f4 [256]
00000000: b5ea aabe 6f80 f33d 79a7 63be 6370 273e
00000010: 272a 14be 5c5e 943e cd74 813e 9cf1 a0be
00000020: 9b03 bf3d d21e 7abd a5b8 ad3d e9a1 c13c
00000030: 89bd 803c 99f0 39bd 5055 0e3e c38e 76be
00000040: c02b 11ba 078d f0bd 3d63 a5be 863f 2f3e
00000050: d9ef 2ebc 05cb fe3c e03f 7bbd 0766 d23c
00000060: 634c 8b3e 1b9a ccbd 2c53 883e 6ccb c7be
00000070: a8d2 c13e 3b58 023d 913e 633e 2626 e53d
00000080: ad91 9e3e 66c9 853c 4e0e 73be 2d5e 6f3e
00000090: 97e5 993e 1a59 2a3e dd49 0cbe a209 2fbe
000000a0: 2a36 323e 52d3 43be 8b2f 5dbe 250d c93e
000000b0: d43d 3cbe 81a9 723d 99eb 723e 0fac 5f3e
000000c0: bb60 a63e 7f29 5fbc adb4 003e 8264 5dbe
000000d0: e38f 83be b5fd aebe 4110 4dbe e240 4fbd
000000e0: 3cee 1cbe 4e7d 3a3e 7ac2 27be cde6 8c3e
000000f0: 6129 47be a978 a23d 5be7 9f3e b3a6 d0bd
00000100: ea75 4d3e df00 923e ff34 9fbe aea0 8ebe
00000110: 749e 253e f78a 86be b6ed b2bc 6bb7 f63c
00000120: cd3e 8dbe 9255 c83e 6178 4d3d d1d1 363e
00000130: 2a12 603e fd48 693d 4f99 253e 1948 93be
00000140: 4185 43be 8194 b93e f33d a6be 3762 973d
00000150: f923 74be 1ff9 363d 5fd5 36be 458e 223e
00000160: db5b ba3e 8564 9c3e 6911 af3e c9c9 95be
00000170: 1621 373e e853 7f3e eff2 bbbc 28bb 9b3e
00000180: a7ea 8dbd 1c72 70be 5392 76be 0482 49be
00000190: f22c e4bd 1e39 153d 679b 95be a646 94be
000001a0: 5501 b7bd 1cf3 353e f9a6 b7be 9c7c 5dbe
000001b0: fac8 c7bd 9e7c 293e 8dae 80bd 6876 213e
000001c0: 419b 79bc 7ac9 a0be d178 0cbe b7b9 163e
000001d0: 7a1f e83d df8b bbbb 72ae 003d fdb7 71be
000001e0: dd57 ab3d 07b0 d2be ee03 8bbe 23f9 ab3d
000001f0: 4621 a73e 7470 c7bd 25dc 2a3e 7636 4fbd
00000200: 3116 19be f296 a53d 08ba f2be ebab 153e
00000210: fb5f 31bd 4dc3 ce3e 0d6d 0d3e f628 aa3e
00000220: 5f9a 493e 6048 a2be 84e5 5dbb 25f7 e83d
00000230: 6553 1ebe 3196 63be c370 b5bd 23d3 af3e
00000240: 49db c83d 80a7 0ebe e9bb 8dbe 4a64 a43e
00000250: a815 c4bd f8a9 a7be 2286 babc 406d 8b3c
00000260: 724c b0be 4f84 9cbe df79 b5be 49f1 b1bd
00000270: c22f e83d bc89 843e 9c90 8bbe ceac 78bd
00000280: f149 37be bdcc c2bd fdf1 1fbe f3c8 8d3e
00000290: f7b4 fdbd 8408 27be 412e 3dbe 082c 94be
000002a0: 5cbc 57be 6846 53be dea0 ae3e 704d 53be
000002b0: da9a 8e3e 1923 7bbe 48f5 71be 1e61 cbbe
000002c0: 149e cb3e 5ce2 803e c4bc 443e f6a8 0e3e
000002d0: 3c7b 883e 9c3d e0bd fcba d1bd f988 893d
000002e0: e905 b8bd 9a27 bdbe 18c9 0fbd 4162 fc3d
000002f0: 1124 083d dd8c 5dbe f58f 523e 0aed afbe
00000300: a312 90be 09f8 b5be 1349 31be a934 493e
00000310: 2f11 45be bc84 f73d d49d 873e 2d9c 73be
00000320: 513b d0be 5f37 acbd 4684 3dbc df95 8bbd
00000330: 4a88 a23e 8ca1 0fbe 462d 663e 74c9 8f3e
00000340: 0137 333e c51f b5bc 355b e8bd 4a62 45be
00000350: 0f21 a1be 9a9e a93e b5a0 83be cb74 833e
00000360: 6f7e 51be 5f0c 84be 916f c6bd 1c87 0fbe
00000370: 1f31 af3d 696a 0f3e b9de 7e3e d498 b23e
00000380: 8b58 8e3e 6cb7 943d 8c85 44be 95c9 9ebe
00000390: e6e0 35be c200 cb3e 1a7c 99be 7ab8 6d3e
000003a0: 98a0 623e c68c 4dbe af76 69bc b055 cc3d
000003b0: 935c 8dbe 79bd 21be 42cb 213e c5dd 083e
000003c0: 90b6 d93d b39f 92bd a5ac 13be 6cb1 233e
000003d0: 2296 3a3d 45ac 38bd afe0 963b 116d a53e
000003e0: 873b 433e 3af9 b5be 7d3f f9bd 7413 e73d
000003f0: af15 923e abcd d1be 4004 bf3c b832 d8bd
-0.33382192 0.11889731 -0.22231854 0.16351466 -0.14469205 0.2897824 0.25284424 -0.31434333
0.093268596 -0.06106455 0.08482484 0.023636775 0.015715377 -0.045395467 0.13899732 -0.24077897
-0.00055378303 -0.11745649 -0.32302275 0.17114076 -0.010677301 0.031102667 -0.061340213 0.025683416
0.27206716 -0.09990331 0.26625955 -0.39022386 0.3785603 0.031822424 0.22191836 0.11188917
0.30970517 0.016331386 -0.23735926 0.23375769 0.30057976 0.16635552 -0.13700052 -0.17093518
0.17403474 -0.19123581 -0.21600167 0.3926784 -0.1838296 0.059243683 0.23722686 0.21842979
0.32495674 -0.013620733 0.12568922 -0.21620372 -0.25695714 -0.34177938 -0.20025732 -0.050598986
-0.15325254 0.18211862 -0.1638278 0.27519837 -0.19449379 0.0793317 0.31231198 -0.10188045
0.20064512 0.2851629 -0.3109512 -0.27856964 0.16173726 -0.26277897 -0.021841865 0.030116757
-0.27586976 0.39127785 0.05016363 0.17853476 0.21881929 0.056954373 0.16171764 -0.28765944
-0.19093801 0.36246112 -0.32469139 0.0739178 -0.23841847 0.044671174 -0.17854832 0.15874584
0.36398205 0.3054544 0.3419297 -0.29255512 0.17883715 0.24934351 -0.022942988 0.30416226
-0.06929522 -0.2348103 -0.24079256 -0.19678503 -0.11141385 0.036431424 -0.29220125 -0.2896015
-0.08935801 0.1776852 -0.35869578 -0.21629566 -0.0975513 0.16551444 -0.06283293 0.15767825
-0.015234769 -0.31403714 -0.13717963 0.14719282 0.11334129 -0.005723461 0.031416364 -0.23605342
0.08366368 -0.41149923 -0.27151436 0.083971284 0.32642573 -0.097382456 0.16685541 -0.050589047
-0.14949872 0.08085431 -0.47407556 0.14616363 -0.043304425 0.40383378 0.13811131 0.33234376
0.19687794 -0.31695843 -0.0033858726 0.11375264 -0.154615 -0.22225262 -0.08859398 0.34340772
0.0980745 -0.13931084 -0.27682427 0.32107764 -0.09574443 -0.32746863 -0.022769038 0.017019868
-0.34433323 -0.30569693 -0.35444543 -0.086885996 0.11337234 0.25886333 -0.27258766 -0.060711674
-0.178993 -0.09511707 -0.15619655 0.27692375 -0.12388032 -0.16311842 -0.18474676 -0.28939843
-0.21067947 -0.20632327 0.34107107 -0.20635009 0.27852517 -0.24525107 -0.23628724 -0.39722532
0.39769042 0.25172698 0.19212633 0.13931641 0.2665652 -0.10949251 -0.102407426 0.067155786
-0.08985502 -0.36944276 -0.035103887 0.12323428 0.03323752 -0.21635766 0.20562728 -0.34360534
-0.2813922 -0.35540798 -0.17313032 0.19648995 -0.19244836 0.12085864 0.264876 -0.23790045
-0.40670255 -0.08408999 -0.011567181 -0.06815695 0.31744605 -0.14026469 0.22478208 0.28083384
0.17501451 -0.022109875 -0.11345521 -0.19275776 -0.31470534 0.33128816 -0.25708547 0.25675043
-0.20458387 -0.25790688 -0.09689248 -0.14016384 0.08554291 0.14005436 0.2488965 0.34882224
0.27801928 0.072615474 -0.19191569 -0.3101317 -0.17761573 0.39649016 -0.29977494 0.23214903
0.22131574 -0.20073232 -0.014249488 0.09977281 -0.2760969 -0.15794934 0.15800193 0.13365848
0.10630524 -0.071593665 -0.14421327 0.1598565 0.045553334 -0.045086164 0.004604421 0.32309774
0.19065677 -0.35541707 -0.121703126 0.11283007 0.28532168 -0.40977225 0.023317456 -0.10556549

encoder.critic_encoder.net.mlp.2.weight f4 [256, 256]
00000000: 5352 5b3d 7c7b 073d a8ef 8e3d a50e 593d
00000010: 9539 eebc 90be 243d 1c6a 65bd 9827 3fbc
00000020: b300 6dbd 7719 bb3c a4bd 28bd 49bc 30bd
00000030: 8895 b5bb ba7b 4f3d 267f 553d 502e 55bd
00000040: 79e2 1e3d 3569 3bbd fd8c 333d 7732 d83b
00000050: 61fb 38bd f74f 923d c149 8c3d ef29 0abc
00000060: acb8 a0bb f4de 26bd 320a b7bc dc9f 6cbd
00000070: 8138 c1bc c55f 393d b40f 45bd 2955 57bd
00000080: a3ab be3c df80 b0bb c0b7 acbc 22fb 883d
00000090: a431 afbc 1ee1 bcbc 364e c73c 7f39 dc3b
000000a0: bc0f 833d 83c4 a93c 4da0 0c3d ac91 6cbd
000000b0: ca4e 3e3d f3ce db3b 54d8 6cbd d295 8dbc
000000c0: dadf cc3c 0a26 abbc 4e16 703c 7c7b 01bd
000000d0: e99e 16bb 06db 2f3c 0197 01bd 21df 0e3e
000000e0: 2251 0abd 4a27 8e3b 3c16 e1bc 5f11 1cbd
000000f0: 2544 bbbc 7106 e93c fb5c 473c 02e0 543d
00000100: ea5a b9bd d583 17bb a0ba 3c3d 5007 82bd
00000110: 3476 743d 50d1 b53a af15 08bd bc5f 843d
00000120: 455e 143d 894b 183d 7b79 1a3d 363a 3bbd
00000130: 29c5 e33d 5947 66bd bfb6 4d3d 5524 8fbd
00000140: 7d3c 2bbd 7b31 23bd 5fda 4a3d 6cbe 98bd
00000150: cbce 723c 1710 11bd a3e0 6dbd 4128 313d
00000160: ed05 683c 469c 49bd 8382 f0bb a8e6 f23c
00000170: 7c5c b0bc da75 58bd 2685 24bd 97e3 c3bd
00000180: 68be 44bd 625f 86bc aa2e b03c 8d6b 1c3d
00000190: 640f 2fbc b431 893b 2172 61bd 0493 ec3c
000001a0: eeb6 a03b e39c 73bb 196a 863d 9b3a 033d
000001b0: 5773 33bd 3248 db3c d08d bcba 1d18 d1bc
000001c0: a902 f5bc 7d46 2abd e963 40bd 5d59 12bd
000001d0: 53b1 da3c 7711 443d a591 11bc 62ec 053d
000001e0: 45af 9c3c 2eb8 babc 5787 11be 186f c1bc
000001f0: 2223 50bd e151 f4bc d0a2 46bc 7501 2fbd
00000200: edb6 9fbc 4a34 60bd ea75 0bbd a943 2dbd
00000210: ef24 4abd 6d0b c03b 582e 1dbc 3e6f b0bd
00000220: acf6 893d 9cae 133d 9c41 483d d602 76bd
00000230: 0835 9fbd bacf 003d cacc c23c 2edc 1ebd
00000240: d6a0 7bbd d80f 333d 6def 293c 8736 8b3d
00000250: cff3 d6bb af40 e83c 0841 bb3c 96bd 51bd
00000260: cceb 9dbc 6514 25bd c648 f6bc 19ed dc3c
00000270: ce2e b83a 510d a1ba 2168 a33c f02a 2f3d
00000280: f9ec 633c 10d4 763c 3cc2 b0bb 31e2 3a3d
00000290: e9d3 f03b 8bf8 81bd 5b27 7ebd 4436 253d
000002a0: e9f3 8ebd 9e66 8ebc a417 4fbd f1b6 40bd
000002b0: a283 053d 8648 81bd 21b0 c0bc e545 a73c
000002c0: b622 2abc 945f 783c 2f0b ba3c dd9f 49bd
000002d0: a27b 6cbd 84f5 843d 82fa bebc 8fa4 0fbd
000002e0: 1504 04bd 8e1b a93c 6d7e 01bd 022a cc3c
000002f0: d5c3 1e3c 03c3 11bd b141 823c a996 853c
00000300: 443b a13b 2acf 80bd ae09 793b 24d2 83bb
00000310: 51af 3a3d 3e53 c1bc 1969 973c 7a41 9f3d
00000320: 8361 87bd 2a1e 35be 2d15 6a3d f72c b4bd
00000330: 2028 403d 6e86 113b 3344 e5bc a466 983c
00000340: 7c92 80bd b01b 6fbd 7d7c 88bc e9ad b93c
00000350: 0743 51bd f819 27bd 2900 21bd e620 363d
00000360: ff94 153d d905 8abc 17de e3bc f921 283d
00000370: 89ae 55bd 9dd1 5e3d 177a a3bd d4a3 a63d
00000380: 6204 01bc 8622 3d3d 29ee 6fbc 1460 a1bd
00000390: 7b97 d8bd 1f2f 003c b8d6 c0bd a5b9 a43c
000003a0: ca43 64bd f983 873d 4682 353d 92a8 71bc
000003b0: 8663 823c 1463 0ebd c118 a63c c555 9f3c
000003c0: 060f c2bd 9f4f ff3d 2c8d 87bc f414 f0bc
000003d0: 40b4 17bd 5dca e8bc b32b ccbc 428d 27bb
000003e0: a842 80bd 5c78 103d f4c4 803c b7bd 3abd
000003f0: 1f51 e83c 7637 64bd 98df b3bd aaec c73c
0.053545307 0.03307675 0.069793046 0.05299248 -0.029080192 0.040220797 -0.056009397 -0.011667155
-0.057861995 0.022839291 -0.04119648 -0.043148313 -0.005541507 0.050655104 0.05212321 -0.05204612
0.0387902 -0.04575463 0.04383563 0.0065978128 -0.04516161 0.07144158 0.06850005 -0.008432849
-0.004904827 -0.04073997 -0.022343729 -0.05776964 -0.023586513 0.04525735 -0.04811068 -0.05257145
0.023275202 -0.0053864564 -0.021083713 0.06688525 -0.021385975 -0.023056563 0.024329286 0.0067207213
0.063994855 0.020723587 0.034332562 -0.05775611 0.046461858 0.00670802 -0.057823494 -0.017283354
0.025009084 -0.020892162 0.014653755 -0.031611905 -0.0022982901 0.010733372 -0.03163815 0.13952304
-0.03376878 0.0043381797 -0.027476422 -0.038102504 -0.022859642 0.028445454 0.012168164 0.051971443
-0.090505436 -0.002311935 0.046076417 -0.06349051 0.05968304 0.0013871584 -0.033223804 0.064635724
0.036222715 0.03718141 0.03771351 -0.04570981 0.1112159 -0.056220386 0.05022311 -0.06989352
-0.041805733 -0.03984211 0.04952466 -0.07458195 0.014819811 -0.035415735 -0.05807556 0.04325128
0.014161569 -0.0492213 -0.007339777 0.029651001 -0.021528475 -0.052846767 -0.040166043 -0.09564894
-0.048033148 -0.016402904 0.021506626 0.038188506 -0.010684822 0.0041868333 -0.055040482 0.028878696
0.0049046194 -0.003717237 0.06563205 0.032038312 -0.04381117 0.026767824 -0.0014385525 -0.025524193
-0.029908495 -0.04157113 -0.04697028 -0.035729755 0.026695883 0.04786822 -0.008884822 0.032696135
0.019126544 -0.022792902 -0.14211784 -0.023612544 -0.050814755 -0.0298242 -0.012123778 -0.042726
-0.019496405 -0.054737367 -0.034048 -0.042300854 -0.04935163 0.005860737 -0.009593569 -0.08614968
0.06736502 0.036055192 0.048890695 -0.0600613 -0.07773787 0.031448103 0.023779292 -0.0387842
-0.061432682 0.04371628 0.010372025 0.0679751 -0.006559826 0.028351156 0.022858158 -0.051206194
-0.019277476 -0.040302653 -0.030063998 0.026968526 0.0014052035 -0.0012287294 0.019947113 0.042765558
0.013911479 0.015065208 -0.0053942483 0.04562587 0.0073494804 -0.06346234 -0.06204925 0.040334955
-0.06980116 -0.017382916 -0.050559655 -0.047049467 0.032596238 -0.06312661 -0.023521485 0.02041907
-0.010384252 0.015159506 0.02271041 -0.049224723 -0.057735093 0.06492141 -0.02331281 -0.035069045
-0.032230455 0.020643022 -0.03161471 0.024922375 0.009690245 -0.03558637 0.015900465 0.016307192
0.004920395 -0.062895134 0.0038000154 -0.0040228534 0.04557735 -0.023599263 0.018482732 0.077761605
-0.06610396 -0.17687288 0.0571491 -0.08797639 0.046913266 0.002220537 -0.027986621 0.01860363
-0.0627794 -0.058376014 -0.016660923 0.022665935 -0.051089313 -0.04079625 -0.039306793 0.04446497
0.036519047 -0.016848492 -0.027815862 0.041048024 -0.052168403 0.05439912 -0.07982271 0.081367165
-0.00787458 0.046175502 -0.014644184 -0.078796536 -0.105757676 0.007823735 -0.09415954 0.020108053
-0.05572871 0.06616969 0.04431369 -0.014749663 0.015916597 -0.034762457 0.020275475 0.019450078
-0.09475522 0.124663584 -0.016546808 -0.029306866 -0.037037134 -0.028416807 -0.024923181 -0.0025566374
-0.06262714 0.035271034 0.015718915 -0.045591082 0.028358994 -0.055716954 -0.087828815 0.024404842

encoder.critic_encoder.net.mlp.2.bias f4 [256]
00000000: 5f60 29bc 6cdd 323d 3775 c4bc 6786 edbc
00000010: 6751 24bc cafc 41bd 2ba6 f9bb 4931 a93c
00000020: 5ca9 673d d4ed 21bd a24b 5fbc 8dc6 eebc
00000030: 1068 aa3c b752 4b3c 2ca1 653d 6b20 a6bc
00000040: 3c90 343d 7340 58bd 6629 e63b 25ac c0bc
00000050: 27da 2f3d dea4 c2bc f1a2 7fbd d5c7 86bd
00000060: 3514 41bd f58d 3a3c 250d 52bc 265e 733c
00000070: 11dc 3ebd a714 0fbd ca6e 003d e3f0 5cbd
00000080: 948a f9bb 1d60 1eba a681 1abd 4f68 93bb
00000090: 8723 163d b505 f43c 9593 8e3c 191b e1bc
000000a0: 6298 4c3c 13e6 0a3c 6810 9b3c 5ba5 64bc
000000b0: 24b5 493d fe11 863d 55ba c5bc c329 9c3b
000000c0: d77a 413c 485d 243d db90 133d 318c fcbb
000000d0: d2f9 a33d b8e3 b1bb 0b24 a1ba e800 fabc
000000e0: bfbd a23c 52c7 173c 2817 4d3d 77bd 313d
000000f0: b3a3 bf3c d6dc f63b 229a 26bb 356b 3eba
00000100: 3d96 09bd 6635 3cbd 65db c4bc d862 013d
00000110: 2531 4bbd 7a9d a03d b353 213d 2f43 0b3c
00000120: 4db0 813d c14b 553d d7c1 823d a3f4 60bd
00000130: a4ad 573b e068 163d 67b6 05bd 6d2c 493d
00000140: c039 893d 9d38 13bd 3ba0 df3c 01af 4b3d
00000150: c397 493b 5815 813c e4a7 78bc a3c6 313d
00000160: 3a31 47bd a54e d13c 8a9d 2dbd 06ee bbbc
00000170: b361 d4bc b0a0 4c3d 9c9f 38bd e97e 17bc
00000180: a867 9bbc ed45 533d de54 8fbd 425a 65bd
00000190: 7966 1b3d 6e7f 913c ca97 183d 2a29 b73c
000001a0: 4945 273b 63d4 f4bc a346 1d3d 05b1 89bd
000001b0: 7a6c 5abd 81e1 783c 3e0b c53c 0360 ebbb
000001c0: f88b 7f3c 9e8f bebc f250 7dbd 266a 613d
000001d0: 7a6b 683d 37a2 2f3d e09c cfbc 22e9 3b3d
000001e0: 98f0 ea3b eafd 393c f10d 8a3c 6a4a 83bc
000001f0: 86ec 39bc 1b2e aa3d 62f7 003d 0fe2 cd3b
00000200: 459c 1cbc d50c ecbc 418d 2e3d 7d42 12bd
00000210: 2bfe cc3c 3275 283d 2546 ab3d fd2c ccbc
00000220: 8fa2 00bd 1a69 a23d 24ae 10bd 2386 53bd
00000230: 040e 763d c8b0 77bd 0c4c 4bbd 97ad 0cbc
00000240: 070e 9abc 442c 673c 67bf 15bd f06c 5b3c
00000250: c88c 8bbd c47a 0e3b 0a4c c0bc 4e23 343d
00000260: ce23 9abc acb6 bd3c 6b2a 4fbc e914 9e3d
00000270: 4ee8 2bbd 3ae5 643d a108 00bd f702 263d
00000280: 8c3d 373c cbe3 b3bc fef7 353b 1e1f 693d
00000290: e9f4 e53c 91a6 afbc 6a02 27bd 8a88 353d
000002a0: 780d 353d bf1f 3bbd 426e 86bd 9d95 513d
000002b0: a1fd 55bd ca04 43bd 28ea 19bd 8a6e 283d
000002c0: d459 d9bc 9923 3dbd c80f f93c 5b57 4b3a
000002d0: 180f e93c 3774 193d ffe4 913c b3c2 9a3c
000002e0: c4da dcbc 919c 34bd d1c0 78bd cdd2 b3bc
000002f0: 620c 033d 2864 82bc 48f0 efbc 7aca 103a
00000300: fb68 39bd 1ab6 2cbc 1a90 edbc d93b 37bd
00000310: a468 45bd ca4b 83bd c79c 1fbd 8074 9fbd
00000320: 8de4 a7bc e0f9 81bd 088e a93c 27a2 d4bc
00000330: 5e4e 9b3b 3189 7d3d 3836 913d 61ab 3a3c
00000340: 6efa 6d3d 4345 72bd 3faa 03bd 0685 c33c
00000350: 861c 84bd b6e2 33bd 41de cdbc 2901 263d
00000360: b24f 153b 01ce 39bd 1929 093c a9f3 343c
00000370: b2a1 903d 4c39 0ebd 1265 853c 94f0 ef3c
00000380: e75b 093d 3993 843d 8226 5dbc ec96 58bc
00000390: 76dc 30bd ecd6 b13b 6f09 69bd 23c2 81bb
000003a0: a1d3 843d f862 18bd 3d80 dfbc 6de7 ba3c
000003b0: fa6d 12bd 2e70 083d 487e 2f3d 24d2 fdbc
000003c0: 6de6 24bd 04d1 473d b5a2 a4bc 68e3 6a3d
000003d0: 48e1 083d 0b43 76bd d189 a73c eb29 013d
000003e0: 3614 dcbb 5caa 463d c4c6 373d 8c3a 6cbd
000003f0: 3281 193b e9f5 80bd d5dc 083d cff6 36bd
-0.010337918 0.043668196 -0.023981674 -0.028994752 -0.010029173 -0.04736022 -0.0076186857 0.020653384
0.056557998 -0.03953345 -0.013628872 -0.02914741 0.020801574 0.0124098575 0.05606191 -0.02027913
0.044082865 -0.05279584 0.007023978 -0.023519585 0.042932656 -0.023760255 -0.062411252 -0.06581084
-0.04713841 0.011386384 -0.012820517 0.01485399 -0.04659659 -0.034931805 0.031355657 -0.053940665
-0.0076153968 -0.00060415437 -0.0377213 -0.0044985185 0.036654975 0.029787878 0.017404357 -0.027478741
0.012487503 0.0084777055 0.018928722 -0.013955439 0.049245015 0.065464005 -0.024136702 0.0047657206
0.011809072 0.040128022 0.036026817 -0.007707142 0.08006634 -0.0054287575 -0.0012294067 -0.03051801
0.019865869 0.00926383 0.05007091 0.04339358 0.023393488 0.00753365 -0.002542146 -0.00072639
-0.033590544 -0.045949362 -0.024030397 0.031588405 -0.049607415 0.07842536 0.039386462 0.008499905
0.06332455 0.052074198 0.06384628 -0.054920804 0.0032909894 0.03672111 -0.032644656 0.049114633
0.06700468 -0.035942663 0.027298084 0.049727444 0.0030760623 0.015757248 -0.015176747 0.043402325
-0.04863093 0.025550196 -0.04238657 -0.022940647 -0.025925493 0.04995793 -0.04507409 -0.009246566
-0.018970326 0.05158036 -0.06998609 -0.05599428 0.037939522 0.017760959 0.037254132 0.022358496
0.0025523475 -0.02988643 0.038397443 -0.06723217 -0.053326108 0.015190483 0.024053212 -0.0071830763
0.015597336 -0.023261841 -0.061844774 0.05503287 0.056743123 0.04287931 -0.025343359 0.04587663
0.0071697943 0.011352042 0.01685235 -0.016026694 -0.0113478955 0.08309575 0.031485923 0.006283052
-0.009558742 -0.028814713 0.04261518 -0.03570794 0.02502354 0.04112739 0.083629884 -0.024923796
-0.031405028 0.07930203 -0.035322323 -0.051641595 0.06007196 -0.060471326 -0.04963307 -0.008586309
-0.018805517 0.014109675 -0.03655949 0.013392672 -0.06813961 0.0021740654 -0.023473758 0.04397898
-0.018815901 0.023158394 -0.012644391 0.07718832 -0.04196959 0.05588267 -0.03125823 0.04053017
0.0111841075 -0.021959206 0.0027766223 0.05691444 0.028070884 -0.02144173 -0.040773787 0.044319667
0.044202298 -0.045684572 -0.06563999 0.051168073 -0.052243832 -0.04761199 -0.037576824 0.041121043
-0.026532091 -0.046176527 0.030403033 0.00077568524 0.02844958 0.037464347 0.01780939 0.018891668
-0.026959784 -0.044094626 -0.06073076 -0.021951104 0.03199423 -0.015916899 -0.02928938 0.00055233354
-0.045266133 -0.010541463 -0.028999377 -0.04473481 -0.048195496 -0.0641094 -0.038967874 -0.077858925
-0.020494724 -0.06346488 0.020697609 -0.025956227 0.0047395667 0.061898414 0.070904195 0.011393399
0.058100156 -0.059148084 -0.03214478 0.023867141 -0.06450753 -0.04391738 -0.025130393 0.04052845
0.0022783098 -0.045362476 0.008371615 0.011044421 0.07062091 -0.03472261 0.016283546 0.029289521
0.03353491 0.06473393 -0.0134979505 -0.013219576 -0.043178998 0.005427232 -0.056893762 -0.0039599105
0.064856775 -0.03720376 -0.027282828 0.02281543 -0.035749413 0.033310108 0.04284504 -0.030983992
-0.040258814 0.048783317 -0.020097116 0.057345778 0.03341797 -0.06012253 0.020451458 0.031534117
-0.0067162765 0.04850231 0.044867292 -0.057673022 0.0023422954 -0.06296904 0.033413727 -0.04466897
