1v1/trained_policies/learner/module_state/mr_x_policy/module_state_dir/module_state.pt (torch, 559234 bytes, 11 tensors)

encoder.actor_encoder.net.mlp.0.weight f4 [256, 10]
-0.16919272 0.29337853 0.062768586 -0.34714377 -0.014264942 0.058529 -0.17751436 -0.18133849
0.08150245 -0.2500942 -0.27511272 -0.069963984 0.031678684 0.3067728 0.31946048 -0.22319421
0.25767744 -0.15024586 -0.026056675 0.13428167 -0.18657051 0.044954702 -0.011507872 -0.016652552
0.35754132 -0.062072206 -0.2954973 0.09963165 0.29028022 0.054524127 0.19512893 -0.03387197
0.08661679 -0.21132717 0.21296385 0.01819073 0.18599135 -0.0044332882 -0.31076103 -0.23166451
-0.24105604 -0.22805557 0.09338203 0.17932966 0.27345264 0.21732388 0.22635143 -0.18029109
0.16081162 -0.18431175 0.18261945 -0.011210775 -0.19643758 0.12547545 -0.061564155 -0.21036004
0.06564141 0.36307654 0.0046473444 -0.23950157 0.063128814 -0.11657809 -0.16201113 -0.19721505
0.23674935 0.012012429 0.23041558 0.08129571 0.2886544 0.022836337 -0.13754901 -0.05483743
-0.30948022 -0.2950053 -0.08844016 0.110966586 -0.107630536 -0.24023044 0.17254795 -0.046657197
-0.10261778 -0.062391967 0.1363913 0.2449645 0.1416082 -0.33209786 0.28456205 0.21342497
0.017796537 -0.0251733 0.09515317 -0.006122399 0.27872235 0.02972047 0.03411634 -0.1619444
-0.09771809 0.1773522 -0.2310029 0.15213245 0.1949658 -0.0142310085 -0.06863018 -0.057041638
-0.31048518 -0.29277167 0.30845657 0.09198321 -0.16840643 -0.13003705 -0.055307005 -0.2886765
0.21170187 0.11510487 0.26445702 0.1774759 0.19124287 -0.20196304 -0.027179591 0.13878554
0.1724556 0.041803557 -0.18001506 0.16013384 0.1210987 -0.19616175 -0.2364561 0.26732224
-0.12044672 -0.043980148 0.14970791 0.159202 -0.08476573 -0.29730207 -0.20904796 0.14066803
-0.19081663 0.15028775 -0.06578317 -0.15317976 0.29139206 -0.074849814 0.101191424 0.24859485
0.1622977 0.2702672 -0.23724736 -0.12924217 0.29775634 0.11255838 0.2003664 -0.005364422
0.10010372 0.053121116 -0.29388162 -0.18739215 -0.12604186 0.25640815 -0.022433087 -0.31094226
-0.26500508 0.008895773 0.12852797 0.36138397 0.09368892 0.31455946 0.2407303 -0.18930998
-0.013572681 -0.12091699 0.2218598 -0.15443535 0.22358449 -0.14194548 0.2526218 0.3040638
-0.08631522 0.2455085 -0.21441373 -0.024175063 -0.029536732 0.016175818 0.23851511 0.011602016
0.09020198 0.07121758 -0.2849141 -0.277945 0.25318268 0.00633837 0.19162089 -0.16395497
0.16881686 0.30412215 -0.043734495 -0.15224631 -0.27179974 0.21016341 -0.030034583 -0.28967345
0.23854132 0.048396993 -0.14687511 -0.16482992 -0.08896257 -0.1626365 -0.054479558 0.010081851
-0.26476258 0.032470822 0.080601886 0.17021932 0.2696772 0.34526157 -0.32549697 -0.14172481
-0.32972935 0.14153986 0.2894671 -0.06530918 0.1975531 0.14093423 -0.022974925 -0.017020162
0.10732333 -0.17836429 -0.15846232 0.14110562 0.27440745 -0.11730188 -0.06584972 -0.15271519
0.28366563 0.12579936 -0.027395235 -0.1649966 -0.15882005 0.03781978 0.18275183 0.22994706
-0.32379177 -0.2003672 0.09691768 0.20981935 0.08650747 -0.027304947 -0.07894681 0.24497285
0.2561879 -0.015120541 -0.13705681 -0.022108017 0.04464527 -0.20539922 0.032116044 0.3039389
00000000: db40 2dbe b635 963e d18c 803d d4bc b1be
00000010: 81b7 69bc 1bbc 6f3d 53c6 35be ccb0 39be
00000020: c2ea a63d 590c 80be 93db 8cbe 4749 8fbd
00000030: 82c1 013d 5311 9d3e 5390 a33e 068d 64be
00000040: 4cee 833e 0dda 19be cf74 d5bc 2281 093e
00000050: 570c 3fbe 6c22 383d 838b 3cbc ef6a 88bc
00000060: a80f b73e 6d3f 7ebd 6c4b 97be ae0b cc3d
00000070: 9c9f 943e b154 5f3d e1cf 473e 56bd 0abd
00000080: 2564 b13d 2666 58be 3213 5a3e ba04 953c
00000090: 8474 3e3e 1e45 91bb 121c 9fbe 7639 6dbe
000000a0: 65d7 76be 6687 69be 143f bf3d 32a2 373e
000000b0: fc01 8c3e 278a 5e3e abc8 673e 3a9e 38be
000000c0: cdab 243e 38bc 3cbe 9800 3b3e 66ad 37bc
000000d0: ef26 49be a37c 003e b22a 7cbd 9f68 57be
000000e0: 016f 863d 2be5 b93e c048 983b e63f 75be
000000f0: ae49 813d 7ec0 eebd 3fe6 25be bef2 49be
00000100: 6c6e 723e c7cf 443c 10f2 6b3e 5d7e a63d
00000110: 82ca 933e 4513 bb3c a6d9 0cbe 379d 60bd
00000120: 3174 9ebe ef0a 97be 1d20 b5bd 7342 e33d
00000130: 666d dcbd f8fe 75be 69b0 303e 9e1b 3fbd
00000140: 4529 d2bd b88e 7fbd 29aa 0b3e f9d7 7a3e
00000150: bd01 113e bb08 aabe 1eb2 913e 138c 5a3e
00000160: 0bca 913c 3d38 cebc aadf c23d 689e c8bb
00000170: b2b4 8e3e 5878 f33c 93bd 0b3d c1d4 25be
00000180: 6c20 c8bd d19b 353e 068c 6cbe 9cc8 1b3e
00000190: 1da5 473e 2d29 69bc fb8d 8cbd 7ea4 69bd
000001a0: eaf7 9ebe 2be6 95be 05ee 9d3e b161 bc3d
000001b0: bc72 2cbe 6f28 05be 9989 62bd 68cd 93be
000001c0: 60c8 583e 1abc eb3d e966 873e 3ebc 353e
000001d0: 2cd5 433e 66cf 4ebe bca7 debc cc1d 0e3e
000001e0: 3398 303e 353a 2b3d de55 38be 20fa 233e
000001f0: 9802 f83d a0de 48be 8c21 72be 76de 883e
00000200: c5ac f6bd 8724 34bd 084d 193e d905 233e
00000210: a899 adbd fa37 98be ab10 56be 480b 103e
00000220: 6f65 43be 08e5 193e 54b9 86bd 28db 1cbe
00000230: 5731 953e dc4a 99bd 733d cf3d a68f 7e3e
00000240: 5e31 263e 7660 8a3e f9f0 72be 0f58 04be
00000250: 8573 983e 0285 e63d d92c 4d3e 09c8 afbb
00000260: 2e03 cd3d 8795 593d a777 96be bae3 3fbe
00000270: 1e11 01be ee47 833e 98c5 b7bc d333 9fbe
00000280: bfae 87be 94bf 113c d69c 033e 5207 b93e
00000290: fadf bf3d f00d a13e 0182 763e 7ada 41be
000002a0: f35f 5ebc 54a3 f7bd 372f 633e 4d24 1ebe
000002b0: 55f3 643e 285a 11be a557 813e 40ae 9b3e
000002c0: 09c6 b0bd 9566 7b3e 468f 5bbe c80a c6bc
000002d0: 04f7 f1bc 2683 843c 4e3d 743e 6216 3e3c
000002e0: d1bb b83d 86da 913d 43e0 91be cf4e 8ebe
000002f0: 29a1 813e 1ab2 cf3b 4438 443e d0e3 27be
00000300: 54de 2c3e e6b5 9b3e f122 33bd 75e6 1bbe
00000310: 5629 8bbe 1435 573e 160b f6bc 1450 94be
00000320: 2d44 743e ed3b 463d 6e66 16be 2dc9 28be
00000330: 0232 b6bd 2f8a 26be f525 5fbd 592e 253c
00000340: f68e 87be 2000 053d 9a12 a53d f94d 2e3e
00000350: 2113 8a3e 20c6 b03e 8aa7 a6be 4f20 11be
00000360: 49d2 a8be d3ef 103e 0835 943e d2c0 85bd
00000370: 5c4b 4a3e 1051 103e e935 bcbc de6d 8bbc
00000380: 56cc db3d 21a5 36be f243 22be fe7d 103e
00000390: 227f 8c3e f83b f0bd 38dc 86bd 5f61 1cbe
000003a0: 9f3c 913e 8cd1 003e f96b e0bc def4 28be
000003b0: b9a1 22be eae8 1a3d 4c23 3b3e 3e77 6b3e
000003c0: 09c8 a5be 0f2d 4dbe c77c c63d e2da 563e
000003d0: d42a b13d a0ae dfbc ddae a1bd 2ada 7a3e
000003e0: 0f2b 833e 25bc 77bc 9f58 0cbe df1b b5bc
000003f0: f5dd 363d 2c54 52be 1d8c 033d e19d 9b3e

encoder.actor_encoder.net.mlp.0.bias f4 [256]
-0.00905271 0.291717 0.2671972 0.09634903 0.18830547 -0.28378657 -0.2883652 -0.3021303
0.17455201 0.14701854 -0.05100596 -0.18501891 -0.057208214 0.07085572 0.15625997 0.1340935
-0.07847679 0.20561525 0.047353096 0.19585223 -0.0014373008 0.07055298 0.064924106 -0.29751208
-0.09550061 -0.06962521 0.029562473 0.2746782 -0.001863101 0.26265675 0.008139453 -0.021508878
-0.23351312 -0.21938589 -0.17567109 -0.048335813 0.20568602 0.15650596 0.10197513 -0.13552539
-0.12882307 -0.060398772 -0.17783745 0.31717828 0.22558814 0.01140046 0.1616618 0.2794082
-0.20146538 -0.08715487 0.3406954 0.24754083 -0.3016187 -0.2106875 0.268377 -0.03760989
0.18812667 -0.09035646 0.12123001 -0.30258882 -0.17952316 -0.12249817 0.21061775 -0.10128195
0.05064969 0.24587226 0.27429628 -0.28476378 -0.13573867 -0.15773618 -0.20415804 -0.099356666
0.13853711 -0.2624112 -0.2769324 0.07143669 0.1877105 0.20068085 0.29616502 -0.11328789
0.08261067 0.24755545 0.2003356 0.16499484 -0.17480505 -0.02647282 0.22720309 0.30336508
-0.005565288 0.27276605 -0.08015547 0.15948375 -0.18818672 -0.19552472 -0.045805223 -0.114101976
-0.15227087 0.07605418 -0.21336298 0.13075386 0.23241143 -0.23530842 -0.32592198 0.07929426
-0.12689753 -0.11055663 -0.26316297 0.24802943 -0.28703752 -0.097845286 0.013513495 -0.10169517
-0.01884861 -0.07575085 0.31614894 -0.25876522 0.13277258 -0.223286 0.2950295 0.16683528
0.12283374 0.09835857 0.3114441 0.25108683 -0.14274286 0.046167154 0.09972505 0.2006636
0.22958201 -0.22757557 -0.18437953 -0.21267168 0.14352651 0.10191943 -0.049554557 -0.28371602
0.009767774 -0.28216258 0.29575932 -0.2987609 -0.24960586 -0.16824302 -0.306473 -0.11827437
0.26343697 -0.3018712 -0.2667609 0.20316789 -0.011664164 -0.163571 -0.04211779 0.081046864
0.099358484 -0.14115463 -0.18512602 -0.043035876 -0.21012221 -0.21084067 0.041822936 0.03513483
-0.26961237 0.28643876 0.014137877 0.0014998341 -0.17271672 0.1249968 -0.2585129 0.19212723
-0.06244411 0.24620037 0.3008213 0.17686485 -0.19534937 0.23181449 -0.19920957 -0.21266516
-0.29987437 0.014186002 -0.29688767 0.05681074 0.2830729 -0.20340617 -0.013146418 0.23444192
0.04035621 -0.0023733447 -0.27678007 0.27329654 -0.22809356 0.04931848 -0.24780588 0.17710045
0.21113735 0.006574275 -0.24589156 0.2911077 0.13614523 0.16841877 0.21058865 0.24297461
0.11891442 -0.03647873 -0.26213044 0.10224652 -0.010434254 -0.17311445 -0.17877583 -0.063128896
-0.07131407 0.112364225 0.17654191 -0.03922634 -0.14095289 -0.2712492 0.13121364 0.24565227
-0.023384491 -0.2413364 -0.0633116 -0.1302271 -0.16344874 -0.22792776 0.22855823 0.07644229
-0.24496728 0.015935656 -0.02901552 0.040246744 0.20336422 0.008702253 -0.14025341 -0.27693537
0.027946215 0.2670875 0.3116326 -0.30758107 -0.22373588 0.26147595 -0.2722036 0.28136575
0.005597787 0.0070447866 0.00395406 0.15174335 -0.21921037 0.08425226 0.23658243 -0.29813588
0.044162527 -0.18301412 0.034259334 0.10380328 0.044632863 0.20631391 -0.2850515 -0.12552431
00000000: d151 14bc ee5b 953e 12ce 883e a452 c53d
00000010: 26d3 403e 794c 91be 9aa4 93be d3b0 9abe
00000020: c3bd 323e 078c 163e a0eb 50bd 9975 3dbe
00000030: 2953 6abd ce1c 913d 9d02 203e ce4f 093e
00000040: 70b8 a0bd ce8c 523e 52f5 413d 7d8d 483e
00000050: d063 bcba 157e 903d eef6 843d 8153 98be
00000060: d395 c3bd a997 8ebd 002d f23c 9fa2 8c3e
00000070: 4c33 f4ba f27a 863e 575b 053c 6333 b0bc
00000080: 101e 6fbe b2a6 60be 1fe3 33be c6fb 45bd
00000090: 5b9f 523e 1943 203e 56d8 d03d 2bc7 0abe
000000a0: 32ea 03be b464 77bd 051b 36be 3165 a23e
000000b0: 9400 673e ffc8 3a3c ac8a 253e 970e 8f3e
000000c0: f14c 4ebe 417e b2bd a16f ae3e 587b 7d3e
000000d0: c46d 9abe 77be 57be b668 893e d40c 1abd
000000e0: 47a4 403e cf0c b9bd 7147 f83d ecec 9abe
000000f0: ebd4 37be 52e0 fabd 2eac 573e e96c cfbd
00000100: 0d76 4f3d f0c5 7b3e 9070 8c3e 8fcc 91be
00000110: 14ff 0abe 9885 21be ce0e 51be 827b cbbd
00000120: acdc 0d3e c35a 86be 15ca 8dbe 664d 923d
00000130: 2e37 403e 487f 4d3e f1a2 973e 7b03 e8bd
00000140: c82f a93d 2d7f 7d3e c724 4d3e 68f4 283e
00000150: 1800 33be 87dd d8bc eda7 683e ab52 9b3e
00000160: 055d b6bb fea7 8b3e 8d28 a4bd b54f 233e
00000170: 05b4 40be a237 48be 429e 3bbd 4cae e9bd
00000180: e5ec 1bbe 4bc2 9b3d d37b 5abe 57e4 053e
00000190: 43fd 6d3e b1f4 70be 3fdf a6be 0765 a23d
000001a0: 6df1 01be 846b e2bd 4cbd 86be 6dfb 7d3e
000001b0: 95f6 92be 1c63 c8bd b567 5d3c 8f45 d0bd
000001c0: 6668 9abc 4323 9bbd 46de a13e e07c 84be
000001d0: 89f5 073e 16a5 64be 1b0e 973e ded6 2a3e
000001e0: 4290 fb3d 3870 c93d 9a75 9f3e 748e 803e
000001f0: 2f2b 12be c519 3d3d a63c cc3d c27a 4d3e
00000200: 8c17 6b3e 9209 69be fdcd 3cbe 9bc6 59be
00000210: 9df8 123e 22bb d03d b8f9 4abd 3a43 91be
00000220: 0309 203c 9d77 90be c46d 973e 30f7 98be
00000230: ae98 7fbe e647 2cbe 07ea 9cbe d539 f2bd
00000240: 36e1 863e dd8e 9abe e294 88be 3e0b 503e
00000250: 0d1b 3fbc 287f 27be b483 2cbd e6fb a53d
00000260: 767c cb3d d78a 10be ad91 3dbe 6346 30bd
00000270: 472a 57be 9ee6 57be 874e 2b3d 8ae9 0f3d
00000280: a20a 8abe 1aa8 923e 8ea2 673c 1596 c43a
00000290: a7dc 30be 53fe ff3d ce5b 84be 00bd 443e
000002a0: 65c5 7fbd f31b 7c3e 4005 9a3e 0f1c 353e
000002b0: aa09 48be c760 6d3e 98fd 4bbe e5c4 59be
000002c0: 2289 99be 686c 683c a901 98be 61b2 683d
000002d0: eeee 903e b549 50be 1364 57bc 8b11 703e
000002e0: 8e4c 253d 1e8a 1bbb 1eb6 8dbe 86ed 8b3e
000002f0: 5c91 69be 2d02 4a3d d3c0 7dbe d259 353e
00000300: 6434 583e 046d d73b ffca 7bbe 120c 953e
00000310: a869 0b3e f875 2c3e 8da4 573e 56ce 783e
00000320: 6789 f33d b96a 15bd f635 86be a066 d13d
00000330: 6ff4 2abc ea44 31be 0311 37be b949 81bd
00000340: 1c0d 92bd 371f e63d 67c7 343e ccab 20bd
00000350: f455 10be 2de1 8abe de5c 063e 458c 7b3e
00000360: d590 bfbc e420 77be 83a9 81bd 415a 05be
00000370: 1b5f 27be e565 69be 2b0b 6a3e c68d 9c3d
00000380: b4d8 7abe 7e8b 823c f5b1 edbc c5d9 243d
00000390: b63e 503e e593 0e3c 979e 0fbe 79ca 8dbe
000003a0: 76ef e43c b1bf 883e 4f8e 9f3e 447b 9dbe
000003b0: 051b 65be 2de0 853e 455e 8bbe 2c0f 903e
000003c0: a46d b73b f4d7 e63b 0f91 813b 9c62 1b3e
000003d0: af78 60be 738c ac3d aa42 723e 44a5 98be
000003e0: c4e3 343d 0e68 3bbe 8453 0c3d d096 d43d
000003f0: f3d0 363d f443 533e 45f2 91be 7289 00be

encoder.actor_encoder.net.mlp.2.weight f4 [256, 256]
0.031855788 0.028117133 -0.05373209 -0.044156484 0.049501456 0.05510832 0.043360658 -0.0023678013
0.07912688 0.019894969 0.0083416365 0.06241154 0.002254366 -0.07061803 0.03747668 0.010106146
0.0056608575 0.009728858 -0.015062828 0.04678139 0.039107293 0.06753602 0.06445384 -0.0021036314
0.0652333 -0.0200994 0.011480168 0.030064646 0.019696126 0.024204878 -0.009279626 -0.035123594
-0.03037363 -0.05113333 0.05910454 -0.0097012045 -0.058502484 -0.050977707 0.043962248 0.03434516
-0.021994062 0.022222154 0.043842074 -0.0003451209 0.06340587 -0.057934202 0.042112034 0.06277178
-0.0035462847 0.013165278 0.025344685 0.062096935 0.013576809 0.020608902 -0.03787483 -0.014787626
-0.024000766 -0.009190956 -0.05601347 -0.045282688 0.042552605 0.060368355 -0.07339796 0.01440376
-0.009459278 0.0170831 -0.05435109 -0.0018856906 -0.054997835 0.035004385 0.05948789 0.010551969
-0.047904916 0.015731215 0.040087793 0.049585655 -0.03251507 -0.050110932 0.04403513 0.01807139
-0.012895595 0.0616331 -0.037580676 0.02100315 0.031951267 0.016097289 0.049535327 -0.050507396
-0.009856433 -0.06654953 -0.015881166 -0.018208377 -0.03933098 -0.049620185 0.050125025 0.012882619
-0.050949696 0.00107951 -0.056950144 0.05217396 0.033598647 0.07782839 -0.056857288 -0.04702298
-0.00927929 0.0550685 -0.009967189 -0.0021984004 -0.015849838 -0.04893004 0.06541397 0.031484056
-0.016288076 -0.046767574 -0.01393045 0.05575721 -0.05902458 -0.03598828 0.00014337184 -0.024484118
-0.020394284 0.017538592 -0.039839365 -0.06262741 -0.058469705 0.0069064363 0.0402933 -0.03610527
0.004825591 -0.025556352 -0.07995473 0.011584189 0.046390057 0.039051108 0.02349752 -0.050073
0.04132923 0.05229997 0.011731378 0.014583887 0.008765787 -0.056591187 0.052553933 -0.007848862
-0.040039875 -0.00837282 -0.03235067 -0.051642016 -0.03119249 -0.0090298755 0.07956346 -0.061085746
-0.029960347 0.01526142 -0.0112996185 -0.049873438 -0.03750002 -0.043930475 0.060419276 -0.027047658
-0.019117078 -0.07879073 0.036915116 0.053262208 0.048071325 -0.021320362 -0.039043546 0.018896757
0.07504457 -0.02324687 0.0061524003 0.043182403 -0.029434087 0.03692589 0.012366971 -0.0061239875
0.017607568 -0.010379338 0.045140203 0.007177189 0.04822084 0.05214023 -0.059816565 0.032094363
-0.024139186 -0.0019062342 -0.07480696 0.02189247 0.043251187 -0.042002853 -0.007061325 -0.04295594
0.057185434 -0.047308624 0.016664319 0.04922657 -0.059241083 0.042325657 0.028461317 -0.062563166
0.013632496 0.040987898 -0.027672535 -0.037457194 0.11589569 0.029207414 0.011785293 -0.06754682
-0.016248364 0.0072846883 -0.014632214 -0.023721952 -0.0020533656 0.021393312 -0.031051757 -0.017094519
-0.08616654 -0.054166347 -0.020333638 -0.06669817 0.06457859 0.033965815 0.05999485 0.024510676
0.03855134 0.019367743 0.017214261 -0.059612438 -0.039167378 0.008422727 0.021651039 -0.04386092
0.022188697 0.033417154 0.043458927 -0.038452186 -0.06368216 -0.04290274 0.083768085 0.023330208
-0.041460022 0.04597838 0.070297055 0.054085366 0.026931148 0.06087688 0.0046497574 0.011493399
-0.08865942 -0.017084371 -0.06341333 -0.025144897 -0.022718381 0.04951641 0.012372085 0.059017777
00000000: 377b 023d e755 e63c 2e16 5cbd 6edd 34bd
00000010: 0ac2 4a3d 43b9 613d f29a 313d 1d2d 1bbb
00000020: 460d a23d c6fa a23c 5cab 083c 3ea3 7f3d
00000030: fcbd 133b 30a0 90bd 2681 193d 4094 253c
00000040: b77e b93b ca65 1f3c 14ca 76bc d89d 3f3d
00000050: f82e 203d 5350 8a3d 6000 843d 14dd 09bb
00000060: 0999 853d 7fa7 a4bc 5117 3c3c 224a f63c
00000070: c559 a13c 4f49 c63c 9309 18bc c2dd 0fbd
00000080: 1ed2 f8bc 2f71 51bd 9a17 723d cdf1 1ebc
00000090: 4da0 6fbd 00ce 50bd c211 343d 83ad 0c3d
000000a0: e42c b4bc 3c0b b63c bf93 333d 58f1 b4b9
000000b0: f0da 813d 6a4c 6dbd ab7d 2c3d 7e8e 803d
000000c0: c968 68bb 2eb3 573c a89f cf3c 5b59 7e3d
000000d0: 4471 5e3c 00d4 a83c a322 1bbd cd47 72bc
000000e0: 419d c4bc aa95 16bc 616e 65bd 577a 39bd
000000f0: a44b 2e3d cf44 773d ab51 96bd c0fd 6b3c
00000100: 16fb 1abc dbf1 8b3c 409f 5ebd 4729 f7ba
00000110: 6945 61bd c260 0f3d 93a9 733d 2ae2 2c3c
00000120: f237 44bd c0de 803c 1933 243d 541a 4b3d
00000130: 862e 05bd 1f41 4dbd 2e5e 343d 740a 943c
00000140: 0c48 53bc fd72 7c3d 32ee 19bd cc0e ac3c
00000150: 55df 023d 76de 833c 8ee5 4a3d d8e0 4ebd
00000160: e07c 21bc 1f4b 88bd 3819 82bc bc29 95bc
00000170: 8619 21bd 893e 4bbd e64f 4d3d 9f11 533c
00000180: a1b0 50bd 587e 8d3a 8e44 69bd 5db4 553d
00000190: bc9e 093d 7e64 9f3d 30e3 68bd 2b9b 40bd
000001a0: 2a08 18bc 828f 613d 6c4d 23bc 0a13 10bb
000001b0: 85d7 81bc de6a 48bd c2f7 853d 6df5 003d
000001c0: 926e 85bc 5b8f 3fbd 8b3c 64bc ac61 643d
000001d0: c2c3 71bd 7268 13bd 1656 1639 eb92 c8bc
000001e0: ea11 a7bc 18ad 8f3c 9a2e 23bd cd42 80bd
000001f0: ee7d 6fbd 634f e23b 960a 253d 1fe3 13bd
00000200: fe1f 9e3b 8e5b d1bc 4ebf a3bd 9ccb 3d3c
00000210: 8003 3e3d 0ef4 1f3d df7d c03c 5919 4dbd
00000220: d748 293d 7e38 563d f734 403c 41f1 6e3c
00000230: 609e 0f3c 29cc 67bd cb42 573d 8398 00bc
00000240: da00 24bd 272e 09bc 2382 04bd 9486 53bd
00000250: 6587 ffbc 0bf2 13bc 2bf2 a23d 0c35 7abd
00000260: 676f f5bc 090b 7a3c 0922 39bc 1748 4cbd
00000270: 9f99 19bd 71f0 33bd 347a 773d 0d93 ddbc
00000280: 6b9b 9cbc 095d a1bd 4e34 173d 7929 5a3d
00000290: 70e6 443d 0aa8 aebc 20ec 1fbd 5fcd 9a3c
000002a0: f8b0 993d 3870 bebc 139a c93b 08e0 303d
000002b0: c11f f1bc 9a3f 173d d69e 4a3c bbab c8bb
000002c0: bf3d 903c 190e 2abc efe4 383d a02e eb3b
000002d0: 3783 453d fe90 553d 3702 75bd 6175 033d
000002e0: 8bbf c5bc 9bda f9ba 6434 99bd d657 b33c
000002f0: 2828 313d 2f0b 2cbd b062 e7bb 91f2 2fbd
00000300: 463b 6a3d b0c6 41bd 9c83 883c cda1 493d
00000310: c7a6 72bd ab5d 2d3d b527 e93c 1e21 80bd
00000320: d55a 5f3c ede2 273d 83b1 e2bc b76c 19bd
00000330: b85a ed3d 6344 ef3c 1a17 413c fd55 8abd
00000340: 4a1b 85bc 65b4 ee3b f4bb 6fbc 8a54 c2bc
00000350: c291 06bb 0741 af3c 4160 febc ce09 8cbc
00000360: 1578 b0bd 88dd 5dbd bb92 a6bc 0d99 88bd
00000370: c841 843d bd1f 0b3d 29bd 753d 9dca c83c
00000380: 03e8 1d3d 1aa9 9e3c ec04 8d3c 2c2c 74bd
00000390: f96d 20bd 7aff 093c 855d b13c 82a7 33bd
000003a0: 12c5 b53c 6de0 083d fd01 323d 0a80 1dbd
000003b0: cb6b 82bd c9ba 2fbd 9a8e ab3d fe1e bf3c
000003c0: fcd1 29bd d353 3c3d e7f7 8f3d 9e88 5d3d
000003d0: b69e dc3c 095a 793d fe5c 983b cf4e 3c3c
000003e0: 1293 b5bd 86f4 8bbc d9de 81bd acfc cdbc
000003f0: e61b babc b8d1 4a3d 49b4 4a3c a0bc 713d

encoder.actor_encoder.net.mlp.2.bias f4 [256]
-0.050077565 0.04411588 0.0014905224 0.015720626 -0.03048832 0.051714767 0.053894274 0.050902333
0.06301468 0.005852031 -0.020696431 -0.036167793 0.05252587 0.04142331 0.031959664 -0.027877515
0.011933307 -0.007348138 -0.027457442 0.04463857 0.035552382 -0.019475237 -0.03881356 -0.014451799
0.01955567 0.01495287 0.022688929 0.05802151 -0.0076516797 0.01961046 -0.0563976 -0.007010403
-0.05525897 0.0039523863 -0.04488843 -0.041150756 0.037754107 0.035412055 -0.025773734 0.051951256
-0.04137516 0.028342864 0.02570218 -0.023524908 0.037453406 0.004460764 -0.039573252 -0.019792944
-0.010686082 -0.007450271 -0.061470233 -0.03421308 0.055642135 0.050071817 0.01666949 -0.0533252
0.038860817 -0.040448844 0.025192378 -0.06192118 0.028386926 0.02807242 0.0633148 -0.03555815
-0.031283334 0.005953029 -0.0065853745 0.03262575 -0.045130067 0.003502979 0.02522548 -0.020380814
0.026766282 -0.027597087 -0.009536562 -0.059283134 -0.035954114 -0.02425913 0.05682428 0.0156060355
0.05184812 -0.0026045204 0.0273713 -0.048178416 -0.052878194 -0.0568752 -0.04770983 -0.040290266
0.007139966 0.043634973 -0.034575645 -0.0037221897 -0.028368901 -0.019566992 0.035709508 -0.0002169307
0.030876962 0.012755384 0.036963362 -0.006733111 -0.001461057 0.022731232 0.040616877 0.02189045
0.0035662118 0.027914254 0.030281302 0.034296144 -0.06326041 -0.053556785 0.055423804 -0.044210967
0.05826093 0.036567077 0.023999585 -0.02194547 -0.015481901 0.0010895951 0.011643877 0.0459476
0.04425664 -0.043313053 -0.023144586 0.059433732 0.057637077 0.053985786 0.026688986 0.049584437
0.02946337 0.037201453 0.0058992887 0.03333488 0.054368254 0.061132908 0.029190281 -0.049125057
0.032589983 0.049778022 0.05259657 0.027649133 -0.028986223 -5.4975902e-05 -0.02547319 -0.006974542
0.013629082 -0.053530753 -0.0005722096 0.05782771 -0.006227464 0.053232264 -0.050125472 -0.016880607
0.0064738905 0.0055061504 -0.013878894 -0.043269224 0.006420895 -0.056242377 0.059340198 -0.050459143
-0.033924922 0.045619197 0.029412214 0.043890465 -0.018405143 0.030846471 -0.032718375 -0.05784427
0.020540867 0.031347398 0.007209798 0.035532426 0.008326496 0.0019636084 -0.03999479 0.056311645
-0.038394593 0.059173133 0.038324896 0.049701024 -0.05154197 0.021696426 0.042120334 -0.041077964
0.01679637 0.021310499 -0.021914685 -0.022077585 -0.017733788 -0.003232256 0.031544633 -0.010783269
-0.0074890535 0.011014819 -0.0326666 0.056249905 0.021556532 -0.008121291 0.0112767825 0.048388086
0.0012736717 0.035481226 0.046740893 -0.06447009 -0.0150108365 0.06283997 -0.026320813 0.031235352
0.038623497 0.004964494 -0.0024904907 0.029126246 0.061839327 -0.010708638 -0.031159868 0.06067062
-0.012962145 0.013904829 -0.031691335 0.059854433 0.024408944 0.040030546 -0.017907029 -0.019485459
0.054329865 -0.054065876 -0.026398204 -0.05675072 -0.013811081 0.04021519 -0.053631153 -0.022353303
0.005756772 0.04074067 0.013976044 -0.0058446806 -0.022190707 0.02310915 0.029674523 0.029320216
0.05036929 -0.031064134 0.010360011 0.0266541 0.034421857 0.008642151 0.055370055 0.031348534
-0.06185602 0.0199358 -0.0062440233 0.019010568 0.004677868 0.025787288 0.040270153 0.04491609
00000000: 221e 4dbd dab2 343d a25d c33a 8bc8 803c
00000010: a4c2 f9bc ddd2 533d 3ec0 5c3d f77e 503d
00000020: d70d 813d 65c2 bf3b 908b a9bc ae24 14bd
00000030: 5e25 573d 7dab 293d 23e8 023d 635f e4bc
00000040: eb83 433c a6c8 f0bb 6eee e0bc efd6 363d
00000050: 609f 113d 888a 9fbc f8fa 1ebd 3dc7 6cbc
00000060: 3633 a03c e2fc 743c 22de b93c f6a7 6d3d
00000070: f1ba fabb 1ea6 a03c 2b01 67bd 86b7 e5bb
00000080: 3b57 62bd 0583 813b eedc 37bd b28d 28bd
00000090: 0da4 1a3d 3b0c 113d 7023 d3bc d7ca 543d
000000a0: 0079 29bd 4b2f e83c 618d d23c 4fb7 c0bc
000000b0: be68 193d 9a2b 923b 9017 22bd d024 a2bc
000000c0: ad14 2fbc 6721 f4bb 36c8 7bbd 0423 0cbd
000000d0: 02e9 633d 1b18 4d3d 748e 883c 866b 5abd
000000e0: 852c 1f3d b0ad 25bd 3f60 ce3c 10a1 7dbd
000000f0: b38b e83c 22f8 e53c 31ab 813d 6ca5 11bd
00000100: f422 00bd a011 c33b 20ca d7bb 94a2 053d
00000110: 4eda 38bd 3c92 653b aaa5 ce3c aaf5 a6bc
00000120: f644 db3c 4913 e2bc 3d3f 1cbc dfd2 72bd
00000130: 9f44 13bd 15bb c6bc 94c0 683d 75b0 7f3c
00000140: b25e 543d 9ab0 2abb c739 e03c bb56 45bd
00000150: ce96 58bd f8f5 68bd 626b 43bd 6807 25bd
00000160: 60f6 e93b 96ba 323d 319f 0dbd fbef 73bb
00000170: e665 e8bc f54a a0bc 2244 123d e477 63b9
00000180: aff1 fc3c f5fb 503c e566 173d 6ea1 dcbb
00000190: f080 bfba d936 ba3c e25d 263d 9a53 b33c
000001a0: 1bb7 693b 6fac e43c 7e10 f83c 1d7a 0c3d
000001b0: ad8e 81bd 5c5e 5bbd 1204 633d 8f16 35bd
000001c0: 03a3 6e3d 5cc7 153d c79a c43c fcc6 b3bc
000001d0: cda7 7dbc bfd0 8e3a f6c5 3e3c 8d33 3c3d
000001e0: 7346 353d 0769 31bd b799 bdbc c970 733d
000001f0: db14 6c3d 3320 5d3d dca2 da3c 0d19 4b3d
00000200: 2a5d f13c 8d60 183d d24e c13b 288a 083d
00000210: 3fb1 5e3d 8066 7a3d 7520 ef3c 5b37 49bd
00000220: 137d 053d 0ae4 4b3d 806f 573d 6f80 e23c
00000230: 8474 edbc ed95 66b8 27ad d0bc b38a e4bb
00000240: 834c 5f3c 1043 5bbd 5600 16ba c0dc 6c3d
00000250: c10f ccbb 130a 5a3d 5e50 4dbd 3349 8abc
00000260: ee22 d43b f06c b43b 4d64 63bc 123b 31bd
00000270: 5f66 d23b 685e 66bd b50e 733d 3fae 4ebd
00000280: dcf4 0abd 32db 3a3d e2f1 f03c 7dc6 333d
00000290: 62c6 96bc bdb1 fc3c b403 06bd 1dee 6cbd
000002a0: 5245 a83c 2166 003d 2b40 ec3b 738a 113d
000002b0: db6b 083c e2af 003b 94d1 23bd 0aa7 663d
000002c0: a643 1dbd 875f 723d 91fa 1c3d 4d93 4b3d
000002d0: ac1d 53bd b4bc b13c 5f86 2c3d 5e41 28bd
000002e0: 8a98 893c 5b93 ae3c 6d86 b3bc 0ddc b4bc
000002f0: 7346 91bc 42d4 53bb f234 013d 4fac 30bc
00000300: bc66 f5bb 8077 343c 6acd 05bd 4d66 663d
00000310: 5397 b03c 2a0f 05bc 41c2 383c 9632 463d
00000320: 55f1 a63a c354 113d 6173 3f3d e508 84bd
00000330: 03f0 75bc 3eb2 803d bf9e d7bc 48e1 ff3c
00000340: ac33 1e3d 32ad a23b 8037 23bb 2a9a ee3c
00000350: 3c4b 7d3d 4873 2fbc fb42 ffbc c281 783d
00000360: 2d5f 54bc 14d1 633c c6ce 01bd ec29 753d
00000370: 44f5 c73c 12f7 233d c3b1 92bc f89f 9fbc
00000380: fe88 5e3d 2e74 5dbd 0c41 d8bc 7173 68bd
00000390: df47 62bc afb8 243d 57ac 5bbd 461e b7bc
000003a0: 4ea3 bc3b b0df 263d c7fb 643c bc84 bfbb
000003b0: 49c9 b5bc 664f bd3c fc17 f33c f330 f03c
000003c0: 0750 4e3d 367a febc 09bd 293c b359 da3c
000003d0: effd 0c3d cf97 0d3c b6cb 623d 5267 003d
000003e0: bd5c 7dbd 6750 a33c aa9a ccbb 0dbc 9b3c
000003f0: cd48 993b dd3f d33c 51f2 243d eff9 373d

encoder.critic_encoder.net.mlp.0.weight f4 [256, 10]
0.06758318 0.20178883 0.31429216 0.37108544 0.31341955 -0.1887616 0.050897162 -0.63166887
-0.24219841 -0.04016226 -0.20341666 0.18385127 0.16350849 -0.23119263 -0.089014694 -0.0545853
-0.24657972 -0.034698963 -0.17062463 0.10639128 -0.07242482 -0.29606086 -0.2196876 0.30344835
-0.039073236 0.08933975 0.17347723 0.15532438 0.563604 -0.16215393 -0.27631038 -0.12834564
-0.106055476 -0.13581793 0.1995708 -0.17006856 -0.29433435 0.4830124 0.06830012 -0.12366803
-0.0010118765 -0.25284624 0.18335664 0.15167329 -0.13909638 -0.08609558 0.1984601 0.28650415
0.053417712 -0.066830195 0.31342074 0.041628793 -0.12987588 0.019915733 0.046022177 -0.1978418
-0.272566 -0.082294375 -0.36365998 -0.21817783 0.1587963 0.22377187 -0.34447595 0.16719611
0.042692177 0.08895751 -0.19807573 -0.3589436 -0.074702546 0.22127832 -0.22175145 0.1575694
-0.009089535 -0.16457571 -0.011841593 -0.016825432 0.04131558 0.20493461 0.038661327 0.006355189
-0.092250034 -0.015055371 -0.1637845 0.036836423 0.059613127 -0.14276126 0.10448075 -0.07576091
0.235965 0.07927981 0.2423935 -0.05480274 0.1269354 0.26635143 0.24782793 0.06318741
0.3646294 0.13255516 0.2462847 0.19418195 0.032531347 0.27505165 -0.18124282 -0.22376983
0.18275487 -0.17868766 -0.08314598 0.043030005 -0.11519461 -0.35162982 -0.12435236 -0.2957754
-0.36564887 -0.12559244 -0.30625933 0.07350896 -0.08000974 0.24570583 0.4549539 0.013637352
-0.29999313 0.19980241 -0.08513028 0.122540236 -0.006024256 -0.18399704 0.27157122 -0.15622999
-0.15987483 -0.15594155 -0.04892408 -0.030735755 -0.15056752 0.0028718668 0.18617539 0.10107437
0.28828964 0.2775613 0.21803343 -0.24575578 0.09064207 -0.19805682 0.12482573 -0.039182577
0.22444874 -0.027963134 0.15260954 -0.23027906 -0.2166168 0.032728806 0.051959533 -0.1461619
-0.31861505 -0.28188306 0.13814043 -0.120101884 -0.24132618 0.3021456 0.42091954 -0.33307266
0.18308665 -0.089730926 -0.029204683 0.04962184 -0.28326508 -0.17724252 -0.20574363 -0.1506671
0.123162016 0.1613594 -0.05292511 0.23554473 -0.05625129 -0.3783886 0.024304166 -0.16289814
-0.21403736 -0.01702004 -0.14396459 0.17916489 -0.041039396 -0.09177105 0.033772286 0.34021503
-0.14765398 -0.015061021 -0.24778587 -0.012170546 0.21975824 0.16364257 -0.035425205 0.108435825
-0.18171385 -0.10294505 -0.063962035 0.07945679 0.2685391 -0.26328808 -0.106102906 -0.2300732
-0.15248434 0.11629641 -0.309521 -0.105103076 0.00969238 0.17838477 -0.009619205 0.19817753
-0.17305745 -0.3502114 0.12322802 0.17184179 -0.16774271 0.2978666 -0.3125639 -0.045051
-0.087661654 0.08053194 -0.29456538 -0.057618093 0.15046188 0.22682929 0.28496104 -0.046782043
-0.0768921 0.048155736 0.34292966 -0.049685843 -0.62271893 0.0808741 -0.09639391 0.15915407
-0.3097555 -0.1835781 -0.009738393 0.09685697 -0.018639915 0.21282527 -0.08705582 -0.07344722
-0.16303407 0.00401429 -0.0024446985 0.10425934 -0.020643948 0.030195184 0.10245147 -0.20043752
-0.3277519 0.10589773 0.16314636 -0.19347914 0.32528028 -0.06950669 0.075610824 0.124236315
00000000: 0d69 8a3d bba1 4e3e e7ea a03e e9fe bd3e
00000010: 8778 a03e b94a 41be 8b79 503d 0db5 21bf
00000020: dc02 78be 2f81 24bd 754c 50be 8243 3c3e
00000030: c56e 273e c3bd 6cbe 564d b6bd d694 5fbd
00000040: 657f 7cbe 8020 0ebd 39b8 2ebe ace3 d93d
00000050: 7753 94bd 4a95 97be c9f5 60be 955d 9b3e
00000060: 420b 20bd c2f7 b63d 04a4 313e 5b0d 1f3e
00000070: 5a48 103f ae0b 26be 8e78 8dbe 0a6d 03be
00000080: 9d33 d9bd db13 0bbe 4a5c 4c3e 7426 2ebe
00000090: feb2 96be 674d f73e efe0 8b3d aa45 fdbd
000000a0: f1a0 84ba 1075 81be d8c1 3b3e 3e50 1b3e
000000b0: 486f 0ebe e152 b0bd 2039 4b3e acb0 923e
000000c0: 88cc 5a3d 45de 88bd af78 a03e f482 2a3d
000000d0: 2ffe 04be 5226 a33c c081 3c3d 0a97 4abe
000000e0: c58d 8bbe f489 a8bd a431 babe 026a 5fbe
000000f0: 7f9b 223e 7424 653e 275f b0be 7535 2b3e
00000100: fedd 2e3d 5b2f b63d 5dd4 4abe 75c7 b7be
00000110: a6fd 98bd c996 623e d012 63be df59 213e
00000120: 46ec 14bc 8986 28be 3e03 42bc 7dd5 89bc
00000130: 873a 293d 61da 513e 575b 1e3d 303f d03b
00000140: 96ed bcbd ceaa 76bc 20b7 27be cae1 163d
00000150: e52c 743d 0230 12be 01fa d53d 8928 9bbd
00000160: cfa0 713e 745d a23d 0036 783e d778 60bd
00000170: 5afb 013e 375f 883e 9bc6 7d3e 6768 813d
00000180: b4b0 ba3e 8abc 073e 0e32 7c3e a2d7 463e
00000190: 973f 053d 92d3 8c3e b897 39be eb23 65be
000001a0: 1824 3b3e e6f9 36be 7148 aabd 3b40 303d
000001b0: 27eb ebbd d308 b4be 73ac febd e06f 97be
000001c0: 5436 bbbe 4e9b 00be 06ce 9cbe de8b 963d
000001d0: 26dc a3bd 4f9a 7b3e b8ef e83e 336f 5f3c
000001e0: b398 99be 0199 4c3e c958 aebd 60f6 fa3d
000001f0: 1f67 c5bb b869 3cbe 620b 8b3e c1fa 1fbe
00000200: 3ab6 23be 24af 1fbe 9e64 48bd 8dc9 fbbc
00000210: 5f2e 1abe ee35 3c3b c3a4 3e3e 1400 cf3d
00000220: b39a 933e 841c 8e3e 2844 5f3e 67a7 7bbe
00000230: 8da2 b93d 68cf 4abe a2a4 ff3d e97d 20bd
00000240: e4d5 653e f112 e5bc ad45 1c3e 46ce 6bbe
00000250: cbd0 5dbe a40e 063d 85d3 543d 77ab 15be
00000260: 8321 a3be fa52 90be af74 0d3e faf7 f5bd
00000270: 361e 77be d4b2 9a3e c482 d73e 8088 aabe
00000280: 117b 3b3e d9c4 b7bd a93e efbc 4540 4b3d
00000290: 1f08 91be 107f 35be 75ae 52be 7a48 1abe
000002a0: 5e3c fc3d 663b 253e 00c8 58bd a332 713e
000002b0: c167 66bd 27bc c1be 8819 c73c c5ce 26be
000002c0: 9c2c 5bbe 9c6d 8bbc 746b 13be 0077 373e
000002d0: ed18 28bd 76f2 bbbd cf54 0a3d aa30 ae3e
000002e0: 9b32 17be 80c2 76bc 94bb 7dbe f866 47bc
000002f0: 4e08 613e eb91 273e 051a 11bd 9a13 de3d
00000300: 3213 3abe dbd4 d2bd 87fe 82bd 3eba a23d
00000310: f57d 893e b2cd 86be 7b4c d9bd 4f98 6bbe
00000320: db24 1cbe d02c ee3d 8979 9ebe 4840 d7bd
00000330: cacc 1e3c 7faa 363e df99 1dbc 0def 4a3e
00000340: f935 31be e94e b3be f95e fc3d 4bf7 2f3e
00000350: bfc4 2bbe f981 983e 6008 a0be 6687 38bd
00000360: f487 b3bd eeed a43d 46d1 96be f300 6cbd
00000370: ae12 1a3e f045 683e 6ae6 913e 879e 3fbd
00000380: 9b79 9dbd f33e 453d 7a94 af3e 6283 4bbd
00000390: 826a 1fbf 52a1 a53d 2c6a c5bd 49f9 223e
000003a0: 4698 9ebe e6fb 3bbe c88d 1fbc f25c c63d
000003b0: bcb2 98bc deee 593e 524a b2bd 7f6b 96bd
000003c0: 67f2 26be 4e8a 833b 3c37 20bb ec85 d53d
000003d0: 7f1d a9bc e45b f73c 14d2 d13d 7e3f 4dbe
000003e0: 19cf a7be e9e0 d83d d70f 273e 651f 46be
000003f0: 238b a63e 8659 8ebd d9d9 9a3d 9c6f fe3d

encoder.critic_encoder.net.mlp.0.bias f4 [256]
0.38643515 0.4689127 -0.10502722 -0.6489507 0.18453412 0.3127073 -0.0872723 -0.09170313
-0.32958007 -0.07754568 0.14522511 -0.22267719 0.08207348 -0.26830482 -0.26604623 -0.52461517
0.17267735 0.18552938 -0.31321153 -0.15718982 -0.35340405 -0.26643014 0.66719025 0.23032394
0.103894666 -0.13948925 0.35786274 0.05352659 0.10573002 -0.3598305 0.15786292 -0.38612053
0.5053821 -0.22396027 0.02515838 -0.3004615 0.09371968 -0.26806378 -0.1427826 0.1236796
-0.38949293 -0.2918531 0.56760615 0.11137703 -0.18989125 -0.2239571 0.24362485 -0.07158521
-0.15928961 0.46097082 0.23820794 -0.01956121 0.0914976 -0.10076075 0.6155182 0.35567963
0.33929676 0.29848483 0.007995534 0.101454824 0.08291012 0.17646632 0.10896576 -0.10018111
-0.06698013 0.65637386 -0.29387918 -0.19772303 0.31153664 0.22833104 0.20322564 0.25877592
0.18297379 0.100099854 -0.6249887 0.27443904 -0.0467736 0.041739922 0.0386941 0.55789596
0.06809037 0.5123799 0.5433509 0.086188994 0.07376983 -0.4513926 0.29609856 -0.3589976
-0.32213926 -0.19634214 0.07230518 0.15666717 -0.50528765 -0.08090683 -0.37201795 -0.062013373
0.052355498 0.22129565 0.108286634 0.12444724 -0.349409 -0.2604546 -0.5368433 -0.27197087
-0.26601014 -0.07361438 -0.06021147 0.23145272 -0.308355 0.44484526 -0.32581696 -0.06394497
0.4039378 0.1230843 -0.45202404 0.21605083 0.23784658 0.28698874 0.040197384 0.14461513
-0.031713337 0.322378 0.044732254 0.048346333 0.03309813 -0.088812016 0.3102231 0.20042942
0.1304638 -0.5458535 0.54750854 0.25362718 -0.29908225 -0.16793208 -0.1972998 -0.18184707
-0.19843917 -0.533152 -0.3927581 0.57126385 0.2909938 0.08732018 -0.20622776 0.17745581
-0.20757416 0.616178 -0.082708485 -0.25149396 -0.23942976 0.30928698 -0.33716774 -0.19446291
-0.2709429 0.2290725 0.05421365 -0.20203504 0.4079145 -0.3225157 0.20774089 0.25614357
0.35288885 -0.17964621 0.06557266 0.38736638 0.55531853 -0.28741118 -0.3140885 -0.08642934
0.5537701 -0.049499907 0.037748016 -0.36578012 0.40357774 -0.3964791 -0.14624451 0.073707044
0.038959052 -0.45531625 -0.07731323 0.07092002 -0.22276653 0.32037684 -0.39096355 -0.032135583
-0.12625189 -0.28466448 -0.094862446 0.30718464 -0.048379976 -0.137221 -0.40017834 0.07400349
-0.49367148 0.20473155 0.64055264 0.3381919 0.46006677 0.6470057 -0.48219296 0.07025181
0.13951 0.3051304 0.4097922 -0.23501846 0.40082467 0.3418518 -0.16760369 0.0978338
0.047162283 -0.21002427 -0.40897205 0.0875252 -0.31956246 0.42802295 0.39466113 -0.356132
0.3573928 0.5017911 -0.39199767 0.098282725 0.028602866 -0.036740903 0.3893896 -0.22154146
-0.22498716 -0.18289657 0.4175533 -0.3745029 -0.5371154 0.20152153 -0.5870095 0.46115
0.015356335 0.45914486 -0.002216644 -0.6203805 -0.21369474 0.19718036 -0.010453171 -0.13951251
-0.3474598 0.10560521 0.18689913 0.3009685 -0.54114956 0.02942394 -0.62019455 -0.015162048
-0.23438255 0.24855709 0.45004168 0.16276199 0.009401464 -0.09820074 0.21779834 0.47608852
00000000: d4da c53e 5315 f03e 8318 d7bd a221 26bf
00000010: 83f6 3c3e 2c1b a03e d2bb b2bd dace bbbd
00000020: b8be a8be 45d0 9ebd e4b5 143e 7d05 64be
00000030: 2416 a83d 405f 89be 3637 88be 2e4d 06bf
00000040: 55d2 303e 6afb 3d3e 435d a0be 5ef6 20be
00000050: 60f1 b4be 8869 88be fbcc 2a3f 0ada 6b3e
00000060: bac6 d43d 45d6 0ebe c939 b73e b33e 5b3d
00000070: fb88 d83d b43b b8be d1a6 213e 97b1 c5be
00000080: b960 013f d755 65be f218 ce3c 17d6 99be
00000090: 1bf0 bf3d a83f 89be 9a35 12be bb4b fd3d
000000a0: 9e6b c7be c56d 95be a34e 113f a419 e43d
000000b0: da72 42be 0355 65be cb78 793e 449b 92bd
000000c0: d11c 23be 5e04 ec3e c8ec 733e d53e a0bc
000000d0: 1863 bb3d a75b cebd 9a92 1d3f a41b b63e
000000e0: 4eb8 ad3e 01d3 983e b3ff 023c 8cc7 cf3d
000000f0: c8cc a93d 96b3 343e 7129 df3d c12b cdbd
00000100: e12c 89bd 1e08 283f 5577 96be e877 4abe
00000110: bb81 9f3e 9dcf 693e 621a 503e 477e 843e
00000120: 7b5d 3b3e 2701 cd3d 42ff 1fbf 4683 8c3e
00000130: ad95 3fbd 7bf7 2a3d b47d 1e3d 45d2 0e3f
00000140: f772 8b3d 542b 033f 0b19 0b3f db83 b03d
00000150: a314 973d ee1c e7be 3b9a 973e 89ce b7be
00000160: 70ef a4be ea0d 49be bd14 943d 5c6d 203e
00000170: 885a 01bf 7bb2 a5bd 2379 bebe bc01 7ebd
00000180: b872 563d 549b 623e 62c5 dd3d 32de fe3d
00000190: bde5 b2be 4e5a 85be 906e 09bf c43f 8bbe
000001a0: 7b32 88be 23c3 96bd 4da0 76bd f101 6d3e
000001b0: b5e0 9dbe c2c2 e33e 7bd1 a6be 95f5 82bd
000001c0: efd0 ce3e 9f13 fc3d b26f e7be 6e3c 5d3e
000001d0: 0e8e 733e 30f0 923e 03a6 243d fd15 143e
000001e0: d8e5 01bd bb0e a53e 2b39 373d ce06 463d
000001f0: e891 073d 13e3 b5bd 90d5 9e3e 5f3d 4d3e
00000200: 4d98 053e 0ebd 0bbf 8529 0c3f 6cdb 813e
00000210: 4f21 99be 63f6 2bbe f508 4abe 1e36 3abe
00000220: a333 4bbe a67c 08bf 9717 c9be 593e 123f
00000230: 24fd 943e ecd4 b23d 5f2d 53be fab6 353e
00000240: 528e 54be d7bd 1d3f 1163 a9bd d1c3 80be
00000250: 132d 75be dd5a 9e3e 40a1 acbe 4921 47be
00000260: 07b9 8abe fb91 6a3e 220f 5e3d 46e2 4ebe
00000270: 2bda d03e c720 a5be 07ba 543e 4025 833e
00000280: d9ad b43e 2df5 37be f54a 863d e354 c63e
00000290: 5b29 0e3f 8f27 93be 35d0 a0be de01 b1bd
000002a0: e1c3 0d3f 6ac0 4abd aa9d 1a3d 8847 bbbe
000002b0: bea1 ce3e 4fff cabe 1fc1 15be b8f3 963d
000002c0: 8793 1f3d 361f e9be 6656 9ebd 843e 913d
000002d0: e91c 64be 6f08 a43e 602c c8be 9aa0 03bd
000002e0: 2d48 01be 8bbf 91be 3e47 c2bd 4e47 9d3e
000002f0: 152a 46bd a983 0cbe 2de4 ccbe 248f 973d
00000300: 82c2 fcbe 26a5 513e 42fb 233f 7d27 ad3e
00000310: df8d eb3e 2aa2 253f ffe1 f6be 2ee0 8f3d
00000320: b6db 0e3e 0d3a 9c3e 49d0 d13e aea8 70be
00000330: e438 cd3e 3307 af3e 4da0 2bbe 165d c83d
00000340: 3d2d 413d 9a10 57be c964 d1be 6940 b33d
00000350: b19d a3be d325 db3e 0611 ca3e ef56 b6be
00000360: 30fc b63e 6275 003f ebb3 c8be 7448 c93d
00000370: 8f50 ea3c a17d 16bd 135e c73e c4db 62be
00000380: 0963 66be 3d49 3bbe 8cc9 d53e d8be bfbe
00000390: 6580 09bf a95b 4e3e 4146 16bf da1b ec3e
000003a0: 2399 7b3c 0915 eb3e 1d45 11bb 42d1 1ebf
000003b0: cbd2 5abe a6e9 493e c743 2bbc 5edc 0ebe
000003c0: 40e6 b1be 8b47 d83d 7c62 3f3e 8b18 9a3e
000003d0: c788 0abf 7a0a f13c 12c5 1ebf 3d6a 78bc
000003e0: fb01 70be c085 7e3e dd6b e63e 14ab 263e
000003f0: 9908 1a3c 781d c9bd 8706 5f3e e0c1 f33e

encoder.critic_encoder.net.mlp.2.weight f4 [256, 256]
0.029770963 -0.061301738 0.01200354 -0.049598977 -0.037853926 2.8081886e-06 -0.052577913 0.041738
0.037938222 0.013681428 0.035111908 -0.029515585 -0.053180832 0.018901663 -0.032087237 -0.043472305
0.060472164 0.0058405274 -0.0077129295 -0.018168185 0.03820835 0.028249847 -0.058292165 -0.037437037
-0.012061154 -0.01888118 -0.04732547 -0.05170447 -0.02930289 0.015458784 -0.026352528 0.043235064
-0.054425426 0.053345878 -0.023932137 -0.023191847 0.03992188 -0.008412912 0.059887692 0.0040992335
0.018690208 0.030412748 -0.02246294 0.03283632 0.04346271 0.004014342 0.052293714 0.08363223
0.0065114424 -0.04811004 -0.021815227 0.037566647 -0.057989974 -0.045138206 -0.04498969 -0.074569784
-0.022909334 0.0043773046 0.02040337 -0.02071838 -0.047481637 0.06736857 -0.00054118887 -0.09747692
0.0726628 -0.015597773 0.057195183 0.017557299 -0.08346733 0.03272442 0.0058713863 -0.0036506872
-0.038523566 -0.08101498 0.060392633 -0.055249695 -0.035607584 -0.023362901 0.010811209 -0.032990325
0.0051832744 -0.006962067 0.016626261 0.032130413 0.039058063 -0.0072404705 0.01413293 -0.039493747
-0.041213475 -0.014605978 0.044280432 0.016068093 0.069253765 0.0781468 0.009133162 0.06463456
-0.059999324 -0.038507324 0.04876868 0.03393922 0.06547733 0.007241824 0.05557606 0.0027776507
0.039588347 -0.0002927457 -0.0799419 -0.097621426 -0.0043246294 -0.03406721 0.057519343 0.043495655
-0.040960338 -0.006190733 0.029049817 0.03353589 0.04699323 -0.028997423 -0.008316509 -0.0073606996
0.01425458 0.04315372 0.031729385 -0.04550058 -0.037194386 0.080871254 -0.080641255 0.0043355823
0.035598267 0.05983924 -0.048920702 0.020117989 0.017031487 -0.013369825 0.06085258 -0.029951682
-0.073106006 -0.0038922613 0.0690151 -0.02961493 -0.045197565 -0.07382863 -0.048294686 -0.03766537
0.03091006 -0.03446862 -0.01889061 0.0505633 0.055802707 -0.0049395873 0.0028839186 0.0389061
0.11053741 -0.02031165 -0.00054077985 0.021017492 0.020583758 -0.02622874 -0.07130743 0.0068970853
0.018306373 0.06696868 0.030973503 -0.009553129 0.023844292 0.009257892 0.0006157672 0.030209366
0.015497984 0.05988963 -0.030828223 0.054125316 0.020680143 -0.053898253 0.059124872 0.0140308635
0.022641016 -0.00045304827 0.007678917 0.030279512 0.010762674 0.055653315 -0.055318072 -0.061812762
0.03869856 -0.05700732 -0.040704038 0.015213892 -0.05679187 0.037993673 0.03802075 0.04722681
0.027632996 -0.02486181 0.006367054 -0.063619494 0.011930898 0.024345154 0.06018195 -0.014382216
-0.010222427 -0.039490107 0.05860144 -0.054494016 -0.023210257 -0.10290218 0.059175946 -0.03405609
0.051579338 -0.008689468 0.008035454 -0.061070215 0.018782403 0.0055575226 -0.013980855 0.061049357
-0.073943116 0.016014364 0.060320336 -0.022823969 0.06519175 0.04740076 -0.05961262 -0.07835993
0.004427606 0.0725099 -0.06295541 -0.008982709 0.044413157 -0.026927514 0.019160816 -0.073578
0.011374508 0.017343204 0.046001934 -0.028011704 -0.04499624 0.049717806 -0.0029939676 -0.026554402
0.06059132 0.0033869548 -0.0027882517 0.016813276 0.05617348 -0.03908833 0.058395047 0.053286687
0.025044063 -0.028391548 0.0051052035 -0.055416945 -0.042576253 -0.09353939 0.026340213 -0.0019075114
00000000: 3ce2 f33c 8817 7bbd 7faa 443c 4c28 4bbd
00000010: b80c 1bbd 5074 3c36 f05b 57bd 77f5 2a3d
00000020: 1c65 1b3d 1128 603c 81d1 0f3d abca f1bc
00000030: 25d4 59bd a9d7 9a3c e86d 03bd 0410 32bd
00000040: a9b1 773d e561 bf3b bebc fcbb 72d5 94bc
00000050: 5c80 1c3d 396c e73c c4c3 6ebd 9457 19bd
00000060: 259c 45bc b4ac 9abc 5ad8 41bd 11c8 53bd
00000070: 9d0c f0bc d746 7d3c 42e1 d7bc 4017 313d
00000080: 32ed 5ebd 3581 5a3d 540d c4bc d4fc bdbc
00000090: 2085 233d 4fd6 09bc cc4c 753d dd52 863b
000000a0: 351c 993c 2824 f93c 3304 b8bc 617f 063d
000000b0: f405 323d be8a 833b ef31 563d 6047 ab3d
000000c0: f05d d53b 090f 45bd d9b5 b2bc 7cdf 193d
000000d0: e586 6dbd d7e2 38bd 1c47 38bd 0bb8 98bd
000000e0: 5bac bbbc 7e6f 8f3b f824 a73c 98b9 a9bc
000000f0: 1b7c 42bd 88f8 893d 92de 0dba fba1 c7bd
00000100: 3cd0 943d cd8d 7fbc 7f45 6a3d 53d4 8f3c
00000110: ebf0 aabd 0b0a 063d c264 c03b 5e40 6fbb
00000120: e3ca 1dbd 2feb a5bd 445e 773d 814d 62bd
00000130: 42d9 11bd 8e63 bfbc 7f21 313c dd20 07bd
00000140: 75d8 a93b 0d22 e4bb cc33 883c 2e9b 033d
00000150: 59fb 1f3d 7841 edbb ce8d 673c 32c4 21bd
00000160: 76cf 28bd e94d 6fbc 665f 353d 3ca1 833c
00000170: ebd4 8d3d 6e0b a03d 42a3 153c 205f 843d
00000180: dac1 75bd dbb9 1dbd abc1 473d da03 0b3d
00000190: fa18 863d d34c ed3b b9a3 633d 3f09 363b
000001a0: 6427 223d aa7b 99b9 94b8 a3bd beed c7bd
000001b0: 9fb5 8dbb 0f8a 0bbd 6799 6b3d 8028 323d
000001c0: 07c6 27bd a2db cabb e2f9 ed3c ee5c 093d
000001d0: f97b 403d 018c edbc f841 08bc 0632 f1bb
000001e0: 0b8c 693c f5c1 303d acf6 013d d15e 3abd
000001f0: 2459 18bd d49f a53d 3e27 a5bd 8011 8e3b
00000200: 7dcf 113d fe19 753d 1361 48bd 7bce a43c
00000210: 9e85 8b3c 1c0d 5bbc 8e40 793d 3b5d f5bc
00000220: 9ab8 95bd 4f15 7fbb ca57 8d3d 029b f2bc
00000230: 1521 39bd 7733 97bd a6d0 45bd 0147 1abd
00000240: 1837 fd3c f82e 0dbd 7bc0 9abc 761b 4f3d
00000250: 6191 643d 43dc a1bb 2000 3d3b 015c 1f3d
00000260: 7061 e23d 9e64 a6bc 1fc3 0dba e02c ac3c
00000270: 459f a83c a8dd d6bc a109 92bd f200 e23b
00000280: 3ff7 953c e026 893d 25bc fd3c ba84 1cbc
00000290: 1b55 c33c 6aae 173c 706b 213a a279 f73c
000002a0: 42eb 7d3c d44e 753d 788b fcbc 82b2 5d3d
000002b0: 6769 a93c 6ac4 5cbd ec2c 723d b5e1 653c
000002c0: a779 b93c 1c87 edb9 6d9f fb3b bd0c f83c
000002d0: ed55 303c bbf4 633d 3495 62bd 612f 7dbd
000002e0: 6282 1e3d 8280 69bd 47b9 26bd b043 793c
000002f0: 989e 68bd 419f 1b3d a5bb 1b3d e670 413d
00000300: 985e e23c ffaa cbbc b8a2 d03b f04a 82bd
00000310: d079 433c 7d6f c73c 5981 763d 63a3 6bbc
00000320: f77b 27bc 61c0 21bd 1008 703d 1e35 5fbd
00000330: 7023 bebc 61be d2bd 7a62 723d 667e 0bbd
00000340: db44 533d 455e 0ebc 23a7 033c c324 7abd
00000350: 8edd 993c e11b b63b f50f 65bc e40e 7a3d
00000360: 7d6f 97bd 8e30 833c 7512 773d 55f9 babc
00000370: 4183 853d 4d27 423d 5d2c 74bd 2c7b a0bd
00000380: 7315 913b 1280 943d c4ee 80bd 362c 13bc
00000390: 92ea 353d 1797 dcbc 25f7 9c3c 10b0 96bd
000003a0: 255c 3a3c 5613 8e3c 866c 3c3d cd78 e5bc
000003b0: fa4d 38bd e6a4 4b3d 7136 44bb 9e88 d9bc
000003c0: 9b2e 783d acf7 5d3b 1abb 36bb ffbb 893c
000003d0: 2a16 663d 161b 20bd a52f 6f3d 2443 5a3d
000003e0: 3529 cd3c 6495 e8bc 8d49 a73b e1fc 62bd
000003f0: 7064 2ebd 9491 bfbd 6ec7 d73c 7605 faba

encoder.critic_encoder.net.mlp.2.bias f4 [256]
0.04041314 0.03114885 -0.08312507 0.015876729 -0.053937417 0.00020894472 -0.02394217 0.022910707
-0.04278776 0.038266543 -0.13252342 -0.06359018 -0.011466407 0.08093904 -0.059730276 -0.0034871367
-0.051935263 -0.08064663 -0.08943695 0.082320005 0.0037630147 -0.06777401 0.018809764 -3.730943e-05
0.08726676 0.08627631 0.08931519 0.019663215 0.04285626 0.048619725 -0.019503327 -0.010016482
0.018432831 0.06349309 0.04453345 -0.02224726 0.08104405 0.06573512 -0.02573935 0.04105513
0.06301898 0.0052272906 -0.019365 0.043995462 -0.028570743 0.011529474 0.08580226 -0.047013782
-0.06071282 0.02636631 -0.0023767378 -0.054574225 0.010997169 0.088622436 0.036352303 0.04989568
-0.06684358 -0.02478263 4.5320594e-05 -0.02660026 -0.027533205 -0.012414209 -0.011961846 -0.052153483
-0.009693516 -0.07129695 -0.0024499753 -0.082123466 -0.0071457555 0.037714645 0.06618311 0.0029699248
-0.07286936 -0.012196323 -0.061047643 -0.070808455 0.015028221 0.03506626 -0.0483369 -0.060333308
-0.09031387 0.080564484 0.059401132 0.04197348 0.031502757 0.049788166 -0.08164885 -0.026177278
0.029881528 0.039528772 -0.099547856 -0.051686693 -0.07730897 -0.058127984 -0.057367142 -0.08357978
0.043760367 0.06242311 -0.021027427 0.0027441776 -0.06939128 -0.01867853 -0.09046733 -0.039269064
-0.0648139 -0.037013337 -0.0037734157 -0.0064174235 0.054049 0.021860352 0.0064722104 -0.038185056
0.039117727 0.0519313 -0.05589689 -0.00034437503 -0.05091335 -0.02602515 -0.012174824 0.11361796
-0.025878513 -0.013318761 0.029742517 -0.07967484 0.057832874 0.02557326 0.028784705 -0.0417097
0.06000464 0.057346113 -0.009034266 0.03471661 0.04473245 -0.06920024 -0.017820632 0.07480496
-0.0781905 -0.001371703 0.036815424 0.08737881 0.01636793 0.08589163 -0.0023331924 -0.049743738
-0.0370339 -0.053304184 0.027310047 0.068925306 -0.032631822 0.051491335 0.08693615 -0.00020161219
0.080311626 0.020123936 -0.05253525 0.09203701 0.08938499 0.015455474 0.06565423 0.027194416
-0.036769688 -0.06386764 0.085685134 -0.090631485 0.033176985 0.019007485 0.0011736205 0.014418134
-0.02163371 -0.08430145 -0.062453546 0.020917526 -0.002565856 0.09958868 0.014619804 -0.02078016
-0.01681481 -0.008434607 0.07043645 -0.049399428 -0.0056529623 -0.061474916 -0.055455048 0.051170845
0.038042117 0.03320941 0.07549335 -0.0669114 -0.08282141 0.07188223 -0.0025908116 -0.040347382
0.0126663055 -0.008667816 -0.033272233 0.021546533 -0.027233858 -0.096693344 -0.028258089 -0.007986998
-0.06765217 0.10213514 0.020327589 0.03029701 -0.054326404 0.10163241 0.06197913 0.06043851
0.023355212 -0.099886745 0.030681785 -0.069060616 -0.023692027 0.083839126 -0.013916704 -0.030045008
0.03888899 0.0019640136 -0.02193446 0.01908969 -0.017529303 0.0075124158 0.043181144 0.0038523276
-0.0827407 0.0072797183 -0.07795248 -0.007550656 -0.014616519 0.07040387 0.104125395 -0.0846315
0.0087315375 -0.06133228 0.05906503 0.08032595 -0.010702589 -0.036134247 0.0137720285 -0.0700226
0.0652725 -0.016601484 0.0185124 0.06583298 -0.0028149297 -0.057727277 -0.06369585 0.0045740013
-0.02636443 -0.008330897 -0.028698586 -0.008920473 -0.08727156 0.01993092 0.016632695 0.008622546
00000000: 4088 253d e02b ff3c 7a3d aabd ea0f 823c
00000010: 7bed 5cbd 2c18 5b39 5f22 c4bc 3caf bb3c
00000020: 3842 2fbd 61bd 1c3d 38b4 07be 913b 82bd
00000030: 99dd 3bbc 5ec3 a53d bca7 74bd 7288 64bb
00000040: 12ba 54bd 0f2a a5bd b82a b7bd 6497 a83d
00000050: e99c 763b 1acd 8abd ef16 9a3c b27c 1cb8
00000060: eab8 b23d a2b1 b03d e2ea b63d c014 a13c
00000070: 0c8a 2f3d 7a25 473d 71c5 9fbc 2c1c 24bc
00000080: 7300 973c aa08 823d b568 363d e33f b6bc
00000090: 6cfa a53d 22a0 863d 54db d2bc 6d29 283d
000000a0: 1810 813d b149 ab3b 59a3 9ebc 9634 343d
000000b0: 310d eabc 1ee6 3c3c 18b9 af3d 8691 40bd
000000c0: 02ae 78bd 29fe d73c 0bc3 1bbb 3989 5fbd
000000d0: 782d 343c ae7f b53d 27e6 143d 6a5f 4c3d
000000e0: 49e5 88bd f104 cbbc 9e16 3e38 cae8 d9bc
000000f0: 518d e1bc f764 4bbc 9efb 43bc e49e 55bd
00000100: 8ed1 1ebc 2304 92bd c48f 20bb 5930 a8bd
00000110: f126 eabb ac7a 1a3d 038b 873d 12a3 423b
00000120: 883c 95bd 16d3 47bc 180d 7abd 0604 91bd
00000130: ed38 763c a3a1 0f3d eafc 45bd 0f20 77bd
00000140: 7af6 b8bd fefe a43d 9a4e 733d 62ec 2b3d
00000150: 0909 013d adee 4b3d 8337 a7bd bb71 d6bc
00000160: 1bca f43c ece8 213d bfdf cbbd 6db5 53bd
00000170: 2a54 9ebd 9c17 6ebd cff9 6abd e02b abbd
00000180: 123e 333d 60af 7f3d b641 acbc a9d7 333b
00000190: 041d 8ebd b703 99bc ef46 b9bd 99d8 20bd
000001a0: 26bd 84bd 4c9b 17bd 694b 77bb 4049 d2bb
000001b0: 7c62 5d3d 7b14 b33c d614 d43b ef67 1cbd
000001c0: e939 203d eab5 543d 23f4 64bd 3c8d b4b9
000001d0: 848a 50bd b232 d5bc ea78 47bc 88b0 e83d
000001e0: 2dff d3bc ef36 5abc 94a6 f33c 902c a3bd
000001f0: 2ae2 6c3d 037f d13c e7cd eb3c cad7 2abd
00000200: 6dc7 753d c2e3 6a3d 7504 14bc 0133 0e3d
00000210: 6039 373d dbb8 8dbd 93fc 91bc 5833 993d
00000220: 5722 a0bd b7ca b3ba c5cb 163d a9f3 b23d
00000230: 0a16 863c f3e7 af3d 79e8 18bb 17c0 4bbd
00000240: dcb0 17bd 7d55 5abd 52b9 df3c b628 8d3d
00000250: f2a8 05bd 94e8 523d 950b b23d dc67 53b9
00000260: 6c7a a43d f4da a43c 342f 57bd e67d bc3d
00000270: 7a0f b73d f538 7d3c ba75 863d d3c6 de3c
00000280: d09b 16bd 0acd 82bd b07b af3d 009d b9bd
00000290: 97e4 073d 96b5 9b3c 2bd4 993a 093a 6c3c
000002a0: 2e39 b1bc 3da6 acbd 4acf 7fbd 3b5b ab3c
000002b0: ec27 28bb 26f5 cb3d e787 6f3c 273b aabc
000002c0: 36bf 89bc 4e31 0abc fc40 903d 0e57 4abd
000002d0: 7c3c b9bb 1fcd 7bbd d524 63bd 8598 513d
000002e0: 0dd2 1b3d 9706 083d 429c 9a3d d808 89bd
000002f0: 459e a9bd fe36 933d 9bca 29bb 4c43 25bd
00000300: 5686 4f3c 7503 0ebc 7748 08bd 5b82 b03c
00000310: 8a19 dfbc 2907 c6bd 827d e7bc e6db 02bc
00000320: 398d 8abd 3a2c d13d 0b86 a63c 6f31 f83c
00000330: 5d85 5ebd a724 d03d d4dd 7d3d 5f8e 773d
00000340: 6e53 bf3c 6c91 ccbd 5e58 fb3c a76f 8dbd
00000350: c815 c2bc d9b3 ab3d e302 64bc f320 f6bc
00000360: 104a 1f3d aeb6 003b e6af b3bc fb61 9c3c
00000370: 9d99 8fbc b62a f63b b6de 303d 5577 7c3b
00000380: f573 a9bd b48a ee3b 8da5 9fbd 7e6b f7bb
00000390: 207a 6fbc e72f 903d b23f d53d 4853 adbd
000003a0: b90e 0f3c 8f37 7bbd 2cee 713d ef81 a43d
000003b0: e959 2fbc 8101 14bd 13a4 613c 0268 8fbd
000003c0: 97ad 853d d6ff 87bc 51a7 973c 71d3 863d
000003d0: af7a 38bb 7073 6cbd f872 82bd 81e1 953b
000003e0: 38fa d7bc 517e 08bc 4c19 ebbc 2d27 12bc
000003f0: 6fbb b2bd 2b46 a33c 4a41 883c 9445 0d3c
