trained_policies_backup/learner/module_state/mr_x_policy/module_state_dir/module_state.pt (torch, 559234 bytes, 11 tensors)

encoder.actor_encoder.net.mlp.0.weight f4 [256, 10]
000000 71 54 7f be f0 b8 02 be 97 f4 0e bd 6e 27 12 3e
       -0.24934556 -0.1276586 -0.034901228 0.14272854
000010 d6 b8 15 3c 90 40 2b 3d b4 a0 f0 3d 25 9e a6 3e
       0.009138307 0.04180962 0.11749402 0.3254253
000020 cd a6 ae 3e 06 77 f9 3d c5 5b b8 bd 7d cd 3a 3e
       0.34111634 0.12180905 -0.09001879 0.1824245
000030 60 37 a5 bd 91 d5 fc bd ce b8 03 3d bb c5 b9 be
       -0.080672026 -0.12345422 0.032158665 -0.3628367
000040 64 eb 9a be 72 1d 93 3e a6 9f 32 3b 33 c1 17 be
       -0.30257714 0.28733402 0.0027255802 -0.14819793
000050 20 b4 f5 bd 91 23 4a 3c e4 56 07 be 47 20 5d 3e
       -0.11997247 0.012337581 -0.1321674 0.21594344
000060 6a 83 31 be ef a8 8f 3e 58 d8 69 3e db 0d 03 bd
       -0.17335287 0.28058574 0.22836435 -0.031995635
000070 7a ec 3a ba 57 c1 99 3e 23 30 de 3d b5 34 b0 bd
       -0.00071305747 0.3003032 0.10849025 -0.08603803
000080 2c c4 ea 3d 5f e3 2b 3e ce 64 16 be ea 28 8e 3e
       0.11463198 0.16785954 -0.14686891 0.2776559
000090 c2 5e 10 be 73 fc 41 3e 04 b7 e6 3d 37 f9 b9 3d
       -0.14098647 0.18943958 0.11265376 0.09080737
0000a0 8a 54 26 be e4 01 b9 3d 8a 1c 1a bd 3a 5f 68 bd
       -0.16243187 0.09033564 -0.037624873 -0.05673144
0000b0 1a 22 24 3d ee e9 16 be c3 a9 8e 3e b5 c0 ea 3d
       0.040071584 -0.14737675 0.27863893 0.11462537
0000c0 71 41 86 be e4 69 b9 3a 18 e2 c5 3d 60 39 9b 3d
       -0.26221803 0.0014145938 0.096622646 0.07579303
0000d0 54 79 cc bc c7 03 88 be 05 4e c8 3d 28 73 70 3b
       -0.024960198 -0.26565382 0.09780506 0.0036689732
0000e0 70 bf c4 3d 67 21 0a bd de dc 6b be 36 46 9c bd
       0.09606826 -0.03372326 -0.23033473 -0.07630579
0000f0 ea 7d 81 3e 23 c6 14 be fd d3 6a 3a 1f 69 3a be
       0.25291377 -0.14528708 0.00089579803 -0.18204163
000100 ea 43 8f bc d4 16 b9 3d e8 d1 24 be f5 ba 1c be
       -0.017488439 0.09037557 -0.16095698 -0.15305693
000110 b8 6a 7a be 4c ed 59 3d bb f4 4a 3c 1d 6c 0b 3e
       -0.24454772 0.05320482 0.01238745 0.1361546
000120 3c 81 4a 3e 9b c7 6f bd e5 65 98 be 5c a2 f3 bd
       0.19775862 -0.058539968 -0.2976524 -0.11896202
000130 9d 12 44 be 44 45 8e 3e 18 8c 76 3e 5c 93 94 bc
       -0.19147725 0.2778722 0.24076879 -0.018136673
000140 ef af ea bc 43 e6 81 3e 06 ba b1 3d 90 84 a5 3d
       -0.028648345 0.25370988 0.08678059 0.08081925
000150 d1 bc 68 3d 17 b0 3b be cd d3 ce bd e7 3b 87 3e
       0.056820694 -0.18328892 -0.100989915 0.2641289
000160 6a 0b 11 bd 8c c9 8a be 4d 2d 27 be 84 2b 25 3e
       -0.035411276 -0.27106893 -0.16325875 0.16129881
000170 c9 f6 65 3e 9e f0 be bd 81 d4 6a be 58 9e 04 3e
       0.22457422 -0.09323238 -0.22932626 0.12951028
000180 e1 c5 1d 3e 69 39 b1 3d 80 30 58 be 9d 90 17 be
       0.15407516 0.08653528 -0.21112251 -0.1480126
000190 7a c5 ad 3b be 7c f0 3d b9 bc 75 3e 4f bc 0d 3e
       0.005303082 0.11742543 0.23997773 0.13841365
0001a0 b8 54 d1 3c 30 18 a7 be 00 23 7e 3e ec 16 be 3d
       0.025553092 -0.3263564 0.24818039 0.09281716
0001b0 df 8a 6b 3e 91 7a 62 bd 9d 5e 43 be d4 37 5f 3e
       0.23002194 -0.05529267 -0.19079061 0.2179864
0001c0 e0 68 02 be 22 68 47 bd 90 cf 19 3e da 6c 28 be
       -0.12735319 -0.048683293 0.15020585 -0.16447774
0001d0 bb 2f b6 bd 0a fd 50 3d 9a 92 73 3d 52 bd 96 bd
       -0.088958226 0.051022567 0.059465982 -0.07360329
0001e0 ca 94 18 be 0d 2f 6e be 6b 08 8a 3e 34 cf a2 be
       -0.14900509 -0.23260136 0.26959547 -0.31798708
0001f0 3d 96 03 be 4e 74 ab 3e 20 66 c3 3d 7d 92 74 be
       -0.1285028 0.3348717 0.09540963 -0.23884006
000200 34 4d 8a 3e 8d 23 ac 3e 69 c3 80 be a5 75 86 3e
       0.27012026 0.33620873 -0.25149086 0.2626163
000210 d5 cd 60 be d4 e5 4a bd b3 d7 1c 3d 9f 6b 3d 3e
       -0.21953519 -0.049535587 0.038291644 0.18498085
000220 13 9a 9a be 57 c5 3b 3e 79 d1 82 be 3d a5 79 bd
       -0.30195674 0.18336998 -0.2555044 -0.0609486
000230 f1 bd a1 3e e7 c5 a4 3d 65 f7 73 3e 0c 92 63 3d
       0.31590226 0.080455594 0.23824842 0.055559203
000240 ed 1f 7d be e8 69 91 be 9c b8 30 be c9 fb 97 be
       -0.2471921 -0.28401113 -0.17257923 -0.29684284
000250 3f 55 1b 3e b8 b6 7a 3e 44 c0 ed 3d 4a db ef 3d
       0.15169238 0.24483764 0.116089374 0.11711748
000260 fb c3 71 3d 08 ee 5c 3e c8 69 b6 3c 90 9d 97 bd
       0.059024792 0.21575177 0.022267237 -0.074030995
000270 64 17 ec 3d 3e 15 a3 bd 5b e2 0c 3c e3 79 d3 bd
       0.11527899 -0.07963036 0.008598889 -0.103259824
000280 15 38 0f 3c 47 f6 dd 3c 63 10 1a 3e e6 c8 7c 3e
       0.008741398 0.027094973 0.15045314 0.24686012
000290 a6 ba 1d 3e 97 e4 df bd 6e 5d 66 be d5 b7 18 be
       0.15403232 -0.10932272 -0.22496578 -0.14913876
0002a0 b9 aa 85 bb bb cb 9e be 70 a0 70 3e 8a fc 8b be
       -0.0040791896 -0.3101481 0.23498702 -0.2734111
0002b0 e5 23 8f bd ed 12 88 3e ea 62 d4 3d 40 b5 7e bd
       -0.06989268 0.2657694 0.10370429 -0.062184572
0002c0 21 21 90 be 2e 61 0f bd f8 f3 59 3d 9c 4b b0 3e
       -0.28150275 -0.035004787 0.053211182 0.34432685
0002d0 be 55 ca 3d 8d a1 6f 3e 0a e3 6d be 7d 22 8f bc
       0.09879635 0.2340147 -0.2323114 -0.0174725
0002e0 3e e4 50 be 5c bd 0a be f1 64 8a be c7 9e 8e 3e
       -0.20399567 -0.13548797 -0.27030137 0.27855512
0002f0 c6 87 50 3d bf aa 91 3e 4f 79 3a 3d cb c1 06 3d
       0.050910734 0.2845058 0.045525845 0.03289966
000300 4f dc ba bd 80 84 3c 3e 72 0d 76 3d a4 6e 42 3e
       -0.09124052 0.1840992 0.060071416 0.18987519
000310 c2 0c a1 be 46 3a a4 bd 61 a4 f8 3c 2e 46 89 bb
       -0.31455046 -0.08018927 0.03035182 -0.0041892743
000320 5f 38 9d 3e d8 0d 01 bd 1e 70 ae bc 99 d4 10 3d
       0.3070707 -0.031507343 -0.021293696 0.035359
000330 41 5b 87 be 78 be 59 3e 97 60 7d 3e 84 e0 09 3c
       -0.2643681 0.21264064 0.24743877 0.008415345
000340 e8 dd 3e 3e 8a d1 80 be 9d 32 70 3e 0a 11 86 bd
       0.18639338 -0.25159866 0.23456807 -0.06546219
000350 21 92 17 3e 7f ad 9b 3e 7c 5c 19 3e eb a5 01 3e
       0.14801838 0.30405805 0.14976686 0.12660949
000360 89 47 92 be 30 ca 62 be f8 af 8c 3d 5a 85 62 3c
       -0.28570202 -0.22147441 0.06869501 0.013825739
000370 94 81 87 3d c5 80 93 3d 88 28 cb bc 8d 70 98 3e
       0.06616512 0.07202295 -0.0247996 0.2977337
000380 4c a8 87 be ef ff de 3c 8d 48 e8 3c 22 57 88 3e
       -0.26495588 0.027221648 0.028354907 0.26628977
000390 25 5c 57 bd 75 1b 19 be 58 2b 77 3e c3 78 83 3e
       -0.05257811 -0.1495188 0.24137628 0.2567807
0003a0 fb 17 59 be 2c 07 3a be 61 26 98 3d e1 d7 11 3d
       -0.21200554 -0.18166798 0.07429195 0.03560627
0003b0 8a 8a 8b 3e fe 58 5f 3e db 5c 41 be 58 ff d6 3d
       0.27254134 0.21811292 -0.18883078 0.10497922
0003c0 a0 d7 2d 3e 33 bf 08 be 13 9b 83 3e ba d1 55 bd
       0.16976786 -0.13354187 0.2570425 -0.052201964
0003d0 5f 0a 11 3e a7 1a b7 3c 9d 86 25 be 2c de 42 be
       0.14164113 0.022351576 -0.16164632 -0.19030064
0003e0 c2 7e 99 bd d3 45 34 3e de 0b 17 3e f9 37 52 3e
       -0.0749488 0.17604761 0.1475062 0.20529164
0003f0 e0 51 a1 3d 4e 48 9c 3e d4 e0 84 be 86 e7 d2 bd
       0.078769445 0.30523914 -0.2595278 -0.10298066

encoder.actor_encoder.net.mlp.0.bias f4 [256]
000000 6f 25 84 3e 9f ef 23 3e 11 44 50 3e 56 c5 91 3e
       0.2580981 0.16009377 0.20338465 0.28470868
000010 b8 1a aa be a8 4b 42 be 70 d7 bf 3c 11 48 96 3e
       -0.3322351 -0.18974173 0.023418158 0.29351857
000020 27 2b 9e be 86 ba a4 b9 e2 77 91 3d ff 05 97 3e
       -0.30892298 -0.00031419488 0.07102944 0.29496762
000030 94 28 a1 bd 10 e7 c2 3d c8 3e 55 3e 9c 69 90 3d
       -0.07869068 0.09516728 0.2082473 0.070513934
000040 86 73 6c 3e bf 31 11 3e 1f 2a 45 bb 19 bc 43 3d
       0.23090944 0.14179133 -0.003008492 0.047786806
000050 3f b2 a1 3e fc 75 ea bd 68 3a 5d 3e 12 23 1b 3e
       0.31581303 -0.11448285 0.21604311 0.15150097
000060 6e 9d b4 be 3d 1b 36 3a cd b4 9f 3e 00 2b 3c be
       -0.3527636 0.0006946808 0.31192628 -0.18375778
000070 98 f7 1f be bd 29 a4 3e 9c a8 2d bd cd 00 72 3e
       -0.15621793 0.32063094 -0.042397127 0.23633118
000080 97 47 e7 ba 8a 04 bd 3d 07 de 2f bd 95 82 a3 3e
       -0.0017645237 0.092293814 -0.04293635 0.31935564
000090 52 c2 e7 3d dc 67 e8 bd f2 10 f6 bc df 8b 4d 3d
       0.113163605 -0.113479346 -0.030037377 0.05018222
0000a0 56 ed 85 bc 87 ec 92 be a8 a5 75 3e fd 39 87 be
       -0.016348522 -0.2869608 0.23988974 -0.2641143
0000b0 1b 3c 8d 3e d2 3c 82 3e af d2 62 be d8 62 bf 3d
       0.2758492 0.25437027 -0.22150682 0.09345025
0000c0 85 f6 8e 3e 77 a7 08 be bc 81 20 3e 6a 0f 31 be
       0.27922454 -0.13345133 0.1567449 -0.17291036
0000d0 9c 91 2d be 67 10 1a 3c 37 54 50 3e e0 7d d8 bd
       -0.16950077 0.009403325 0.20344625 -0.10570884
0000e0 86 fa b5 bd 77 8a 9a 3e a6 10 dc 3c 8b 9a 36 bd
       -0.08885674 0.30183765 0.026863407 -0.044580977
0000f0 68 48 ca 3d 34 e3 b1 bd 36 98 4b bc 09 a6 2f 3e
       0.09877092 -0.08685914 -0.012426427 0.17153181
000100 08 d6 83 be 9f 49 51 3e 2b 20 05 3d 17 07 d1 3d
       -0.2574923 0.2043824 0.03250138 0.102064304
000110 cb 2b 94 be b1 03 b7 3d 70 c4 a2 be f7 1b 1a 3d
       -0.2893966 0.08936251 -0.31790495 0.037624326
000120 d0 1c d0 bb 10 ff 48 3e 67 02 87 be 8a 46 cd bc
       -0.006351091 0.19628549 -0.2636902 -0.02505805
000130 21 f7 10 be ac 3a 47 be 74 1c 9e be 4f 52 a5 bd
       -0.14156772 -0.19455975 -0.30881083 -0.0807234
000140 4d 76 72 3d e4 6f 06 3e 9b 74 60 be da 07 2d 3e
       0.05919485 0.1312862 -0.21919481 0.16897526
000150 87 21 0a be ed 80 be bd d5 2b 10 3e 48 b5 68 3e
       -0.13489352 -0.093019344 0.1407922 0.22725403
000160 e6 07 57 be 25 74 9a be 87 14 a2 be d9 9a 61 3e
       -0.20999107 -0.30166736 -0.31656286 0.22031726
000170 11 11 9b 3e 39 06 37 be bb 83 6b 3e 9f ee 11 3d
       0.30286458 -0.17873468 0.2299947 0.035627957
000180 9a 3d 8b be f4 7c 49 3e 0a 70 76 3e 61 27 68 bd
       -0.27195436 0.19676572 0.24066177 -0.05667818
000190 77 c0 87 be 24 04 71 bc 98 36 9e 3e 6e 8e 97 bd
       -0.26514027 -0.01471046 0.30901027 -0.07400213
0001a0 e8 db 35 be bb 24 cc 3d c5 5a 2a be 78 cc 57 3d
       -0.17759669 0.09967943 -0.16636188 0.05268523
0001b0 c1 e5 45 bd 37 c3 38 3e f5 67 d2 3d 99 42 35 3e
       -0.048314814 0.18043219 0.102737345 0.17701186
0001c0 42 0b 4a 3d 0a 72 54 3e 65 42 52 be 4a c8 58 bd
       0.049327143 0.20746627 -0.2053314 -0.052925386
0001d0 a7 fe 0a bc 97 5e 66 be 05 9e a7 bd 5c c5 60 be
       -0.008483565 -0.2249702 -0.08184437 -0.21950287
0001e0 cd 04 f7 bd d1 90 92 3e c7 ce 94 3e a4 80 fd 3d
       -0.120614626 0.2862611 0.2906401 0.12378052
0001f0 70 fc da 3d f9 21 4b 3d b7 37 87 bd ff 4b 12 be
       0.1069268 0.049592946 -0.06602424 -0.14286803
000200 c2 6a ad bb 9b a0 33 be 85 d3 82 3e f7 1a 9c 3e
       -0.0052922675 -0.17541735 0.25552002 0.30489323
000210 35 91 b4 be aa 7c 90 3e 2d 67 b2 3e 99 04 43 be
       -0.35267034 0.2822011 0.34844342 -0.19044723
000220 dd e9 8a bd 59 d4 17 be 81 e0 12 be 9d 00 5c be
       -0.06782887 -0.14827098 -0.14343454 -0.21484609
000230 d0 a7 38 3e 18 48 24 3e 30 45 b5 3c f7 68 78 3e
       0.18032765 0.16043127 0.022127718 0.24258791
000240 15 d3 16 be 79 5c 9c 3e 28 7b 6d bd 65 38 0d be
       -0.14728959 0.305393 -0.05797878 -0.13791044
000250 a2 b1 05 be 17 4f 39 3e 83 48 0f 3d d4 00 55 3e
       -0.13056043 0.18096577 0.034981262 0.20801097
000260 69 ee 46 3e d2 92 aa be df 16 23 be e0 fe a7 be
       0.19426884 -0.3331514 -0.15926693 -0.32811642
000270 62 8d 52 be da fb 79 be 89 e7 2a be 58 b0 0b be
       -0.20561746 -0.2441248 -0.16689886 -0.13641489
000280 95 0c 4b 3e 3a 56 82 3e 91 ed 34 3e 2e 8d d6 3d
       0.19829018 0.2545641 0.1766875 0.10476147
000290 9c f7 50 be 77 49 55 be 54 f4 48 3e 99 6d 15 be
       -0.20406955 -0.20828806 0.19624454 -0.1459259
0002a0 69 8b 9b bd d1 04 86 be ba b4 f8 3d 3e 47 6b be
       -0.0759495 -0.2617555 0.12143846 -0.22976395
0002b0 93 0b 78 3e c7 3f 93 3e a4 aa 98 3e c2 e4 76 be
       0.24223165 0.28759596 0.29817688 -0.24110702
0002c0 22 ba 98 3e b5 24 02 bd a7 8f c3 3d df 20 a8 3e
       0.29829508 -0.031773288 0.09548884 0.3283758
0002d0 3d ab 84 be 7c 5b b8 3e 6f 5c 0e 3e 24 34 cd 3d
       -0.25911894 0.36007297 0.13902448 0.10019711
0002e0 7e 49 0e be fe 29 74 3e a2 da a6 bd 63 7d 66 be
       -0.13895223 0.23844144 -0.0814717 -0.22508769
0002f0 e6 1d 06 bc cb 67 08 3b a5 62 ed 3d 93 40 6c 3e
       -0.008185839 0.0020813819 0.115910806 0.23071508
000300 89 1c c0 bd 54 18 41 be 47 09 b4 be 39 e6 8e bd
       -0.09380443 -0.18856937 -0.35163328 -0.06977505
000310 fa 33 38 be a0 00 15 be c2 be 90 3e 7c d4 86 3e
       -0.17988577 -0.1455102 0.28270537 0.26333988
000320 59 f9 52 3e 77 21 de bc ff e5 a3 3e c0 cc 05 3e
       0.20602931 -0.027115567 0.3201141 0.13066387
000330 04 a0 90 3e 12 39 f6 3c b0 a6 e5 bd 0d d8 56 3e
       0.28247082 0.03005651 -0.11213434 0.20980854
000340 8b 20 97 ba 0e 8e 90 be cd 5c 97 3e 6f 4f 92 3d
       -0.0011530084 -0.2823338 0.2956299 0.07144057
000350 c2 4f ac 3e 44 41 03 bd 3d 23 ab 3d 64 e3 8d 3e
       0.336546 -0.032044664 0.083563305 0.27712548
000360 89 dc f0 3d e3 27 0e be fc d6 8e 36 ea 05 1c 3e
       0.11760814 -0.13882403 4.2569573e-06 0.15236631
000370 3b 04 8e bd bc 42 8b 3e 39 0a b3 3e 8b 4b 38 3d
       -0.06934401 0.27199352 0.34968737 0.04499392
000380 9a cb ce 3d 12 a4 77 be b2 34 34 3c d5 b8 39 be
       0.10097428 -0.24183682 0.010998892 -0.18136914
000390 3b 07 15 3e 40 cf 36 3b 5e 38 db bd 92 52 0f bd
       0.1455354 0.0027894527 -0.107041106 -0.034990855
0003a0 ee a2 41 be f9 e8 6b be 1b d1 29 be 13 ef 31 3e
       -0.18909809 -0.23038091 -0.16583674 0.17376356
0003b0 93 c7 9c 3e 3b 43 b6 3d 7b 61 32 be d6 d5 8a be
       0.30621013 0.08899542 -0.17419998 -0.2711627
0003c0 d3 5a 96 be 4d 68 09 3e 3e 0d 1a be 86 d2 ed bd
       -0.29366168 0.13418694 -0.15044114 -0.1161242
0003d0 79 1e 92 3c 64 4c 96 3d 9c 18 96 be 4b a5 b7 3d
       0.017836796 0.07338789 -0.2931565 0.08967074
0003e0 bf ae 90 3d 88 51 6f 3d a6 f1 39 be 84 ef ae be
       0.0706458 0.058427364 -0.18158588 -0.3416711
0003f0 54 39 69 be 71 05 99 3d c9 c6 c5 3d 8b 9b b4 3c
       -0.22775775 0.07471741 0.09657056 0.022046825

encoder.actor_encoder.net.mlp.2.weight f4 [256, 256]
000000 01 ed 2b 3d cc 2b 0a bd 45 f6 36 bc a9 d1 72 3d
       0.04197407 -0.033733174 -0.011167114 0.05928198
000010 44 f0 9a 3c 64 fd 1e 3d fc 6c f7 3c 54 78 14 bd
       0.018913396 0.03881587 0.030203335 -0.036247566
000020 d4 fd 5d bd fc a4 55 3c 6a 0a 48 bc 05 1d bb bc
       -0.054197147 0.013039824 -0.012209514 -0.022840986
000030 0c f0 13 bd 5c 2e 04 3c 69 84 13 bd dd b5 85 3d
       -0.0361176 0.008067694 -0.036014948 0.06528828
000040 aa af 5c 3d 48 40 47 3d 8f 9f d1 bc e9 f4 01 3d
       0.053878464 0.048645288 -0.025588779 0.031727705
000050 29 ea 64 3d 24 3b a0 3a eb 64 f0 3c d8 ea 49 3d
       0.055887375 0.0012224657 0.029344996 0.04929623
000060 97 45 67 bd 9b d0 13 bd 7b 9e 09 bc ff 80 5b bd
       -0.05646285 -0.036087614 -0.008399601 -0.053589817
000070 3f 53 11 3d 7d 2e b9 bc 8b b3 7f 3d 54 af e5 3b
       0.03547978 -0.022605175 0.062427085 0.007009426
000080 b3 b3 b5 3d 4a 70 43 3d 29 a4 92 3c 5d ed 5b 3d
       0.088721655 0.04771451 0.017900543 0.053693164
000090 7e 60 ef 3c 30 bb 7f bc b4 8e d9 3b 22 46 67 bd
       0.029220816 -0.015608594 0.006639326 -0.05646337
0000a0 8e c6 57 bd 6b 39 a8 bd 11 4c 21 3d ae 22 7d bd
       -0.05267959 -0.082140766 0.039379183 -0.06180065
0000b0 bf 48 56 3c 1e d5 c2 3b 90 91 be ba 2e 5e 97 3c
       0.013078867 0.0059458157 -0.0014539231 0.018477526
0000c0 8a a1 4f 3d eb f7 a7 3c ca ed aa 3b c3 df fc bc
       0.050691165 0.020503959 0.005216335 -0.030868417
0000d0 bc 96 d1 3c 47 2b 6e bd 6a 8d 21 3d 7a a8 b4 bc
       0.025584571 -0.05814674 0.039441504 -0.022052992
0000e0 48 f9 cb bc c9 99 ab 3d b3 46 76 bd 82 d2 00 3d
       -0.02489914 0.083789416 -0.060126018 0.031450756
0000f0 64 d6 25 bd bb 2c c7 bc dd 44 6e bd bf 02 1f bd
       -0.040487662 -0.024313321 -0.058171142 -0.03882098
000100 17 d1 61 3d e1 cf ea ba 4e 3b 33 3d 80 3c 51 3d
       0.055131044 -0.0017914736 0.04375773 0.051083088
000110 96 94 50 39 b0 85 77 bd cd 5f df 3c a2 1f a4 3c
       0.00019891778 -0.06043023 0.027267361 0.020034615
000120 bd 33 2a 3c c6 93 ae 3c e4 67 97 bd 65 99 7e bd
       0.010388312 0.021310698 -0.073928624 -0.062158007
000130 04 c1 8c 3d 2d 7c ed bc 35 c4 03 3d a3 8f 73 bc
       0.06872752 -0.028989876 0.03216954 -0.014865789
000140 40 8a 23 3d 50 08 02 bc 7f 6b af 3c 46 1b 63 bd
       0.039926767 -0.007936552 0.021413563 -0.05544593
000150 89 3f 2c 3d ee bc ca bc 74 1d ee bc 01 6c 6f 3d
       0.04205278 -0.024748292 -0.029066779 0.05845261
000160 54 5c 99 3d 78 54 98 bc b6 fa 24 3d 63 8c 80 bc
       0.07488313 -0.018594965 0.04027816 -0.015691942
000170 fd 02 da bc 74 ca ab 3c d2 5b 94 bc d4 66 aa bd
       -0.026612753 0.02097056 -0.01811019 -0.08320394
000180 41 23 7e bd 05 6f ab bb 51 74 ca 3c 05 47 a4 bc
       -0.06204534 -0.0052317404 0.024713667 -0.020053396
000190 bc 5d 49 bc c6 ab 14 3c f4 41 8d bb 72 29 8e bc
       -0.012290414 0.009074157 -0.0043108407 -0.017353747
0001a0 af 4e 8b ba ec 89 b3 bc 5e 3a 43 bd 3f fc 89 bd
       -0.0010628308 -0.021916352 -0.047663085 -0.06737565
0001b0 34 b8 21 3d fb d4 f6 3c 14 e6 18 3c d2 5f 3d 3c
       0.03948231 0.030130854 0.009332199 0.01155849
0001c0 f7 6a b8 bc 22 36 69 3b 70 2d 1e 3d c5 b2 43 ba
       -0.022511942 0.0035585244 0.03861755 -0.00074652984
0001d0 2e c6 1d bd b5 1a 0e bc 74 e4 01 bb 9a 7c 07 bd
       -0.038519077 -0.00867336 -0.0019820007 -0.033077814
0001e0 45 ce 29 bd c2 95 8d 3b e8 f0 bb 3c 32 a5 63 bc
       -0.04145648 0.004320831 0.022942021 -0.013894366
0001f0 84 f4 03 bc 58 5d c3 bc fb af 2a bd ac 55 c8 bc
       -0.008053903 -0.02384822 -0.041671734 -0.024454914
000200 77 17 c5 bd 8d 3b 28 ba fc ee 44 3d 52 94 2a bd
       -0.09623616 -0.0006417565 0.048079476 -0.041645356
000210 d7 19 a6 3c a4 36 d7 3c b8 89 d5 3c 5b f7 e3 bb
       0.020275993 0.026271172 0.026066646 -0.0069569773
000220 8f f1 5d 3d e3 a1 91 bd a3 de 7a bd 1a e3 bb 3b
       0.054185446 -0.071109556 -0.06124748 0.0057338597
000230 23 d0 82 3d fd ec af 3c 41 b2 0a 3d 67 3e 7e 3b
       0.06387355 0.02147531 0.033861402 0.003879452
000240 69 2b a1 bb ce 94 08 bd a2 b9 d1 3c b3 51 5f 3c
       -0.004918505 -0.033345036 0.025601212 0.013630318
000250 72 3c 52 3d a2 9a 38 bd 9f be df 3c 24 59 0b 3d
       0.051327176 -0.045069344 0.027312575 0.034020558
000260 28 47 27 3d 40 56 05 bd 8a b4 d0 bc 2a 50 e6 3c
       0.040839344 -0.032552958 -0.025476713 0.028114397
000270 c8 6a f8 bc d4 72 82 bd 61 05 50 3d 58 1b c5 3c
       -0.030324355 -0.06369558 0.05078638 0.02406089
000280 08 a0 e2 3b 38 f2 4a bd 25 59 0c 3d f4 a7 07 bd
       0.00691605 -0.049547404 0.034264702 -0.033119157
000290 fc c4 01 3d 40 f6 1a bc e2 3b 80 bd 2a 33 1a bd
       0.031682 -0.009458125 -0.06261422 -0.03764645
0002a0 92 d1 02 bd 43 99 df 3b cb 08 18 3d 19 13 46 3d
       -0.031938143 0.00682369 0.03711776 0.048358057
0002b0 21 61 6b bd a3 ef 75 3c 08 fd 09 3d f8 9a 9e 3d
       -0.057465676 0.015010747 0.033688575 0.07744402
0002c0 82 c7 92 bc d8 68 73 3d c0 d1 ea bc 15 5f 81 3c
       -0.017917398 0.05942616 -0.02866447 0.015792409
0002d0 57 94 cf 3c aa a1 d7 bc e7 6e 51 3d 19 04 88 3d
       0.025339289 -0.026322205 0.051131155 0.066414066
0002e0 4f fd 68 3d 42 a2 e8 3c 16 59 55 bd f3 f0 25 3b
       0.0568822 0.028397683 -0.052086912 0.002532062
0002f0 79 2c 2c ba f4 50 1c bd a5 1a e9 bc 29 f8 fe 3c
       -0.0006567906 -0.03816314 -0.028455088 0.031124191
000300 1f c9 c1 bc 0e 96 27 3b 00 4c 94 3c b6 a7 f9 3c
       -0.023655472 0.0025571617 0.018102646 0.030475479
000310 ff 7a 4b bd a8 44 85 3d dd 94 00 3c f3 34 87 bc
       -0.049677845 0.06507236 0.007847992 -0.01650474
000320 be 9a 2e 3d 1b ac 69 bc 96 3b 71 3d 57 1e 20 3c
       0.042628042 -0.014262225 0.058894716 0.009772859
000330 0f 85 1a 3d d4 1c c3 bc 2a 62 b4 3c fc 6e b7 3b
       0.03772455 -0.023817457 0.022019465 0.005597947
000340 8b ef 2c 3d 42 e4 3b bc df 59 b9 3b 5d c1 8d bc
       0.042220633 -0.011467995 0.0056564654 -0.017304117
000350 86 d1 c7 bc 9e d9 ac 3d 3e a5 9b 3d 4b 0c 37 bd
       -0.0243919 0.08439945 0.07599877 -0.044689458
000360 80 72 44 3c f3 a2 16 3d 5b a5 31 3d 0a 58 42 bd
       0.01199019 0.036776494 0.043370586 -0.04744724
000370 30 5d 9c 3d 10 ea 99 3b ca eb cd 3c cd f4 01 bd
       0.076349616 0.004697092 0.025136847 -0.0317276
000380 fa 37 29 3d 98 b5 28 bd 3c 30 97 bd 53 ce cb 3d
       0.04131315 -0.041188806 -0.07382247 0.099514626
000390 23 fd f5 bc 51 81 55 bd 9c 8e 0c 3d 99 2d 68 bd
       -0.030027932 -0.05212528 0.03431569 -0.05668411
0003a0 0f df 63 3d 3e 16 0a bd c7 04 01 3d 1f d5 01 bd
       0.055632647 -0.033712618 0.031498697 -0.03169739
0003b0 66 00 79 3d 1a f7 14 bd 17 11 ed 3c dc 45 10 3c
       0.060791396 -0.036368467 0.028938813 0.008805718
0003c0 60 fe a2 bc 31 ac 10 3c 2b d4 1d 3d 0c d6 54 bc
       -0.019896686 0.008830116 0.038532417 -0.012990486
0003d0 bb 28 51 bd af c1 50 3d bf 74 8b 3b e4 37 28 bb
       -0.051064234 0.05096596 0.0042558606 -0.002566808
0003e0 3d ad 93 3d 76 e6 02 bd 4c 5e 2a 3d 97 27 2d bb
       0.07210777 -0.031958066 0.041593835 -0.0026421302
0003f0 a3 88 3e bd 95 0d 54 3d 40 bf 9b 3c 05 33 02 bd
       -0.046517026 0.051770765 0.019012094 -0.031786937

encoder.actor_encoder.net.mlp.2.bias f4 [256]
000000 b9 76 44 bd a9 98 42 3d c1 b0 6e 3d c2 b0 38 bd
       -0.047964785 0.04750887 0.058274034 -0.045090444
000010 d4 27 8b bd 63 3a f9 3c cc ec b6 3b 47 92 76 3c
       -0.06794706 0.030423349 0.0055824276 0.015049524
000020 12 b4 70 3c 79 8d 74 bd 53 10 31 3d a9 63 14 3d
       0.01469137 -0.05970523 0.04322846 0.036227856
000030 15 94 88 3c 66 1d 6c bd 21 16 6c bd 4b c7 42 bc
       0.016672174 -0.057645224 -0.05763829 -0.011888335
000040 15 0b 5c bd fa f2 4d 3d d9 15 14 3d 73 34 8a bc
       -0.053721506 0.05028055 0.036153648 -0.016870713
000050 3e ec 07 bb 22 9e d6 3c 04 77 f8 b9 8a 65 5e bc
       -0.0020740177 0.02619845 -0.0004739092 -0.0135740135
000060 ab 45 33 3d 53 b5 80 3c 55 c7 4f 3d f7 cc 66 bd
       0.043767612 0.015711462 0.050727207 -0.056347813
000070 0f c4 41 bc 9d 10 a3 3c 97 ea 3a bd cf 4a c8 3c
       -0.011826529 0.019905383 -0.04563388 0.024449734
000080 ef eb 0a bc 86 61 5a 3c 3c de 74 3d 33 72 41 3d
       -0.0084791025 0.013328915 0.05978225 0.04722805
000090 47 8f ce bc 8b 56 35 3c 33 5f b9 ba 4a 0e f2 3c
       -0.025214804 0.011067997 -0.0014142751 0.02954783
0000a0 7d 1d b1 bc 8e 43 3e bb 87 cb c4 bb b6 32 0b 3d
       -0.021620506 -0.0029031965 -0.0060057077 0.03398391
0000b0 a0 b8 f4 3c e4 62 28 bd 10 5c fa 3c de f7 8a 3d
       0.029873192 -0.041109934 0.030561477 0.06785558
0000c0 21 79 02 bd a6 37 48 bd 41 52 01 3d de 48 11 bd
       -0.0318538 -0.048881195 0.031572584 -0.035469882
0000d0 21 d1 9e 3c d1 ee 54 bd 8c 62 e3 3c 8a a0 27 3d
       0.01938683 -0.051985566 0.027756952 0.040924586
0000e0 d7 12 83 3b 75 e0 e2 3c 2c 54 4b bc 8c 31 c5 3c
       0.0040000486 0.02769492 -0.012410205 0.024071477
0000f0 c2 ad ec 3c b6 84 0f 3d 1e d1 27 bd 5a 74 de bc
       0.028891448 0.035038672 -0.040970914 -0.02715509
000100 fd 0e 20 3d da 01 5f 3d 6d cc 17 bd 63 c4 b2 3c
       0.039076794 0.054445125 -0.03706019 0.02182216
000110 f5 80 85 3d 3e 7e 0d 3c a9 45 8b 3c 7d 4c de 3c
       0.06518737 0.0086360555 0.01700099 0.027136082
000120 0a fc f9 3c 35 23 2c bd 56 3c 97 3b f4 b3 cc bc
       0.03051569 -0.042025764 0.004615347 -0.024988152
000130 1c 56 c3 bc e8 06 0c 3d 71 b3 20 3c d0 d9 e2 3c
       -0.023844771 0.034186274 0.009808407 0.027691752
000140 03 d3 3e 3d a7 53 a0 bc 95 ab 11 3b 7a 42 dd bc
       0.046587955 -0.019571139 0.0022227515 -0.027009238
000150 fc b5 fd bc b1 43 13 3c 03 5d ab bb 9a 36 23 bd
       -0.030970566 0.008988307 -0.0052295937 -0.039846994
000160 c6 8b 80 3b 31 7d 22 3d af 5b de bc 2f 70 43 3d
       0.0039229123 0.039670173 -0.027143328 0.04771441
000170 2a c0 6c bd 79 2e 88 3c 55 26 a9 3c 63 6d 73 3c
       -0.05780045 0.016623722 0.020648161 0.014857623
000180 c7 1f 18 3d 59 1c 19 bd da 97 73 bb 18 44 1d 3d
       0.03713968 -0.03738055 -0.0037169368 0.038395017
000190 15 f2 85 bd a7 78 de bc cd 33 86 3b 09 6f 2f bd
       -0.06540314 -0.02715714 0.0040955306 -0.0428305
0001a0 a1 8f 64 3d b1 51 39 3d f0 7f 1e 3c d4 be 93 bc
       0.055801038 0.045243923 0.009674057 -0.01803533
0001b0 e6 73 19 bc 2a b4 de 3c 15 5b 1f bc 7c db 7c bd
       -0.009366011 0.027185518 -0.0097263055 -0.061732754
0001c0 77 c5 51 bd 61 98 0c bc 60 8e 14 bd 1d 32 e9 bc
       -0.051213708 -0.008581252 -0.036268592 -0.028466279
0001d0 25 09 3a bd b6 34 aa 3c d9 b1 fa 3c b8 3d 39 3b
       -0.045418877 0.020777088 0.030602382 0.0028265547
0001e0 36 c3 2e 3d cd 8e f9 3c 7b e7 63 3c bd c0 3c 3d
       0.042666636 0.0304636 0.01391017 0.046082247
0001f0 cb 81 eb 3b b1 eb af bb 3c df 80 bd 43 3a 47 3d
       0.0071871034 -0.005368673 -0.062925786 0.048639547
000200 49 b3 e9 3c 4b 47 70 bd a1 cc a9 3c fe 8b 13 bd
       0.028527873 -0.05866174 0.020727457 -0.03602218
000210 17 ad 07 bc 5d 60 80 3d c4 f1 ed bc 13 59 27 bd
       -0.008281014 0.0626838 -0.029045947 -0.040856432
000220 ea 40 60 3d 17 bd 72 bd ff 4d ff 3c e6 a1 4e bd
       0.054749407 -0.05926236 0.031165121 -0.050447367
000230 b2 3d fd bc 0a 0e 9d 3d ae f5 6b bd b7 5a 0e bd
       -0.030913208 0.07668693 -0.057607345 -0.03475448
000240 db 59 cd bc 73 71 27 bd 2c 68 50 3d ad 09 86 3c
       -0.02506726 -0.040879678 0.050880596 0.016362036
000250 60 a2 06 3d cd 0f e8 3c 38 0b ac bc c5 a4 05 3d
       0.032869697 0.028327847 -0.021001443 0.03262784
000260 84 ca 91 bc b7 37 cd bc 8c c8 45 ba 66 73 f4 3c
       -0.017796762 -0.025050981 -0.00075448374 0.029840183
000270 58 e5 63 bd 06 8c 1c bc 4e 4b 6a ba 27 a0 dd 3c
       -0.05563864 -0.009554869 -0.0008937613 0.027053906
000280 55 e7 07 bd bf 40 6d bc 89 3a 98 bc 61 9f 3c bd
       -0.0331796 -0.014480769 -0.0185826 -0.046050433
000290 9e 4a 43 bc 26 a8 fe 3c 77 4a 41 bd 50 5e cb 3c
       -0.011919646 0.031086039 -0.047190156 0.024825245
0002a0 45 ed 2a 3d 76 c2 30 bb 34 52 b6 bc cb c8 55 bd
       0.041730184 -0.0026971377 -0.022255994 -0.052193444
0002b0 5f ee 2c 3c 04 ca 3c 3d 4f c2 5f bd 04 92 1e 3c
       0.010554879 0.046091095 -0.054628666 0.0096783675
0002c0 3b 02 76 bd 5b 30 9c bb 5c 4f 64 bd 44 23 4c 3c
       -0.06006072 -0.0047665066 -0.055739745 0.01245958
0002d0 3a 5d 8a 3d 47 ee 15 3d 0e 0d b9 3c 77 8d df 3b
       0.06756063 0.036604192 0.022589233 0.006822284
0002e0 7f d1 03 3d b2 0e 4f bd 9e 53 6d 3c 85 62 fc 3c
       0.032182213 -0.050551124 0.014485268 0.030808697
0002f0 47 8a 15 bc 61 d0 14 bd 7f ce 25 bd a6 31 1e bd
       -0.009127206 -0.036331538 -0.040480133 -0.038621567
000300 57 cd 89 3c 1c 75 e7 bc 0a 64 76 3d cf 02 08 bd
       0.016821546 -0.028254084 0.060154 -0.033205803
000310 cb 9e 8b bc 18 14 43 3d 45 f5 e5 bc 00 1c a9 3c
       -0.017043492 0.047626585 -0.028071055 0.020643234
000320 d8 e9 47 bd e4 32 d9 3c 4b ec 02 3d 6f 30 fd ba
       -0.048806995 0.026513524 0.031963628 -0.0019316802
000330 ce 9e 33 3d 5d 55 45 bd f2 8a 26 3d be 4b 19 bb
       0.04385262 -0.048177112 0.040659852 -0.0023391093
000340 65 98 d4 bc 29 db 19 bc a7 d5 82 3c d5 65 62 3b
       -0.025951574 -0.009390631 0.015971018 0.003454556
000350 b6 9c 35 bd c4 86 fe bb 6f 26 28 bc 78 8d a2 3c
       -0.044338904 -0.00776753 -0.0102630695 0.019842848
000360 ac 8a 04 3d a4 a8 0c bd d9 87 10 3c f6 9a 21 bd
       0.03235881 -0.034340516 0.008821451 -0.039454423
000370 49 32 92 bd e9 53 77 bd 1a 81 45 bd a5 21 64 3d
       -0.071384974 -0.060382757 -0.048218824 0.05569615
000380 d9 d9 80 bd 8e 14 04 bd f6 d5 88 bc fd f6 57 bd
       -0.06291551 -0.032246165 -0.016703587 -0.05272578
000390 7b 45 3a ba 22 82 63 bc e3 0c 56 bc 33 ac 14 3b
       -0.00071056903 -0.013886007 -0.013064596 0.0022685647
0003a0 1d 15 17 bd dc 2b 49 3d c7 79 64 bc a3 9a 3c bd
       -0.03688537 0.049114093 -0.01394505 -0.04604591
0003b0 55 51 86 3c ee e9 32 3d 61 25 5e bd 4d a2 e0 ba
       0.016396204 0.043680124 -0.054234866 -0.0017138213
0003c0 0b f5 45 3d 45 f7 5c 3d b1 d6 32 3d 4e b4 86 bd
       0.048329394 0.053946752 0.043661777 -0.06577359
0003d0 79 6e 65 3d 61 a4 c7 bc c4 35 b0 bc 0f 94 45 bd
       0.056013558 -0.024370374 -0.021510012 -0.048236903
0003e0 f3 8a a9 3b 33 52 58 3c d8 43 2c 3d 1a 97 08 bd
       0.0051740347 0.013203192 0.04205689 -0.033347227
0003f0 84 c4 19 3c b4 67 00 3d 1a e7 1d bd 43 08 06 3d
       0.009385232 0.0313489 -0.038550474 0.032722723

encoder.critic_encoder.net.mlp.0.weight f4 [256, 10]
000000 bf f4 ab 3c b8 73 0a bd 34 7f 45 3e eb 06 9a bc
       0.020990727 -0.033801764 0.19286805 -0.018802127
000010 2f 99 10 be 9a 95 12 3e 0d 92 0f be 95 34 86 3e
       -0.14120935 0.14314881 -0.14020558 0.26211992
000020 3c 7a c4 be 99 6c 5f bd 15 7c 82 be 8f 5d 97 3d
       -0.38374507 -0.054546926 -0.25485292 0.07390892
000030 a1 10 6e 3d f9 cc 24 bd 6d fa 82 ba 5e ba f5 3c
       0.058121327 -0.04023454 -0.0009992846 0.029996093
000040 5f 7c 70 be c2 95 66 be 86 04 3f 3e cb 97 96 3c
       -0.23484944 -0.22518066 0.1865407 0.018382927
000050 2c 92 60 be 76 78 78 be 3e 99 67 bd e7 d6 a2 3d
       -0.2193076 -0.24264702 -0.056542628 0.079511456
000060 56 de 51 3e 23 06 b1 be 92 64 ce be cb 75 28 bd
       0.2049497 -0.34574994 -0.40311104 -0.04112796
000070 fe 3f 0e be 5b 22 0d 3c 69 1f a6 bd 7d 3e 58 bd
       -0.13891599 0.008614148 -0.0811146 -0.05279397
000080 52 4e e2 3d 74 71 f5 3d ef fe 87 bc 97 d5 dd bd
       0.11050095 0.1198453 -0.016601054 -0.10831755
000090 f6 fa c1 3e 8f b0 8c be bb aa 86 be fd 02 00 3c
       0.3788678 -0.27478454 -0.26302132 0.007813212
0000a0 6e 69 80 be 8e 1b 9d 3e cb 12 db bd b2 44 80 3c
       -0.25080436 0.30685085 -0.10696944 0.015657756
0000b0 1c 4c de 3d 04 9a 7c be 4c 4d 42 3e f9 7e 58 3d
       0.108543605 -0.24668127 0.18974799 0.052855466
0000c0 ce 19 a7 be 57 c3 52 be 6d bc 72 be da b7 45 be
       -0.32636875 -0.20582329 -0.23704691 -0.19308415
0000d0 81 29 6d 3d 3d 13 ad 3e 0d fb 72 3d 29 4a 64 bd
       0.05790091 0.3380374 0.059321452 -0.055734787
0000e0 cb 12 37 3d fa be 9c 3e ef c6 16 be 6b 73 42 be
       0.044695657 0.30614454 -0.14724325 -0.18989341
0000f0 7b 2b b2 bc 6b cb 3c 3e 67 f3 b0 be 48 b2 bd bc
       -0.021749249 0.18436973 -0.345607 -0.0231563
000100 89 cd 4e be 35 18 28 be 01 9a 5d be e7 e8 23 3e
       -0.20195593 -0.16415484 -0.21640779 0.16006814
000110 b6 39 9f bd ee 0f 4b 3e 03 09 a2 be 2f 77 49 3e
       -0.07774679 0.19830295 -0.316475 0.19674371
000120 5e 17 8e 3d e9 85 11 bd a5 d9 ac bd bd 1d 1f be
       0.06938051 -0.035528097 -0.0843995 -0.15538688
000130 32 8b 12 3e 0f 5d 8f 3d da 9e 94 3d 18 f7 7f 3e
       0.14310911 0.070001714 0.07256861 0.24996603
000140 c0 86 15 3d ed ff 75 3d 34 e7 04 3e 68 77 69 3e
       0.03650546 0.060058523 0.12978822 0.22799456
000150 d6 74 9e be ba 60 1b 3c d9 5c 35 3d 1a 4b 83 bd
       -0.30948514 0.009483511 0.044278 -0.06410809
000160 9e ca 43 3e a4 7d 95 3e a0 25 9d 3e 9d ec 9b be
       0.19120261 0.2919742 0.30692768 -0.3045396
000170 0b d8 08 3d f7 a0 93 3d b9 54 09 3e 73 e1 87 3e
       0.03340916 0.07208436 0.13411225 0.26539192
000180 87 91 ec bc 96 2b 3a 3e 25 27 90 3d 56 0a 3b bd
       -0.028877987 0.18180689 0.07038716 -0.045664154
000190 17 5d 7f be 1d e8 df 3a c8 8e 6b be fb 72 2e 3e
       -0.24937855 0.0017082725 -0.23003685 0.17036049
0001a0 54 a8 30 3e c0 af 6b be 11 83 cf 3d f7 70 e4 3d
       0.17251712 -0.23016262 0.10132421 0.11154359
0001b0 a9 6c 5e be 6d 26 52 3e ce 47 56 be 4c b3 38 3e
       -0.21721138 0.20522471 -0.20925829 0.18037146
0001c0 a0 43 82 be 72 9d 9d be eb d0 6b be dc a6 b8 3d
       -0.2544222 -0.30784184 -0.23028915 0.09016201
0001d0 c1 89 83 3e 80 ce 11 be 95 32 2b 3e c5 35 8d 3d
       0.25691035 -0.1423893 0.16718514 0.06895021
0001e0 7e cc 56 be 38 9a 84 be 51 26 7a be ab 52 12 3e
       -0.20976445 -0.2589891 -0.24428679 0.14289348
0001f0 c7 a1 8f 3d 3e a7 99 be a2 61 54 be 16 41 7d 3e
       0.070132785 -0.30010408 -0.20740369 0.2473186
000200 f4 8d 68 be b1 27 11 3c 1a d5 ab 3d 54 50 0a be
       -0.22710401 0.008859561 0.08390255 -0.13507205
000210 99 c6 7f be 2b 73 a2 3e f7 da 11 be 4b e2 4a bd
       -0.24978103 0.3172849 -0.14243685 -0.049532216
000220 14 b0 82 bd ee ec 43 be 63 72 53 3e d8 75 ad 3d
       -0.063812405 -0.1913335 0.20649104 0.084697425
000230 0f 6c 20 be b4 f5 a1 be d7 87 66 be 8e 61 43 bd
       -0.15666221 -0.3163277 -0.22512756 -0.047700457
000240 3c c6 2c 3e f3 8b 1b 3d fb 7c ba bd 2e ea 89 3d
       0.16872495 0.037975263 -0.091058694 0.06734119
000250 eb ec ed bc aa e1 18 3e b9 76 84 be a1 fc ec 3b
       -0.029043635 0.14929834 -0.25871828 0.007232264
000260 b3 3b 78 be d6 c3 93 3e cd 86 bc bd 5a 0e 24 be
       -0.24241523 0.28860348 -0.09205399 -0.160211
000270 df 09 55 3e c3 74 4b 3d fd 99 fa bd 67 c1 96 be
       0.20804547 0.0496719 -0.12236402 -0.2944443
000280 c8 71 c7 bd b1 e0 39 3c 87 50 4d 3e c0 89 a1 be
       -0.09738499 0.0113450745 0.2005025 -0.31550407
000290 f9 a8 65 3c 18 49 8d be 76 1b 76 3d bc 7c ee 3d
       0.014017337 -0.2759483 0.060084783 0.11644885
0002a0 9b 4d 8a be d2 e1 10 3e 5a 1e b0 be 8d 06 85 bd
       -0.27012333 0.14148644 -0.34398156 -0.0649539
0002b0 ed 75 8d be 06 4a 91 be 78 4a 2b 3d ce f6 d6 bd
       -0.27629033 -0.28376788 0.041819066 -0.10496293
0002c0 ba 76 45 be dc e9 71 be 1d 08 22 3e 98 a8 af 3d
       -0.19283572 -0.23624367 0.15823407 0.085770786
0002d0 0d 17 cc bd ac e5 d5 bd be c5 2d be 5f e7 3d 3e
       -0.09965334 -0.10444197 -0.16969964 0.18545292
0002e0 e4 d0 e5 bb 6e 72 73 3e 07 68 bc 3d 02 1d 34 3e
       -0.007013427 0.2377412 0.09199529 0.1758919
0002f0 7f 40 99 3e 0c f4 71 3e 0b 4e bd 3c 87 3a 4b be
       0.2993202 0.23628253 0.023108503 -0.19846545
000300 ba 33 a8 be 9f 23 67 3e 78 a3 4e 3d 31 96 5c be
       -0.32851964 0.22572182 0.050448865 -0.21541668
000310 c5 44 1f be a2 ec 80 3d c1 66 91 bc 1a 5b 90 be
       -0.15553577 0.06295134 -0.017749192 -0.28194505
000320 b2 5c 89 3c 55 60 16 be 97 33 7c be 39 aa 9f bd
       0.016767833 -0.14685185 -0.24629055 -0.07796139
000330 09 92 f8 3c 62 7b 5f be ee 13 bc 3d bb b6 33 3c
       0.030343072 -0.2182441 0.09183489 0.010968859
000340 cc 70 0a be c2 2a ac 3d 84 b9 05 3e f0 66 28 3e
       -0.13519591 0.08406593 0.1305905 0.16445518
000350 2a 5b b3 3e 2f 22 87 be f1 5c b8 3e e3 d1 f8 bd
       0.3503049 -0.26393268 0.3600841 -0.12149408
000360 9f a0 02 bd f8 cf b7 3d e5 98 21 3d eb f6 66 bd
       -0.03189146 0.08975214 0.039452452 -0.056387823
000370 06 08 44 3e 1a 91 fb 3d 74 e0 a8 be 18 61 40 be
       0.19143686 0.12283535 -0.32983744 -0.18787038
000380 48 89 88 3e 28 71 72 3e 60 5a 97 be 46 22 94 3e
       0.26667237 0.23675978 -0.29561138 0.289324
000390 52 90 3c bd de 84 25 be 5a fc 2b 3e 7b 4c 9d bd
       -0.046036072 -0.16163966 0.16795483 -0.07680603
0003a0 8e 6b 33 3e a9 f3 9b be ca 25 ba bd 2b 31 8e 3d
       0.17521498 -0.30459335 -0.09089239 0.06942972
0003b0 59 4e 76 3e e5 5d 75 3d 67 c4 70 3e 93 08 a8 bd
       0.24053325 0.059903998 0.23512422 -0.082047604
0003c0 9e e2 92 3e ed 2e cb 3d 09 19 97 3d e8 fb ec bd
       0.2868852 0.0992106 0.07377822 -0.11571485
0003d0 bd 11 e7 3c c9 56 6d 3e 8d 54 44 3e a0 cd 99 be
       0.0282067 0.23177637 0.19172879 -0.30039692
0003e0 6c 24 9f be c0 f2 49 3e 09 f0 44 be 18 19 6f bc
       -0.31082475 0.19721508 -0.19232191 -0.014593385
0003f0 0c 37 2a 3e 38 81 39 3e c1 49 25 3e c9 94 fc 3c
       0.16622561 0.181157 0.16141416 0.030832665

encoder.critic_encoder.net.mlp.0.bias f4 [256]
000000 54 f7 8b 3e 60 2e 70 bd d7 c9 e4 bd 7c 55 bd 3e
       0.27337134 -0.058637977 -0.111713104 0.36979282
000010 10 30 39 bd 4f 93 19 3e 2f 1a 3a 3e 0d 69 0f bd
       -0.04521185 0.149976 0.18174051 -0.035012294
000020 40 f1 21 be 18 47 b2 bc 3b 4c b7 be 67 2c 69 3e
       -0.15814686 -0.021762416 -0.35800347 0.22770844
000030 86 33 6f be 26 68 24 3d d7 6b 76 3e 66 73 81 be
       -0.23359498 0.040138386 0.24064575 -0.25283355
000040 cf 25 28 be 5a 0b 92 be ba 66 44 be 74 bb 32 3e
       -0.16420673 -0.28524286 -0.19179812 0.1745432
000050 51 fc 6c bd 83 1f 0c bd 0a 40 ba 3d 96 6a 73 3e
       -0.057857815 -0.03420974 0.09094246 0.23771128
000060 f9 c8 9d 3e 00 05 62 3e 4f 52 6f be d5 59 af 3d
       0.30817392 0.2207222 -0.23371242 0.08562056
000070 03 1b 92 3e c1 d3 6f 3e 8c 17 35 3e 05 5e 6a be
       0.28536233 0.23420621 0.17684764 -0.22887428
000080 47 1f 52 3e 61 ba 69 be 93 e4 04 3c 05 21 ba bd
       0.20519744 -0.22825004 0.008111137 -0.09088329
000090 ec 1c 0d 3e 87 1f 8a 3e da 31 48 bd 07 66 81 3d
       0.13780564 0.26977178 -0.048875667 0.06318288
0000a0 1e 2e 7d 3e d2 ec 8b 3e 4c 00 91 3e 9b 8e e2 3c
       0.24724624 0.27329117 0.2832054 0.02765589
0000b0 ef de e8 3d 5a b9 6a be 4c c1 dd bd 75 18 8e be
       0.11370646 -0.22922269 -0.10827884 -0.27753034
0000c0 2b 1b bc 3d e3 4b 89 3e 34 d4 29 3b 17 eb 00 be
       0.091848694 0.2681571 0.0025913836 -0.1258968
0000d0 44 6b a3 3c 1a b8 18 be ff b3 ac be f1 b8 a0 3e
       0.01994861 -0.14913979 -0.33731076 0.313911
0000e0 8b 65 ef bd c5 66 7c be b1 3b 1e 3d f0 b6 a1 be
       -0.1168929 -0.24648578 0.038631145 -0.31584883
0000f0 9e 4e 46 3e 9d ff 72 bd fd 4c 38 be c8 5e 98 be
       0.19365928 -0.059325803 -0.17998119 -0.29759812
000100 1a 7d 88 bd 0a a8 14 bd f6 e0 5b be 52 dc 98 bb
       -0.06664486 -0.036293067 -0.21472535 -0.004664936
000110 28 1f a0 3e 5d a9 4e be cf aa 02 be 05 9c bd 3d
       0.3127377 -0.20181794 -0.12760471 0.09258274
000120 94 d1 39 be 79 c7 8a be 33 42 2b bd 19 ab b7 be
       -0.18146354 -0.2710531 -0.04181118 -0.35872725
000130 33 fe 79 3e c4 17 7c be 77 4e 75 be 95 b0 5e be
       0.24413376 -0.24618441 -0.23955713 -0.21747048
000140 aa 22 86 3d 99 a1 66 bd 45 c6 8d b9 72 7f da 3d
       0.065495804 -0.056306455 -0.00027041338 0.106688395
000150 0e c0 6b 3e 9d a0 92 3e f7 d7 03 be 63 2d 0e be
       0.23022482 0.28638163 -0.12875353 -0.13884501
000160 a3 79 75 3d 69 56 18 be da 85 04 3e 88 78 8d 3e
       0.059930455 -0.14876713 0.12941685 0.2763102
000170 be 64 8e be 88 6b b1 bd 89 8e 8d 3e 7e 58 f3 3d
       -0.27811235 -0.08663088 0.27647808 0.11882113
000180 4c a5 8c 3e 4e 81 31 be 82 97 c6 3d 98 a4 0a 3e
       0.27469862 -0.17334482 0.096968666 0.1353935
000190 59 46 9d 3d 39 3a 09 be 43 09 90 be 71 ab 3e be
       0.076794334 -0.13401116 -0.28132066 -0.18620087
0001a0 92 fa b0 bd 73 0a 81 bd b9 3e 57 3e fc 30 83 bd
       -0.086415425 -0.06300821 0.2102002 -0.064058274
0001b0 d6 18 6e 3d 7d ed 86 be 05 d9 70 be 6b 7a 87 3e
       0.058129154 -0.26353064 -0.23520286 0.26460585
0001c0 7d 11 bf bc f9 3e 50 be 72 31 93 3e 59 5b 59 3b
       -0.023323769 -0.20336522 0.2874866 0.003316602
0001d0 26 a4 48 3e 86 76 95 be 09 26 7f 3e 05 39 bf bd
       0.19593868 -0.2919199 0.24916853 -0.093370475
0001e0 a1 f7 40 be f5 8a 9b be 0d 8d 25 3e d2 1a 24 be
       -0.18844463 -0.30379453 0.16167088 -0.16025856
0001f0 fd d7 01 3e cc 45 5a be 92 f0 53 3d f6 57 88 3e
       0.12680049 -0.21315688 0.051743098 0.2662961
000200 78 a3 26 be 5e b0 88 3e b6 f1 60 3e 66 a3 3a be
       -0.16273296 0.26697057 0.21967205 -0.18226394
000210 f1 e1 02 3e aa 62 3a be 69 ba 84 3e b4 de 6d 3e
       0.12781502 -0.182017 0.2592347 0.23229486
000220 e9 b9 9e 3e 1c bc 38 be 63 cf 49 3d 10 53 c4 3c
       0.31001213 -0.18040508 0.049270045 0.023965389
000230 a2 6e ef bd 8b 40 98 3d c7 36 e7 3d 26 9f 84 be
       -0.116910234 0.074341856 0.11289745 -0.2590267
000240 57 c5 43 be c0 c4 06 3e 2b 08 d2 3d 3f 9d 1b bd
       -0.19118248 0.13160992 0.10255464 -0.03799176
000250 cb f2 31 3e 9a f1 26 be cf 8f 46 3e ce 66 af be
       0.17377774 -0.16303101 0.19390796 -0.3425812
000260 74 81 32 be 40 41 31 3e 00 1c d7 bd bf d5 96 3e
       -0.17432195 0.17310047 -0.105033875 0.2945995
000270 10 85 4a be 4f fb 20 be b3 8a 2e be 97 53 bc bd
       -0.19777322 -0.15720867 -0.17045097 -0.09195631
000280 0f 9b aa 3d 4d 3b ed bd a7 35 1e 3e 83 c4 0d 3e
       0.08330356 -0.11583576 0.15450154 0.13844495
000290 41 76 74 3d ef f9 6b be e3 fe 7d 3e 55 58 09 3d
       0.05968309 -0.23044561 0.24804263 0.033531506
0002a0 bc 68 9b be 1e da 7b be 68 7b a6 3e 87 58 36 be
       -0.30353343 -0.24594924 0.32516026 -0.17807208
0002b0 ac 63 82 be c1 f0 95 be 38 d5 6b 3e ae 07 ac 3d
       -0.2546667 -0.29285243 0.23030555 0.08399902
0002c0 e4 26 6d 3d 90 6c b6 3d 42 75 5b 3e f3 f8 b9 3d
       0.057898417 0.089074254 0.21431449 0.090806864
0002d0 93 d1 f0 bc d0 ec ae bd cf 54 d1 3b a7 5c 40 3d
       -0.029396808 -0.08541262 0.006388284 0.04696336
0002e0 1c a4 59 be 15 ff 97 bd f5 03 84 3c 1e 37 97 3e
       -0.21254009 -0.074217 0.016115168 0.2953424
0002f0 5d df 60 3e 0c 31 f2 3d 6b da 40 be 76 32 87 3e
       0.21960206 0.11825761 -0.1883332 0.26405686
000300 8d f7 7d be 5d 86 1c bc da 01 59 be f7 93 d2 3d
       -0.24801464 -0.009553519 -0.21192113 0.10282128
000310 e2 8e 87 be 32 25 0b bd 48 69 f4 bc 0d 1f a6 3d
       -0.26476198 -0.03397102 -0.029835358 0.08111391
000320 72 49 84 be 54 12 a5 3d 0c 58 a0 be 6c 0d 7e 3e
       -0.25837284 0.080601364 -0.31317174 0.24809808
000330 77 87 32 3d 3e 7b bc be 2f 29 bc bd b1 3e c2 3d
       0.04358622 -0.36812776 -0.09187543 0.09484614
000340 0a 77 7f 3e 6b 94 e2 3a 5d 1a ff 3d ef ab f6 3d
       0.24947754 0.0017286664 0.124562 0.120445125
000350 29 05 8f 3d 77 90 89 3e 8d 3c a2 be f4 d9 8d 3e
       0.06983406 0.2686803 -0.31686822 0.27705348
000360 a8 ae 79 3d 7a 45 5e 3e 4c ca ab 3c 14 33 98 3e
       0.06095758 0.2170619 0.020970486 0.2972647
000370 04 12 86 be 6f 65 84 3e 95 24 8b 3e 4a bb 77 3e
       -0.2618562 0.25858638 0.27176347 0.24192539
000380 98 d6 69 3e d8 8e 01 3d a6 41 82 be 41 f4 23 3e
       0.22835767 0.031630367 -0.2544071 0.16011144
000390 0f 69 f3 bc ca 89 49 be 4d b2 8d 3d ca 8c bf 3d
       -0.029713182 -0.19681469 0.06918774 0.09353025
0003a0 08 cb 30 3e 3b 90 0a 3e e8 3c 26 3d f2 e2 6e 3e
       0.1726495 0.13531582 0.04058543 0.2332876
0003b0 41 eb aa 3d 1d b2 27 ba c5 61 4c 3d 09 50 57 be
       0.08345652 -0.00063970854 0.049897928 -0.21026625
0003c0 cd 42 8c be 33 20 00 be 63 7c 32 3e 1c e6 7a 3e
       -0.27394715 -0.12512283 0.17430262 0.24501842
0003d0 2a 69 90 3e 15 a4 4a 3e 1d ca 20 3e f1 12 71 be
       0.28205234 0.19789155 0.157021 -0.23542382
0003e0 57 00 18 be de 4d 29 3e 59 29 90 3e ad db 78 3e
       -0.1484388 0.1653361 0.28156546 0.2430255
0003f0 27 c5 b7 3e b9 a6 6b 3e e7 3b 87 3e af 5a 4d 3e
       0.35892603 0.23012818 0.2641289 0.20054124

encoder.critic_encoder.net.mlp.2.weight f4 [256, 256]
000000 30 4d 1c 3c fa 01 d4 bb d2 cb 29 3d a4 49 29 3d
       0.009539887 -0.006469962 0.041454144 0.041329995
000010 0e ad 9a bc cc 09 38 bb 36 fa 82 3c 92 16 0e 3d
       -0.018881347 -0.0028082011 0.01598845 0.034689493
000020 9c 69 ad bb 1f cb 3e bc a3 40 2f bc 83 29 71 3c
       -0.0052921306 -0.0116451075 -0.010696563 0.01471937
000030 48 60 0b 3d 4d 06 11 3d 09 1e fa bc 14 a5 b8 3a
       0.034027368 0.0354064 -0.0305319 0.0014087283
000040 48 4b fe bc 1e 2c c5 3c e7 44 9f 3b f2 9d 24 bb
       -0.031041756 0.024068888 0.0048605087 -0.0025118557
000050 fa 9d 1d 3d d9 16 df 3c a9 51 0d bc da 85 15 bd
       0.038480736 0.027232574 -0.008625426 -0.036504604
000060 5a 24 ae bb 92 62 53 bd c2 7c 90 bd a3 5e 35 bd
       -0.005314392 -0.051607676 -0.07055046 -0.044279706
000070 00 92 34 bd 8b 98 31 bd 41 6b 1d bd a6 d3 ac 3c
       -0.04408455 -0.043358367 -0.038432363 0.021097016
000080 38 36 9a 3d dd 89 0c 3c 55 91 44 bb 48 a8 44 3d
       0.07529873 0.008577791 -0.0029993851 0.048012048
000090 42 7a 42 bd a1 e1 38 3d da 2c cb bc 29 a6 73 ba
       -0.047479875 0.04513705 -0.02480166 -0.0009294474
0000a0 1d 8a 23 3d 15 93 81 bd 13 13 53 3d 40 00 4c 3d
       0.039926637 -0.06326882 0.051531862 0.049804926
0000b0 48 33 e4 3d bf 3b 76 3d 8f 5f 56 bd 81 55 0c bc
       0.111425936 0.060115572 -0.052337226 -0.008565308
0000c0 7a 4c 56 bd 25 86 6a bd cd 68 9e 3b 6f d9 2c bd
       -0.052319027 -0.057256836 0.0048342706 -0.04219955
0000d0 77 88 81 3d 46 d2 91 3d 9f 9e 83 bb e6 57 88 bd
       0.06324857 0.071201846 -0.004016712 -0.0665739
0000e0 f4 96 1e bc d2 64 7a bc 0b 7b 11 bc 8f 68 e4 3b
       -0.009679545 -0.0152828265 -0.008879433 0.006970472
0000f0 cf f9 02 bd 47 36 32 bd c3 58 83 3d 4b 2d 82 bd
       -0.031976517 -0.043508794 0.06413414 -0.06356295
000100 c9 a8 86 bd 81 cd 54 bd 03 45 8d 3d e4 88 0f 3d
       -0.06575162 -0.051953796 0.068979286 0.03504266
000110 36 d3 37 bd 36 37 2c 3b f9 68 d0 3c 33 0e 0e bd
       -0.04487916 0.0026278025 0.02544068 -0.03468151
000120 6f e2 28 bd 29 54 e3 3b 19 8e 76 3d 94 d4 00 ba
       -0.04123157 0.006937523 0.06019411 -0.0004914489
000130 96 2a a9 bd 7c c4 13 bc c4 c3 15 bd f0 11 4a 3d
       -0.08260076 -0.0090190135 -0.03656365 0.049333513
000140 a5 1b ba 3c 51 54 04 3d 16 ce 8d 3c 66 29 5d bc
       0.02271826 0.032306973 0.017310183 -0.01349864
000150 ec 8e 9b bd b9 79 05 3d 20 06 24 3b 20 5e 07 bc
       -0.075956196 0.032586787 0.0025028065 -0.008262187
000160 73 ea 1c bd a2 a1 3b bd 1e 54 0a 3d 13 11 39 3c
       -0.038309526 -0.045808442 0.033771627 0.011295575
000170 bb 99 6b bd 12 7f da bc 10 91 ce bb 0b 9e 38 bd
       -0.057519656 -0.02667192 -0.006303914 -0.045072597
000180 5d 27 08 3e ba e8 52 3c bf 46 e1 3d de c2 d7 3d
       0.13296266 0.012872869 0.10999822 0.10535215
000190 46 90 8b 3d e5 b9 3a bc a0 4d a2 3d e0 4c 61 bd
       0.06814627 -0.01139686 0.07924962 -0.055004954
0001a0 84 0a 17 bd ba c8 80 bd 92 0a 88 3d 74 fc c7 3c
       -0.036875263 -0.062882856 0.06642641 0.024412371
0001b0 a7 5b b9 bc 4b 18 fa 3b 0d b0 0c bc d5 fc 18 3d
       -0.022626711 0.0076322905 -0.008586896 0.037350494
0001c0 cd 8b 73 3d 52 54 72 3d 91 9c 8f 3d 0c 1c ae 3d
       0.059459496 0.059162445 0.070122845 0.08501443
0001d0 b2 12 89 bc df 7b 11 3d 5d f7 0b 3d 8d f1 84 3d
       -0.016732547 0.035518523 0.03417145 0.06491385
0001e0 ad 7b 0f 3c 95 a5 ea bb 2f b3 5e bd a7 fa 84 3d
       0.008757514 -0.007160852 -0.0543701 0.06493121
0001f0 96 91 16 bd 59 7b 6e bc a2 6a 28 3d 67 08 3f bd
       -0.036759935 -0.014555776 0.041117318 -0.046638872
000200 02 7e 75 3d ea 0d 46 bd 36 55 aa 3d 65 a0 56 3c
       0.059934624 -0.048353113 0.08317034 0.0130997645
000210 0e e3 3f 3d 10 a6 df 3c b8 9b 89 3d 69 f2 e0 bc
       0.046847396 0.027300864 0.06719154 -0.02745934
000220 06 6a 1f bd de 57 61 3c 8c f1 86 3d e1 bf 70 3d
       -0.03891947 0.013753859 0.0658904 0.05877674
000230 77 35 0b bd 7e f6 c5 3c 04 9f 69 bd f1 60 8d bd
       -0.033986535 0.024165388 -0.057036415 -0.06903256
000240 69 1a e6 bb be 23 d8 3c f0 31 1e 3c 77 16 4e 3c
       -0.0070221913 0.02638423 0.009655461 0.012578598
000250 34 61 1b 3d b4 3e bd bc 8b e4 49 bd 73 48 a0 3c
       0.037934497 -0.023101188 -0.04929022 0.019565796
000260 c1 09 58 bd a1 13 07 3d cd 9f 6a bc 36 47 84 3d
       -0.052743677 0.032977704 -0.014320326 0.06458895
000270 1e e3 13 bd 0c b7 84 3d 98 6f 8c 3d 34 ef 02 bd
       -0.036105268 0.06480226 0.06857222 -0.031966403
000280 c8 27 16 bc 8b 9a 98 3b bb 05 45 bd 10 4a a4 bc
       -0.009164758 0.004657095 -0.048101168 -0.020054847
000290 78 61 5f 3d 6e df 79 bd 51 38 a7 3c 2d 04 75 bd
       0.054536313 -0.061004095 0.020412596 -0.059818435
0002a0 46 96 e5 3b 95 c8 18 3d 0f 6b 14 3b 32 6f fd 3c
       0.0070064394 0.037300665 0.002264682 0.030936811
0002b0 d1 c0 58 3d c8 1a 8a 3d d9 58 46 bd b1 cd 69 3d
       0.05291826 0.06743389 -0.048424575 0.05708093
0002c0 9b 7c 3d 3d 8d 6a 0c 3d 3d b8 16 bd c2 78 46 bd
       0.04626141 0.034281302 -0.036796797 -0.048455007
0002d0 48 dc 3a 3d 8a 67 a8 bc d4 fc 5c 3d 50 cd a1 3c
       0.045620233 -0.020557184 0.053952053 0.019751221
0002e0 8c fb 2e bd 39 e3 cf bb 36 9e 0b bd 20 a0 10 bc
       -0.042720363 -0.0063442257 -0.03408643 -0.008827239
0002f0 33 0f 9c bc 59 22 ad 3d 90 09 5d 3d 2b 6e 7d 3c
       -0.019050216 0.08453817 0.053964198 0.015468161
000300 91 f0 88 3c bd e1 65 bc f8 aa 51 3b 24 b2 03 3d
       0.016716274 -0.014030871 0.0031992774 0.03215231
000310 a3 ad 05 3d 4d 46 c2 3c 81 f6 13 bc 3e 1c da bc
       0.032636296 0.023715163 -0.009030939 -0.026624795
000320 dd 93 20 bd fb 82 47 bd b6 cf a2 bd 41 d0 0e bc
       -0.039203513 -0.048708897 -0.07949774 -0.008716644
000330 fa e7 82 bd 49 81 2a b9 aa 58 7f 3d 90 9c 1e bc
       -0.06391902 -0.00016260626 0.062340416 -0.009680882
000340 c8 e7 17 3d 37 15 02 bc 9a 69 c8 3b 0c 63 10 3d
       0.03708628 -0.007939628 0.0061161043 0.03525071
000350 0b dc a5 3c 59 e1 86 3b 45 25 70 bc 9e fa 86 3d
       0.020246526 0.004116219 -0.014657323 0.0659077
000360 76 ab 95 3c 63 c4 0e 3d 4d 5a 81 bc d3 de dc 3d
       0.018270236 0.034855258 -0.01579013 0.10784688
000370 c7 af f3 bb e9 5d 99 bb eb d2 86 3d 21 ba 7f bd
       -0.007436726 -0.0046803844 0.06583198 -0.062433366
000380 8f 70 08 bd be 2a 35 3b d5 09 2b bd bf 1f b8 3b
       -0.03331047 0.0027643885 -0.041757423 0.005619019
000390 9b 62 70 bd 71 1a 61 bd c1 84 db bd 2b 95 2c bd
       -0.058687788 -0.054956857 -0.1071868 -0.042134445
0003a0 b6 f2 81 bc 4b 00 52 bd c8 d3 e3 3c 5d 7b 5a bd
       -0.015862804 -0.05126981 0.027810946 -0.053340305
0003b0 6a 13 7c bd 03 94 95 bc 4d cc 24 bd f4 60 e6 bb
       -0.061541952 -0.018259054 -0.0402339 -0.0070306007
0003c0 bf 75 e9 bc 57 95 a1 3d c3 c8 fd 3c d9 29 0b 3d
       -0.028498529 0.078898124 0.03097952 0.033975456
0003d0 cc 02 4f 3c 24 57 fc 3c 8e d5 ab bb 88 6d 8c bc
       0.012634944 0.03080327 -0.0052439636 -0.017142072
0003e0 50 56 24 be 7e a1 4b 3b 18 c1 09 3d a7 96 1e bd
       -0.1604855 0.0031071599 0.033631414 -0.038717892
0003f0 0f 37 46 3d 94 4b f7 3c b7 8b 02 bd 69 9f bf bb
       0.04839235 0.030187406 -0.031871524 -0.0058478606
