trained_policies/learner/module_state/cop_policy/module_state_dir/module_state.pt (torch, 553090 bytes, 11 tensors)

encoder.actor_encoder.net.mlp.0.weight f4 [256, 7]
0	0xbe4f91a3	-0.202704
1	0x3d0aeccd	0.033917237
2	0xbea6e85c	-0.3259915
3	0x3e97f599	0.29679564
4	0xbc98dd55	-0.018660227
5	0x3ea7dd7f	0.32786176
6	0x3e94722c	0.28993356
7	0xbe1397da	-0.14413396
8	0xbe2a3ad3	-0.16624002
9	0xbdd9143b	-0.10599562
10	0xbd60782c	-0.054802105
11	0x3e203688	0.15645802
12	0x3d927d92	0.07152857
13	0xbdfe1919	-0.12407131
14	0x3e077384	0.1322766
15	0x3b04a688	0.0020240862
16	0x3eab03e6	0.33401412
17	0xbe964481	-0.2934914
18	0x3e71fa1f	0.2363057
19	0xbe4ed32b	-0.20197742
20	0x3da72493	0.08161273
21	0xbea0de2b	-0.314195
22	0x3e50ec96	0.2040275
23	0x3e081a8f	0.13291381
24	0xbe97b67e	-0.29631418
25	0x3e5cd77d	0.21566577
26	0xbe55b0ea	-0.20868269
27	0x3bbebbf6	0.0058207465
28	0x3dfe14cc	0.124063104
29	0x3e2c1285	0.1680394
30	0x3e3b115b	0.1826834
31	0xbdd95cb0	-0.10613382
32	0x3e0ea165	0.13928755
33	0xbe6cacb3	-0.23112755
34	0xbea18d9b	-0.3155335
35	0x3e07f6d3	0.1327775
36	0x3e93eb34	0.28890383
37	0xbe8aa9aa	-0.27082568
38	0x3e8afb39	0.27144793
39	0x3debc9cd	0.115131
40	0x3eb69edf	0.35668084
41	0xbde794e0	-0.113076925
42	0xbe4cc494	-0.19996864
43	0xbc892010	-0.016738921
44	0xbdb8fee4	-0.090329915
45	0xbdfd9019	-0.12381
46	0xbe80536d	-0.2506365
47	0x3e8a9436	0.270662
48	0x3edd6d83	0.43247613
49	0x3e3ec7a0	0.18630838
50	0x3e9f41a2	0.3110476
51	0x3e618ad2	0.22025612
52	0xbe637443	-0.22212319
53	0xbd6d7d6f	-0.05798095
54	0xbdb01235	-0.08597223
55	0x3e7b4708	0.24538815
56	0xbc3c6dc2	-0.011500778
57	0x3d0d1977	0.034448113
58	0xbde90ab9	-0.11378998
59	0xbe834967	-0.2564194
60	0xbcd9efce	-0.026603606
61	0xbdf4539b	-0.11930009
62	0xbd0b8d97	-0.034070577
63	0x3e7eaa24	0.24869591
64	0xbe9ad3d5	-0.3023974
65	0xbe0f685c	-0.14004654
66	0xbeb2e01d	-0.3493661
67	0x3d933b38	0.071890295
68	0xbdcb7a02	-0.099353805
69	0x3e74b409	0.23896803
70	0xbe891224	-0.26771653
71	0xbd8f72f7	-0.0700435
72	0xbd784d56	-0.06062063
73	0xbe04c5d0	-0.12966084
74	0x3dcf2755	0.10114924
75	0x3e0108ea	0.12601057
76	0x3cc58d85	0.024115333
77	0xbdab4cb2	-0.08364238
78	0xbd8133f5	-0.06308738
79	0xbec29c53	-0.3800989
80	0x3e79ac74	0.24382192
81	0x3deb82f2	0.11499585
82	0xbd075929	-0.033044014
83	0xbe8a9fa3	-0.27074918
84	0x3eb5930d	0.35463753
85	0x3e05ff8d	0.13085766
86	0xbc431efc	-0.011909243
87	0xbeb25eda	-0.3483799
88	0x3b859795	0.004076908
89	0x3c09a1f0	0.008400425
90	0x3e111d9f	0.14171456
91	0x3df47aa5	0.11937455
92	0x3e6229f5	0.22086318
93	0xbd8465c1	-0.064647205
94	0x3e4f94e7	0.20271645
95	0xbe9dadcf	-0.30796668
96	0x3e5f3dcf	0.21800922
97	0xbe4adf9a	-0.1981186
98	0x3e49fb44	0.19724756
99	0x3dddc59f	0.10828709
100	0xbe991c7a	-0.29904538
101	0x3e0845bb	0.1330785
102	0xbc7bb86a	-0.015363792
103	0xbea59135	-0.32337347
104	0xbe65acc2	-0.22429183
105	0xbe0138d2	-0.12619331
106	0xbe9058c8	-0.28192735
107	0x3ea50409	0.3222964
108	0xbe1dd69f	-0.15413903
109	0xbe8d850e	-0.27640575
110	0xbe4fac17	-0.20280491
111	0xbe56e74a	-0.20986667
112	0x3e5bec1c	0.21476787
113	0xbeb18b2b	-0.3467649
114	0x3e63cca2	0.2224603
115	0xbe08ef48	-0.13372529
116	0x3dd6e979	0.1049375
117	0xbe22d273	-0.15900593
118	0x3e771f7e	0.24133107
119	0x3e562135	0.20911105
120	0x3e591941	0.2120104
121	0x3eb3e655	0.35136667
122	0x3eb4e62a	0.3533185
123	0x3cdca070	0.026931971
124	0x3e0caaed	0.13737078
125	0x3e45fdbd	0.19335075
126	0x3eb54954	0.35407507
127	0x3e3b031a	0.18262902
128	0xbc5fe40d	-0.013665211
129	0xbdc40e5e	-0.09573053
130	0x3d9cd1cb	0.07657202
131	0x3e703752	0.23458603
132	0x3df99775	0.12187091
133	0x3eb0f8f4	0.34564936
134	0xbea37d8c	-0.31931722
135	0x3d374d12	0.044751234
136	0x3d4b4d54	0.049634293
137	0x3d39cb17	0.045359697
138	0x3e154f75	0.14581092
139	0xbeb968c5	-0.36212745
140	0xbc8bcd8f	-0.017065791
141	0x3e04360c	0.12911242
142	0x3cde5987	0.0271423
143	0x3e83866c	0.25688493
144	0x3ec020c4	0.37524998
145	0xbd619687	-0.055075195
146	0x3d9caa1f	0.076496355
147	0x3e2a92eb	0.16657607
148	0xbe3201e1	-0.17383529
149	0xbd6e3abe	-0.05816149
150	0x3d63dc34	0.055629924
151	0xbe0a6f8b	-0.13519113
152	0xbec2d477	-0.38052723
153	0x3cac84b5	0.021059373
154	0xbe26955d	-0.16267915
155	0xbcabe18d	-0.020981574
156	0x3ea495ca	0.3214553
157	0x3e93e1f6	0.28883332
158	0xbe116f5f	-0.14202641
159	0xbe881667	-0.26579592
160	0xbd8da9fc	-0.069171876
161	0xbe66bb1a	-0.22532311
162	0x3cde7529	0.027155476
163	0x3de22e34	0.11043969
164	0xbe9e6e69	-0.3094361
165	0xbd3c49ae	-0.045968704
166	0xbdf0039b	-0.11719438
167	0xbd83b37f	-0.064307205
168	0xbe956b81	-0.2918358
169	0xbe88bb55	-0.26705423
170	0x3dd5c97f	0.10438823
171	0x3e75173e	0.23934647
172	0xbe89016d	-0.267589
173	0xbdff1faa	-0.12457211
174	0xbd0eeedb	-0.03489576
175	0xbe15d838	-0.14633262
176	0x3eac2e0b	0.33628878
177	0x3d7f9753	0.062400173
178	0xbcfb5a73	-0.030682778
179	0x3d5482ae	0.05188244
180	0x3e974757	0.29546615
181	0x3e3036fc	0.17208475
182	0xbe8b4353	-0.27199802
183	0x3a47a971	0.00076164963
184	0x3e89d162	0.2691756
185	0xbebe4ff2	-0.37170368
186	0x3e172e83	0.14763837
187	0xbd7dfda4	-0.06200947
188	0xbe4e4b05	-0.20145805
189	0x3d13cce8	0.036084086
190	0xbdccb4d9	-0.099954315
191	0x3d46757c	0.048451886
192	0x3dc03c3c	0.09386489
193	0xbd50ed9c	-0.051007852
194	0x3e1ed3a4	0.15510422
195	0xbe9b5caa	-0.30344135
196	0xbabf7c40	-0.0014609173
197	0x3dab0132	0.08349837
198	0x3e1f29c1	0.15543272
199	0x3dcabc53	0.09899201
200	0x3d54a066	0.05191078
201	0xbd74e5c6	-0.05978944
202	0xbe2bbb52	-0.16770676
203	0x3e2ec2a4	0.17066437
204	0xbe9450e8	-0.28967977
205	0x3de6e4f6	0.112741396
206	0xbe7d9f08	-0.24767697
207	0xbde65543	-0.11246731
208	0x3ec82227	0.39088556
209	0xbe2fcee1	-0.17168762
210	0xbd9f9c6d	-0.07793508
211	0xbe8df503	-0.27725992
212	0xbb53c80b	-0.003231528
213	0x3d8cf6c5	0.06883005
214	0x3e718094	0.23584205
215	0xbd84f583	-0.0649214
216	0xbea0d65d	-0.31413546
217	0x3eae104f	0.33996817
218	0x3aeb8971	0.0017970038
219	0xbcbb7a54	-0.022885479
220	0xbd976ff6	-0.07394402
221	0x3e4b06f6	0.19826874
222	0x3e949516	0.29019994
223	0x3c71c17a	0.014755601
224	0xbeb48a68	-0.35261846
225	0xbda7914c	-0.0818201
226	0xbeb3141f	-0.3497629
227	0x3e131f3e	0.14367387
228	0x3dc046ec	0.09388527
229	0x3e18e818	0.14932287
230	0xbeccd2d7	-0.40004608
231	0xbeaece77	-0.34141895
232	0x3e9c535a	0.30532342
233	0x3d1b3ad8	0.037897915
234	0x3dbae081	0.09124852
235	0x3ebce959	0.3689678
236	0x3e20954d	0.15681954
237	0xbddac7bb	-0.10682627
238	0x3e0c2436	0.13685688
239	0x3dfdb0ce	0.123872384
240	0x3d81b4e1	0.06333328
241	0x3d5d56b2	0.054037757
242	0xbddafb13	-0.1069242
243	0x3eb06768	0.34453893
244	0x3dffe919	0.12495632
245	0x3e3b1fa9	0.18273796
246	0xbca2ab09	-0.019856947
247	0xbe3e86c3	-0.18606095
248	0x3e900bf2	0.28134114
249	0xbebd3221	-0.36952308
250	0x3eb88f07	0.3604662
251	0x3dc8bf5e	0.098021254
252	0x3d8ca08f	0.068665616
253	0xbde0c9ff	-0.10976028
254	0x3ec5242a	0.38504153
255	0xbe53def8	-0.20690525

encoder.actor_encoder.net.mlp.0.bias f4 [256]
0	0xbd82511f	-0.06363129
1	0xbe6ce683	-0.23134808
2	0xbeb61874	-0.3556553
3	0xbd01bc08	-0.03167346
4	0x3e0a0edf	0.13482235
5	0x3ec509af	0.3848395
6	0x3d87f4dc	0.066385
7	0x3e1b41ff	0.15161894
8	0xbeba9f2a	-0.36449558
9	0x3e6e0c03	0.2324677
10	0xbe664025	-0.22485407
11	0xbe81f482	-0.25381857
12	0x3daf722f	0.08566701
13	0xbe9cb3e8	-0.30606008
14	0xbce7401f	-0.028228818
15	0x3df9f613	0.12205138
16	0x3eb26c3b	0.34848198
17	0x3e6405dc	0.2226786
18	0xbebcc820	-0.36871433
19	0xbe758ad1	-0.23978736
20	0xbe59c728	-0.21267378
21	0xbe43a036	-0.19104084
22	0xbd748961	-0.059701327
23	0x3e8b8a8a	0.27254134
24	0xbdaaad4e	-0.083338365
25	0x3d832e91	0.06405366
26	0x3e999f3d	0.30004302
27	0xbeb6b573	-0.3568531
28	0xbe8d4515	-0.27591768
29	0x3c0a2d8b	0.00843371
30	0x3e0a8176	0.13525948
31	0xbe555858	-0.20834482
32	0x3db06564	0.08613089
33	0xbe90a461	-0.2825041
34	0x3ea32a96	0.31868428
35	0xbc9ff5b5	-0.019526342
36	0xbea73e03	-0.326645
37	0xbd094e0f	-0.033521708
38	0x3ec41b7d	0.38302222
39	0x3c193419	0.0093508
40	0x3ea0b034	0.31384432
41	0xbe6062b1	-0.21912648
42	0xbde35978	-0.11101049
43	0xbdafbe94	-0.08581272
44	0x3e2680c0	0.16260052
45	0x3cd62e2f	0.026145069
46	0xbe692fdf	-0.22772168
47	0x3e93740f	0.28799483
48	0x3e107814	0.14108306
49	0x3ead6753	0.33867893
50	0x3e5441c7	0.20728217
51	0x3cd3fe27	0.025878025
52	0xbdcb877a	-0.099379495
53	0xbd020cd1	-0.031750504
54	0x3e46f639	0.19429864
55	0x3eb6ee55	0.35728708
56	0xbebac072	-0.3647495
57	0x3e824abe	0.2544765
58	0x3b632142	0.0034657274
59	0xbe8305f7	-0.25590488
60	0x3e86e9e6	0.26350325
61	0x3d0e6be4	0.03477086
62	0xbe4e5b62	-0.20152047
63	0x3c5c1931	0.0134337405
64	0x3eb61dbf	0.3556957
65	0xbdefd246	-0.11710028
66	0x3eb14cc0	0.34628868
67	0xbdd216a0	-0.102582216
68	0x3dfd71b1	0.123752005
69	0xbd56a339	-0.052401755
70	0xbe9b1678	-0.3029058
71	0xbd7cec9b	-0.061749082
72	0x3c70803c	0.014679011
73	0x3cec1b46	0.028821599
74	0xbe6a0859	-0.22854747
75	0xbe1925a5	-0.14955766
76	0x3e1bc0f7	0.15210329
77	0xbe966648	-0.2937491
78	0xbddcd266	-0.10782318
79	0x3db2c4b1	0.08728922
80	0x3eac93d4	0.33706534
81	0x3ec00259	0.3750179
82	0xbdcf7b6b	-0.10130962
83	0xbdb56a3a	-0.08858152
84	0xbea4abcb	-0.32162318
85	0xbe89732e	-0.26845688
86	0xbd81e9e4	-0.06343439
87	0xbcc0ab94	-0.023519315
88	0xbe29c2e7	-0.16578256
89	0x3e001ddd	0.12511392
90	0x3d36ae61	0.044599894
91	0xbe44b20e	-0.19208547
92	0xbeb4ede9	-0.3533776
93	0x3d9ef5c3	0.07761719
94	0xbe642629	-0.22280182
95	0xbd9daa85	-0.0769854
96	0x3e0451a8	0.12921774
97	0xbd48de2f	-0.049040016
98	0x3ea687fd	0.32525626
99	0xbcee4570	-0.029085845
100	0x3c5e77a8	0.013578333
101	0xbeb95763	-0.36199483
102	0xbd295c01	-0.041347507
103	0xbe1c9c37	-0.15293966
104	0xbd771b49	-0.060328756
105	0xbd1d7fde	-0.03845202
106	0xbebbe6b2	-0.36699444
107	0x3de9c2d7	0.11414116
108	0x3e88939d	0.2667512
109	0xbe080f38	-0.13287055
110	0x3dbc3828	0.091903985
111	0x3e5b8d6a	0.21440664
112	0x3df0c7c0	0.11756849
113	0x3d45dc0e	0.048305564
114	0x3e82e8d3	0.25568256
115	0x3e77a66c	0.24184579
116	0xbd2fdbc3	-0.04293419
117	0x3e2809c4	0.16409975
118	0xbeb5b1d8	-0.35487247
119	0xbe09ca15	-0.13455994
120	0x3eaa1529	0.3321927
121	0xbe31037d	-0.17286487
122	0xbe073c3b	-0.1320657
123	0xbda5db49	-0.08098466
124	0x3d252232	0.040315814
125	0x3ec467a4	0.38360322
126	0xbd4391cd	-0.04774647
127	0xbd6699e1	-0.056299094
128	0xbd96b1e4	-0.07358149
129	0x3ea72112	0.32642418
130	0x3df72273	0.120671175
131	0xbe4bfb91	-0.19920184
132	0xbe14696c	-0.1449334
133	0x3e921f0f	0.2853932
134	0x3ea936ff	0.3304977
135	0xbec096bb	-0.37614998
136	0x3db2c9df	0.0872991
137	0x3da50b51	0.08058799
138	0x3eb46690	0.352345
139	0x3e463ee7	0.19359933
140	0xbe496fa2	-0.19671491
141	0xbe138893	-0.14407568
142	0xbe4f615a	-0.2025198
143	0xbe8349e6	-0.25642318
144	0xbe49f5d7	-0.19722687
145	0xbea6451a	-0.32474595
146	0xbe1b6778	-0.15176189
147	0xbd9050de	-0.07046674
148	0x3e725dd6	0.23668608
149	0xbeaf0585	-0.341839
150	0xbe82bd49	-0.25535038
151	0x3e810006	0.2519533
152	0x3e640d9c	0.22270817
153	0xbe8459ec	-0.25849855
154	0xbe2e19a0	-0.17001963
155	0x3b113166	0.0022154688
156	0x3e05c427	0.13063107
157	0xbea63dbc	-0.32468975
158	0xbeb476a1	-0.35246757
159	0xbddc23ee	-0.107490405
160	0x3d07893c	0.03308986
161	0xbe39906c	-0.18121499
162	0x3eb92f58	0.36168933
163	0xbebb202d	-0.36547986
164	0x3e8b6a56	0.27229565
165	0xbda63b04	-0.08116725
166	0x3eaf5896	0.34247273
167	0xbea70b74	-0.32625926
168	0xbe78684f	-0.2425854
169	0xbcf24030	-0.029571623
170	0x3ea2a34c	0.3176521
171	0xbe84a029	-0.25903443
172	0xbe4d951d	-0.20076413
173	0xbe2b19bd	-0.16709037
174	0x3eb81a1f	0.3595743
175	0x3ea08ca2	0.31357294
176	0x3debdd67	0.115168385
177	0xbe3fcd48	-0.18730652
178	0xbdb58f6a	-0.08865245
179	0x3e6b120a	0.229561
180	0x3e8300bd	0.255865
181	0x3cff8d26	0.031195235
182	0x3d9d8eea	0.07693274
183	0x3e549651	0.20760466
184	0x3ec137cd	0.37737885
185	0x3e9d5ffb	0.3073729
186	0x3dfa03d5	0.12207762
187	0x3eac174b	0.3361152
188	0xbe1c0950	-0.15237927
189	0x3ea83272	0.32850987
190	0xbd252cbc	-0.040325865
191	0xbe16eb8c	-0.14738292
192	0x3ec1e6cd	0.378714
193	0xbce4d00c	-0.027931236
194	0x3e725f94	0.23669273
195	0x3d8eabf5	0.06966392
196	0x3e88a80e	0.26690716
197	0xbe5454ab	-0.20735423
198	0xbe9dda71	-0.3083072
199	0x3d76b450	0.060230553
200	0xbe6c21d8	-0.23059785
201	0xbec40ca4	-0.38290894
202	0x3e7ae203	0.24500279
203	0x3dcae1c1	0.099063404
204	0xbeaa1f75	-0.33227125
205	0x3e91818f	0.28419158
206	0x3e61dd11	0.22056986
207	0x3e4bd9ee	0.19907352
208	0xbc9c70c0	-0.019096732
209	0xbe67a2c5	-0.22620685
210	0xbebcf4a6	-0.36905402
211	0x3e4f51a5	0.20245989
212	0x3e88abdf	0.26693627
213	0xbe1ccff1	-0.15313698
214	0x3d80ea7b	0.062947236
215	0x3d433f82	0.047667988
216	0x3e6cff5a	0.23144284
217	0x3e18bfca	0.14916912
218	0xbdc48626	-0.09595899
219	0x3e844a8d	0.25838128
220	0xbc300fac	-0.010745924
221	0xbc33fae1	-0.010985107
222	0x3e9317d3	0.28729114
223	0x3e28dc09	0.16490187
224	0xbe375f85	-0.17907532
225	0x3eb8b210	0.3607335
226	0x3e4bb5f3	0.19893627
227	0x3eaa0442	0.33206373
228	0x3e92f893	0.28705272
229	0x3dbe139d	0.09281085
230	0xbe892843	-0.2678853
231	0x3e71804c	0.23584098
232	0x3ead41fa	0.338394
233	0xbd2ea3ff	-0.042636868
234	0x3e7ebb6b	0.24876182
235	0xbecba8b2	-0.39777142
236	0x3e8ddd94	0.27708113
237	0xbe654009	-0.22387709
238	0x3e781322	0.24226049
239	0xbd9569b3	-0.07295551
240	0xbe2e9b99	-0.17051543
241	0x3dc04aa3	0.09389236
242	0xbe02641e	-0.12733504
243	0x3dcf99e0	0.10136771
244	0xbe1bec1f	-0.15226792
245	0x3eb15859	0.34637716
246	0x3e6183b4	0.22022897
247	0xbe6a5a3c	-0.22885984
248	0x3d2ec03b	0.042663794
249	0xbe7573d2	-0.23969963
250	0xbe8867ab	-0.26641592
251	0xbe559bad	-0.20860167
252	0x3912ef61	0.0001401282
253	0xbd0dfa0d	-0.034662295
254	0x3dc25017	0.09487932
255	0xbdbf9b10	-0.09355748

encoder.actor_encoder.net.mlp.2.weight f4 [256, 256]
0	0x3c965c80	0.018354654
1	0xbd29bb2e	-0.041438274
2	0x3d3c0b06	0.04590895
3	0xbc2dd9ce	-0.010611011
4	0xbce57fc6	-0.028015029
5	0x3bcd3839	0.006262806
6	0xbcb3559f	-0.021891413
7	0x3c87a1f5	0.01655672
8	0xbbb768a0	-0.005597189
9	0xbc906f6f	-0.01763126
10	0x3d5850dd	0.052811492
11	0xbcfc1c9f	-0.030775366
12	0x3d804429	0.062630005
13	0x3ca47274	0.020074107
14	0xbd40dd04	-0.047085777
15	0x3d462e5f	0.048384067
16	0xba9cafd9	-0.0011954262
17	0xbd5a86f7	-0.05335137
18	0xbcf47057	-0.029838724
19	0xbbd5840e	-0.0065159863
20	0x3c21ad45	0.009867971
21	0x3d205775	0.039145906
22	0xbcfc1e3b	-0.030776134
23	0xbd5f8064	-0.054565802
24	0x3d292c91	0.041302267
25	0xbc74ab73	-0.014933455
26	0x3ce7aafb	0.028279772
27	0xbc418ec9	-0.011813828
28	0xbd088a77	-0.033335175
29	0x3d12c48e	0.03583198
30	0x3d6c0c60	0.05762899
31	0x3d0d4c40	0.034496546
32	0x3cd9e48f	0.026598243
33	0xbd4de288	-0.050264865
34	0x3d7d6e98	0.06187305
35	0x3a88d06a	0.0010438089
36	0xbaafa76c	-0.0013401336
37	0xbd4d325c	-0.050096855
38	0x3d4602a5	0.048342366
39	0x3ba29bdf	0.004962429
40	0xbd1aa93f	-0.037759062
41	0xbade3cb0	-0.0016955342
42	0xbc7085ca	-0.014680335
43	0x3cd74be5	0.026281307
44	0x3c60e17b	0.013725634
45	0x3d62f2b3	0.055407237
46	0xbc858b9b	-0.01630192
47	0x3c982f26	0.01857717
48	0xbcf62ee8	-0.030051664
49	0xbc82fc9d	-0.015989596
50	0x3d7fe7be	0.062476866
51	0xbc9619db	-0.018322876
52	0x3db563a8	0.088568985
53	0xbd3509a9	-0.044198666
54	0x3bb3c2d0	0.00548587
55	0x3d43173e	0.047629587
56	0x3d6614df	0.056172248
57	0xbd2d347f	-0.042286392
58	0xbc6bfb02	-0.014403107
59	0x3d79177c	0.060813412
60	0xbd28bf96	-0.041198336
61	0x3d2f0391	0.04272801
62	0xbd248b8d	-0.04017215
63	0xbca8b272	-0.020592902
64	0xbd53da27	-0.05172172
65	0x3d5c9006	0.05384829
66	0x3c8161e9	0.015793758
67	0xbb26ce56	-0.0025452576
68	0x3d3f9310	0.04677111
69	0x3c8316a5	0.016002009
70	0xbd80e270	-0.062931895
71	0x3d268b7d	0.04066037
72	0xbb7b4bfb	-0.0038344848
73	0x3d228db6	0.039685927
74	0xbd487fca	-0.048949994
75	0x3d4125c5	0.04715516
76	0x3b3196eb	0.002709801
77	0xbd5ffcf6	-0.0546846
78	0xbbbcd80f	-0.005763061
79	0x3d5caa77	0.053873505
80	0xbd03378e	-0.032035403
81	0x3c9ed535	0.019388774
82	0xbce285cf	-0.027651696
83	0xbd1ca973	-0.038247537
84	0xbcde72fd	-0.02715444
85	0x3cf1a69e	0.029498395
86	0xbd23102c	-0.039810345
87	0xbd62f240	-0.05540681
88	0x3d6ba9b0	0.057534873
89	0xbd10267c	-0.03519295
90	0x3d6b23c9	0.057407174
91	0xbb385d85	-0.0028131914
92	0xbc6d3c04	-0.014479641
93	0xbcb9a4f0	-0.022661656
94	0x3caee944	0.021351464
95	0x3d4b9a58	0.04970774
96	0xbd152342	-0.036410578
97	0x3d4b83d0	0.049686253
98	0xbd154123	-0.036439072
99	0xbc160786	-0.009157067
100	0xbd0deac6	-0.034647726
101	0xbd9bbcc4	-0.076043636
102	0x3d8ef710	0.06980717
103	0xbd857e29	-0.06518204
104	0x3cde3f07	0.027129663
105	0xbd238e44	-0.039930597
106	0xbd5343b6	-0.051578246
107	0x3cf3b95f	0.029751478
108	0xbc8b3f3f	-0.016997932
109	0x3d873d99	0.06603546
110	0xbd21a358	-0.039462417
111	0xbd623e31	-0.05523509
112	0xbcbb67d2	-0.022876654
113	0xbd56630a	-0.052340545
114	0xbd269287	-0.040667083
115	0xbbae2f3c	-0.0053156894
116	0xbc8bf403	-0.017084127
117	0xbc3af068	-0.011409856
118	0x3be51f3c	0.006992249
119	0xbb6dc0f6	-0.0036278344
120	0x3c2450e8	0.010029055
121	0x3cdaacdd	0.026693756
122	0xbcddb57d	-0.02706408
123	0xbc852f42	-0.016257886
124	0x3d4e9367	0.050433543
125	0x3a78bd00	0.00094886124
126	0x3c43a8f5	0.011942138
127	0xbd40e4bf	-0.04709315
128	0xbd51ae02	-0.051191337
129	0x3d5e5601	0.05428124
130	0xbd1b3817	-0.03789529
131	0xbc84866f	-0.016177384
132	0x3d5256d4	0.051352337
133	0x3c46779c	0.012113478
134	0xbc95d195	-0.018288413
135	0xbd419b87	-0.047267463
136	0x3d582b81	0.052775864
137	0x3c860735	0.016360858
138	0xbc94b234	-0.01815138
139	0x3cd45744	0.025920518
140	0xbd144204	-0.03619577
141	0x3c30fbce	0.010802222
142	0xbd02e46b	-0.031956118
143	0xbd6607c1	-0.05615974
144	0xbcf155e0	-0.029459894
145	0x3d4a3dc5	0.049375314
146	0x3d743505	0.059620876
147	0xbc1c8631	-0.009553478
148	0x3d1b3210	0.03788954
149	0xbd5f2145	-0.054475088
150	0xbd202713	-0.039099764
151	0xbccfd056	-0.025367897
152	0xbcd05216	-0.025429767
153	0x3d9c4bef	0.07631671
154	0x3d0c707f	0.034286972
155	0x3bbb553f	0.0057169492
156	0x3d3de83f	0.046364065
157	0xbd003fed	-0.031310964
158	0x3c88d4b1	0.016702982
159	0x3cd7c323	0.026338166
160	0xbd080058	-0.033203453
161	0x3cb0ecb9	0.021597253
162	0x3c8a2874	0.016864993
163	0xbd016213	-0.03158767
164	0x3cd0b407	0.025476469
165	0x3c87f6b4	0.01659713
166	0x3d31170b	0.043234866
167	0x3d6c117f	0.057633873
168	0xbdc292c9	-0.09500653
169	0xbd0a0740	-0.03369832
170	0xbc3a6b9f	-0.011378198
171	0xbd5f880f	-0.054573115
172	0xbd101952	-0.035180397
173	0xbd9ad0d1	-0.0755936
174	0xbc290ee3	-0.010318491
175	0x3c306bca	0.010767886
176	0x3d4f6031	0.050628845
177	0xbd8f20a8	-0.069886506
178	0x3d2c27c7	0.042030122
179	0x3a8b2c6e	0.00106181
180	0x3c19c013	0.009384173
181	0x3d3e93d1	0.046527687
182	0x3d089baf	0.033351596
183	0x3cd52dfe	0.026022907
184	0x3c1f1412	0.009709375
185	0xbd7d6e7a	-0.061872937
186	0x3d3ac91f	0.04560196
187	0xbd837567	-0.06418877
188	0xbcac24b8	-0.021013603
189	0xbd316b24	-0.043315068
190	0xbcd21a4e	-0.025647309
191	0xbda1d92a	-0.07902749
192	0xbcc0ec89	-0.023550289
193	0x3d02c61a	0.031927206
194	0xbbffb2e7	-0.0078033092
195	0x3c9b54a3	0.018961256
196	0xbc5b3ef7	-0.013381711
197	0x3ba125db	0.004917843
198	0x3d00184c	0.03127317
199	0xbc946b01	-0.01811743
200	0x3c13165d	0.0089775
201	0x3cb27c0f	0.021787671
202	0xbc0ea47c	-0.008706208
203	0x3ca4ddee	0.020125356
204	0x3d3a8180	0.045533657
205	0x3c806577	0.015673382
206	0x3d0bfb19	0.034175012
207	0xbbbf0250	-0.005829133
208	0xbcf100b1	-0.029419275
209	0x3cd739a6	0.026272606
210	0x3ca45ee5	0.02006478
211	0x3d47bd75	0.048764665
212	0x3b8857fa	0.0041608782
213	0xbd0db47b	-0.034595948
214	0xbcd0857a	-0.025454272
215	0xbd46e34e	-0.04855662
216	0x3cc36544	0.023851998
217	0xba4d64d9	-0.0007835157
218	0x3d17ef64	0.037093535
219	0x3ca0c4fe	0.019625183
220	0x3d1aedca	0.03782443
221	0xbdaad4aa	-0.08341344
222	0x3cfc71b6	0.03081594
223	0x3c819599	0.015818404
224	0x3cf99b34	0.030469514
225	0xbd2d9bc9	-0.042384896
226	0x3c8c2f82	0.017112497
227	0x3d69ad8c	0.057050273
228	0x3d39f547	0.04539993
229	0xbd334acc	-0.043772504
230	0xbd822603	-0.063549064
231	0x3d01c077	0.03167769
232	0xbd0c7901	-0.034295086
233	0xbd1723dd	-0.036899436
234	0x3c971842	0.018444184
235	0x3c8f9c4d	0.017530585
236	0x3d196727	0.03745189
237	0x3c2c6c30	0.010523841
238	0xbd41208c	-0.04715018
239	0xbd5cd94b	-0.053918164
240	0xbb87b0eb	-0.0041409633
241	0xbc5aa5d0	-0.013345197
242	0xbd4686aa	-0.04846827
243	0xbd4cc2a6	-0.04999032
244	0x3d5acb3d	0.05341648
245	0x3c89fbc0	0.016843677
246	0x3d3b4e9f	0.045729276
247	0xbcc0259d	-0.023455435
248	0xbd9989b8	-0.07496971
249	0xbd39a1da	-0.04532037
250	0x3cdffe9a	0.027343083
251	0xbd55f6d7	-0.052237358
252	0xbbb47e60	-0.005508229
253	0xbd0c16ae	-0.034201317
254	0x3cb94828	0.022617415
255	0xbce38ac9	-0.027776139

encoder.actor_encoder.net.mlp.2.bias f4 [256]
0	0x3d6b50d1	0.05745012
1	0x3aac7fd3	0.0013160653
2	0xbd715f7a	-0.058928944
3	0x3ce8a599	0.028399276
4	0x3cd3d90f	0.025860338
5	0xbd2b0791	-0.041755263
6	0xbb21ade5	-0.00246703
7	0x3cbb4769	0.0228612
8	0xbbc931c8	-0.0061399676
9	0xbd68b395	-0.056811888
10	0xbd0639f8	-0.032770127
11	0x3d4cd07b	0.05000351
12	0x3d24d8f7	0.040245976
13	0x3c70059d	0.014649776
14	0xbcf8e23f	-0.03038132
15	0x3d81bbc0	0.063346386
16	0x3d1fce78	0.039015263
17	0x3d7e96c1	0.06215549
18	0xbcdd7c4d	-0.02703681
19	0x3cd85224	0.026406355
20	0xbc54f305	-0.0129973935
21	0x3c85127f	0.016244171
22	0x3bf6ca70	0.0075314566
23	0x3bf85e7d	0.0075796233
24	0xbc1779de	-0.009245364
25	0x3d048728	0.032355458
26	0x3d337d3c	0.043820605
27	0x3ababc36	0.0014246765
28	0x3d7d9131	0.061906043
29	0xbc4daf46	-0.0125539955
30	0xbb93fdab	-0.0045163236
31	0x3ca2f753	0.019893324
32	0x3cda4f29	0.026649075
33	0xbc471bee	-0.012152655
34	0x3c9eea66	0.01939888
35	0x3cb7bc99	0.022428798
36	0xbd92d6a7	-0.07169848
37	0xbcd48059	-0.025940107
38	0xbce2ba55	-0.02767674
39	0xbd4e166a	-0.050314344
40	0x3b65ace6	0.0035045682
41	0xbcdc9041	-0.026924254
42	0x3d2b87df	0.041877624
43	0xbcaac4ff	-0.020845888
44	0x3b1f2fd7	0.002428999
45	0x3d7503f6	0.05981823
46	0xbc91bbf8	-0.017789826
47	0x3cac4e7d	0.02103352
48	0xbcc6fb54	-0.024289764
49	0x3bff2305	0.007786157
50	0x3cda8748	0.026675835
51	0x3d2168ad	0.039406467
52	0xbb776b85	-0.0037753296
53	0x3bc55ec3	0.0060232594
54	0xbbeafcb9	-0.00717124
55	0x3c8d4aea	0.017247636
56	0x3ad65e61	0.0016355031
57	0x3c598788	0.013276942
58	0x3d1991d5	0.037492592
59	0xbd367034	-0.0445406
60	0x3c572b4e	0.013132883
61	0xbd623b93	-0.055232596
62	0x3d4dad09	0.050213847
63	0x3d73327f	0.05937433
64	0xbd52c56e	-0.051457815
65	0xbd4c4084	-0.049866214
66	0xbd76b582	-0.060231693
67	0xbc97df96	-0.018539231
68	0xbc314037	-0.010818533
69	0x3d3098c5	0.043114442
70	0x3cb54616	0.022128146
71	0xbd55408a	-0.052063502
72	0x3ca49291	0.02008942
73	0xbd39bbbc	-0.045345053
74	0xbbadb0f9	-0.005300638
75	0xbc2497fa	-0.010046
76	0xbb25e653	-0.0025314286
77	0x3cd20284	0.025635965
78	0xbb14bcff	-0.0022695658
79	0x3d29d599	0.04146347
80	0x3d69805a	0.05700717
81	0xbc4e1cbf	-0.012580096
82	0x3d4bcfdb	0.049758773
83	0x3c4b6f3c	0.012416657
84	0xbd05c282	-0.0326562
85	0x3c434920	0.01191929
86	0x3d009220	0.031389356
87	0x3d471657	0.04860529
88	0x3c51fdc3	0.012816849
89	0xbd4fb90c	-0.050713584
90	0xbd2c4db3	-0.042066287
91	0x3c4d1810	0.012517944
92	0x3b7bc60e	0.003841761
93	0xbbac8e1d	-0.0052659647
94	0x3d3288d9	0.04358754
95	0x3c78722a	0.015163938
96	0xbd4e1858	-0.050316185
97	0xbcf2a587	-0.029619945
98	0xbd20f63b	-0.039297324
99	0xbc43ac4d	-0.011942935
100	0x3d3ac87f	0.045601364
101	0xbc958f7a	-0.018256892
102	0xbb1f669b	-0.0024322632
103	0xbd179e69	-0.037016306
104	0x3d8211f9	0.06351084
105	0x3d144708	0.036200553
106	0x3d11ecd6	0.035626255
107	0xbd029d41	-0.03188825
108	0x3cdce206	0.026963245
109	0x3d1d6e6e	0.038435392
110	0xbc45d23a	-0.012074048
111	0xbc9f104e	-0.019416954
112	0x3c84eacc	0.016225241
113	0x3b077e84	0.0020674774
114	0xbc4e0fdb	-0.012577022
115	0xbd73fded	-0.059568334
116	0xbd413eb9	-0.047178958
117	0x3c1024bd	0.008797822
118	0xbcbfd728	-0.023418024
119	0xbcabc144	-0.02096618
120	0x3d2deb5c	0.042460784
121	0xbd7598a1	-0.05996001
122	0x3d1c87fe	0.03821563
123	0x3cf053bd	0.029336805
124	0x3d21554f	0.039387997
125	0x3d0f08e6	0.034920596
126	0xbd22b21d	-0.039720643
127	0xbd873ec4	-0.066037685
128	0x3ca109eb	0.01965805
129	0xbd7c642e	-0.061618976
130	0x3d109852	0.035301514
131	0xbd5f6e1f	-0.05454838
132	0x3d31b4eb	0.043385427
133	0x3d2fc90d	0.042916346
134	0xbd73a308	-0.05948165
135	0xbd2de635	-0.04245587
136	0xbbdf9b1a	-0.0068239095
137	0xbcd074d2	-0.02544633
138	0xbc3c1cd9	-0.011481487
139	0xbd2c4b30	-0.042063892
140	0x3d5729b9	0.052530024
141	0xbcb59b21	-0.022168698
142	0x3c1c3d62	0.009536119
143	0x3d1819f2	0.03713412
144	0xbcfbe5c3	-0.030749207
145	0x3d3fd0e4	0.046830073
146	0x3d474145	0.04864623
147	0x3c73b4e6	0.0148746725
148	0x3d088afe	0.03333568
149	0xbd5582be	-0.05212664
150	0x3d706fd8	0.058700413
151	0xbcffff8b	-0.031249782
152	0xbd086c0d	-0.03330617
153	0x3d39f172	0.045396276
154	0xbd351b89	-0.044215713
155	0x3c995ab9	0.018720018
156	0x3d323b1d	0.043513406
157	0xbd31fcf4	-0.043454126
158	0x3d3c90e7	0.046036627
159	0xbd724c8d	-0.059155036
160	0x3d13330d	0.035937358
161	0xbcf23a8a	-0.02956893
162	0xbbdabec0	-0.006675571
163	0x3bad4c9b	0.005288673
164	0xbcaf598a	-0.021405
165	0x3cfeb4db	0.031092098
166	0xbc23cd1f	-0.009997635
167	0xbce3f4a8	-0.027826622
168	0xbbe1adca	-0.0068871723
169	0xbccd3fe9	-0.025054889
170	0x3cce4a67	0.025181962
171	0x3c0d25f9	0.00861501
172	0x3d303afa	0.043024994
173	0x3d1af056	0.03782686
174	0x3bdb608b	0.0066948584
175	0x3b8ee68d	0.00436098
176	0xbccf451a	-0.025301505
177	0xbc83ae5b	-0.01607435
178	0xbd04b1a5	-0.032395978
179	0x3d585c41	0.052822355
180	0xbd4d8412	-0.05017478
181	0x3d5b6422	0.05356229
182	0x3d1283c2	0.035770185
183	0xbd296353	-0.04135449
184	0x3d1dd3e6	0.03853216
185	0xbcbd516d	-0.023110116
186	0x3d8376bb	0.064191304
187	0x3d3103bd	0.043216456
188	0x3d584d44	0.05280806
189	0xbc95daa3	-0.01829273
190	0x3c9e0e26	0.019293856
191	0xbcf639b3	-0.03005681
192	0xbcbafaef	-0.022824733
193	0x3d74ae2a	0.05973641
194	0x3ab0c58a	0.0013486606
195	0xbd6f8391	-0.05847508
196	0xbd77757a	-0.06041477
197	0xba6e5b98	-0.0009092628
198	0xbc9c6a0f	-0.019093541
199	0xbd422fd1	-0.047408883
200	0x3d73fcd8	0.059567302
201	0x3b08e2ac	0.002088706
202	0xbc424295	-0.011856695
203	0xbcd9be4a	-0.026579995
204	0xbd0d197a	-0.034448124
205	0xbb717a72	-0.0036846665
206	0xbc1241a8	-0.0089267865
207	0xbd27a19b	-0.040925603
208	0xbbdb5f4a	-0.006694709
209	0x3d321d8e	0.043485217
210	0xbc6ff5bb	-0.014645989
211	0x3d03f553	0.03221638
212	0x3bde40ed	0.006782642
213	0x3d5a5771	0.053306047
214	0xbcac6efe	-0.021049019
215	0x3c9d4151	0.019196184
216	0xbb82b5e3	-0.0039889677
217	0xbbf1292b	-0.007359644
218	0xbc157589	-0.009122261
219	0x3cbb73c9	0.02288236
220	0x3c8be269	0.017075734
221	0x3cc0bed3	0.023528492
222	0x3d2c6ffa	0.042098977
223	0x3bc010af	0.005861364
224	0xbd4d0ab5	-0.05005904
225	0xbd31bace	-0.04339104
226	0xbd28bd72	-0.041196294
227	0xbcad3e0f	-0.021147756
228	0xbd7729b5	-0.06034251
229	0xbd6d2674	-0.057898
230	0x3d370700	0.04468441
231	0x3d510a13	0.051035
232	0x3c0775d4	0.0082678385
233	0xbd45fc58	-0.048336357
234	0xbb9ca3e1	-0.004780278
235	0xbc860d01	-0.016363623
236	0x3c5a0d75	0.0133088725
237	0x3d3207db	0.043464523
238	0xbc7c2910	-0.015390649
239	0x3caf17e2	0.021373693
240	0x3c80e402	0.015733723
241	0x3cf9f8e6	0.030514192
242	0xbce3f2f2	-0.027825806
243	0xbce54697	-0.027987761
244	0xbbcad5a2	-0.006190018
245	0x3c4f0da5	0.01263753
246	0xbd0d48b4	-0.034493163
247	0x3d5814d4	0.05275424
248	0xbcd590a8	-0.026069954
249	0xbd04c228	-0.032411724
250	0x3b0b035f	0.0021211726
251	0xbb74b016	-0.00373364
252	0xbd15af72	-0.03654427
253	0xbc84388a	-0.016140241
254	0xbd1b9102	-0.037980087
255	0x3d84f8da	0.06492777

encoder.critic_encoder.net.mlp.0.weight f4 [256, 7]
0	0xbeaf752e	-0.34269089
1	0xbe15ac84	-0.1461659
2	0xbe7caed5	-0.24676068
3	0x3cb82f99	0.022483634
4	0xbec09326	-0.37612265
5	0xbe0b4f37	-0.13604437
6	0x3eb1324a	0.3460868
7	0x3ddf1177	0.10892003
8	0xbe1a33b8	-0.15058792
9	0xbced84e6	-0.028994035
10	0x3e6df057	0.23236214
11	0x3daf307d	0.0855417
12	0x3e6932ae	0.22773239
13	0x3e38abcb	0.18034284
14	0xbe73bd94	-0.23802787
15	0xbdd368dc	-0.10322735
16	0xbe1e6388	-0.15467656
17	0xbce53daa	-0.027983505
18	0x3dd3c3f4	0.103401095
19	0xbe88b4aa	-0.26700336
20	0x3e65ccd2	0.22441414
21	0x3ebf00db	0.3730534
22	0xbe9689ba	-0.29401952
23	0xbd8fd86d	-0.07023702
24	0x3c8609cb	0.016362092
25	0x3e23c0d1	0.15991522
26	0xbe9fe77e	-0.31231302
27	0xbdad8949	-0.08473451
28	0x3e467582	0.19380763
29	0x3eb232f7	0.34804508
30	0x3e8ad5ba	0.27116185
31	0xbe5e7568	-0.21724474
32	0xbe4c4e97	-0.19951855
33	0xbea5e624	-0.32402146
34	0xbe0700b8	-0.13183868
35	0x3e1f7be5	0.15574606
36	0x3eaac7d2	0.33355576
37	0x3eb11e56	0.34593457
38	0x3e0c8bef	0.13725255
39	0x3e2217db	0.15829413
40	0xbe416b9e	-0.18888709
41	0xbebdb317	-0.37050697
42	0xbd273497	-0.040821638
43	0x3c3f58ba	0.011678869
44	0xbe70d995	-0.23520501
45	0xbd1dd8b7	-0.038536754
46	0xbe3d41a7	-0.18482076
47	0x3cfa1b0c	0.030530475
48	0x3e80473d	0.2505435
49	0xbca35818	-0.019939467
50	0x3e5ddd5d	0.21666475
51	0xbe9b0529	-0.30277374
52	0x3e9c79f5	0.30561796
53	0x3e6060c1	0.21911909
54	0x3dfe1dd2	0.124080315
55	0xbec54b04	-0.38533795
56	0xbeb3f383	-0.35146722
57	0x3e9f01ea	0.31056148
58	0x3d28f1ea	0.041246332
59	0xbe5b2778	-0.21401775
60	0xbe8cb8e0	-0.27484798
61	0x3e92d5e2	0.28678805
62	0xbeabcc38	-0.33554244
63	0x3e44be5a	0.19213238
64	0xbea2a10e	-0.317635
65	0x3c61e1f9	0.013786786
66	0x3e40ccdd	0.18828149
67	0xbd54350d	-0.051808406
68	0x3e65a659	0.22426738
69	0x3c8e808c	0.01739528
70	0xbc9dfe43	-0.01928628
71	0x3e3e18fb	0.18564217
72	0xbc94627d	-0.01811337
73	0xbdf23d16	-0.118280575
74	0xbe47b96c	-0.19504327
75	0xbc3e625e	-0.011620132
76	0xbe23e45c	-0.16005081
77	0x3cabf7c2	0.020992164
78	0x3e795467	0.24348603
79	0xbeb918d2	-0.3615175
80	0xbea02fc2	-0.31286436
81	0xbda22039	-0.07916302
82	0xbdbc9534	-0.09208146
83	0xbe97a46a	-0.29617625
84	0x3edc8609	0.4307101
85	0x3ea2e552	0.31815583
86	0x3e4058f9	0.1878394
87	0xbd4f9537	-0.05067941
88	0x3e35048d	0.17677517
89	0xbe08fdb0	-0.13378024
90	0xbea67c90	-0.3251691
91	0xbe4c92a1	-0.1997781
92	0x3d728f46	0.059218667
93	0x3e502621	0.20327045
94	0x3ec36740	0.3816471
95	0xbea63cb2	-0.32468182
96	0x3e65496c	0.2239129
97	0xbe5337b8	-0.20626724
98	0xbbe38c25	-0.0069441968
99	0x3e80dd1f	0.25168702
100	0xbe13b383	-0.14423947
101	0xbecda56b	-0.40165266
102	0x3cff3efd	0.031157965
103	0x3e9bc6a9	0.30425003
104	0x3dd198aa	0.102341965
105	0x3e600d55	0.21880086
106	0xbe4ccccf	-0.20000003
107	0x3e8e26a3	0.27763852
108	0x3eac2dfa	0.33628827
109	0xbe6ce48a	-0.23134056
110	0x3ebd3551	0.3695474
111	0x3db66951	0.08906806
112	0x3e630eee	0.22173664
113	0xbeb5f7a9	-0.35540512
114	0x3ec10739	0.37700823
115	0x3d1827ce	0.037147336
116	0xbe7252a1	-0.23664333
117	0xbea8e732	-0.32988888
118	0xbe06d62a	-0.13167635
119	0x3ea59b8a	0.3234523
120	0x3ecb8e7e	0.3975715
121	0x3e8f4a39	0.27986315
122	0x3e387f50	0.18017316
123	0xbd681b06	-0.056666397
124	0xbecfef9e	-0.406125
125	0x3b88a922	0.004170553
126	0x3e88398b	0.26606402
127	0x3e1efee0	0.15526915
128	0x3edf28c9	0.43585804
129	0x3e757efd	0.23974223
130	0xbd7e4638	-0.062078685
131	0xbe9c4410	-0.30520678
132	0x3c08b516	0.0083439555
133	0x3e5ae03d	0.21374603
134	0x3e330b60	0.17484808
135	0xbdad4034	-0.084595114
136	0xbe4c40e4	-0.19946629
137	0xbe892139	-0.2678316
138	0xbe734424	-0.23756462
139	0x3e2345d2	0.15944603
140	0x3e97595f	0.29560372
141	0x3e91a79a	0.28448182
142	0x3de07d50	0.109614015
143	0xbd891f46	-0.06695418
144	0x3e3a17bf	0.18173121
145	0x3e10fddb	0.14159338
146	0xbdc43068	-0.09579545
147	0x3ec4db29	0.38448456
148	0xbe950408	-0.29104638
149	0xbdd65dc6	-0.104671046
150	0x3ea57f1f	0.32323548
151	0xbe7d9a0d	-0.24765797
152	0x3d2c094d	0.042001057
153	0x3ddb5b3a	0.107107595
154	0x3dc1bec6	0.09460215
155	0xbe96187b	-0.29315552
156	0xbe4c295f	-0.19937657
157	0x3d580f87	0.052749183
158	0x3e7ea701	0.24868394
159	0xbe112486	-0.14174089
160	0xbe6ab50b	-0.22920625
161	0x3ea2b13e	0.3177585
162	0x3ee778ce	0.45209354
163	0xbe0539e3	-0.13010363
164	0x3eabc640	0.3354969
165	0x3e8e4f80	0.2779503
166	0xbefdb8aa	-0.4955495
167	0xbd0e3963	-0.034722697
168	0x3eaf3dc6	0.34226817
169	0xbcab31b0	-0.020897716
170	0x3e5a198c	0.21298808
171	0x3da3fb45	0.0800691
172	0x3e93753f	0.2880039
173	0xbe1305c7	-0.14357673
174	0x3c3b669a	0.011438036
175	0xba38f7f2	-0.00070559897
176	0xbea6abcd	-0.3255295
177	0xbe732dd5	-0.23747952
178	0xbd188765	-0.037238497
179	0x3eaa9462	0.33316332
180	0x3d99a4b0	0.07502115
181	0x3e67575f	0.22591923
182	0x3d936a7d	0.071980454
183	0xbe47357b	-0.19453995
184	0x3d9cc643	0.07655003
185	0x3e805f0a	0.2507251
186	0x3bb42d2a	0.005498548
187	0x3d92ccaa	0.07167943
188	0xbe8a2845	-0.26983848
189	0x3e068135	0.13135226
190	0x3d8d6522	0.06904055
191	0xbed3bc01	-0.41354373
192	0xbe29aba8	-0.16569388
193	0xbe284cc1	-0.1643553
194	0x3e2e78e7	0.17038308
195	0x3e0a707b	0.1351947
196	0xbdb3d83d	-0.087814786
197	0x3cc17f47	0.02362026
198	0xbea4cc65	-0.3218719
199	0xbebe1a46	-0.3712942
200	0x3e8ab507	0.27091238
201	0x3e7f0b79	0.2490672
202	0xbe592bef	-0.21208166
203	0x3ed2210d	0.4104084
204	0xbd5a05f8	-0.05322835
205	0xbe267a23	-0.16257529
206	0xbe43c135	-0.19116671
207	0xbe936b17	-0.2879264
208	0xbe0a520e	-0.13507864
209	0x3c9c009f	0.019043265
210	0xbdeb3143	-0.11484005
211	0x3e9079cb	0.2821792
212	0xbd676124	-0.056489125
213	0x3e18dc85	0.14927872
214	0x3e1193de	0.14216563
215	0xbdd5ac36	-0.10433237
216	0x3d04d846	0.032432817
217	0xbea4045f	-0.32034585
218	0xbdd7fdcd	-0.105464555
219	0xbe65641a	-0.22401467
220	0xbe265bff	-0.16246031
221	0x3e408451	0.18800475
222	0x3d430b27	0.047618058
223	0x3c2f9f79	0.010719174
224	0x3eaf3409	0.34219387
225	0x3e8933d2	0.26797348
226	0xbdb22643	-0.08698704
227	0x3dd14b2e	0.102194175
228	0x3eb99276	0.36244553
229	0xbe6a83d8	-0.22901857
230	0xbd60c9dc	-0.054880008
231	0x3d820ad9	0.06349725
232	0x3e7ffccf	0.24998783
233	0x3e5c65d9	0.21523227
234	0x3e70f2d7	0.23530136
235	0x3ec862b1	0.39137796
236	0x3e075cdc	0.13219017
237	0xbef64254	-0.4809748
238	0x3e9b245c	0.30301178
239	0x3dd97f3c	0.10619971
240	0x3eb1e265	0.34743038
241	0x3d0d5461	0.034504298
242	0x3df41826	0.119186684
243	0xbed69c74	-0.4191624
244	0x3c8de811	0.017322572
245	0xbe07d9e6	-0.13266715
246	0xbdfec2e5	-0.12439517
247	0xbd6c3e19	-0.05767641
248	0x3e8f1c5a	0.27951318
249	0x3e5ea51a	0.21742669
250	0x3ea2c4d2	0.31790787
251	0xbdd4d00e	-0.10391246
252	0xbe9e19da	-0.30879098
253	0x3cfad7aa	0.030620415
254	0x3db4a451	0.08820403
255	0xbdd11c3f	-0.10210466

encoder.critic_encoder.net.mlp.0.bias f4 [256]
0	0xbdb660dd	-0.08905194
1	0x3e9f5046	0.3111593
2	0x3d94986b	0.07255634
3	0xbe129747	-0.1431552
4	0x3ee6fb08	0.45113397
5	0x3e68c0fd	0.22729869
6	0x3de1050d	0.109872915
7	0x3db7523b	0.08951231
8	0xbdd93bad	-0.106070854
9	0x3e1b1851	0.15145995
10	0x3d8cd5a7	0.068766885
11	0x3e1ddc05	0.15415962
12	0x3f15f4fb	0.58576936
13	0x3ebecaef	0.372642
14	0x3ed357b4	0.4127785
15	0xbe8dc0ba	-0.276861
16	0xbe641b64	-0.22276074
17	0x3eb4cf68	0.35314488
18	0x3ebe89c9	0.37214497
19	0x3e7b6c92	0.24553135
20	0xbe258bf4	-0.16166669
21	0xbdb3474e	-0.08753835
22	0x3e81a389	0.2532008
23	0x3f104d2d	0.5636776
24	0x3dd4b279	0.103856035
25	0xbeec9f50	-0.46215296
26	0x3d2a7d75	0.04162355
27	0xbd40f6cc	-0.047110364
28	0xbe31cc1b	-0.17363016
29	0xbe127769	-0.14303364
30	0x3f04496e	0.51674545
31	0x3d19ed1e	0.03757965
32	0x3cabf693	0.0209916
33	0x3f036b16	0.51335275
34	0x3e6e75b5	0.23287089
35	0xbcc74970	-0.02432701
36	0xbe3d0182	-0.18457606
37	0x3ed3521a	0.41273576
38	0x3de413f1	0.11136616
39	0x3eae8e05	0.34092727
40	0xbdea90c0	-0.1145339
41	0x3e3bd08d	0.18341275
42	0x3cfccba3	0.03085882
43	0x3f009217	0.50222915
44	0xbddc1c0f	-0.10747539
45	0xbe5b64f7	-0.21425234
46	0x3ea1bfe4	0.31591713
47	0xbee69d7c	-0.45042026
48	0xbee8b9ee	-0.45454353
49	0xbf02efa2	-0.511469
50	0x3e23b7b3	0.15988044
51	0x3ebd7465	0.37002864
52	0x3dc22e7c	0.094815224
53	0x3e8792cb	0.26479182
54	0x398a6332	0.00026395317
55	0xbf02243c	-0.5083654
56	0xbe118bb6	-0.14213452
57	0x3bf78183	0.007553281
58	0xbf05f09e	-0.5232028
59	0xbea87f51	-0.32909635
60	0x3eb83e54	0.35985053
61	0x3ee8a018	0.45434642
62	0x3ebf168b	0.37321886
63	0x3e96e5c3	0.2947217
64	0x3e92d392	0.2867704
65	0xbe46e3b8	-0.19422805
66	0xbeef5d4d	-0.4675087
67	0x3e1aae1f	0.15105484
68	0x3d374e2e	0.044752292
69	0xbd993db6	-0.074824736
70	0xbe267edf	-0.16259335
71	0x3e94824b	0.29005656
72	0xbe002c0d	-0.12516804
73	0xbde20b8b	-0.11037358
74	0xbe0781df	-0.13233136
75	0xbd9bb1d6	-0.07602279
76	0xbb5822f9	-0.003297983
77	0x3ea1bad5	0.31587854
78	0xbdc37715	-0.095441975
79	0xbe9e713b	-0.30945763
80	0x3e09f423	0.13472037
81	0xbe9ef91a	-0.31049424
82	0xbe4ce8d4	-0.20010692
83	0xbe9b7c44	-0.30368245
84	0xbde6bced	-0.112665035
85	0x3ee054d0	0.43814707
86	0x3ee535c3	0.4476758
87	0xbeb504d3	-0.35355243
88	0xbe883410	-0.2660222
89	0x3e67800f	0.22607444
90	0x3e398757	0.18118034
91	0xbe21b9f7	-0.15793596
92	0xbe69300f	-0.22772239
93	0xbd389323	-0.045062196
94	0xbe617366	-0.22016677
95	0x3e0d4f31	0.1379974
96	0x3e6b44d6	0.22975478
97	0x3e55cf81	0.20879938
98	0x3e483220	0.19550371
99	0x3e6b4845	0.22976787
100	0xbeb076ab	-0.34465536
101	0x3cdb5169	0.026772218
102	0xbed9aa0b	-0.42512545
103	0x3c352900	0.011057138
104	0x3ed7b1aa	0.42127734
105	0xbe17e059	-0.14831676
106	0xbe88f04d	-0.26745835
107	0x3de523a7	0.11188441
108	0xbddb2548	-0.1070047
109	0x3caa6a7f	0.020802734
110	0x3ed2422d	0.41066113
111	0x3ea65f6c	0.32494676
112	0xbe77b3f5	-0.24189742
113	0x3e225116	0.15851244
114	0xbe0c8dfb	-0.13726036
115	0xbd1d576f	-0.03841346
116	0x3db9a5f1	0.09064854
117	0x3d94c504	0.0726414
118	0xbda37426	-0.07981138
119	0xbca87cff	-0.020567415
120	0x3ea80725	0.3281795
121	0xbd8a23ef	-0.06745135
122	0xbe6298c3	-0.22128586
123	0xbedf14a8	-0.43570447
124	0x3eb61ed2	0.3557039
125	0xbd5dc815	-0.05414589
126	0x3f0f1ca0	0.55903053
127	0x3e91aa05	0.28450027
128	0xbee81954	-0.45331824
129	0x3ed538d2	0.41644913
130	0xbdea34e1	-0.11435867
131	0xbe03423c	-0.12818235
132	0xbee17b05	-0.4403917
133	0x3de904db	0.11377879
134	0xbe0226d9	-0.12710132
135	0x3e9ccd43	0.30625352
136	0x3ce1efab	0.027580103
137	0xbee5f1e7	-0.4491112
138	0x3e5892c2	0.21149734
139	0xbe1f17ab	-0.15536372
140	0x3ee307d5	0.44341913
141	0xbdee85a8	-0.11646587
142	0xbdba5bf7	-0.09099572
143	0xbed00d65	-0.4063522
144	0xbce2965b	-0.027659586
145	0xbde79544	-0.11307767
146	0x3e92a60d	0.28642312
147	0xbdd3f15a	-0.103487685
148	0xbe59cfcf	-0.21270679
149	0x3e350dae	0.17681
150	0x3e1b5621	0.15169574
151	0x3e9abfc8	0.30224442
152	0x3ec98424	0.39358628
153	0x3e4e74f4	0.20161802
154	0xbe20e0b6	-0.1571072
155	0xbe5241d4	-0.20532924
156	0x3f08e4f7	0.5347437
157	0xbe924bb8	-0.28573394
158	0xbeeed98c	-0.4665035
159	0x3e8fa5d7	0.28056213
160	0x3ebdfb03	0.3710557
161	0x3e93c68e	0.28862423
162	0x3e9ff96d	0.31244984
163	0xbdf10ebc	-0.117703885
164	0xbd89953a	-0.06717916
165	0x3d71f353	0.059069943
166	0x3d320cbc	0.043469176
167	0xbebcf8f9	-0.369087
168	0x3e3a9b5a	0.18223324
169	0xbe597fd1	-0.21240164
170	0xbed49262	-0.4151793
171	0x3cf89ada	0.030347276
172	0xbe0bcfe7	-0.13653527
173	0xbd47e4e4	-0.04880227
174	0xbeb35ffc	-0.35034168
175	0x3dd2d0b2	0.10293712
176	0xbe25ec59	-0.1620344
177	0xbea8172e	-0.32830185
178	0xbf0cc1a9	-0.54983
179	0x3e548797	0.20754848
180	0xbeb8b1d4	-0.36073172
181	0x3ef9d337	0.48793957
182	0x3e78c427	0.24293576
183	0xbded0b69	-0.11574442
184	0x3ef73854	0.48285162
185	0xbdb04e90	-0.086087346
186	0xbcd77360	-0.026300132
187	0xbd3fe5ff	-0.0468502
188	0xbdb4c2b8	-0.08826202
189	0x3c485d76	0.012229314
190	0xbead9262	-0.33900744
191	0xbdcd8754	-0.100355774
192	0x3f0ba260	0.5454464
193	0xbe8145c4	-0.2524854
194	0x3deb5d0b	0.11492356
195	0xbebce684	-0.3689462
196	0xbec4b8a5	-0.38422123
197	0x3dd9c595	0.10633389
198	0x3dbdd990	0.092700124
199	0x3ddeadf0	0.1087302
200	0x3ec624e5	0.38700023
201	0x3dddcc23	0.108299516
202	0xbd82c854	-0.06385866
203	0x3d1deef8	0.038557976
204	0x3eeea2ab	0.4660848
205	0x3edc6451	0.43045285
206	0xbe49fbac	-0.19724911
207	0x3e1d765f	0.15377186
208	0xbf1084eb	-0.56452817
209	0xbed3f56a	-0.41398174
210	0x3f068142	0.5254098
211	0x3e5057ec	0.2034604
212	0x3e020536	0.126973
213	0xbe1c3663	-0.15255122
214	0x3c7e925d	0.015537825
215	0xbc99c549	-0.01877083
216	0xbee75ef1	-0.45189622
217	0xbeb6f6e0	-0.35735226
218	0x3ed2120e	0.410294
219	0x3e74a3c1	0.23890592
220	0xbcaabc31	-0.02084169
221	0xbe058bd7	-0.13041626
222	0x3e164448	0.14674485
223	0x3debb3f6	0.11508934
224	0x3e981efe	0.29711145
225	0xbe58b3f1	-0.21162392
226	0xbdf533f4	-0.119728
227	0x3e2d4493	0.1692069
228	0xbe957bbe	-0.2919597
229	0x3e14bc94	0.14525062
230	0xbe13e745	-0.14443691
231	0xbe137674	-0.14400655
232	0x3d3a4517	0.045476045
233	0xbe794417	-0.2434238
234	0x3e0f1763	0.13973765
235	0x3ee9d4b1	0.45670083
236	0xbedb2489	-0.42801312
237	0x3db8b2a7	0.0901845
238	0x3d60d026	0.054886006
239	0xbea23de4	-0.31687844
240	0x3ea64e82	0.32481772
241	0x3e97c1d0	0.29640055
242	0xbefa47a7	-0.4888279
243	0x3e4ff411	0.20307948
244	0xbdf9dd4f	-0.122004144
245	0xbd71f503	-0.059071552
246	0x3ecc771e	0.3993463
247	0x3e5221c2	0.2052069
248	0xbe4002f5	-0.18751128
249	0x3ec8827f	0.3916206
250	0xbda7f008	-0.08200079
251	0x3c9ebc11	0.019376786
252	0x3d9e693e	0.07734917
253	0xbe35e755	-0.17764027
254	0xbeb74b0a	-0.35799438
255	0xbec85d1c	-0.39133537

encoder.critic_encoder.net.mlp.2.weight f4 [256, 256]
0	0x3cc48822	0.023990694
1	0x3c0fe783	0.008783224
2	0xbb9fdfd1	-0.004878976
3	0x3bb73bd0	0.005591847
4	0x3c223e0f	0.009902491
5	0xbd526c52	-0.051372834
6	0xbcbf20b8	-0.023331031
7	0xbcb31e78	-0.021865115
8	0xbd4134ec	-0.04716961
9	0x3d623b57	0.055232372
10	0x3d58a551	0.052892033
11	0xbd58ba97	-0.05291232
12	0xbdb913d8	-0.09036988
13	0xbce89139	-0.02838956
14	0xbcb36da1	-0.021902861
15	0x3d90a3e7	0.07062512
16	0x3d8dcdd1	0.06924022
17	0x3c70d95c	0.01470026
18	0xbd53a635	-0.05167218
19	0xbcd4eba8	-0.025991276
20	0x3d7120aa	0.05886904
21	0x3c8221f8	0.015885338
22	0xbc857292	-0.016289983
23	0x3c3e9c68	0.01163397
24	0x3d1f3384	0.03886749
25	0x3da37bc5	0.079825915
26	0xbc390628	-0.011292972
27	0xbcfe003a	-0.031005967
28	0x3cefe8c2	0.029285792
29	0xbacf1791	-0.001579987
30	0xbba619a1	-0.005068973
31	0xbd311a18	-0.043237776
32	0x3d0dc167	0.03460827
33	0xbd89e292	-0.06732668
34	0xbcbccad9	-0.023045944
35	0xbd779c1f	-0.060451623
36	0xb94a0dac	-0.00019269314
37	0xbd5e6c7c	-0.054302678
38	0x3d1310e2	0.035904773
39	0x3cd22067	0.025650216
40	0xbd0f1186	-0.03492882
41	0xbd802677	-0.062573366
42	0xbcb7689b	-0.022388747
43	0x3d281116	0.04103192
44	0xbc0e5afb	-0.008688684
45	0x3d292cfa	0.04130266
46	0x3d4171a4	0.047227517
47	0x3cee67bb	0.029102197
48	0x3b394dac	0.0028275056
49	0xbb265d9f	-0.0025385392
50	0x3be79a09	0.007067923
51	0xbc27c74d	-0.010240388
52	0xbcaa17b3	-0.020763254
53	0xbc9989a8	-0.018742397
54	0x3d3731c8	0.04472521
55	0x3d84120f	0.06448757
56	0x3ce2a69d	0.027667338
57	0xbcec4a20	-0.02884394
58	0x3d8f3737	0.06992953
59	0xbd1ac389	-0.037784133
60	0x3cba90c8	0.022774115
61	0xbd4aec92	-0.049542017
62	0xbca813d4	-0.020517267
63	0x3d30dde3	0.043180358
64	0x3cce089f	0.025150595
65	0xbd468ee5	-0.04847612
66	0xbca378ec	-0.019955121
67	0x3dac5684	0.08414939
68	0xbd247758	-0.040152878
69	0xba25cfca	-0.00063252135
70	0xbcccdf97	-0.02500896
71	0x3cfce6c2	0.030871753
72	0x3b9da496	0.00481088
73	0x3da1d68e	0.07902251
74	0xbd7fd264	-0.062456504
75	0x3cc9cbb4	0.024633266
76	0x3ad61c0c	0.0016335263
77	0xbbf71ea7	-0.007541496
78	0xbd0078d3	-0.031365227
79	0x3d5d255c	0.053990707
80	0x3a183384	0.0005806016
81	0xbd1b42ca	-0.037905492
82	0x3c8383e8	0.016054109
83	0x3cad52ca	0.021157641
84	0xbd004721	-0.031317834
85	0x3b036b46	0.0020052954
86	0xbd38b6da	-0.045096256
87	0x3d2c40d8	0.042054027
88	0x3d5cb5c3	0.05388428
89	0x3c82a084	0.01594568
90	0xbcea822f	-0.02862653
91	0xbba14c9e	-0.0049224636
92	0xbb3af27c	-0.002852588
93	0x3d1ab6c1	0.037771944
94	0xbcfa8827	-0.0305825
95	0xbd837756	-0.06419246
96	0x3d059ca7	0.0326201
97	0xbd7da339	-0.06192324
98	0xbdb8dfe1	-0.090270765
99	0xbc636efd	-0.013881442
100	0xbd5293df	-0.051410552
101	0xbcbf8878	-0.023380503
102	0x3d49dbdc	0.04928194
103	0xbcb5c1db	-0.022187164
104	0xbd541509	-0.051777873
105	0xbbcdbacf	-0.006278373
106	0x3d1ca019	0.03823862
107	0xbc35589f	-0.011068492
108	0xb9d6a128	-0.00040937332
109	0x3d1c4c85	0.038158912
110	0xbcf71fe9	-0.030166583
111	0xbd8609b5	-0.0654482
112	0x3d8484e6	0.06470661
113	0xbda1d2bf	-0.07901525
114	0xbcd68d2e	-0.026190367
115	0xbd8d218b	-0.068911634
116	0x3d2a3b18	0.041560262
117	0xbacc427d	-0.001558378
118	0xba1dfb2c	-0.0006026502
119	0xbca1e248	-0.01976122
120	0xbd0b052e	-0.033940487
121	0xbda9bf74	-0.0828847
122	0x3ca0e00e	0.019638088
123	0x3d5704c4	0.05249478
124	0x3c3c661d	0.011498955
125	0xbabefb14	-0.0014570677
126	0x3c322875	0.0108739035
127	0x3caf115d	0.021370584
128	0x3d8f6682	0.07001974
129	0xbb83c757	-0.004021566
130	0x3dcf9876	0.101365015
131	0xbbc1c32d	-0.0059131593
132	0xbbbd8c8e	-0.0057845777
133	0xbd403124	-0.046921864
134	0x3ceb0ef6	0.028693657
135	0x3d0deec7	0.034651544
136	0x3c8767be	0.01652896
137	0xbc606c05	-0.013697629
138	0x3d328d09	0.043591533
139	0xbd314bf6	-0.043285333
140	0xbd78beff	-0.060729023
141	0x3c499959	0.012304627
142	0x3c7e4109	0.015518435
143	0x3db2b97d	0.08726785
144	0x3d5c83db	0.053836685
145	0xbcc542a7	-0.024079634
146	0x3b771b08	0.003770532
147	0x3ce7a4bb	0.028276792
148	0x3d239881	0.03994036
149	0x3bd40dd0	0.006471373
150	0x3b58f878	0.0033107083
151	0xbc41f574	-0.011838306
152	0xbd5bd5bd	-0.053670634
153	0xbd54b606	-0.051931404
154	0x3d5a71fe	0.053331368
155	0xba6f9ddc	-0.00091406493
156	0xbd9ba83d	-0.07600448
157	0xbd2ba7ba	-0.041908003
158	0x3d04b9c0	0.032403708
159	0xbb9fffb0	-0.0048827752
160	0xbd9405b5	-0.07227651
161	0xbc9fb4d8	-0.019495413
162	0xbd83ac66	-0.06429367
163	0x3d98acfc	0.07454869
164	0xbb81a316	-0.003956209
165	0xbd05ab19	-0.032633875
166	0xbd565fb1	-0.052337352
167	0xbcc597d3	-0.024120247
168	0xbd63db0f	-0.055628832
169	0x3d64a4e5	0.05582132
170	0x3d09c921	0.033639077
171	0x3d9065fb	0.07050701
172	0xbcb8bcbc	-0.022550933
173	0x3bced56a	0.006312062
174	0x3d5f9627	0.054586556
175	0x3aff480b	0.0019476427
176	0xbd6e8d5d	-0.058240283
177	0xbd16237a	-0.036654927
178	0x3cf6329a	0.030053426
179	0xbd9d72bb	-0.07687899
180	0x3da21970	0.07915008
181	0xbd7913b5	-0.06080981
182	0x3dba48ad	0.09095893
183	0x3d21483c	0.03937553
184	0x3c8b4c7b	0.017004242
185	0xbce2e043	-0.027694827
186	0xbcb88a2e	-0.022526827
187	0x3c61602f	0.013755842
188	0x3da239d5	0.07921187
189	0x3d2445ba	0.04010556
190	0xbc40ffae	-0.011779709
191	0x3d8d0aef	0.06886851
192	0xbd2d3a6a	-0.042292036
193	0x3d762932	0.06009788
194	0xbcbebe7d	-0.023284191
195	0x3d338b7f	0.043834206
196	0xbc9e8fb9	-0.019355642
197	0x3c080f22	0.008304389
198	0x3c55ae2d	0.013042015
199	0x3cf39fa2	0.029739205
200	0xbd7ae571	-0.06125397
201	0xbd598cfb	-0.053112965
202	0x3cd12bea	0.025533635
203	0x3d8d5819	0.06901569
204	0x3d64f7a2	0.055900224
205	0xbc910d99	-0.01770668
206	0xbc4240c1	-0.011856259
207	0xbd256128	-0.04037586
208	0x3d36b5d8	0.044607013
209	0xbce395d5	-0.027781406
210	0xbba935e9	-0.0051638973
211	0x3d97c6be	0.07410954
212	0xbd0dcf17	-0.034621324
213	0xbcd0dd22	-0.02549607
214	0xbd230edd	-0.039809097
215	0xbd897c06	-0.06713109
216	0xbc973f7f	-0.018462894
217	0x3d7e83b2	0.062137313
218	0x3c8e4e46	0.017371308
219	0xbcdc4c07	-0.026891721
220	0x3c25f3fa	0.010128969
221	0x3cf2b39b	0.029626658
222	0x3c0add2a	0.008475581
223	0xbc88ea85	-0.01671339
224	0x3da80237	0.082035474
225	0xbcd31104	-0.02576495
226	0x3d25f1ca	0.04051379
227	0xbd26810e	-0.04065042
228	0x3a9b91fe	0.0011869071
229	0x3d534248	0.051576883
230	0x3cdf8c4f	0.027288584
231	0xbd5be21c	-0.05368243
232	0xbd0c1b0e	-0.03420549
233	0x3bc296ff	0.0059384103
234	0xbc93dd2a	-0.018049795
235	0x3bf8d67c	0.007593928
236	0x3cb6e178	0.022324309
237	0xbd909ba7	-0.07060938
238	0x3d7f06a2	0.062262185
239	0x3a82f245	0.0009990415
240	0x3ca26628	0.019824103
241	0xbd6eea7e	-0.058329098
242	0xbc7227c0	-0.014779985
243	0xbd879823	-0.06620815
244	0xbd44d19e	-0.04805147
245	0xbcdc3ef2	-0.026885483
246	0x3a07420c	0.0005159683
247	0xbce727f1	-0.028217288
248	0x3ccf8f69	0.025336938
249	0x3ccbf577	0.02489732
250	0x3d1464ec	0.03622906
251	0x3d803993	0.062609814
252	0x3c2acafc	0.010424372
253	0x3d6cbf9c	0.05779992
254	0x3cb44c62	0.022009078
255	0x3d416f9b	0.047225576
