trained_policies/learner/module_state/cop_policy/module_state_dir/module_state.pt (torch, 553090 bytes, 11 tensors)

encoder.actor_encoder.net.mlp.0.weight f4 [256, 7]
00000000: 6da7 46be 2118 213d 9a54 a3be e97b 983e
00000010: 343f efbb d599 a93e 32b7 9b3e bfea 05be
00000020: 9d75 11be 73c4 bcbd c29f 53bd edcb 383e
00000030: 3955 933d fd0b fbbd 6aae 153e 909d d73b
00000040: 5c1f ae3e 8d1b 94be bf11 6c3e 67d8 46be
00000050: f54a af3d 5a26 94be 6b6c 693e 7544 213e
00000060: 59d8 8cbe 9fb5 6c3e a0d0 3fbe a39a 093d
00000070: b0c7 e83d e2d9 1f3e 0857 2e3e 3faa e2bd
00000080: a58b 033e b14d 75be 14dc a8be 5bc7 ef3d
00000090: 3c8e 8b3e 8095 92be 52e8 723e dc39 b83d
000000a0: dfeb b13e fd71 fabd 4b59 80be 8e50 8cbd
000000b0: aba0 11be d340 16be 6cf5 94be 8842 673e
000000c0: af2c c23e 7c49 383e 2265 9b3e 7a3b 5b3e
000000d0: 7270 6bbe 29af 88bd 090c a5bd 0e65 803e
000000e0: 3064 13bc 1fe8 0e3d 6ef6 dbbd deaf 81be
000000f0: 6aa3 d4bc 2813 eabd 389f edbc b4d8 883e
00000100: f35f 9abe 84d7 fcbd 32f4 a6be 0244 813d
00000110: 7f7d d0bd 1928 713e ad40 83be fb52 84bd
00000120: 3ab7 5abd 437c dcbd 2e5f e13d 39bc 023e
00000130: 3775 9c3c 781f 68bd e5a1 05bd 5374 b4be
00000140: 68c1 8a3e 1c39 193e fbe6 3c3a f13c 79be
00000150: 122a ad3e e856 e83d 9158 eebc dd89 bbbe
00000160: e015 98bc bdef c4bc 5054 f73d 3c3d f63d
00000170: 3557 613e 9a20 4abd 6d28 643e 0a65 9ebe
00000180: 177c 743e 3c5d 31be 88a6 4a3e 3698 ef3d
00000190: 074c 98be 0e07 0f3e fff7 c53a e605 98be
000001a0: f78b 5bbe 2ff2 fbbd 445b 94be af22 a43e
000001b0: 96ed 33be f62b 8ebe ff4b 4abe 0487 51be
000001c0: 40c6 553e 4978 b3be 978a 603e 47d3 04be
000001d0: 4a49 d63d 8061 28be b996 6c3e 9d11 593e
000001e0: 49a6 6c3e 74b6 b63e f9cb b43e c1f3 223d
000001f0: 9a61 0c3e 69b4 453e 6435 ab3e c6cd 273e
00000200: c909 dabc 6c30 efbd 6ecd 5f3d 914b 723e
00000210: 64be fd3d 0413 ad3e 8ad6 a7be 2bb8 1f3d
00000220: 958d 2f3d 94d1 013d ba68 033e d2b9 b8be
00000230: 8113 173b 8ed0 1b3e 1199 593d 53e7 8c3e
00000240: c8a0 c83e f5c4 47bd e798 a93d d45d 293e
00000250: 1a2d 34be 1b2e 7abd bd6b 783d 63d2 03be
00000260: 3462 c4be 0337 963c 8327 37be 5392 44bd
00000270: bfe4 9a3e 8f60 753e 8893 22be fda9 97be
00000280: 0ea9 d1bd 0e7c 57be 18b3 fe3c 77fc 0a3e
00000290: 983b 8fbe 9199 57bd ed79 efbd 3348 53bd
000002a0: c440 93be c908 86be 439b dc3d 88f4 7a3e
000002b0: 25db 87be 3dd8 eebd d091 dcbc 2998 18be
000002c0: 51fc ab3e 079e 723d b146 06bd 6324 4f3d
000002d0: ef0c 9a3e 20c2 353e 7e99 84be 78d9 5e3c
000002e0: 6e3e 923e 2ffd b2be 4f60 2d3e 0e2d 45bd
000002f0: 85ec 41be d583 d83c 9ea0 d0bd e854 263d
00000300: a621 b93d 6a61 8bbd 1dab 1d3e fea9 97be
00000310: 487f dcbb a447 ab3d 6794 193e bccf e73d
00000320: 42d8 0f3d f428 66bd 31e9 2bbe a706 253e
00000330: 2d78 97be 5069 d93d 55d6 72be 15a6 fdbd
00000340: 78e5 c43e 79c8 32be efda 00be dfbf a4be
00000350: d99e 54bd 6d8f 0d3d 683b 443e 8952 66bd
00000360: 1a68 9cbe 7de5 a73e 4824 a6bc 0e8b d4bc
00000370: 2fab a7bd 35d2 323e 7517 933e dd8e b23c
00000380: 3caf b7be 7f30 c3bd 572d b3be 4b73 023e
00000390: 2a26 b53d 0cee 283e 8460 c9be 475f abbe
000003a0: 7bb9 a03e b868 3e3d fd8d cd3d 3b04 b73e
000003b0: 7c5a 1e3e 9237 e3bd a967 073e 33b2 db3d
000003c0: 5ab4 863d 8ef3 633d 1af5 febd 3ac8 af3e
000003d0: e684 fd3d cc9f 353e f6f6 cebc b81e 46be
000003e0: becd 933e f104 bcbe 8b49 b53e 329b c93d
000003f0: 3525 4d3d f2f0 02be 53a3 bb3e 0cef 69be
-0.19399805 0.03932965 -0.31900483 0.29782036 -0.0073012356 0.33125177 0.30413204 -0.1307783
-0.14205022 -0.09217157 -0.05166603 0.18046542 0.07193989 -0.12258146 0.14617315 0.006580062
0.340083 -0.2892727 0.23053645 -0.19418488 0.08559219 -0.2893551 0.22795264 0.1574877
-0.2750881 0.23116158 -0.18731928 0.03359474 0.11366212 0.1561046 0.17025387 -0.11067628
0.12846239 -0.23955418 -0.32980406 0.11707946 0.27256954 -0.28629684 0.23721436 0.08995411
0.34750268 -0.12228773 -0.25068125 -0.06851302 -0.14221446 -0.14673166 -0.29093492 0.22583973
0.37924716 0.17996782 0.30350596 0.21409407 -0.22992113 -0.06674034 -0.08058936 0.250771
-0.0089960545 0.034889337 -0.10740362 -0.2532949 -0.025956828 -0.11429435 -0.029006585 0.2672783
-0.30151328 -0.12345794 -0.3260818 0.063117996 -0.101801865 0.23550452 -0.2563528 -0.0646114
-0.053397395 -0.107658885 0.11004482 0.12767114 0.019098861 -0.056670636 -0.032625098 -0.35244998
0.27100682 0.14963192 0.00072060496 -0.24339654 0.3382116 0.11344701 -0.029094966 -0.3662862
-0.018565118 -0.024040097 0.12076628 0.12023398 0.22005923 -0.049347498 0.22281046 -0.30936462
0.23875462 -0.17320722 0.19790089 0.11698954 -0.29745504 0.13967535 0.0015103816 -0.29692
-0.21440111 -0.12302052 -0.2897588 0.3205771 -0.175711 -0.27767915 -0.19755553 -0.2046166
0.20876408 -0.35052708 0.21927868 -0.12971221 0.104631975 -0.16443443 0.23104371 0.21198125
0.23110308 0.35686076 0.3531187 0.039783243 0.13709107 0.19307102 0.3343917 0.1638709
-0.026615994 -0.116791576 0.054639272 0.23661639 0.1238983 0.3380357 -0.32780868 0.038993996
0.042859633 0.03169401 0.12832919 -0.3607927 0.0023052397 0.15216276 0.05312449 0.27520236
0.39185166 -0.048771817 0.08281117 0.16539699 -0.1759533 -0.061079126 0.060649622 -0.12873225
-0.38356173 0.018336779 -0.17886166 -0.04799111 0.30252644 0.23962615 -0.15876591 -0.29621878
-0.10237323 -0.21043417 0.031091258 0.1357287 -0.27975154 -0.052636687 -0.11693177 -0.051582526
-0.2876035 -0.26178578 0.10771801 0.24507344 -0.26534382 -0.11662338 -0.026924998 -0.14901794
0.3359094 0.059232738 -0.03278226 0.05057181 0.30087993 0.17749834 -0.25898355 0.013601653
0.28563255 -0.3495879 0.1693127 -0.04813867 -0.18937881 0.02643005 -0.10186885 0.040608317
0.09039621 -0.0680569 0.15397306 -0.2962188 -0.0067290403 0.08363274 0.14998017 0.11318919
0.03511835 -0.0561914 -0.16788174 0.16115819 -0.29583874 0.1061579 -0.23714574 -0.12385193
0.3845632 -0.17459287 -0.12583517 -0.32177636 -0.0519093 0.03456061 0.19163287 -0.056231055
-0.30548173 0.32792273 -0.020280972 -0.025945213 -0.081869476 0.17463 0.28728834 0.021796638
-0.3587588 -0.09530734 -0.3499553 0.12739293 0.0884517 0.16497058 -0.39331448 -0.33471128
0.3139151 0.046486586 0.10036848 0.35745415 0.15464205 -0.110945836 0.13223137 0.10727348
0.06577368 0.055652194 -0.12449093 0.34332448 0.12378864 0.17736739 -0.025264245 -0.19347656
0.28867906 -0.3672252 0.3540767 0.09844054 0.05008431 -0.12787226 0.36648044 -0.22845095

encoder.actor_encoder.net.mlp.0.bias f4 [256]
00000000: 551c 87bd 31fe 6ebe 3a89 b4be 1d87 b2bc
00000010: 0119 053e cabb c93e 7db6 253d d9be 153e
00000020: fed6 bcbe 6069 703e 3c44 60be f23c 7abe
00000030: 308e a53d 3745 a1be 1cb3 eebc f135 ef3d
00000040: edc9 b43e 2f4f 643e 69d2 bdbe 43ee 79be
00000050: ab38 60be 0279 40be 98b2 98bd a04b 8e3e
00000060: 8ee7 babd 4d30 703d 3ad5 a13e 6d81 b8be
00000070: 0d31 91be 49bc 253c 6da8 013e 6da0 50be
00000080: a6bc a93d 942d 8fbe 56cb a33e 56bd 01bd
00000090: 9811 a7be 4341 28bd 01d9 c83e e5d7 8b3c
000000a0: eaa1 993e e30e 68be ed2b e4bd 8ba8 b5bd
000000b0: f7b8 2d3e 22e9 dc3c 10d8 6bbe 2584 903e
000000c0: 278d 0f3e 29de ac3e 2add 4a3e 9047 103d
000000d0: 1104 b9bd a7dd 18bd 7f30 413e d1f7 b93e
000000e0: 62e5 b7be 7113 7c3e 586d 48bb f379 7dbe
000000f0: f004 863e 0317 1a3d eac0 40be ca5f 843c
00000100: ebdc b83e eac6 eabd 9fae b43e dacf e2bd
00000110: c69e 163e 16a1 72bd eb4b 9cbe 4d96 4dbd
00000120: 3b6e 303c 7302 063d 01bf 5ebe 3997 15be
00000130: 0f54 1f3e 4a8e 99be e4da e7bd a805 a23d
00000140: e58d ad3e ef2c c03e d9ae d3bd 7b27 b9bd
00000150: 336c a4be 04c8 83be 18cf 83bd ae07 8ebc
00000160: 0475 2abe b148 f53d 12c9 473d c7ab 42be
00000170: 702f b2be feca 8f3d df01 69be 63df 8cbd
00000180: 1160 ef3d 65db 3cbd ac46 a33e d0e0 04bd
00000190: b418 7a3c 30df bcbe a154 02bd 1f31 22be
000001a0: 93e1 84bd 95e2 2dbd a804 bbbe 4c75 073e
000001b0: 1ac8 8e3e e63d 06be 22b1 c43d 361e 683e
000001c0: 2a2b e53d 6c87 363d 9cd3 823e 7c1f 793e
000001d0: 7f5f ecbc 0d6a 283e bd2b babe e576 02be
000001e0: 08d4 a83e 1fbd 32be 29e6 0fbe 6572 97bd
000001f0: 0379 483d d655 bf3e 14db 43bd 1986 85bd
00000200: 3b0c 80bd 6926 a83e 5fb5 033e 9304 50be
00000210: 17bb 0abe 48e9 8d3e bc58 ad3e c838 bdbe
00000220: dd57 9e3d 9b3e 993d 43ca b63e 9431 4a3e
00000230: 317c 51be c0d1 09be 23ca 57be 3596 86be
00000240: 392f 5dbe ef90 a3be 69eb 1cbe 0991 7bbd
00000250: 3dfd 763e 90d1 babe b32d 82be 7a85 833e
00000260: e263 673e b41b 82be 7609 24be 2187 7d3c
00000270: 9378 103e b847 a2be 47e2 b8be 1f2d dfbd
00000280: aedf 2c3d fe9d 23be 2fa2 b73e f045 b6be
00000290: 1e74 8f3e 6cda 9dbd e789 b23e c1cf a8be
000002a0: e7a9 7ebe c17f bfbc c97f 9e3e fae4 85be
000002b0: f775 5cbe c2b7 22be 8c3b b73e 0122 9e3e
000002c0: 01de e53d e766 49be 5e2a 9ebd 66fe 733e
000002d0: 8d84 8a3e f2ac 023d c3e7 923d 76fa 603e
000002e0: bb56 c03e c2bf a03e 49de dc3d 1ea4 a73e
000002f0: 862f 21be 094a ac3e 801d 0bbd 62ac 21be
00000300: 0634 c63e a044 dfbc d357 763e 4ad7 7c3d
00000310: b19b 8b3e 09fd 59be f40d 9cbe c808 5d3d
00000320: 3c83 63be 8fc8 bfbe e198 7e3e 876c be3d
00000330: 991f b2be 4b87 8f3e 7a86 603e 9ef5 513e
00000340: 9659 93bc bc3e 61be b61d bebe 72e9 543e
00000350: 6ed9 8a3e 6e3b 1fbe b108 583d 9bb5 453d
00000360: bcfa 6c3e aafa 1f3e 34e9 c1bd 3d1c 833e
00000370: d566 84bc 8022 8ebc e870 933e 4b6b 323e
00000380: b15b 22be fda7 ba3e 55c2 473e ab0a a73e
00000390: 9584 963e 8e27 c13d b8eb 8ebe 89e1 803e
000003a0: 7077 b43e eba4 e3bc 73ba 7b3e ce44 c6be
000003b0: d2ce 893e e23d 71be 72f6 753e 8848 9cbd
000003c0: ffd0 34be 4f2a c03d 8537 fcbd 1e56 be3d
000003d0: 4c9f 1fbe d240 ae3e 0e65 5e3e bf6a 65be
000003e0: a40c 2b3d a378 80be 2dd9 88be b920 57be
000003f0: 6eef 9d3b 940a 2abd e7c5 c33d 32a9 b8bd
-0.06597201 -0.23339154 -0.35260946 -0.021792943 0.1299782 0.39401084 0.040457238 0.14623584
-0.36882776 0.23477697 -0.2190103 -0.24437311 0.08083761 -0.3149812 -0.02913814 0.116802104
0.35310307 0.22295831 -0.37074593 -0.24407296 -0.21896617 -0.18796161 -0.07455939 0.27792072
-0.09126197 0.058639813 0.3160799 -0.36036244 -0.28357735 0.010115691 0.12661906 -0.20373698
0.08287935 -0.2796446 0.3199107 -0.031674705 -0.3263061 -0.041077863 0.3922806 0.01707072
0.30006343 -0.22661929 -0.11141191 -0.08870038 0.1696509 0.026966635 -0.2303164 0.28225818
0.14018689 0.33763245 0.1981093 0.035224497 -0.09033979 -0.03732076 0.18866156 0.3632188
-0.35917193 0.24616791 -0.0030582752 -0.24753551 0.26175642 0.037619602 -0.18823591 0.016158957
0.36106047 -0.11463721 0.35289475 -0.11074801 0.14709005 -0.059235655 -0.3052667 -0.050192166
0.0107684685 0.03271718 -0.2175255 -0.14608468 0.1555941 -0.2999137 -0.11321047 0.07911235
0.3389732 0.37534282 -0.10336084 -0.090407334 -0.321138 -0.25738537 -0.064359844 -0.017337646
-0.166462 0.119767554 0.04877574 -0.1901084 -0.34801817 0.070211396 -0.2275462 -0.06878545
0.11688245 -0.04610767 0.31889856 -0.03244096 0.015264679 -0.3688903 -0.03181899 -0.1583905
-0.06488337 -0.042452414 -0.3652699 0.13228339 0.2788704 -0.1310955 0.09604098 0.22667775
0.111898735 0.044562742 0.2555207 0.24328417 -0.02885413 0.16446705 -0.36361495 -0.12740667
0.32974267 -0.17454956 -0.14052643 -0.07394866 0.04894353 0.37370175 -0.04781635 -0.06519718
-0.06252333 0.32841805 0.12862156 -0.20314245 -0.13547932 0.27717042 0.3385676 -0.36957383
0.07731602 0.07482644 0.35701188 0.19745475 -0.20457532 -0.1345892 -0.21073203 -0.26286474
-0.21600045 -0.31946513 -0.15324177 -0.061417613 0.2412004 -0.36488008 -0.2542549 0.25687772
0.22596696 -0.2541176 -0.16019234 0.015474112 0.14108495 -0.31695342 -0.36110136 -0.10897278
0.042205505 -0.15978238 0.35865924 -0.35600233 0.28018278 -0.07707676 0.34870836 -0.32971004
-0.248695 -0.023376347 0.30956867 -0.26151258 -0.21529375 -0.1589041 0.35787618 0.30885318
0.112239845 -0.1966816 -0.07722925 0.23827514 0.27054253 0.031903215 0.07173111 0.21970543
0.3756617 0.313963 0.10784585 0.327424 -0.15740785 0.33650234 -0.03396368 -0.15788415
0.38711566 -0.027254403 0.2405694 0.061728753 0.2726722 -0.21287932 -0.30479395 0.053963453
-0.2221803 -0.37457702 0.24863006 0.09298044 -0.34789732 0.28032908 0.21926299 0.20503852
-0.017987054 -0.21996588 -0.37132043 0.20792177 0.2711901 -0.15550014 0.052742664 0.048268896
0.23142523 0.15622965 -0.09468308 0.25607482 -0.016162315 -0.017350435 0.28797078 0.17423742
-0.1585529 0.3645629 0.19507726 0.32625327 0.29398027 0.094313726 -0.27914214 0.2517207
0.35247374 -0.0277886 0.24582843 -0.3872437 0.26915604 -0.23558763 0.24019793 -0.07631022
-0.1765785 0.0938307 -0.12315277 0.09293769 -0.1558811 0.3403383 0.21718237 -0.22404002
0.041760102 -0.2509204 -0.26728192 -0.21008576 0.004819802 -0.041513994 0.09559231 -0.090166464

encoder.actor_encoder.net.mlp.2.weight f4 [256, 256]
00000000: 9edc c93c 003e 27bd 7d27 3a3d 4350 55bc
00000010: 7e52 1bbd b62d ae3b 5795 9ebc ee81 6c3c
00000020: 4a65 e3bb 3888 75bc 00e4 633d e567 01bd
00000030: 4e02 743d f3bc 3f3c 0c2a 1fbd 9757 5b3d
00000040: 6453 833b e8b4 65bd 0b36 12bd acff 643a
00000050: dc1c cc3b c020 2d3d 6207 28bd 5534 54bd
00000060: 99f7 323d 2246 a0bc c9ad de3c 6179 27bc
00000070: fad8 23bd e2a8 e33c e93b 803d 33d5 ec3c
00000080: dc6c fe3c 63c2 5ebd 54b6 723d fc6f 95ba
00000090: 0169 10bc 0554 0ebd 27e5 3f3d f992 5d3b
000000a0: ae7d 02bd 7868 8a3a e60a 98bc 92e2 da3c
000000b0: 2aff 8e3c 032d 553d b60f 08bc 7624 003d
000000c0: 2ff4 c6bc a29e 1dbc 052f 7f3d c5fa 8fbc
000000d0: cab5 983d 25e7 1ebd 18eb b13b 4b13 363d
000000e0: eb7b 473d 68f0 35bd ecc6 93bc 8620 633d
000000f0: 34a2 30bd a029 223d 037b 4cbd e41b b3bc
00000100: 402b 50bd f177 6f3d 292c b03c 4e6f 9c3b
00000110: 2a40 053d 1285 903c 826e 82bd 71e3 1a3d
00000120: 53c1 0a3a 87c1 413d 1852 5fbd 13f2 353d
00000130: e07c 983b 7411 78bd 2294 04bb e42c 623d
00000140: 0485 01bd dc9c 0a3d 15bf c4bc db7b 29bd
00000150: d494 debc 6e09 ce3c c22c 16bd 4505 48bd
00000160: b87e 5d3d 4eb3 02bd 0d6d 663d 793f a5bb
00000170: 783e 98bc 6815 adbc 7e53 7e3c 350f 413d
00000180: 70a0 ffbc b642 353d 2416 20bd 37fb 3bbc
00000190: 5bdd 01bd 73d3 89bd 4fea 773d 225a 7fbd
000001a0: 82c4 163d 74c2 25bd 1f76 65bd f227 183d
000001b0: e646 11bc dd1b 883d e797 2bbd b85f 59bd
000001c0: 0f3e 9fbc 98f3 46bd 889d 2cbd 4b3d 6bbb
000001d0: 1c9d dbbc 49d1 e5ba cd80 5e3c 9a4c a2bb
000001e0: 6b9d 3c3c ae1b fb3c 88cf e3bc c592 abbc
000001f0: 151d 4a3d a5b0 a53b d146 663c 0d32 2fbd
00000200: ac89 5ebd 5709 773d d7cc 4ebd 9e58 83bc
00000210: 6e97 4a3d ddad 483c adf6 48bc ea0d 48bd
00000220: 8176 6b3d 1384 b43c d855 5dbc 7d72 053d
00000230: 408d 07bd 58d4 e63b 68a5 1dbd d050 7cbd
00000240: ee6d b2bc 2613 2c3d 96fd 7b3d 4ae0 b8bc
00000250: 684b 183d 5f5a 6cbd 7a23 15bd 1dc4 92bc
00000260: 34ae e0bc 2343 683d 7bab ea3c 5d09 a03c
00000270: 70c2 403d 749b 0cbd 7bea 833c dcb4 b53c
00000280: dec8 0ebd ab59 603c 79bd 673c 8098 f2bc
00000290: ef4f d83c afec 5a3c b244 473d d2e1 673d
000002a0: ff66 8ebd 42b8 3fbd 0bb3 c7bb af7f 54bd
000002b0: a4fd e1bc 9115 8ebd 4040 18bc 05a3 223c
000002c0: c47b 4f3d f306 89bd 1a54 303d 04cd 0c3b
000002d0: f1d2 b93c 6944 313d 1f51 ea3c ebe1 ef3c
000002e0: 8f05 d03c 509c 66bd 9c0f 503d 458d 74bd
000002f0: bb36 cebc d172 34bd 635a dcbc b6d0 86bd
00000300: 8584 bcbc 59e9 3f3d 9f1e 07bc 870a bf3c
00000310: adb5 8ebc 2312 08ba cf99 ef3c 3489 7ebc
00000320: 65e2 f3bb 1df5 063d 0aaf 97bb da20 1e3c
00000330: b28e 483d 7475 bb3c ac00 193d b042 01bc
00000340: 188d d0bc 568e e83c ee45 803c 9eeb 5f3d
00000350: 0a9b 1c3c b491 48bd f913 0fbd 02bd 00bd
00000360: 7e80 823c 6b5b 33bb fc01 063d 404c fd3b
00000370: ad56 413d 27ed 7ebd 9c59 fc3c 40a2 973c
00000380: 5034 d63c 0b86 31bd ac2b b83c 9775 793d
00000390: 2aec 373d 4405 28bd 549b 80bd e946 ea3c
000003a0: 85cf 28bd 609b 25bd c469 a73c 8f02 663c
000003b0: 8622 283d e2a2 d93b 275e 55bd edf3 5abd
000003c0: 0802 e5bb 4eb9 92bc 4856 55bd 92d6 59bd
000003d0: c9af 413d fd48 af3c e01c 233d 2e24 d7bc
000003e0: e3d0 90bd 5a82 34bd 5efc 893c bc2b 56bd
000003f0: cd5e 04bc 7b87 87bc 5c23 a73c a3bc 02bd
0.024641331 -0.040830612 0.045447815 -0.013019624 -0.037920468 0.0053155078 -0.01935832 0.0144352745
-0.006939565 -0.01498609 0.05563736 -0.031593222 0.05957251 0.011702764 -0.03885846 0.05355033
0.0040077437 -0.05608073 -0.03569607 0.0008735608 0.0062290262 0.04226756 -0.041022666 -0.05180772
0.04369316 -0.019564692 0.027182477 -0.01022181 -0.040001847 0.02779049 0.06261427 0.028910255
0.031057768 -0.0543846 0.059255913 -0.0011401172 -0.008814097 -0.034748096 0.046849396 0.0033809526
-0.03185814 0.0010559699 -0.018559884 0.026719365 0.017455656 0.05204488 -0.008304527 0.03128477
-0.024286358 -0.009620341 0.0623007 -0.01757563 0.074565485 -0.038794655 0.0054296367 0.044451993
0.04870216 -0.044418722 -0.01803919 0.05545094 -0.04312344 0.039590478 -0.049922 -0.021863885
-0.050822496 0.058463994 0.021505432 0.0047740107 0.032531895 0.017641578 -0.06368734 0.03781456
0.000529309 0.047303703 -0.05452165 0.044420313 0.004653558 -0.06056352 -0.0020229896 0.055218592
-0.031620994 0.033841 -0.024016896 -0.041377883 -0.027170576 0.02515098 -0.036663778 -0.04883315
0.054075927 -0.03190928 0.056256343 -0.005042967 -0.018584475 -0.021128371 0.015522836 0.047133643
-0.031204432 0.044253074 -0.039083615 -0.0114734685 -0.03170524 -0.06729784 0.06052619 -0.062341817
0.0368085 -0.040468648 -0.056020852 0.03714747 -0.008867001 0.066459395 -0.041892912 -0.0530698
-0.019438772 -0.048572153 -0.04214242 -0.0035894688 -0.026808314 -0.0017533685 0.013580513 -0.0049529793
0.011512141 0.030652847 -0.02780892 -0.020944009 0.04934414 0.005056458 0.01405497 -0.04277234
-0.054330513 0.06031164 -0.05048832 -0.016033467 0.04946082 0.0122484835 -0.012265843 -0.048841394
0.05748606 0.022035634 -0.013509236 0.032579888 -0.03309369 0.0070443563 -0.03848782 -0.061600506
-0.021780934 0.04201045 0.061521135 -0.022567887 0.037181288 -0.057703372 -0.036410786 -0.01791578
-0.027426817 0.05670465 0.028646221 0.019535715 0.04706043 -0.03432794 0.01610302 0.022180967
-0.03485953 0.0136932535 0.014144295 -0.029613733 0.026405303 0.013362094 0.048649497 0.056611843
-0.06953239 -0.04680658 -0.0060943416 -0.05187958 -0.027586766 -0.06937707 -0.009292662 0.009926562
0.05065514 -0.066907786 0.043048956 0.0021484504 0.022683593 0.04327813 0.028603135 0.02928253
0.025393276 -0.056301415 0.050796136 -0.059705038 -0.025172582 -0.04405481 -0.026898568 -0.06582777
-0.023012409 0.046853397 -0.008247047 0.02332045 -0.017420614 -0.0005190691 0.029248146 -0.015535641
-0.00744276 0.032948602 -0.0046290206 0.009651387 0.04896421 0.022883154 0.037354156 -0.007889435
-0.025457904 0.028388184 0.015658345 0.05466806 0.009558449 -0.04896708 -0.034931157 -0.031430252
0.01593041 -0.0027367722 0.032716736 0.007730037 0.0472018 -0.062237885 0.030804448 0.018509984
0.026147991 -0.043340724 0.022481762 0.060903158 0.044902958 -0.041020647 -0.062796265 0.028598266
-0.04121353 -0.04043138 0.020436175 0.014038696 0.04104855 0.0066417316 -0.052091744 -0.053455282
-0.0069887675 -0.017910626 -0.052084237 -0.053183146 0.047286782 0.021397108 0.03982246 -0.026262369
-0.07071092 -0.044069625 0.01684397 -0.052287802 -0.008079243 -0.016544094 0.020402603 -0.03191818

encoder.actor_encoder.net.mlp.2.bias f4 [256]
00000000: e06d 763d dbbc 6a3b 3160 5ebd 954e f63c
00000010: bc4b b83c 026a 3cbd f770 5fba 1464 aa3c
00000020: b3eb 12bc e382 56bd 614b edbc 79a5 5d3d
00000030: 323c 2e3d ab6c 6f3c 836d 0cbd c16a 853d
00000040: dfa7 213d 5725 7d3d 2649 c2bc eda5 ab3c
00000050: b8b0 29bc 8490 7a3c 67e7 963b a2f4 293b
00000060: 9d2d 35bc d759 063d 1d87 3b3d f542 8c3b
00000070: fb1c 8a3d accb ecbb 622e d6bb 3d66 8b3c
00000080: 4736 e73c 03cd 78bc 0c84 db3c 9d29 8b3c
00000090: 3e1b 7ebd 13fd ecbc 7a68 e6bc 3d70 5bbd
000000a0: 5ada 923b 3720 babc c11a 493d c23e 9ebc
000000b0: 1f0b cb39 a778 753d 14b8 b4bc 5891 b93c
000000c0: 3c0c c9bc 6165 ee3b 71ae bb3c 796e 263d
000000d0: c8b1 81bb f914 0e3c 5741 38bc 3cd1 663c
000000e0: 91a8 6b3a b177 723c c089 253d 7f0e 29bd
000000f0: 9ffe 1e3c db45 69bd ba49 463d 3157 623d
00000100: 50fe 61bd f111 3ebd 92be 64bd dcdf 66bc
00000110: 8c5a 23bc 6740 293d 146f b03c 440e 58bd
00000120: 23fc 863c a2b6 38bd a6db 9dbb 860d 50bc
00000130: 69d3 fbba 979d af3c 4e97 8fbb 7df3 343d
00000140: a6d1 7a3d e919 83bc 57ad 593d 1faa 893c
00000150: 9fd0 e2bc e2cb 263c 249f 073d 78bb 383d
00000160: 59a6 263c 11db 58bd aaa9 24bd 357f 583c
00000170: 1f25 b33b e24b ddbb 7d98 403d b444 963c
00000180: 238a 48bd a458 c2bc 2136 27bd ce38 09bc
00000190: b490 363d cc4e a7bc e469 d3bb f069 34bd
000001a0: 6579 823d 470c 283d e7ee 263d 6712 07bd
000001b0: fc75 073d 8659 1b3d 503b 8cbc 5ccc a5bc
000001c0: eabf 803c b57c 263b cec0 58bc fdee 70bd
000001d0: b103 43bd bdd2 1c3c ddc3 93bc f03d c0bc
000001e0: 696e 303d c760 83bd f13b 1e3d 3e11 093d
000001f0: 0b26 323d 6294 e33c 5256 27bd b490 8abd
00000200: 741f 833c 9ae8 7abd c43d 023d 0b32 61bd
00000210: 7704 3d3d 8c64 1f3d a562 6dbd cd62 3dbd
00000220: d83d 53bc 83bd babc 2c04 e0bb 8b6c 24bd
00000230: c8f1 3c3d c145 9bbc 6464 593c 7058 0f3d
00000240: 2f11 12bd 1fab 483d 0f4c 573d 84cb 803c
00000250: b922 f63c bc54 41bd 72e3 693d d2c2 03bd
00000260: ed0c 00bd ace8 3b3d 3bc4 26bd 7d45 a93c
00000270: ca20 2b3d 43a1 1abd 862c 393d a04d 68bd
00000280: fbc0 1b3d 7e30 ffbc a533 6dbc dc93 9f3a
00000290: 6de8 a9bc 34ad 013d 2afd 25bc c638 e0bc
000002a0: ba39 f3bb 3f5b babc da14 c93c 0c0d 1f3c
000002b0: c371 1c3d 5dac 293d d696 bb37 27ef 173c
000002c0: feed ffbc 195d afbc a2d6 c6bc 7d9a 533d
000002d0: e66f 47bd 1f2e 573d 7b40 043d 3373 32bd
000002e0: bb1c 2f3d 080e cdbc 9a09 803d 1fad 563d
000002f0: 3a90 5a3d c3c4 b7bc 6ed4 613c 1a0f 12bd
00000300: 33e4 cabc 48cd 7b3d c370 ef3a 48f3 76bd
00000310: e3b1 7bbd ad0d b0bb 5034 7dbc c245 34bd
00000320: 7c59 643d a8a1 8cb8 1c1d f6bb 8b26 eebc
00000330: 19d0 11bd 3b06 43bb 5c90 3cbc 6e01 1fbd
00000340: 6300 98bb f4b2 2f3d a09c 96bc 2b8e d93c
00000350: 7039 2e3b 1a21 493d 6ce8 99bc 332a 9b3c
00000360: 7dfb 77bb 6128 f0bb 3b74 7cbb 2552 be3c
00000370: e59f 8c3c b2d4 c63c b82b 313d 0503 723b
00000380: db7a 4fbd c4d7 44bd 6c88 3fbd 0ad2 a2bc
00000390: ccd9 59bd 556e 67bd 77b8 253d d671 283d
000003a0: a659 fa3b 5b1c 3abd 3011 f4bb 3bc3 7fbc
000003b0: 692c 2f3c 3a0b 423d 2692 68bc 4a3b 9c3c
000003c0: 2c96 8c3c 72dd 143d 4735 bebc fde8 c0bc
000003d0: 28fa a7bb e823 503c 4c04 17bd d78e 613d
000003e0: 431b bbbc dc00 03bd 0da1 873b 21cc 87bb
000003f0: 24f1 0abd 9584 8abc 9492 0cbd b195 843d
0.06016338 0.0035818133 -0.054290954 0.030066768 0.02249705 -0.045999534 -0.0008523608 0.020799674
-0.008967328 -0.052370917 -0.028966608 0.054112885 0.042537875 0.014613311 -0.034284126 0.06514502
0.039466735 0.06180319 -0.02371652 0.020953143 -0.010357074 0.015293244 0.004605222 0.0025933166
-0.011058238 0.03280052 0.04578315 0.004280443 0.06743809 -0.007226428 -0.006536291 0.017016524
0.028224124 -0.015185597 0.026796363 0.016987616 -0.0620377 -0.028929269 -0.02812599 -0.053573836
0.004481596 -0.02272044 0.04909778 -0.019317035 0.00038727463 0.059929516 -0.022060432 0.022652313
-0.024541967 0.007275269 0.022910329 0.0406327 -0.0039579608 0.008671992 -0.011246047 0.014087971
0.0008989657 0.0147990445 0.04041457 -0.04127359 0.009704261 -0.056951385 0.048410155 0.055258933
-0.055174172 -0.04640383 -0.055845805 -0.014091458 -0.0099703185 0.041321184 0.021537341 -0.05274798
0.01647765 -0.045096047 -0.004817444 -0.012698537 -0.0019212785 0.02143745 -0.0043820506 0.04417752
0.061235093 -0.016003566 0.053143825 0.016804753 -0.027687369 0.010180445 0.033110753 0.04510066
0.010171496 -0.052943293 -0.040200867 0.013213922 0.0054670717 -0.0067534307 0.047020424 0.018343307
-0.048959862 -0.023723908 -0.040823106 -0.00837536 0.044571593 -0.020423315 -0.006451832 -0.044046342
0.063708104 0.041027334 0.04075518 -0.032976534 0.033071503 0.037927173 -0.017118126 -0.020239048
0.015716512 0.002540392 -0.013229562 -0.058821667 -0.047610942 0.009571728 -0.01803773 -0.023467034
0.043074045 -0.06414943 0.038631383 0.03346371 0.04349331 0.027780715 -0.040853806 -0.06765881
0.016006209 -0.061256982 0.031797186 -0.054979365 0.046146836 0.03891425 -0.057955403 -0.046236802
-0.012893163 -0.022795444 -0.006836435 -0.040142577 0.046129018 -0.01895416 0.013268564 0.03499645
-0.03566092 0.04899132 0.05256277 0.015722044 0.030045854 -0.04719995 0.057101674 -0.032168217
-0.031262327 0.04587619 -0.040714484 0.020663017 0.041779317 -0.037751447 0.045208476 -0.056714654
0.038025837 -0.031151053 -0.014477645 0.0012174803 -0.020740712 0.03165932 -0.01013116 -0.027370822
-0.007422653 -0.022748588 0.024546076 0.0097077 0.03819443 0.041424144 2.2362376e-05 0.009273327
-0.031241413 -0.021406697 -0.024272267 0.051661003 -0.0486907 0.05253422 0.032288056 -0.043566894
0.04275201 -0.025031105 0.06251831 0.052411195 0.0533602 -0.02243269 0.013783557 -0.035658933
-0.024767017 0.06147507 0.0018267859 -0.060290605 -0.061448943 -0.005372724 -0.015454367 -0.04401184
0.0557494 -6.705831e-05 -0.0075107943 -0.029071113 -0.035598848 -0.0029758352 -0.011509027 -0.038819723
-0.004638718 0.042895272 -0.018385231 0.026557049 0.0026584528 0.049103834 -0.018787585 0.01894102
-0.0037839108 -0.0073290323 -0.0038521427 0.023232529 0.017166087 0.024271343 0.043254584 0.003692807
-0.050654273 -0.048057333 -0.04676096 -0.019875545 -0.053186223 -0.056501705 0.040459123 0.041124187
0.0076400815 -0.045437198 -0.007448338 -0.015610511 0.010691741 0.047373988 -0.014195001 0.01907124
0.017161451 0.036344 -0.023218764 -0.023548597 -0.0051262565 0.012703873 -0.036869332 0.055067863
-0.022840148 -0.03198324 0.004139072 -0.004144207 -0.033921376 -0.016908923 -0.034319475 0.06473864

encoder.critic_encoder.net.mlp.0.weight f4 [256, 7]
00000000: 8861 96be 1cd2 cabd 8a88 4cbe 135d 953d
00000010: 41b8 a9be e49d 5cbe d237 973e f238 073e
00000020: 619b 06be 3020 eabb 8a4d 6b3e bcb4 d13d
00000030: 7603 923e 69a8 8c3e 9bfc 68be 6634 c3bd
00000040: f3dd 16be 0392 66bc 684c d83d f2b3 a2be
00000050: f5c8 5c3e 5bae be3e 6dc8 98be 2344 8fbd
00000060: b715 dcb9 bc52 1d3e c808 9bbe ef2b c7bd
00000070: ca63 413e 61a1 af3e 316d 883e 89d4 52be
00000080: 96da 51be 3634 aabe c1d1 10be 7fe1 a83d
00000090: 2f92 843e 8d14 8a3e 23f7 c13d 6895 cc3d
000000a0: b54b dcbd 5038 94be 67db 93bd 52c7 61bc
000000b0: 62e9 88be 1931 72bd 12db 62be c1f0 52bd
000000c0: c83c 573e 0b43 b4bc 0371 653e 2709 9dbe
000000d0: 9c12 a43e 3462 5a3e cf0c 073e d6bd babe
000000e0: c8d4 abbe 3472 a53e a051 663d 9699 54be
000000f0: e98c 87be 9b99 963e 26d1 aabe ae97 453e
00000100: 4ad3 a1be a1fd 813c bd83 453e cd8e 62bd
00000110: 07ab 663e 3d84 bb3c 1492 adbc fe9a 3a3e
00000120: fab6 b6bc 385d fbbd 25f8 48be 6627 1fbc
00000130: 7d84 27be de42 a93c 841e 7f3e a596 b5be
00000140: 7af4 9dbe 8070 a5bd 6896 e2bd fad2 a4be
00000150: ff56 c53e 702e 8e3e ad45 163e 54d1 abbd
00000160: 8222 1d3e 8323 51bd e65b 78be 5cc1 41be
00000170: 7380 6c3d 85f0 573e 44b3 b73e 0a9f a5be
00000180: 9a2e 7f3e a941 56be fdd9 fe3b 1e25 863e
00000190: 1b2d 0cbe 8e49 c5be d189 523d e1dc 903e
000001a0: 2fc5 fc3d 380c 443e 91df 6bbe 39c3 823e
000001b0: 7307 983e cb3d 85be 1b6c ac3e 495d 893d
000001c0: fc33 613e 8848 b6be c5d1 c03e 73ae 0b3d
000001d0: 54d8 77be b17c aabe 6c33 0ebe dd4c 8d3e
000001e0: defe af3e 418c 683e 34ba 0c3e 9100 01be
000001f0: a2ad a5be 7c95 b13d f588 593e dc76 c73d
00000200: 27a9 c03e a596 3f3e ca39 03be 6e6e 6abe
00000210: d504 b33d 737f 6e3e 08a0 4c3e f729 7ebd
00000220: 5b92 23be 02bb 77be f616 6abe 03e5 383e
00000230: c37c 9c3e dd79 a33e 2a10 013e 8b69 0ebd
00000240: dee3 3f3e 676e ed3d 48bd f8bd abb9 ba3e
00000250: f6b3 9cbe ae21 fabd a4be 963e 02e2 90be
00000260: e06a 583d 8ec6 cf3d 2d42 d63d d5a1 99be
00000270: 1f49 4cbe 6370 4e3d e3b4 763e 8a10 4cbd
00000280: d5eb 0cbe 55ce a03e 0da1 e73e c9f4 09be
00000290: 2d10 b43e 38d1 8c3e 8347 d3be 3b33 453d
000002a0: 5a73 bc3e e8f6 a93a 93d7 713e b0b8 db3d
000002b0: aaee 933e 55df 79bd 349d be3d 70d7 9c3b
000002c0: 204b a3be dada 6cbe bcfa 46bd 55c0 ae3e
000002d0: c72d 9a3d 1d26 663e 360a 7b3d da5b 54be
000002e0: 1e32 883d a42d 763e 5171 57bc 9d81 5c3d
000002f0: 7cb4 8dbe bd68 183e 81e7 8d3d 83fb ccbe
00000300: 4e5a 2fbe 2fe1 27be c0c7 373e 5efe 083e
00000310: c151 83bd b878 323d 7d7a 98be 74b6 b6be
00000320: b2bc 923e 0fab 8c3e 2d56 55be bdfa cd3e
00000330: ade4 4fbd a850 26be 57ad 59be a9e7 8ebe
00000340: d8ff 1ebe bf66 643b b1de 55bd d117 ac3e
00000350: 56d9 80bb 6d0a 2a3e 7cc5 413e e9ed adbc
00000360: bd6c ec3d 7df9 8dbe 5585 83bd 86c9 3ebe
00000370: 6bdd 09be 7a69 6a3e b0cc bcbc b80e 81bd
00000380: bf61 a63e ffc4 833e 69f6 d7bd fa05 e53d
00000390: 42ca b43e f996 17be 396e d53c 652f 833c
000003a0: 58a1 4f3e 2966 2c3e 2389 3e3e e1a6 b13e
000003b0: b952 563e 4aee debe 0b95 ad3e b469 0f3e
000003c0: f771 c33e 9cb3 b13d 2e10 083e 2415 c1be
000003d0: 0836 b13c 5b13 f6bd a4ee debd 5d04 33bd
000003e0: 2b5d 9a3e eb1d 6e3e 02ed a13e 5d6a c8bd
000003f0: 2a5f 94be 6129 653d ecd5 db3d 465b 8dbd
-0.29371285 -0.099033564 -0.1997396 0.07293143 -0.33148387 -0.21544605 0.29534775 0.13205317
-0.1314521 -0.0071449503 0.22978798 0.102395505 0.28518265 0.27472237 -0.22752611 -0.095314786
-0.14733104 -0.014072898 0.10561448 -0.31777912 0.21561034 0.37242398 -0.29840413 -0.06995418
-0.0004197785 0.15363592 -0.30280137 -0.097251765 0.18885723 0.3430281 0.26645806 -0.20588888
-0.2049354 -0.3324296 -0.14142515 0.08246135 0.2589278 0.26968804 0.09470966 0.099894345
-0.107566275 -0.28949213 -0.07219582 -0.013780432 -0.26740557 -0.059128854 -0.22153881 -0.051499132
0.2101928 -0.022004625 0.22406392 -0.30671045 0.32045448 0.21326524 0.1318848 -0.36472958
-0.33560777 0.32313693 0.056230187 -0.20761713 -0.26474693 0.29414067 -0.33362693 0.19296142
-0.31606513 0.01586801 0.19288535 -0.055311967 0.22526179 0.022890205 -0.02118782 0.18223187
-0.022304047 -0.122736394 -0.1962591 -0.009713983 -0.16359134 0.020661768 0.24913985 -0.35466495
-0.30850583 -0.08078098 -0.11063844 -0.32192212 0.38542935 0.27769804 0.14675017 -0.083895355
0.15345195 -0.051059257 -0.24253806 -0.18921417 0.057739686 0.21087845 0.35878956 -0.323479
0.24920121 -0.20923485 0.007777451 0.26200193 -0.13689081 -0.3853268 0.051400963 0.28293517
0.12342297 0.19145286 -0.23034503 0.25539568 0.29693183 -0.26023707 0.33676228 0.06707246
0.21992487 -0.35602212 0.3766004 0.034101915 -0.24203616 -0.33298257 -0.13886803 0.27597705
0.34374136 0.22709753 0.13742906 -0.12597872 -0.32359034 0.0867109 0.21243651 0.097394675
0.37629053 0.1870981 -0.12815014 -0.22893688 0.08741156 0.23290806 0.19982922 -0.06205174
-0.15973799 -0.24192432 -0.22860321 0.18056111 0.30563936 0.31928912 0.12603822 -0.034768622
0.18739268 0.11593323 -0.121454775 0.36469778 -0.3060605 -0.12213455 0.29442322 -0.2829743
0.0528363 0.10145293 0.10461841 -0.3000628 -0.19949768 0.05040015 0.2409244 -0.04982046
-0.13761838 0.3140742 0.4524006 -0.13472284 0.3516859 0.2750337 -0.41265497 0.04814456
0.36806756 0.001296726 0.23617391 0.10728586 0.28893024 -0.061004 0.09307328 0.0047864243
-0.31893253 -0.2313036 -0.048578963 0.34131113 0.075282626 0.22475477 0.061289035 -0.20738164
0.06650184 0.24040848 -0.013149575 0.053834546 -0.2767676 0.14883704 0.069289215 -0.40035638
-0.17124292 -0.16394494 0.17947292 0.13378283 -0.06412078 0.043572158 -0.2978095 -0.35686076
0.28659588 0.27474257 -0.20833655 0.4023036 -0.05075519 -0.16241705 -0.2125753 -0.27911118
-0.15527284 0.003485128 -0.05221433 0.3361192 -0.0039321585 0.1660554 0.1892299 -0.021231608
0.11544178 -0.27729407 -0.064219154 -0.18631563 -0.1346337 0.22891799 -0.023046821 -0.063016355
0.3249645 0.25736234 -0.10545046 0.111827806 0.3531056 -0.14803685 0.026053535 0.01601381
0.20276392 0.16835846 0.18607001 0.3469763 0.20929994 -0.43541175 0.33902773 0.14005166
0.38172886 0.08676836 0.13287422 -0.37711442 0.02163221 -0.120154105 -0.10885361 -0.043705333
0.30149207 0.232536 0.31626135 -0.09785912 -0.28978854 0.055947665 0.10734162 -0.06902175

encoder.critic_encoder.net.mlp.0.bias f4 [256]
00000000: 35aa 68bb 0ba4 743e 09da 173e 4344 e4bd
00000010: 4ba0 d63e 8433 143e 5b6e d93d 2b9a e43d
00000020: 8da1 d8bd ad73 243e c492 a43d 6ab6 4f3e
00000030: c7be 003f 116f b23e 85fc cc3e 6e52 abbe
00000040: e7e3 49be 738b 8a3e ab25 943e 22ab 8d3e
00000050: 4d45 0bbe a13f aebd e378 253e 8522 f63e
00000060: 78c0 ac3c 57c9 c7be 853c 1e3d 412b 88bd
00000070: ef25 35be 29a8 c0bd a73d de3e 4f8d ee3d
00000080: 2ac1 75bd e453 db3e 99e2 393e de9b bebc
00000090: 1bd5 16be a3c6 c83e 8878 103d 873b 9d3e
000000a0: 8c01 29be e604 813e aa07 dc3c 5df8 d43e
000000b0: c089 26be 256c 76be 8316 6d3e ca17 bbbe
000000c0: 3616 bfbe e88a ebbe 2484 763e 88f7 923e
000000d0: d18f a43c 4444 823e ee0a aa3d fe3c dabe
000000e0: 6899 1cbe 7178 343c d36f dfbe 5c54 a3be
000000f0: 6702 8e3e 6150 d83e 87ba 933e 1292 953e
00000100: 9caa 943e 99c4 dfbd 0e8a c4be 5b1c 2a3e
00000110: a536 1ebd 798f 1dbe bf1c 2cbe cb3a 8c3e
00000120: e1d6 08be 97d5 eabd a27e 26be b9bb aabd
00000130: 7e76 9f3d d1b7 913e 1d0c ecbd 2b1f 88be
00000140: 7ba1 0c3e 2f0f 6bbe e52e 73be 3627 a1be
00000150: aa05 48be 53e6 b53e 086c d93e 5b32 b4be
00000160: 8602 91be db1c 2a3e 64d1 dd3d de95 44be
00000170: 6f89 60be 81d7 84bd 22d1 0bbe ca5e 5e3d
00000180: 61e4 643e f332 003e 4390 523e 0de3 243e
00000190: 8bec b7be 5018 e13d 645f d3be a40b 89bd
000001a0: d10e b33e e67f 24be cf99 8dbe f95e 053e
000001b0: ed68 2bbe 043f 89bd 4217 a63e 711a 733e
000001c0: 5637 74be 34ef 9a3d 21eb cbbd bdda e3bd
000001d0: f24c e13b 88c1 9d3d e490 86bd b8a1 04bd
000001e0: cf00 983e 26f9 96bd df61 0dbe a464 b4be
000001f0: 3aec 8a3e 309c 20bd 93ab f33e 0a5d 4e3e
00000200: 78fb bfbe bf51 ab3e f37c f1bd fd2f 23be
00000210: 87cc b6be 2362 cf3d bca8 01be 941b 653e
00000220: b8ba 38bd 385e bbbe d89b 353e ea21 1fbe
00000230: 2faf b63e 478f 0fbd 2dd9 12be f4a9 a5be
00000240: bc57 33bd dcb7 f1bd 071c 893e 424a e7bd
00000250: bbac 36be 5ea7 393e 77f8 0f3e c8cd 9c3e
00000260: ea50 a53e 37c1 3a3e e5fe afbd c8d1 5cbe
00000270: 69f0 ea3e 1684 98be 1225 c4be 70fd 8a3e
00000280: db24 b43e 58a6 993e a651 ae3e b94a 07bd
00000290: a913 10be f290 653c 5753 c73c 79d1 92be
000002a0: d2ee c63d 8c8d 42be 924c b8be 5766 7c3d
000002b0: bd56 97bd b412 acbd 37d0 b7be 0e13 bd3d
000002c0: a5cf 5dbe d677 93be d913 efbe 802a fe3d
000002d0: 2261 a1be b11a ce3e 63e3 873e 4c0e 99bd
000002e0: 416c e33e 20b3 c4bd a425 b1bc a194 9dbd
000002f0: ab69 b0bd ebad 343c d3cd 8fbe 9b23 e3bd
00000300: 5b2c ff3e 5085 2dbe 1369 d13d 627e aebe
00000310: 46a2 b3be d98c 3c3e 71f3 a33d 2048 903d
00000320: 57e2 bb3e 3737 0d3e a71a 8e3c f1d4 5a3d
00000330: b245 da3e 95dd b13e 73eb 49be 97d8 1c3e
00000340: 6bb4 f8be 200d c7be db56 e23e bb80 583e
00000350: c021 0a3e 957c 11be 54ad b23d 0c93 e6bc
00000360: 9658 bdbe 1608 99be cfd7 c73e 7940 7c3e
00000370: d7dc 10bb d614 43bd 10df 473e ca07 ab3d
00000380: 095f 9e3e 5ea5 70be dc97 15bd 60db 1d3e
00000390: 37d4 8ebe ce77 0f3e ce99 0bbe 73dd 3abd
000003a0: afa8 b03d d669 77be 3dea 043e 057f be3e
000003b0: c1af dcbe b23d 0f3c be78 ca3d fe8a 9fbe
000003c0: 8761 ac3e 710f 903e 8f31 ecbe 6010 043e
000003d0: 992f 27bd d04f 12be 2692 a23e 713b fa3d
000003e0: 6b8e 29be e848 c43e b6dd 59bd 4203 5fbd
000003f0: 6108 203e 832c 24be 0896 8cbe 1abc a5be
-0.0035501842 0.23890702 0.14829268 -0.111458324 0.4191917 0.14472777 0.10616752 0.11162218
-0.10577688 0.16059752 0.08035806 0.20284429 0.50291103 0.34850362 0.40036407 -0.33461326
-0.19715844 0.27059516 0.28934988 0.27669626 -0.13600655 -0.0850823 0.16159396 0.4807321
0.02108787 -0.39020798 0.038631935 -0.06648875 -0.17690252 -0.09407074 0.43406412 0.11648046
-0.05999867 0.4283744 0.18152846 -0.023267683 -0.14729731 0.39214048 0.035271198 0.30709478
-0.16504496 0.2519905 0.026859123 0.41595736 -0.16263485 -0.24064691 0.23153119 -0.36541587
-0.37321633 -0.46004415 0.24073845 0.28704476 0.020088108 0.25442708 0.08302866 -0.42624658
-0.15292895 0.011015044 -0.43640003 -0.319003 0.27736208 0.42248824 0.28853247 0.29213005
0.29036415 -0.1092617 -0.38386577 0.16612379 -0.03862633 -0.15386762 -0.16807841 0.27388605
-0.1336322 -0.1146652 -0.16259244 -0.083365865 0.077862725 0.28460553 -0.11525748 -0.2658628
0.13733475 -0.22955011 -0.23748358 -0.31475228 -0.1953341 0.35527286 0.42465234 -0.35194668
-0.28322238 0.1661257 0.10830954 -0.19197795 -0.21927427 -0.064864166 -0.13653997 0.054289617
0.22352745 0.12519436 0.20562844 0.16102238 -0.35922655 0.10990965 -0.41283715 -0.066916734
0.34972242 -0.16064414 -0.2765641 0.1302451 -0.16739245 -0.067014724 0.3243962 0.23740555
-0.23849234 0.075651556 -0.09956957 -0.111257054 0.0068756277 0.07702929 -0.065706044 -0.03238079
0.29688117 -0.0737174 -0.13806866 -0.35233033 0.27133352 -0.039211452 0.47591838 0.20152679
-0.37496543 0.33460805 -0.1179141 -0.15936275 -0.35702917 0.1012614 -0.12662023 0.22373801
-0.045099944 -0.3659532 0.17735231 -0.15540281 0.3568053 -0.03504875 -0.14340658 -0.32356226
-0.043784842 -0.118026465 0.26779196 -0.112934604 -0.17839329 0.18130252 0.14059626 0.3062575
0.32288295 0.18237768 -0.08593539 -0.215644 0.45886543 -0.29788274 -0.38309532 0.27146482
0.35184368 0.30009723 0.34046668 -0.033030245 -0.1407 0.014011608 0.024331732 -0.2867544
0.0971352 -0.18999308 -0.3599592 0.061621036 -0.07389591 -0.08402005 -0.35901043 0.0923215
-0.21661241 -0.28802365 -0.4669483 0.1241045 -0.3151942 0.4025474 0.2654067 -0.0747343
0.4441853 -0.09604478 -0.021624394 -0.07694364 -0.086139046 0.011027793 -0.2808672 -0.110907756
0.49838528 -0.16945386 0.102251194 -0.34080797 -0.35084742 0.18413104 0.08005417 0.07045007
0.3669612 0.13790594 0.017346693 0.053425733 0.42631298 0.34739366 -0.19718723 0.15316997
-0.48575148 -0.388772 0.4420689 0.21142857 0.13489437 -0.1420768 0.08724466 -0.02814629
-0.36981648 -0.29888982 0.39031836 0.2463397 -0.0022104287 -0.047627293 0.19518685 0.08351095
0.3093188 -0.23500583 -0.036521778 0.15415716 -0.27896282 0.14010546 -0.1363289 -0.045621347
0.08625924 -0.24161467 0.1297998 0.37206283 -0.4310284 0.008742737 0.09886311 -0.3116073
0.33668157 0.2813678 -0.4613156 0.12896872 -0.040816877 -0.14288259 0.31752127 0.12218369
-0.16558234 0.38336873 -0.053189956 -0.054446466 0.15628196 -0.16032605 -0.27458215 -0.32370073

encoder.critic_encoder.net.mlp.2.weight f4 [256, 256]
00000000: 1ebf ca3c 1203 edba c213 b23b d5ba 3dbb
00000010: 7c9a b93c efce 2abd f25f 8fbc c002 afbc
00000020: 3b15 56bd a2b1 763c cc30 813d 25f6 03bd
00000030: 63ff 9dbd af70 b4bc dcf6 acba 8259 473d
00000040: 24ee 913d e11d c33c 3576 34bd 6ae0 6cbc
00000050: 6dc6 513d b19e 7bbb baca 213a 1205 d03c
00000060: c4b9 143d dc65 8e3d ddc2 21bc 4627 05bd
00000070: a120 f33c f95d b1ba 1ec7 5a3a 1c3a 0ebd
00000080: 4882 0a3d e37e 66bd 139f 40bc 29e3 94bd
00000090: f5b1 27bc ea4a 39bd adbb 253d 35aa 043d
000000a0: 8fbb 26bd bb39 55bd c9fd a73b c75c 323d
000000b0: cddc 69bc d89b 0e3d e546 4d3d 4d17 dc3c
000000c0: 239e 143b e738 65bc 17f9 813c 2d0f 1fbc
000000d0: a725 adbc 234b 49bc ef13 603d 4797 4d3d
000000e0: b57c cd3c fe19 5ebc 8253 7a3d e88e 55bd
000000f0: a9e3 be3c 7c5a 2cbd 881d 18bc abf6 2e3d
00000100: ee82 993c 8dda 4bbd c93d febc f20c 983d
00000110: 6ec8 08bd 8cc7 4abc d315 9fbc 08dd 0a3d
00000120: 1ca5 64bb 58e6 6c3d ea6c 7dbd f2dc 643c
00000130: 25d7 4b3c 6aaf 503b 06be 30bd e871 5b3d
00000140: 4414 4c3b 66dc 23bd f3af 063d d135 d13b
00000150: 5c94 28bd 1ecd d23a 38ef d1bc 821b 263d
00000160: f2c6 0f3d 916c 863c cd6c f1bc 7420 833c
00000170: 845b 41bc b89f ae3c 99de 18bd 663d 6abd
00000180: 6fa8 223c 3718 82bd 490f a4bd 3e2b 38bc
00000190: 5c7a 57bd 38b1 dbbc 8083 5b3d d5bb d4bc
000001a0: 4c7f 4dbd 167c 033c 9843 f83c b3dc 90bc
000001b0: 773f 913a 8b6a 243d ce66 8cbc 96f7 84bd
000001c0: f794 3a3d 2b41 98bd 1ec2 07bd 6f8a 90bd
000001d0: 05eb 453d 54b1 d8bc 3c84 75bb 5cdd 91bc
000001e0: 86ee 67bc 4331 a4bd 1d0b 4b3c 2c38 1f3d
000001f0: 72f4 803c 64c4 ee3b c13d 8a3c 16e0 f83c
00000200: 8103 943d 7ca4 d3bb f640 be3d db20 a7ba
00000210: 01b1 5cbc 3dbe 72bd 7800 e73b db8a 153d
00000220: c10d 1f3c 2efc 3dbc 62d8 4f3d 06c9 3ebd
00000230: 6dcc 62bd 0c81 913c caa0 683c 9279 9c3d
00000240: ca13 e73c 3d9c edbc 7818 3abc 4fdf 983c
00000250: 388c 353d 4f2f e83c cd0e a7bb a702 333c
00000260: 347e 40bd 6cb2 eabc c1b7 3d3d 0c74 7cbc
00000270: 92fe 8dbd 354b 1bbd faf6 0b3d e25a 66bc
00000280: f0ad 37bd b056 94bc 5efc 82bd e68a 813d
00000290: 5404 86bc ad06 dfbc 4659 0dbd c229 04bd
000002a0: 26c6 69bd af7a d73c 35ce 073d 13bb 823d
000002b0: b48a a0bc 8ad8 d03a 3b85 ed3c 5334 be3c
000002c0: 67c1 6fbd 0a39 1ebd 67bd 8e3c 1a33 94bd
000002d0: efd2 8c3d 42a8 3fbd 4d49 ad3d 8880 253d
000002e0: 0211 fa3c 0394 71bc 5a4b c7bc 0173 923c
000002f0: 78bf 993d a2cb 223d 364a a6bc dd6b 673d
00000300: 9eaf d8bc a348 713d c45d bebc 9e70 da3c
00000310: 57d5 f0bc a95d 803c d2fc f9ba 4e88 063d
00000320: 4fe4 78bd c042 10bd 8962 e43c a74d 6c3d
00000330: e550 4a3d 2f3c 09bc 63e9 96bc bb7c 8bbc
00000340: a3f6 1b3d dc8b ddbc 35fa 723a 0490 943d
00000350: 12e6 12bd 7bd7 b3bc b111 0cbd 0e4f 4ebd
00000360: b5c3 d5bc 6e31 5f3d 4175 053d 2586 e4bb
00000370: 041f 8b3c ae2e 143d cfaf c53c 3b15 d6bc
00000380: 5ae7 963d 1db8 00bd 7f2c 1a3d 8fed 2bbd
00000390: 50b8 b1bc 7ed2 313d ed55 9138 ab1f 90bd
000003a0: e346 1abd ca90 5e3c c3fb 8abc 666c f33c
000003b0: dab8 b5bb 6ca1 92bd 4e83 753d 9512 02bd
000003c0: 19a5 853c ee2f 63bd ffe2 ddbc 9669 63bd
000003d0: 1586 4abd 8fdd babc 7030 073c 4224 c8bc
000003e0: ba8c c23c 337d 133d 7c9c ac3c c505 533d
000003f0: eeb0 b03c 83f1 6b3d d75c b53c 1960 353d
0.024749335 -0.001808258 0.005434484 -0.0028950472 0.022656672 -0.041701254 -0.017501805 -0.021363616
-0.05226634 0.015056999 0.063081354 -0.032217164 -0.07714727 -0.022026388 -0.0013196128 0.048669346
0.071255 0.023817958 -0.044058044 -0.014457801 0.051214624 -0.0038394148 0.0006171871 0.025393043
0.036309972 0.06953022 -0.009873119 -0.032508157 0.029678645 -0.0013532034 0.0008345711 -0.034723386
0.033815652 -0.056273352 -0.011756676 -0.0726989 -0.010235299 -0.04523746 0.040462185 0.032388885
-0.040706214 -0.05205701 0.005126689 0.04354551 -0.014273834 0.034816593 0.05011644 0.02686658
0.0022677265 -0.013990617 0.015865846 -0.009708208 -0.021136118 -0.01228598 0.05470651 0.050193097
0.025083879 -0.013556002 0.061114796 -0.05213824 0.023301916 -0.04207848 -0.009284385 0.04271571
0.01873919 -0.049768973 -0.03103532 0.07424344 -0.03339427 -0.012376677 -0.019419586 0.033902198
-0.0034888452 0.05783686 -0.061871447 0.013968693 0.012441431 0.0031842836 -0.04314997 0.053575426
0.003114001 -0.04000511 0.032882642 0.0063845892 -0.04115711 0.0016082858 -0.025626764 0.040553577
0.03510184 0.01640919 -0.029470826 0.016006686 -0.011801604 0.021316394 -0.03732166 -0.05718746
0.009927853 -0.06352275 -0.08010728 -0.0112407785 -0.052606925 -0.026817903 0.053592205 -0.025968472
-0.050170228 0.00802519 0.030305669 -0.017683363 0.0011081536 0.04014067 -0.017138865 -0.06492536
0.04555222 -0.07434305 -0.03314411 -0.07057654 0.048319835 -0.026451744 -0.003746285 -0.017805748
-0.0141559895 -0.080172084 0.012392786 0.03887193 0.01574156 0.007286595 0.01687515 0.03038029
0.07227231 -0.006458817 0.09289734 -0.001275088 -0.013469935 -0.059263457 0.0070496164 0.036509376
0.009707869 -0.011595769 0.050743468 -0.04657843 -0.055370737 0.01776173 0.014198491 0.07640375
0.028207678 -0.029005164 -0.011358373 0.01866117 0.044323176 0.028342871 -0.0050982 0.010925925
-0.046995357 -0.028649531 0.04631782 -0.015408527 -0.06933321 -0.03791352 0.034171082 -0.014059754
-0.044843614 -0.018107742 -0.063957915 0.06325321 -0.016359486 -0.027224863 -0.034508966 -0.032266386
-0.057073735 0.026303617 0.03315564 0.06383338 -0.019597389 0.0015933674 0.028994193 0.02321831
-0.058534052 -0.038628615 0.017424298 -0.07236309 0.0687617 -0.046791323 0.08461247 0.04040578
0.030525688 -0.014744761 -0.024327923 0.017877104 0.07507223 0.03974498 -0.020299058 0.05649935
-0.026450928 0.058907162 -0.02323807 0.026665028 -0.029398603 0.01566966 -0.0019072539 0.032844834
-0.060764607 -0.035219908 0.027879016 0.057691243 0.049393553 -0.008376165 -0.018421834 -0.01702725
0.038077008 -0.02704423 0.0009268851 0.07254031 -0.035863943 -0.021953335 -0.03419656 -0.05036836
-0.026094297 0.0544905 0.032582525 -0.006973999 0.016982563 0.03617733 0.024131684 -0.02613317
0.073683456 -0.031425584 0.03764009 -0.0419746 -0.021694332 0.04341363 6.930144e-05 -0.0703729
-0.03766526 0.013584325 -0.016965752 0.029714774 -0.0055457177 -0.07159695 0.059939675 -0.031756002
0.016314076 -0.05546563 -0.02708578 -0.055520616 -0.049444277 -0.022810725 0.0082512945 -0.024431352
0.023748744 0.03600807 0.021070711 0.051519174 0.021568742 0.05760337 0.022138996 0.0442811

encoder.critic_encoder.net.mlp.2.bias f4 [256]
00000000: fcc4 44bc 8b48 80bc a63e 443d e725 093d
00000010: 9eb8 c23c efa7 20bc 0d59 c2ba bcf0 f83c
00000020: c7f3 04ba 1aa3 693d 287e 8cbd 74b8 95bd
00000030: 467c 14bd b92a 1e3d b4c1 8d3d 0a18 9bbd
00000040: 743d 763d 1b1e 70bd 98a7 013c 3b22 8d3d
00000050: 3c2e 8cbd e86d 93bc a0cc 68bc d43c 21bd
00000060: c901 7b3d 7437 053d 4858 5dbd 25c7 89bc
00000070: fe32 a9bc 07e6 b63c 5f29 dbbc f098 393d
00000080: 5d3a 92bd 0f38 4fbc 1099 76bd 9641 1e3d
00000090: dcc7 18bc 4a64 8f3d 709d 083d 6b97 cebb
000000a0: c50a 61bd 349c cebc 3840 dabc 34ac c3bc
000000b0: b581 f5bb 158d fa3a a3a3 a73d 0f41 44bd
000000c0: 61ca 59bc 207a f03c da85 56bc 7570 92bd
000000d0: 0539 93bc 29ab f53b 1299 ba3a 1b2a fabb
000000e0: 1b48 27bd 253d 20bd ae65 4bbc 116f 203d
000000f0: a1f5 9b3b f865 aabc fd05 8a3d 0e9c aa3c
00000100: 675b 543d a15c 273b db86 2f3d fafb 833d
00000110: 20b9 b5bc 6f02 26bd d296 2c3b 46c3 71ba
00000120: bba8 56bd 6075 dcbb 1eb5 d3bc 4e5b 053d
00000130: f0ab 3dbc b1d5 e7bd 4b92 c53a 825e 103c
00000140: 614a 793c 029a dfbd d496 34bd 38f1 aa3c
00000150: 162e 9ebc 90ce 53bd 52e7 c5bb 8f5e 97bc
00000160: 99e9 75bd 597b cb3b 2efc c2bd 5180 e6bb
00000170: f111 5cbd 02db a4bc 4e76 173b 3252 0ebd
00000180: fd55 1dbc c8fe a13c a56f 57bd 23c7 41bb
00000190: 5c0f 623d 7005 b7bc 40e7 bfbc d3d0 2cbd
000001a0: 3005 bebd bdb6 073c eb5c 1f3d c0f4 923c
000001b0: ecc5 12bd 8bcb 483d 1871 673d 4723 9e3d
000001c0: 122c 953d cb18 12bc 4417 72bd 4f8e 27bc
000001d0: f3dc 653d 1d23 c73d b072 27bd f511 3f3b
000001e0: ca32 c1bd e652 3d3c f097 45bd 46d4 b33b
000001f0: 63b7 2fbb 5484 8c3c fc7a dd3c f630 e33b
00000200: 8fb5 703d 0546 0b3d 5caf 62bd 2fb9 b3bc
00000210: ce30 3cbd baa1 86bd ea73 32bd 6fc9 923c
00000220: 3377 11bc bb90 ffbc 3f3c 52bd b777 80bd
00000230: 8c0a 803d 36a6 173d a315 473d 9561 8d3d
00000240: 3a50 033c 4402 383d bc9a 573d 987c dc3c
00000250: d546 97bc e61a cb3b 0019 18bd cdec 39bd
00000260: 319d 9b3d f47d 1abd 6613 973d 7243 0d3b
00000270: 4077 e4bb a726 b93b 27ea 5a3c aa28 fc3c
00000280: 41df 903d ddd7 353d 6e46 73bc 9af0 62bd
00000290: 1cf0 993d 8d1b 79bd 7473 823d 3e15 54bc
000002a0: c3dc d83c c72a 363c 8454 16bd 4a8a 66bb
000002b0: cbfc bf3b 5e5f 7c3d 8e7e 1a3d 910c 96bd
000002c0: b6b5 323d d5a4 b73c 0ec9 8f3d f759 31bd
000002d0: 3687 853a 1577 fc3c 00b0 933d 222c 41bd
000002e0: eb63 443d dcfc 84bd de3f 4a3c fd84 99bc
000002f0: f130 5cbd 94fc fa3c e769 873d 2e6f 9a3a
00000300: bff2 343c 0c22 4d3d 3bf0 49bd db28 e03c
00000310: 4658 d53c 6e41 f8bc f6d2 cd3c 51e4 583c
00000320: 0677 aa3a 2025 16bc b59e 86bd fd84 7c3c
00000330: d3a5 98bd 2e31 2e3d 8848 afbc 152f cbbc
00000340: ce26 9d3c 96f1 a5bc c182 c33c b64b 2f3c
00000350: cd4a 40bd 18ea 5ebd 69cd d6bc 5869 d33c
00000360: 6b63 283d 1039 293d 95cb 63bd ca6c 823b
00000370: fb7f e6bc 2dcf 6f38 88aa 82bd 4b5e f3bc
00000380: c450 1bbd 2cb3 b3bc abc6 b5bc 04bb dcbc
00000390: 700e 083d 6f77 423d 9123 d9bc 1256 e5bc
000003a0: 0e82 883d 3569 8ebd 52d7 443d 914f 4b3d
000003b0: d821 d73c f8ad 50bd f260 ccbc b431 863b
000003c0: bbb5 1ebc 8f59 c33c 4418 0abd 06e7 a9bb
000003d0: b82c 053c 7243 653d 8ba0 df3c abda cabc
000003e0: 17a1 783d 335f a6bc 5c04 7ebd 980a 633d
000003f0: f750 44bc 582d b9bc 8c2f a7bc b6e2 0d3d
-0.012009855 -0.015659591 0.04791131 0.033483412 0.023769673 -0.0098056635 -0.0014827565 0.030388229
-0.0005071726 0.05704031 -0.0686 -0.07310572 -0.03625133 0.038614962 0.069217116 -0.075729445
0.0601172 -0.05862246 0.007913493 0.068912946 -0.06844756 -0.017996743 -0.014208943 -0.03936465
0.061281 0.032523587 -0.05403927 -0.016818592 -0.020654198 0.022326482 -0.026753126 0.04531187
-0.07140038 -0.012647643 -0.060204566 0.038636766 -0.009324994 0.070015505 0.03335327 -0.0063046715
-0.05494191 -0.025220968 -0.02664195 -0.023885824 -0.007492269 0.0019115532 0.08185508 -0.047913607
-0.01329288 0.029355109 -0.013093436 -0.07150356 -0.017971525 0.0074972105 0.0014236292 -0.007634414
-0.04084025 -0.039120812 -0.012414379 0.03916842 0.004759506 -0.020800576 0.067394234 0.020826366
0.05184498 0.002553739 0.042853218 0.06444545 -0.022183001 -0.040529665 0.0026335013 -0.00092225184
-0.052407008 -0.0067278594 -0.0258432 0.032557778 -0.011576638 -0.11320055 0.0015073506 0.008811595
0.015215487 -0.109180465 -0.044089153 0.020866975 -0.019309085 -0.051710665 -0.0060395384 -0.018477706
-0.06003723 0.0062097725 -0.09520756 -0.0070343395 -0.053728048 -0.020123962 0.0023111287 -0.034746356
-0.009603021 0.01977481 -0.052596707 -0.0029568158 0.05519043 -0.02234146 -0.023425698 -0.042191338
-0.09278333 0.008283314 0.038906973 0.017938972 -0.035833284 0.04902224 0.05650434 0.07721572
0.07283796 -0.008917044 -0.05910422 -0.0102268 0.056118917 0.09723494 -0.04088086 0.002915499
-0.09433515 0.011555409 -0.048240602 0.0054879515 -0.0026812188 0.017152943 0.027036183 0.006933327
0.058766898 0.034002323 -0.055343017 -0.021938888 -0.04594498 -0.06573816 -0.043567576 0.017918317
-0.008878517 -0.031196943 -0.051326986 -0.06272834 0.06252012 0.037023745 0.04860462 0.06903378
0.008014733 0.044924036 0.0526378 0.02691488 -0.018466393 0.006198275 -0.037133217 -0.045391846
0.07598341 -0.037717775 0.07376747 0.0021555093 -0.0069722235 0.0056503597 0.01336149 0.030781109
0.07073832 0.044395316 -0.014848335 -0.055405237 0.075165 -0.06081729 0.06369677 -0.012944518
0.026472455 0.011118597 -0.036701694 -0.0035177642 0.0058589927 0.061614387 0.03771835 -0.073266156
0.043630324 0.022417465 0.0702077 -0.043298688 0.0010187391 0.030818501 0.07211304 -0.04716123
0.04794685 -0.064935416 0.012344329 -0.018740172 -0.05375761 0.030638017 0.06611996 0.0011782402
0.011044203 0.050081298 -0.049301367 0.027363231 0.026043069 -0.030304637 0.025125008 0.013238029
0.0013005442 -0.009164125 -0.0657324 0.015412566 -0.074535035 0.04252737 -0.02139689 -0.024802724
0.019183543 -0.020256799 0.02386606 0.010699203 -0.046946336 -0.054422468 -0.026220994 0.025807068
0.041110437 0.041314185 -0.055614073 0.003980254 -0.028137198 5.7174988e-05 -0.063801825 -0.029708048
-0.03791882 -0.021936022 -0.022189459 -0.026944645 0.033216894 0.047477182 -0.026506217 -0.027995143
0.06665431 -0.069536604 0.048056908 0.049636427 0.026261255 -0.05094716 -0.02494857 0.0040952805
-0.009686883 0.023846416 -0.033714548 -0.005185011 0.008128338 0.055972524 0.027298233 -0.024762472
0.060700502 -0.020309066 -0.062015876 0.055430025 -0.011982194 -0.02260463 -0.020408414 0.034640037
