trained_policies/learner/module_state/cop_policy/module_state_dir/module_state.pt (torch, 553090 bytes, 11 tensors)

encoder.actor_encoder.net.mlp.0.weight f4 [256, 7]
0	0xbe49f3fe	-0.19721982
1	0x3d93a0fe	0.07208441
2	0x3e5305e8	0.20607722
3	0xbe814412	-0.25247246
4	0x3dd9e0bf	0.1063857
5	0xbec08944	-0.37604725
6	0xbda5f540	-0.08103418
7	0x3e81f263	0.2538024
8	0x3dd14cfb	0.10219761
9	0xbdef46c2	-0.11683418
10	0xbe294333	-0.1652954
11	0x3e255d72	0.16148928
12	0xbeae31a7	-0.34022257
13	0x3d92c156	0.07165782
14	0x3ead98b0	0.33905554
15	0x3e8ccb48	0.2749884
16	0x3ea0bc2d	0.31393567
17	0x3e8a8f5a	0.27062494
18	0xbd96a5a1	-0.0735581
19	0x3e086c52	0.13322571
20	0xbcb5ad46	-0.02217735
21	0xbd71aa9a	-0.05900059
22	0xbeb30826	-0.34967154
23	0xbdf93801	-0.12168885
24	0x3dc456d3	0.09586873
25	0x3cc68789	0.02423455
26	0x3e946030	0.28979635
27	0xbd431098	-0.047623247
28	0x3e7e9af2	0.24863794
29	0xbe8a60cb	-0.27026972
30	0xbe08b089	-0.13348593
31	0x3eb54cf6	0.3541028
32	0x3e9d0c05	0.30673233
33	0x3e44b541	0.19209768
34	0x3d995afa	0.074880555
35	0x3e7cff6d	0.24706812
36	0xbe8db686	-0.27678317
37	0xbe5def71	-0.21673371
38	0x3e26cc53	0.16288881
39	0x3e4aa13a	0.19788066
40	0x3e20bd19	0.15697135
41	0x3e19cd60	0.1501975
42	0x3de105c4	0.10987428
43	0x3e2d14d9	0.16902484
44	0x3e70a88e	0.23501799
45	0xbcbc490d	-0.022984052
46	0x3e7cfdf4	0.2470625
47	0xbead5e95	-0.33861223
48	0x3c6af54b	0.014340709
49	0x3d4ddaf9	0.050257657
50	0x3e7635aa	0.24043909
51	0xbead245f	-0.3381681
52	0xbe2b24ea	-0.167133
53	0xbd4033bb	-0.046924334
54	0x3e8c8389	0.27444103
55	0xbdf437e6	-0.11924724
56	0xbdef2a0d	-0.116779424
57	0x3ca72141	0.020401599
58	0xbd8ff118	-0.07028407
59	0xbd5c9683	-0.053854477
60	0x3e7a2f41	0.24432088
61	0x3e1b1b99	0.15147246
62	0x3e863fc6	0.2622053
63	0x3d01c484	0.031681553
64	0xbe826732	-0.25469357
65	0xbe745d77	-0.23863779
66	0xbd0613f9	-0.03273389
67	0xbe96d94e	-0.29462665
68	0x3e90edc7	0.2830641
69	0xbd6e2b39	-0.05814669
70	0xbdd37310	-0.10324681
71	0x3dd5af6e	0.10433851
72	0xbdaf78c8	-0.08567959
73	0xbe62c636	-0.22145924
74	0xbdcf403a	-0.10119672
75	0x3e6c97ad	0.23104735
76	0xbeabcfe1	-0.33557037
77	0x3df2a972	0.118487254
78	0xbdf9b5b1	-0.12192858
79	0x3d3fd209	0.046831165
80	0x3eae4a14	0.34040892
81	0x3e9b1479	0.30289057
82	0x3e9abcad	0.30222073
83	0x3d585f42	0.05282522
84	0xbde85aac	-0.11345419
85	0xbec247cc	-0.37945402
86	0xbe9d5071	-0.30725434
87	0xbe89e37b	-0.26931366
88	0x3eaf25ac	0.3420843
89	0x3e94bc4c	0.2904991
90	0x3dafdfb7	0.08587592
91	0x3e299112	0.16559246
92	0x3dfca27a	0.123356774
93	0x3bd99007	0.006639484
94	0xbdd22f3b	-0.10262915
95	0x3e93225d	0.28737155
96	0x3dae9eec	0.08526406
97	0xbeb244d3	-0.34818134
98	0x3e65ef5c	0.2245459
99	0xbdaa141f	-0.08304619
100	0xbd120617	-0.03565034
101	0x3e0ef064	0.13958889
102	0xbec720e3	-0.38892278
103	0xbea18540	-0.31546974
104	0xbe22ca85	-0.15897568
105	0x3e683bbe	0.2267904
106	0xbe93cbac	-0.28866327
107	0xbe27ac65	-0.16374357
108	0x3e56fd92	0.20995167
109	0x3d902aeb	0.07039436
110	0x3e5e3f2a	0.21703783
111	0x3e19ce21	0.15020038
112	0x3e8ce339	0.27517107
113	0xbe1da3a6	-0.15394458
114	0x3d9c88d0	0.076432824
115	0x3e038533	0.1284378
116	0x3ebcf71b	0.36907277
117	0x3dd7ad88	0.10531145
118	0xbd6f5dcd	-0.058439065
119	0x3eb312ef	0.34975383
120	0xbddeddb1	-0.10882128
121	0x3e95762b	0.29191718
122	0xbe75644e	-0.23964044
123	0xbe46cf95	-0.19415124
124	0xbeb1f837	-0.34759685
125	0xbdaed8ab	-0.0853742
126	0xbe874cb7	-0.26425716
127	0xbe347837	-0.17623983
128	0xbeafc947	-0.3433325
129	0xbeb71c8b	-0.35763964
130	0x3eaf6769	0.34258583
131	0x3e2f88ad	0.17141981
132	0xbd467ea9	-0.048460636
133	0x3e3a6bf0	0.18205237
134	0x3e8bba93	0.27290782
135	0xbdf12d9c	-0.117762774
136	0x3d6b23cb	0.05740718
137	0x3ea4cef5	0.32189146
138	0x3e0ed0fd	0.1394691
139	0x3e0b58da	0.13608113
140	0xbdc146a8	-0.09437305
141	0x3e00024e	0.12500879
142	0x3e94ddfa	0.29075605
143	0xbd9a7f73	-0.0754384
144	0xbeb36204	-0.35035717
145	0xbe66e895	-0.2254966
146	0x3e8b1a42	0.2716847
147	0xbeb584b0	-0.35452795
148	0x3e85a9e4	0.2610618
149	0xbd349b9a	-0.044093706
150	0xbd44d643	-0.0480559
151	0xbd28c765	-0.041205782
152	0x3e437a8e	0.1908972
153	0x3d0c6836	0.03427907
154	0xbdfddb10	-0.123952985
155	0xbd82cabb	-0.06386324
156	0xbe70872e	-0.23489067
157	0xbeb6466b	-0.356006
158	0x3cc7aba7	0.024373842
159	0x3e690076	0.22754082
160	0xbe8c1c26	-0.27365226
161	0x3d30c5b0	0.04315728
162	0x3e9cfe73	0.3066288
163	0xbea2cfef	-0.31799266
164	0x3e996cf9	0.29965952
165	0x3ea136d6	0.3148715
166	0xbd847663	-0.06467893
167	0x3df362e7	0.118840985
168	0x3dd9bdbc	0.10631892
169	0xbe504fc3	-0.20342927
170	0x3e78aba2	0.24284223
171	0x3e74b5f9	0.23897542
172	0x3e7f18c1	0.24911787
173	0x3eb0d027	0.34533808
174	0xbdea0f1c	-0.11428663
175	0x3ebbf540	0.36710548
176	0xbea9759e	-0.33097547
177	0x3eac25f3	0.33622703
178	0x3ea76d25	0.32700458
179	0xbd405277	-0.046953645
180	0x3e66a7f5	0.22525008
181	0x3e4bfc77	0.19920526
182	0xbe934849	-0.28766087
183	0xbe1e863d	-0.15480895
184	0xbe28362f	-0.1642692
185	0xbebe6e0f	-0.37193343
186	0x3e0ed24f	0.13947414
187	0x3e1d4d73	0.15361576
188	0x3df80c61	0.12111736
189	0xbe60f5ef	-0.21968816
190	0xbd35f9a0	-0.044427514
191	0xbe6ee347	-0.23328887
192	0xbd8c2ffe	-0.06845091
193	0xbe8c9fea	-0.27465755
194	0x3eaf4749	0.34234074
195	0x3e44ab8a	0.19206062
196	0xbd4de4e5	-0.05026712
197	0x3eaa90e4	0.33313668
198	0x3d4bab42	0.04972387
199	0xbe60b9da	-0.21945897
200	0x3e95567e	0.2916755
201	0xbeacd34b	-0.33754954
202	0x3e9d25c7	0.30692884
203	0xbeba36f7	-0.3637006
204	0x3e5063e9	0.20350613
205	0xbdfb64d4	-0.12275091
206	0xbec7c735	-0.3901917
207	0x3d453887	0.04814961
208	0xbe2291dd	-0.15875955
209	0x3ea8abdf	0.32943627
210	0x3d1db642	0.038503893
211	0x3e322449	0.17396654
212	0x3e5315c4	0.20613772
213	0xbeb4265e	-0.35185522
214	0x3eb4d72f	0.35320422
215	0xbe10ba3b	-0.14133541
216	0xbe4776b1	-0.19478871
217	0x3e5a9472	0.2134569
218	0x3eb36e43	0.3504506
219	0x3ab896d7	0.001408304
220	0x3d4ee290	0.050509036
221	0x3e266655	0.16249974
222	0xbcf77729	-0.030208187
223	0x3e57deb6	0.21081051
224	0x3da451f5	0.080234446
225	0xbc8f5419	-0.017496156
226	0x3e1d93f5	0.15388472
227	0x3d6a30da	0.057175495
228	0x3db3844b	0.08765467
229	0x3e1c282a	0.15249696
230	0xbe92582b	-0.28582892
231	0xbeab1ebc	-0.33421886
232	0xbcf88fa2	-0.030341927
233	0x3d4d07c2	0.050056227
234	0xbe87a4ef	-0.26493022
235	0x3d397a4a	0.04528264
236	0xbe8d4d56	-0.27598065
237	0xbd235e0a	-0.039884605
238	0x3e7f9da9	0.24962486
239	0x3deff98d	0.1171752
240	0x3e17a198	0.14807737
241	0x3d42133e	0.047381632
242	0xbe883da9	-0.26609543
243	0x3e1365e2	0.14394334
244	0xbdf9ff59	-0.12206907
245	0x3d3150ca	0.043289937
246	0x3e16a579	0.1471156
247	0xbdf40619	-0.119152255
248	0xbdfeee19	-0.12447757
249	0x3e08e459	0.13368358
250	0x3e826e7e	0.25474924
251	0xbd680990	-0.056649745
252	0xbe813336	-0.25234383
253	0xbdbd829b	-0.09253427
254	0x3e9645a6	0.29350013
255	0xbe7a36ec	-0.24435014

encoder.actor_encoder.net.mlp.0.bias f4 [256]
0	0x3dd46161	0.10370136
1	0x3e823681	0.25432208
2	0xbe3adabf	-0.18247508
3	0x3d485e21	0.048917893
4	0x3dbcd1d7	0.09219711
5	0x3eb7b09d	0.35876933
6	0x3d587a97	0.052851286
7	0x3ea7857b	0.32719025
8	0xbd84c539	-0.0648293
9	0xbdad9d3c	-0.08477256
10	0xbdc19723	-0.09452655
11	0x3e62a7fb	0.22134392
12	0xbe6884e8	-0.2270695
13	0xbca71a08	-0.020398155
14	0x3eabc6b8	0.33550048
15	0xbe864541	-0.26224712
16	0x3ebf5b9b	0.37374577
17	0xbe305a4d	-0.17221947
18	0xbea74e73	-0.3267704
19	0x3e8320e8	0.25611043
20	0x3de3306d	0.11093221
21	0x3e6013f3	0.2188261
22	0xbe1c0fda	-0.15240422
23	0x3baf9e5a	0.005359453
24	0xbe81b3ed	-0.25332585
25	0x3eac4847	0.33648893
26	0x3d877795	0.06614605
27	0x3e773d6d	0.24144526
28	0xbe01772d	-0.12643118
29	0xbeabef10	-0.33580828
30	0xbe3c6fb0	-0.1840198
31	0xbe9ff81f	-0.3124399
32	0x3e635cf0	0.22203422
33	0xbe7f058f	-0.24904464
34	0x3ea5b020	0.32360935
35	0xbe0a55b6	-0.13509259
36	0x3e364c9e	0.17802665
37	0x3e0455fa	0.12923422
38	0x3cdab716	0.02669863
39	0x3e26426b	0.16236274
40	0xbe2807f2	-0.16409281
41	0x3e48c12a	0.19604936
42	0x3e465fee	0.19372532
43	0x3e0b5fe8	0.13610804
44	0x3d27d180	0.04097128
45	0xbe401cf2	-0.18761042
46	0x3e1808c7	0.14847098
47	0x3d84d011	0.06484998
48	0xbd511522	-0.051045544
49	0x3db77034	0.08956948
50	0x3e8a018d	0.26954308
51	0x3e367614	0.1781848
52	0xbdc38b05	-0.09548
53	0x3d036838	0.032081813
54	0xbe7e9f5b	-0.24865477
55	0x3e044f4f	0.12920879
56	0xbe214ac9	-0.15751185
57	0x3ec2abe5	0.3802177
58	0x3e1d85dc	0.15383095
59	0x3ebd0a2f	0.36921832
60	0xbe56da53	-0.20981722
61	0xbec45fac	-0.38354242
62	0xbeb7c10b	-0.35889468
63	0x3e1ff4d1	0.15620734
64	0xbe1b06f1	-0.15139367
65	0x3e973ff2	0.29540974
66	0x3e243a7a	0.16037932
67	0xbe749837	-0.2388619
68	0x3bab20e0	0.005222425
69	0x3c86b9f3	0.01644609
70	0xbe516c75	-0.2045153
71	0x3e93bba0	0.28854084
72	0xbeb5b04b	-0.35486063
73	0x3e5ebcf1	0.21751763
74	0xbc07a475	-0.008278956
75	0x3c9a5893	0.018841064
76	0x3e70d409	0.23518385
77	0x3de8b019	0.11361713
78	0x3d97c4df	0.07410597
79	0xbd404f67	-0.046950724
80	0xbe40ffbb	-0.18847553
81	0xbe8622eb	-0.26198515
82	0xbc946a0b	-0.018116971
83	0xbd3f95d7	-0.046773758
84	0xbe9c414a	-0.30518562
85	0xbe936500	-0.28787994
86	0xbe85232a	-0.2600339
87	0x3d049621	0.032369737
88	0x3e35ba20	0.17746782
89	0x3ebb4841	0.36578563
90	0xbc9418e3	-0.018078273
91	0xbd47d9bc	-0.048791632
92	0xbeae47c9	-0.34039143
93	0x3eb5537d	0.3541526
94	0xbe48c262	-0.19605401
95	0xbdbc12f5	-0.09183303
96	0x3dbb497b	0.09144875
97	0x3e0aeaee	0.13566181
98	0x3e0ed23c	0.13947386
99	0xbe262b42	-0.16227439
100	0xbe9fca80	-0.31209183
101	0xbe797bea	-0.24363676
102	0xbd92bc62	-0.071648374
103	0x3e8d9138	0.27649856
104	0xbe89cf9a	-0.269162
105	0xbdece003	-0.11566164
106	0xbe86c911	-0.26325276
107	0xbdc8a9af	-0.097979896
108	0x3e6e880b	0.23294084
109	0x3ea7ee39	0.32798937
110	0x3d33c2fd	0.043887127
111	0x3d41c007	0.047302272
112	0x3e4f8767	0.20266496
113	0xbe96d45d	-0.29458895
114	0x3ec0d533	0.37662658
115	0x3e1660dc	0.14685386
116	0x3ea00f71	0.3126178
117	0x3e6ec1a8	0.23316061
118	0xbeaa975e	-0.3331861
119	0x3dd48f0e	0.10378848
120	0x3ddfece3	0.109338544
121	0xbe38da64	-0.1805206
122	0x3dcc98c1	0.09990073
123	0xbe87361d	-0.26408473
124	0xbe84ea05	-0.25959793
125	0xbe71ce0d	-0.23613758
126	0x3d83eb95	0.06441418
127	0xbdca03d4	-0.098640114
128	0x3e71cd66	0.2361351
129	0xbebc1bbf	-0.3673992
130	0xbe26653a	-0.16249552
131	0x3e9f2e46	0.3108999
132	0xbe81d09e	-0.25354475
133	0x3eb50171	0.35352662
134	0xbca29d2d	-0.019850338
135	0x3dcb7f8a	0.099364355
136	0xbebc0bcd	-0.36727753
137	0xbd364ddf	-0.044507857
138	0x3e67156d	0.22566767
139	0x3e34f9e9	0.17673458
140	0x3eadaefe	0.3392257
141	0x3df4422c	0.11926684
142	0xbea6baec	-0.32564485
143	0xbeb63c2a	-0.35592777
144	0x3ea8333c	0.3285159
145	0xbe9db260	-0.30800152
146	0xbe0625b2	-0.13100317
147	0x3d901c35	0.0703663
148	0x3ce9048f	0.028444557
149	0xbeaa48ae	-0.33258575
150	0xbe3c4ced	-0.1838872
151	0xbeb8a20b	-0.3606113
152	0x3e84fdbe	0.2597484
153	0xbdef337e	-0.11679743
154	0xbe97f1d1	-0.2967668
155	0xbe07b58a	-0.13252845
156	0x3e2e1e8b	0.17003839
157	0xbe11bd81	-0.14232446
158	0x3dfc5e33	0.123226546
159	0x3dcd88a5	0.100358285
160	0xbeb4e3a8	-0.35329938
161	0x3d4028f9	0.046914075
162	0x3e3c5fdd	0.18395944
163	0x3eb22405	0.34793106
164	0xbe13f05c	-0.14447159
165	0xbe427473	-0.18989734
166	0x3e1ed6ab	0.15511577
167	0xbda22798	-0.07917708
168	0x3e4961e5	0.1966625
169	0xbdb4e2f2	-0.08832349
170	0x3da46281	0.08026601
171	0x3eba4afd	0.36385337
172	0x3ec62e38	0.38707137
173	0xbdb1312f	-0.08651959
174	0xbe8c4586	-0.27396792
175	0x3d5b451e	0.053532712
176	0xbdbf5194	-0.09341732
177	0xbe7793df	-0.24177502
178	0x3e92393e	0.28559297
179	0xbddb6e8a	-0.10714443
180	0x3d6e285c	0.05814396
181	0x3d1a0ff1	0.03761286
182	0xbd9a5806	-0.075363204
183	0xbe59ef8a	-0.21282783
184	0xbeb6cd3c	-0.35703456
185	0x3dae0247	0.08496528
186	0xbe22c62a	-0.15895906
187	0x3d075f5f	0.033049937
188	0x3d7338ce	0.059380345
189	0x3e9bc890	0.30426455
190	0x3ea0697d	0.3133048
191	0x3e4e7bf1	0.20164467
192	0x3d95e6a0	0.07319379
193	0x3dafdbcc	0.08586845
194	0xbea5969a	-0.32341462
195	0x3e02d73e	0.12777421
196	0x3e500636	0.2031487
197	0x3e9314da	0.28726846
198	0xbe0710bf	-0.13189982
199	0xbd6df821	-0.058097962
200	0xbeaf4aee	-0.34236854
201	0xbe6fac37	-0.23405538
202	0x3e2128bd	0.15738197
203	0xbeb60fb1	-0.35558847
204	0x3e2809ef	0.1641004
205	0x3d4d206e	0.050079755
206	0xbdf8b4a9	-0.12143833
207	0x3e802219	0.25026014
208	0xbcf193cf	-0.029489426
209	0xbde9124e	-0.113804445
210	0x3e5df4bc	0.2167539
211	0x3e9e4d39	0.3091829
212	0x3cf5a5a7	0.029986216
213	0x3e62b849	0.22140612
214	0x3dcd6075	0.10028163
215	0xbebcd8e0	-0.36884212
216	0x3e78c429	0.24293579
217	0xbd569577	-0.052388635
218	0xbe3a0211	-0.18164851
219	0x3ea478a0	0.3212328
220	0x3e8daab2	0.27669293
221	0xbea8574d	-0.32879105
222	0x3eb4d095	0.35315385
223	0x3e7892df	0.24274777
224	0xbec523b4	-0.38503802
225	0x3d645cb4	0.05575247
226	0xbd111bb9	-0.03542683
227	0x3bdbf083	0.006712021
228	0x3d17ef68	0.03709355
229	0x3d9ff129	0.078096695
230	0xbe9254d4	-0.28580344
231	0xbe2c6a9d	-0.16837545
232	0x3dd3aced	0.10335717
233	0x3cede6a9	0.029040651
234	0xbde81016	-0.11331193
235	0x3e9ff5ec	0.3124231
236	0xbe81461c	-0.25248802
237	0x3dd7d5dc	0.10538837
238	0x3e89c008	0.2690432
239	0x3e209e4e	0.15685388
240	0xbeae2abd	-0.34016982
241	0x3e2bfab6	0.16794857
242	0xbe8abf75	-0.27099195
243	0xbd6f4096	-0.058411203
244	0x3e421773	0.18954258
245	0x3c319b3f	0.010840236
246	0xbc87c9e7	-0.016575767
247	0xbe038d08	-0.12846768
248	0x3eb6f51f	0.35733888
249	0x3e6017e8	0.2188412
250	0xbe93c616	-0.28862065
251	0xbe1e62ac	-0.15467328
252	0x3e8594e9	0.26090172
253	0xbe4b371c	-0.19845241
254	0x3e957f70	0.2919879
255	0xbe732b58	-0.23747003

encoder.actor_encoder.net.mlp.2.weight f4 [256, 256]
0	0xbc523bb3	-0.012831616
1	0xbcda11f3	-0.026619887
2	0xbc51d171	-0.012806282
3	0x3d1eb1df	0.03874385
4	0x3c5294c9	0.012852856
5	0x3d109998	0.03530273
6	0x3ba125b6	0.0049178256
7	0xbcadd875	-0.021221379
8	0x3c562729	0.01307086
9	0xbd542386	-0.05179169
10	0xbd2a3545	-0.041554708
11	0x3d103c16	0.035213552
12	0xbc1f581a	-0.009725595
13	0x3cd514d4	0.026010908
14	0xbbf3456c	-0.007424047
15	0xbbdfb842	-0.006827385
16	0xbd0c7d35	-0.034299094
17	0xbca38f87	-0.0199659
18	0xba78038c	-0.0009460978
19	0xbcf07142	-0.02935088
20	0xbcc54ef8	-0.024085507
21	0xbcaecf28	-0.021339014
22	0xbd068791	-0.03284413
23	0x3d6805c4	0.056646124
24	0x3ccc9ef2	0.024978135
25	0xbbe8f0a2	-0.007108764
26	0x3b472eae	0.0030392813
27	0x3d5f2432	0.054477878
28	0xbc829c45	-0.015943656
29	0xbd63c960	-0.055611968
30	0x3c2a6182	0.010399224
31	0x39df11a0	0.00042547006
32	0x3d82a93b	0.063799344
33	0x3c6b6f51	0.014369802
34	0x3d4d4b87	0.050120857
35	0xbc8a1cb3	-0.016859388
36	0x3d471938	0.048608035
37	0xbc703168	-0.014660217
38	0xbd481b7b	-0.048854332
39	0x3d59712a	0.053086437
40	0xbbed9e85	-0.007251563
41	0xbcba23fe	-0.02272224
42	0xbd4411b9	-0.047868464
43	0x3cb7da64	0.022443004
44	0x3d10f68e	0.035391383
45	0x3d215281	0.039385322
46	0x3d4b71e4	0.04966916
47	0x3c25da88	0.010122903
48	0xbbf7c0ee	-0.007560841
49	0xbd706d0f	-0.058697756
50	0x3c06b6b1	0.008222268
51	0xbc633172	-0.013866769
52	0xbc976353	-0.018479979
53	0xbd32c347	-0.043643262
54	0xb99c2565	-0.000297825
55	0x3bbe5754	0.00580875
56	0x3c30bbcb	0.010786961
57	0x3caa3e9b	0.020781806
58	0xbd4c4261	-0.04986799
59	0x3b9ec1d6	0.0048448844
60	0xbd910d32	-0.07082595
61	0x3ab5411f	0.0013828612
62	0xbd846294	-0.06464115
63	0x3c8bf4c5	0.017084489
64	0xbd24f927	-0.040276673
65	0x3d46b459	0.048511837
66	0xbd4df324	-0.050280705
67	0xbc7552c9	-0.014973351
68	0x3ce79e20	0.028273642
69	0x3c924a81	0.017857792
70	0x3c177287	0.009243614
71	0x3c35a20a	0.011085996
72	0x3d5996d1	0.053122345
73	0x3d2224d3	0.0395859
74	0xbbc01134	-0.005861426
75	0x3c880549	0.016604083
76	0xbc6c7ed1	-0.014434532
77	0xbd614b16	-0.05500325
78	0x3d239f30	0.039946735
79	0xbc931611	-0.017954858
80	0xbd607cf4	-0.054806665
81	0x3caf26d2	0.021380816
82	0xbd7339a8	-0.059381157
83	0xbd67f089	-0.056625877
84	0xbd42b70e	-0.047537856
85	0xbbb1cd7d	-0.0054261074
86	0x3c169628	0.0091910735
87	0x3d818c73	0.06325617
88	0xbd2ffcff	-0.042965885
89	0xbd27100f	-0.0407868
90	0xbcae912a	-0.021309454
91	0xbd680906	-0.05664923
92	0x3d127937	0.03576013
93	0x3d028117	0.03186139
94	0x3d70ec9d	0.058819402
95	0xbcf82a60	-0.030293643
96	0xbd13eb2f	-0.03611296
97	0xbd1ddd10	-0.0385409
98	0x3d0d0e11	0.034437243
99	0x3d6c71e3	0.0577258
100	0xbd8976cb	-0.06712111
101	0x3c17cf17	0.009265683
102	0x3bbaadfb	0.0056970096
103	0x3cec2d7b	0.02883028
104	0xbb35e6a7	-0.0027755888
105	0xbc5c5197	-0.013447187
106	0x3d51466c	0.05109255
107	0xbc91715b	-0.017754247
108	0x3cca5adf	0.024701534
109	0xbd184a81	-0.037180427
110	0x3d228b72	0.039683767
111	0x3b8f3371	0.004370146
112	0x3c663441	0.014050544
113	0xbc95b472	-0.01827452
114	0x3d952a63	0.07283475
115	0x3d6de1eb	0.05807678
116	0x3cb3bda6	0.021941017
117	0x3d533cb7	0.051571574
118	0x3d31df6d	0.043425966
119	0xbd3fe35f	-0.046847697
120	0x3d6b5f8e	0.057464175
121	0x37034732	7.824785e-06
122	0x3d5f5782	0.054526813
123	0xbc68795d	-0.0141890915
124	0x3cadf4e6	0.02123494
125	0xbce6d9eb	-0.028180083
126	0xbccfdcee	-0.025373902
127	0x3d391d12	0.04519374
128	0xbd3804a6	-0.044926308
129	0x3d75733f	0.05992436
130	0xbd0dc6ff	-0.034613606
131	0xbbc3b4c8	-0.0059724785
132	0xbc2ae1d9	-0.010429823
133	0xbd14be51	-0.036314312
134	0x3d631e49	0.055448804
135	0xbd243115	-0.04008587
136	0x3cbcf516	0.023066085
137	0x3d1aa082	0.03775073
138	0xbbd5d1a4	-0.0065252353
139	0xbd6affe8	-0.057372957
140	0x3ceb5d29	0.028730946
141	0x3d2f7f1f	0.04284584
142	0xbcb039a5	-0.021511862
143	0x3cda9ce3	0.026686138
144	0xbccb5597	-0.024821086
145	0x3d2f137b	0.042743187
146	0xbd2ee92b	-0.042702835
147	0x3c98d699	0.018657016
148	0xbd26431a	-0.040591337
149	0xbc8aa803	-0.016925817
150	0xbcc30627	-0.023806645
151	0x3c029701	0.007970572
152	0xbd4499cc	-0.047998235
153	0x3cf9e722	0.03050572
154	0xbd45363d	-0.04814743
155	0xbbe6dcea	-0.007045378
156	0x3d06eb11	0.03293902
157	0xbb468bb8	-0.0030295681
158	0x3caf2a2b	0.021382412
159	0x3ca10248	0.019654408
160	0xbd4e4d47	-0.050366666
161	0xbbb09771	-0.005389147
162	0xbd4a50b2	-0.049393363
163	0x3d16128d	0.036638785
164	0x3cf00173	0.029297566
165	0xbd1722e1	-0.036898497
166	0xbd5df17f	-0.054185387
167	0xbcb16e8a	-0.021659154
168	0xbcd74ad3	-0.026280796
169	0x3d67c87e	0.05658769
170	0x3d3d9db3	0.04629297
171	0xbd22d9eb	-0.039758604
172	0xbd21098f	-0.039315756
173	0xbba5f545	-0.005064639
174	0xbc81896f	-0.015812604
175	0xbcc06785	-0.023486862
176	0x3cdc9ee2	0.02693123
177	0x3d2d5407	0.042316463
178	0xbd55a198	-0.05215606
179	0x3a44d790	0.0007508928
180	0x3d0d58d3	0.034508538
181	0x3d18abff	0.037273403
182	0xbc771f37	-0.015083126
183	0xbd5d8849	-0.05408505
184	0xbd1c7d36	-0.038205348
185	0xbc085223	-0.008320364
186	0x3d1db387	0.03850129
187	0xbca6304c	-0.020286702
188	0x3d842a86	0.06453423
189	0xbd43895e	-0.047738425
190	0xbcbb6fe1	-0.022880496
191	0xbd32ab61	-0.04362047
192	0x3d5528f0	0.052040994
193	0x3c9d8f6a	0.019233424
194	0x3c33b40b	0.010968219
195	0xbcee4667	-0.029086305
196	0xbc7e7039	-0.015529686
197	0xbcb7752d	-0.022394741
198	0x3d02ce0e	0.03193479
199	0xbd03c045	-0.032165784
200	0xbd26c3ea	-0.040714182
201	0xbcaadda4	-0.02085764
202	0xbd4c38cb	-0.04985885
203	0x3d4b9d7c	0.049710736
204	0x3c83a26a	0.016068656
205	0xbc4d288f	-0.012521877
206	0xbd614eb8	-0.055006713
207	0xbb3f7c3c	-0.0029218337
208	0x3d27fb95	0.04101141
209	0xbd0dbcd9	-0.034603927
210	0xbd5f939e	-0.054584138
211	0x3d45b109	0.048264537
212	0x3d300f60	0.042983413
213	0x3d7ec329	0.062197838
214	0xbc6b8e21	-0.014377148
215	0x3d90694c	0.07051334
216	0xbaab1b0c	-0.0013054325
217	0x3cc8b574	0.024500586
218	0xbd51af10	-0.051192343
219	0xbd43386b	-0.047661226
220	0x3cd5b6d4	0.026088156
221	0xbb07558b	-0.0020650353
222	0x3d2a1803	0.041526806
223	0xbd6b65ae	-0.057470016
224	0x3cfc8cda	0.030828882
225	0xbd6d4b36	-0.057933055
226	0xbc48fefd	-0.012267825
227	0x3a8c96a4	0.0010726047
228	0xbd004b4e	-0.031321816
229	0xbc083ebb	-0.008315737
230	0xbd196cb0	-0.037457168
231	0x3d0d4a93	0.034494948
232	0xbd4e3667	-0.05034485
233	0xbca8aa54	-0.020589031
234	0xbd0cc735	-0.034369666
235	0x3d0f15a7	0.03493276
236	0xba874ca1	-0.001032252
237	0xbb62d61e	-0.0034612487
238	0xbd3fe3db	-0.04684816
239	0xbd1a3ae4	-0.03765382
240	0x3ca69241	0.020333411
241	0x3d818776	0.06324665
242	0x3d3d24ca	0.046177663
243	0x3c53005e	0.0128785055
244	0xbcaeb8ff	-0.021328447
245	0xbbdca7aa	-0.0067338543
246	0xbc99bf06	-0.018767845
247	0xbd8123e5	-0.063056745
248	0xbcf96d49	-0.030447619
249	0xbd22bde3	-0.03973187
250	0x3d5abe8a	0.05340437
251	0x3d12d522	0.03584779
252	0x3d41c453	0.04730637
253	0xbcf562c0	-0.029954314
254	0xba0df965	-0.0005415886
255	0x3caa9fe6	0.020828199

encoder.actor_encoder.net.mlp.2.bias f4 [256]
0	0x3b33e2b7	0.0027448365
1	0xbcfd72b9	-0.030938493
2	0xbccbfe0e	-0.024901416
3	0x3bb325af	0.0054671387
4	0xbcc81109	-0.024422185
5	0x3c573d09	0.0131371105
6	0xbd2356dc	-0.039877757
7	0x3cc7ad03	0.02437449
8	0x3c567438	0.013089232
9	0x3abdd913	0.0014484249
10	0xbac053d2	-0.0014673418
11	0x3d862416	0.065498516
12	0x3c82e6a5	0.01597912
13	0x3d0619c0	0.0327394
14	0xbb9b933d	-0.004747777
15	0xbd80d35d	-0.06290314
16	0xbd33d89d	-0.04390775
17	0x3d18f9f2	0.03734774
18	0xbbb7e5e4	-0.005612122
19	0xbcfb9a1f	-0.03071314
20	0xbcb71a31	-0.022351356
21	0x3c5466f7	0.012964002
22	0x3d30a6cb	0.043127816
23	0x3c99cee4	0.018775411
24	0x3b1fc719	0.0024380146
25	0x3ca6ebdf	0.020376144
26	0xbd2bb536	-0.041920863
27	0xbcaafd7e	-0.020872828
28	0x3c282a97	0.01026406
29	0xbce5226d	-0.027970517
30	0x3ccd8f88	0.025092855
31	0xbd4bf4b0	-0.0497939
32	0xbd16f60f	-0.036855754
33	0x3d03125c	0.03199993
34	0xbd2d2257	-0.042269077
35	0x3d381ef0	0.04495138
36	0x3d013472	0.031544156
37	0x3d2f6fba	0.04283116
38	0xbd5eee53	-0.054426502
39	0x3cf59978	0.029980406
40	0xb920b940	-0.000153278
41	0xb921f4fe	-0.00015445423
42	0x3d0f0d12	0.034924574
43	0xba11e458	-0.0005565337
44	0xbbb7a7ed	-0.005604735
45	0xbd2a47b0	-0.041572273
46	0x3d3d5b8c	0.046229884
47	0xbcb1fa77	-0.021725876
48	0xbb8a2de7	-0.0042168978
49	0xbcd1b535	-0.025599102
50	0xbd1c3940	-0.038140535
51	0xbd543b75	-0.051814515
52	0xbcda54e8	-0.026651815
53	0x3d199fba	0.037505843
54	0x3d42fe49	0.047605786
55	0xbd3f6c26	-0.046733998
56	0x3bf69742	0.0075253556
57	0x3ce8faef	0.028439967
58	0x3d70d2d8	0.058794826
59	0x3c6a2d60	0.014293045
60	0x3c9ce232	0.019150827
61	0x3d329e1f	0.043607827
62	0xbd57b44e	-0.052662186
63	0xbd566575	-0.05234285
64	0x3c812a34	0.015767194
65	0x3d03525b	0.032060962
66	0x3c738adc	0.01486465
67	0x3d51ced7	0.05122265
68	0x3bf8aae3	0.0075887307
69	0xbcc79414	-0.024362601
70	0xbd56e1f6	-0.052461587
71	0x3c7f7622	0.01559213
72	0xbd70107b	-0.058609467
73	0x3d3a1d24	0.045437947
74	0xbcebba2b	-0.028775295
75	0x3d02794e	0.031853966
76	0xbc955925	-0.018230984
77	0xbcef049a	-0.029176999
78	0x3d19273c	0.037390932
79	0xbd4e7c65	-0.0504116
80	0x3c6f103c	0.014591273
81	0x3d41eefc	0.047347054
82	0x3b8735aa	0.0041262703
83	0x3c8caea0	0.017173111
84	0xbc2a14cb	-0.010380934
85	0xbcb6359b	-0.022242358
86	0x3d223d0e	0.039609008
87	0x3d1a0bbe	0.037608854
88	0xbd5b8f99	-0.053603742
89	0xbcbc4a23	-0.02298457
90	0xbd3c5521	-0.045979623
91	0xbd63bc0c	-0.055599257
92	0xba518ae7	-0.00079934153
93	0x3d55130d	0.05202012
94	0x3aa3f842	0.00125099
95	0xbd7bf96e	-0.06151717
96	0x3d353fdb	0.04425035
97	0xbd0da699	-0.034582708
98	0x3cdb369a	0.026759434
99	0xbc23191e	-0.009954719
100	0xbac855bb	-0.0015284339
101	0x3aeaf437	0.0017925565
102	0xbce04ba0	-0.02737981
103	0x3cb28194	0.021790303
104	0xbd3a64d4	-0.045506313
105	0x3d485373	0.04890771
106	0x3d41d582	0.047322758
107	0xba955ebd	-0.0011396032
108	0x3d738d28	0.05946079
109	0xbc0c0c45	-0.008547847
110	0x3d520b39	0.051280234
111	0x3d1edcdd	0.03878485
112	0xbc03c72c	-0.008043092
113	0x3c676dc7	0.014125294
114	0x3cc28c53	0.023748552
115	0x3d529c6e	0.051418714
116	0x3d29764c	0.041372582
117	0x3bf93f95	0.0076064565
118	0xbaf7b80a	-0.0018899452
119	0x3d2f33f4	0.042774156
120	0xbca96527	-0.020678116
121	0x3d06c232	0.032900043
122	0x3d43a25e	0.047762267
123	0x3ce5a75d	0.028033907
124	0xbc516f0c	-0.012782823
125	0xbd8013b4	-0.06253758
126	0xbd6f6c61	-0.058452968
127	0x3d0c59ac	0.034265205
128	0x3d75aca5	0.0599791
129	0x3d2ddc29	0.04244629
130	0xbcff9d21	-0.031202855
131	0x3bbd46ae	0.005776248
132	0x3cce9062	0.025215331
133	0xbc779ef5	-0.015113582
134	0xbd465944	-0.048424974
135	0xb9e6afd4	-0.0004400002
136	0xbcd8f5e0	-0.02648443
137	0x3c8d6aa9	0.017262774
138	0xbd69ce7d	-0.05708169
139	0x3cec37f6	0.028835278
140	0x3d6cb64b	0.057791036
141	0x3c7c0143	0.01538116
142	0xbbbe0221	-0.0057985936
143	0x3c40e56c	0.011773448
144	0x3d21c76a	0.039496817
145	0x3cd803d6	0.026369017
146	0xbcc41ed6	-0.023940485
147	0x3c8bb28d	0.017052913
148	0xbc2c3def	-0.010512813
149	0xbd6f1929	-0.058373604
150	0xbad8cce9	-0.001654056
151	0xbcd42837	-0.025898082
152	0x3d23e6a5	0.04001488
153	0xbd3c8f00	-0.046034813
154	0xbb05e04e	-0.0020427885
155	0xbd46b8af	-0.04851597
156	0x3c855f63	0.016280835
157	0x3ccde797	0.025134845
158	0x3c3a1246	0.011356896
159	0xbcc7804d	-0.02435317
160	0xbc0248a5	-0.00795189
161	0x3bcf2960	0.006322071
162	0xbd40ed93	-0.04710157
163	0xbcfaa93c	-0.030598275
164	0xbcb02045	-0.021499762
165	0x3c9099b1	0.01765141
166	0x3cac602c	0.021041952
167	0xbd6b800c	-0.057495162
168	0xbd430a33	-0.04761715
169	0xbc09dd2f	-0.008414551
170	0xbc88b2cc	-0.01668682
171	0x3cb215a4	0.021738835
172	0xbd806033	-0.062683485
173	0x3d1f17f0	0.038841188
174	0x3c687165	0.014187192
175	0xbd0ee5e7	-0.03488722
176	0xbd042372	-0.032260366
177	0xbd6c4b62	-0.05768908
178	0x3ce5d0fd	0.028053755
179	0x3d366edc	0.044539317
180	0x3d6cce86	0.057814144
181	0xbd249f28	-0.040190846
182	0xbceca051	-0.028885039
183	0x3d313fdf	0.043273803
184	0xbd05e0a2	-0.03268493
185	0xbc9bdcfd	-0.019026274
186	0x3b9a174a	0.0047024833
187	0xbd43ab72	-0.047770925
188	0xbd454f84	-0.048171535
189	0x3c417162	0.011806818
190	0xbc41faa3	-0.011839542
191	0x3d4c2043	0.049835455
192	0xbd488732	-0.048957057
193	0xbd148b6e	-0.036265783
194	0xbd0288c4	-0.03186871
195	0xbc7b8a3b	-0.015352781
196	0xbc455694	-0.012044568
197	0xbd038a7f	-0.032114502
198	0x3d762158	0.060090393
199	0xbd5a2972	-0.05326218
200	0x3d01b80f	0.031669673
201	0x3bd280b2	0.006424033
202	0xbd490c8b	-0.049084228
203	0xbcfb18bc	-0.030651443
204	0x3cbb6041	0.022873046
205	0xbcc8f568	-0.024531081
206	0xbd80de75	-0.0629243
207	0x3d3cfb9c	0.04613839
208	0x3cdd82ba	0.027039874
209	0x3cf1b1f1	0.029503794
210	0x3d6df28a	0.05809263
211	0xbd3a8331	-0.04553527
212	0xbd286ef8	-0.041121453
213	0xbb1ed28f	-0.002423439
214	0x3ba15e9c	0.0049246084
215	0xbd6b330e	-0.057421736
216	0xbd54f05c	-0.051987037
217	0xbbdd885a	-0.006760639
218	0xba87395b	-0.0010316776
219	0xbd827cad	-0.06371436
220	0x3cf530ee	0.029930558
221	0x3d358a90	0.044321597
222	0xba453e61	-0.0007524249
223	0xbc6cbd96	-0.014449498
224	0xbc0108b7	-0.007875613
225	0x3d382b94	0.044963434
226	0xbac5d000	-0.0015091896
227	0xbc5fc63e	-0.013658104
228	0xbbb08721	-0.0053872024
229	0xbd75140b	-0.059833568
230	0xbb20342e	-0.0024445164
231	0x3bf42a86	0.0074513583
232	0xbd1de058	-0.03854403
233	0x3baaeb96	0.0052160723
234	0xbcbcdb06	-0.023053657
235	0x3d3cf612	0.04613311
236	0xbd4b19b4	-0.04958506
237	0x3b79562c	0.0038045747
238	0xbbff1cb1	-0.0077854027
239	0x3d885b1c	0.06658003
240	0xbd1663db	-0.036716323
241	0x3d040533	0.03223152
242	0x3d899787	0.06718355
243	0xbd47cafe	-0.048777573
244	0x3c94b186	0.018151056
245	0xbd2977dc	-0.041374072
246	0x3d139c6d	0.03603785
247	0x3d1b49c1	0.037912134
248	0xbcf419a5	-0.029797385
249	0xbd190420	-0.03735745
250	0x3d67800b	0.056518596
251	0x3c65f0a2	0.014034422
252	0x3d651552	0.055928536
253	0xbbf4063a	-0.0074470313
254	0xbd715eb5	-0.05892821
255	0x3d6af152	0.057359047

encoder.critic_encoder.net.mlp.0.weight f4 [256, 7]
0	0xbe588e79	-0.21148099
1	0xbe34285a	-0.17593518
2	0xbe575d80	-0.21031761
3	0x3e6cb9ad	0.23117705
4	0xbe9ce8ae	-0.3064627
5	0xbdcd6ed5	-0.10030905
6	0x3e2f71e8	0.17133296
7	0xbeb47417	-0.3524482
8	0xbe9702a4	-0.29494202
9	0xbea85ae0	-0.32881832
10	0xbd5d1b59	-0.05398116
11	0x3da981e7	0.0827673
12	0xbe5ed2ec	-0.21760148
13	0x3e2ffe34	0.17186815
14	0x3e506b88	0.2035352
15	0x3e415bd6	0.18882689
16	0x3ea59849	0.32342747
17	0x3ccf55a2	0.025309388
18	0x3cf3b7ff	0.029750822
19	0xbe8d7a7a	-0.27632505
20	0x3e6f8830	0.23391795
21	0xbd2402df	-0.0400418
22	0xbe475810	-0.19467187
23	0xbeac78b8	-0.3368585
24	0xbeb5bcfa	-0.3549574
25	0x3e38ca95	0.18046029
26	0xbe4b2417	-0.19837986
27	0xbe42e5ef	-0.19033025
28	0x3ec54276	0.38527268
29	0x3ecb8917	0.3975303
30	0x3e51efbb	0.20501606
31	0x3ec0bc61	0.37643722
32	0x3c669a6d	0.014074904
33	0xbe842dfd	-0.25816336
34	0xbe9b2094	-0.30298293
35	0xbd6449e8	-0.055734545
36	0xbed71f65	-0.4201614
37	0xbe837d37	-0.2568147
38	0x3d803f7a	0.06262107
39	0xbe6561dc	-0.22400612
40	0x3e9b109a	0.30286103
41	0x3d22fdbe	0.03979277
42	0x3e818553	0.2529703
43	0xbdaf34f7	-0.08555024
44	0x3e6971ed	0.22797365
45	0xbe6978d6	-0.22800002
46	0x3e136674	0.14394552
47	0xbd9835d4	-0.07432142
48	0xbe9c0569	-0.30472878
49	0x3e897a9a	0.2685135
50	0x3d5c67ee	0.053810053
51	0xbdb6e00f	-0.089294545
52	0x3d94b8df	0.07261824
53	0xbe4bfe15	-0.19921143
54	0xbd474ca0	-0.04865706
55	0xbe9ebb14	-0.31002104
56	0xbead8c59	-0.3389614
57	0xbe373d5f	-0.17894505
58	0x3ea9b605	0.33146682
59	0x3d924e66	0.071438596
60	0x3e973538	0.2953279
61	0xbe6999f6	-0.22812638
62	0x3d9f7cbb	0.07787462
63	0xbe6aa8ea	-0.22915998
64	0xbe9a5650	-0.30143976
65	0xbd812788	-0.06306368
66	0x3da90b7b	0.08254143
67	0x3d957838	0.072983205
68	0x3e9f0d12	0.3106466
69	0xbde0a29b	-0.109685145
70	0x3ec7ec6b	0.3904756
71	0x3d9b6a11	0.0758859
72	0x3d56bc01	0.05242539
73	0xbe15f74f	-0.14645122
74	0x3e8fd1c6	0.28089732
75	0xbe41bc68	-0.18919528
76	0x3e0b8765	0.13625868
77	0xbe5a80c4	-0.21338183
78	0xbe24d15d	-0.16095491
79	0x3d93d056	0.07217471
80	0xbcd71161	-0.026253404
81	0xbe0f9464	-0.1402145
82	0xbe7d34a4	-0.24727112
83	0xbe2712c2	-0.1631575
84	0x3e7a1904	0.24423605
85	0xbe2911a8	-0.16510642
86	0x3db3c12b	0.08777078
87	0x3ed3cf60	0.41369152
88	0xbe812c22	-0.25228983
89	0xbe1b8ccb	-0.15190427
90	0x3ea06bac	0.31332147
91	0x3dc4e054	0.096131
92	0xbeaf5a3d	-0.34248534
93	0xbe2e79e0	-0.17038679
94	0xbe1a24ef	-0.15053152
95	0xbec06c71	-0.37582734
96	0xbd6884bc	-0.05676721
97	0xbe74c6f6	-0.23904023
98	0x3e5b5d58	0.21422327
99	0x3d23287a	0.039833523
100	0x3e415deb	0.18883483
101	0xbeb9b4bf	-0.3627071
102	0xbd760eed	-0.060072828
103	0xbe9ce0b6	-0.3064019
104	0x3ea3f8c3	0.32025728
105	0x3e0b3f1e	0.13598296
106	0xbdeba81e	-0.11506675
107	0x3df6dc6f	0.12053763
108	0xbd62e0af	-0.055390056
109	0xbe10489d	-0.140902
110	0xbe0b6d53	-0.13615923
111	0x3ebdad90	0.3704648
112	0x3e401db8	0.18761337
113	0xbeba0704	-0.36333477
114	0xbdb1833b	-0.08667608
115	0xbc96b4da	-0.018396784
116	0x3e00dbf1	0.12583901
117	0xbe97f6b6	-0.29680413
118	0x3e9c19bc	0.30488384
119	0xbe4e4be9	-0.20146145
120	0xbe61f6dc	-0.22066826
121	0xbe3cbe42	-0.18431953
122	0xbd60579e	-0.05477106
123	0xbe879bd2	-0.2648607
124	0x3eaafe29	0.33397034
125	0xbe17e646	-0.14833936
126	0xbe90c27d	-0.28273383
127	0xbdf65d39	-0.120294996
128	0x3ea4ad23	0.32163343
129	0x3e85e0a3	0.26147947
130	0xbd4b758c	-0.04967265
131	0x3e60b9e9	0.21945919
132	0xbe4f0d88	-0.20220006
133	0x3de1c45d	0.110237814
134	0x3ea5dce6	0.32395095
135	0x3d8037ce	0.06260644
136	0x3e64488a	0.22293296
137	0x3ee73b03	0.4516221
138	0xbe813f01	-0.2524338
139	0xbe383178	-0.17987621
140	0xbe5529fa	-0.20816794
141	0x3e402483	0.18763928
142	0xbdec5bb2	-0.11540927
143	0xbe4a08e5	-0.19729955
144	0x3e62d0e5	0.2215
145	0x3e54f79e	0.20797583
146	0xbde342de	-0.11096738
147	0xbea21b84	-0.31661618
148	0xbebb5426	-0.36587638
149	0xbdd619e4	-0.10454157
150	0x3c8a2d50	0.01686731
151	0x3dfe54e6	0.12418537
152	0xbdd4cd88	-0.103907645
153	0xbd4cc084	-0.049988285
154	0xbe317a53	-0.17331819
155	0x3e6b25b6	0.22963604
156	0xbe932780	-0.28741074
157	0x3ea59020	0.3233652
158	0x3eb927d3	0.36163196
159	0xbe2d6668	-0.16933596
160	0x3dee9c4d	0.11650906
161	0x3ecb28ce	0.3967957
162	0xbe8bbe04	-0.27293408
163	0x3e851dfa	0.25999433
164	0x3e477579	0.19478406
165	0xbe120460	-0.14259481
166	0xbea53467	-0.32266542
167	0x3e227b4b	0.15867345
168	0x3e8bf8f5	0.27338377
169	0x3c6bc6aa	0.014390627
170	0x3d618520	0.0550586
171	0x3d8ea76c	0.06965527
172	0xbe4220bc	-0.189578
173	0xbe215b81	-0.15757562
174	0xbec90d13	-0.39267787
175	0x3e9b0007	0.30273458
176	0xbe93c34e	-0.28859943
177	0x3e994d70	0.29941893
178	0xbe94c077	-0.2905309
179	0xbe7fae99	-0.24968947
180	0x3e9eb7ce	0.30999607
181	0x3e4942bd	0.19654365
182	0xbe921886	-0.28534335
183	0x3e38785e	0.18014666
184	0x3ea16c2b	0.31527838
185	0xbbce66db	-0.0062988824
186	0xbe0eb63f	-0.13936709
187	0x3d0a1f25	0.033721108
188	0xbeb2aa40	-0.34895515
189	0x3dc6f5ae	0.097148284
190	0x3eacba29	0.3373578
191	0x3e802e29	0.25035217
192	0x3e3a632f	0.18201898
193	0xbd53ab95	-0.051677305
194	0xbc00500e	-0.0078315865
195	0xbe42c072	-0.19018725
196	0xbdbdf143	-0.09274533
197	0x3e7693c8	0.24079812
198	0x3dc6415e	0.096804366
199	0xbdb6d112	-0.08926596
200	0xbe42fbfd	-0.19041438
201	0x3e0442c7	0.12916099
202	0x3e8a5784	0.27019894
203	0x3e6c3ce6	0.23070106
204	0xbe8a9a0c	-0.27070653
205	0x3eb44409	0.35208157
206	0x3e0481b6	0.12940106
207	0x3e5a269b	0.2130379
208	0x3e8b18db	0.271674
209	0xbe57a2ce	-0.21058199
210	0xbeb4bdf1	-0.35301164
211	0x3e24c7bd	0.16091819
212	0xbe909bd4	-0.28243887
213	0xbebe0bc9	-0.37118366
214	0xbec1f816	-0.37884587
215	0xbe12dffd	-0.14343257
216	0xbd73b563	-0.059499156
217	0x3e9a91cc	0.3018936
218	0xbe88f830	-0.26751852
219	0x3c4894ca	0.012242505
220	0xbe851ed5	-0.26000085
221	0x3e9efdea	0.31053096
222	0x3ea38199	0.31934813
223	0x3e1d9868	0.1539017
224	0x3e09ea05	0.13468178
225	0x3e882988	0.26594186
226	0xbd301a9f	-0.042994138
227	0xbe881da1	-0.26585105
228	0x3e54e58d	0.20790692
229	0xbe6f33fe	-0.23359677
230	0xbebe364c	-0.371508
231	0xbcd421ce	-0.025895026
232	0xbd98ad44	-0.07454923
233	0xbe9fd069	-0.31213692
234	0xbddbbd78	-0.10729498
235	0x3e1ba053	0.15197878
236	0xbdb7efcd	-0.08981285
237	0x3e18be62	0.14916375
238	0x3e94d876	0.29071397
239	0x3eadb900	0.33930206
240	0x3de9b390	0.11411202
241	0xbe123978	-0.14279735
242	0x3eeb0200	0.45899963
243	0xbe2040b4	-0.15649682
244	0xbe75caf8	-0.24003208
245	0xbd5b9b20	-0.053614736
246	0x3e9386ed	0.28813878
247	0x3e45d3b6	0.19319043
248	0xbe2c9e46	-0.16857252
249	0xbe1a2843	-0.15054421
250	0x3dcb8f71	0.09939469
251	0x3e7e8c1d	0.24858136
252	0xbe1ce0c3	-0.15320115
253	0x3ddb0361	0.10694004
254	0xbe8757e4	-0.26434243
255	0xbeae50e5	-0.34046093

encoder.critic_encoder.net.mlp.0.bias f4 [256]
0	0x3d323921	0.043511514
1	0xbeb800b8	-0.35938048
2	0xbe37554c	-0.17903632
3	0xbd7d1a29	-0.061792526
4	0x3e42462c	0.18972081
5	0x3cdf540d	0.027261758
6	0x3ea683e7	0.32522509
7	0x3e0aa257	0.1353849
8	0xbd7850c9	-0.060623918
9	0xbe4dea09	-0.20108809
10	0xbd65c3c9	-0.05609492
11	0x3e4b7114	0.19867355
12	0x3dc118fa	0.09428592
13	0xbe2242cf	-0.15845798
14	0xbe466bf9	-0.19377126
15	0x3eaba79f	0.33526322
16	0xbef54185	-0.4790155
17	0xbc2c93c6	-0.010533279
18	0xbdbd9234	-0.09256402
19	0x3ea92ca4	0.3304187
20	0x3e7008f2	0.23440912
21	0xbe9c80af	-0.30566928
22	0xbe9a4d4e	-0.30137104
23	0x3e0a7557	0.13521324
24	0xbdc865c6	-0.09785037
25	0xbcbbb97f	-0.0229156
26	0x3ebc90af	0.36829135
27	0x3e388bfc	0.1802215
28	0x3ecc6d49	0.39927128
29	0xbe5713a9	-0.21003594
30	0xbe26ff14	-0.16308242
31	0x3e0f13bd	0.13972373
32	0x3db7b894	0.08970752
33	0xbec25473	-0.37955055
34	0x3ecceb41	0.40023234
35	0xbedab6df	-0.42717645
36	0xbdae2889	-0.08503825
37	0x3eae18af	0.34003207
38	0x3dbe2fff	0.09286498
39	0xbe17aef7	-0.14812838
40	0xbdd9922d	-0.10623584
41	0xbdcd0b17	-0.10011881
42	0x3e385bd2	0.18003777
43	0xbe25baa8	-0.16184485
44	0x3eb7679d	0.35821238
45	0xbdec575e	-0.115401015
46	0xbe66b0ae	-0.22528335
47	0x3c640e52	0.01391943
48	0x3e3420d8	0.17590654
49	0xbe251f01	-0.16125108
50	0xbdf2dad6	-0.11858146
51	0x3da9786a	0.0827492
52	0x3dd83dfd	0.10558698
53	0xbc98deed	-0.018660987
54	0xbdc1ad54	-0.09456888
55	0x3e4cbf99	0.19994964
56	0xbead09ab	-0.3379644
57	0xbc4fb5a8	-0.012677588
58	0xbeba5945	-0.36396232
59	0xbead82a9	-0.33888748
60	0x3e1c36d0	0.15255284
61	0x3e963395	0.2933623
62	0x3cc6e53b	0.024279227
63	0x3e50f740	0.20406818
64	0x3eb88556	0.36039227
65	0xbdfe8b56	-0.1242892
66	0xbdd3efdc	-0.10348484
67	0xbe70ec8f	-0.2352774
68	0xbea787ba	-0.3272074
69	0xbde8d509	-0.11368758
70	0xbdbcac49	-0.09212548
71	0xbdbfa01d	-0.09356711
72	0xbe360794	-0.17776328
73	0xbd59f04e	-0.053207688
74	0xbd00973f	-0.03139424
75	0xbe522f7d	-0.20525928
76	0x3e2c50be	0.16827676
77	0xbe08618c	-0.13318461
78	0xbeab9e29	-0.33519104
79	0xbe3b76a0	-0.1830697
80	0x3db1956d	0.08671079
81	0x3c06e76e	0.008233888
82	0x3e687e31	0.22704388
83	0xbc4445b3	-0.011979508
84	0x3e9bf2a7	0.30458567
85	0xbe780419	-0.24220313
86	0x3d4895d9	0.04897103
87	0xbec2ae05	-0.3802339
88	0x3e9e95aa	0.3097356
89	0xbe97d8f6	-0.29657716
90	0xbe34acba	-0.17644015
91	0xbeb749c1	-0.35798457
92	0xbec67db4	-0.3876778
93	0x3eca6865	0.39532772
94	0x3d76163a	0.06007979
95	0xbd1b5784	-0.03792526
96	0x3e6fe865	0.23428495
97	0x3e8dbe0e	0.27684063
98	0x3e48927f	0.19587134
99	0xbd2f56dc	-0.042807445
100	0x3e916ec1	0.2840481
101	0x3ebd8de7	0.37022325
102	0x3e643d29	0.22288956
103	0xbebea531	-0.37235406
104	0xbec63164	-0.38709557
105	0x3e6aa13c	0.22913069
106	0xbe303c7e	-0.17210576
107	0xb9c06a6c	-0.00036700384
108	0xbe2204c3	-0.15822129
109	0x3dace44b	0.08441981
110	0xbe892857	-0.2678859
111	0x3efaee90	0.49010134
112	0xbea50be9	-0.3223565
113	0xbde8d1a3	-0.1136811
114	0xbe70f509	-0.23530973
115	0xbea23159	-0.31678274
116	0xbcdc217d	-0.026871437
117	0xbe135f62	-0.14391854
118	0x3ec07db1	0.37595895
119	0x3ed8dbac	0.42355096
120	0xbed5def1	-0.41771653
121	0xbca5ccea	-0.020239312
122	0x3eb5e01e	0.3552255
123	0x3e7df949	0.24802126
124	0x3c7da49e	0.015481142
125	0xbe5182c8	-0.20460045
126	0xbdad4276	-0.08459942
127	0x3ef22c20	0.4729929
128	0x3eaaf637	0.33390972
129	0xbe30d812	-0.17269924
130	0x3e734097	0.23755108
131	0xbe09cb00	-0.13456345
132	0xbe0fa0a3	-0.14026122
133	0x3e965d4f	0.29368064
134	0xbe498c62	-0.19682458
135	0x3ef5887f	0.479557
136	0xbe494a8b	-0.19657342
137	0x3dcd51c5	0.10025362
138	0x3c8a5f31	0.016891094
139	0x3e7cde5e	0.24694201
140	0x3e542626	0.20717677
141	0x3e3f40ec	0.1867711
142	0x3d3a589a	0.045494653
143	0x3eca6cb7	0.39536068
144	0x3e82ed59	0.25571707
145	0xbe0e0d60	-0.1387229
146	0xbda173b9	-0.078834005
147	0x3e7e262e	0.24819252
148	0x3d3420e3	0.043976676
149	0x3e3821a4	0.17981583
150	0x3decdd14	0.11565605
151	0x3e1a24c9	0.15053095
152	0x3eaafdba	0.33396703
153	0x3e871b0f	0.26387832
154	0x3e8c37c5	0.273863
155	0x3e9e23bf	0.30886647
156	0x3da3dc29	0.080009766
157	0x3dbaf378	0.09128469
158	0x3da99fdb	0.08282443
159	0x3eb412cc	0.3517059
160	0x3e4830d7	0.19549881
161	0xbe0d6568	-0.13808215
162	0x3e3e0043	0.18554787
163	0x3e2f67e0	0.17129469
164	0x3e94f934	0.29096377
165	0xbd4fb42e	-0.050708942
166	0x3e9d5d6c	0.30735338
167	0x3ec65728	0.3873837
168	0x3e787510	0.24263406
169	0x3e5231bc	0.20526785
170	0x3d90e654	0.070751816
171	0xbe98b6cf	-0.29826972
172	0x3e997cc5	0.29978004
173	0x3ee64408	0.4497378
174	0x3e0b0071	0.13574387
175	0x3dee4772	0.11634721
176	0xbd66ab29	-0.056315575
177	0xbcff996d	-0.031201089
178	0xbcf5254e	-0.029925015
179	0x3dcff7c0	0.101546764
180	0x3c109257	0.008823953
181	0x3e61257f	0.2198696
182	0x3d8fbda0	0.0701859
183	0xbc95de25	-0.018294403
184	0xbd49a03a	-0.04922507
185	0x3e1375b4	0.14400369
186	0x3ea09030	0.31360006
187	0x3e852a93	0.26009044
188	0x3e393c90	0.18089509
189	0x3e716589	0.23573889
190	0xbe5bd84b	-0.21469228
191	0x3c344617	0.011003039
192	0x3ed03602	0.40666205
193	0xbef5e743	-0.48028
194	0x3e926dcd	0.28599396
195	0xbeb3d8d8	-0.35126376
196	0xbc9936b5	-0.018702844
197	0xbc4be20e	-0.012444032
198	0x3e221e74	0.1583193
199	0xbd74417d	-0.059632767
200	0xbd7ee6e6	-0.06223192
201	0xbd94c4cd	-0.07264099
202	0x3eb05b56	0.34444684
203	0x3e030ff2	0.12799051
204	0x3d8933d5	0.06699339
205	0x3ed5c156	0.41749066
206	0x3ebbec27	0.36703607
207	0xbdbceabc	-0.092244595
208	0xbe4d2551	-0.20033766
209	0x3e93538b	0.28774676
210	0xbe0fb7f6	-0.1403502
211	0x3cfd0f10	0.030890971
212	0x3ea72377	0.32644245
213	0xbed5f898	-0.41791224
214	0xbd019089	-0.03163198
215	0x3c3cb6a4	0.011518154
216	0xbe039822	-0.12851003
217	0x3e215bbd	0.15757652
218	0x3df72f32	0.12069549
219	0x3e2a09fc	0.16605371
220	0x3e20b6a9	0.1569468
221	0xbe40e45d	-0.18837114
222	0x3e8a9a9d	0.27071086
223	0x3eae7944	0.34076893
224	0xbe91f789	-0.28509167
225	0x3df90fae	0.12161194
226	0x3ea50798	0.32232356
227	0x3db4116b	0.08792385
228	0xbedf1da4	-0.43577302
229	0x3df5ffa1	0.12011648
230	0x3e8f918c	0.2804073
231	0x3d918ffc	0.07107541
232	0xbe2b05f7	-0.16701494
233	0x3ddbe7c8	0.10737568
234	0x3ec90850	0.39264154
235	0x3d867b42	0.06566478
236	0x3dd9b691	0.10630525
237	0x3ea451e1	0.3209372
238	0xbe80f5aa	-0.25187427
239	0xbd650401	-0.05591202
240	0xbe89d084	-0.26916897
241	0x3dea327e	0.11435412
242	0x3cc368fb	0.02385377
243	0xbd97d5ee	-0.07413851
244	0xbe1ef91e	-0.15524718
245	0xbcf40204	-0.029786117
246	0x3ea5d4a5	0.32388797
247	0xbdbfee82	-0.09371664
248	0xbe3c16ac	-0.18368024
249	0xbed584b2	-0.417028
250	0xbef7a918	-0.48371196
251	0x3e47444a	0.19459644
252	0xbec37427	-0.38174555
253	0x3e959896	0.29217976
254	0x3e32557a	0.17415419
255	0xbce2e542	-0.02769721

encoder.critic_encoder.net.mlp.2.weight f4 [256, 256]
0	0x3c0e85e5	0.008698915
1	0x3ca05454	0.01957146
2	0xbc678f88	-0.014133342
3	0xbaa0aab7	-0.0012257908
4	0x3ce99a1e	0.028515872
5	0xbd55456f	-0.05206817
6	0xbd704edc	-0.058668956
7	0xbd614e42	-0.055006273
8	0xbb6e0bcb	-0.0036322947
9	0x3cf7b5c9	0.03023805
10	0x3c7b7603	0.01534796
11	0xbc88e1d4	-0.016709246
12	0xbd0a29c6	-0.033731245
13	0x3d73a87c	0.05948685
14	0x3d369751	0.0445779
15	0xbd6fc53d	-0.05853771
16	0x3d3abbad	0.045589138
17	0x3d33a107	0.04385474
18	0x3d5829da	0.052774288
19	0x3d76480d	0.060127307
20	0xbdbf4839	-0.09339947
21	0xbcc71281	-0.024300816
22	0xbd87fef8	-0.06640428
23	0xbd8a1d47	-0.067438655
24	0x3c9ef021	0.019401612
25	0xbcced34d	-0.02524724
26	0xbc85fced	-0.016355956
27	0x3c94360e	0.018092182
28	0x3d1969d0	0.037454426
29	0xbd2c768d	-0.042105246
30	0xbba63191	-0.0050718267
31	0x3d0f2ffe	0.03495788
32	0xbd7afd38	-0.061276644
33	0xbc68807e	-0.014190791
34	0xbbc26d28	-0.0059334226
35	0x3d0b7aad	0.03405254
36	0x3dabc365	0.08386878
37	0xbcb5c41d	-0.02218824
38	0xbd062ec1	-0.03275943
39	0x3d09c347	0.033633497
40	0xbd62d58d	-0.05537944
41	0x3d44b14f	0.048020657
42	0x3d8bb835	0.06822244
43	0x3d2b1894	0.041771486
44	0x3ce57851	0.028011473
45	0xbd5c6e91	-0.05381638
46	0xbc52ff73	-0.012878287
47	0xbcc02e84	-0.02345968
48	0xbcfc02ef	-0.030763118
49	0xbbeea386	-0.007282677
50	0xbc95895f	-0.01825398
51	0xbd6ddcc5	-0.05807187
52	0x3b9b8ac6	0.0047467677
53	0x3c901ead	0.017592752
54	0xbd6485dc	-0.05579172
55	0x3cb91a39	0.022595512
56	0x3d197700	0.037467003
57	0x3cc4bd3d	0.024016017
58	0x3d749114	0.05970867
59	0xbd59b92d	-0.053155113
60	0xbca8e005	-0.020614633
61	0x3c7d1191	0.015446083
62	0xbd240bc8	-0.040050298
63	0x3d85e2bb	0.06537386
64	0x3a5b3fb9	0.00083636824
65	0x3ca8d086	0.020607244
66	0x3d80b48c	0.062844366
67	0x3c9b3313	0.018945253
68	0x3d043ad5	0.03228267
69	0x3b231f3b	0.002489044
70	0xbdc301c2	-0.0952182
71	0xbb5b3058	-0.0033445563
72	0xbd41416c	-0.04718153
73	0xbb52cab2	-0.0032164273
74	0x3c601780	0.013677478
75	0x3d90c7d3	0.070693634
76	0x3ceb094a	0.028690953
77	0x3cb95ead	0.022628153
78	0xb987de73	-0.00025914944
79	0xbdb8d9dc	-0.090259284
80	0xbcdf8865	-0.027286718
81	0xbbb252d5	-0.0054420033
82	0xbc13759e	-0.00900021
83	0xbd4c2188	-0.049836665
84	0xbc8943d5	-0.016755978
85	0xbb469762	-0.0030302634
86	0xbd44a565	-0.048009295
87	0xbdac9003	-0.084259056
88	0xbd1916be	-0.037375204
89	0xbb813b24	-0.0039438177
90	0x3d0a149d	0.033711065
91	0x3d37d14c	0.044877335
92	0x3d1d876c	0.038459226
93	0xbd26b828	-0.04070297
94	0x3d842fc8	0.06454426
95	0x3c788ac5	0.015169804
96	0x3d4a5471	0.049396936
97	0xbc65465e	-0.013993828
98	0xbcf02982	-0.029316667
99	0x3d714e14	0.05891235
100	0xbcb4292f	-0.021992294
101	0xbd53dec7	-0.05172613
102	0x3c38afe6	0.011272406
103	0xbcacb485	-0.021082172
104	0x3cef5b4d	0.02921834
105	0xbbadecba	-0.005307761
106	0x3c4f8cd4	0.012667853
107	0xbd109bf0	-0.035304964
108	0x3ca3d67a	0.019999731
109	0xbd20b48b	-0.03923468
110	0xbd09ff8d	-0.033690978
111	0x3d82aa60	0.06380153
112	0x3d2deb37	0.042460646
113	0x3d01d709	0.031699214
114	0xbd49e731	-0.049292747
115	0x3d52afe8	0.05143729
116	0xbccea258	-0.025223896
117	0xbcfaac44	-0.03059972
118	0xbd592fbc	-0.05302404
119	0x3d63e82f	0.05564135
120	0xbd5d5970	-0.054040372
121	0x3c583be1	0.01319787
122	0xbc230d50	-0.009951904
123	0x3d8b7035	0.06808511
124	0x3d0c0c29	0.034191284
125	0xbd0b26a3	-0.033972394
126	0xbd798437	-0.060917106
127	0xbc0b509a	-0.008503104
128	0x3d041da2	0.032254823
129	0xbce5666b	-0.028002938
130	0xbc07f4e9	-0.008298137
131	0xbd179745	-0.037009496
132	0x3c504499	0.012711667
133	0x3c136448	0.008996077
134	0xbd732006	-0.05935671
135	0xbcb9d2ba	-0.02268349
136	0x3d26d899	0.040733907
137	0x3c6cb556	0.014447531
138	0x3a6e2064	0.0009083806
139	0x3d523a4c	0.051325127
140	0x3cafcace	0.02145901
141	0xbc4e0f4c	-0.012576889
142	0x3bbd9ff9	0.0057868925
143	0xbd2a3326	-0.041552685
144	0x3d06038b	0.032718223
145	0x3ca3f066	0.020012092
146	0xbc879e62	-0.016555015
147	0xbd62fdb0	-0.055417717
148	0xbbcc977e	-0.006243645
149	0xbd210c64	-0.039318457
150	0xbc5c5358	-0.013447605
151	0x3cb5588f	0.022136955
152	0x3ba2dd16	0.004970203
153	0x3d577f61	0.052611712
154	0xbd13110d	-0.035904933
155	0x3dccce67	0.100003056
156	0x3b9843c3	0.0046467497
157	0xbd1d26b2	-0.03836698
158	0x3d13e793	0.03610952
159	0xbd44a10a	-0.04800514
160	0x3d00eed2	0.031477757
161	0x3d03ee25	0.032209534
162	0x3c4c25c9	0.012460181
163	0xbc790d33	-0.015200901
164	0xbda84b92	-0.08217539
165	0x3d58d556	0.052937828
166	0x3d5863df	0.05282962
167	0x3d5ff641	0.054678205
168	0xbca02033	-0.019546604
169	0x3d31c011	0.04339606
170	0x3db73a62	0.089466825
171	0xbc1d1456	-0.009587368
172	0xbd5e4fe5	-0.054275412
173	0xbc582a09	-0.013193616
174	0x3c1f8bc4	0.009737913
175	0xbd210d65	-0.039319415
176	0x3c93929b	0.018014243
177	0xbc109d7b	-0.008826609
178	0xb9de8e88	-0.00042449334
179	0xbbb35a67	-0.0054734233
180	0x3d893b83	0.06700804
181	0x3d66d296	0.056353174
182	0xbd37e65e	-0.04489743
183	0x3b1ca4a4	0.0023901844
184	0xbd0e23db	-0.034702163
185	0xbcb98134	-0.022644617
186	0x3d225b75	0.039638
187	0x3d30af2c	0.043135807
188	0x3d0d11c4	0.03444077
189	0x3c79d036	0.015247395
190	0x3d64192e	0.055688076
191	0xbd8d9d8c	-0.06914815
192	0xbcf625ec	-0.03004738
193	0x3d50eaf5	0.051005322
194	0xbd22454c	-0.039616868
195	0xbd5ad6d6	-0.05342754
196	0xbccce7a7	-0.025012804
197	0x3cd03a48	0.025418416
198	0x3d6a1673	0.057150315
199	0x3cb95723	0.022624558
200	0xbc8e1b4c	-0.017347
201	0xbd601c23	-0.054714333
202	0x3ca93ded	0.020659411
203	0xbd6443c3	-0.055728685
204	0x3c928a09	0.017888086
205	0xbd053db3	-0.032529544
206	0x3d6797ba	0.056541182
207	0xbd22a491	-0.039707724
208	0xbd0e4e51	-0.034742657
209	0x3d06bb93	0.03289373
210	0xbcf78057	-0.030212564
211	0x3d4846d2	0.048895665
212	0xbcca19f3	-0.024670577
213	0xbcbbc3d1	-0.022920521
214	0xbd7e4d79	-0.062085602
215	0x3d1a685d	0.037697185
216	0x3c8c4e52	0.01712719
217	0x3d83ad77	0.0642957
218	0xbd206812	-0.03916175
219	0x3ceffc77	0.02929519
220	0xbd7b0e4a	-0.061292924
221	0x3bbe2adf	0.0058034505
222	0xbd1ac6a8	-0.03778711
223	0xbcb32fc7	-0.021873368
224	0x3cbd39ee	0.023098912
225	0x3d490f11	0.049086634
226	0x3d98eeb2	0.074674025
227	0xbd7c40ec	-0.06158535
228	0xbd3dbea3	-0.046324383
229	0x3d02b1f9	0.03190801
230	0xbc2ae83c	-0.010431346
231	0xbc02c195	-0.007980724
232	0x3d03da6a	0.032190718
233	0xbd2e0f25	-0.04249491
234	0x3c0e7242	0.008694233
235	0xbca98e84	-0.02069784
236	0xbcb81348	-0.022470132
237	0x3cbba46a	0.022905547
238	0x3ad950df	0.0016579888
239	0x3c8c7071	0.01714346
240	0xbd44ca31	-0.048044387
241	0x3d046979	0.03232715
242	0xbc051351	-0.008122281
243	0xbbc7d671	-0.0060985615
244	0x3cb9ea30	0.022694677
245	0x3d3c7284	0.046007648
246	0x3bc88b53	0.0061201244
247	0xbc7531ce	-0.014965488
248	0xbd9d628f	-0.07684814
249	0x3d0f3877	0.03496596
250	0xbd33d2a6	-0.043902062
251	0x3c291cb7	0.010321788
252	0xbd48eb89	-0.04905275
253	0xbca2389a	-0.01980238
254	0x3d694815	0.05695351
255	0x3d3bbe9e	0.045836084
