trained_policies/learner/module_state/cop_policy/module_state_dir/module_state.pt (torch, 553090 bytes, 11 tensors)

encoder.actor_encoder.net.mlp.0.weight f4 [256, 7]
00000000: 6cd8 303e d310 3b3d 7503 8c3e 1563 af3d
00000010: 9b47 593d e0a8 8cbe cd11 b5be f072 8cbe
00000020: bce7 bdbe 7058 a5be 8c44 aabe 8894 253d
00000030: 2959 453e f71e c0be 1cb2 923e 47bf 84be
00000040: b59c 373e f82d 01bd 6c0a 9d3e 8beb c5bd
00000050: e500 bc3e f448 8abe d620 c43d dc72 64bc
00000060: 0db3 823e 38ec 6c3e 5c81 ac3e c5d0 1f3e
00000070: 5efc 90be 5538 4bbe 9dfe 9abe 5a12 753e
00000080: e6f7 263e 5fac 853d cd77 8bbe df17 903e
00000090: 1107 3dbd 0c86 ff3d 492e ac3e 1828 9bbe
000000a0: eb82 0d3d 5c57 bb3e 1c86 29be fa91 1c3e
000000b0: 127b 5cbe d2f6 453e d083 a0be 87f9 93be
000000c0: d06b b23e b847 eebd 3c51 343e 945d 5abe
000000d0: fffb 963d ef67 9839 152c efbd b254 b1bd
000000e0: 7e58 1d3e e7ce a2be df73 22bc b263 88bd
000000f0: 0813 2b3e 50a8 733e 759b babe 6384 7ebe
00000100: e8c5 fe3d 8f0c 88bd 2c6c 14be 7f99 55be
00000110: ca8b aa3e 470a 9c3e 5ebc b03e 6bcf 1ebd
00000120: 47e7 92be 0f2f 833e 249a b43c b661 103d
00000130: 2f72 8ebe deb2 c13d 29af 94be e238 7cbd
00000140: fa81 6f3d b4b3 5e3e 5b79 a23e 1ea0 c63e
00000150: 59d0 71be 3499 a73e 9894 67be dd6f 263e
00000160: 3f43 cabd 916c b23e c27c 8b3e 3b5a aabe
00000170: 60d2 4d3e d71f c13e 8765 4a3e e78a ffbd
00000180: c96a 2b3e 0d5d f4bd 9c7e 6f3e 9dd3 313e
00000190: d4db 66be 1377 adbe d7dc 84bd fadb e93d
000001a0: accc 6bbe d0a6 75be 8891 363e ce20 24be
000001b0: 6de9 a4be 1caf 36bd 81ba d0bc 7c40 343e
000001c0: 0e79 5bbe 92b2 6f3e 3da4 0f3e 07b2 683e
000001d0: 6585 b4be f035 113c d2d2 a23e 1d3a 8cbe
000001e0: df0b f33d 1fc8 1bbe 18df 283e a868 8abe
000001f0: 3ca3 babe 4c52 f7bd 734b bdbd 82c1 483e
00000200: 8791 403d 89bf ac3e 6833 123e 5e8b 97be
00000210: 3f78 d53d c307 a23e f812 b73e cf97 f2bb
00000220: 26b4 533e 63b5 3dbe 8a89 6c3e 2139 55be
00000230: 9500 26be b040 323e 7187 05be caff 363e
00000240: 19d9 993e ec75 fa3d 7fdc 93be c8ab 5b3e
00000250: dfb4 803d 17a5 ab3e 89fd b3bc 48b7 64be
00000260: 44b9 b6be 5e5d 28bd 0b06 9cbd 5da6 92be
00000270: c920 4ebe ca71 083e fbc5 b8be 94c0 163e
00000280: ecb9 28be 2e4f bd3d 51de 4bbd afb5 6cbe
00000290: 97b5 86be 5596 bc3e f419 57be 8129 733e
000002a0: 7dc8 393e 6dcb 9ebe 40f0 cf3e ec4b 78be
000002b0: afc4 ff3d b00e c33e 4e31 bbbb 97c4 be3e
000002c0: ded4 b1bd b7d7 8a3e f803 1d3e 16e7 2e39
000002d0: 6ec4 be3d 05fe 7ebc df85 243e 6457 c6bb
000002e0: 51d2 173e 0abd 3d3e 7201 b3ba d704 393e
000002f0: bac5 65bd 95ea 88be decd 463e 0ffa 75be
00000300: 8517 8dbe b9f8 8b3e d274 21be 8fa2 54be
00000310: ec74 713d 4b50 1b3e 407f 263d 0f12 90be
00000320: 6b19 2e3e d08c a9be 607e 75be df7a 06bd
00000330: 4c24 acbe e7d1 7dbe 50e9 0f3e e203 9b3e
00000340: dc0a f5bc c2cd 153e 7108 4c3e a235 04be
00000350: 8454 2a3e c500 80be 77af 4abe a254 aabe
00000360: 452c a0be 683e ec3d 050b 8abe beb6 8fbe
00000370: dbb2 873c 2bf6 71be 73f7 c3bd 52bb bc3d
00000380: 83b1 9abe 6581 f8bd fa77 363e c67e a8bd
00000390: 1bfe 173e 92b8 b33d d35a 69be 80de b53c
000003a0: 069c b83e 1d4f 913e 2d9c 1abe 6b98 5cbd
000003b0: 9e38 9ebe 1fa5 81bd f705 313e 5cb9 843e
000003c0: 372a 973d e467 e2be 5c0a 4fbe 766c d6bd
000003d0: f6f8 513e f865 9e3d 1a55 113e 632a cf3d
000003e0: 0bc6 89be 7760 9c3e 592c 08be 5947 d7be
000003f0: fdb7 6c3e fd79 50be a34f 5d3e 0ecd d4bd
0.17270058 0.04567034 0.27346388 0.0856382 0.053046804 -0.2747259 -0.35365143 -0.2743144
-0.37090862 -0.32294035 -0.33255422 0.040424854 0.19272293 -0.37523624 0.28651512 -0.25927183
0.17930873 -0.03153798 0.30672014 -0.09664067 0.36719432 -0.27008784 0.095765755 -0.0139434
0.2552723 0.23136985 0.33692443 0.15606983 -0.2831754 -0.19845708 -0.3027238 0.23932782
0.16305503 0.06527018 -0.27239838 0.28143212 -0.046149317 0.12476739 0.33629063 -0.30304027
0.03454868 0.36590087 -0.16555065 0.1529006 -0.21531323 0.19332436 -0.31350565 -0.28901312
0.3484788 -0.11634773 0.17609113 -0.2132476 0.07372283 0.00029069136 -0.1167833 -0.086587325
0.15365788 -0.3179848 -0.009915321 -0.0665964 0.16706479 0.23794675 -0.3644673 -0.24855189
0.12440091 -0.0664302 -0.1449439 -0.20859335 0.33309776 0.3047659 0.34518713 -0.038772028
-0.28692076 0.2562184 0.022046156 0.035249434 -0.2782149 0.09457944 -0.29039887 -0.061577685
0.058473565 0.21748239 0.31733212 0.38794035 -0.23614635 0.32734072 -0.22615278 0.1625361
-0.098761074 0.34848455 0.2724362 -0.33271965 0.20099783 0.37719604 0.19765292 -0.124776654
0.16739954 -0.119318105 0.23388141 0.1736588 -0.22544795 -0.3387991 -0.06487434 0.1141891
-0.23027295 -0.23989415 0.17828953 -0.16028139 -0.3220934 -0.04460059 -0.025479557 0.17602724
-0.21432897 0.23407963 0.14027496 0.22724162 -0.35258022 0.008862957 0.31801468 -0.27388087
0.118674986 -0.15213059 0.16491354 -0.2703297 -0.36452663 -0.12076244 -0.092429064 0.19605067
0.047013786 0.3373988 0.14277422 -0.29598516 0.10423326 0.31646547 0.3575666 -0.007403351
0.2067419 -0.18526225 0.23099342 -0.20822574 -0.1621116 0.17407489 -0.13039948 0.17871013
0.30048445 0.12229523 -0.28879163 0.21452248 0.062844984 0.3352439 -0.02197148 -0.22335541
-0.3568822 -0.041104667 -0.0761834 -0.2864255 -0.20129694 0.13324657 -0.36088547 0.147219
-0.16477174 0.09243618 -0.049772564 -0.23116182 -0.26310417 0.36833444 -0.21005994 0.23746301
0.18142886 -0.31014577 0.40612984 -0.24247712 0.12488686 0.38097143 -0.0057126647 0.3725936
-0.08683179 0.27117702 0.15333545 0.0001668002 0.0931481 -0.015563493 0.16066693 -0.0060528982
0.14826323 0.18529144 -0.0013657047 0.18068253 -0.05609677 -0.26741472 0.1941447 -0.24021171
-0.27557006 0.27338198 -0.1576722 -0.20765136 0.058949396 0.15167348 0.0406487 -0.28138778
0.17001884 -0.33115244 -0.2397399 -0.032832023 -0.33621442 -0.24787103 0.14053845 0.302764
-0.029912405 0.14629272 0.19925095 -0.12911084 0.16633803 -0.25000587 -0.19793497 -0.33267695
-0.31283775 0.115353405 -0.26961532 -0.2806911 0.016564777 -0.23629062 -0.095686816 0.09215416
-0.30213556 -0.12134055 0.17819205 -0.08227305 0.14843027 0.08775438 -0.22788553 0.022200823
0.36056536 0.2838067 -0.15098639 -0.053856295 -0.3090257 -0.063303225 0.17287432 0.25922668
0.07381099 -0.44219887 -0.20218796 -0.10469906 0.20505127 0.07734293 0.1419262 0.101155065
-0.26908907 0.30542347 -0.13298167 -0.4204662 0.23117061 -0.20359035 0.2161241 -0.103906736

encoder.actor_encoder.net.mlp.0.bias f4 [256]
00000000: fe50 a83e e338 4a3e b721 be3d 2aa1 1cbd
00000010: 0d43 913e 83cc c03e 71bf 30be 80d9 373c
00000020: 5665 a0be d1e4 80be ebb0 b33e 5876 6d3e
00000030: 2ba6 91be 7431 113e 82fd 583e cce9 50be
00000040: a112 96be df68 443e 3bc0 1bbe c5d6 acbd
00000050: 528b bcbd a87c 65be 96e2 82be 0107 1bbe
00000060: 2bf6 9ebe 176b c63d d271 433c c2ff b73e
00000070: 5e6b a3bc 420d a9be b013 d7bc f18f 533c
00000080: 7e20 85be 1beb 81be 8485 513e cd84 2f3e
00000090: 57d1 b03e 0132 643e 364f 593c 3194 563d
000000a0: 05b9 95be 9edd a73e 468a abbe ba11 dbbd
000000b0: 2573 abbe 7024 613e 3ae1 abbe 28c2 813e
000000c0: 7c71 9a3e ddc1 923e ffae 393e 8761 233e
000000d0: 6ad4 963e 0efe b5be 815d 1dbd 9538 60be
000000e0: e58e 1cbe 2b3a 18be d06b 9ebe cc64 833e
000000f0: 7ef6 b23b 06d6 63ba a8e3 31be 25ba a0bd
00000100: d822 a33e 4f34 fe3d b6c9 4dbe 10a7 08be
00000110: d22b f53c df88 993e 233e 8e3e 5fcd 3d3e
00000120: a362 3dbe c8f4 adbe f149 c93e 8f8d 4fbd
00000130: b998 92be f467 8fbe 80c7 65be ab7a b0be
00000140: b4c4 b73e 439c d33d a692 cb3b 50fc 9bbc
00000150: 00cf a6bd 7015 363d 0f3a ef3d f51d bbbe
00000160: 091a 103e db59 f43d bdff 39bc 94ba 79bd
00000170: b6c3 d33c 0fd1 ff3d 5d18 a53e e9bb ccbd
00000180: d2a0 a03e 2ed9 e63c 4f81 0bbe c250 543e
00000190: a636 3cbe 808c 95be b3ca 0d3d e3c8 813e
000001a0: 2b4b 77bc 481e b23d f3ca 1c3e 302e 183e
000001b0: e12a 953e 683a 553e 0eb4 543e e34c 4e3c
000001c0: e65c 0c3e 7baa b8be dd0f 113e 0397 b7be
000001d0: ea87 813e ed6b 27bd 5f9d 74be c018 973e
000001e0: d08a 6abe 3723 9fbd ea83 60be d023 3abe
000001f0: b26e bbbc b9d8 52be 0da0 38be 06e2 cd3d
00000200: 55af 143e cb52 853d 722d 98be 8309 fcbc
00000210: 1748 cb3d d292 02be d899 a9be 76ec 533e
00000220: 567d 4a3e d2b7 9a3e c6e8 9d3e 2be7 76be
00000230: 4101 14bb ce67 a7be 620b d73c 95b1 813e
00000240: 548c babe c329 6ebd 6a09 bbbe bcb1 8b3e
00000250: 771b 5ebe f75a bbbe 6e2b 88be 02b8 6d3e
00000260: 0c4e 663d 02d1 78be 8ec4 05bd 0c5e 263b
00000270: e054 bc3e 302d c03e 2835 b8bc 57e9 d8bd
00000280: 5f3f 5f3d 59e7 44be dfe5 71be 0159 883e
00000290: 80a3 ab3e bc17 6abe 9b56 473c b371 a73e
000002a0: cb6b b2be 9814 393e 5ddc b63e 109f 8a3d
000002b0: 5c80 143e c817 03bd 377f 93be 09b3 f33d
000002c0: 1965 afbe 2179 b13e 20c7 89be a435 b63e
000002d0: 0e2e 063e 3f77 1c3e 7d6e 443e 0aab 303e
000002e0: 68a5 a8be 9700 c5be 497e 09be 0f10 5a3c
000002f0: 916b a7be 7136 3ebb 9797 56be f013 373e
00000300: 8dc4 b53d 8395 96be 89ee 363d 0a72 6c3e
00000310: 231a 1dbe d7c7 adbe 8fa3 84bd 3015 8fbd
00000320: 9180 f33c e657 64be 7f81 8d3e b0f5 783e
00000330: 98ea 9bbe 68e4 a23e 904a 1dbc dd21 14bc
00000340: dafc 833e 8aaf 8dbd 069e 7c3e 5715 6b3e
00000350: a102 50be f7f4 653e c9bf 883e ce0a 9e3e
00000360: e741 d13d 67c3 973e db40 943e 7fb3 ddbd
00000370: aca9 343d 4b02 2e3e 6093 b93e d577 333e
00000380: 0b2c 153e 1940 5abe b275 4dbe 6ab2 12be
00000390: f551 15bd 9b36 953e fff7 083e 3389 e93c
000003a0: 8c70 f83d 2e71 56be 739d bc3e 71a9 96be
000003b0: 5f09 b33e e1f5 b43e f96a 343e bd03 95be
000003c0: fcd2 46be ced2 d53d 4621 32be 3c5a 8cbe
000003d0: 00b9 713e 84de 003e 714a c33e b0df 44be
000003e0: 2d50 f5bd 7326 87be d7dc 26be fb43 a33e
000003f0: f1b0 16be db3e 403e 0370 953d b8f1 713b
0.32874292 0.19748263 0.09283774 -0.038239636 0.28371468 0.3765603 -0.17260529 0.01122129
-0.31327313 -0.25174573 0.35095915 0.23189676 -0.2844709 0.14179021 0.21190456 -0.20401686
-0.29311088 0.1918063 -0.15210049 -0.084394015 -0.09206261 -0.22410834 -0.25563496 -0.1513939
-0.31047186 0.096883945 0.011928992 0.35937315 -0.019948658 -0.33017927 -0.026254505 0.012912736
-0.26001352 -0.25374684 0.20461088 0.17140503 0.34534714 0.222847 0.013263514 0.05238742
-0.2924272 0.32786268 -0.33503932 -0.106967404 -0.33486286 0.21986556 -0.33570272 0.25343442
0.30164707 0.2866353 0.18133162 0.15955172 0.29458934 -0.3554539 -0.03841925 -0.21896584
-0.15288885 -0.1486594 -0.3094163 0.2566284 0.005461513 -0.0008691255 -0.17372 -0.07848004
0.3186252 0.12412321 -0.20096478 -0.1334498 0.029928122 0.29987237 0.27781782 0.18535374
-0.18494658 -0.33975816 0.39314225 -0.05067211 -0.28632143 -0.28008997 -0.22439384 -0.34468588
0.3589226 0.10332539 0.00621255 -0.01904121 -0.08144951 0.04445404 0.11680996 -0.36546293
0.14072432 0.11931201 -0.011352477 -0.06096895 0.025850158 0.12491047 0.3224515 -0.099967785
0.31372696 0.028179731 -0.13623546 0.20733932 -0.18380222 -0.29208755 0.034617137 0.25348577
-0.015093605 0.08697182 0.15311794 0.14861369 0.29134277 0.20823061 0.2077181 0.012591573
0.13707313 -0.36067566 0.14166208 -0.358574 0.25299007 -0.04087441 -0.23888157 0.2951107
-0.22904515 -0.077703886 -0.21925321 -0.18177724 -0.022879932 -0.20590486 -0.18029805 0.10052876
0.14520009 0.06509932 -0.29722172 -0.030766254 0.099258594 -0.1275132 -0.33125186 0.20695671
0.19774374 0.3021837 0.30841655 -0.24111621 -0.0022583755 -0.32696384 0.026250545 0.25330797
-0.36435187 -0.058145296 -0.3653062 0.27284038 -0.21690165 -0.36592838 -0.26595634 0.23214725
0.056226775 -0.2429848 -0.032658152 0.0025385646 0.36783504 0.37534475 -0.022486284 -0.10591381
0.054503795 -0.19228877 -0.23622845 0.26630405 0.33523178 -0.22860616 0.012166644 0.32703933
-0.34847865 0.18074262 0.35715 0.0676862 0.1450209 -0.0320051 -0.28807995 0.118993826
-0.3425682 0.34662727 -0.26909733 0.355878 0.13103506 0.15279864 0.19182773 0.17252746
-0.32938695 -0.38477013 -0.1342708 0.013309493 -0.32699254 -0.0029024149 -0.20956264 0.178787
0.0887538 -0.29410943 0.04466108 0.23090377 -0.15342002 -0.33941528 -0.06476509 -0.06986463
0.029724391 -0.22299156 0.2763786 0.24312472 -0.30452418 0.31814885 -0.009600297 -0.009041277
0.25778848 -0.06918247 0.24669656 0.22957359 -0.20313503 0.22456728 0.2670882 0.30867618
0.10217648 0.29641268 0.2895573 -0.10825252 0.044107124 0.16993062 0.3624525 0.17526181
0.14567582 -0.21313514 -0.20064428 -0.14325872 -0.036455113 0.29143223 0.13375853 0.028507804
0.121308416 -0.20941612 0.36838874 -0.2942615 0.34968087 0.3534384 0.17618932 -0.29104415
-0.19416422 0.104405984 -0.17395505 -0.27412593 0.23605728 0.12584883 0.38142732 -0.19225955
-0.11978183 -0.26396522 -0.16295181 0.31887802 -0.14715935 0.18773977 0.07296755 0.0036917757

encoder.actor_encoder.net.mlp.2.weight f4 [256, 256]
00000000: 40ea f3bc 29bf 2dbd 763e d6bc e942 51bd
00000010: f009 263c 9d17 29bd 78c3 debc 9e52 5cbc
00000020: 8b52 5b3d 384d 603c c9a5 73ba 7d0f c2bc
00000030: 7573 5a3d c40b dc3c 0220 623c 8ee3 aa3c
00000040: f0e8 2c3d 6247 1fbd 5d06 06bd cb61 863c
00000050: f051 4a3d ac1b 7fbd 319b 07bb 28f5 853d
00000060: 039c 2cbd 24c0 0bbd d98d b53a 80b3 663d
00000070: acda 65bc 0383 783d 12a2 84bd 82ea dabc
00000080: 5d59 6f3d 14af 023b 8afc 6ebd 8997 9dbc
00000090: a316 e1bb 49c5 2dbd 1f12 a53c 66d6 c73c
000000a0: 62df f5bc 0c8a f1bc 300b 86bd df23 c0bc
000000b0: 169a c93d 822b 303d 4e92 233d 2d79 ac3c
000000c0: 922c 03bd 99f8 64bd 2c84 193c c7be 3d3c
000000d0: 0f90 e33a da2f 95bc f882 69bd 0ac2 073d
000000e0: e2b9 62bd cd42 25bc 51f2 f63c 8bdd 40bd
000000f0: 4579 0c3b 1f05 27bb 066d 793d 7576 26bd
00000100: 3a3f ac3c 78e7 eaba 088e 73bd f7ef 3d3d
00000110: 6bf8 fdbc 0ca4 07bd 1b5e e5bc e80b ac3a
00000120: 7a22 9c3b 2ac5 d4bc a1cc 57ba ea6b a13b
00000130: a9df 343d a63e 033d ef4d 67bd 149b 143d
00000140: 498a 033d 0e27 d3bb e4db 7abd 1ade 243d
00000150: d046 073d 2b98 84bb 1239 673c a4c0 babc
00000160: 45ba 423d 651c a13c 5b2e b53c 710b 8d3c
00000170: bdfc ca3c 7ba6 fbbc e278 1b3d faaf 273d
00000180: fa40 d93c 7672 32bb 13f6 f93c dc5e acbc
00000190: 437d 27bd 3481 dabc 6a0d 243d cfab 0f3c
000001a0: 9f07 0838 9336 ef3c d16c 66bd 42e6 763c
000001b0: f5e9 09bd d4f3 24bd 2ebc 07bc bafc 88bd
000001c0: 7c0e 093d 9353 013c 3654 823b d469 09bc
000001d0: ff04 96bd c9fc 98ba 45d2 0c3d 6122 313d
000001e0: 3471 5e3d 22e4 56bd c4d5 033d a037 e83c
000001f0: 0127 37bd fe2d 3dbd 960e 653c aa80 9abd
00000200: 2be3 0bbc 5552 463d 57c5 11bc 5127 663d
00000210: 8c8a e1bb 6cf8 873b 6ef2 0dbd 4ebd 2fbc
00000220: 4156 113d cd9a 923c 2946 6bbd ed98 0cbc
00000230: f660 2e3d b24a 5c3b ea13 eb3a 9641 343c
00000240: 9fe9 633a 340c 2e3d b264 e2bc 05a4 193d
00000250: 5088 513d 62c9 6b3d 0434 c83c 0a30 bbbc
00000260: df95 55bd 6e80 a7bc bdee b8bc b9d9 fc3c
00000270: a344 3ebd 21cf 34bc 69fd c83c 82c9 3bbc
00000280: 0f83 bbbc 295c bfbc 9cb1 8c3d a6d3 0b3c
00000290: 944f 443c 26fd 973b c9d2 66bb 7301 f43c
000002a0: 415b d1bc f4fc 653d b342 2bbd 9ac9 673c
000002b0: e950 153d 111c 6dbd 8d52 8f3c f50e 3dbc
000002c0: 4925 053d 40be 663d d663 d93c 2642 f9bc
000002d0: b1e7 783d 8219 a43c 97bc 583d 5316 92bc
000002e0: a675 31bd 9895 57bd cb1b 84bd c0c8 5b3d
000002f0: deea c43c ff0a 2c3d 104c 65bc c0b4 2ebc
00000300: bca2 7eb9 e3bc 58bd e41b 943c 61dc f63c
00000310: 8c0d 34bd ca03 01bc 487b 3ebc 770c 3c3d
00000320: 266d fdbb dac3 df3c 9428 6fbd a6a6 d03c
00000330: cb46 06bd 34dd 103d 7eed 293c 1a2f f3bb
00000340: 7ad7 16bd 6654 3b3d 04ca 6abd be7b 64bc
00000350: 0dca 38bd 6d7b e7bc 8bca 85bd cb03 5dbd
00000360: c758 32ba c923 5d3d c9cd d73c e309 2fbd
00000370: b0e9 4a3d b834 1cbd 4bcb 6ebd 0a52 033d
00000380: 9e03 5e3d f888 323c 9523 31bd 358f 3a3d
00000390: 7996 e4bc 64e4 66bd 2839 8abc d497 91bc
000003a0: 48fd 77bc 2adf 86bc 8cad 4bbd 6fcd 253d
000003b0: 2e9e a9bc 18ed fa3b 330a 453c 0cc5 99bc
000003c0: d1bf 093d 731c cd3b 9308 dd3b f982 68bc
000003d0: e350 36bd 8fb9 56bd 346d 153d c1d1 2f3d
000003e0: 2aff 453c c4e2 053d 931f 533d 0d06 f9bc
000003f0: 4301 1f3d 7db8 9b3c add7 da3c b5b0 8f3c
-0.029774785 -0.042418633 -0.02615283 -0.0510892 0.010134205 -0.041282285 -0.027192816 -0.013447432
0.053545516 0.013690285 -0.0009294418 -0.023689026 0.053332765 0.026861079 0.013801577 0.02086046
0.042214334 -0.038886435 -0.032720912 0.016404053 0.049394548 -0.06228225 -0.0020691867 0.065409005
-0.042140972 -0.034118786 0.0013851478 0.05632353 -0.014029186 0.060671818 -0.06476225 -0.02672315
0.058434833 0.001994078 -0.05834631 -0.019237297 -0.0068691536 -0.042424474 0.020150242 0.024394225
-0.030013744 -0.029484771 -0.065451026 -0.023454605 0.09843843 0.043010242 0.03993445 0.021053875
-0.032024927 -0.055901144 0.009369891 0.011581129 0.0017361658 -0.018211294 -0.057009667 0.033144034
-0.055353053 -0.010086727 0.030144842 -0.04708628 0.0021434587 -0.002548523 0.06089499 -0.040640313
0.021026243 -0.0017921766 -0.059461623 0.046371426 -0.031002244 -0.03311543 -0.027998975 0.0013126107
0.004764852 -0.025972921 -0.0008232091 0.0049261944 0.04415861 0.032042168 -0.056470808 0.036280707
0.0321143 -0.0064438647 -0.06124486 0.040250875 0.033026516 -0.00404646 0.014112728 -0.022796936
0.04754092 0.01966686 0.02211683 0.01721737 0.024778718 -0.030719033 0.03795708 0.04093931
0.026520241 -0.0027228869 0.030512845 -0.021041326 -0.040890943 -0.026672937 0.040051855 0.00876899
3.2432024e-05 0.029200828 -0.05625612 0.015069546 -0.033670384 -0.040271595 -0.008284612 -0.06688829
0.03346108 0.007893461 0.003977324 -0.008387048 -0.07325172 -0.0011672016 0.034380216 0.043245677
0.054307178 -0.05246366 0.032186285 0.028346837 -0.04471493 -0.04618644 0.013980528 -0.07544072
-0.008538048 0.04841836 -0.008897147 0.05618984 -0.006882971 0.0041494872 -0.034655027 -0.010726286
0.03548265 0.01789608 -0.057439957 -0.008581382 0.042572938 0.0033613858 0.0017935012 0.011001965
0.0008694175 0.042492107 -0.027635906 0.037509937 0.05115539 0.0575651 0.024438865 -0.022850055
-0.05214488 -0.020446982 -0.022574777 0.030865537 -0.046452176 -0.0110357115 0.024534898 -0.011461617
-0.022889642 -0.023359375 0.06869814 0.008534348 0.0119818635 0.004638332 -0.0035220853 0.029785847
-0.025556209 0.056149438 -0.041811656 0.014147187 0.036454115 -0.057888094 0.017495418 -0.011539211
0.03250626 0.05633378 0.026536863 -0.03042705 0.060767833 0.020031694 0.05291423 -0.01783291
-0.04332509 -0.052632898 -0.064506136 0.053658247 0.024037775 0.042002674 -0.0139951855 -0.010663211
-0.00024283951 -0.05291451 0.018079706 0.030134382 -0.04395823 -0.007874439 -0.011626072 0.045910325
-0.007733959 0.027315069 -0.058388308 0.02547009 -0.032782357 0.035367206 0.010371564 -0.0074213864
-0.03682659 0.045734785 -0.057321563 -0.013945518 -0.045114566 -0.028257096 -0.06532773 -0.053958695
-0.000680339 0.053989206 0.026343243 -0.042734038 0.049539268 -0.038136214 -0.058299344 0.03206066
0.05420267 0.010896914 -0.043246824 0.04554673 -0.027903782 -0.056370154 -0.016872957 -0.017772593
-0.015136071 -0.016463835 -0.049726054 0.04047912 -0.020705309 0.0076576583 0.012026357 -0.018770717
0.033630196 0.006259495 0.006745407 -0.014191383 -0.044510733 -0.052423056 0.036481097 0.042924646
0.012084762 0.032686964 0.051543783 -0.030398393 0.038819563 0.01900887 0.02671417 0.017540315

encoder.actor_encoder.net.mlp.2.bias f4 [256]
00000000: e8f1 0d3d 765d d0bb 4ea1 cf3c 7312 463d
00000010: c778 453b 21cd 1d3d 63fb 813d 4659 2ebd
00000020: 8b9e e9bc 32f0 803c 6939 da3c a8f0 1dbd
00000030: f06b 813c 2762 483d a380 633d aeee 26bd
00000040: 5b69 043d 9073 4c3d a729 853c 7a00 80bd
00000050: d4f7 6abc 06ee 7ebd c17d 01bd f258 b63c
00000060: 457a f8bb 6b4f 43bd b93f f2bc 9d30 5abd
00000070: f96e 7d3b 3f98 223d ee1d e2bc 1c3b 673d
00000080: f538 003d f038 053c 557d 643d d211 7d3c
00000090: 54f9 fcbb 3e1a 8a3c fc3b c23c 8cc2 5c3d
000000a0: c90b 943b e378 193d 8024 353d a733 4b3c
000000b0: 6bfe 523c 404a fdbc b05d 82bd 0728 2a3c
000000c0: 781f b93b ab3d 6e3d 724c b23c 92df 08bd
000000d0: eced 8abc 326c 25bd 0fe7 91bc d61f dfbc
000000e0: f64d 8ebb 9d84 f0bc ffd2 06bd 896d 4eb9
000000f0: 9916 4dbd 8fa9 573a 4a9d fb3c d7cd 7dbd
00000100: 0747 48bc f591 523d 1fe7 2a3c 6540 5c3d
00000110: 5011 4abd 9f59 6ebb 34b1 423d 5e86 46bd
00000120: 3aab bf3c f2f7 23bd e652 32bc 24b5 66bd
00000130: 5ee1 053d 67f9 393c 9ce9 5fbc 5634 f2bc
00000140: 7ac4 8bbc 9c1b 28bc e92c bd3c 22f1 1ebd
00000150: 4bee 933a 0ad3 263d b10b b3ba ef8e b33b
00000160: 02a3 7d3d de67 4f3d 22f9 73bd cf51 003d
00000170: 438c 06bd 3d54 ffbc cfb0 123d ce6f 40bc
00000180: b798 5cbd a994 a3bb ede7 323d b1ee 6fbc
00000190: 27ca 75bb 8bb4 75bd 2f89 b9bc 6f86 133d
000001a0: ea52 b93c 1fb3 b3bc fca7 ddbc 03c9 b73c
000001b0: 6ba2 4dbd c8c9 9b3c 4ca0 673c 5970 cf3b
000001c0: 6d89 17bd 9aa3 fabc 8d98 b23c a2e5 36bd
000001d0: 4ee5 04bd 6b16 ddb7 94da f4bc f60a 4ebd
000001e0: f83b ee3c 316c 55bd 34e1 293d 39a9 df3c
000001f0: 2af0 49bd 4725 0f3d 358c f3bc 2890 06bd
00000200: ad7f ba3c cfb0 283c f4c7 37bd 4de2 68bd
00000210: 6a72 0ebd 4151 333d 9382 5b3d 5d81 ea3c
00000220: 6a2e 6dbc 9a2f e33c 86fc 743d 780e 063d
00000230: 4753 483c 860a 75bd f995 51bd 036d 88bd
00000240: f71c 62bd 97ff 04bc 1adc 333d 45ee d4ba
00000250: 0570 663d 6813 723d a568 833d 8f83 abbc
00000260: bfa5 4d3d 39ad f1bb bdda 493d ca83 87bc
00000270: 14e2 7f3c 6448 dbbc 3024 043d e330 85bc
00000280: f425 bebb 5afb 293d 0781 73bd 7f57 643d
00000290: a84b 0a3d 3ca6 4a3d 7e4c d8bc 3106 bcbb
000002a0: 829b 99bc a38a 28bd 490f a3bc b03b e33c
000002b0: fc42 36bd efb7 343d 811d 2dbd f81a 8b3c
000002c0: df8c 16bd d16f ebba e854 88bc 122a c73a
000002d0: 03e0 003d 2779 223d c90d 873c c7f3 583c
000002e0: 181d 403d cda1 47bd aea3 bfb8 578b 23bc
000002f0: 34e4 053d bebb c2bc d834 40bc 9251 c33c
00000300: 8d67 42bd faf6 0bbd a462 29bd e94c 6e3d
00000310: 2d62 8b3b 1ede 55ba 2f48 fe3c 7e72 8bbc
00000320: a681 203c ec0b c53c d7bb 433d d5eb 5dbd
00000330: 8415 d93c f556 51bd 60e1 233d 007e 3abc
00000340: 1b23 c33c 0e4e b3bc f69b 70bb 8396 903c
00000350: 0c7f 89b9 a760 2dbd f447 86bc f05d 903b
00000360: c53a 18bd 27de 1abd 6ca0 1e3d f0b5 05bd
00000370: 42ad 393d a2d5 04bd 1980 003d 9b88 55bd
00000380: b37b 0fbd e9c1 063d 14bf 8fbc 609f 113c
00000390: e975 2d3d 9f9f 4b39 ccdc efbc a78f c8bc
000003a0: 4613 463c 1c91 243d a087 65bd d10a 4c3d
000003b0: bfbf 0dbd 3e22 353d 73f0 11bc d991 793d
000003c0: 5f54 cebc 6b6e 523d 8ccc 65bd 874b 273d
000003d0: aaed 11bb da3d 9dbc 057a c43c 572a 31bc
000003e0: bc55 583b 3fd3 3ebd 7ea4 183d ad5b 5a3d
000003f0: 2def 35bd 319d 88bc cc3c 263d 0f8a 67bd
0.034654528 -0.0063587977 0.02534547 0.04835744 0.0030131803 0.038525704 0.06346776 -0.042565607
-0.028517982 0.015739534 0.026638703 -0.038559586 0.015798539 0.04892173 0.0555426 -0.040754966
0.032327037 0.049914896 0.016255213 -0.06250091 -0.014341313 -0.062238716 -0.03161407 0.02225921
-0.007582935 -0.04768316 -0.029571401 -0.053269017 0.0038670881 0.039695974 -0.027602162 0.056452855
0.03130432 0.008131251 0.05578359 0.015446143 -0.007720152 0.016858216 0.023710243 0.05389647
0.0045180065 0.037468802 0.044224262 0.012402452 0.012878041 -0.030919194 -0.06365526 0.01038552
0.0056495033 0.05816428 0.021764968 -0.03341634 -0.016959153 -0.040386386 -0.017810373 -0.02723686
-0.0043427898 -0.02936011 -0.032916065 -0.00019686496 -0.05007038 0.00082268653 0.03071465 -0.061963882
-0.0122239655 0.051408727 0.01043108 0.05377235 -0.049332917 -0.0036369336 0.047532275 -0.048467986
0.023397077 -0.04003138 -0.010884022 -0.056325093 0.03268563 0.011350966 -0.013666537 -0.029565971
-0.01706146 -0.010260489 0.023092704 -0.03880418 0.0011286227 0.040728606 -0.00136601 0.0054796855
0.061923034 0.050636165 -0.059563763 0.03132802 -0.032848608 -0.031168098 0.03581315 -0.011745406
-0.053856578 -0.004992087 0.043678213 -0.014644311 -0.0037504525 -0.059986632 -0.022648422 0.036016878
0.022622544 -0.021935998 -0.02705764 0.022434717 -0.050203722 0.019017115 0.014137339 0.0063305316
-0.036996294 -0.03059559 0.021801258 -0.04465259 -0.032445244 -2.6355692e-05 -0.029889382 -0.050303422
0.02908133 -0.052105132 0.041474536 0.027302371 -0.049301304 0.03494766 -0.029729942 -0.032852322
0.022765959 0.010296061 -0.044868425 -0.056856442 -0.034777083 0.04377866 0.053591322 0.028626138
-0.014476398 0.02773266 0.059811138 0.032728642 0.012226886 -0.05982449 -0.051168416 -0.06661417
-0.055203404 -0.008117578 0.043911077 -0.0016245326 0.056259174 0.05910054 0.06416444 -0.020936755
0.050206896 -0.007375386 0.04928087 -0.016542334 0.015617866 -0.026767917 0.032261074 -0.016258663
-0.005802864 0.041499473 -0.059449222 0.055747505 0.033763558 0.04947494 -0.026403662 -0.0057380428
-0.01875091 -0.04114784 -0.01990475 0.027738422 -0.044497475 0.044120725 -0.042264465 0.016980633
-0.03675544 -0.0017962401 -0.016642049 0.0015195033 0.031463634 0.03966632 0.016486065 0.013241715
0.046902746 -0.04873829 -9.1380774e-05 -0.009981952 0.032688335 -0.023771163 -0.011731349 0.023842607
-0.047462035 -0.034171082 -0.041353837 0.058178816 0.004253647 -0.0008158403 0.03104028 -0.017022368
0.009796536 0.024053536 0.04778656 -0.054179985 0.026499517 -0.05110832 0.040009856 -0.01138258
0.02382045 -0.021887805 -0.0036714054 0.017649895 -0.00026225334 -0.042328503 -0.016391732 0.0044057295
-0.037165422 -0.037809517 0.03872721 -0.032644212 0.045331247 -0.0324303 0.031372163 -0.05213223
-0.03503008 0.03289977 -0.017547168 0.008888096 0.042348776 0.00019419052 -0.029280089 -0.024482561
0.012089556 0.04017745 -0.056037545 0.049815003 -0.03460669 0.04422211 -0.008907425 0.060930107
-0.025186716 0.051374834 -0.056103274 0.040843513 -0.0022266903 -0.019194532 0.023983965 -0.010813317
0.0033010086 -0.04658818 0.037266247 0.053310085 -0.04441755 -0.016676517 0.040585324 -0.056528147

encoder.critic_encoder.net.mlp.0.weight f4 [256, 7]
00000000: e6b5 6f3d d361 983d f814 e1bd 5ebf a93e
00000010: f743 0bbe ac34 a2bd 6802 9ebd a775 bf3e
00000020: 4139 7c3e 8771 9f3d d7a8 c23e abd3 be3d
00000030: 40c5 b8bd e7f8 2abe 4897 8abe e0f7 7fbe
00000040: d7e1 cb3d 96cf 30be a059 ae3b 7d46 d03c
00000050: fb88 2ebd 392d 493e 51f9 8d3d 03ae c1be
00000060: c57e c13e 6589 713e b720 adbd a2d7 813e
00000070: e978 203e c6e4 9ebc 3387 2f3e 5654 99be
00000080: 3f1b b53e 9565 9c3d e503 96be 18ad bcbe
00000090: c8ad 003e 9131 e6bd dd02 bbbe cacc 81be
000000a0: cdf1 8abe c401 263e 6341 603e 101b 64be
000000b0: f20d 9dbd 0bee ad3d 29a8 f2bd 3a74 81be
000000c0: aacc 573e cd5c 6a3c 7e47 a4be c43a 8a3e
000000d0: c726 a03e 294c 3f3e e5a9 bdbd d7fd 90bd
000000e0: 1812 c03e 2bc1 ad3d e038 b43e 0410 8c3d
000000f0: 478b f1bc 1f25 a5be 72e6 1b3e 70b5 8cbe
00000100: 9e3a 753e d308 f6bd e0c7 81be 9ed1 a3be
00000110: c560 82be b955 4dbe 9abe b5be e695 953e
00000120: b4e6 8c3e 3eaf a43c ae56 dbbe 4b8b b33d
00000130: 5359 9f3e 3ce0 22bd e9b7 1b3d d35b 30be
00000140: 7d6f 793c e04a 1bbd 8a63 8b3e 9478 0fbe
00000150: 47af 48be 536d 443e 1d6c 2abd 6e9b 4ebe
00000160: a8a4 193e 75f2 e7bc 2376 dcbd 47f7 b5be
00000170: 3541 e23d 95e1 05bd 1342 9fbe f959 943e
00000180: 1aba 963e ab87 2a3e e2e5 b3be 04e5 8ebe
00000190: ecba 0c3e b747 bcbe 71ba 1cbe a844 7ebe
000001a0: 0fe2 ea3e b761 73be f838 843e 7b18 d1bd
000001b0: 9a81 6b3e 3d0c 903e 91ec 9ebe 3712 9bbc
000001c0: f267 27be 5512 313e 8975 99bd 4dfb da3d
000001d0: 0eaa bd3d 3704 bcbe 8d00 8b3e c5e6 833d
000001e0: a938 41be f99a e83d 2496 a8bd 8043 3d3e
000001f0: 73b5 3c3e d8d8 d7be ea8a 67be 0e45 90be
00000200: 8dc2 be3e 5047 773e 79f6 b03e 761d 55be
00000210: 343f a4be ea81 883c 727a bb3e 6ec2 a9bd
00000220: 4eee 5c3e b1a2 7cbe de1e 703c b9bc cc3d
00000230: a3bb 1dbe 1474 26be fef4 4f3e 3784 4fbe
00000240: 5b5a 8b3e 4434 91be 8721 98be ef49 a5be
00000250: 3490 24be 80a9 c6be 5cfb 643e 718e 7cbe
00000260: ac30 9c3d 2183 8c3e 13d6 d9be 3c3f 44be
00000270: 0a6f 9dbe 5065 803e b222 87be 3e2d 87be
00000280: d342 f5bd 3c98 bfbe 6dd2 54be 927d 923e
00000290: 8274 113d 27a4 163e 5a40 59bd 8634 a3be
000002a0: b86f a53d 02e3 4f3e f2d3 9b3e 05c8 b73d
000002b0: 7aca c53e 12b7 3fbe d970 c2be d68e bebe
000002c0: 9b71 febd 7f4c 283d 14bd 30bd 0c80 953e
000002d0: 169e d2be dcbb 8dbe 1950 e9bc 7389 58be
000002e0: c3f8 27be a78c 393e 1215 57bc 3648 80bc
000002f0: fd31 7fbe 98c3 a7be bb93 ae3e a36d 7bbe
00000300: 527b e1bc 8e03 83be cbf8 e03d e930 b8be
00000310: e919 893e 2814 03be 2af7 3bbe b103 82be
00000320: e59f e73d 6d68 c33e 17b9 de3d 6de0 a4be
00000330: 8f54 f9bd ec7a f8bc 36dc bc3d 676b 013d
00000340: 46d6 113d 3676 093e 082b e93d e532 abbe
00000350: 9e7b 48bd b9b8 be3e 3fa9 6b3a c5bb c83e
00000360: 3c70 5c3d 6891 8cbe 29c8 e83d 89c6 963e
00000370: bfb8 783e 27e9 0cbc 7c86 ac3d 6138 a43e
00000380: e747 323e 91a5 b23d ddfb 8e3e d5d1 fd3d
00000390: 4357 c83c aa79 2c3e d7d9 343d e7aa 6f3e
000003a0: 61ff 8abd 355c ac3e 35f0 ac3e 1b55 bcbe
000003b0: 37ac 5ebe d4f3 243e 82f9 ddbd e5b9 7dbe
000003c0: 138e c4bd ad79 67be a243 61be 6f92 453c
000003d0: 6ef9 e0be 8cc0 c5bd f691 a63d ee6f 91be
000003e0: 4faa 393e 7978 823e 4520 063e db2c babd
000003f0: 947e 15be 01b6 913e 2a08 3ebe c262 54be
0.05852308 0.074405335 -0.109903276 0.33153814 -0.13600145 -0.079202026 -0.07715303 0.3739445
0.24631216 0.077853255 0.3801944 0.09317716 -0.090219975 -0.16696511 -0.27068543 -0.249969
0.09955185 -0.17266688 0.0053207427 0.025424236 -0.042611104 0.19646157 0.06932319 -0.37828073
0.3779203 0.23587568 -0.084535055 0.25359827 0.15671124 -0.019396197 0.17141418 -0.29947156
0.3537235 0.07636563 -0.29299846 -0.3685081 0.12566292 -0.11239923 -0.36525622 -0.25351554
-0.27137604 0.16211611 0.21899943 -0.22275949 -0.076686755 0.08492669 -0.1184848 -0.25283986
0.21074167 0.014304352 -0.32085794 0.2699796 0.31279585 0.18681397 -0.092609204 -0.07079666
0.37513804 0.084841095 0.35199642 0.06838992 -0.029485358 -0.32254884 0.15224627 -0.27482176
0.23948142 -0.12013402 -0.25347805 -0.31995863 -0.25464454 -0.20052232 -0.3549698 0.29215926
0.27519763 0.020103093 -0.4283957 0.087668024 0.31122836 -0.039764628 0.038017187 -0.17222528
0.015224335 -0.037913203 0.2722438 -0.1401084 -0.19598113 0.19182329 -0.04160701 -0.20176479
0.15004218 -0.028313855 -0.1076472 -0.3554022 0.110475935 -0.032685835 -0.31105098 0.28974894
0.2943886 0.16653316 -0.35136324 -0.279091 0.1374318 -0.36773464 -0.15305497 -0.24830878
0.45875594 -0.23767744 0.25824714 -0.102097474 0.22998658 0.28134337 -0.3103986 -0.018929584
-0.16348246 0.1729215 -0.07493121 0.10692463 0.09260951 -0.36721966 0.27148858 0.064405
-0.1886927 0.11357684 -0.08231762 0.1848278 0.18428592 -0.42157626 -0.22611585 -0.28177685
0.37257805 0.24148297 0.34563044 -0.2081202 -0.3207947 0.01666351 0.36616856 -0.08289038
0.21575281 -0.24671437 0.014655797 0.099969335 -0.15403609 -0.16255218 0.20308301 -0.2026528
0.27217373 -0.28360188 -0.2971308 -0.3228297 -0.16070634 -0.38801193 0.22361511 -0.24663712
0.07626471 0.27443793 -0.42546138 -0.19164747 -0.3074878 0.25077295 -0.26393658 -0.26401705
-0.11975636 -0.37420833 -0.20783396 0.28611428 0.0355115 0.14711057 -0.053039886 -0.3187601
0.08077949 0.2030144 0.3043514 0.089736976 0.3863104 -0.1872218 -0.3797672 -0.3721835
-0.12424012 0.041088577 -0.04314907 0.29199255 -0.41136235 -0.27682388 -0.028480576 -0.21146183
-0.16403489 0.18120061 -0.013127582 -0.015659433 -0.24921413 -0.32766414 0.34097084 -0.24553542
-0.027524624 -0.2558865 0.109849535 -0.35974815 0.2677758 -0.12800658 -0.18356004 -0.2539344
0.11309794 0.38165608 0.10875147 -0.32202473 -0.121743314 -0.030332051 0.092216894 0.031596567
0.035604738 0.13424 0.11385161 -0.33437267 -0.048946016 0.37250307 0.0008989758 0.39205757
0.053817973 -0.27454686 0.113663025 0.29448345 0.24289225 -0.00860051 0.08424088 0.32074264
0.17410241 0.087229855 0.2792653 0.12393538 0.024455672 0.16843286 0.04415306 0.23405038
-0.06786991 0.33664098 0.33777013 -0.3678368 -0.21745382 0.16108638 -0.108386055 -0.24777944
-0.09597411 -0.2260501 -0.21998456 0.012058838 -0.439403 -0.09655866 0.081333086 -0.28405708
0.18131374 0.25482538 0.13098247 -0.09090587 -0.14599067 0.2845917 -0.18557802 -0.20740798

encoder.critic_encoder.net.mlp.0.bias f4 [256]
00000000: fa58 a1be 8ea3 9e3e e6e6 89bd 577f 5c3e
00000010: 420f 963e d2d8 cebe de99 edbe f194 abbe
00000020: dcdc af3d beb8 3cbd 3bcb 43be a052 29bd
00000030: 9105 723e 3e21 0abd 9017 76bd d8df 91be
00000040: 66a6 7bbe 2e6f 31bd c059 843c 6b70 633e
00000050: 26e2 b13e ca74 77be 0ebb d2be bae2 1b3e
00000060: 1d82 28bd 0240 913e 1974 70be 23b6 363e
00000070: 7061 363e f1c2 2b3e eef7 adbe d410 9fbe
00000080: 3ba5 dd3d 55ee 66be 5d01 973e 5107 673e
00000090: 416a 0cbe da23 dd3e b438 39be 2517 763e
000000a0: aa62 a83e 9fb8 96be fee4 7bbe 24b2 ce3e
000000b0: 80e2 483e 3004 b63e d01e a13e 1825 cd3d
000000c0: 4f84 88be 2c68 473e 32f8 e33e 5abf f13c
000000d0: 0416 8ebe 9930 a8be 1d5a 863e 8400 35bc
000000e0: 5d70 84bd a13e 04be 941c 9dbe 8497 9f3e
000000f0: 1f80 c43d 7c4a 6a3e 92d1 623e 16a9 61be
00000100: ad8b b0bd 7a28 223e 431f 97be f36e 8abd
00000110: 5521 6c3d e86a 1ebd 3712 a4be cdcf 1d3e
00000120: 6e60 aebd c9fa a53e a48e c9bd e7a1 f8be
00000130: a4e3 4a3d 41b1 21ba 0810 5ebe f8c5 7e3e
00000140: 337f 01be 53dd cf3e eb43 a3be 4699 a53e
00000150: aef0 47bd 5633 10be 7902 61be b945 c4be
00000160: cc48 15bb 4236 80be 1921 12be f78e a9bd
00000170: 6a85 a4be 4a3d d73d 0891 6d3e c2c2 6d3e
00000180: 06f1 a93e 090f 8fbb d1fd 313d 4416 5b3e
00000190: 88ec 3dbe cbf3 14be 634f 67be c06e 8bbe
000001a0: 8363 02be 47aa d63e c187 98be 4cc4 09be
000001b0: ea95 d33c 8f5f fb3e 38d6 e8bd c103 e7bd
000001c0: e015 cdbe 58a6 d3be 9149 c03e 2aad 78be
000001d0: 8739 24be fe61 163e 2aeb 6fbd a6d9 39be
000001e0: 7795 433e 58c2 f7bc 2566 503e a56f 413e
000001f0: 43a8 be3e 845d 96be d066 0cbe 62cc a63e
00000200: b851 b9bd bc9f 823e 6711 84bc ae02 ebbe
00000210: 3b62 073e e6d3 a3be 9d62 d3bd a8ff a83e
00000220: b194 9a3e f203 a0be 85cb 72be e13d e13e
00000230: 2cf4 9cbe 0981 8b3e 0425 f03d b13d b3be
00000240: f431 613e 78d5 253e d1ba 413e c7c4 2ebd
00000250: e765 fdbe 8fb2 19be 6599 a13d c502 68be
00000260: 96eb 9bbe 9a91 a0be 7adb 5bbe 251d b93e
00000270: 1bda 8bbd bee5 c23e fb72 623e 209c 9ebe
00000280: 7644 febd 3d3c d83e 3af3 a93c 423d 58be
00000290: 8be0 3f3d 496d cdbe 6fd8 42bd 40bc 90be
000002a0: 6111 70be 0b07 88be d3e0 cc3e 91bd 253c
000002b0: c5ad b13d a4da 4e3e 3e85 3bbe 78b9 123e
000002c0: ca48 bbbe 04c0 57be 8042 b5bd 99f6 f53d
000002d0: 4d5c e0bd ae61 6c3c fec1 10be 1dad 953e
000002e0: d48a a6be 9229 9f3e 3aba f5bd 5847 f7be
000002f0: a303 7d3e 3e94 5bbe 42f2 d6bc 1ed5 19bd
00000300: d40a a7be a8a2 f8bd 6cbc b7be 1107 953e
00000310: 64d2 52bd 74d7 5f3d 8040 b43d adc3 863c
00000320: 05f6 a23e 1d89 20be 587f 423e 5e3c ebbe
00000330: 31e3 9abe 6012 91be 47ce 933e 043a 443e
00000340: 87f0 e6be 52c6 583e 990b 0abe bb02 c03e
00000350: e0af 6c3d aed3 22be e552 273e f130 8d3e
00000360: 2049 a33e b638 ea39 6a02 263e cedb 66be
00000370: cc80 6c3e 9293 c6be e2f9 61be c012 fcbd
00000380: f0b1 8dbe 6b6f 5a3e 9c73 8a3e 8edd a13e
00000390: d452 5cbe c55f 87bd e8ce 573e 41ee 43be
000003a0: 7157 10be 7e0b 4f3d a609 cabd d3eb bc3c
000003b0: 225d c03e 52d4 f9bd 8815 0b3d fe9c 4b3e
000003c0: 8cad afbe 1823 d4be 1ad3 353d e7e2 853e
000003d0: 8fdb cf3e 56ad a53d 607c 91bd 2584 1a3e
000003e0: 3c80 003e f09f 81be 9ebc 60be fdb3 c5be
000003f0: d713 9abe 08a5 82be 5d40 703d 890e ed3e
-0.31513196 0.30984157 -0.067334935 0.21532951 0.29308516 -0.40399796 -0.46406454 -0.3351207
0.085870475 -0.04607462 -0.19120495 -0.041338563 0.23634936 -0.03372311 -0.060081065 -0.28491092
-0.24575195 -0.04331892 0.016156077 0.22210853 0.3474285 -0.24165645 -0.41158336 0.15223208
-0.04113971 0.28369147 -0.23481788 0.17842917 0.17810607 0.16773583 -0.33978218 -0.31067526
0.10822531 -0.22551854 0.29493228 0.22561385 -0.13712408 0.43191415 -0.18088037 0.24032266
0.32887775 -0.2943773 -0.24599072 0.40370286 0.19617653 0.3555007 0.3146882 0.10016841
-0.26663443 0.19473332 0.44525295 0.029510189 -0.27751172 -0.32849577 0.26240626 -0.011047486
-0.06466744 -0.12914516 -0.30685866 0.31170285 0.0959475 0.22879976 0.22150257 -0.22037157
-0.08620391 0.15835753 -0.29516038 -0.06759443 0.057648975 -0.038676172 -0.32045147 0.15411301
-0.08514486 0.32417896 -0.0984166 -0.48561022 0.0495335 -0.00061680755 -0.21685803 0.24880207
-0.12646179 0.40598544 -0.31887755 0.323435 -0.048813514 -0.14082083 -0.219736 -0.38334444
-0.0022778986 -0.25041395 -0.14270438 -0.082792215 -0.32133037 0.10509737 0.23199856 0.23218825
0.331917 -0.004365806 0.04345495 0.21395212 -0.18547261 -0.14546125 -0.22588877 -0.27232933
-0.12733273 0.41926786 -0.29791072 -0.13453788 0.02582832 0.49096343 -0.11368984 -0.11280013
-0.40055752 -0.41337848 0.37556127 -0.24284807 -0.1603757 0.14685819 -0.05857388 -0.18149433
0.19099985 -0.030244038 0.20351465 0.18890245 0.37237749 -0.29368222 -0.13711095 0.32577807
-0.0904879 0.25512493 -0.01612158 -0.45900482 0.13221066 -0.31997603 -0.10321543 0.3300755
0.30191568 -0.3125301 -0.23710449 0.43992522 -0.30655038 0.27246884 0.1172581 -0.35008004
0.21991712 0.16194713 0.18918921 -0.04266813 -0.49491808 -0.15009521 0.07890586 -0.22657306
-0.30453175 -0.31361085 -0.21470442 0.36155048 -0.0682871 0.38065904 0.22114174 -0.3097849
-0.12415402 0.42233458 0.020745862 -0.21117118 0.046845 -0.4012244 -0.04756969 -0.28268623
-0.2344413 -0.26567873 0.40015277 0.010115997 0.08675722 0.20200592 -0.18312547 0.14328563
-0.3657897 -0.21069342 -0.088505745 0.120099254 -0.10955105 0.0144275855 -0.14136502 0.29233637
-0.32527792 0.31086403 -0.119984105 -0.48296618 0.24708419 -0.21443269 -0.026238564 -0.03755676
-0.3262545 -0.12140399 -0.35885942 0.29106954 -0.051470175 0.05464883 0.08801365 0.016450727
0.31828323 -0.15677305 0.1899389 -0.45944494 -0.30251458 -0.28334332 0.28868315 0.19162756
-0.45105383 0.21169403 -0.13480987 0.37502083 0.057784915 -0.15901062 0.16340216 0.27576402
0.31891727 0.0004467421 0.16211858 -0.22544786 0.23096007 -0.38784462 -0.22067979 -0.12308264
-0.27674818 0.21331565 0.27041328 0.31614345 -0.21515971 -0.066100635 0.21075022 -0.19133855
-0.14095856 0.05054807 -0.098651215 0.023061669 0.37571055 -0.121987 0.03395608 0.19884107
-0.34312093 -0.41433024 0.044390775 0.26149675 0.40597197 0.08089702 -0.07103801 0.15089472
0.12548918 -0.25317335 -0.21946952 -0.38613883 -0.30093262 -0.25516534 0.05865513 0.46300152

encoder.critic_encoder.net.mlp.2.weight f4 [256, 256]
00000000: 76cf 75bc a8b5 82bd a711 eb3b 4b11 4a3c
00000010: c2f7 fc3c 558d afba 5916 66bd 4e0d 963c
00000020: 8671 f53c a4ed 0cbd dda5 4c3c 6f82 793d
00000030: 26c7 ae3c 7792 fcbc 258b 9aba e853 a63c
00000040: f6f3 393d b503 2c3d 97db a4bc 603e 8bbc
00000050: 3b65 87bd fe36 f8bb 20c5 0c3d f0cf 5fbd
00000060: 11d8 8cbc efd0 963c 38f7 f03c 7053 2abd
00000070: 010b 8bbd 5476 2d3d 348d 2fbd 1208 b0bc
00000080: 73fb 093d a114 763d d3e6 913b 6bc5 f6bc
00000090: 7f37 71bd 8f08 bcbc e137 663d d027 163d
000000a0: 6a96 903b ba5e dfbb e53e 60bd 570a d7bc
000000b0: 09fb c4bc 1505 213d c54b 02bd bead 6e3d
000000c0: afe7 db3c 4bd3 2b3d f4b0 463d 7bd0 d0bc
000000d0: 3d50 813d 771a 1dbc 373c 99bc 99f4 85bc
000000e0: a682 7c3d 5920 15bd 925f cdbc 4e76 f2bc
000000f0: d851 54bb f8c1 1fbd 131e 0d3b 6dff 85bd
00000100: 3ee9 853d c24e 22bc dc51 32bd 0f3e 21bd
00000110: d266 3a3d 3890 863d 0194 9fbc 6743 803d
00000120: 875c 6c3d 23d2 4cbd 7246 133d 5876 923b
00000130: 0cad c23c b9c7 0bbd 5f85 943b 9322 0dbd
00000140: 17f4 be3c 3ce2 8a3a b6a2 5abd f4fc 16bd
00000150: 0a9e 933c f08f 0dbd d048 41b9 6e9e b63c
00000160: 641c b33c 5bd5 e0bb a2b1 83bc ac16 d239
00000170: 193e 593d bbe6 083d 3835 2fbd 469e 36ba
00000180: 0b3b 56bd 112d 1dbd 969b fb3c c8ed 6d3d
00000190: e270 d63c e8a0 9d3c 25cd 863c cb29 07bd
000001a0: 5bff 173d a48a 103c 6fb4 553d e3cc 463d
000001b0: 1d53 02bd cd70 2dbd 8cc6 1ebc f049 533d
000001c0: 3c33 593c 1a5f 4fbc aa1f 79bd 7fa6 653c
000001d0: 83cb 073d 3cf7 273d 3dd2 6b3d 36c5 1bbd
000001e0: 2de7 7dbd 71aa 163d c4ce 4c3c bb23 223c
000001f0: cd3c 753d 431c 7a3d beb4 bdbc 5964 be3c
00000200: fbdb 54bd b787 52bd 148e 25bd 69f8 3b3d
00000210: 53c8 dfbc 66ff 063d a95d a3bd 6626 4cbd
00000220: e72f 8bbc 90e3 edbb 565e 2cbd 2bf3 083d
00000230: 6ff8 56bb 390b 993d 768a 37bd 83aa 093c
00000240: 0a81 d73c c2b4 9339 50dd 9dbc 765e 22bc
00000250: 2479 34bc c138 09bd 37c6 8bbb 2d4d 2a3d
00000260: df14 533d c72c 60bd b199 6c3d 7c40 48bd
00000270: 88db 2d3d 5c73 3ebc 634c 403d 3700 7ebc
00000280: 7907 763d a7b4 33bd e8e1 cabc 672d 733d
00000290: 88ca 053d 1f21 f53c 0652 ccbc 8f6f 5bbd
000002a0: 5059 d4bc 5746 69bd 9b65 5abd 78bd 093d
000002b0: 70a7 5a3d b93f 86bd 5490 613d 6a6c f3bc
000002c0: 31e9 9d3c 39bb 203d d9df 69bd 2154 2b3c
000002d0: 1e0f 4abc 9d56 523d 56ca 2d3d d539 c83c
000002e0: 628c adbc a515 22bd 05d4 4f3d 43e3 f13c
000002f0: 0519 55bd 93e6 3d3d b8eb 8fbb b133 d6bc
00000300: 0a07 cb3c 9423 5b3d bab5 f63c b91d 493d
00000310: 192e 4abd cbc7 033d 71d8 09bd ef42 9b3b
00000320: 1196 dbbc 22ec 2b3d d118 abbc 8a92 4b3c
00000330: cc55 21bd f0e3 363c 06a9 283d 9fbe bc3c
00000340: 064b 3dbc 503f 5cbb af92 20bd ab44 d9bc
00000350: 347c 9d3d 80da 10bd dd9b 77bc afef 203d
00000360: 78f0 97bc 17dc 233c 49cf 6f3d 4375 68bd
00000370: 67f2 653d 7d04 593d 5d8a e6bb 1cc5 223d
00000380: af93 863d 3eeb df3c 6368 3c3d 3582 09bd
00000390: aa7c 1a3d e164 4fbd 29c7 293c f4ca 613d
000003a0: c5ec 953c aedd 4cbd e678 d33c 3e30 18bc
000003b0: 2b9b 63bc 358e 723c 6929 453d 8c40 85bd
000003c0: b4f9 e7bc 42b2 063d ac3c 443d dca1 dfbc
000003d0: a60a 60bd 677a 68bd 1555 363c 5ed8 163d
000003e0: 92d3 cbbc 10cc 09bd f0fc 093c 5ffb 7b3d
000003f0: c91c acbc 068f 513b e05a 8bbc f5d4 313b
-0.015003076 -0.063823044 0.007173735 0.0123332245 0.030879859 -0.0013393561 -0.056173656 0.018316891
0.029961359 -0.03440632 0.012490717 0.060915407 0.021335196 -0.030831559 -0.0011790736 0.020303681
0.045398675 0.041995723 -0.02012424 -0.016997516 -0.06611105 -0.007574915 0.03436768 -0.054641664
-0.017192872 0.018410174 0.029414758 -0.04158348 -0.06789208 0.042349175 -0.04285927 -0.021488223
0.033687066 0.060078267 0.004452565 -0.030123433 -0.058890816 -0.0229533 0.056205634 0.036659062
0.004412462 -0.006816712 -0.05474748 -0.026250048 -0.024045484 0.039311487 -0.03181054 0.058271162
0.026843874 0.04194955 0.0485086 -0.025490036 0.06314132 -0.009588829 -0.01870547 -0.016351985
0.061648034 -0.036407802 -0.025069986 -0.029597428 -0.0032397415 -0.039003342 0.0021532818 -0.06542859
0.06538628 -0.009906473 -0.0435351 -0.039365824 0.045508213 0.06570476 -0.019479753 0.06262856
0.05770543 -0.05000509 0.035955854 0.004469674 0.023764156 -0.034126017 0.0045325006 -0.0344568
0.02330975 0.0010595988 -0.05337783 -0.03686233 0.018019695 -0.034561098 -0.00018433039 0.022292342
0.021864124 -0.0068613715 -0.016075913 0.00040071213 0.053037737 0.033423167 -0.042775363 -0.00069663336
-0.0523024 -0.038373057 0.030713838 0.058088094 0.026176874 0.019241765 0.016455242 -0.03299884
0.03710876 0.008822117 0.052174028 0.04853524 -0.031817544 -0.042343903 -0.009690892 0.051584184
0.013256844 -0.012656951 -0.060821213 0.014016747 0.03315307 0.041007265 0.057573546 -0.038029872
-0.061988045 0.03678364 0.012500469 0.009896214 0.059872437 0.06106211 -0.023157474 0.023241209
-0.051967602 -0.05139896 -0.0404187 0.0458912 -0.027317202 0.03295841 -0.07976849 -0.049841307
-0.016990615 -0.0072597936 -0.042082153 0.033435028 -0.0032801887 0.07472844 -0.04480978 0.00840247
0.026306648 0.000281727 -0.01927057 -0.009910217 -0.01101521 -0.03350139 -0.0042655724 0.041577507
0.051533576 -0.054730203 0.05776376 -0.048889622 0.04244569 -0.0116241835 0.046947848 -0.015502981
0.06006572 -0.043873455 -0.024765924 0.05936947 0.032663852 0.02992302 -0.024941456 -0.053573187
-0.025921494 -0.056951847 -0.053319555 0.033627957 0.053382337 -0.06555123 0.055069283 -0.029714782
0.019276233 0.03924105 -0.057098243 0.01045707 -0.012332706 0.051352132 0.04242929 0.024441639
-0.021185104 -0.039571423 0.050739307 0.029527312 -0.052025814 0.04636247 -0.0043921135 -0.026147695
0.02478363 0.053500727 0.03011595 0.04910061 -0.04936037 0.03217296 -0.03365368 0.0047382037
-0.026804956 0.04197324 -0.020885857 0.012425074 -0.039388463 0.011162743 0.04117682 0.023040114
-0.0115535315 -0.0033607073 -0.03920239 -0.026522001 0.076897055 -0.035364628 -0.015112844 0.03929108
-0.018547282 0.010001204 0.058547292 -0.056752454 0.056139376 0.052982796 -0.007035537 0.03973876
0.06571137 0.027333852 0.04599799 -0.03357144 0.037716545 -0.050633315 0.010362425 0.05512519
0.018301377 -0.050016098 0.025814485 -0.009288846 -0.013891975 0.014804413 0.048135195 -0.06506452
-0.02831731 0.032884844 0.047909424 -0.02729886 -0.054697655 -0.056757357 0.011128684 0.036827438
-0.024881158 -0.033641875 0.008422121 0.061519023 -0.02100982 0.0031976118 -0.017011106 0.002713499
